MLagents/results/hb_02/Mario/Mario-21.pt (torch, 696567 bytes, 23 tensors)

network_body.vector_processors.0.normalizer.running_mean f4 [69]
0	0x00000000	0.0
1	0x00000000	0.0
2	0x3f745d1a	0.9545456
3	0x3f745d1a	0.9545456
4	0x3dba2e8c	0.09090909
5	0x00000000	0.0
6	0x00000000	0.0
7	0x00000000	0.0
8	0x3dba2e8c	0.09090909
9	0x00000000	0.0
10	0x00000000	0.0
11	0x00000000	0.0
12	0x3dba2e8c	0.09090909
13	0x00000000	0.0
14	0x00000000	0.0
15	0x00000000	0.0
16	0x3dba2e8c	0.09090909
17	0x00000000	0.0
18	0x00000000	0.0
19	0x00000000	0.0
20	0x3dba2e8c	0.09090909
21	0x00000000	0.0
22	0x00000000	0.0
23	0x00000000	0.0
24	0x3dba2e8c	0.09090909
25	0x00000000	0.0
26	0x00000000	0.0
27	0x00000000	0.0
28	0x3dba2e8c	0.09090909
29	0x00000000	0.0
30	0x00000000	0.0
31	0x00000000	0.0
32	0x3dba2e8c	0.09090909
33	0x00000000	0.0
34	0x00000000	0.0
35	0x00000000	0.0
36	0x3e0ba2e9	0.13636364
37	0x00000000	0.0
38	0x00000000	0.0
39	0x00000000	0.0
40	0x3dba2e8c	0.09090909
41	0x00000000	0.0
42	0x00000000	0.0
43	0x00000000	0.0
44	0x3d3a2e8c	0.045454547
45	0x00000000	0.0
46	0x00000000	0.0
47	0x00000000	0.0
48	0x3dba2e8c	0.09090909
49	0x00000000	0.0
50	0x00000000	0.0
51	0x00000000	0.0
52	0x3e68ba2f	0.22727273
53	0x00000000	0.0
54	0x00000000	0.0
55	0x00000000	0.0
56	0x3dba2e8c	0.09090909
57	0x00000000	0.0
58	0x00000000	0.0
59	0x00000000	0.0
60	0x3f745d1a	0.9545456
61	0x00000000	0.0
62	0x00000000	0.0
63	0x3ee55f54	0.44799292
64	0x3ed31ddc	0.41233718
65	0x00000000	0.0
66	0xbf745b4c	-0.9545181
67	0x3b96a112	0.004596838
68	0x00000000	0.0

network_body.vector_processors.0.normalizer.running_variance f4 [69]
0	0x3f800000	1.0
1	0x3f800000	1.0
2	0x3ffa2e6f	1.954542
3	0x3ffa2e6f	1.954542
4	0x40345d17	2.8181818
5	0x3f800000	1.0
6	0x3f800000	1.0
7	0x3f800000	1.0
8	0x40345d17	2.8181818
9	0x3f800000	1.0
10	0x3f800000	1.0
11	0x3f800000	1.0
12	0x40345d17	2.8181818
13	0x3f800000	1.0
14	0x3f800000	1.0
15	0x3f800000	1.0
16	0x40345d17	2.8181818
17	0x3f800000	1.0
18	0x3f800000	1.0
19	0x3f800000	1.0
20	0x40345d17	2.8181818
21	0x3f800000	1.0
22	0x3f800000	1.0
23	0x3f800000	1.0
24	0x40345d17	2.8181818
25	0x3f800000	1.0
26	0x3f800000	1.0
27	0x3f800000	1.0
28	0x40345d17	2.8181818
29	0x3f800000	1.0
30	0x3f800000	1.0
31	0x3f800000	1.0
32	0x40345d17	2.8181818
33	0x3f800000	1.0
34	0x3f800000	1.0
35	0x3f800000	1.0
36	0x4065d174	3.590909
37	0x3f800000	1.0
38	0x3f800000	1.0
39	0x3f800000	1.0
40	0x40345d17	2.8181818
41	0x3f800000	1.0
42	0x3f800000	1.0
43	0x3f800000	1.0
44	0x3ffa2e8c	1.9545455
45	0x3f800000	1.0
46	0x3f800000	1.0
47	0x3f800000	1.0
48	0x40345d17	2.8181818
49	0x3f800000	1.0
50	0x3f800000	1.0
51	0x3f800000	1.0
52	0x409ba2e8	4.863636
53	0x3f800000	1.0
54	0x3f800000	1.0
55	0x3f800000	1.0
56	0x40345d17	2.8181818
57	0x3f800000	1.0
58	0x3f800000	1.0
59	0x3f800000	1.0
60	0x3ffa2e6f	1.954542
61	0x3f800000	1.0
62	0x3f800000	1.0
63	0x404659d8	3.0992336
64	0x413beb40	11.744934
65	0x3f800000	1.0
66	0x3ffa2cc6	1.9544914
67	0x3f80182e	1.0007379
68	0x3f800000	1.0

network_body.linear_encoder.seq_layers.0.weight f4 [256, 69]
0	0xbc1c94c7	-0.009556956
1	0xbd48f076	-0.049057446
2	0x3e63ecc1	0.22258283
3	0xbd7fef0a	-0.062483825
4	0xbd4ac5a5	-0.049504895
5	0x3b2f26f0	0.002672609
6	0xbab3d217	-0.0013719228
7	0xbd892900	-0.06697273
8	0xbbfffa99	-0.007811856
9	0x3c2f4ac4	0.010698978
10	0x3dbfb1fd	0.093601204
11	0xbe24add8	-0.16081941
12	0x3c2b4104	0.010452513
13	0x3bf1c6e0	0.007378444
14	0x3bdecc7a	0.006799278
15	0x3d1b4388	0.0379062
16	0xbe11cc5f	-0.14238118
17	0xbd6befe9	-0.057601843
18	0xbcf48d6b	-0.02985259
19	0xbddc98a9	-0.10771305
20	0x3da9f54b	0.08298739
21	0xbd0dc2c4	-0.03460957
22	0x3e5c5a62	0.21518853
23	0xbd3e8469	-0.046512995
24	0x3c83c9dd	0.016087467
25	0x3e66be0c	0.22533435
26	0x3e34a487	0.17640887
27	0xbdb13556	-0.08652751
28	0xbd063eb9	-0.03277466
29	0xbd0adf25	-0.033904213
30	0xbe1e4c29	-0.1545874
31	0xbe5cf5fb	-0.21578209
32	0x3ce93227	0.028466297
33	0x3cc3d088	0.023903146
34	0xbe1e0da2	-0.15434888
35	0x3dd4195c	0.103563994
36	0xbc17e8d6	-0.009271821
37	0xbd8d2033	-0.06890907
38	0xbbc4d511	-0.006006845
39	0xbe86fada	-0.2636326
40	0x3e828dba	0.25498754
41	0xbe35e55f	-0.1776328
42	0xbd71a0ea	-0.05899135
43	0x3d49bd4a	0.049252786
44	0x3e8443db	0.2583302
45	0x3e170452	0.14747742
46	0x3d1b658b	0.037938636
47	0xbddffdad	-0.10937057
48	0xbd97e82a	-0.07417329
49	0xbe6a10cd	-0.22857971
50	0xbd3aec09	-0.045635257
51	0xbd05628b	-0.03256468
52	0xbe18e90f	-0.14932655
53	0xbe5b94f3	-0.21443538
54	0x3ddf6ee2	0.10909821
55	0xbcd17f15	-0.025573293
56	0xbd8ac011	-0.06774915
57	0x3d0df1eb	0.03465454
58	0xbdabd76c	-0.08390698
59	0xbe0482ed	-0.12940569
60	0xbe472f5c	-0.1945166
61	0x3dc9efee	0.09860216
62	0x3d481a35	0.048853118
63	0x3d165976	0.03670641
64	0xbe4d291f	-0.20035218
65	0xbe057935	-0.13034518
66	0xbdca7caa	-0.09887059
67	0x3de0d649	0.10978372
68	0xbe32d140	-0.17462635
69	0xbd4deb23	-0.050273072
70	0xbd637109	-0.05552772
71	0xbd9520a6	-0.07281618
72	0x3d60c847	0.0548785
73	0x3c2da516	0.010598442
74	0x3db4d789	0.088301726
75	0x3e4cab19	0.19987144
76	0xbd81eae1	-0.06343628
77	0x3e355202	0.17707065
78	0xbc4ecd85	-0.012622242
79	0x3e96558a	0.29362136
80	0x3dbcfee7	0.09228306
81	0x3df4d80d	0.11955271
82	0xbcabcdb4	-0.02097211
83	0xbdf0902b	-0.11746248
84	0xbd5fe268	-0.054659277
85	0x3d5f64c9	0.054539476
86	0x3d4ee56c	0.050511762
87	0xbe5cb45f	-0.21553181
88	0xbe84a41a	-0.2590645
89	0xbd83b378	-0.06430715
90	0xbe0fe4bc	-0.14052099
91	0x3ebba93e	0.3665256
92	0xbc189f7c	-0.009315368
93	0x3d0e5d98	0.034757227
94	0x3d03cc95	0.032177527
95	0x3ccc2ae8	0.024922803
96	0xbdf7ab14	-0.120931774
97	0x3c896853	0.016773378
98	0xbd030dde	-0.031995647
99	0x3dd6fffa	0.104980424
100	0xbe1b1f84	-0.15148741
101	0xbdbe338f	-0.09287178
102	0x3e588acc	0.21146697
103	0xbc57a0a5	-0.013160859
104	0xbd73ebe6	-0.059551142
105	0xbe241c2e	-0.16026375
106	0xbe222971	-0.15836121
107	0xbe3f87a5	-0.18704088
108	0xbe4b4be4	-0.19853169
109	0x3df49394	0.11942211
110	0xbe6b3584	-0.22969633
111	0xbbf512b8	-0.007479038
112	0x3e5d4d57	0.21611534
113	0x3dc7ce33	0.09756126
114	0xbc28b762	-0.010297628
115	0x3e35fac0	0.17771435
116	0xbd07f343	-0.033190977
117	0x3e2b75b1	0.16744114
118	0xbba34a2f	-0.0049832086
119	0xbddb7ac7	-0.10716777
120	0xbd7b0d99	-0.061292265
121	0xbca43352	-0.020044003
122	0x3d8dfeb2	0.06933345
123	0xbc16e2d7	-0.009209356
124	0x3e0cbae1	0.13743164
125	0xbe076e0c	-0.13225573
126	0xbcd59a15	-0.026074449
127	0x3e3a6ffe	0.18206784
128	0xbe3bb28e	-0.18329832
129	0xbdc0398a	-0.09385975
130	0xbe34d261	-0.17658378
131	0xbe2b6023	-0.16735892
132	0xbe362a69	-0.17789616
133	0xbe4c2a74	-0.1993807
134	0xbdb06163	-0.08612325
135	0x3cfdcb35	0.030980686
136	0x3e0a0b5f	0.134809
137	0xbe2c9010	-0.1685183
138	0x3db10b5a	0.08644743
139	0xbd504960	-0.050851226
140	0x3d7e9e9d	0.062162984
141	0x3cec893f	0.028874038
142	0xbe32022f	-0.17383645
143	0x3e3a5a63	0.18198542
144	0x3cf4a1ad	0.02986225
145	0x3c159194	0.009128947
146	0x3d8e1fb9	0.06939644
147	0xbe567959	-0.20944728
148	0x3da4ef1b	0.08053418
149	0xbd41c7a0	-0.047309518
150	0x3d65c356	0.05609449
151	0x3bef9fc0	0.007312745
152	0x3e03167e	0.12801549
153	0xbd22d6b1	-0.039755527
154	0x3d08f650	0.033438027
155	0x3d8045af	0.06263291
156	0xb8860f56	-6.3924745e-05
157	0xbdf68f99	-0.12039108
158	0xbdab3745	-0.08360151
159	0xbe2a3109	-0.16620268
160	0xbcc58f5c	-0.02411621
161	0x3da4ac37	0.0804066
162	0x3e4093e2	0.18806413
163	0xbd88839f	-0.0666573
164	0xbd348eb3	-0.0440814
165	0xbe002be5	-0.12516744
166	0x3d379597	0.044820394
167	0xbd3a1bd7	-0.045436706
168	0xbbcc783f	-0.0062399204
169	0xbce13ef2	-0.027495835
170	0xbd9827e8	-0.074294865
171	0x3dde810a	0.10864456
172	0x3d3dfea4	0.046385422
173	0xbdda6270	-0.10663307
174	0x3e29ef7a	0.1659526
175	0x3cbe9004	0.023262031
176	0xbdaeb039	-0.085297056
177	0xbd6afcb2	-0.057369895
178	0xbde78374	-0.113043696
179	0xbe570603	-0.20998387
180	0xbe5de9cb	-0.21671216
181	0xbe559d13	-0.208607
182	0xbd2efa2d	-0.042719055
183	0xbea75313	-0.32680568
184	0xbdb56cf6	-0.08858673
185	0x3cf35ae5	0.029706428
186	0x3ccfbc5f	0.025358377
187	0x3e716abd	0.23575874
188	0xbda72e2f	-0.08163106
189	0x3d9da627	0.07697707
190	0xbc74f6ee	-0.014951451
191	0xbda456ae	-0.08024345
192	0xbd26761b	-0.040639978
193	0x3dd07d30	0.101801276
194	0x3dffd1d6	0.12491195
195	0xbe34b316	-0.17646441
196	0x3de97160	0.11398578
197	0x3d1e3a7f	0.038630005
198	0x3dbb0b7f	0.09133052
199	0x3e4454a0	0.19172907
200	0xbcb0453c	-0.021517389
201	0x3dd22eb3	0.102628134
202	0x3e6c6691	0.23086001
203	0x3e6b22d1	0.229625
204	0xbd4402b9	-0.04785416
205	0xbe13a9f4	-0.144203
206	0x3e67533b	0.22590344
207	0x3e73a4e0	0.23793364
208	0xbec295a4	-0.38004792
209	0xbdbc5195	-0.09195248
210	0xbdff12ba	-0.12454744
211	0xbca7fb23	-0.020505494
212	0xbe1ec399	-0.15504302
213	0x3de53e03	0.111934684
214	0x3d45602d	0.048187423
215	0xbe2b03a6	-0.1670061
216	0x3d17664b	0.03696279
217	0x3e137157	0.14398704
218	0x3e577f04	0.21044546
219	0x3e1b15eb	0.1514508
220	0xbd728ec3	-0.05921818
221	0xbdd2a3da	-0.102851585
222	0x3c441f23	0.011970314
223	0xbbe2fa70	-0.006926827
224	0xbd872738	-0.06599277
225	0x3d4a5a77	0.04940268
226	0x3dcee2bd	0.10101841
227	0x3e044d90	0.12920213
228	0xbe2111bc	-0.15729421
229	0xbc5daec6	-0.013530439
230	0x3d986db0	0.07442796
231	0xbc06f569	-0.008237221
232	0xbe5705bc	-0.20998281
233	0xbc7425c2	-0.01490158
234	0xbccc8786	-0.024966966
235	0x3d2e3c06	0.04253771
236	0xbe4be357	-0.19910942
237	0x3cd4e13f	0.025986312
238	0x3e03f5f4	0.12886792
239	0xbe071fbb	-0.13195698
240	0x3e1ff7b9	0.15621842
241	0x3e825123	0.25452527
242	0xbc9d36a8	-0.019191101
243	0xbdef5841	-0.11686755
244	0xbe65c79b	-0.22439425
245	0xbce88031	-0.028381439
246	0xbd7447bf	-0.059638735
247	0x3d51fdd1	0.05126745
248	0xbdee5e82	-0.1163912
249	0x3e64182a	0.22274843
250	0xbcbf8f75	-0.023383835
251	0x3e3d3394	0.18476707
252	0x3de73e90	0.1129123
253	0x3d3d6c80	0.04624605
254	0x3e0d8b07	0.13822566
255	0x3d80e79c	0.06294176

network_body.linear_encoder.seq_layers.0.bias f4 [256]
0	0x00000000	0.0
1	0x00000000	0.0
2	0x00000000	0.0
3	0x00000000	0.0
4	0x00000000	0.0
5	0x00000000	0.0
6	0x00000000	0.0
7	0x00000000	0.0
8	0x00000000	0.0
9	0x00000000	0.0
10	0x00000000	0.0
11	0x00000000	0.0
12	0x00000000	0.0
13	0x00000000	0.0
14	0x00000000	0.0
15	0x00000000	0.0
16	0x00000000	0.0
17	0x00000000	0.0
18	0x00000000	0.0
19	0x00000000	0.0
20	0x00000000	0.0
21	0x00000000	0.0
22	0x00000000	0.0
23	0x00000000	0.0
24	0x00000000	0.0
25	0x00000000	0.0
26	0x00000000	0.0
27	0x00000000	0.0
28	0x00000000	0.0
29	0x00000000	0.0
30	0x00000000	0.0
31	0x00000000	0.0
32	0x00000000	0.0
33	0x00000000	0.0
34	0x00000000	0.0
35	0x00000000	0.0
36	0x00000000	0.0
37	0x00000000	0.0
38	0x00000000	0.0
39	0x00000000	0.0
40	0x00000000	0.0
41	0x00000000	0.0
42	0x00000000	0.0
43	0x00000000	0.0
44	0x00000000	0.0
45	0x00000000	0.0
46	0x00000000	0.0
47	0x00000000	0.0
48	0x00000000	0.0
49	0x00000000	0.0
50	0x00000000	0.0
51	0x00000000	0.0
52	0x00000000	0.0
53	0x00000000	0.0
54	0x00000000	0.0
55	0x00000000	0.0
56	0x00000000	0.0
57	0x00000000	0.0
58	0x00000000	0.0
59	0x00000000	0.0
60	0x00000000	0.0
61	0x00000000	0.0
62	0x00000000	0.0
63	0x00000000	0.0
64	0x00000000	0.0
65	0x00000000	0.0
66	0x00000000	0.0
67	0x00000000	0.0
68	0x00000000	0.0
69	0x00000000	0.0
70	0x00000000	0.0
71	0x00000000	0.0
72	0x00000000	0.0
73	0x00000000	0.0
74	0x00000000	0.0
75	0x00000000	0.0
76	0x00000000	0.0
77	0x00000000	0.0
78	0x00000000	0.0
79	0x00000000	0.0
80	0x00000000	0.0
81	0x00000000	0.0
82	0x00000000	0.0
83	0x00000000	0.0
84	0x00000000	0.0
85	0x00000000	0.0
86	0x00000000	0.0
87	0x00000000	0.0
88	0x00000000	0.0
89	0x00000000	0.0
90	0x00000000	0.0
91	0x00000000	0.0
92	0x00000000	0.0
93	0x00000000	0.0
94	0x00000000	0.0
95	0x00000000	0.0
96	0x00000000	0.0
97	0x00000000	0.0
98	0x00000000	0.0
99	0x00000000	0.0
100	0x00000000	0.0
101	0x00000000	0.0
102	0x00000000	0.0
103	0x00000000	0.0
104	0x00000000	0.0
105	0x00000000	0.0
106	0x00000000	0.0
107	0x00000000	0.0
108	0x00000000	0.0
109	0x00000000	0.0
110	0x00000000	0.0
111	0x00000000	0.0
112	0x00000000	0.0
113	0x00000000	0.0
114	0x00000000	0.0
115	0x00000000	0.0
116	0x00000000	0.0
117	0x00000000	0.0
118	0x00000000	0.0
119	0x00000000	0.0
120	0x00000000	0.0
121	0x00000000	0.0
122	0x00000000	0.0
123	0x00000000	0.0
124	0x00000000	0.0
125	0x00000000	0.0
126	0x00000000	0.0
127	0x00000000	0.0
128	0x00000000	0.0
129	0x00000000	0.0
130	0x00000000	0.0
131	0x00000000	0.0
132	0x00000000	0.0
133	0x00000000	0.0
134	0x00000000	0.0
135	0x00000000	0.0
136	0x00000000	0.0
137	0x00000000	0.0
138	0x00000000	0.0
139	0x00000000	0.0
140	0x00000000	0.0
141	0x00000000	0.0
142	0x00000000	0.0
143	0x00000000	0.0
144	0x00000000	0.0
145	0x00000000	0.0
146	0x00000000	0.0
147	0x00000000	0.0
148	0x00000000	0.0
149	0x00000000	0.0
150	0x00000000	0.0
151	0x00000000	0.0
152	0x00000000	0.0
153	0x00000000	0.0
154	0x00000000	0.0
155	0x00000000	0.0
156	0x00000000	0.0
157	0x00000000	0.0
158	0x00000000	0.0
159	0x00000000	0.0
160	0x00000000	0.0
161	0x00000000	0.0
162	0x00000000	0.0
163	0x00000000	0.0
164	0x00000000	0.0
165	0x00000000	0.0
166	0x00000000	0.0
167	0x00000000	0.0
168	0x00000000	0.0
169	0x00000000	0.0
170	0x00000000	0.0
171	0x00000000	0.0
172	0x00000000	0.0
173	0x00000000	0.0
174	0x00000000	0.0
175	0x00000000	0.0
176	0x00000000	0.0
177	0x00000000	0.0
178	0x00000000	0.0
179	0x00000000	0.0
180	0x00000000	0.0
181	0x00000000	0.0
182	0x00000000	0.0
183	0x00000000	0.0
184	0x00000000	0.0
185	0x00000000	0.0
186	0x00000000	0.0
187	0x00000000	0.0
188	0x00000000	0.0
189	0x00000000	0.0
190	0x00000000	0.0
191	0x00000000	0.0
192	0x00000000	0.0
193	0x00000000	0.0
194	0x00000000	0.0
195	0x00000000	0.0
196	0x00000000	0.0
197	0x00000000	0.0
198	0x00000000	0.0
199	0x00000000	0.0
200	0x00000000	0.0
201	0x00000000	0.0
202	0x00000000	0.0
203	0x00000000	0.0
204	0x00000000	0.0
205	0x00000000	0.0
206	0x00000000	0.0
207	0x00000000	0.0
208	0x00000000	0.0
209	0x00000000	0.0
210	0x00000000	0.0
211	0x00000000	0.0
212	0x00000000	0.0
213	0x00000000	0.0
214	0x00000000	0.0
215	0x00000000	0.0
216	0x00000000	0.0
217	0x00000000	0.0
218	0x00000000	0.0
219	0x00000000	0.0
220	0x00000000	0.0
221	0x00000000	0.0
222	0x00000000	0.0
223	0x00000000	0.0
224	0x00000000	0.0
225	0x00000000	0.0
226	0x00000000	0.0
227	0x00000000	0.0
228	0x00000000	0.0
229	0x00000000	0.0
230	0x00000000	0.0
231	0x00000000	0.0
232	0x00000000	0.0
233	0x00000000	0.0
234	0x00000000	0.0
235	0x00000000	0.0
236	0x00000000	0.0
237	0x00000000	0.0
238	0x00000000	0.0
239	0x00000000	0.0
240	0x00000000	0.0
241	0x00000000	0.0
242	0x00000000	0.0
243	0x00000000	0.0
244	0x00000000	0.0
245	0x00000000	0.0
246	0x00000000	0.0
247	0x00000000	0.0
248	0x00000000	0.0
249	0x00000000	0.0
250	0x00000000	0.0
251	0x00000000	0.0
252	0x00000000	0.0
253	0x00000000	0.0
254	0x00000000	0.0
255	0x00000000	0.0

network_body.linear_encoder.seq_layers.2.weight f4 [256, 256]
0	0x3cd13244	0.025536664
1	0xbe0e778b	-0.1391279
2	0xbd1da22b	-0.038484734
3	0xbc8cd0e1	-0.017189445
4	0x3c7397b3	0.014867711
5	0xbd5e3016	-0.054245077
6	0xbe051417	-0.12995945
7	0xbcd96d35	-0.026541332
8	0xbd9eac08	-0.07747656
9	0xbd70a38d	-0.058749724
10	0x3e1f5288	0.15558827
11	0x3c42bd3f	0.01188594
12	0xbd8752bc	-0.06607577
13	0x3ccecd96	0.025244515
14	0x3c53b3e9	0.012921312
15	0xbcfb9f93	-0.03071574
16	0x3e0c3414	0.13691741
17	0x3e173fb7	0.14770399
18	0xbd97e5a1	-0.07416845
19	0x3c22cd73	0.009936678
20	0x3c525a69	0.012838938
21	0xbcea681b	-0.028614094
22	0xbcf7d225	-0.030251572
23	0x3dc520c1	0.09625388
24	0xbcf010cb	-0.029304883
25	0x3d5df0f6	0.054184876
26	0x3bea46fc	0.0071495753
27	0xbd40da0e	-0.047082953
28	0xbdabce43	-0.08388951
29	0x3d67b872	0.056572385
30	0x3d274f31	0.040847007
31	0x3cd4f075	0.025993565
32	0xbc76d582	-0.015065553
33	0x3dfefcfd	0.124505974
34	0x3da800fc	0.08203313
35	0xbdedd27d	-0.11612413
36	0xbd2b7bbd	-0.041866053
37	0xbdb4cf9a	-0.08828659
38	0xbd8ebcc0	-0.06969595
39	0xbccc01aa	-0.024903137
40	0xbdaf1ad2	-0.085500374
41	0xbce504c6	-0.027956378
42	0x3c0c5454	0.008565027
43	0xbbbcef9e	-0.0057658693
44	0xbc837c74	-0.016050555
45	0xbe25561c	-0.1614613
46	0xbd53151c	-0.051533803
47	0xbe1380a7	-0.14404546
48	0x3e09265a	0.13393536
49	0x3c72b269	0.014813044
50	0x3b8ad2e3	0.0042365654
51	0xbc48ffe6	-0.012268042
52	0xbcf802c6	-0.03027476
53	0x3ddac700	0.106824875
54	0x3d8c054d	0.068369485
55	0xbcf0768b	-0.0293534
56	0xbc23d12d	-0.009998602
57	0x3a47b089	0.00076175533
58	0x3dca603c	0.098816365
59	0x3c17aeb1	0.009257958
60	0xbbf3088e	-0.0074167913
61	0xbcf818b5	-0.030285219
62	0x3c51fa4d	0.012816024
63	0xbd6cecba	-0.057842948
64	0xbe4af2fe	-0.19819257
65	0x3c3f38dc	0.011671271
66	0xbce35649	-0.027751105
67	0xbd7a79f6	-0.061151467
68	0x3cc99c9c	0.02461081
69	0xbceca586	-0.028887521
70	0xbd94d61b	-0.072674
71	0x3d0ea433	0.03482456
72	0x3d864bf9	0.065574594
73	0x3c2025c0	0.009774625
74	0x3e0ef55f	0.13960789
75	0x3d0acaca	0.0338848
76	0x3d807abe	0.06273411
77	0xbd7fa557	-0.06241354
78	0x3c84adb2	0.016196106
79	0xbe086a7f	-0.13321875
80	0xbc7f3339	-0.015576177
81	0x3d12c75a	0.035834648
82	0x3e02aa3d	0.12760253
83	0x3dd9932e	0.106237754
84	0x3c866886	0.016407263
85	0xbbc00f18	-0.0058611743
86	0x3cde5da3	0.027144259
87	0xbc329fa9	-0.010902324
88	0x3d025393	0.031817984
89	0x3cc2e11b	0.02378898
90	0xbd0ee080	-0.03488207
91	0xbd21f19f	-0.03953707
92	0xbcf657c3	-0.030071145
93	0xbccceea2	-0.025016133
94	0x3c31ad35	0.010844518
95	0xbc8bc245	-0.017060408
96	0x3c5e5936	0.013571074
97	0x3ddee434	0.1088337
98	0x3dd10da7	0.10207682
99	0xbd1d7cdf	-0.038449164
100	0x3d89784d	0.06712399
101	0xbdbc63af	-0.09198701
102	0xbca614b2	-0.02027354
103	0x3d35b820	0.04436505
104	0xbdfe8fc2	-0.124297634
105	0xbd6fd7cb	-0.058555406
106	0xbb33ab24	-0.002741524
107	0x3c5bdbc4	0.013419095
108	0xbd352ba9	-0.04423109
109	0x3d1460e4	0.036225215
110	0xbbed2cdd	-0.007238014
111	0xbd9c2c84	-0.07625678
112	0xbd1ffb77	-0.039058175
113	0xbd729d23	-0.05923189
114	0x3d38a221	0.045076493
115	0x3c1ad3e8	0.009449936
116	0x3dadd2b1	0.08487452
117	0xbc322f00	-0.0108754635
118	0x3daa9bdd	0.0833051
119	0xbce7d155	-0.02829806
120	0xbd4bd69e	-0.04976522
121	0x3c90d7da	0.017681051
122	0xbe13b31a	-0.1442379
123	0xbcfa5964	-0.030560203
124	0x3d87b2d0	0.06625903
125	0xbe065d1c	-0.13121456
126	0xbd88b02b	-0.066742264
127	0x3c099e75	0.0083995955
128	0x3d353ae0	0.0442456
129	0x3d684ceb	0.05671398
130	0xbd894a69	-0.06703646
131	0xbd91ccb0	-0.07119119
132	0x3c4304bd	0.011902985
133	0x3be64e1f	0.0070283557
134	0xbe03cfd3	-0.12872247
135	0x3d589665	0.052877802
136	0x3d41dfc6	0.047332548
137	0xbd985bef	-0.0743941
138	0xbcf140ea	-0.029449899
139	0x3cf35b8f	0.029706744
140	0xbd046bd9	-0.032329414
141	0xbd44eac1	-0.04807544
142	0x3c469b96	0.0121220555
143	0xbd636bf5	-0.055522878
144	0xbda1c7cf	-0.078994386
145	0xbd5acfcd	-0.05342083
146	0xbcb9e195	-0.022690574
147	0x3d97e02c	0.07415804
148	0x3bb8ea67	0.0056431773
149	0xbd3e86bf	-0.046515223
150	0xbdeb48c8	-0.11488491
151	0xbbe5f7c9	-0.0070180637
152	0x3db4807b	0.08813568
153	0x3aa35624	0.0012461585
154	0x3df42d44	0.11922696
155	0xbc7baa39	-0.015360408
156	0xbd4b81e1	-0.04968441
157	0xbd052d54	-0.03251393
158	0x3d5e806e	0.0543217
159	0xbcb49a3c	-0.0220462
160	0xbd56d8bf	-0.0524528
161	0x3d481a1f	0.048853036
162	0x3d8fb0e8	0.07016164
163	0x3d3bbcd0	0.045834363
164	0xbdf111d3	-0.11770978
165	0x3e5275f4	0.20552808
166	0xbce5aa98	-0.028035447
167	0xbe00ac7d	-0.12565799
168	0x3d2daec1	0.042402986
169	0x3d775be3	0.060390364
170	0xbc8ec642	-0.017428521
171	0x3d5e499c	0.054269418
172	0xbd346eb5	-0.04405089
173	0x3d819884	0.06327918
174	0x3d1d210b	0.03836159
175	0x3d8c23b5	0.06842748
176	0xbd674394	-0.056460932
177	0x3d8b2387	0.06793886
178	0xbaf0db6d	-0.0018375941
179	0x3d22e04d	0.03976469
180	0x3b26ebb9	0.0025470091
181	0x3d3d3287	0.046190765
182	0xbd0c87cb	-0.03430919
183	0x3d93c5b0	0.0721544
184	0x3dd5a3ad	0.10431609
185	0xbd2beb5a	-0.041972496
186	0x3c327712	0.010892646
187	0x3d970abe	0.07375096
188	0x3e11552a	0.14192644
189	0x3ce7500e	0.028236415
190	0x3c002bdd	0.007822958
191	0x3db4ecdc	0.0883424
192	0xbd01dc5a	-0.031704284
193	0x3d3ea1fb	0.046541195
194	0x3d4f9e5d	0.050688136
195	0x3cc21c8f	0.023695258
196	0x3da2d9e8	0.079517186
197	0xbda5b36f	-0.08090865
198	0xbd8f7135	-0.070040144
199	0x3d96250c	0.07331285
200	0x3ccc610b	0.024948617
201	0x3d92688b	0.07148846
202	0x3a22e840	0.00062144175
203	0xbca70b3d	-0.020391101
204	0xbd89aca4	-0.06722382
205	0x3d85252f	0.06501233
206	0xbc91b507	-0.017786516
207	0xbd77e920	-0.06052506
208	0x3c98b3af	0.018640367
209	0x3da65e2b	0.0812343
210	0x3d896705	0.067091025
211	0xbc2d52e5	-0.010578846
212	0xbe2e3299	-0.17011489
213	0xbc8e0b38	-0.017339334
214	0x38ed5bd0	0.00011318142
215	0x3d52629f	0.051363584
216	0x3c48a175	0.012245526
217	0x3d4e0715	0.050299723
218	0x3cc9c202	0.024628643
219	0x3cf8c8cb	0.030369183
220	0xbcb51831	-0.022106262
221	0xbd874101	-0.066041954
222	0x3cb5d697	0.022197051
223	0x3c9c85e2	0.019106809
224	0x3dd3b4ec	0.103372425
225	0xbe29672b	-0.16543262
226	0xbd936da2	-0.07198645
227	0xbcdef84a	-0.027218003
228	0xbbd1e78c	-0.0064057764
229	0xbdd0b6be	-0.10191105
230	0xbd2d6d48	-0.042340547
231	0x3dc94661	0.09827877
232	0x3df14897	0.117814235
233	0x3caf05e3	0.021365112
234	0x3e0f27c8	0.13980019
235	0x3d1bac18	0.03800592
236	0xbdb8113e	-0.08987664
237	0x3d951e56	0.07281177
238	0xbbaf3aeb	-0.0053475997
239	0xbd4655bd	-0.04842161
240	0x3dad3d8d	0.084590055
241	0xbd2781bc	-0.04089521
242	0xbd3ba0d6	-0.045807682
243	0xbce01cfe	-0.027357575
244	0x3d743f3e	0.059630625
245	0xbd74c89e	-0.059761636
246	0xbd46b9d4	-0.048517063
247	0x3caf9756	0.021434467
248	0x3ccc4961	0.024937334
249	0xbda1156d	-0.07865415
250	0xbcfd3172	-0.030907366
251	0xbd048fbb	-0.032363635
252	0xbd209dfc	-0.039213166
253	0x3d4966ec	0.04917042
254	0x3b4cc369	0.0031244403
255	0xbc2cb71e	-0.010541705

network_body.linear_encoder.seq_layers.2.bias f4 [256]
0	0x00000000	0.0
1	0x00000000	0.0
2	0x00000000	0.0
3	0x00000000	0.0
4	0x00000000	0.0
5	0x00000000	0.0
6	0x00000000	0.0
7	0x00000000	0.0
8	0x00000000	0.0
9	0x00000000	0.0
10	0x00000000	0.0
11	0x00000000	0.0
12	0x00000000	0.0
13	0x00000000	0.0
14	0x00000000	0.0
15	0x00000000	0.0
16	0x00000000	0.0
17	0x00000000	0.0
18	0x00000000	0.0
19	0x00000000	0.0
20	0x00000000	0.0
21	0x00000000	0.0
22	0x00000000	0.0
23	0x00000000	0.0
24	0x00000000	0.0
25	0x00000000	0.0
26	0x00000000	0.0
27	0x00000000	0.0
28	0x00000000	0.0
29	0x00000000	0.0
30	0x00000000	0.0
31	0x00000000	0.0
32	0x00000000	0.0
33	0x00000000	0.0
34	0x00000000	0.0
35	0x00000000	0.0
36	0x00000000	0.0
37	0x00000000	0.0
38	0x00000000	0.0
39	0x00000000	0.0
40	0x00000000	0.0
41	0x00000000	0.0
42	0x00000000	0.0
43	0x00000000	0.0
44	0x00000000	0.0
45	0x00000000	0.0
46	0x00000000	0.0
47	0x00000000	0.0
48	0x00000000	0.0
49	0x00000000	0.0
50	0x00000000	0.0
51	0x00000000	0.0
52	0x00000000	0.0
53	0x00000000	0.0
54	0x00000000	0.0
55	0x00000000	0.0
56	0x00000000	0.0
57	0x00000000	0.0
58	0x00000000	0.0
59	0x00000000	0.0
60	0x00000000	0.0
61	0x00000000	0.0
62	0x00000000	0.0
63	0x00000000	0.0
64	0x00000000	0.0
65	0x00000000	0.0
66	0x00000000	0.0
67	0x00000000	0.0
68	0x00000000	0.0
69	0x00000000	0.0
70	0x00000000	0.0
71	0x00000000	0.0
72	0x00000000	0.0
73	0x00000000	0.0
74	0x00000000	0.0
75	0x00000000	0.0
76	0x00000000	0.0
77	0x00000000	0.0
78	0x00000000	0.0
79	0x00000000	0.0
80	0x00000000	0.0
81	0x00000000	0.0
82	0x00000000	0.0
83	0x00000000	0.0
84	0x00000000	0.0
85	0x00000000	0.0
86	0x00000000	0.0
87	0x00000000	0.0
88	0x00000000	0.0
89	0x00000000	0.0
90	0x00000000	0.0
91	0x00000000	0.0
92	0x00000000	0.0
93	0x00000000	0.0
94	0x00000000	0.0
95	0x00000000	0.0
96	0x00000000	0.0
97	0x00000000	0.0
98	0x00000000	0.0
99	0x00000000	0.0
100	0x00000000	0.0
101	0x00000000	0.0
102	0x00000000	0.0
103	0x00000000	0.0
104	0x00000000	0.0
105	0x00000000	0.0
106	0x00000000	0.0
107	0x00000000	0.0
108	0x00000000	0.0
109	0x00000000	0.0
110	0x00000000	0.0
111	0x00000000	0.0
112	0x00000000	0.0
113	0x00000000	0.0
114	0x00000000	0.0
115	0x00000000	0.0
116	0x00000000	0.0
117	0x00000000	0.0
118	0x00000000	0.0
119	0x00000000	0.0
120	0x00000000	0.0
121	0x00000000	0.0
122	0x00000000	0.0
123	0x00000000	0.0
124	0x00000000	0.0
125	0x00000000	0.0
126	0x00000000	0.0
127	0x00000000	0.0
128	0x00000000	0.0
129	0x00000000	0.0
130	0x00000000	0.0
131	0x00000000	0.0
132	0x00000000	0.0
133	0x00000000	0.0
134	0x00000000	0.0
135	0x00000000	0.0
136	0x00000000	0.0
137	0x00000000	0.0
138	0x00000000	0.0
139	0x00000000	0.0
140	0x00000000	0.0
141	0x00000000	0.0
142	0x00000000	0.0
143	0x00000000	0.0
144	0x00000000	0.0
145	0x00000000	0.0
146	0x00000000	0.0
147	0x00000000	0.0
148	0x00000000	0.0
149	0x00000000	0.0
150	0x00000000	0.0
151	0x00000000	0.0
152	0x00000000	0.0
153	0x00000000	0.0
154	0x00000000	0.0
155	0x00000000	0.0
156	0x00000000	0.0
157	0x00000000	0.0
158	0x00000000	0.0
159	0x00000000	0.0
160	0x00000000	0.0
161	0x00000000	0.0
162	0x00000000	0.0
163	0x00000000	0.0
164	0x00000000	0.0
165	0x00000000	0.0
166	0x00000000	0.0
167	0x00000000	0.0
168	0x00000000	0.0
169	0x00000000	0.0
170	0x00000000	0.0
171	0x00000000	0.0
172	0x00000000	0.0
173	0x00000000	0.0
174	0x00000000	0.0
175	0x00000000	0.0
176	0x00000000	0.0
177	0x00000000	0.0
178	0x00000000	0.0
179	0x00000000	0.0
180	0x00000000	0.0
181	0x00000000	0.0
182	0x00000000	0.0
183	0x00000000	0.0
184	0x00000000	0.0
185	0x00000000	0.0
186	0x00000000	0.0
187	0x00000000	0.0
188	0x00000000	0.0
189	0x00000000	0.0
190	0x00000000	0.0
191	0x00000000	0.0
192	0x00000000	0.0
193	0x00000000	0.0
194	0x00000000	0.0
195	0x00000000	0.0
196	0x00000000	0.0
197	0x00000000	0.0
198	0x00000000	0.0
199	0x00000000	0.0
200	0x00000000	0.0
201	0x00000000	0.0
202	0x00000000	0.0
203	0x00000000	0.0
204	0x00000000	0.0
205	0x00000000	0.0
206	0x00000000	0.0
207	0x00000000	0.0
208	0x00000000	0.0
209	0x00000000	0.0
210	0x00000000	0.0
211	0x00000000	0.0
212	0x00000000	0.0
213	0x00000000	0.0
214	0x00000000	0.0
215	0x00000000	0.0
216	0x00000000	0.0
217	0x00000000	0.0
218	0x00000000	0.0
219	0x00000000	0.0
220	0x00000000	0.0
221	0x00000000	0.0
222	0x00000000	0.0
223	0x00000000	0.0
224	0x00000000	0.0
225	0x00000000	0.0
226	0x00000000	0.0
227	0x00000000	0.0
228	0x00000000	0.0
229	0x00000000	0.0
230	0x00000000	0.0
231	0x00000000	0.0
232	0x00000000	0.0
233	0x00000000	0.0
234	0x00000000	0.0
235	0x00000000	0.0
236	0x00000000	0.0
237	0x00000000	0.0
238	0x00000000	0.0
239	0x00000000	0.0
240	0x00000000	0.0
241	0x00000000	0.0
242	0x00000000	0.0
243	0x00000000	0.0
244	0x00000000	0.0
245	0x00000000	0.0
246	0x00000000	0.0
247	0x00000000	0.0
248	0x00000000	0.0
249	0x00000000	0.0
250	0x00000000	0.0
251	0x00000000	0.0
252	0x00000000	0.0
253	0x00000000	0.0
254	0x00000000	0.0
255	0x00000000	0.0

action_model._discrete_distribution.branches.0.weight f4 [3, 256]
0	0x3b2e3887	0.0026583986
1	0x3c2f80f5	0.010711898
2	0xbbb49f60	-0.005512163
3	0x3c2363cb	0.009972523
4	0x3ae48823	0.0017435591
5	0x3c00ff09	0.007873305
6	0x3bf4b71a	0.0074681165
7	0xbba3abf6	-0.0049948646
8	0xbc185a7d	-0.009298918
9	0x3a68788a	0.00088680594
10	0x3bf1eecb	0.0073832027
11	0x3b485d84	0.0030573318
12	0x3c5c804a	0.013458321
13	0xb9da541a	-0.0004164286
14	0x3b712340	0.0036794692
15	0xbbb4a6cb	-0.0055130473
16	0xbb86fd4e	-0.0041195517
17	0x3c20ad95	0.00980701
18	0x3a1fc79d	0.00060951133
19	0xbae318db	-0.0017326133
20	0x3a9e5c49	0.0012081946
21	0xbc2b654b	-0.010461162
22	0xbc6a51cd	-0.014301729
23	0x3c40408e	0.011734141
24	0x3c5c19db	0.013433899
25	0x3c56d627	0.013112581
26	0x3a9d5ed4	0.001200641
27	0x3baaa8ae	0.0052080965
28	0x3aad8681	0.0013238938
29	0x3bfdd232	0.0077460045
30	0xba275fab	-0.00063848
31	0xbb5c4f6a	-0.003361667
32	0xbbf63933	-0.007514143
33	0x3bb881b5	0.0056306967
34	0xb9d69182	-0.00040925673
35	0x3b2e9467	0.0026638748
36	0xb8ee2b4a	-0.000113567876
37	0x3b9cd794	0.004786441
38	0xbbad220c	-0.0052835997
39	0x3b1af7b4	0.0023646178
40	0xb9bfc03c	-0.00036573585
41	0x3c2a1093	0.010379928
42	0xbb831972	-0.004000836
43	0x3a806432	0.0009795486
44	0xbc33b594	-0.010968585
45	0xbc175713	-0.009237069
46	0x3c0a807f	0.008453487
47	0xb8f9e21a	-0.0001191536
48	0xbbdd1b8f	-0.00674767
49	0xbaa108c3	-0.0012285936
50	0x3bd6f570	0.00656002
51	0x3b0d047e	0.002151757
52	0x38a3d357	7.811811e-05
53	0x3b994cae	0.0046783304
54	0xbc344a39	-0.011004024
55	0x3ba02c91	0.004888125
56	0x3bf4b0eb	0.0074673793
57	0x3c01f899	0.007932805
58	0x3a337e0c	0.00068470906
59	0xba57006f	-0.0008201664
60	0x3c380580	0.01123178
61	0xbb828479	-0.003983077
62	0xbb21e05f	-0.0024700386
63	0xbb8e9edc	-0.0043524336
64	0xbc15628b	-0.009117733
65	0xba879504	-0.0010344093
66	0xbc00d8d7	-0.007864199
67	0x3c581957	0.013189635
68	0x3c1f0baf	0.009707375
69	0xbc31f005	-0.010860448
70	0x3c31c285	0.0108496
71	0xbb59ffbd	-0.0033264004
72	0x3b38d58f	0.0028203463
73	0xbb868075	-0.0041046687
74	0x3c075653	0.008260327
75	0xbacc7645	-0.0015599212
76	0x3b57dc6a	0.0032937774
77	0xbb2a7ffc	-0.0026016226
78	0xbc237c8b	-0.009978424
79	0xbb6ad23d	-0.0035830878
80	0xbae7a547	-0.0017673158
81	0x3bd96bc0	0.0066351593
82	0x3aeb6445	0.001795896
83	0x3adf2f07	0.0017027565
84	0x3b2786f0	0.0025562607
85	0xbc002815	-0.007822056
86	0xbb3453b7	-0.0027515718
87	0x3bbc13cc	0.0057396647
88	0xbb1517bf	-0.002274975
89	0xba341643	-0.00068697723
90	0xbb429c45	-0.0029695195
91	0x3b04dd94	0.0020273672
92	0xb884a908	-6.325735e-05
93	0x3c23e93d	0.010004339
94	0xbbb627a6	-0.0055589257
95	0xba288275	-0.0006428131
96	0x39189a3b	0.00014553305
97	0x3afe049f	0.0019380039
98	0x3b362ba5	0.002779701
99	0x3bfcf11b	0.0077191717
100	0x3aba145d	0.0014196743
101	0x38420913	4.6261655e-05
102	0x37c1367f	2.303277e-05
103	0xbb9021e9	-0.0043985737
104	0x3b687ab3	0.0035473525
105	0x3b0c7da5	0.0021437195
106	0xbb22183f	-0.002473369
107	0xbc72059d	-0.014771846
108	0xbb8b4099	-0.004249644
109	0x3b23b1c6	0.0024977787
110	0x3c216195	0.0098499255
111	0x3b8ca749	0.004292403
112	0x3c24d726	0.010061061
113	0x3a8975a6	0.0010487332
114	0x3b0c3594	0.002139424
115	0xbb79a573	-0.0038093
116	0x3bb04cbf	0.0053802426
117	0xbaf6b1b2	-0.0018821268
118	0xbc19dff3	-0.009391773
119	0x3c61f032	0.013790177
120	0xba61d097	-0.0008614151
121	0xbb66eb20	-0.003523536
122	0xbb95fbed	-0.004577151
123	0xbb2377ae	-0.002494316
124	0x388ea926	6.802594e-05
125	0xbb284fb4	-0.0025682272
126	0x3bcfecc7	0.0063453647
127	0x3acc8fa8	0.0015606778
128	0x3c136d43	0.008998218
129	0xbb1cf7a6	-0.002395132
130	0x3b4aa101	0.003091872
131	0xbbf32e0a	-0.00742126
132	0xbaead763	-0.0017916973
133	0xbb10e1e3	-0.0022107295
134	0x3b130668	0.0022434238
135	0x3b32867e	0.0027240808
136	0xbc905a1a	-0.017621089
137	0x3b9a7b67	0.0047144177
138	0x3bdec0b3	0.006797874
139	0x3bf3e4cf	0.0074430476
140	0xb97b5008	-0.0002396704
141	0xba1ea45a	-0.0006051712
142	0xba812f1d	-0.000985596
143	0x3b3c9402	0.0028774743
144	0x3bf17830	0.007369064
145	0xbbf2f475	-0.0074143955
146	0xba87d9af	-0.0010364557
147	0xbb0fee35	-0.002196205
148	0xbb7879cb	-0.003791439
149	0xbbbbbe64	-0.0057294834
150	0x3c7765df	0.015099972
151	0xbb89526c	-0.0041907337
152	0x3bb16cdb	0.005414588
153	0x3b510f62	0.0031900038
154	0xbb47f6db	-0.0030512128
155	0x3b82f39b	0.003996325
156	0xbbddc51a	-0.006767881
157	0xbbc25c6b	-0.0059314272
158	0x3b0342d0	0.0020028837
159	0xbb965bbb	-0.004588572
160	0xbb3192fa	-0.0027095661
161	0xbb65a905	-0.003504337
162	0x3bf85838	0.007578876
163	0xbc34e6ea	-0.011041382
164	0xbbb012e3	-0.005373345
165	0xbbacbc0f	-0.005271442
166	0xbb3b4a45	-0.0028578204
167	0x3b1bca6d	0.0023771778
168	0x3a8fc99a	0.0010970116
169	0x3bceb0a8	0.00630768
170	0x3a3b6375	0.0007148304
171	0x3b71af3a	0.0036878125
172	0xbbaf83e4	-0.0053562988
173	0x3be1d7da	0.0068921866
174	0xba87778f	-0.0010335314
175	0xbb8a1aa9	-0.004214604
176	0xbc3437d9	-0.010999643
177	0xbc33203c	-0.010932978
178	0xba8288f1	-0.0009959025
179	0x3bf40e92	0.007448026
180	0x3b2d21c5	0.0026417833
181	0xbaaf1a9a	-0.0013359368
182	0xbc0292d7	-0.00796958
183	0x3b95efb3	0.0045756935
184	0xbb222fb1	-0.0024747665
185	0x3c352f1c	0.011058595
186	0x3bc232df	0.0059264745
187	0xbb17af6c	-0.002314533
188	0xbbec9be8	-0.007220734
189	0x3a9c2243	0.0011912066
190	0xbc1289bd	-0.008943972
191	0x3c3242b3	0.01088016
192	0x3be622d8	0.0070231967
193	0xbc214747	-0.009843654
194	0xbb0a9fcf	-0.0021152382
195	0xbc142bc6	-0.0090436395
196	0xba3cd277	-0.00072029926
197	0xbbe49fc5	-0.006977054
198	0x3ad9b7ef	0.0016610603
199	0x3b3faf27	0.0029248686
200	0x3b36d4ed	0.002789791
201	0xbc1fca80	-0.00975287
202	0xbbdb5678	-0.0066936575
203	0x3b1b7f2b	0.002372692
204	0xba49d1a3	-0.000769878
205	0xbc1492cf	-0.009068205
206	0x3c4c0229	0.012451687
207	0x3b051635	0.0020307426
208	0xbbb94ef9	-0.005655166
209	0x3ad347f0	0.0016119462
210	0x3c12ba1b	0.008955504
211	0xbb3ca40f	-0.002878431
212	0x3ba4e9b3	0.005032742
213	0xb9aea89f	-0.000333135
214	0x3a95e0b7	0.0011434768
215	0xbc277dc6	-0.010222858
216	0xbadfc1b7	-0.0017071281
217	0xba5b36f0	-0.00083623733
218	0xbbec193b	-0.007205156
219	0x3b72b5e5	0.0037034687
220	0xbb091102	-0.0020914678
221	0xba156890	-0.000569948
222	0x392261f3	0.00015486013
223	0xb83c0377	-4.482592e-05
224	0xbaa1173d	-0.0012290251
225	0x3ab40043	0.0013732988
226	0xbb9a32d6	-0.004705767
227	0x374da9a3	1.2258449e-05
228	0x3c02bc23	0.007979426
229	0xbc712535	-0.0147183435
230	0x3a92314e	0.001115361
231	0x3a9d9d42	0.0012025016
232	0x3ab4762e	0.001376813
233	0x3b7dbaea	0.0038716146
234	0x3b6421ab	0.0034810107
235	0x3c8984ff	0.01678705
236	0x3a720d97	0.00092335924
237	0xbb6bdd20	-0.0035989955
238	0x3bca312b	0.006170412
239	0xbb4d2e68	-0.0031308178
240	0x3b6d1502	0.0036175852
241	0xbc6149fb	-0.0137505485
242	0x3c322ccc	0.010874938
243	0x3c4d848a	0.012543807
244	0x3a050811	0.00050747494
245	0xbb3e3c4c	-0.002902764
246	0xbbfe2b53	-0.0077566295
247	0x3b206077	0.002447156
248	0xbbd0b690	-0.0063694194
249	0x3b153875	0.0022769247
250	0x3b1bc23f	0.0023766903
251	0x3b06ea56	0.0020586452
252	0x3c09ad9e	0.00840321
253	0x3a712e98	0.00092003634
254	0x3a12801a	0.00055885466
255	0x3bb0feb8	0.0054014586

action_model._discrete_distribution.branches.0.bias f4 [3]
0	0x00000000	0.0
1	0x00000000	0.0
2	0x00000000	0.0

action_model._discrete_distribution.branches.1.weight f4 [2, 256]
0	0x3b55409a	0.0032539726
1	0xb9dbe88b	-0.00041944193
2	0xbaec873f	-0.0018045678
3	0xbb8bacf7	-0.0042625624
4	0xbacece03	-0.0015777949
5	0x3ba1eae8	0.004941333
6	0x3b46ce12	0.003033523
7	0xbc001c44	-0.007819239
8	0xbb429664	-0.002969169
9	0x3b28e533	0.002577138
10	0x3c8d611d	0.017258221
11	0xbbf6ac3a	-0.007527855
12	0x3c1147da	0.008867228
13	0x3c0ea3ae	0.0087060165
14	0x3b7518ff	0.0037398932
15	0x3a0a2549	0.0005269838
16	0xbb3275ef	-0.0027230938
17	0xbac0d3d9	-0.0014711573
18	0xbb206ec6	-0.0024480089
19	0xbbdad00b	-0.0066776327
20	0x3b43c559	0.0029872267
21	0xb8925103	-6.976912e-05
22	0xbbbbc06c	-0.0057297256
23	0x3bbcea65	0.0057652467
24	0xba14e51a	-0.0005679891
25	0x3c219784	0.009862784
26	0xbb60648a	-0.0034239613
27	0x3a3b3ddf	0.00071427034
28	0x3ae10040	0.0017166212
29	0xbc12d0c6	-0.008960908
30	0xbc088d20	-0.008334428
31	0x3bcf6a05	0.006329777
32	0xbb947292	-0.0045302594
33	0x3bd3d4b7	0.0064645666
34	0xbc05f3ff	-0.008175849
35	0xbc203ea3	-0.009780559
36	0x3b30b4e8	0.0026963297
37	0x3bfcd383	0.007715644
38	0x3c035c99	0.0080176825
39	0x3b98e65b	0.0046661324
40	0x3befd520	0.0073191077
41	0xbc46c387	-0.012131578
42	0xbc05483d	-0.008134899
43	0xbbb9bcb3	-0.0056682467
44	0xb9d477e3	-0.00040525114
45	0x3c0202ba	0.00793522
46	0x3a113b4c	0.0005540147
47	0x3b49ad66	0.003077352
48	0xbba9764b	-0.0051715723
49	0xbbd86cf7	-0.0066047865
50	0x3b6f138a	0.0036480152
51	0xbb966dd7	-0.0045907306
52	0xbba7a9f7	-0.005116697
53	0x3c11c750	0.008897617
54	0x3b18c72f	0.0023312082
55	0x3b8596cc	0.0040768143
56	0x3a8aa643	0.0010578114
57	0xbb231c81	-0.0024888816
58	0x3c08dd80	0.008353591
59	0xbc334fe9	-0.010944345
60	0x3b980584	0.0046393294
61	0xbb9b362f	-0.004736684
62	0x3bef841b	0.0073094494
63	0xba44f3ac	-0.00075131166
64	0x3c3a8cfd	0.011386153
65	0x3c0ec9f7	0.008715144
66	0x3b2ebf64	0.002666437
67	0xba3d4cd3	-0.00072212255
68	0xbaa3eea7	-0.0012507037
69	0xbae096f7	-0.0017134835
70	0x3a44ef8b	0.00075125013
71	0xbb887e36	-0.004165436
72	0xbb97abc3	-0.00462863
73	0xbac0ab13	-0.0014699422
74	0xb98cb0c2	-0.00026834576
75	0xbc030a1f	-0.0079980185
76	0x3c4876fa	0.0122353975
77	0xba65bdfa	-0.00087639655
78	0x3c273b88	0.010207064
79	0x3a8faef0	0.001096217
80	0xbbca2952	-0.0061694765
81	0x3ba8f4af	0.0051561217
82	0xbb37a6fa	-0.002802311
83	0xbbfaa265	-0.0076487535
84	0x3b62b508	0.0034592766
85	0xbbbdfd0b	-0.0057979873
86	0x3bc232c6	0.005926463
87	0xbc2fb7c0	-0.010724962
88	0xbaa74ae2	-0.0012763406
89	0xbb0695b5	-0.002053601
90	0xbb5677e0	-0.003272526
91	0xbc159139	-0.009128862
92	0xbb586ec8	-0.0033025015
93	0xbc1f5d71	-0.009726868
94	0x3c7ebb13	0.015547532
95	0x3bdb205f	0.0066872085
96	0xbaabe6fe	-0.0013115106
97	0xbaa51631	-0.0012595115
98	0xb9e783ab	-0.00044157854
99	0xbb82fd00	-0.003997445
100	0x3aa513fe	0.0012594459
101	0xbc02b527	-0.00797776
102	0xbc0c6f14	-0.008571405
103	0x3c121a3b	0.008917387
104	0x3b8da7ca	0.0043229805
105	0x39c16907	0.0003689008
106	0xb96747bf	-0.00022056604
107	0x3a273ed1	0.0006379905
108	0x3b75c61f	0.0037502123
109	0x3b99bce6	0.004691708
110	0x3b84767d	0.004042445
111	0xbb71d977	-0.00369033
112	0x3b7eee25	0.003889927
113	0xbb560ba8	-0.0032660756
114	0xbbb68a25	-0.0055706673
115	0x3c0dba8f	0.008650436
116	0xbc64db27	-0.013968266
117	0x3af912c8	0.001900279
118	0xbb0e61e9	-0.002172584
119	0x3b43ccc5	0.002987669
120	0x3bdadfb8	0.0066795014
121	0x3b4ada3b	0.003095283
122	0xbac54193	-0.001504945
123	0x3c02aa1b	0.007975127
124	0x3ac71d07	0.0015191146
125	0xbac4e6ff	-0.0015022455
126	0xbb7bd377	-0.0038425603
127	0xbb2a87df	-0.0026020927
128	0x3c4629f3	0.012094962
129	0x3c0e409c	0.008682396
130	0xbc283f2d	-0.0102689685
131	0xba56b5cb	-0.00081905414
132	0x3aeca162	0.0018053467
133	0x3bfb765d	0.007674022
134	0xbbb843cc	-0.0056233164
135	0x3b41fd23	0.0029600344
136	0xbc45e8d6	-0.012079438
137	0xba4fd6a3	-0.00079284067
138	0x3bca394d	0.0061713816
139	0xba873a7c	-0.0010317112
140	0x3b581c92	0.0032976014
141	0xbb1227e0	-0.00223016
142	0xbc43490e	-0.011919273
143	0xbbcc0026	-0.0062256036
144	0xba894155	-0.0010471741
145	0xbc133d8e	-0.008986844
146	0x3b33ad0e	0.002741638
147	0xbc24a921	-0.010050089
148	0xbbd4714d	-0.006483233
149	0xbc4c8c00	-0.0124845505
150	0x3a638ebb	0.0008680631
151	0x3b8cf694	0.0043018553
152	0xbb4709cb	-0.0030370827
153	0xbad77260	-0.0016437285
154	0x3ac24ca2	0.0014823864
155	0x3c1ee2b9	0.00969761
156	0xbb846a94	-0.0040410254
157	0xbc19f032	-0.009395646
158	0xbc4496b7	-0.011998824
159	0xbbfb6812	-0.0076723183
160	0x3be0f113	0.006864676
161	0xbb72de50	-0.0037058778
162	0xbb3ded48	-0.0028980542
163	0xbc41b729	-0.011823454
164	0x3a1f4bd1	0.0006076666
165	0x3b9688ad	0.0045939297
166	0x3b171a67	0.0023056509
167	0xbc15ea6c	-0.009150129
168	0xbb456ad4	-0.003012349
169	0xbb52777f	-0.0032114682
170	0x3c1e506f	0.009662732
171	0x3bb49e8b	0.005512064
172	0x3b078d19	0.0020683466
173	0x3c65354d	0.013989759
174	0xbbf3a08b	-0.0074349097
175	0xbb400e30	-0.0029305331
176	0xbba78076	-0.0051117493
177	0x3bc4b598	0.006003093
178	0x3bca9d00	0.0061832666
179	0xbb473859	-0.0030398576
180	0x3a078bfc	0.00051707006
181	0x3c0e0738	0.008668713
182	0x3b84e3e3	0.0040554865
183	0xbb0f6ad3	-0.002188374
184	0xbc1285a9	-0.008943
185	0x3c391987	0.01129759
186	0x3a14f439	0.0005682144
187	0xbbc3a413	-0.005970487
188	0x3b2ff65b	0.002684972
189	0x3b7de6ef	0.0038742383
190	0x3bbd3e10	0.0057752207
191	0xbaffdc7b	-0.0019520664
192	0xbbe79c5b	-0.0070681996
193	0xbaf50755	-0.0018694202
194	0xbc0f119b	-0.008732225
195	0xbc36ed66	-0.011164999
196	0x3b982a5d	0.004643722
197	0x3aa245d1	0.0012380426
198	0xba1ea080	-0.0006051138
199	0x399881f1	0.00029088513
200	0x3c0d4d39	0.008624368
201	0x3a5b08df	0.0008355509
202	0xbb6118c8	-0.0034347046
203	0xbc2ff65f	-0.010739892
204	0x3ba9c132	0.0051805014
205	0x3b2830bf	0.002566382
206	0x3c3f8a40	0.011690676
207	0x3b881bb5	0.0041536936
208	0xbc29adc2	-0.0103563685
209	0xbb4ffc7a	-0.003173618
210	0xbbd81bfa	-0.006595132
211	0xbba1b7c1	-0.0049352353
212	0xbbbd7f5a	-0.0057830038
213	0x3c196d2b	0.009364407
214	0xbaaaddff	-0.0013036131
215	0x3a72a337	0.0009255888
216	0xbc1e93c8	-0.0096787885
217	0xbb05f26f	-0.002043869
218	0xbb3a1a1b	-0.0028396908
219	0x39b119c7	0.00033779276
220	0xbae41bb7	-0.0017403279
221	0x3a825f5f	0.0009946636
222	0xbc0512b8	-0.008122139
223	0xbb8c7cd3	-0.004287341
224	0x3b6e762a	0.003638635
225	0x3b06f1c3	0.0020590879
226	0xbbd16ffb	-0.006391523
227	0xbba737b3	-0.0051030754
228	0xbc7c699a	-0.015406037
229	0x3c29a936	0.010355284
230	0xbba2c78b	-0.004967635
231	0xbbd11252	-0.006380358
232	0x3bda1208	0.0066549815
233	0x3bdd4588	0.0067526735
234	0x3bdfc718	0.0068291537
235	0x3bb1dde5	0.005428063
236	0xbb69b985	-0.0035663557
237	0x3ba50df7	0.005037065
238	0x3aa7b677	0.0012795468
239	0x3aa69a98	0.0012710867
240	0x3b1a7071	0.0023565555
241	0x3b498cdb	0.0030754122
242	0x3c09f1cd	0.008419466
243	0x39a40de0	0.00031290855
244	0xbc5a2b4a	-0.013315985
245	0x3c29c988	0.01036299
246	0xbc6ef8b0	-0.014585659
247	0x3be6a1ea	0.0070383446
248	0x3b9ced52	0.004789033
249	0x3bb8a508	0.0056349076
250	0x3a25cfa1	0.00063251896
251	0x3b1b6f01	0.0023717287
252	0x3c3d381f	0.011549025
253	0x3b45e42a	0.003019581
254	0xba2a705f	-0.000650173
255	0x3b1caf44	0.0023908177

action_model._discrete_distribution.branches.1.bias f4 [2]
0	0x00000000	0.0
1	0x00000000	0.0

action_model._discrete_distribution.branches.2.weight f4 [2, 256]
0	0xb9218d39	-0.00015406766
1	0x3bc055df	0.0058696116
2	0xb9f812d0	-0.00047316262
3	0xbb7e6d8f	-0.0038822626
4	0xbb0c4bf7	-0.0021407583
5	0xbc02dfdb	-0.007987942
6	0x3bb9a803	0.0056657805
7	0x39c3a82b	0.00037318593
8	0xbb5db1bf	-0.0033827869
9	0xbb90dcd9	-0.0044208583
10	0xba29af16	-0.0006472928
11	0x3b26ef70	0.0025472306
12	0x3a349c87	0.00068897795
13	0xba13c564	-0.00056370185
14	0xbb33ffb3	-0.002746564
15	0x3ba5fdf4	0.005065674
16	0xba8c706f	-0.001071466
17	0x3b96536a	0.0045875804
18	0x3bdb55ea	0.0066935914
19	0x3ae5f3af	0.0017543937
20	0x3bc947e7	0.0061426046
21	0x3c08968d	0.008336675
22	0x3bcb2f52	0.0062007094
23	0x3c542e2d	0.012950462
24	0x3c3e1ce3	0.011603567
25	0xbaf5fae8	-0.0018766792
26	0x3b8e3ebd	0.004340975
27	0xb9bb46fd	-0.0003572031
28	0x3be6daad	0.007045111
29	0xbb95add4	-0.004567841
30	0xbba465db	-0.005017025
31	0xb8ef2efb	-0.00011405159
32	0xbad13c6a	-0.0015963439
33	0xbb4fb32d	-0.003169249
34	0xbbab87ed	-0.0052347095
35	0xbb42de0f	-0.0029734408
36	0x3a1f681e	0.00060808833
37	0x3a0ca321	0.0005364884
38	0x39b63f02	0.0003476069
39	0x3b81d4cb	0.0039621345
40	0xbbfb4970	-0.0076686665
41	0xbb8cd921	-0.0042983447
42	0x3bd160cb	0.0063897124
43	0x3abb66ed	0.0014297642
44	0xbc033960	-0.008009285
45	0x3b303104	0.0026884684
46	0x3bdf3e7b	0.006812868
47	0xbb33aa14	-0.0027414607
48	0x3a4e72c0	0.00078753754
49	0x3b362f0b	0.0027799036
50	0x3c574013	0.013137835
51	0xbb907df8	-0.004409548
52	0x3b4171d7	0.0029517317
53	0x3b2dd6f3	0.0026525825
54	0xbaf4152d	-0.0018622034
55	0xbb89a117	-0.0042001116
56	0xbb12cade	-0.002239875
57	0xbb520a6d	-0.0032049671
58	0xbb1217d3	-0.0022292032
59	0xbbe3dae8	-0.006953586
60	0xbbf0005f	-0.007324263
61	0x3b576863	0.0032868616
62	0x3c56048f	0.01306261
63	0x3b61a9df	0.0034433526
64	0x3bde972d	0.006792924
65	0xbb93a186	-0.004505339
66	0x39b4ae2f	0.00034462052
67	0xbbf91a1f	-0.007601991
68	0xbbacceb5	-0.005273665
69	0xbc00d839	-0.0078640515
70	0x3c0cec3f	0.008601247
71	0x3b34d0eb	0.0027590345
72	0xbaf549f7	-0.001871406
73	0x3b5e32bd	0.0033904754
74	0xbb5fe2d7	-0.0034162307
75	0xbbff1d0b	-0.0077854446
76	0x3c8a4d68	0.016882613
77	0x3c0a5816	0.008443853
78	0x3b42c78f	0.0029720997
79	0x3bc24968	0.005929161
80	0x3b3236da	0.0027193339
81	0x3b7c1405	0.003846408
82	0x3b41aceb	0.002955253
83	0xbbcd997f	-0.0062744017
84	0xbba60711	-0.0050667604
85	0xbc07ab1f	-0.008280545
86	0x3be5c332	0.0070117945
87	0x3c0d42b5	0.008621861
88	0x3b5b4ce3	0.0033462576
89	0xbb6b6848	-0.003592031
90	0x3b987ade	0.004653319
91	0xbbaf6277	-0.005352314
92	0xbbf5163d	-0.0074794577
93	0x3ab2ebcb	0.0013650594
94	0x399d7791	0.00030034457
95	0x3bf0982f	0.0073423604
96	0xbbe8ddca	-0.0071065174
97	0xbc004be7	-0.0078305965
98	0x3c35ce3e	0.011096535
99	0x3c36959b	0.011144067
100	0xbba86bcf	-0.005139805
101	0xbb98ffe7	-0.004669178
102	0x3bb0c1cc	0.005394196
103	0xbc4a96dc	-0.012365069
104	0xbae9fbab	-0.0017851492
105	0xbbd06b25	-0.006360429
106	0xbbf9a84f	-0.007618941
107	0xbb03909f	-0.0020075215
108	0xbb841e9f	-0.0040319706
109	0xbb62c82b	-0.0034604173
110	0xbb6c9475	-0.003609923
111	0x3a0d7a21	0.0005396922
112	0x3c3e8fd3	0.01163097
113	0xbb2efc6f	-0.0026700755
114	0x3b5523ff	0.0032522676
115	0xbb6e7c82	-0.003639013
116	0x3c519b05	0.012793307
117	0x3bdaa1a5	0.0066721016
118	0xbb925be0	-0.0044665188
119	0xbbc254d8	-0.0059305243
120	0x3bf9f49f	0.007628038
121	0xba0df37f	-0.0005415007
122	0x3b9ac2f5	0.0047229477
123	0x3b58741d	0.0033028193
124	0xbbc69d3d	-0.0060612247
125	0xbbd82dcd	-0.0065972568
126	0xbc4d9a38	-0.012548976
127	0xba8faa5f	-0.0010960809
128	0xbaf49515	-0.0018660153
129	0x3bf83d90	0.007575698
130	0xbb2ab277	-0.0026046315
131	0xbbfd7523	-0.007734911
132	0xb958c90f	-0.00020674265
133	0xbc4c2cad	-0.012461823
134	0x3bff19d0	0.0077850595
135	0x3bae9743	0.0053280904
136	0x3c1dcecb	0.009631823
137	0xbb9ca82e	-0.004780791
138	0x3c638b95	0.013888259
139	0x3c2b21b7	0.01044505
140	0xbc3b5dad	-0.011435908
141	0x3bd7f218	0.006590139
142	0xbbf19027	-0.0073719206
143	0x3bc676ec	0.006056657
144	0x3acd5748	0.0015666271
145	0xbad9e9b7	-0.0016625439
146	0xb91cc16f	-0.00014949379
147	0xbb855f7e	-0.0040702214
148	0xba93d823	-0.0011279624
149	0xbb49b408	-0.0030777473
150	0x3bf09238	0.0073416494
151	0x3a8094d3	0.0009809978
152	0x3a9930f8	0.0011687567
153	0xbb9387e1	-0.004502282
154	0x3a94453e	0.001131214
155	0x3b89f0dc	0.004209621
156	0x3b650f90	0.0034951903
157	0x3a32aaa9	0.00068155915
158	0xbc197ae4	-0.009367678
159	0xbc0a1a3c	-0.008429106
160	0x3b32d0df	0.0027285141
161	0xbbeb2cfa	-0.0071769925
162	0x3ab76b38	0.0013993746
163	0x38f6d0ea	0.000117691074
164	0x3ac112af	0.00147303
165	0x3b2ac57b	0.002605765
166	0xba768da7	-0.0009405263
167	0x3a6f73c2	0.0009134376
168	0xbaa3e846	-0.0012505136
169	0x3bcd00a8	0.0062561817
170	0xbb157899	-0.0022807478
171	0x39efd8f8	0.00045747287
172	0x3bf3be9d	0.0074384944
173	0xbbc417b2	-0.00598427
174	0xbb2b3369	-0.0026123172
175	0x39e4d068	0.00043642824
176	0xbb4da828	-0.0031380747
177	0x3a7b8c87	0.00095958303
178	0x3af7a6fa	0.0018894367
179	0x3bf1d733	0.00738039
180	0x3bda7af2	0.0066674883
181	0xbb17482b	-0.0023083787
182	0x3c33d793	0.01097669
183	0xbbeac1a8	-0.007164199
184	0x3ab8c22b	0.0014095953
185	0xb9b8ba7d	-0.0003523416
186	0xba039473	-0.0005019374
187	0x3ab0c2ca	0.0013485786
188	0x3b44d357	0.0030033195
189	0x3b9053d0	0.0044045225
190	0xba4470da	-0.0007493623
191	0x3b5eb302	0.0033981209
192	0x3c290457	0.010315976
193	0x3b4e13b5	0.0031444852
194	0x3b7dd518	0.003873175
195	0x3bbc604c	0.005748784
196	0xbb6e300a	-0.0036344551
197	0xbbba1569	-0.005678822
198	0x3c10a676	0.00882875
199	0x3c0c10b3	0.008548903
200	0xb9bd7ba7	-0.00036141017
201	0xbc1f77c0	-0.0097331405
202	0xbb1c8187	-0.0023880915
203	0xbb47b409	-0.00304723
204	0xb9f424f0	-0.00046566827
205	0x3bae3f66	0.0053176163
206	0x3a8f4bee	0.0010932663
207	0xbc170797	-0.009218118
208	0xbb8a9254	-0.0042288695
209	0x3a6cae58	0.0009028665
210	0x3812e30f	3.5020577e-05
211	0x39e3b958	0.00043434906
212	0x3b642327	0.0034810991
213	0x3c4b81d5	0.012421091
214	0xbc079b70	-0.008276805
215	0x3b97d2bf	0.004633277
216	0x3b19e183	0.0023480363
217	0x3b2af40c	0.0026085405
218	0x3b5f94ea	0.003411586
219	0x3bbe6fcb	0.0058116666
220	0xbc1cf943	-0.009580913
221	0x3ac35fc5	0.0014905861
222	0xbbacf0a7	-0.0052777114
223	0x3c161ab5	0.009161641
224	0xbba30c81	-0.004975856
225	0x3bb7c7bb	0.0056085265
226	0x3bcbda77	0.0062211114
227	0xbc0adf8c	-0.008476149
228	0xbb20786b	-0.0024485837
229	0x3875d5bb	5.8611604e-05
230	0x3c8bfbd4	0.017087854
231	0xbb6d67ca	-0.0036225193
232	0xbbe54d0b	-0.0069977096
233	0xbb42cb69	-0.0029723293
234	0x3b1a71c7	0.0023566352
235	0xba0ebf7b	-0.0005445403
236	0xbba881cf	-0.0051424275
237	0x3ad5be50	0.0016307328
238	0xbc578d40	-0.013156235
239	0x3b06e2ce	0.0020581963
240	0xbc550088	-0.013000615
241	0xbb44d5c5	-0.0030034643
242	0x3b8fd6e1	0.0043896292
243	0x3a918378	0.0011101803
244	0x3b4ca71e	0.003122754
245	0xbc07dc51	-0.008292274
246	0xbb910382	-0.004425467
247	0x3b9d925d	0.0048087076
248	0x3b4b1b1d	0.0030991503
249	0xbb0212a1	-0.001984753
250	0x3bea3bc5	0.0071482384
251	0xbbfd2dca	-0.0077264057
252	0xbc173d43	-0.0092309145
253	0x3ad87c5d	0.0016516555
254	0x3bc2eb6b	0.005948474
255	0xb8ae0c25	-8.299229e-05

action_model._discrete_distribution.branches.2.bias f4 [2]
0	0x00000000	0.0
1	0x00000000	0.0
