MLagents/results/hb_05/Mario/Mario-1723.onnx (onnx, 352528 bytes, 16 tensors)

122 f4 [69]
000000 21 4c c5 3c 21 4c c5 3c 38 7d 0b 3d 38 7d 0b 3d
       0.024084153 0.024084153 0.034054965 0.034054965
000010 b6 a4 cb 3e 21 4c c5 3c 21 4c c5 3c 21 4c c5 3c
       0.39774102 0.024084153 0.024084153 0.024084153
000020 b6 a4 cb 3e 21 4c c5 3c 21 4c c5 3c 21 4c c5 3c
       0.39774102 0.024084153 0.024084153 0.024084153
000030 21 37 cd 3e 76 7d 0b 3d 21 4c c5 3c 21 4c c5 3c
       0.40081123 0.034055196 0.024084153 0.024084153
000040 21 37 cd 3e 76 7d 0b 3d 21 4c c5 3c 21 4c c5 3c
       0.40081123 0.034055196 0.024084153 0.024084153
000050 6a 51 ce 3e 76 7d 0b 3d 21 4c c5 3c 21 4c c5 3c
       0.4029649 0.034055196 0.024084153 0.024084153
000060 6a 51 ce 3e 76 7d 0b 3d 21 4c c5 3c 21 4c c5 3c
       0.4029649 0.034055196 0.024084153 0.024084153
000070 a6 c5 d2 3e 76 7d 0b 3d 21 4c c5 3c 21 4c c5 3c
       0.4116642 0.034055196 0.024084153 0.024084153
000080 24 27 d2 3e 76 7d 0b 3d 21 4c c5 3c 21 4c c5 3c
       0.41045487 0.034055196 0.024084153 0.024084153
000090 a4 67 e7 3e 76 7d 0b 3d 21 4c c5 3c 21 4c c5 3c
       0.4519626 0.034055196 0.024084153 0.024084153
0000a0 e1 2d e4 3e 76 7d 0b 3d 21 4c c5 3c 21 4c c5 3c
       0.44566253 0.034055196 0.024084153 0.024084153
0000b0 bc 2f f6 3e 76 7d 0b 3d 21 4c c5 3c 21 4c c5 3c
       0.48083293 0.034055196 0.024084153 0.024084153
0000c0 de 3b f3 3e 76 7d 0b 3d 21 4c c5 3c 21 4c c5 3c
       0.47506613 0.034055196 0.024084153 0.024084153
0000d0 bf 30 f7 3e 67 cc 2a 3d 21 4c c5 3c 21 4c c5 3c
       0.48279378 0.04169884 0.024084153 0.024084153
0000e0 d4 f1 f6 3e 67 cc 2a 3d 21 4c c5 3c 21 4c c5 3c
       0.48231375 0.04169884 0.024084153 0.024084153
0000f0 38 7d 0b 3d 21 4c c5 3c 21 4c c5 3c 01 37 54 3e
       0.034054965 0.024084153 0.024084153 0.20724107
000100 9e ee 6c 3e 21 4c c5 3c 60 7d 0b 3d 12 99 cb 3c
       0.231379 0.024084153 0.034055114 0.024853263
000110 21 4c c5 3c
       0.024084153

action_model._discrete_distribution.branches.0.bias f4 [3]
000000 00 00 00 00 00 00 00 00 00 00 00 00
       0.0 0.0 0.0

action_model._discrete_distribution.branches.0.weight f4 [3, 256]
000000 a7 1d 8a bb 27 87 2f bb b9 a8 ae bb df a2 ac 3a
       -0.0042149606 -0.0026783438 -0.005330172 0.0013171098
000010 6b 48 7b bb c2 7d 4e 3a 97 cf 65 39 7f 53 1e bc
       -0.0038342725 0.0007877016 0.00021916475 -0.009663462
000020 40 ff 34 bc 9a e2 41 3b ef 89 78 bb c2 87 ba 3b
       -0.0110471845 0.0029584528 -0.0037924012 0.005692453
000030 98 0f 9e 3b ff 6f 4f 3c 77 32 e1 bb 1c 06 34 bc
       0.0048236363 0.012660979 -0.006872471 -0.010987785
000040 dd f4 26 ba 8d 36 e9 bb e8 6f 39 ba bf 75 96 3b
       -0.0006368885 -0.0071170987 -0.0007073865 0.004591673
000050 33 34 99 3b ca d3 56 3a 3d e8 6c 3b 7b e8 2f 3a
       0.004675412 0.0008195011 0.0036149167 0.00067103625
000060 c0 27 02 3c e9 80 99 3a 85 ca 66 bb ab 3d 8f bb
       0.007944047 0.0011711392 -0.0035215926 -0.004371365
000070 2b d6 08 3b 1b af cb 3b c3 bb 15 bc 6b 81 ef bb
       0.0020879607 0.0062159426 -0.009139004 -0.007309129
000080 6d 32 b8 3a 28 60 42 bc 41 03 90 ba 92 db 6a 39
       0.0014053114 -0.011863746 -0.0010987298 0.00022397775
000090 7b 53 65 3b b0 e2 66 3a d3 30 4b bb 03 53 a2 bb
       0.0034992385 0.0008807583 -0.0031004443 -0.0049537434
0000a0 3f 97 26 bc 5c 2b 41 bb 0f 28 d8 3a 0d 7a 59 bb
       -0.010167896 -0.0029475307 0.001649143 -0.003318432
0000b0 61 1e aa bb c5 96 9b ba 0a 7a e4 ba a7 fe d9 3b
       -0.0051916097 -0.0011870494 -0.001743139 0.0066526714
0000c0 2a e0 a7 b9 fb 14 35 bc 97 47 21 3b 57 ec e3 3b
       -0.00032019737 -0.011052365 0.0024609321 0.006955664
0000d0 e1 1a 07 bb 1f 76 17 bb eb b6 52 bb f0 35 c7 3a
       -0.0020615386 -0.0023111177 -0.0032152485 0.001519857
0000e0 0d d8 d8 39 5b 7d 4d 3c 4b 0e 1e bc 3d fe 78 3c
       0.000413597 0.012542094 -0.009646962 0.015197334
0000f0 d1 3e 2a bc 5b 17 1a 3c 66 a9 8a 3b 70 1b ed 3a
       -0.010390953 0.009404982 0.0042316196 0.0018089842
000100 a3 2f b6 bb 77 92 d3 bb 36 27 86 3b 5d 5b 8a 3b
       -0.005559878 -0.006456669 0.00409403 0.004222317
000110 6c 4b cb ba e8 6b fb ba 23 f4 db 3b cf ce 9e b9
       -0.0015510148 -0.0019181939 0.006712453 -0.00030290193
000120 75 0f e0 3b 37 ec ce 39 53 65 9b 3c fe b9 8d bb
       0.00683778 0.00039467376 0.018969214 -0.0043251505
000130 36 b9 1f 3c ee c3 04 bb 06 da b0 3a 1d 9a 09 bb
       0.009748748 -0.0020258385 0.001349271 -0.00209964
000140 5d af 81 ba 6f be df b9 da 50 47 3c 3b 4f af 3b
       -0.0009894181 -0.0004267576 0.012165273 0.005350021
000150 eb 06 32 3c 82 f6 70 3b 1b f8 a1 bb 0f 83 09 3c
       0.010865907 0.0036768024 -0.0049429066 0.008393063
000160 d5 13 ae bb 18 98 0e bc b7 ca 42 bb ee f6 1a 3b
       -0.0053124228 -0.008703254 -0.0029722878 0.0023645717
000170 27 64 cc 3a 0b 68 5a bc d8 10 43 bb 23 c6 b4 3a
       0.0015593813 -0.01333047 -0.0029764678 0.001379196
000180 d0 f9 cb 3b 7b 58 66 3a 9f b5 fe 3b 1b 97 9f 3b
       0.0062248483 0.00087869883 0.0077731158 0.004870308
000190 84 79 2b 3c d4 b8 3a bc fb 55 a0 3b d3 51 f7 ba
       0.010465983 -0.0113966055 0.004893062 -0.001886899
0001a0 f6 74 9f bb c0 31 5e 3b ad 66 66 bc 1a a8 b5 3b
       -0.0048662378 0.0033904165 -0.014062566 0.005543721
0001b0 9b a3 9b bb cf fd 65 bb 8f df c4 3a 03 a1 1b bc
       -0.004749728 -0.0035093909 0.0015020239 -0.009498837
0001c0 59 89 40 bc 03 5a 5a bb 47 8a f0 3b eb 28 17 bc
       -0.011751496 -0.0033317811 0.0073407027 -0.009226064
0001d0 27 e7 5c bc 37 ac 14 bb dd c2 59 3c 7e 9a 0e bc
       -0.013482845 -0.0022685656 0.013291088 -0.008703826
0001e0 81 4d 22 3c 4a 51 2f 39 df 57 4c 3c 2f 02 58 ba
       0.009906174 0.00016719583 0.012472122 -0.00082400715
0001f0 2d 55 54 3b 8d ee e4 b9 73 2f 84 3b d8 9c a5 ba
       0.0032399402 -0.00043665283 0.0040339767 -0.0012635244
000200 fd aa 1a 3c f9 62 90 ba dd 48 57 bb 90 54 6a 3b
       0.009440181 -0.0011015824 -0.0032849826 0.003575597
000210 e7 5f bf 3b db 72 d6 3a 8b d8 98 3b d6 71 3f ba
       0.00584029 0.0016361134 0.004664486 -0.00073030347
000220 97 90 e0 3a 8b 46 02 bc c7 c3 a3 3b df dd 2f 3b
       0.0017132935 -0.007951389 0.0049977037 0.0026835126
000230 bf dd f5 38 f7 41 d2 3b f0 57 02 3b 3e 70 9a ba
       0.00011723814 0.006416555 0.001988884 -0.0011782718
000240 6b 68 3a b9 16 3a ca 3a 3f f8 de 3b cc ad a3 3b
       -0.00017777241 0.0015428688 0.0068044956 0.0049950834
000250 cb 38 5c 3c a9 81 94 3b af eb 61 bb 1d fd 51 3c
       0.013441275 0.0045320583 -0.0034472754 0.012816695
000260 87 fb 00 bb 0c 7a 85 3b d0 88 9d bb ed dc fd 3b
       -0.0019681172 0.004073387 -0.004807569 0.0077472837
000270 fa 22 68 bb 8f d8 56 3b 73 a1 38 3b a5 1e a3 bb
       -0.0035421238 0.0032782888 0.0028172403 -0.0049780183
000280 5b 69 5d bb 17 ce 90 bc f7 81 90 bb 17 dc ee 3b
       -0.003378472 -0.017676396 -0.0044100243 0.0072894203
000290 66 8d ad 3a 1b 8c c2 bb 57 a0 1a 3b 1d 1b bc bb
       0.0013240993 -0.005937112 0.0023594105 -0.005740537
0002a0 2d 5c e3 37 a3 7c a2 3b 65 ca f8 ba 9f 1f e0 3a
       2.7103431e-05 0.0049587055 -0.0018981217 0.0017099268
0002b0 71 98 b3 3a d3 4e 0f bb a3 b5 a9 3b 1f 15 2a bb
       0.0013702047 -0.0021867051 0.0051791235 -0.002595253
0002c0 36 88 0a 3b 8f 14 e3 3b 33 be 63 39 fa 44 f8 bb
       0.0021138317 0.006929941 0.00021719262 -0.007576582
0002d0 57 5b 92 bb 74 45 0e 3b a5 9c 07 bc 37 fa 25 3c
       -0.004466455 0.0021708878 -0.008277093 0.010130457
0002e0 ba 90 c9 3b 23 00 21 3c 2f 4b 5a 3b 5b de dd bb
       0.006151286 0.009826693 0.0033308973 -0.0067708916
0002f0 12 b5 5b bb fb 1a 3e 3c 7a 7a c5 ba 4b bb 5a bb
       -0.0033524674 0.011603112 -0.0015066408 -0.0033375795
000300 a2 c2 cc ba f3 f8 53 3c db 4f bf 3b fa ca 71 bb
       -0.001562197 0.012937772 0.005838377 -0.0036894665
000310 f0 e4 7c ba ab 08 bb 3a 6b 1b 84 bb 1a b3 5d 3b
       -0.00096471515 0.0014269551 -0.004031589 0.0033828677
000320 63 78 d8 ba 57 94 3b 39 3b 31 9b 3b b0 fc 86 ba
       -0.001651537 0.0001788897 0.0047360933 -0.0010298695
000330 5b a3 8e bb 8d c7 24 3c f9 47 37 bb df c5 5f bc
       -0.0043529696 0.010057342 -0.0027966483 -0.013658016
000340 6f 26 e5 bb 37 58 33 3b 4c c2 9a 3b 6f 5d df bb
       -0.006993107 0.0027365813 0.004722869 -0.006816558
000350 c0 98 0c bb 30 20 67 3b bc 87 97 bb 60 31 ae 3b
       -0.002145335 0.0035266988 -0.004624335 0.0053159446
000360 02 d4 f2 3b db 2a 48 bc 12 70 d1 bb 3a fb 12 bc
       0.007410527 -0.012217249 -0.0063915337 -0.00897103
000370 2c 80 b8 bb c7 c2 2b 3c a5 a7 30 bc 2a 7d c0 bb
       -0.0056305137 0.01048345 -0.010782157 -0.0058742957
000380 e8 5a 0e bc 52 fd 8d 3a 5a 5d 5e bb f5 26 4e bb
       -0.008688666 0.0010832942 -0.0033930154 -0.0031456326
000390 68 56 d8 3b 84 c8 0b bc 2f ba 20 bc 1a 01 05 3c
       0.0066020973 -0.008531693 -0.009810015 0.008117938
0003a0 e3 a6 6b 3a 11 ea a7 ba 8a 42 5a 3a 30 b1 6c bb
       0.00089894066 -0.0012810846 0.0008325955 -0.0036116354
0003b0 1d c9 0b 3b 97 1e ba 3b 77 29 9e b8 e8 e6 d6 3b
       0.002132959 0.005679916 -7.5417505e-05 0.006558288
0003c0 5f cf 13 3c c3 78 d3 37 26 97 1d 3c 7b 95 45 3c
       0.009021609 2.5209394e-05 0.009618556 0.012059565
0003d0 e8 e3 c1 3a 0a 9d c2 39 e7 11 a5 3b 9a 4b 8e bb
       0.0014792653 0.00037119567 0.0050375345 -0.0043425085
0003e0 43 b0 ab bb 62 39 b3 3b 93 96 9a bb 43 07 10 3b
       -0.005239518 0.005469487 -0.004717657 0.0021976985
0003f0 83 34 13 3c 5f cc 03 3b 67 7d 1a bc c5 a3 13 3c
       0.008984688 0.0020110828 -0.009429312 0.009011214

action_model._discrete_distribution.branches.1.bias f4 [2]
000000 00 00 00 00 00 00 00 00
       0.0 0.0

action_model._discrete_distribution.branches.1.weight f4 [2, 256]
000000 3e 21 1f 3c 58 e3 50 bb 22 ee df bb 37 9a 90 bb
       0.009712515 -0.0031873789 -0.0068338076 -0.004412915
000010 87 16 0d 3c 19 bc 2d 3b cc 25 1e ba 38 6c d4 bb
       0.008611328 0.002650982 -0.0006032854 -0.0064826272
000020 90 53 09 bb 93 f7 c4 3b dd 64 90 ba 2c 76 b8 3a
       -0.0020954348 0.0060109585 -0.0011016388 0.0014073304
000030 69 84 2e bc ea df 9d bb 7d 75 f5 bb c9 4c bc ba
       -0.010651686 -0.0048179524 -0.0074908123 -0.0014366145
000040 47 9f 0b bc 08 95 3e 3b b5 ef 5a 39 1e 37 c9 3b
       -0.008521861 0.0029080529 0.00020879398 0.0061406037
000050 35 39 d6 3b 7e 2f 02 3a 3f 62 8b bb 76 d8 46 bc
       0.0065375813 0.00049661833 -0.004253655 -0.012136569
000060 30 28 c8 bb 10 8e d3 bb 8b 3e a0 ba d4 9b b6 ba
       -0.0061083063 -0.006456144 -0.001222567 -0.0013931938
000070 27 7e 80 bb f3 41 07 bc 43 93 15 bc 53 e7 91 b8
       -0.0039212885 -0.00825547 -0.009129348 -6.957226e-05
000080 27 30 39 bc f7 4d 1e bb 9a f6 32 bb e3 a2 46 3a
       -0.011302984 -0.0024155357 -0.002730763 0.00075773726
000090 95 ba b1 3a 03 85 9e bb c4 bb 0c bb 06 d6 16 bc
       0.0013559634 -0.0048376336 -0.0021474222 -0.009206301
0000a0 0d da 0f bc d7 5b 14 bc 5f b6 a7 3c 9b f5 16 3b
       -0.008780015 -0.009055099 0.020472704 0.0023034576
0000b0 ef 69 dd 3b 1f 78 0b bb dd 0b 57 bb 82 91 81 bb
       0.006757013 -0.0021281315 -0.0032813468 -0.0039541135
0000c0 36 94 17 bb 3d 40 60 bb d5 69 a1 bb 5a bd e9 3b
       -0.0023129112 -0.0034217976 -0.0049259462 0.007133168
0000d0 ce 8d c3 bb 65 c7 07 bc f2 a6 17 bb 8f 84 a6 3b
       -0.005967832 -0.008287285 -0.0023140279 0.00508172
0000e0 56 c9 c6 3b 53 77 16 bc 80 0e d9 bb c5 53 70 3b
       0.0060664816 -0.009183723 -0.006624043 0.0036671024
0000f0 45 81 89 3b 9f c5 68 3c 77 65 00 3b 8f 57 1c 3c
       0.0041963183 0.014207273 0.0019591728 0.00954236
000100 2d 9b 14 3c db 49 85 bb d3 a3 44 bb 46 2b 39 3b
       0.0090702 -0.004067642 -0.0030004873 0.0028254553
000110 5e 7c a2 3a 8d 56 96 ba c3 3e 8c bc 53 9d 99 bb
       0.0012396683 -0.0011469886 -0.01711977 -0.004687944
000120 5f a2 1c 3c 13 6d 0d bb 7d b0 16 ba d2 cf 51 3b
       0.009560197 -0.0021579906 -0.00057483447 0.003201474
000130 a5 8f 1e bb c2 46 94 bb 8f b8 6c 3a f3 38 1f ba
       -0.0024194506 -0.0045250366 0.0009030187 -0.0006073855
000140 cf 90 ba bb a7 90 7b bb 34 c1 a9 39 5f fa 2d bc
       -0.005693532 -0.003838578 0.0003237814 -0.010618775
000150 3b e8 b9 3b 0d 71 69 3b 60 af 82 bb bb 9b 4e bb
       0.005673436 0.0035620362 -0.0039881915 -0.0031525928
000160 b3 30 ed 3b aa 2f 81 ba f7 71 17 3b 01 d3 0a ba
       0.0072384714 -0.0009856124 0.00231087 -0.0005295724
000170 73 a6 75 bb e0 91 17 3c c8 a9 b5 bb f9 20 00 3b
       -0.0037483245 0.009251088 -0.005543921 0.0019550903
000180 4e 42 98 ba b3 e5 d3 bb 33 8f 93 bb 90 9e 3a ba
       -0.001161644 -0.0064665913 -0.0045031547 -0.00071189646
000190 50 63 ec ba 3b b8 1b bb e0 81 c8 ba bf c3 49 bc
       -0.0018034969 -0.0023760933 -0.0015297495 -0.012314736
0001a0 53 92 ee 3b 5f a4 6d 3b 43 d6 17 bc 04 fc 25 3c
       0.007280627 0.0036261303 -0.009267393 0.010130886
0001b0 0e 65 16 3c f1 43 b6 ba 3a 23 2e 3c 72 96 f3 bb
       0.009179367 -0.0013905746 0.010628516 -0.007433706
0001c0 29 5b b4 ba 10 1d 5c bb 75 ed 05 3b 12 2a c5 bb
       -0.0013760078 -0.0033586659 0.0020435725 -0.006016978
0001d0 8f 8e e2 3b cb 36 1b bc fb 30 10 bc 3b 6d 57 3a
       0.006913967 -0.009473513 -0.00880074 0.0008217876
0001e0 ea 03 b6 bb e3 cf 02 bb 1e 88 c9 ba ca 6e 61 bb
       -0.005554666 -0.0019960336 -0.0015375649 -0.003439831
0001f0 b2 9c 6a bb 52 8a f8 bb 2f bb eb 3b 75 50 dd bb
       -0.0035798964 -0.0075848484 0.007193945 -0.006753976
000200 d5 57 88 3a cb 79 0e 3c bc 98 07 bc c2 d0 de bb
       0.0010402153 0.00869603 -0.008276161 -0.006799788
000210 52 eb ad bb e3 6a 7f 3b c3 0e ac bb ca 89 96 3a
       -0.0053075934 0.0038973622 -0.005250783 0.0011485156
000220 50 1e fd 3a 93 95 e0 3a cb a2 40 bb 40 90 c9 3a
       0.0019311402 0.001713442 -0.0029393907 0.0015378073
000230 53 64 ab bb d0 6e c2 bb ce d7 08 3b 30 3a 46 3b
       -0.0052304654 -0.00593362 0.0020880583 0.0030247085
000240 37 7d ed bb e5 e1 5e bb 33 6b 8e 3a 07 ef 8f 3b
       -0.007247593 -0.0034009155 0.0010865688 0.004392508
000250 6f 0d fb 3a 68 49 59 3b 40 da 2d bb 39 a1 25 3a
       0.0019153784 0.0033155326 -0.0026527792 0.00063182745
000260 c6 b7 9c 3b 2a c6 5b ba 4e a9 07 bc d0 c9 bd bb
       0.0047826497 -0.0008383716 -0.0082801115 -0.00579188
000270 9d 8a 4e 3b 41 cb bf 3b 14 79 44 3b 77 4b c3 ba
       0.0031515725 0.005853087 0.0029979395 -0.001489981
000280 31 ba 34 bb 16 9b 26 bc 17 a6 2a bb ad 03 9c bb
       -0.00275768 -0.010168811 -0.0026038939 -0.0047611804
000290 66 5d 42 3b a4 f8 90 3b ff 7f 80 3b a3 b7 e4 3b
       0.002965772 0.0044241715 0.0039215083 0.006979899
0002a0 5c ba a5 bb 85 b1 2d 3b da 26 ea 3a 09 c2 07 3a
       -0.005057616 0.0026503515 0.0017864362 0.0005178755
0002b0 65 31 da bb d3 3a 23 3a ed de 53 ba 9a 0f bf bb
       -0.0066587203 0.0006226722 -0.000808223 -0.0058307173
0002c0 ae 60 18 ba 8b a8 9c 3b 1d b5 50 bc 2b 27 a5 3a
       -0.0005812746 0.004780834 -0.012738493 0.0012600174
0002d0 fb 1b 93 3b c5 8d fd ba 3b 09 11 bc 0a e0 41 3c
       0.0044894195 -0.0019344619 -0.008852298 0.0118332
0002e0 b8 d5 e5 bb 8b dd a2 3b db 32 f9 3a a7 a8 72 3b
       -0.0070140027 0.0049702576 0.0019012348 0.0037026794
0002f0 0f 6b 88 bb 3b a7 01 3b db 63 ae 3b 4b 06 da 3b
       -0.004163153 0.0019783515 0.0053219623 0.006653582
000300 05 4f 85 3a dd 6f d0 3b ea 16 5c bc 2a df dc 3b
       0.0010170644 0.0063609914 -0.0134331975 0.0067404704
000310 f1 6a 03 3c 8d e1 6e bb 29 83 94 bb 7c 45 a8 3b
       0.008021102 -0.0036450357 -0.004532237 0.0051352363
000320 b6 9b a9 3b 5b ea 48 3b 6e 17 1d bb b3 9b 35 bc
       0.005176033 0.0030657265 -0.0023970264 -0.011084485
000330 3b f2 00 bc f2 6d 31 bb 0f 46 a0 b8 c5 bb e8 3a
       -0.007870252 -0.002707359 -7.642444e-05 0.0017756155
000340 4c 66 82 bb 87 5e e0 bb 1c c4 a4 3b ce b3 3a bb
       -0.00397948 -0.006847206 0.005028261 -0.002848852
000350 6d d1 87 bb 30 dc 52 3b d8 b8 46 3b a2 3d b6 ba
       -0.0041448385 0.00321747 0.0030322578 -0.0013903866
000360 0e 4e a8 ba 2b f2 6c 3b 78 ec db 3b 14 20 25 bc
       -0.0012840645 0.0036155086 0.006711539 -0.010078449
000370 7b 5c 52 3c c3 7f a8 b9 c2 a3 a6 3b e8 9e 48 bc
       0.012839432 -0.00032138647 0.0050854394 -0.012244917
000380 88 04 d2 3b 8a f8 ed bb 9d 68 e5 3a 14 89 01 3c
       0.0064092316 -0.007262294 0.0017502491 0.007906217
000390 73 78 f4 ba 1b 9d 39 bb 63 08 89 bb 8b ef 04 bc
       -0.0018651619 -0.0028322402 -0.004181908 -0.008113752
0003a0 3b 2d 05 3b 03 b4 f7 bb 34 56 9a bb 9d a5 00 39
       0.002032115 -0.007559301 -0.0047099832 0.00012268727
0003b0 f6 2f 8d bb 1b 1a 75 bb 58 9b 9a bb cd 1c 04 3c
       -0.004308696 -0.0037399593 -0.0047182254 0.008063507
0003c0 28 38 ca bb cf c2 64 39 31 0f bf 3a 2e 6e 96 b9
       -0.006171245 0.00021816346 0.0014576671 -0.0002869232
0003d0 f7 9e 5f ba 87 0b 7e b9 01 5e a1 b9 cd 1b ef bb
       -0.00085304625 -0.00024227622 -0.0003077835 -0.0072970153
0003e0 a7 36 59 3b 9d 9a c7 b8 f7 35 0b bc 38 82 fc ba
       0.0033144148 -9.5178584e-05 -0.008496753 -0.0019264882
0003f0 0f a1 04 3b f5 88 b6 bb 58 3a 0a bb 55 24 e1 3b
       0.00202376 -0.005570526 -0.0021091904 0.006870786

action_model._discrete_distribution.branches.2.bias f4 [2]
000000 00 00 00 00 00 00 00 00
       0.0 0.0

action_model._discrete_distribution.branches.2.weight f4 [2, 256]
000000 40 f4 7a ba 30 03 6f 3c 1c 1a 19 b9 38 88 dd 3b
       -0.0009573139 0.014588162 -0.00014600944 0.0067606233
000010 32 90 6e ba 80 c7 7e 3a 70 77 72 3b d7 a4 9e 3b
       -0.0009100466 0.0009719059 0.003699746 0.004841428
000020 08 57 e2 bb ba 4f d1 bb 0f be 3a 3b e7 b6 cd 3b
       -0.0069073476 -0.006387678 0.0028494631 0.006277907
000030 8b ac 1e bb 2b 7a fd 3a dd dc 85 3b c8 d9 a0 3b
       -0.002421173 0.0019338777 0.004085167 0.004908774
000040 d4 bf 0b 3b a9 f2 ad 3b 1d 1d 0e bb c9 e0 18 3c
       0.0021324055 0.0053084684 -0.0021684833 0.009330937
000050 08 4a cc 3b 9b 9d f1 3a 84 a9 a2 bb 9e f6 35 ba
       0.006234411 0.0018433811 -0.0049640555 -0.0006941351
000060 72 14 52 3b 03 9d 28 bc e7 c5 87 3b 62 c1 09 3b
       0.0032055643 -0.010291341 0.004143465 0.0021019806
000070 19 aa c4 3a b7 3f 0a 3c 29 14 87 bb 43 9c af 3b
       0.0015004306 0.008438042 -0.0041222763 0.005359204
000080 b0 50 b8 3b 07 67 05 3b 6a f6 75 3b da 48 6c bb
       0.005624853 0.0020355599 0.0037530907 -0.0036054165
000090 a1 08 b1 3b 8b ca 30 bc 90 90 cd bb ba b2 de ba
       0.00540264 -0.0107904775 -0.0062733367 -0.001699052
0000a0 83 42 33 3c 3d cb bd bb 05 ee ec bb e6 8f c1 bb
       0.010941151 -0.00579205 -0.0072305226 -0.0059070466
0000b0 70 cd 8f bb 7f 1e 8b b9 3d 7a 0f bc 0d 1c d8 ba
       -0.0043885037 -0.00026534867 -0.008757171 -0.0016487852
0000c0 4b f3 c3 3a 6f 01 79 bc 33 95 27 3c c4 fe b7 3a
       0.0014949826 -0.015198096 0.010228443 0.0014037718
0000d0 b7 d3 d2 bb e0 6b 50 3b 78 52 6e 3b 78 d8 02 3c
       -0.00643393 0.003180258 0.0036365073 0.0079861805
0000e0 4a ac 95 ba d3 cc c4 3b 6a 8c 65 bb 87 dc 9c ba
       -0.0011419144 0.0060058623 -0.003502632 -0.0011967578
0000f0 c7 8e fd ba ea fd 5c 3c a8 94 73 bb 98 9a 2d 3c
       -0.0019344919 0.013488272 -0.0037167463 0.01059594
000100 dd a1 ec bb 06 dc c3 3b 07 10 25 3b 02 99 db bb
       -0.007221444 0.0059771566 0.0025186555 -0.0067015896
000110 7b 38 cc 3b 95 a7 d2 3a e3 36 84 3a fa c4 59 3b
       0.006232319 0.0016071672 0.0010087158 0.003322898
000120 07 d1 f4 bb 15 86 bc ba be 59 28 3b 2c e4 be ba
       -0.007471207 -0.0014383221 0.0025688256 -0.001456385
000130 32 33 94 ba 88 0f 16 bc a2 a0 fe 3a b7 2a 8c 39
       -0.0011306761 -0.009158976 0.0019426534 0.00026734706
000140 c4 12 30 bb 73 ce 24 3c fa 27 fd 3b f7 e8 92 3b
       -0.0026866654 0.010058987 0.007725713 0.004483338
000150 ba 88 01 bb 87 65 50 3c 22 b7 e0 3b 07 30 10 3c
       -0.0019765333 0.0127195185 0.0068577686 0.008800513
000160 ca f0 e5 ba 6b 74 b1 bb 97 6f 2e 3b b4 2f 9f 3b
       -0.0017543074 -0.0054154894 0.0026616806 0.0048579816
000170 9b 5e 1d 3b 32 9c 78 38 28 a1 df 3b 64 ab 99 3b
       0.0024012688 5.9273276e-05 0.0068246312 0.004689621
000180 47 d5 b4 3b 32 99 e3 ba 41 99 97 3a 9c 47 83 ba
       0.0055185887 -0.0017364381 0.0011566059 -0.0010015848
000190 2d 83 3c 3b 04 32 a5 3b 23 ad 60 ba 04 09 42 bb
       0.002876471 0.0050413627 -0.0008570721 -0.0029607425
0001a0 d8 95 f5 ba bb 64 1c 3a 41 2b 8f 3b 5f 6d d3 39
       -0.0018736674 0.0005965938 0.00436917 0.00040326544
0001b0 5a ef 19 bc 60 2c 2c 3b 61 e0 3f 3b 7e 81 40 3a
       -0.009395445 0.0026271567 0.0029278027 0.00073435146
0001c0 91 90 06 3c e3 59 0c 3a 65 09 77 bb e0 32 2c 3c
       0.008213178 0.00053539703 -0.0037694809 0.010510176
0001d0 e6 00 26 bc bf 45 d0 3a ed 20 9e bb ea 1a b0 3b
       -0.01013205 0.0015889927 -0.0048257024 0.005374302
0001e0 2b 58 12 3c f4 fa 9c 3b 24 c4 22 3c b9 69 2e 3b
       0.008932154 0.004790658 0.009934459 0.0026613309
0001f0 6b 20 9f bb 7b f1 31 ba ee 72 00 bc 53 f1 d4 ba
       -0.0048561594 -0.00067879976 -0.007839901 -0.0016246237
000200 b1 96 3c 3a 02 e3 2b bc aa 0c 97 ba 98 b4 01 3c
       0.00071940856 -0.010491135 -0.001152416 0.007916592
000210 f8 1a 17 3c 71 24 84 3a e4 bf 07 3c 0c b1 ae ba
       0.009222738 0.0010081661 0.008285496 -0.001332791
000220 5d 5c 84 bb 0b 08 92 bc 09 de c8 ba 05 2b b3 bb
       -0.004039331 -0.0178261 -0.0015324961 -0.005467775
000230 db 41 04 bc 46 c1 cc 39 94 ea 32 3b 00 30 a6 bb
       -0.008072342 0.00039053912 0.0027300464 -0.00507164
000240 3d ea de 3a 76 b5 8a 3b 28 ef d2 3b 58 0c 1c 3c
       0.0017007064 0.0042330576 0.006437201 0.009524427
000250 fb 7b 14 bb 67 6d 85 bb ec 6b 88 3b 02 20 52 ba
       -0.0022656906 -0.0040718797 0.004163256 -0.0008015634
000260 dd 3e e8 3b a5 4e 84 3b c1 26 29 bc 8a e1 9c 3b
       0.007087572 0.0040376955 -0.010324181 0.0047876285
000270 22 45 71 3a b3 dd 93 3b 2d 28 66 3c bd 49 f9 39
       0.0009203722 0.0045125126 0.014047665 0.0004754792
000280 30 33 97 3a e3 53 8b 3a 3a 6e 48 3a a8 26 c6 3b
       0.0011535641 0.0010629859 0.00076458196 0.0060470887
000290 4d e9 d6 ba 72 f8 29 3b 6f e3 35 bb 3f bf ba b8
       -0.0016396433 0.0025935438 -0.002775397 -8.9047935e-05
0002a0 a1 22 01 bb 18 80 95 ba 9b 81 04 38 01 18 01 ba
       -0.0019704478 -0.0011405973 3.1591957e-05 -0.00049245363
0002b0 c6 66 38 bb 9b 9c 1c 3b 9d 00 e0 3b 27 5c 36 b9
       -0.002813743 0.0023897055 0.0068360106 -0.00017391202
0002c0 a4 7b 09 3c be ec b0 bc fa df 99 bb 3a f0 09 3c
       0.008391295 -0.021597262 -0.0046958895 0.008419091
0002d0 cb 16 85 3a d7 61 88 bb 83 a9 8b bb 47 ad 2a ba
       0.0010153888 -0.004162054 -0.0042621507 -0.00065108057
0002e0 fa 79 8b bb f6 72 2f bb 10 85 fe bb f7 ac 0b 3c
       -0.004256484 -0.0026771403 -0.007767327 0.008525125
0002f0 23 2d 6a 3b e6 d2 b9 3a d0 1d cd 3b c7 97 5d 3c
       0.003573247 0.0014177233 0.0062596574 0.013524956
000300 24 05 18 3c 4d f6 bc bb 37 c4 12 bc 62 32 96 3b
       0.009278569 -0.005766666 -0.008957914 0.004583643
000310 78 5b b5 3b 2a de c0 bb fe 48 12 3a 78 79 3f bc
       0.0055345856 -0.005885859 0.00055803347 -0.011686675
000320 86 fa a4 3b 0a cf f3 bb c0 65 7a 3b bc 1d 11 3c
       0.0050347475 -0.0074404525 0.003820762 0.008857187
000330 5b 31 6a bb 22 83 7e ba 2d d6 ee bb 83 d2 82 3b
       -0.0035734985 -0.00097088714 -0.0072887153 0.00399238
000340 1c 3c 8f 3b 3b db c0 ba b3 5d c6 3b 82 78 4e bb
       0.0043711793 -0.0014713773 0.0060536503 -0.0031504934
000350 3d e7 27 bc aa 35 53 3b 77 1c f6 bb 6f 66 bc ba
       -0.010248003 0.0032228031 -0.0075107175 -0.0014373789
000360 bb 2d c4 ba b2 07 af bb b0 31 d9 bb 42 b4 f5 3b
       -0.0014967242 -0.0053414935 -0.0066282377 0.007498295
000370 a7 81 18 3b fa 1a c9 bb 9b fe 1d bc a6 32 b8 3a
       0.0023270638 -0.006137249 -0.009643222 0.001405318
000380 e8 f4 b8 3b 3a 10 11 bb f0 c3 94 bb 1b d4 50 3b
       0.0056444295 -0.0022134916 -0.004539959 0.0031864706
000390 3b 39 e4 bb df c3 fd 3b 92 35 8d 3a 42 4c 26 bb
       -0.00696483 0.007744297 0.0010773411 -0.0025375043
0003a0 45 7a f1 bb 0a 4d 8c ba ab 39 4c 3a fc d2 1f bc
       -0.007369312 -0.0010704112 0.00077905756 -0.009754892
0003b0 67 0d 55 3b 27 67 42 bc 83 ac cc 3b 4b b2 2a bb
       0.003250921 -0.011865414 0.006246151 -0.0026046212
0003c0 4f 5f 7d bb 98 62 33 3a 32 28 ee 3b d5 3b 33 bb
       -0.0038661545 0.0006843 0.0072679752 -0.0027348895
0003d0 ee ee 80 3b bf 13 ca 3b a2 56 bc ba b5 c7 0b b9
       0.0039347326 0.0061669047 -0.001436908 -0.0001333047
0003e0 7c 73 47 ba bd 45 06 bb f5 40 59 3b cb fa 12 bc
       -0.0007608456 -0.0020488345 0.003315029 -0.0089709265
0003f0 38 5e 58 bc 30 8a 52 bb 0f 57 39 3c 25 b5 df b9
       -0.013206057 -0.0032125823 0.01131226 -0.00042668838

action_model._discrete_distribution.branches.3.bias f4 [2]
000000 00 00 00 00 00 00 00 00
       0.0 0.0

action_model._discrete_distribution.branches.3.weight f4 [2, 256]
000000 d8 fb d1 b9 d8 86 a0 bb 15 7d ea b9 c1 94 12 3c
       -0.00040051225 -0.004898887 -0.0004472515 0.0089465985
000010 b5 ed f4 ba c0 f3 ce bb 26 8a 2c 3c b0 75 eb 3a
       -0.0018686565 -0.0063156784 0.010530984 0.0017964151
000020 b7 78 0e bc a6 e9 22 bc 1f 1b a4 3b 57 87 10 b9
       -0.008695773 -0.009943401 0.005008116 -0.00013783328
000030 5b e5 da bb cc 22 0b bc b7 ba ba 3b 61 dd 15 3b
       -0.0066801733 -0.008492183 0.0056985277 0.0022867548
000040 7a ac 61 bc 37 5a c8 3b f6 2a 97 3a da 81 58 bb
       -0.013774032 0.00611427 0.0011533189 -0.0033036382
000050 c4 d7 8b 3b cf d9 2b 3b d0 ee 4f bb 6b b2 ab 3b
       0.0042676646 0.0026222353 -0.0031728037 0.005239775
000060 1f 4d b3 ba cf b0 2a bc f7 21 ca bb 89 98 3d 3b
       -0.00136796 -0.010418131 -0.0061685997 0.002893003
000070 74 bf aa bb d7 5d 20 3c c2 f8 63 bc 2f 4d c9 3b
       -0.0052108113 0.009787998 -0.013914289 0.006143234
000080 db 63 14 bc 3c 15 48 b9 65 0f ae ba 00 86 f4 bb
       -0.0090570105 -0.00019081397 -0.0013279734 -0.007462263
000090 47 b6 05 3b 22 31 5e bb 35 ce 67 bb 62 b2 f0 3b
       0.0020402835 -0.0033903797 -0.0035370712 0.0073454836
0000a0 33 21 d2 3a 03 44 62 bb 97 c4 95 3b 1a e6 5e 38
       0.0016031623 -0.0034525401 0.0045705545 5.3143223e-05
0000b0 cd 1e d7 bb 23 68 0e bc 77 df 11 bc 83 f4 88 3b
       -0.006564951 -0.00869182 -0.008903376 0.0041795387
0000c0 aa 0c 1a bb fb b4 d7 bb 39 a3 82 bb 28 6d 55 3c
       -0.0023506084 -0.006582854 -0.003986743 0.013026513
0000d0 ff 46 f9 3a 28 c4 75 bb bc 6d b9 3b b8 b8 84 bb
       0.0019018351 -0.0037500951 0.0056588333 -0.0040503405
0000e0 53 50 b8 bb df e2 1b bc bc 0d 00 3b 97 eb a3 bb
       -0.00562481 -0.0095145395 0.0019539436 -0.0050024497
0000f0 60 3b 94 3c e5 49 4e bc f0 9f 27 3b 0f 88 d2 3b
       0.018094718 -0.01259086 0.0025577508 0.006424911
000100 d6 58 12 bc 5e 5b 20 bb 6b 15 12 3b 3f 09 b6 3b
       -0.008932313 -0.0024468522 0.0022290598 0.0055553014
000110 97 4c 8f 3b 87 b6 2a bb db 9d 1a bb 5e 90 3a bb
       0.004373144 -0.0026048736 -0.0023592624 -0.0028467397
000120 d7 5e 64 bb f7 5b 59 3b 2f f7 52 3b d8 eb f0 b8
       -0.0034846568 0.0033166388 0.003219079 -0.00011488021
000130 03 2e 81 3b 84 26 92 3b fb 02 13 3c ea 83 04 3c
       0.0039422526 0.004460158 0.008972879 0.008088091
000140 27 e2 0e 3c 52 69 65 bc c4 9f 2c 3c 72 99 d4 bb
       0.008720911 -0.014002161 0.010536138 -0.0064880187
000150 db 43 16 3a 63 34 1f 3c 57 49 49 bb 8f eb c9 3b
       0.0005732157 0.00971708 -0.003071388 0.006162114
000160 87 3f 0c 3c 01 cf 27 3c 8c a0 36 3c 46 9d 1c bb
       0.008560068 0.010242225 0.011146676 -0.0023897453
000170 c7 cc 88 3b de 25 c6 bb 60 68 bf 39 16 78 95 ba
       0.004174802 -0.0060469946 0.00036508124 -0.0011403586
000180 56 35 1c 3b 0f a7 f0 bb 88 39 33 3c e1 4e 04 bc
       0.0023835502 -0.0073441337 0.0109390095 -0.008075447
000190 d3 5d 1c 3a 5e b6 81 ba ec 95 a1 bb 63 53 d1 ba
       0.00059649086 -0.0009896269 -0.004931202 -0.0015970286
0001a0 52 c7 50 bb ab 1f 0f bc 62 2c eb bb a0 98 6b bc
       -0.0031857085 -0.008735578 -0.0071769217 -0.01437965
0001b0 22 f7 57 bc d8 87 68 3b 77 53 ed bb b8 d1 46 3c
       -0.01318148 0.003548136 -0.007242616 0.012134962
0001c0 6f d7 6e 3b 7d 8a 5e bb b3 5b c5 3b 1b 20 d7 3b
       0.0036444326 -0.0033957057 0.0060228943 0.0065651066
0001d0 97 af 1d 3c 42 e9 5e bc 47 11 c9 3b a6 2d a1 ba
       0.009624383 -0.013605418 0.006136093 -0.001229693
0001e0 13 a1 a0 ba fe 35 3e bb d5 77 6f 3b 93 f6 7b bb
       -0.0012255035 -0.002902388 0.0036539931 -0.003844653
0001f0 27 48 a9 bb 6c c3 8f ba b7 2e ce 3b db 6b 07 3b
       -0.005166072 -0.0010968274 0.00629219 0.0020663652
000200 c0 82 46 3c 5d 56 bd 3a 3c c1 47 37 48 f3 f0 39
       0.012116134 0.0014445294 1.1906315e-05 0.00045957626
000210 4c f9 87 3c ad 02 24 bb 4a 8d 86 3b 5b 34 c0 3b
       0.016598366 -0.002502601 0.0041061984 0.0058656163
000220 b7 be 24 3b c3 6a 87 bb 98 98 61 3c ad f8 21 3b
       0.002513809 -0.0041326 0.013769291 0.0024714873
000230 4d 42 81 3b 90 c9 29 bc 83 ed aa ba fb 47 f9 39
       0.0039446712 -0.010362998 -0.0013040755 0.0004754661
000240 58 6e 34 3b 0d 7d 28 bb 36 30 87 3b 1f c8 a6 ba
       0.002753159 -0.0025709302 0.0041256202 -0.0012724436
000250 57 f0 23 b9 8a 7a 9f 3b 57 16 f3 bb 5d d0 a0 3b
       -0.00015634425 0.0048669027 -0.0074184346 0.0049076513
000260 27 92 17 3b 4d 19 ea 3b 88 6b b8 3a 3c a1 31 3c
       0.0023127885 0.0071441294 0.0014070133 0.010841664
000270 2f 7a e8 3b 77 00 5f bb 71 e2 37 3c 37 6f ae 3a
       0.0070946435 -0.0034027377 0.011223421 0.0013308291
000280 e7 88 c1 3b 7f 05 9b ba cb f3 25 bc 63 99 19 bb
       0.0059062126 -0.00118272 -0.010128926 -0.0023437373
000290 2f 9e 03 bc d2 3e 58 3c 5f 6e 61 3b 87 e5 5e bb
       -0.008033319 0.013198571 0.0034398062 -0.003401132
0002a0 37 13 23 bc 4c 5f 27 3c 43 12 9c b9 32 a0 ba 3b
       -0.009953312 0.010215592 -0.00029768245 0.0056953663
0002b0 73 40 3c bc c5 05 f9 3a 57 e8 80 3c 34 8b 18 3c
       -0.011489975 0.0018998912 0.015735788 0.009310532
0002c0 70 1a 7b b8 ff 55 b3 3a 52 68 b0 3b 76 b1 2f ba
       -5.9867685e-05 0.0013682245 0.0053835297 -0.0006702164
0002d0 f4 e6 a7 3b 14 bb 2e bb b8 66 48 bb 7e 9f b7 bb
       0.0051239673 -0.00266618 -0.0030578803 -0.0056037297
0002e0 52 53 18 bb b5 09 d0 3b 50 7e 39 bc 66 43 ac bb
       -0.0023243022 0.0063488134 -0.011321619 -0.005257058
0002f0 2b f9 72 bb 67 e5 2d 3c 1b cb e2 bb ee 9a 41 bc
       -0.0037074785 0.010613776 -0.0069211847 -0.011816723
000300 2b 1c 33 3a 2a c4 2a bc dd 42 bc 3b 8e 42 80 bb
       0.00068325055 -0.010422746 0.0057452754 -0.003914184
000310 de 82 3f bb 7a 2f 7c bb 81 b2 a0 3b e7 e4 d9 3a
       -0.002922229 -0.0038480447 0.004904092 0.0016624004
000320 09 d0 b6 bb db 6c 86 bb 5a bc 26 bb 00 67 0a 3c
       -0.005578999 -0.004102332 -0.0025441856 0.008447409
000330 bf a6 82 39 0a 72 7d 3b 83 12 94 bb 18 98 5a 3a
       0.00024919768 0.003867271 -0.0045188083 0.0008338704
000340 f7 1e dd b9 a0 12 61 b9 1a 01 04 3c 6f 49 5b 3c
       -0.00042175475 -0.0002146461 0.008056903 0.013384207
000350 7d 18 f8 ba 13 a6 62 bb 4a ed 8b 3a 6d 5b 28 bb
       -0.0018928197 -0.0034583851 0.0010675576 -0.002568926
000360 1d 44 ae bb e6 80 13 3c bb 11 ac 3a 30 69 0d bc
       -0.0053181783 0.0090029 0.0013127843 -0.008631036
000370 20 08 5a bb 33 fe cc 3b 48 10 a0 ba 1f ba 63 3c
       -0.0033269003 0.006255889 -0.0012211883 0.013899355
000380 8b 4f 89 3a bf 1e 1e bc 17 62 8d 3b 3a fa 65 3b
       0.0010475976 -0.009650885 0.0043146717 0.0035091774
000390 63 7e c5 ba 10 d7 99 39 3f 17 76 bb 12 31 3e 3b
       -0.0015067573 0.00029342668 -0.0037550477 0.0029020947
0003a0 67 67 34 38 c7 3f 79 3a fe 60 38 bb f5 88 32 3b
       4.3011645e-05 0.00095081 -0.0028133984 0.0027242277
0003b0 65 19 e1 bb 00 b2 d8 3b 42 b8 1d bb f0 71 74 bb
       -0.0068694823 0.006613016 -0.0024066125 -0.0037299357
0003c0 a0 3d 25 3c a0 52 99 b9 43 b3 91 bc 28 c6 11 bc
       0.010085493 -0.00029243995 -0.017785674 -0.008897342
0003d0 8b 39 d0 bb 17 72 08 3c c4 47 15 bc 3b b0 98 3a
       -0.006354516 0.008327982 -0.009111349 0.00116492
0003e0 9f a2 83 3b 27 0c 3b 3c 03 ee b0 bb b8 6d 51 3c
       0.0040171887 0.011416472 -0.005399467 0.012782507
0003f0 3b 4c b9 ba e1 3b 81 3a 77 2d 9c 3a 48 af 7b 3b
       -0.0014137098 0.0009859764 0.0011915405 0.0038404036

action_model._discrete_distribution.branches.4.bias f4 [2]
000000 00 00 00 00 00 00 00 00
       0.0 0.0

action_model._discrete_distribution.branches.4.weight f4 [2, 256]
000000 bb 8d fc bb 51 80 49 bc e7 b2 a2 bb bf fc a3 bb
       -0.0077073253 -0.012298659 -0.0049651745 -0.005004495
000010 a5 78 ea bb e1 02 07 3c 40 64 e4 3b 3d 6c a5 bb
       -0.007155495 0.0082404325 0.0069699585 -0.0050483034
000020 90 cc 5e 3b 9f 0c 85 ba 77 cb bc 3a 89 50 8a ba
       0.003399644 -0.0010150856 0.0014403899 -0.0010552566
000030 83 7f 2c 3b 35 9a 05 3c 1e e5 3b bb 45 72 8e 3b
       0.002632112 0.008154442 -0.00286705 0.004347118
000040 ae 7a c6 ba fa f6 34 bb 7f 67 4d bb 1f 5e 5f 3b
       -0.0015142763 -0.002761303 -0.0031342206 0.00340832
000050 02 d5 29 bb d0 b5 a2 3b b6 17 97 3b 52 9c 87 bb
       -0.0025914316 0.0049655214 0.004610981 -0.004138508
000060 02 3d 24 3c df ea 27 3b 90 75 50 3b 9d b9 dd ba
       0.010024311 0.0025622172 0.0031808354 -0.0016916279
000070 a8 1e 61 bb 14 86 86 bc 5d 8d 81 3b d8 86 6d 3a
       -0.0034350548 -0.016421355 0.0039536194 0.0009060926
000080 01 8d 98 bb 76 ba 00 bb 08 31 e9 bb 5f ef 03 3b
       -0.004655481 -0.001964239 -0.0071164407 0.002013169
000090 2e e1 1c 3c b5 1d d5 3a 07 88 d0 3b 19 97 44 bb
       0.009575171 0.0016259464 0.006363872 -0.0029997288
0000a0 bc c7 46 3b d4 a1 8f 3b 58 f0 06 3b d0 49 e0 3b
       0.0030331453 0.004383305 0.0020590033 0.0068447366
0000b0 ec 4d 09 bc 8d 30 f9 ba 67 1b 80 ba e0 65 90 b9
       -0.008380394 -0.0019011662 -0.0009773792 -0.00027541723
0000c0 78 95 59 39 41 9c bb ba 73 0d 4b 3c b5 21 09 3a
       0.00020750414 -0.0014313535 0.012393343 0.0005231158
0000d0 21 1b c4 bb a0 45 ff bb d7 48 a2 3b c0 a1 51 bb
       -0.0059846793 -0.0077902824 0.004952531 -0.003198728
0000e0 af d0 84 3b 86 cc 0b ba 97 22 a9 3b a9 0a 01 bc
       0.0040531973 -0.00053329056 0.005161594 -0.007876077
0000f0 6f ff 2f bc 23 07 0a bc df 31 f0 bb 7f 5f a1 bb
       -0.010742052 -0.008424553 -0.007330164 -0.004924714
000100 87 4b f4 bb 23 4c 41 bc c1 2e 00 3c a5 ff 9c bb
       -0.0074552926 -0.011797938 0.007823647 -0.0047912174
000110 dd 1a 5d bb 13 e8 32 3b 89 5b 1d 3a 6f 7a b8 39
       -0.0033737936 0.0027298972 0.00060027145 0.00035186435
000120 5f b2 5d 3c 90 5c 43 bc bf 30 ac 39 83 fd 73 bc
       0.0135312965 -0.011923924 0.00032842715 -0.014891985
000130 6e 4a 07 bc 70 03 e6 bb da ce 0e 3b 53 2e db 3b
       -0.0082574915 -0.0070194528 0.0021790774 0.006688872
000140 f3 8c 58 3b 12 94 36 bc 14 e0 20 3b 50 6c 26 3c
       0.0033042997 -0.011143701 0.0024547623 0.01015766
000150 0d 2e 51 bb 31 ec c3 3b 3c 4b a0 bb 73 00 b2 bb
       -0.0031918318 0.005979084 -0.004891781 -0.0054321825
000160 6b 5d 8e bb 67 53 99 bb 11 27 1a 3b 39 6b a1 3b
       -0.0043446324 -0.004679132 0.002352182 0.004926112
000170 f3 bc 09 bc 9d 60 e7 bb 4e 66 00 ba bd 11 3c 3a
       -0.008406865 -0.0070610777 -0.0004898057 0.0007174274
000180 de a3 18 3c 0c ed 3a bb ae 29 c4 3a dd 50 20 3b
       0.009316413 -0.0028522639 0.0014966035 0.002446226
000190 c5 9a 77 3b a3 52 17 3c c7 72 0b bc 83 a7 a7 ba
       0.0037781459 0.009236011 -0.008511252 -0.0012791011
0001a0 50 0f 9f bb 85 50 88 bb 95 5e 1d bb c5 27 64 bc
       -0.0048541203 -0.0041599893 -0.0024012674 -0.013925497
0001b0 e3 6f d3 3b 97 e2 b1 ba c0 ed 0b bc 7e fd 33 3c
       0.006452547 -0.0013571557 -0.008540571 0.01098573
0001c0 a5 24 6c 3b a4 3f 0c bc 37 80 00 bb 8f 1c 05 3b
       0.0036032584 -0.008560095 -0.0019607672 0.0020311212
0001d0 f7 65 e4 ba f0 05 5c 3c d7 d5 ab 3b 11 3c 1f bb
       -0.0017425407 0.01342915 0.0052439976 -0.0024297277
0001e0 27 d1 dc 3b ff a2 c6 39 3d 29 14 3b 3e 6f a9 bb
       0.0067388 0.00037886944 0.0022607588 -0.005170732
0001f0 6b 47 33 bc 85 54 72 bb 15 54 83 39 72 64 2c 3a
       -0.01094232 -0.0036976647 0.00025048913 0.0006576247
000200 d3 e7 0a bc 3d 03 ae 3b 2d 85 3c bb 0c 62 86 3a
       -0.008478123 0.0053104446 -0.0028765902 0.0010252609
000210 5b 5b 08 bc 10 d6 fa 3b 32 47 85 3a 13 8c 8b bb
       -0.008322562 0.007654913 0.0010168313 -0.0042586415
000220 2f 6d 27 bc 77 96 47 bb 0a 84 40 3c b7 7f 9c ba
       -0.0102189025 -0.0030454674 0.011750231 -0.0011939917
000230 dc a4 c2 bb 75 b8 43 bc 3c fc 0e 3c 77 af f3 bb
       -0.005940063 -0.011945833 0.00872713 -0.0074366885
000240 c2 2e c6 3b d0 4a 74 bb d2 a2 f0 bb 23 cd a0 39
       0.0060480544 -0.0037276037 -0.0073436284 0.00030670417
000250 7f 96 3b 3c 0f eb 96 bb 53 6c 49 3c a8 17 75 39
       0.011449455 -0.004605658 0.012293893 0.00023373833
000260 7a 0b 1b 3c cb ab 12 bc cb d3 93 3b 86 bb b7 bb
       0.009463185 -0.008952091 0.0045113317 -0.0056070713
000270 0a 42 87 3b 38 af f2 bb 7a c1 f2 ba 3b 85 05 bc
       0.0041277455 -0.0074061416 -0.0018520795 -0.00814944
000280 c8 c0 52 3b d7 d7 7c bb 60 af 29 3b 1f c2 17 3c
       0.0032158364 -0.00385808 0.0025891885 0.009262591
000290 58 02 d1 bb db 70 23 3b 5f bf 6c ba 1b d1 ad bb
       -0.006378453 0.0024939093 -0.0009031202 -0.0053044683
0002a0 91 63 0e bc c3 d1 0b bb 2b 84 8a 3b 29 29 af bb
       -0.008690731 -0.0021334745 0.0042271814 -0.005345483
0002b0 33 a0 c5 ba ab ab 13 3a ed 14 66 3b aa c8 e4 ba
       -0.001507765 0.00056331855 0.0035107688 -0.0017454822
0002c0 5b 39 4d bc 00 a3 86 b9 13 5f dc ba 13 9b 0c 3c
       -0.012525882 -0.00025679916 -0.0016813002 0.008581894
0002d0 f3 a2 51 3b 13 5e ef 3b 30 14 2f bb 98 c7 de 38
       0.0031987994 0.0073049157 -0.0026714914 0.00010622962
0002e0 57 db 46 bb 4b 71 1d ba 53 39 96 3b 03 87 72 3b
       -0.003034314 -0.00060059567 0.0045844703 0.0037006743
0002f0 4b 31 87 bc 27 8c b5 3b 2d 9c ab bb 6f 7d 46 3b
       -0.016502997 0.005540389 -0.0052371235 0.0030287167
000300 d9 69 39 bc 2b 60 92 b8 ab e7 b8 bb a3 f2 6f 3b
       -0.01131674 -6.979735e-05 -0.0056428513 0.0036613129
000310 07 0b 00 3c 2b 9d 58 3b df f4 7e bb 0a 28 60 ba
       0.007815129 0.0033052664 -0.0038903279 -0.0008550888
000320 b9 42 9a 3a b0 d4 6b 3b 25 67 6e bb 6e cf 45 3c
       0.0011769152 0.0035984926 -0.0036377397 0.012073381
000330 b6 1d ad bb d0 0b fb 3a 3a 4f 61 bb 48 4c 5a bb
       -0.005283083 0.0019153301 -0.0034379498 -0.0033309627
000340 f3 ee 8a 3a 17 31 83 bb 17 cb 0e 3b 77 a6 9e bb
       0.0010599777 -0.0040036547 0.0021788531 -0.0048416215
000350 fb 13 e4 bb 22 2b 8d bb da 67 0d bc c5 18 d5 3b
       -0.0069603897 -0.0043081203 -0.008630717 0.006503197
000360 57 29 14 bc d2 3a ce bb b0 33 c6 3b 77 4b 75 bc
       -0.009043059 -0.006293633 0.006048642 -0.0149716055
000370 25 39 ff 3a 85 d4 f4 ba 28 f3 1e 3b 5f 5b c9 3a
       0.0019471986 -0.0018679058 0.002425382 0.0015362314
000380 2a 72 1c 3b 59 f8 14 3c f9 4d 3a bc a6 92 45 bb
       0.0023871758 0.009092414 -0.011371129 -0.0030147224
000390 e3 c1 f4 bb 10 a0 24 3a 9f 6b 24 3c 7b 43 be b9
       -0.007469402 0.00062799547 0.0100354245 -0.000362899
0003a0 4f dd ad bb c8 c1 28 bc 0b c3 9e 3b 82 02 0c 3c
       -0.005305923 -0.010300107 0.0048450283 0.00854552
0003b0 6c 1e 16 bc 7a bd e6 ba e2 e0 ed ba 2d 95 04 3c
       -0.009162527 -0.0017604076 -0.0018148685 0.008092207
0003c0 e5 58 ea b9 af f9 0c bb 56 58 06 3c ba 04 8b bb
       -0.0004469819 -0.0021511128 0.008199772 -0.004242507
0003d0 b7 d2 0c bc 07 14 39 3a c0 ff 5a ba af 55 18 bb
       -0.00859516 0.0007060174 -0.000835415 -0.002324443
0003e0 dd 6c 3f 3c 87 d1 73 bb f3 1c 3f bc 75 4e 2b 39
       0.01168367 -0.0037203745 -0.011664617 0.00016337058
0003f0 23 ab 8e 3b 3d d1 4e bb e2 7a 1f bc 43 5d aa bb
       0.004353897 -0.0031557821 -0.009733887 -0.005199106

network_body.linear_encoder.seq_layers.0.bias f4 [256]
000000 00 00 00 00 00 00 00 00 00 00 00 00 00 00 00 00
       0.0 0.0 0.0 0.0
000010 00 00 00 00 00 00 00 00 00 00 00 00 00 00 00 00
       0.0 0.0 0.0 0.0
000020 00 00 00 00 00 00 00 00 00 00 00 00 00 00 00 00
       0.0 0.0 0.0 0.0
000030 00 00 00 00 00 00 00 00 00 00 00 00 00 00 00 00
       0.0 0.0 0.0 0.0
000040 00 00 00 00 00 00 00 00 00 00 00 00 00 00 00 00
       0.0 0.0 0.0 0.0
000050 00 00 00 00 00 00 00 00 00 00 00 00 00 00 00 00
       0.0 0.0 0.0 0.0
000060 00 00 00 00 00 00 00 00 00 00 00 00 00 00 00 00
       0.0 0.0 0.0 0.0
000070 00 00 00 00 00 00 00 00 00 00 00 00 00 00 00 00
       0.0 0.0 0.0 0.0
000080 00 00 00 00 00 00 00 00 00 00 00 00 00 00 00 00
       0.0 0.0 0.0 0.0
000090 00 00 00 00 00 00 00 00 00 00 00 00 00 00 00 00
       0.0 0.0 0.0 0.0
0000a0 00 00 00 00 00 00 00 00 00 00 00 00 00 00 00 00
       0.0 0.0 0.0 0.0
0000b0 00 00 00 00 00 00 00 00 00 00 00 00 00 00 00 00
       0.0 0.0 0.0 0.0
0000c0 00 00 00 00 00 00 00 00 00 00 00 00 00 00 00 00
       0.0 0.0 0.0 0.0
0000d0 00 00 00 00 00 00 00 00 00 00 00 00 00 00 00 00
       0.0 0.0 0.0 0.0
0000e0 00 00 00 00 00 00 00 00 00 00 00 00 00 00 00 00
       0.0 0.0 0.0 0.0
0000f0 00 00 00 00 00 00 00 00 00 00 00 00 00 00 00 00
       0.0 0.0 0.0 0.0
000100 00 00 00 00 00 00 00 00 00 00 00 00 00 00 00 00
       0.0 0.0 0.0 0.0
000110 00 00 00 00 00 00 00 00 00 00 00 00 00 00 00 00
       0.0 0.0 0.0 0.0
000120 00 00 00 00 00 00 00 00 00 00 00 00 00 00 00 00
       0.0 0.0 0.0 0.0
000130 00 00 00 00 00 00 00 00 00 00 00 00 00 00 00 00
       0.0 0.0 0.0 0.0
000140 00 00 00 00 00 00 00 00 00 00 00 00 00 00 00 00
       0.0 0.0 0.0 0.0
000150 00 00 00 00 00 00 00 00 00 00 00 00 00 00 00 00
       0.0 0.0 0.0 0.0
000160 00 00 00 00 00 00 00 00 00 00 00 00 00 00 00 00
       0.0 0.0 0.0 0.0
000170 00 00 00 00 00 00 00 00 00 00 00 00 00 00 00 00
       0.0 0.0 0.0 0.0
000180 00 00 00 00 00 00 00 00 00 00 00 00 00 00 00 00
       0.0 0.0 0.0 0.0
000190 00 00 00 00 00 00 00 00 00 00 00 00 00 00 00 00
       0.0 0.0 0.0 0.0
0001a0 00 00 00 00 00 00 00 00 00 00 00 00 00 00 00 00
       0.0 0.0 0.0 0.0
0001b0 00 00 00 00 00 00 00 00 00 00 00 00 00 00 00 00
       0.0 0.0 0.0 0.0
0001c0 00 00 00 00 00 00 00 00 00 00 00 00 00 00 00 00
       0.0 0.0 0.0 0.0
0001d0 00 00 00 00 00 00 00 00 00 00 00 00 00 00 00 00
       0.0 0.0 0.0 0.0
0001e0 00 00 00 00 00 00 00 00 00 00 00 00 00 00 00 00
       0.0 0.0 0.0 0.0
0001f0 00 00 00 00 00 00 00 00 00 00 00 00 00 00 00 00
       0.0 0.0 0.0 0.0
000200 00 00 00 00 00 00 00 00 00 00 00 00 00 00 00 00
       0.0 0.0 0.0 0.0
000210 00 00 00 00 00 00 00 00 00 00 00 00 00 00 00 00
       0.0 0.0 0.0 0.0
000220 00 00 00 00 00 00 00 00 00 00 00 00 00 00 00 00
       0.0 0.0 0.0 0.0
000230 00 00 00 00 00 00 00 00 00 00 00 00 00 00 00 00
       0.0 0.0 0.0 0.0
000240 00 00 00 00 00 00 00 00 00 00 00 00 00 00 00 00
       0.0 0.0 0.0 0.0
000250 00 00 00 00 00 00 00 00 00 00 00 00 00 00 00 00
       0.0 0.0 0.0 0.0
000260 00 00 00 00 00 00 00 00 00 00 00 00 00 00 00 00
       0.0 0.0 0.0 0.0
000270 00 00 00 00 00 00 00 00 00 00 00 00 00 00 00 00
       0.0 0.0 0.0 0.0
000280 00 00 00 00 00 00 00 00 00 00 00 00 00 00 00 00
       0.0 0.0 0.0 0.0
000290 00 00 00 00 00 00 00 00 00 00 00 00 00 00 00 00
       0.0 0.0 0.0 0.0
0002a0 00 00 00 00 00 00 00 00 00 00 00 00 00 00 00 00
       0.0 0.0 0.0 0.0
0002b0 00 00 00 00 00 00 00 00 00 00 00 00 00 00 00 00
       0.0 0.0 0.0 0.0
0002c0 00 00 00 00 00 00 00 00 00 00 00 00 00 00 00 00
       0.0 0.0 0.0 0.0
0002d0 00 00 00 00 00 00 00 00 00 00 00 00 00 00 00 00
       0.0 0.0 0.0 0.0
0002e0 00 00 00 00 00 00 00 00 00 00 00 00 00 00 00 00
       0.0 0.0 0.0 0.0
0002f0 00 00 00 00 00 00 00 00 00 00 00 00 00 00 00 00
       0.0 0.0 0.0 0.0
000300 00 00 00 00 00 00 00 00 00 00 00 00 00 00 00 00
       0.0 0.0 0.0 0.0
000310 00 00 00 00 00 00 00 00 00 00 00 00 00 00 00 00
       0.0 0.0 0.0 0.0
000320 00 00 00 00 00 00 00 00 00 00 00 00 00 00 00 00
       0.0 0.0 0.0 0.0
000330 00 00 00 00 00 00 00 00 00 00 00 00 00 00 00 00
       0.0 0.0 0.0 0.0
000340 00 00 00 00 00 00 00 00 00 00 00 00 00 00 00 00
       0.0 0.0 0.0 0.0
000350 00 00 00 00 00 00 00 00 00 00 00 00 00 00 00 00
       0.0 0.0 0.0 0.0
000360 00 00 00 00 00 00 00 00 00 00 00 00 00 00 00 00
       0.0 0.0 0.0 0.0
000370 00 00 00 00 00 00 00 00 00 00 00 00 00 00 00 00
       0.0 0.0 0.0 0.0
000380 00 00 00 00 00 00 00 00 00 00 00 00 00 00 00 00
       0.0 0.0 0.0 0.0
000390 00 00 00 00 00 00 00 00 00 00 00 00 00 00 00 00
       0.0 0.0 0.0 0.0
0003a0 00 00 00 00 00 00 00 00 00 00 00 00 00 00 00 00
       0.0 0.0 0.0 0.0
0003b0 00 00 00 00 00 00 00 00 00 00 00 00 00 00 00 00
       0.0 0.0 0.0 0.0
0003c0 00 00 00 00 00 00 00 00 00 00 00 00 00 00 00 00
       0.0 0.0 0.0 0.0
0003d0 00 00 00 00 00 00 00 00 00 00 00 00 00 00 00 00
       0.0 0.0 0.0 0.0
0003e0 00 00 00 00 00 00 00 00 00 00 00 00 00 00 00 00
       0.0 0.0 0.0 0.0
0003f0 00 00 00 00 00 00 00 00 00 00 00 00 00 00 00 00
       0.0 0.0 0.0 0.0
