MLagents/results/hb_15/Mario.onnx (onnx, 377673 bytes, 12 tensors)

92 f4 [99]
0	0x3b2ca56c	0.0026343716
1	0x3b2ca56c	0.0026343716
2	0x3b2ca56c	0.0026343716
3	0x3b2ca56c	0.0026343716
4	0x3b742606	0.003725411
5	0x3b742606	0.003725411
6	0x3e9ecb48	0.31014466
7	0x3c8f213a	0.017471898
8	0x3dcd2c8a	0.10018261
9	0x3b2ca56c	0.0026343716
10	0x3b2ca56c	0.0026343716
11	0x3b2ca56c	0.0026343716
12	0x3e9ecc6e	0.31015342
13	0x3c8f213a	0.017471898
14	0x3dcd2c8a	0.10018261
15	0x3b2ca56c	0.0026343716
16	0x3b2ca56c	0.0026343716
17	0x3b2ca56c	0.0026343716
18	0x3eacf66f	0.33781764
19	0x3d008514	0.031376913
20	0x3e24664d	0.1605465
21	0x3b2ca56c	0.0026343716
22	0x3b2ca56c	0.0026343716
23	0x3b2ca56c	0.0026343716
24	0x3eb171b3	0.34657058
25	0x3d0a86d1	0.033819977
26	0x3e20fc4b	0.15721242
27	0x3b2ca56c	0.0026343716
28	0x3b2ca56c	0.0026343716
29	0x3b2ca56c	0.0026343716
30	0x3ed08627	0.4072735
31	0x3d1046e0	0.03522384
32	0x3ead90c7	0.3389952
33	0x3b2ca56c	0.0026343716
34	0x3b2ca56c	0.0026343716
35	0x3b2ca56c	0.0026343716
36	0x3edb7f18	0.42870402
37	0x3d2383c9	0.039920602
38	0x3eb4d4fd	0.35318747
39	0x3b2ca56c	0.0026343716
40	0x3b2ca56c	0.0026343716
41	0x3b2ca56c	0.0026343716
42	0x3ede2b59	0.43392447
43	0x3d49a030	0.049225032
44	0x3ec03295	0.3753859
45	0x3b2ca56c	0.0026343716
46	0x3b2ca56c	0.0026343716
47	0x3b2ca56c	0.0026343716
48	0x3ee22e1d	0.44175807
49	0x3d658d86	0.05604317
50	0x3ecd4ff0	0.4010005
51	0x3b2ca56c	0.0026343716
52	0x3b2ca56c	0.0026343716
53	0x3b2ca56c	0.0026343716
54	0x3eefba2e	0.4682173
55	0x3d84f852	0.06492676
56	0x3e7883f7	0.2426909
57	0x3b2ca56c	0.0026343716
58	0x3b2ca56c	0.0026343716
59	0x3b2ca56c	0.0026343716
60	0x3ef5acf0	0.47983503
61	0x3d924a58	0.07143086
62	0x3e8081ef	0.2509913
63	0x3b2ca56c	0.0026343716
64	0x3b2ca56c	0.0026343716
65	0x3b2ca56c	0.0026343716
66	0x3edd1c91	0.43185857
67	0x3d8d7bb9	0.06908364
68	0x3eb09be4	0.34493935
69	0x3b2ca56c	0.0026343716
70	0x3b2ca56c	0.0026343716
71	0x3b2ca56c	0.0026343716
72	0x3edd640c	0.43240392
73	0x3da142f7	0.07874101
74	0x3ebdce88	0.37071633
75	0x3b2ca56c	0.0026343716
76	0x3b2ca56c	0.0026343716
77	0x3b2ca56c	0.0026343716
78	0x3eeca8e9	0.46222618
79	0x3d9f0477	0.077645235
80	0x3ec7c583	0.39017877
81	0x3b2ca56c	0.0026343716
82	0x3b2ca56c	0.0026343716
83	0x3b2ca56c	0.0026343716
84	0x3ef2bea3	0.4741107
85	0x3db01212	0.08597197
86	0x3ed1525b	0.40883145
87	0x3b2ca56c	0.0026343716
88	0x3b2ca56c	0.0026343716
89	0x3b2ca56c	0.0026343716
90	0x3b742606	0.003725411
91	0x3b2ca56c	0.0026343716
92	0x3b2ca56c	0.0026343716
93	0x3f47bb70	0.7802038
94	0x3f060274	0.52347493
95	0x3b2ca56c	0.0026343716
96	0x3b74302c	0.0037260158
97	0x3bdc2a8c	0.006718939
98	0x3b2ca56c	0.0026343716

action_model._discrete_distribution.branches.0.bias f4 [3]
0	0xbba576e4	-0.0050495733
1	0x3c5e6868	0.013574697
2	0xbc032eba	-0.008006746

action_model._discrete_distribution.branches.0.weight f4 [3, 256]
0	0xbd28b2e5	-0.041186232
1	0x3d1c0486	0.03809025
2	0x3ccd0303	0.02502585
3	0xbb9eccc8	-0.004846189
4	0xbcc948d9	-0.02457087
5	0xbb8bb104	-0.0042630453
6	0x3c3e2235	0.011604835
7	0x3d2df0ff	0.04246616
8	0xbcc9035a	-0.024537731
9	0x3c5d0568	0.0134900585
10	0xbbfb520a	-0.007669692
11	0x3d708a41	0.0587256
12	0x3cee8fa2	0.029121224
13	0xbc8d04eb	-0.01721426
14	0xbd2c2db4	-0.042035773
15	0xbcec2f8c	-0.028831266
16	0x3cb8f875	0.022579411
17	0x3b91c04a	0.0044479715
18	0xbab78dad	-0.0014004015
19	0x3be35007	0.0069370302
20	0xba9340d6	-0.0011234533
21	0x3be6baee	0.0070413267
22	0xbcb00119	-0.021484898
23	0x3c209bb9	0.009802752
24	0x3b2adbbe	0.0026070918
25	0x3c81d92f	0.015850632
26	0xbb9bdc14	-0.00475646
27	0xbb039a94	-0.002008115
28	0x3d7a855b	0.061162334
29	0x3c8b5540	0.017008424
30	0xbc88b0cb	-0.016685864
31	0xbd22215f	-0.039582606
32	0xbca6fab4	-0.020383216
33	0xbc7ce85d	-0.015436259
34	0xbc6a7900	-0.014311075
35	0x3c9fba10	0.019497901
36	0xbc02f60f	-0.007993235
37	0x3c1e2a98	0.00965371
38	0xbc62826a	-0.013825038
39	0x3cb40b36	0.021978002
40	0x3bf4c3ed	0.0074696452
41	0xbc4d4b7e	-0.012530206
42	0x3ce2f698	0.027705476
43	0xbb8ac775	-0.004235203
44	0x3c57ad95	0.013163944
45	0x3c8b2675	0.016986111
46	0x3be4fe89	0.006988351
47	0x3d1d9572	0.0384726
48	0xbcb92e8a	-0.0226052
49	0x3ca50290	0.020142823
50	0xbcba764b	-0.022761485
51	0x3c0855cc	0.008321237
52	0x3c915c0b	0.017744085
53	0x3d451f66	0.048125647
54	0x3ca1776f	0.01971027
55	0xbc2b0dbb	-0.010440285
56	0x3c9f25a9	0.019427137
57	0xbc7ad8cf	-0.01531048
58	0xbba8ef78	-0.0051555
59	0x3c85bc2f	0.016325084
60	0x3c8e7080	0.017387629
61	0x3d478cf2	0.0487184
62	0xbb8ab387	-0.004232827
63	0x3ccf6ec2	0.025321368
64	0xbc9720a0	-0.018448174
65	0x3cb9d0e9	0.022682624
66	0x3be37723	0.0069416924
67	0x3c88ad4b	0.016684195
68	0x3b3d9a06	0.0028930916
69	0xbc83a97c	-0.016072027
70	0xbbe80a24	-0.007081287
71	0xba92e6ca	-0.0011207697
72	0xbc8afe9f	-0.016967116
73	0x3bc3d58d	0.005976385
74	0x3cbac21e	0.02279764
75	0x3bd4605b	0.006481213
76	0x3b0c55af	0.0021413376
77	0x3c337d83	0.010955217
78	0x3c9ad9f4	0.018902756
79	0xbca15d19	-0.019697713
80	0xbb382a8d	-0.0028101534
81	0x3c688d7b	0.014193888
82	0xbc60a912	-0.0137121845
83	0x3be0bedd	0.00685869
84	0xbc512724	-0.0127656795
85	0xbcf0af38	-0.029380426
86	0x3c513e86	0.012771254
87	0x3ad14272	0.0015965237
88	0xbc5ec2f1	-0.013596282
89	0x3cdee4ec	0.027208768
90	0x3d1df8a7	0.03856721
91	0x3c3e39d8	0.011610471
92	0x3d1c1896	0.038109384
93	0x3bfde284	0.00774795
94	0x3cc2f586	0.023798715
95	0xbc81ab76	-0.01582883
96	0x3cbaffbb	0.02282702
97	0x3c8f276c	0.017474853
98	0xbcf3ed3e	-0.029776212
99	0xbc23e678	-0.0100036785
100	0xbc6bf443	-0.014401498
101	0xbca8f34e	-0.02062383
102	0x3c7d8c84	0.015475396
103	0xba0e5087	-0.00054288696
104	0xbabde452	-0.00144876
105	0xbc6f0156	-0.014587721
106	0x3cd7fee0	0.026366651
107	0x3c27617e	0.010216115
108	0xbc86e623	-0.01646716
109	0xbccac89b	-0.02475386
110	0x3cf01734	0.02930794
111	0x3b51eeab	0.0032033126
112	0x3caa4b70	0.020787925
113	0x3d0bd5ea	0.03413955
114	0x3cf658dd	0.03007167
115	0xbcc22672	-0.023699973
116	0xbc9738a1	-0.01845962
117	0x3d06dc21	0.032924775
118	0x3cac74f7	0.021051867
119	0x3d13d51c	0.03609191
120	0xbb8317eb	-0.004000654
121	0xbb7b36c8	-0.0038332213
122	0xbc4328b5	-0.011911561
123	0x3d000ffb	0.03126524
124	0x3b81bca8	0.003959257
125	0xbbc3a605	-0.005970719
126	0x3c988f14	0.018622912
127	0x3d21ab8d	0.039470244
128	0xbaab52cb	-0.0013070939
129	0x3cbef85a	0.023311783
130	0x3cb1b907	0.021694673
131	0x3d1675c2	0.036733396
132	0x3d669d25	0.05630221
133	0x3cce31e2	0.02517027
134	0x3c8f09c5	0.017460713
135	0x3bc4dab0	0.006007515
136	0xbc3d7a3c	-0.0115647875
137	0x3c7a0404	0.015259746
138	0x3d449cc7	0.048001077
139	0xbb667b31	-0.0035168643
140	0x3d35c33f	0.044375654
141	0xbc826e57	-0.015921755
142	0x3c08180b	0.008306514
143	0xbc37c34a	-0.011215994
144	0x3d61e4ea	0.05514995
145	0x3cdea966	0.027180385
146	0x3b45776e	0.0030131
147	0x3d1052a3	0.03523506
148	0xba416040	-0.0007376708
149	0x3c52dab6	0.012869528
150	0x3d58006e	0.052734785
151	0x3cc3c955	0.023899714
152	0xbc18e176	-0.009331098
153	0x3c937b74	0.018003203
154	0xbc87efec	-0.016593896
155	0x3c328ff9	0.010898584
156	0x3c233110	0.009960428
157	0x3b862f54	0.0040949974
158	0x3cd5bf2b	0.026092133
159	0x3c8cb023	0.017173832
160	0xbc3ea78f	-0.011636629
161	0xbad40a03	-0.00161773
162	0x3b9dbd97	0.0048138606
163	0xbb1fd24f	-0.0024386828
164	0x3c9eb9bc	0.019375674
165	0xbccea296	-0.025224011
166	0xbc1ba012	-0.009498613
167	0x3dba1aed	0.09087167
168	0x3cd55ebc	0.02604615
169	0xbb0aaa27	-0.0021158548
170	0x3c845f3e	0.016158696
171	0x3bfb7142	0.0076734135
172	0xbd110ff6	-0.035415612
173	0xbcb59425	-0.022165367
174	0x3c6d8575	0.014497151
175	0x3cc28ea8	0.023749664
176	0x3ce74f17	0.028235955
177	0x3c935827	0.01798637
178	0xbcc2e00d	-0.023788476
179	0xbb21adae	-0.0024670172
180	0x3bb0a5b7	0.0053908485
181	0xbc10b4a7	-0.008832133
182	0xbbd1f56a	-0.0064074295
183	0x3ba969a2	0.005170063
184	0x3d3270af	0.043564495
185	0xbb9a272f	-0.004704378
186	0x3d003158	0.031297058
187	0xbb2418e6	-0.0025039255
188	0x3c233243	0.009960714
189	0x3b754e8f	0.0037430858
190	0xbc5014d0	-0.012700275
191	0xbc642f5f	-0.01392731
192	0x3bff2180	0.007785976
193	0xbb9bb9a8	-0.0047523566
194	0xbced22d1	-0.028947266
195	0x3cc5a3aa	0.024125893
196	0xbc6ac59b	-0.014329339
197	0x3c12f5a2	0.008969696
198	0xbc4381a0	-0.0119327605
199	0x3d020c47	0.03174999
200	0x3d416aa0	0.047220826
201	0x3cdbff00	0.026854992
202	0x3d372330	0.04471129
203	0xbc8e07cd	-0.017337704
204	0x3d5d32dc	0.05400358
205	0xbd09d570	-0.033650815
206	0x3d4d6100	0.050141335
207	0x3c918ee6	0.017768335
208	0xbc71ff45	-0.014770334
209	0x3d066728	0.03281322
210	0x3bd7680d	0.006573683
211	0x3c1da691	0.009622232
212	0xbcd8e7d1	-0.026477726
213	0x3d058674	0.032598928
214	0x3c86ea80	0.01646924
215	0x3c8d11a0	0.017220318
216	0x3d554030	0.052063167
217	0x3d0ef0d2	0.034897633
218	0x3c14bad3	0.0090777455
219	0x3c19a7fe	0.009378431
220	0x3c53c4bb	0.012925322
221	0x3d2a49de	0.04157435
222	0x3ce1add6	0.027548712
223	0xbc1f98a3	-0.009740981
224	0x3d11a93b	0.03556178
225	0x3bf55048	0.007486377
226	0x3b200a02	0.0024420028
227	0x3cf4148f	0.02979496
228	0x3cbabc73	0.022794938
229	0x3c854e86	0.016272794
230	0x3ce256ca	0.027629275
231	0xbd27b62a	-0.04094521
232	0xbc1775a2	-0.009244354
233	0x3cb78a25	0.02240474
234	0x3cf8aab7	0.03035484
235	0xbc3337e8	-0.010938622
236	0xbb60a555	-0.0034278233
237	0x3caa3199	0.020775603
238	0xbaf4ecc6	-0.0018686287
239	0x3cb3d089	0.021950023
240	0xbc89e0e4	-0.016830869
241	0x3d9106c5	0.07081369
242	0x3c23a23d	0.009987411
243	0xbc119262	-0.008884998
244	0xbb6bba00	-0.003596902
245	0x3d2e5151	0.042558018
246	0xbb2fdb52	-0.0026833606
247	0x3ce169b7	0.02751623
248	0xbbcdbc5a	-0.006278557
249	0xbc97a045	-0.01850904
250	0x39c93c18	0.0003838248
251	0xbc8a6bb1	-0.016897054
252	0x3b67909a	0.0035333992
253	0x3cefb053	0.029258883
254	0xbaf40a31	-0.001861876
255	0xbd017333	-0.031604003

action_model._discrete_distribution.branches.1.bias f4 [2]
0	0xbbf702c9	-0.007538174
1	0x3bf702c1	0.00753817

action_model._discrete_distribution.branches.1.weight f4 [2, 256]
0	0x3c8d9f91	0.017288001
1	0xbc7672da	-0.015042031
2	0xbc5822f5	-0.013191928
3	0x3cc4175d	0.023936922
4	0xbc576bf3	-0.013148296
5	0x3c33e080	0.010978818
6	0xbb6dc655	-0.0036281545
7	0xbbf918c1	-0.007601828
8	0x3c345b5d	0.011008111
9	0x3aee763c	0.0018193196
10	0xbcb2eaec	-0.021840535
11	0x3c29b7c7	0.010358757
12	0xbafc20f0	-0.001923589
13	0x3a87a3a2	0.0010348449
14	0xbc867472	-0.016412947
15	0x3be4bd06	0.006980541
16	0xbcdf2beb	-0.027242621
17	0x3c1c6657	0.009545884
18	0x3bf91445	0.0076012933
19	0x3d0b97b2	0.034080215
20	0x3c101ed0	0.008796409
21	0x3c26d41c	0.010182407
22	0xbbd4d825	-0.006495493
23	0x3cf7f846	0.030269753
24	0x3aff1416	0.0019460942
25	0x3cf9d47a	0.030496825
26	0x3cdc5ffe	0.026901241
27	0x3bb70f76	0.00558656
28	0xbba1000d	-0.004913336
29	0xbd21baf4	-0.039484933
30	0xbc0af09f	-0.00848022
31	0xbc650f02	-0.013980629
32	0xbc820df3	-0.015875792
33	0x3bd4bd9c	0.0064923298
34	0xbb6c9caf	-0.0036104133
35	0x3bcb9675	0.0062130042
36	0x3c648f13	0.013950127
37	0xbc50cde3	-0.0127444
38	0x3c11b7c5	0.008893912
39	0xbbc73e43	-0.00608042
40	0xbc6ad0d2	-0.014332013
41	0xbc00b9a3	-0.007856759
42	0x3c73b11e	0.014873771
43	0xbb706a56	-0.0036684475
44	0xbc8eb30c	-0.01741936
45	0xbaa116eb	-0.0012290155
46	0x3c385533	0.011250782
47	0xbcbf4b6e	-0.023351397
48	0xbb38cd5c	-0.0028198576
49	0x3bae33f1	0.0053162505
50	0xbc4b2c5a	-0.012400711
51	0xba81beb1	-0.0009898749
52	0xbc082fc4	-0.008312169
53	0xbb999dfe	-0.0046880236
54	0x3d2d6597	0.04233321
55	0xbcad267f	-0.02113652
56	0xbca0fad0	-0.019650847
57	0xbc85abd2	-0.016317282
58	0xbbfb99a3	-0.007678227
59	0xbc50f2bd	-0.012753186
60	0x3c4c44fa	0.012467617
61	0xbb479d0e	-0.0030458602
62	0xbb8c9fb7	-0.0042915004
63	0x3cb3e2cf	0.021958737
64	0xbcb26f30	-0.021781534
65	0x3b5928a7	0.0033135803
66	0x3c90e70f	0.017688302
67	0xbc03a2f8	-0.00803446
68	0xbc17b4ca	-0.009259412
69	0x3b686514	0.0035460638
70	0xb9dd5665	-0.00042216774
71	0xbd0be617	-0.034154978
72	0xbc44ae59	-0.012004458
73	0xbc2b2c30	-0.010447547
74	0x3c0b6775	0.008508553
75	0xbc428031	-0.0118713835
76	0x3b790e28	0.0038002823
77	0x3bd48f2e	0.006486795
78	0x3b89c705	0.004204633
79	0xbc8da1a4	-0.01728899
80	0xbc622f66	-0.013805246
81	0xbb0d3f50	-0.002155263
82	0xbc0275ee	-0.007962687
83	0xbc814ff9	-0.015785204
84	0x3c89bc36	0.016813379
85	0x3c6c1921	0.014410288
86	0x3c93a334	0.018022157
87	0xbc6a801a	-0.014312768
88	0x3c313bd9	0.010817491
89	0xbbe870a3	-0.0070935055
90	0x3a9fa1f9	0.0012179009
91	0xbc0cd9da	-0.008596862
92	0xbbb38317	-0.0054782736
93	0x3bbbe3e3	0.0057339533
94	0xbc244fcf	-0.0100287935
95	0xbc1e9f2f	-0.009681507
96	0x3b8808de	0.0041514477
97	0x3bf84f27	0.007577795
98	0xbc76dc09	-0.015067109
99	0xbc9513e7	-0.018197967
100	0x3c36b431	0.011151359
101	0xba9bc7c0	-0.0011885092
102	0xbc0479d8	-0.00808569
103	0x3ba0b244	0.0049040634
104	0x3c00edcf	0.007869198
105	0x3c1e9741	0.009679616
106	0xbccbfc02	-0.02490044
107	0x3c136a01	0.008997441
108	0xbbb607ab	-0.0055551133
109	0xbc4fd49d	-0.012684968
110	0xbc5ab9fc	-0.013350006
111	0xbcb137ea	-0.021633107
112	0xbc2d4495	-0.010575433
113	0x3c28b43a	0.010296876
114	0xbc2245b7	-0.009904317
115	0xbc6606da	-0.0140397195
116	0xbab3ca72	-0.001371695
117	0x3c13c4a9	0.009019055
118	0x3a94d51b	0.0011355014
119	0xbc15fbc9	-0.009154269
120	0xb9c8890e	-0.00038249086
121	0xbbf816a4	-0.0075710583
122	0x3bc14265	0.0058978074
123	0xbb878b48	-0.0041364767
124	0x3c54a81f	0.012979536
125	0xbb49d76c	-0.0030798567
126	0x3c70800d	0.014678967
127	0xbbda55b1	-0.0066630472
128	0xbbd4fb8e	-0.006499714
129	0xbb705d52	-0.0036676717
130	0x3cccd564	0.025004096
131	0x3c1a7d0c	0.009429228
132	0xbb048de9	-0.0020226187
133	0xbc06ca04	-0.008226875
134	0xbc0c5f00	-0.008567572
135	0xbbd8d170	-0.006616764
136	0xbc5711da	-0.013126815
137	0x38acf85d	8.2478604e-05
138	0xbc79be7b	-0.015243168
139	0xbba337dc	-0.004981024
140	0x3bd14952	0.0063869143
141	0xbc6d2742	-0.014474692
142	0x3b56a0a2	0.0032749553
143	0xbcd4c111	-0.025970967
144	0xbc3494cc	-0.011021804
145	0xbca5ed7c	-0.020254843
146	0xbbca9e3c	-0.006183414
147	0xbc89228e	-0.01674011
148	0x3c2f23fc	0.010689732
149	0x3cb7ff73	0.022460675
150	0x3ba2966d	0.00496178
151	0xb9a50d3e	-0.0003148112
152	0x3bae4ecb	0.0053194514
153	0x3c0996db	0.008397783
154	0xbc0422f5	-0.008064975
155	0x3c0a82fd	0.008454082
156	0x3bde2d31	0.0067802896
157	0xbc9312ae	-0.017953243
158	0x3c1447e6	0.009050345
159	0x3c47b5ca	0.012189338
160	0x3bd5c5a4	0.0065238047
161	0x3aaf7886	0.0013387359
162	0xbd281dd4	-0.04104407
163	0x3c82ea26	0.015980791
164	0x3c359fe5	0.011085485
165	0x3b83cddf	0.0040223445
166	0xbc9b4214	-0.018952407
167	0xbc41549f	-0.01179996
168	0x3c648a7b	0.013949032
169	0xbd110918	-0.035409063
170	0xbca6f842	-0.02038205
171	0x3c6abc64	0.014327142
172	0x3b49e125	0.0030804363
173	0xbae60ec9	-0.0017552014
174	0xbb1ba7d4	-0.0023751156
175	0x3b10d5b3	0.002210003
176	0xbc3c642d	-0.011498493
177	0xbbb29b0c	-0.005450612
178	0x3bc8d35d	0.006128712
179	0xbc871e61	-0.016493978
180	0x3acc4539	0.0015584595
181	0xbc8976ee	-0.016780343
182	0xbc46240d	-0.012093556
183	0x3bfd89f3	0.007737392
184	0x3ce6497a	0.028111208
185	0x3be184b0	0.0068822727
186	0x3c0a12a0	0.008427292
187	0x3bf829db	0.007573349
188	0x3bbe45fc	0.0058066826
189	0x3b1d278a	0.0023979866
190	0xbcb0fbbf	-0.021604417
191	0x3ad42b10	0.001618715
192	0x38067b1a	3.2062737e-05
193	0xbbb1bf7c	-0.005424438
194	0x3c19c922	0.009386333
195	0x3ce5a4f7	0.028032763
196	0xbbf24656	-0.0073936386
197	0xbaf18ae1	-0.001842823
198	0xbb94d5df	-0.004542097
199	0xbbe11178	-0.0068685375
200	0x3b98eb0f	0.004666693
201	0xba153307	-0.00056915026
202	0xbc841821	-0.016124787
203	0xbada0812	-0.0016634485
204	0xbc6e78c2	-0.014555158
205	0xbaa7a786	-0.0012791015
206	0xbca97ef8	-0.020690426
207	0x3c43906d	0.011936289
208	0xbc2d1900	-0.0105650425
209	0xbb0c99bf	-0.0021453945
210	0x3ba17d38	0.0049282573
211	0xbb9427c1	-0.0045213406
212	0xbbd64867	-0.0065393928
213	0x3bc4283f	0.005986243
214	0x3c20355c	0.009778347
215	0x3b8ba090	0.004261084
216	0xb9b05fbb	-0.0003364066
217	0x3b7d0d4a	0.0038612657
218	0x3c229159	0.009922349
219	0xbbad6bc6	-0.0052923886
220	0xbc81ea05	-0.01585866
221	0x3b399321	0.0028316455
222	0x3c03a9f0	0.008036122
223	0x3b9a77e9	0.0047140014
224	0xbc85df20	-0.016341746
225	0x3cc49467	0.023996545
226	0x3cecda9a	0.028912831
227	0xbaa07966	-0.0012243211
228	0x392757c7	0.0001595906
229	0x3cc19b31	0.023633571
230	0x3aaba211	0.0013094564
231	0x3bf20cc5	0.007386776
232	0x3c2e71ad	0.01064722
233	0x3c8917be	0.016734954
234	0xbc57e5d1	-0.013177351
235	0x3b51f2cf	0.0032035594
236	0xbca9040b	-0.02063181
237	0xbcc4b9ca	-0.024014372
238	0x3c30e1bb	0.010796006
239	0xbc584248	-0.013199396
240	0xbc56a026	-0.013099706
241	0xbceedeee	-0.029159036
242	0xbc6d8408	-0.014496811
243	0xbbbb7f27	-0.005721945
244	0xbcd9527c	-0.02652859
245	0xb83d8798	-4.5187393e-05
246	0x3c073a49	0.008253642
247	0x3b1f4feb	0.002430911
248	0xbb6174b0	-0.0034401827
249	0xbcb26d7d	-0.021780724
250	0xbc0a529a	-0.008442545
251	0xbc10a8d8	-0.008829318
252	0xbacafb27	-0.0015486226
253	0xbbf4410b	-0.007454043
254	0xbbae4136	-0.0053178323
255	0xb98cd7bc	-0.00026863615

action_model._discrete_distribution.branches.2.bias f4 [2]
0	0x3c650473	0.013978112
1	0xbc650475	-0.013978113

action_model._discrete_distribution.branches.2.weight f4 [2, 256]
0	0xb9a2d274	-0.00031055848
1	0xbc5a76fd	-0.013334033
2	0xbb82c391	-0.0039905985
3	0xbb5d4923	-0.0033765517
4	0xbc25309d	-0.010082391
5	0xbc684613	-0.014176863
6	0xb8b63ab7	-8.689373e-05
7	0x3ca57c07	0.020200742
8	0x3c0b79ce	0.008512927
9	0xbccbfda5	-0.02490122
10	0xbbc114cd	-0.005892372
11	0xbb71fbfa	-0.0036923871
12	0x3d34bee7	0.04412737
13	0x3c1f333b	0.009716804
14	0xbd00d319	-0.03145132
15	0x3c27b7df	0.010236709
16	0xbd1dc22b	-0.03851525
17	0xbbdcf4b2	-0.006743037
18	0xbca2699e	-0.019825753
19	0x3c0973a4	0.008389387
20	0xbbb66b11	-0.0055669625
21	0xbc433821	-0.011915238
22	0xbb9ee5e9	-0.004849185
23	0x3cb64ae4	0.022252508
24	0xbc2b5bac	-0.010458868
25	0x3b2164aa	0.002462665
26	0x3cc68795	0.024234572
27	0xbb1d1391	-0.0023967961
28	0xbcb423e9	-0.02198978
29	0x3cacc027	0.02108772
30	0x3b0f037c	0.0021822145
31	0xbc817055	-0.015800634
32	0xbcddcfac	-0.027076565
33	0x380006a2	3.0523755e-05
34	0xbc690a6b	-0.014223675
35	0xbc56f746	-0.013120478
36	0x3cd9fe0c	0.026610397
37	0x3c8c1887	0.01710154
38	0x3cf1dc5c	0.02952402
39	0x3acc2ef8	0.0015577963
40	0xbd2fc5c7	-0.042913225
41	0xbd0b1c68	-0.033962637
42	0xba6deed6	-0.0009076422
43	0xbcc53ed2	-0.024077807
44	0xbc9e1de1	-0.019301357
45	0xbc29348c	-0.01032747
46	0x3c86bc04	0.016447075
47	0x3cd8620a	0.026413936
48	0xba55e5a3	-0.0008159524
49	0xbcac6e32	-0.021048639
50	0xbca0298d	-0.019551063
51	0xbc1b8bea	-0.009493807
52	0xbc9430da	-0.0180897
53	0xbcd9e9e5	-0.026600787
54	0x3ce6cec0	0.028174758
55	0x3ab06a31	0.0013459382
56	0x3cdede3b	0.027205577
57	0x3b1982a5	0.0023423817
58	0xbc8697ea	-0.01642986
59	0x3d53eb80	0.051738262
60	0x3d5f9c2a	0.05459229
61	0xbd05271b	-0.032507997
62	0x3b836833	0.0040102242
63	0xbb460a6e	-0.003021862
64	0xbc5fd581	-0.013661743
65	0x3c047239	0.008083873
66	0xbc257439	-0.01009851
67	0x3d2b4a20	0.041818738
68	0xbb6fc5a7	-0.0036586316
69	0xbc7713da	-0.015080417
70	0x3d33a9a4	0.043862954
71	0x3c99c316	0.018769782
72	0xbce7331e	-0.028222617
73	0x3cab0559	0.020876573
74	0xbbc8d9be	-0.0061294725
75	0xbd311f09	-0.043242488
76	0xbbde158d	-0.0067774714
77	0x3b6af75b	0.0035853002
78	0x3bbaaa05	0.0056965374
79	0xbc5f1d08	-0.013617761
80	0xbc16f929	-0.009214678
81	0xbc570af2	-0.013125168
82	0xbcfd341f	-0.030908642
83	0xbcbfe0d3	-0.023422634
84	0x3cafa5a1	0.021441283
85	0xbb6a6418	-0.0035765227
86	0x3b0db2d9	0.0021621494
87	0xbd0f6489	-0.035007987
88	0x3d150b8d	0.03638797
89	0x3d61c723	0.055121552
90	0xbd062f27	-0.03275981
91	0x3d283a06	0.04107096
92	0xbb50839d	-0.003181673
93	0xbc18763e	-0.009305535
94	0x3ca58139	0.02020322
95	0xbccf5a62	-0.025311653
96	0x3cc1ccb9	0.02365719
97	0x3c43b140	0.011944115
98	0x3cea7793	0.02862147
99	0xbc5052f0	-0.012715086
100	0xbd0aba8d	-0.033869315
101	0xbc01bdf4	-0.0079188235
102	0xbc05c91a	-0.008165622
103	0x3c60f681	0.013730646
104	0xbaf482e7	-0.0018654735
105	0x3cc837b9	0.024440633
106	0x3a4b3a2a	0.00077525026
107	0xbc0e7f19	-0.008697295
108	0xbcad02cd	-0.0211195
109	0xbc5256c2	-0.0128380675
110	0x3ac46593	0.0014983885
111	0x3bcb3e65	0.0062025064
112	0x3c85ce51	0.01633373
113	0xbcc2af64	-0.023765273
114	0xbc011dc3	-0.007880631
115	0xbc521d13	-0.012824315
116	0xbbf959fe	-0.007609605
117	0x3cd6c1fa	0.026215542
118	0x3b86bf29	0.0041121435
119	0x3d32f2c2	0.043688543
120	0x3c1ca3e0	0.009560555
121	0xbc3b9d15	-0.0114510255
122	0x3c843aa2	0.01614124
123	0x3b97f801	0.0046377187
124	0x3c6a8d90	0.014315978
125	0x3bfcf460	0.0077195615
126	0x39f370ad	0.00046432522
127	0x3bacfd29	0.0052792025
128	0x3c02f0c9	0.007991978
129	0xbc7da503	-0.015481236
130	0x3cf2139c	0.029550366
131	0x3d4300ce	0.04760819
132	0xbc04171b	-0.008062149
133	0x3cc81075	0.02442191
134	0xbc2380dc	-0.009979453
135	0x3c4fe356	0.012688478
136	0xbbecb421	-0.0072236215
137	0x3c27842a	0.010224381
138	0x3d3dcf17	0.046340074
139	0x3c878e9a	0.01654749
140	0xbca38aad	-0.019963587
141	0xbca9b04c	-0.020713948
142	0xbadc0dd5	-0.001678879
143	0xbc963dd7	-0.018340034
144	0x3d1fb3b7	0.03898975
145	0xbd05cf5c	-0.032668456
146	0x3b73c424	0.0037195766
147	0xbc1423a7	-0.009041703
148	0x3ba6ebf3	0.0050940453
149	0x3d74fc30	0.059810817
150	0xbc9183fa	-0.017763127
151	0xbccbe709	-0.02489044
152	0x3b371c52	0.0027940464
153	0x3d1506af	0.036383327
154	0xbcb07fd4	-0.021545328
155	0xbb839e04	-0.0040166397
156	0x3d70dc51	0.05880386
157	0x3ca12276	0.019669753
158	0x3cd16864	0.025562473
159	0xbc711c60	-0.014716238
160	0xbcce25e4	-0.025164552
161	0xbcfab2c1	-0.030602815
162	0xba92b497	-0.0011192736
163	0xbc3c0b83	-0.011477354
164	0x3b1f61ac	0.0024319692
165	0x3d844d88	0.064601004
166	0xbaea91f4	-0.0017896281
167	0xbc8d7faf	-0.017272798
168	0x3bd29ad7	0.0064271498
169	0xbd116c59	-0.03550372
170	0xbcf6dacc	-0.030133627
171	0x3cd1a5a7	0.025591685
172	0x3d381379	0.044940446
173	0xbc2c0e7e	-0.010501502
174	0xbd0962c8	-0.03354147
175	0x3bcb8953	0.0062114387
176	0xbc4566ae	-0.0120484065
177	0xbc9d2148	-0.019180909
178	0xbbe25d19	-0.0069080708
179	0xbcefe2f1	-0.029283019
180	0xbc639a31	-0.013891743
181	0xbc378270	-0.011200532
182	0xbcc31c63	-0.023817247
183	0xbbf837fc	-0.007575033
184	0x3ab458e0	0.0013759397
185	0x3c9bc1b2	0.01901326
186	0x3bfe9b6f	0.007769994
187	0x3bc26424	0.005932348
188	0x3c8a222f	0.016862003
189	0x3ca4a622	0.02009875
190	0xbc9477c9	-0.018123524
191	0xbc88f36f	-0.01671764
192	0x3cfb3295	0.030663768
193	0xbbd3e4d2	-0.0064664865
194	0xbc6c2c74	-0.014414895
195	0x3c7f762a	0.015592137
196	0xbbf19bf2	-0.0073733265
197	0x3a96f008	0.0011515627
198	0x3c3343ac	0.010941427
199	0x3bae1687	0.005312744
200	0x3d306c6a	0.04307214
201	0x3cd8a361	0.026445093
202	0x3ce414fa	0.027842034
203	0x3c0e2582	0.008675935
204	0x3cb95c06	0.022626888
205	0x3cbf5335	0.023355106
206	0x3bc6272c	0.00604715
207	0x3c8773d9	0.016534733
208	0x3ae60ac8	0.001755082
209	0x3ca92cb4	0.020651199
210	0x3b4ba5af	0.0031074097
211	0xbbe7a9ed	-0.0070698173
212	0xbc802ce1	-0.0156464
213	0xbc557204	-0.013027672
214	0x3ce5dfab	0.028060755
215	0x3c6ed601	0.01457739
216	0xbc915b2b	-0.017743668
217	0xbc7f46e9	-0.015580871
218	0xbc53312e	-0.012890143
219	0xba4064e7	-0.00073392544
220	0xbcc09d91	-0.023512634
221	0x3b431c26	0.0029771416
222	0x3cc7806c	0.024353229
223	0xbc705251	-0.014668063
224	0x3ced4ee6	0.028968286
225	0x3c82b558	0.015955612
226	0x3cac47cf	0.021030335
227	0xbd069a88	-0.032862216
228	0x3c084b2a	0.008318702
229	0xbb680cc4	-0.0035408
230	0x3b13c676	0.0022548712
231	0x3ae2fab2	0.0017317145
232	0x3ac2bbfa	0.0014857047
233	0x3d66f850	0.056389153
234	0x3d2b3f36	0.04180833
235	0x3bcdd8a8	0.006281931
236	0x3c6ff178	0.014644973
237	0x3ce1ac9e	0.02754813
238	0x3cdb7d0a	0.026793022
239	0xbc7e5778	-0.015523784
240	0xbc4f428e	-0.012650145
241	0x3d68e22b	0.056856316
242	0x3d164e3c	0.036695704
243	0xbbf31995	-0.007418821
244	0xbc56e9e4	-0.013117287
245	0x3d0dedf3	0.034650754
246	0x3b804f6d	0.0039157183
247	0xbcd61797	-0.026134295
248	0x3bace311	0.005276092
249	0xbcf686ca	-0.03009357
250	0xbc491989	-0.012274154
251	0xbc4a20a5	-0.012336885
252	0xbc665f4b	-0.014060806
253	0xb9ab7218	-0.00032700668
254	0xbc49d788	-0.012319453
255	0x39d512ee	0.0004064063

network_body.linear_encoder.seq_layers.0.bias f4 [256]
0	0x3b2f2cd0	0.0026729591
1	0x3cee93de	0.029123243
2	0x3c96905b	0.01837938
3	0x3ceb8840	0.028751493
4	0x3ce704dc	0.02820056
5	0xbb0912fb	-0.0020915854
6	0x3c958aac	0.0182546
7	0xbc2ac01a	-0.010421777
8	0xbb57941b	-0.0032894674
9	0xbb87a18d	-0.0041391314
10	0x3a05cd86	0.0005104173
11	0x3b33b45b	0.0027420733
12	0xbb789a71	-0.003793385
13	0x3c944c9b	0.018102935
14	0x3c409a00	0.011755466
15	0xbc4272a9	-0.011868157
16	0x3b6ac21c	0.0035821265
17	0xbc9aeb8c	-0.018911146
18	0xbc5b366a	-0.013379673
19	0x3caebb27	0.021329476
20	0xbb4e9877	-0.0031523982
21	0x3cd1e356	0.025621098
22	0x3bea2f6a	0.0071467655
23	0x3bc2b586	0.0059420494
24	0xbc91210d	-0.017715955
25	0x3c25cc3b	0.010119493
26	0x3c548833	0.012971926
27	0x3c76aece	0.015056325
28	0x3d33dbc1	0.043910746
29	0x3c2108d1	0.009828762
30	0xbcae6229	-0.02128704
31	0x3c74fab2	0.014952349
32	0xbbbd0107	-0.0057679447
33	0x3d0bfcf5	0.034176785
34	0x38f1d320	0.000115311006
35	0x3c02577a	0.007955426
36	0x3babdfad	0.00524517
37	0x3c977d1b	0.018492272
38	0xbb846d24	-0.004041331
39	0x3bdc9266	0.0067313192
40	0xbb52acf3	-0.0032146543
41	0xbc63562f	-0.013875528
42	0x3ce7e5da	0.028307844
43	0x3c724b0c	0.0147884
44	0x3c12f4f4	0.008969534
45	0x3c0f60e0	0.008751124
46	0x3c99a9b4	0.018757679
47	0xb9e6924c	-0.00043978018
48	0xbca0f189	-0.019646423
49	0xbc05692b	-0.00814275
50	0x3c1f9a61	0.009741397
51	0x3b5666e7	0.0032715143
52	0xbbb7da15	-0.005610714
53	0x3baeef12	0.005338558
54	0x3c35e1c2	0.011101188
55	0x3c72c3d2	0.014817195
56	0x3c06faad	0.008238477
57	0xbb985c6e	-0.0046496904
58	0xbc0a897a	-0.0084556285
59	0xbc3f73a6	-0.011685288
60	0x3bfaaa60	0.007649705
61	0x3c8c1c33	0.01710329
62	0xbcb09515	-0.021555463
63	0xbca434b8	-0.02004467
64	0x3b986f63	0.00465195
65	0x3cb40f25	0.021979878
66	0xbab55d5f	-0.0013837031
67	0x3c9219ab	0.017834505
68	0x3bbb40cf	0.005714513
69	0x3b5bbfa0	0.0033530965
70	0xbbbd76af	-0.0057819705
71	0xbc5e74ad	-0.013577622
72	0x3c07b97c	0.008283969
73	0xbb5d6f6e	-0.003378834
74	0x3bb9aa33	0.0056660413
75	0x3c655d31	0.013999269
76	0xbc7629dc	-0.0150246285
77	0x3c050db4	0.008120943
78	0xbc470134	-0.012146283
79	0x3b7da531	0.0038703198
80	0x3cfc87c5	0.030826459
81	0x3c01134f	0.007878139
82	0x3c94f589	0.018183487
83	0xbc3ef41e	-0.011654882
84	0x3bb5c3bb	0.0055470145
85	0xbd143361	-0.03618181
86	0x3bc82edc	0.0061091017
87	0xbc243dba	-0.010024482
88	0x3ccc5c49	0.024946349
89	0xbb9d93f9	-0.0048088995
90	0x3abeea0e	0.0014565603
91	0x3b54f7db	0.0032496366
92	0x3aa758f7	0.0012767602
93	0xbc7a7890	-0.015287533
94	0x3c22903a	0.009922082
95	0xbc57911e	-0.013157157
96	0x3c7e22a1	0.015511186
97	0xba423053	-0.00074077136
98	0x3b934bdb	0.0044951267
99	0xbc14f8cb	-0.00909252
100	0x3c8dbaa5	0.017300913
101	0x3b60b0f2	0.0034285155
102	0xbbfff29c	-0.0078109037
103	0xbad55ac0	-0.0016277656
104	0x3b8d8ff1	0.0043201377
105	0x3c41c11a	0.011825824
106	0xbc2a24a9	-0.010384717
107	0x3bdde9bc	0.006772248
108	0x3c1697f7	0.009191505
109	0x3caddd71	0.021223756
110	0x3c57c828	0.01317028
111	0x3b8b8770	0.004258089
112	0x3c983c3e	0.018583413
113	0xbace7109	-0.001575024
114	0x3b3d56bc	0.002889081
115	0xbd04d621	-0.03243077
116	0x3baf70a2	0.005354003
117	0x3b8156eb	0.003947129
118	0x3d0a4e77	0.033766236
119	0xbc2723ac	-0.010201376
120	0x3be4f90a	0.0069876956
121	0xbb8236f3	-0.0039738356
122	0x3c3abb2c	0.011397164
123	0x3c8d1bda	0.017225195
124	0x3c5c3f2c	0.013442796
125	0x3c3ac413	0.011399287
126	0x3be0887b	0.0068522072
127	0xbbc9deb3	-0.006160581
128	0x3c86abde	0.016439375
129	0x39c82570	0.00038174866
130	0xba21a7fe	-0.00061666954
131	0xbc3b98e0	-0.011450022
132	0xbc37d0bb	-0.011219199
133	0x3a083772	0.000519625
134	0xbc67fc1a	-0.014159227
135	0xbabf89f5	-0.0014613258
136	0x3b361350	0.0027782507
137	0xbb2eec8a	-0.0026691281
138	0x3c6ae869	0.014337637
139	0xbbb87383	-0.0056290044
140	0x3c355fe4	0.011070225
141	0x3a4c0e7e	0.0007784142
142	0x3c421aab	0.011847178
143	0x3c85644a	0.016283173
144	0x3be1132f	0.006868742
145	0x3bed186f	0.0072355787
146	0xbcb0c7f0	-0.021579713
147	0xbc6e2bdf	-0.014536827
148	0x3bfa16fc	0.0076321345
149	0xbc6b673e	-0.014367877
150	0xbc2cfb51	-0.010557965
151	0x3ca51fe2	0.020156804
152	0xbbcdc3d6	-0.006279449
153	0xbc4595f0	-0.012059674
154	0xbbfd4975	-0.007729704
155	0x3b96c54f	0.0046011577
156	0x3ac1df03	0.0014791194
157	0x3b8577b5	0.004073108
158	0x3ca46e40	0.020072103
159	0x3ab3bd80	0.0013713092
160	0x3bf6a637	0.0075271386
161	0xbaa7bf40	-0.0012798086
162	0xbb1c3de4	-0.00238406
163	0x3c8a47b7	0.0168799
164	0x3b4005a2	0.0029300232
165	0x3c88fbec	0.016721688
166	0x3c09c62c	0.008409064
167	0x3d17ec08	0.03709033
168	0xbb8c83ee	-0.004288188
169	0x3b305c34	0.0026910426
170	0x3ab3388d	0.001367347
171	0xbc73f1db	-0.014889206
172	0x3bc4214c	0.0059854146
173	0x3c95c25a	0.01828115
174	0xbc83a44d	-0.016069556
175	0x3c8a7719	0.016902493
176	0x3beae8c1	0.0071688597
177	0x3be26bd9	0.006909829
178	0xbc91c712	-0.01779512
179	0xba04fd79	-0.0005073171
180	0xbb59aecc	-0.003321576
181	0x3b7c240e	0.0038473639
182	0x3ca69bd4	0.020337977
183	0x3c6c70eb	0.014431219
184	0x3c162da1	0.009166152
185	0x3ca5e5f4	0.020251252
186	0xbc8552f5	-0.016274909
187	0x3c1b0f7d	0.009464142
188	0x3cb3a3e2	0.021928731
189	0x3b7bc416	0.0038416437
190	0x3b9bc4c6	0.004753682
191	0xbae6af1f	-0.0017599798
192	0xba7ad322	-0.00095682044
193	0x3ce3861a	0.027773906
194	0x3bee2248	0.0072672702
195	0x3cc78bb8	0.024358615
196	0xbb9f9fe9	-0.0048713577
197	0x3c9c1001	0.0190506
198	0x3ca9d699	0.020732211
199	0x3caa825c	0.020814113
200	0xbb5aca0e	-0.0033384594
201	0x3c2cc6bc	0.010545429
202	0x3d23f84f	0.040031727
203	0x3c9cacfb	0.019125452
204	0x3c6f8482	0.014618995
205	0xbb0f34d6	-0.002185156
206	0x3c57eba5	0.013178741
207	0x3ca0258d	0.019549156
208	0x3c9db1e6	0.019249868
209	0xbd022067	-0.031769183
210	0x3c6edc77	0.01457893
211	0x3d025df0	0.031827867
212	0x3cd4937b	0.02594923
213	0xbc4027d2	-0.011728244
214	0x3c2907ae	0.010316772
215	0xbd0a1ae5	-0.033717055
216	0x3b4fd99f	0.0031715406
217	0x3c98770c	0.018611453
218	0xbbc9e290	-0.0061610416
219	0x3b84d408	0.0040535964
220	0x3c0a4f4e	0.008441759
221	0xbbaa49d1	-0.005196788
222	0x3cd24dc4	0.025671847
223	0x3c993462	0.018701736
224	0x3bed897a	0.0072490545
225	0x3c8bb05b	0.017051866
226	0x3cb74df8	0.022376046
227	0xbc4dc255	-0.012558539
228	0xbaba1098	-0.0014195619
229	0xbca726bb	-0.02040421
230	0x3c645923	0.0139372675
231	0x3c930e6b	0.017951211
232	0x3be89d4e	0.0070988303
233	0x3c43e9f6	0.011957636
234	0x3cc8ff67	0.024535848
235	0x3b6d26d4	0.0036186473
236	0xbb471a42	-0.003038064
237	0x3bf2b761	0.0074071144
238	0x3c8fbb5b	0.017545393
239	0x3c80f22b	0.015740475
240	0xbc69d02d	-0.014270824
241	0xbc5ebdc2	-0.0135950465
242	0xbceb72ab	-0.028741201
243	0xbb8b6aa7	-0.0042546573
244	0x3c19eacf	0.009394362
245	0xbb7bdb10	-0.0038430132
246	0xb9867bd9	-0.00025650745
247	0x3bfe7c0e	0.0077662533
248	0xbb6441ed	-0.0034829334
249	0xbb464560	-0.0030253753
250	0xbb432043	-0.0029773868
251	0xbbf7f815	-0.0075674155
252	0x3b075dad	0.00206552
253	0x3c6b319f	0.014355092
254	0x3b47d9d4	0.0030494826
255	0xb9a2a5d8	-0.0003102261

network_body.linear_encoder.seq_layers.0.weight f4 [256, 99]
0	0xbcd71bc6	-0.02625836
1	0x3e8374b2	0.2567497
2	0x3df50047	0.119629435
3	0xbd9d2659	-0.0767333
4	0xbd12baad	-0.03582256
5	0xbdc414e3	-0.09574296
6	0xbd8fa989	-0.07014758
7	0x3e1b4b58	0.1516546
8	0x3dc673c1	0.09690047
9	0x3b222d24	0.0024746144
10	0x3e32459e	0.1740937
11	0xbde8a71e	-0.1136
12	0xbe220221	-0.15821125
13	0x3d18c08f	0.037293013
14	0xbe08d8b5	-0.13363917
15	0x3d32253a	0.043492533
16	0x3c3c421a	0.011490369
17	0x3c431288	0.011906274
18	0xbdf63891	-0.12022508
19	0xbda393b7	-0.07987159
20	0x3d1c75b7	0.0381982
21	0xbe293a1f	-0.16526078
22	0xbdfdfb9f	-0.124015085
23	0x3e095b1f	0.13413666
24	0x3dc30d64	0.095240384
25	0x3d47b8df	0.04876029
26	0x3deb2d86	0.11483292
27	0xbcb5dc73	-0.022199845
28	0x3e2c4ca3	0.1682611
29	0x3dc9dfe6	0.09857158
30	0x3dc7f7dd	0.09764073
31	0x3e03776b	0.12838523
32	0x3c15d5c9	0.009145209
33	0xbe18416a	-0.14868703
34	0x3d85b051	0.0652777
35	0x3d9a21d7	0.07525986
36	0xbc698025	-0.014251743
37	0xbd5025a2	-0.05081714
38	0xbd798834	-0.06092091
39	0xbdaa651e	-0.08320068
40	0x3d6fc6eb	0.058539312
41	0xbd058ea7	-0.032606747
42	0x3c2511b2	0.01007502
43	0x3e613058	0.21991098
44	0x3d6c052a	0.057622112
45	0xbd942c0c	-0.07234964
46	0x3d2d1a82	0.042261608
47	0x3d8cb0ce	0.0686966
48	0x3dba32d4	0.09091726
49	0x3e4638b8	0.19357574
50	0x3dbf013e	0.09326409
51	0xb839427d	-4.416936e-05
52	0xbcc7900c	-0.02436068
53	0xbe44e6ce	-0.1922867
54	0x3e694bf1	0.22782876
55	0xbe21bdc9	-0.15795054
56	0xbd2deafc	-0.042460427
57	0xbc615405	-0.013752942
58	0xbdc539be	-0.09630154
59	0xbe61da96	-0.2205604
60	0x3d662eef	0.056197103
61	0xbd73ab3c	-0.059489474
62	0xbc3909b6	-0.011293819
63	0xbe0a1a56	-0.13486609
64	0xbc44fae4	-0.012022708
65	0x3db5b97d	0.0887327
66	0xbddb79d5	-0.10716597
67	0x3ca1af4c	0.019736908
68	0xbd97fccc	-0.07421264
69	0xbe010d39	-0.126027
70	0x3bd34e48	0.006448541
71	0xbcf096af	-0.029368727
72	0x3e0eb9ed	0.13938113
73	0x3e837556	0.25675458
74	0xbc3670ef	-0.011135324
75	0x3e3894f7	0.18025576
76	0xbd8d509a	-0.06900139
77	0xbc67a639	-0.014138752
78	0xbdc8c86c	-0.098038524
79	0xbd97fa3b	-0.074207745
80	0xbbb65e31	-0.0055654277
81	0xbdb0e8af	-0.08638131
82	0xbd814d07	-0.0631352
83	0x3e60e99c	0.21964115
84	0xbe147edd	-0.1450152
85	0xbceb135b	-0.028695753
86	0x3d3e5376	0.046466313
87	0x3d746891	0.059670035
88	0x3bd81222	0.0065939585
89	0xbe18af7c	-0.14910692
90	0x3c1b46d2	0.009477334
91	0xbe26d8a8	-0.16293585
92	0xbb2a58eb	-0.002599294
93	0xbe74e254	-0.23914462
94	0xbd1cdba0	-0.03829539
95	0xbc15e59d	-0.009148982
96	0xbd3b97f8	-0.045799226
97	0x3e3314e3	0.17488436
98	0x3cbf0249	0.02331652
99	0x3cc62001	0.024185183
100	0x3d78e7c3	0.0607679
101	0xbcd8aac1	-0.02644861
102	0x3d6bee68	0.05760041
103	0xbb93250e	-0.0044905012
104	0xbdc80f9e	-0.09768604
105	0xbdaa99e9	-0.08330137
106	0x3d94ffc4	0.07275346
107	0xbd8f8e18	-0.07009524
108	0xbe015dbe	-0.12633416
109	0xbd4b627e	-0.049654476
110	0x3e204fb9	0.15655412
111	0xbe7d4382	-0.24732783
112	0xbc94d317	-0.018167062
113	0x3c52b3d0	0.012860253
114	0xbd8edb72	-0.069754496
115	0xbcbb03db	-0.022828987
116	0x3c71f555	0.014767964
117	0xbd8f1bf9	-0.06987757
118	0xbcf1d951	-0.02952257
119	0xbd6f03f7	-0.05835339
120	0xbe6315ab	-0.22176234
121	0xbe01c815	-0.12673981
122	0x3c54f7e4	0.012998555
123	0xbcf8239d	-0.03029042
124	0x3da50428	0.08057433
125	0x3ce85f8f	0.028365878
126	0x3da7a814	0.08186355
127	0x3d5cdc7b	0.053921204
128	0xbc4aca9a	-0.012377406
129	0x3c20354c	0.009778332
130	0xbdc748b2	-0.097306624
131	0xb9226d60	-0.0001549027
132	0xbe0e6c83	-0.13908581
133	0x3d189b6a	0.03725759
134	0xbcaca071	-0.021072598
135	0xbdef6d4c	-0.116907686
136	0x3da35b90	0.079764485
137	0xbcaf76fd	-0.021419043
138	0xbe2d3fa9	-0.16918816
139	0xbdcb0774	-0.09913531
140	0x3e2edb67	0.17075883
141	0xbd68e9ba	-0.056863524
142	0x3cb2930d	0.021798635
143	0x3e31941f	0.1734166
144	0x3d6c95bf	0.057759997
145	0x3d8900ab	0.066895805
146	0xbd92e131	-0.07171858
147	0xbd2dec93	-0.042461943
148	0xbd022755	-0.03177579
149	0x3e11e9a8	0.14249289
150	0x3ddda37a	0.10822196
151	0xbe7e87b1	-0.2485645
152	0x3d6482dc	0.05578886
153	0xbe0fb093	-0.14032201
154	0x3d2cd611	0.042196337
155	0xbe06693b	-0.1312608
156	0xbe29d384	-0.16584593
157	0xbda9181f	-0.08256554
158	0x3c094563	0.0083783595
159	0xbc9d2fbd	-0.019187802
160	0x3df6443b	0.12024733
161	0xbda170fa	-0.07882877
162	0xbd55a253	-0.052156758
163	0x3dc5886d	0.09645162
164	0x3b2edd46	0.0026682182
165	0xbdf13aca	-0.11778791
166	0xbdf58310	-0.11987889
167	0x3e02896e	0.12747738
168	0x3dab9364	0.08377722
169	0xbd3b8c93	-0.04578836
170	0x3d547c0a	0.051876105
171	0xbce26aa4	-0.02763874
172	0xbe44bb77	-0.19212137
173	0xbe146c04	-0.1449433
174	0xbced671d	-0.028979832
175	0x3dc484ba	0.09595628
176	0xbdef7734	-0.11692658
177	0xbcec36b4	-0.028834678
178	0x3cb5fc44	0.022215016
179	0x3de9ebc5	0.114219226
180	0xbddc6f6c	-0.107634395
181	0x3dc5a461	0.096504934
182	0xbcb271a6	-0.021782707
183	0xbd2bb011	-0.041915957
184	0xbcfe5607	-0.03104688
185	0x3b43d771	0.0029883052
186	0x3c8f8833	0.017521
187	0xbe22f941	-0.15915395
188	0x3d9f041c	0.07764456
189	0xbd9a8dca	-0.07546575
190	0x3c3d4980	0.011553168
191	0xbe4ae3e8	-0.19813502
192	0x3df6e174	0.120547205
193	0x3dc8d416	0.09806077
194	0x3ddb124f	0.106968515
195	0xba93de82	-0.0011281522
196	0xbe1de10e	-0.15417883
197	0xbdd2740b	-0.1027604
198	0xbdb35af6	-0.08757584
199	0x3de963cf	0.1139599
200	0x3d9dedc1	0.077113636
201	0x3e5328d5	0.20621045
202	0xbdbd1a62	-0.09233548
203	0xbcdc7767	-0.026912404
204	0x3d84fad7	0.064931564
205	0xbd1163bc	-0.035495505
206	0x3dcb5396	0.09928052
207	0x3c28ffa4	0.010314856
208	0xbb5c9526	-0.0033658235
209	0xbe347d98	-0.17626035
210	0xbce32bb1	-0.027730795
211	0xbd2b1104	-0.041764274
212	0xbd335607	-0.043783214
213	0xbd8d4e46	-0.06899695
214	0xbd615400	-0.05501175
215	0xbd5d5350	-0.05403453
216	0x3e0e9f62	0.13927987
217	0xbd017282	-0.031603344
218	0x3defef22	0.11715533
219	0x3d2becb2	0.041973777
220	0x3d0896c8	0.03334692
221	0xbdaf522b	-0.08560594
222	0x3da32af4	0.07967177
223	0x3dedf2f8	0.11618608
224	0x3cd49499	0.025949763
225	0x3e0b5237	0.13605581
226	0x3d1f8d3d	0.038953055
227	0x3b9e2e4a	0.0048272954
228	0xbd85e5a4	-0.06537941
229	0xbd0a4fba	-0.03376744
230	0xb993b70a	-0.000281744
231	0x3e1d2ab3	0.1534832
232	0x3e3a95af	0.18221162
233	0xbdfac4b8	-0.122445524
234	0xbe5e03e3	-0.2168117
235	0xbe2fef70	-0.17181182
236	0xbd88daa4	-0.066823274
237	0xbda327a2	-0.07966544
238	0x3d30eebe	0.043196432
239	0x3cb387db	0.021915367
240	0x3ca7dcd6	0.020491045
241	0xbe58b91f	-0.21164368
242	0x3dc845fb	0.09778973
243	0x3d8e760f	0.06956112
244	0x3c6dede2	0.014522048
245	0x3dee2fd0	0.11630213
246	0x3b8bcc8a	0.0042663263
247	0xbd4e5b3f	-0.050379988
248	0xbb8db21e	-0.0043242117
249	0xbddd3fc2	-0.108031765
250	0xbda47b6e	-0.08031355
251	0x3c18639b	0.009301092
252	0x3c31be6e	0.010848625
253	0xbd099c94	-0.03359659
254	0xbe450f2c	-0.19244069
255	0xbe149fd4	-0.14514095

network_body.linear_encoder.seq_layers.2.bias f4 [256]
0	0xbc06e945	-0.008234327
1	0x39dd554b	0.00042215953
2	0x3b8a524e	0.0042212373
3	0xbc5eb4a0	-0.013592869
4	0xbbeb0037	-0.0071716565
5	0xbb38c535	-0.0028193716
6	0xbc3fcd41	-0.011706651
7	0xbb9a667a	-0.004711923
8	0xbc239e04	-0.009986404
9	0x3abb417a	0.0014286481
10	0xbb0ec5ef	-0.0021785458
11	0xbc8f8e7f	-0.017524002
12	0x3bc46405	0.0059933686
13	0x3a914e4e	0.0011085959
14	0x3c846b18	0.016164348
15	0xbb147b82	-0.0022656624
16	0x3c0a6622	0.008447202
17	0x3c509468	0.012730695
18	0xbca836a5	-0.020533869
19	0xbbf47bdb	-0.007461054
20	0xbc92e7ef	-0.01793286
21	0x3bbdb1b3	0.0057890057
22	0x3c27dac7	0.010245032
23	0x3c8e5ba9	0.017377691
24	0xbb820463	-0.003967808
25	0xbc9ebc59	-0.01937692
26	0x3c11988f	0.00888647
27	0xbc59fa8b	-0.013304363
28	0xbc1fddab	-0.00975744
29	0x3cbbc100	0.022919178
30	0xbc1493c5	-0.009068434
31	0x3c385215	0.011250039
32	0x3bf5b923	0.0074988767
33	0x3c00d89b	0.007864143
34	0xbc713728	-0.014722623
35	0xbc27b613	-0.010236281
36	0x3bd3a639	0.0064590243
37	0x3c69a04d	0.01425941
38	0x3abb47cc	0.0014288365
39	0xbc4b8b74	-0.012423385
40	0xba162bd1	-0.0005728575
41	0x3b8fbcb8	0.0043865107
42	0xbc9f3912	-0.019436393
43	0xbc2a9305	-0.010411029
44	0x3b76d180	0.0037661493
45	0x395ee8ac	0.00021258247
46	0x3bd354c9	0.006449316
47	0xbbe55831	-0.0069990386
48	0xbc144f43	-0.009052101
49	0x3b36be63	0.0027884475
50	0x3aa4e5f0	0.0012580734
51	0xbc4e8fcf	-0.012607529
52	0xbc6b0d7d	-0.014346478
53	0xbbe6186a	-0.0070219534
54	0xbb244c4c	-0.002506989
55	0x3c3ba803	0.011453631
56	0x3b129925	0.0022369113
57	0xbc4cfea4	-0.012511883
58	0x3c070842	0.008241715
59	0x3b78eb86	0.003798218
60	0x3c8cbb45	0.01717914
61	0xba5daef6	-0.0008456552
62	0xbb948f7d	-0.0045337067
63	0x3b1bc4f4	0.0023768516
64	0xbb5545a4	-0.003254273
65	0xbc346b34	-0.011011887
66	0x3c664391	0.014054195
67	0x3bb06543	0.005383165
68	0xbc6f4268	-0.014603235
69	0xbb97ca32	-0.004632258
70	0x3c3d806c	0.011566263
71	0x3cec4630	0.028842062
72	0x3c2a9d4a	0.010413477
73	0x3cbc58a6	0.02299149
74	0x3cc148fd	0.023594374
75	0xbbc3ff45	-0.0059813582
76	0xbc6e9fff	-0.014564513
77	0xbc4f8f72	-0.012668477
78	0xbc8f62fc	-0.017503254
79	0xbbc9f205	-0.006162884
80	0xba7e5d1e	-0.00097032066
81	0xbbd21339	-0.006410983
82	0x3adeb232	0.0016990362
83	0xbbde2578	-0.006779369
84	0x3c313097	0.010814807
85	0x3b3a0ebe	0.0028390135
86	0xbc72bbfb	-0.014815326
87	0xbc72a85d	-0.014810649
88	0x3a7d879b	0.0009671391
89	0x3c0156ad	0.0078942
90	0xbbd6154b	-0.0065333
91	0x3bde0545	0.0067755305
92	0xbc62e352	-0.013848143
93	0xbcb4b59b	-0.022059252
94	0x3b2c81eb	0.0026322554
95	0x3bdd4a56	0.0067532463
96	0xbc8d0f51	-0.017219217
97	0xbb5faf4d	-0.0034131587
98	0x3c80f77d	0.015743012
99	0x3c9bada2	0.019003693
100	0xbc8231b4	-0.01589284
101	0x3a322279	0.0006795298
102	0xbcb9a989	-0.022663848
103	0xbc216447	-0.009850568
104	0xbc2912c4	-0.0103194155
105	0xbc154a02	-0.009111883
106	0x3c045e92	0.008079188
107	0xbc8932f9	-0.016747938
108	0xbc20fcd0	-0.0098259
109	0x3b8bb0cf	0.0042630206
110	0xbc889e26	-0.016676974
111	0x3ca3c520	0.019991457
112	0xbbf0ce2a	-0.0073487954
113	0xbb96a4cf	-0.0045972834
114	0x3c1f68e9	0.009729602
115	0xbb9e2e15	-0.0048272707
116	0xbc36dea7	-0.011161483
117	0xbc0e7f4b	-0.008697341
118	0xbbe7df56	-0.0070761843
119	0x3c0ecd6b	0.008715968
120	0xbc443a26	-0.011976754
121	0x3ba9ff00	0.005187869
122	0x3b38b575	0.0028184329
123	0xbbfb366d	-0.0076664
124	0x3b8d324c	0.0043089744
125	0xbc281bd6	-0.010260543
126	0x3af4c655	0.001867483
127	0xbaff19d2	-0.0019462651
128	0xbbe85998	-0.0070907585
129	0xbcad9794	-0.021190442
130	0xbbca6040	-0.0061760247
131	0x3c076d63	0.008265826
132	0xbc505a29	-0.012716808
133	0xbaa0943b	-0.0012251207
134	0xbc3489c7	-0.011019177
135	0xbbb8af0b	-0.005636101
136	0xbc4f2d16	-0.012645027
137	0x3ba836a3	0.0051334663
138	0x3c26053f	0.010133087
139	0x3c0fe610	0.0087828785
140	0xbc17fae5	-0.0092761265
141	0x3c809290	0.015694886
142	0x3c0f849c	0.008759644
143	0x3bafea4c	0.0053685065
144	0xba2d4632	-0.0006609886
145	0x3b2222de	0.002474002
146	0x3c16887c	0.009187814
147	0xbd03cb50	-0.032176316
148	0xbc8a067a	-0.016848791
149	0x3c8c0faa	0.017097313
150	0xbc312ab7	-0.010813407
151	0xbc83f4d5	-0.016107956
152	0x3ba49ee9	0.0050238264
153	0x3cb8472a	0.022494871
154	0xbbf4cdb3	-0.0074708103
155	0xbb4428fe	-0.002993166
156	0x3b93426d	0.0044940026
157	0x3c337bba	0.010954792
158	0xbbbbb632	-0.0057285065
159	0xbc9c274a	-0.019061703
160	0xbc2cc1e0	-0.01054427
161	0xbbbfa0d8	-0.0058480315
162	0x3bba2f99	0.0056819436
163	0xbcb34c4c	-0.021886967
164	0xbc82bf06	-0.015960228
165	0x3cf3f1c4	0.029778369
166	0x3baa815a	0.005203408
167	0xbc88eaef	-0.016713588
168	0x3aad86b9	0.0013239003
169	0x3c2cac36	0.010539105
170	0xbc0f6c23	-0.008753809
171	0xbc4dab69	-0.012553074
172	0x3d11563b	0.035482626
173	0xbbbe507d	-0.005807935
174	0xbc64c817	-0.013963721
175	0xba248462	-0.000627583
176	0x3bfc37b1	0.0076970686
177	0xbcab2489	-0.020891445
178	0x3ade1399	0.0016943096
179	0x3ce554c4	0.027994521
180	0xbc8dbfba	-0.017303336
181	0x3be2e8a9	0.006924708
182	0xbc072116	-0.008247634
183	0x3c74a6fb	0.014932389
184	0xbc3bb7ee	-0.0114574265
185	0xbad9f9cc	-0.0016630231
186	0xbbd5f697	-0.00652964
187	0x3af2f5bd	0.001853637
188	0xbc959024	-0.018257208
189	0xbc372e07	-0.011180407
190	0xbc1922a3	-0.009346637
191	0xbc5cac1b	-0.0134687675
192	0x3c0a28fa	0.008432621
193	0xbc3e68dd	-0.011621681
194	0x3adcd7ed	0.0016849019
195	0x3a92c9c8	0.0011199052
196	0x3af5e19d	0.0018759255
197	0xbba59db2	-0.005054199
198	0x3bc71a32	0.006076121
199	0xbc42b009	-0.01188279
200	0x3a441966	0.00074805913
201	0x3985622e	0.00025440886
202	0xbad24c06	-0.0016044385
203	0x3b1608b6	0.0022893376
204	0x3a938b4a	0.0011256721
205	0x3c2cecb2	0.010554479
206	0xbc6d7629	-0.014493504
207	0xb9748c56	-0.00023321933
208	0x3c0e204d	0.008674693
209	0xbc8851ab	-0.016640505
210	0xba921585	-0.0011145329
211	0xbb7c5ae4	-0.0038506323
212	0xba8596f7	-0.0010192086
213	0xbca137d4	-0.019679941
214	0xbb4162f7	-0.002950845
215	0xbc1c9177	-0.009556166
216	0xbbcc4a4a	-0.006234442
217	0xbc966066	-0.018356513
218	0xbb6a1176	-0.0035715974
219	0xbc0a217c	-0.008430835
220	0x3bdcce11	0.006738432
221	0xbb8fa1ba	-0.004383293
222	0xbb8e5d98	-0.0043446533
223	0xba96d33e	-0.0011507047
224	0xba22e8ea	-0.00062145165
225	0xbb105090	-0.0022020675
226	0xbb1fdc13	-0.002439265
227	0xbc12cd03	-0.008960011
228	0xbc4a9180	-0.0123637915
229	0xbc1494aa	-0.009068647
230	0xbc8d280e	-0.017231014
231	0xbc316ae3	-0.010828706
232	0xbc0d3acc	-0.008619975
233	0x3c9d3391	0.019189628
234	0x3b4e6c97	0.003149783
235	0xbc369f16	-0.0111463275
236	0x3bf2c02f	0.007408164
237	0xb99cc67e	-0.00029902527
238	0x3c329e16	0.010901948
239	0xbcb233c1	-0.021753194
240	0x3b99ae5b	0.0046899742
241	0x3c48bea5	0.012252484
242	0x3be67644	0.0070331413
243	0xbc205c35	-0.009787609
244	0xba5d1545	-0.00084336504
245	0xbbc9c3d4	-0.0061573777
246	0xbbd4c95d	-0.006493731
247	0xbc6651f8	-0.014057629
248	0xbcd570bc	-0.026054733
249	0x3c1ce580	0.009576201
250	0xbbea6a0b	-0.0071537546
251	0x3b037cc8	0.002006339
252	0xbc34ed02	-0.011042835
253	0xbcaf7a0a	-0.021420497
254	0xba3ee446	-0.000728194
255	0xbb8d9eff	-0.0043219323
