MLagents/results/hb_07/Mario/Mario-46678.onnx (onnx, 352528 bytes, 16 tensors)

122 f4 [69]
0.004628489 0.004628489 0.006545705 0.006545705 0.36160222 0.01133693 0.004628489 0.004628489
0.36160222 0.01133693 0.004628489 0.004628489 0.35533193 0.020171428 0.004628489 0.004628489
0.35533193 0.020171428 0.004628489 0.004628489 0.34712768 0.028143432 0.004628489 0.004628489
0.34712768 0.028143432 0.004628489 0.004628489 0.34347048 0.032051302 0.004628489 0.004628489
0.3436517 0.032051302 0.004628489 0.004628489 0.36290675 0.033993352 0.004628489 0.004628489
0.36578602 0.033358615 0.004628489 0.004628489 0.3697134 0.03729087 0.004628489 0.004628489
0.372844 0.03582984 0.004628489 0.004628489 0.39684638 0.039515734 0.004628489 0.004628489
0.40282995 0.0386965 0.004628489 0.004628489 0.006545705 0.004628489 0.004628489 0.5600231
0.2841249 0.004628489 0.006546001 0.008689264 0.004628489
00000000: 94aa 973b 94aa 973b 5a7d d63b 5a7d d63b
00000010: ed23 b93e 88be 393c 94aa 973b 94aa 973b
00000020: ed23 b93e 88be 393c 94aa 973b 94aa 973b
00000030: 11ee b53e 8d3e a53c 94aa 973b 94aa 973b
00000040: 11ee b53e 8d3e a53c 94aa 973b 94aa 973b
00000050: b8ba b13e 0e8d e63c 94aa 973b 94aa 973b
00000060: b8ba b13e 0e8d e63c 94aa 973b 94aa 973b
00000070: 5ddb af3e 3a48 033d 94aa 973b 94aa 973b
00000080: 1ef3 af3e 3a48 033d 94aa 973b 94aa 973b
00000090: eace b93e 9d3c 0b3d 94aa 973b 94aa 973b
000000a0: 4e48 bb3e 0ba3 083d 94aa 973b 94aa 973b
000000b0: 134b bd3e 50be 183d 94aa 973b 94aa 973b
000000c0: 69e5 be3e 4fc2 123d 94aa 973b 94aa 973b
000000d0: 732f cb3e 40db 213d 94aa 973b 94aa 973b
000000e0: ba3f ce3e 3980 1e3d 94aa 973b 94aa 973b
000000f0: 5a7d d63b 94aa 973b 94aa 973b ad5d 0f3f
00000100: d278 913e 94aa 973b d67f d63b 6a5d 0e3c
00000110: 94aa 973b

action_model._discrete_distribution.branches.0.bias f4 [3]
-0.013977002 -0.004030535 0.018832736
00000000: ccff 64bc 9412 84bb 1c47 9a3c

action_model._discrete_distribution.branches.0.weight f4 [3, 256]
-0.012271321 0.021559574 0.003461768 -0.024248205 -0.011122098 0.0021681013 0.006380074 -0.02634898
-0.021290995 -0.0050568986 0.0031217744 0.0028427253 0.014420661 0.023623725 -0.03146288 -0.0049985945
-0.014309353 -0.012391855 0.004027719 -0.012539499 0.029263066 0.004485895 0.0032493342 0.007394886
0.0023017218 -0.0038160894 0.009185134 0.020749375 -0.0062078037 -0.011459309 0.012198791 -0.0027211008
-0.00045030413 0.0023632569 0.015058632 0.0052019143 -0.018657854 -0.006297439 0.0262776 -0.025054589
-0.012114748 0.012757777 -0.0037822293 -0.007012719 0.012294252 0.003724841 0.0044091386 -0.003793852
6.497688e-05 0.0019580373 -0.00046254665 0.009844001 0.008731279 0.0107506765 0.01473847 -0.011045914
-0.008135403 0.018072179 -0.010139653 0.001956213 -0.009441548 -0.0037463137 -0.007846867 -0.0025440988
-0.0022824972 -0.008368493 0.008430493 -0.011660247 -0.010890642 0.0047875606 0.0030301656 -0.011046978
-0.0021748783 0.0060711224 -0.0074338405 -0.0032068456 -0.0020756922 -0.0111216465 -0.007517917 -0.0004110328
-0.017048383 -0.0025521072 -0.008825961 0.009986554 -0.0035888683 -0.0128399115 0.018046964 -0.018072374
-0.002955787 -0.021171605 -0.017261876 0.02054581 -0.017396532 -0.022354396 2.8354363e-05 0.0024221672
-0.007518239 0.0024895049 -0.008844752 0.011406229 0.00013432521 -0.008378655 -0.0029906218 0.015413496
0.0018223703 0.015993807 -0.0044422112 -0.0029925066 -0.011404604 -0.011841012 0.017175786 -0.0020092311
0.0108691035 -0.014145408 0.008002511 0.018428497 -0.025732739 -0.0047199125 0.0065141777 0.0017212859
0.019876584 -0.014874821 -0.011941078 -0.011524359 -0.016800355 -0.014053839 -0.007814766 -0.0042442875
-0.015040409 0.00177727 -0.025380323 0.000608363 -0.016843714 -0.017793234 -0.009972122 0.007269594
-0.015204484 0.0038821439 0.03211582 -0.007356489 -0.026226003 -0.0020195928 -0.005653198 0.017487835
0.0040478706 -0.0007957624 0.0049545127 0.007316251 -0.017179068 -0.0077250237 0.0020069405 0.0022909492
-0.029431552 -0.0028562932 0.0068789725 0.0015969501 0.00024510938 0.012472485 0.010094284 -0.013465358
-0.011045813 -0.014908237 -0.0061832382 0.016084136 0.004057711 -0.015494719 0.0023515963 0.0046710796
0.016255667 0.0056034215 0.00042816365 -0.023308929 0.020120518 -0.0028286432 -0.016810233 -0.017687902
-0.007539357 0.00020735945 0.0061791865 -0.019434206 -0.0027340376 -0.011672783 0.0037720962 0.008100324
-0.02605926 -0.011631817 0.0015392371 -0.0043343296 0.008830424 -0.0006568851 -0.0083014155 0.0028215218
0.0038952637 0.012250828 -0.010156574 -0.00336551 -0.015454771 0.005159055 -0.0005451057 0.009595822
-0.009609302 -0.01938964 -0.013233446 0.0030163776 -0.004668364 -0.015141871 -0.020882787 0.005261
0.0018501265 -0.02445584 -0.0045729815 0.0067162965 0.014227038 -0.020307936 -0.008634306 -0.026005859
-0.011557693 0.029814245 0.018662076 -0.0047263443 0.0062131737 0.010602314 -0.010140396 0.0025019874
0.0026501592 -0.0106538115 -0.016734613 0.004310303 -0.014893666 0.0023832417 0.017959082 0.0064336946
-0.007106217 0.0002552621 0.007840272 0.014160036 0.006125794 -0.0018368746 -0.000121858335 0.00017972858
-0.010743915 0.0102479225 -0.0027896052 -0.010556479 -0.015369283 0.0026145072 -0.013623635 0.0043414296
-0.0005689622 -0.0055543263 0.022418492 -0.0010582759 -0.0062464704 0.01786331 0.020179087 -0.0022096576
00000000: a70d 49bc b49d b03c d4de 623b 2ca4 c6bc
00000010: 7639 36bc b416 0e3b f10f d13b d1d9 d7bc
00000020: 746a aebc 57b4 a5bb af96 4c3b 044d 3a3b
00000030: a344 6c3c 8b86 c13c 39df 00bd 40cb a3bb
00000040: c771 6abc 3507 4bbc f5fa 833b 7972 4dbc
00000050: 19b9 ef3c 6afe 923b c8f2 543b cd50 f23b
00000060: 7cd8 163b 5b17 7abb 3f7d 163c 98fa a93c
00000070: d56a cbbb d3bf 3bbc 70dd 473c 7f54 32bb
00000080: cc16 ecb9 dfe0 1a3b 7bb8 763c d274 aa3b
00000090: 5bd8 98bc bf5a cebb 1f44 d73c 483f cdbc
000000a0: f07c 46bc ff05 513c 47df 77bb f3ca e5bb
000000b0: d56d 493c 761c 743b 897a 903b 46a2 78bb
000000c0: 3244 8838 6a52 003b f681 f2b9 bc48 213c
000000d0: a30d 0f3c 9b23 303c a079 713c ecf9 34bc
000000e0: 5a4a 05bc 1b0c 943c ca20 26bc cf33 003b
000000f0: b9b0 1abc b784 75bb 2590 00bc e5ba 26bb
00000100: f395 15bb 011c 09bc 0d20 0a3c 9f0a 3fbc
00000110: aa6e 32bc f8e0 9c3b be95 463b 62fe 34bc
00000120: 6788 0ebb 44f0 c63b 9397 f3bb f129 52bb
00000130: 5608 08bb 9137 36bc dc58 f6bb e37f d7b9
00000140: 0da9 8bbc 4141 27bb c39a 10bc a59e 233c
00000150: 3833 6bbb 7e5e 52bc 3ad7 933c 840c 94bc
00000160: e0b5 41bb 1370 adbc c768 8dbc b04f a83c
00000170: 2c83 8ebc 9120 b7bc 88da ed37 39bd 1e3b
00000180: 8f5b f6bb f626 233b 94e9 10bc 31e1 3a3c
00000190: a6d9 0c39 a046 09bc 4ffe 43bb e388 7c3c
000001a0: 9adc ee3a 7205 833c f88f 91bb ee1d 44bb
000001b0: 60da 3abc ce00 42bc 3cb4 8c3c 4ead 03bb
000001c0: 5314 323c 24c2 67bc f71c 033c 5cf7 963c
000001d0: 77cd d2bc 7fa9 9abb e274 d53b c59c e13a
000001e0: 38d4 a23c 85b5 73bc 83a4 43bc aad0 3cbc
000001f0: e6a0 89bc 1342 66bc 8109 00bc aa13 8bbb
00000200: 0c6c 76bc 49f3 e83a 65ea cfbc 8d7a 1f3a
00000210: d4fb 89bc 1ec3 91bc 1c62 23bc c635 ee3b
00000220: 3a1c 79bc 916b 7e3b e18b 033d b40e f1bb
00000230: ead7 d6bc 255b 04bb 763e b9bb a642 8f3c
00000240: 00a4 843b b69a 50ba 7759 a23b 29bd ef3b
00000250: 1ebb 8cbc 3222 fdbb e086 033b c023 163b
00000260: 701a f1bc a630 3bbb 0169 e13b c150 d13a
00000270: 0682 8039 6559 4c3c 7f62 253c ce9d 5cbc
00000280: 7ff9 34bc ae41 74bc c39c cabb e1c2 833c
00000290: 8cf6 843b 90dd 7dbc 3d1d 1a3b db0f 993b
000002a0: 9b2a 853c e89c b73b 277b e039 5ef2 bebc
000002b0: c9d3 a43c c260 39bb 9db5 89bc 38e6 90bc
000002c0: b60c f7bb a16e 5939 c67a ca3b 7c34 9fbc
000002d0: 8a2d 33bb 333f 3fbc 4635 773b 39b7 043c
000002e0: 3b7a d5bc 6093 3ebc 3ac0 c93a fe06 8ebb
000002f0: 7cad 103c d032 2cba a902 08bc 48e9 383b
00000300: ae47 7f3b b2b7 483c c267 26bc e38f 5cbb
00000310: 0236 7dbc 4a0d a93b 6de5 0eba cb37 1d3c
00000320: 5570 1dbc 06d7 9ebc 18d1 58bc 6bae 453b
00000330: 13f9 98bb 9c15 78bc 6112 abbc 7764 ac3b
00000340: f27f f23a 9d57 c8bc f3d8 95bb 6114 dc3b
00000350: 8618 693c d45c a6bc e776 0dbc 3d0a d5bc
00000360: 7a5c 3dbc 013d f43c 36e1 983c 73df 9abb
00000370: e197 cb3b 54b5 2d3c e723 26bc 62f8 233b
00000380: 4bae 2d3b 538d 2ebc 0717 89bc 713d 8d3b
00000390: 9004 74bc 2930 1c3b ed1e 933c bed1 d23b
000003a0: 45db e8bb b3d4 8539 7c74 003c 7fff 673c
000003b0: e2ba c83b 49c3 f0ba 328e ffb8 8675 3c39
000003c0: 3f07 30bc e7e6 273c cfd1 36bb 15f5 2cbc
000003d0: 72cf 7bbc 2758 2b3b ab35 5fbc 8d42 8e3b
000003e0: 6826 15ba 1101 b6bb fca6 b73c d9b5 8aba
000003f0: 31af ccbb 1456 923c 9d4e a53c e7cf 10bb

action_model._discrete_distribution.branches.1.bias f4 [2]
0.006227698 -0.006227702
00000000: b811 cc3b c011 ccbb

action_model._discrete_distribution.branches.1.weight f4 [2, 256]
-0.006871037 -1.5119225e-05 -0.005876831 -0.0038009929 -0.0132460445 -0.009043732 -0.014139319 -0.024616342
0.004472231 0.003922923 -0.0036112878 -0.004938988 0.016078511 0.010201077 -0.0054938747 0.0124953855
-1.7524239e-05 -0.0058714934 0.0016854858 -0.001595188 -0.0083151 0.013602785 0.00021818362 0.0020144838
0.0014531439 0.017516313 0.0015963421 -0.0067992816 0.0071925777 0.0035788731 0.0013919292 0.004114102
-0.012641954 -0.0019813827 -0.006493419 -0.007898242 -0.0021971744 0.0038892466 -0.017351378 0.0073304325
0.0071021128 -0.016833786 0.002279094 0.017472338 0.02156577 -0.0034057777 -0.002787461 0.0060718847
0.0101780975 -0.001360333 -0.0033236241 0.019908413 -0.0065710046 0.013060417 -0.003261416 0.008806332
-0.002484474 -0.010611967 0.013200824 -0.0043080756 0.028186249 -0.00015488565 -0.00844663 -0.0019203306
-0.0038008548 0.013206252 0.00017719512 0.00061569497 0.014381307 -0.0074975058 0.00195593 0.010623199
0.0035346423 -0.0031092486 0.0037924536 0.004547432 -0.011943484 -0.01894763 -0.010533842 0.0013636207
-0.015252528 -0.005717727 0.024556927 -0.02237276 -0.0062915212 -0.003573305 -0.00086120947 0.009652226
0.0071659135 0.01134008 0.025094677 -0.0037542754 -0.009020282 -0.0039466075 0.00093424105 -0.003844477
-0.012800309 0.0070090224 0.0074936743 -0.017979158 0.005828248 -0.0018078758 0.023651458 -0.009456952
-0.010553688 -0.0145081375 -0.0068386164 0.019809859 0.008269342 0.01670697 -0.0062142154 -0.008415101
0.013821419 0.0071596284 -0.008160228 -0.005221045 -0.012984777 0.0014553757 0.001082806 -5.9198028e-05
0.0074348524 0.015728038 -0.015789915 -0.0014757648 -0.015470271 0.0010383938 -0.011240846 -0.0076769907
0.006153668 0.014258786 0.011387353 0.009822954 -0.008247853 0.006739999 -0.004528962 0.006963432
-0.00044379683 -0.009125359 -0.024540609 -0.00061849994 0.002921907 0.011015693 -0.0048925467 -0.016070908
0.024022184 -0.0058838907 -0.003997561 -0.010897993 0.005675526 0.0036979239 0.005315903 -0.012769338
0.006211351 0.005073215 -0.011178879 0.00434999 0.0038056488 -0.021864621 0.015998425 0.004162624
0.008454525 0.0032191412 0.0014065054 -0.011219646 -0.019048758 -0.005095447 0.0058314283 0.0026184763
-0.018258061 -0.003489204 -0.005621375 0.005466042 0.0053782742 -0.0061612907 0.0042169066 -0.0042772284
0.0013446108 0.003960448 -0.010458263 0.0142786335 0.005080746 0.013689646 0.00086844875 -6.94286e-05
0.016278666 0.0028685168 -0.0014047552 0.0039007175 -0.014448705 -0.013695694 -0.004363875 0.0048350156
-0.01605387 0.008062948 0.0010521358 -0.0004802793 0.00969003 0.00734211 0.009636513 0.004171306
0.012780047 0.016969927 -0.0052716886 0.0011853428 0.0040291594 0.00051509857 0.020756343 -0.00027604867
-0.01637066 0.005083233 0.006266552 -0.004495225 -0.0059733 0.0096738525 0.0005024196 0.019944608
0.007442375 0.0037513445 0.004923953 0.0062149935 -0.00963276 0.006168733 -0.0026886465 -0.01333819
-0.0038721103 -0.0023357174 -0.000908465 -0.0034193986 0.0011259402 0.008458847 0.0052582105 -0.008472693
0.011172321 0.0048112306 0.0049394327 0.0018188909 -0.002735775 -0.0006724125 0.0107721165 -0.017505584
-0.0025084198 -0.0077872216 0.0019867115 0.0025092633 0.0043397374 -0.00997889 0.0063474034 -0.0037273404
-0.0020519365 -0.0047998214 -0.006679262 -0.019448416 0.013404553 -0.0005722397 -0.0059487605 -0.007187671
00000000: 7026 e1bb 94a8 7db7 6e92 c0bb 141a 79bb
00000010: f005 59bc 292c 14bc 9aa8 67bc 36a8 c9bc
00000020: cb8b 923b dd8b 803b 5bab 6cbb 3cd7 a1bb
00000030: 15b7 833c 6b22 273c f605 b4bb 72b9 4c3c
00000040: 0401 93b7 a865 c0bb 85eb dc3a a115 d1ba
00000050: 0f3c 08bc 37de 5e3c 38c8 6439 6e05 043b
00000060: 6b77 be3a 5f7e 8f3c 5a3c d13a 82cc debb
00000070: b7af eb3b 878b 6a3b 6571 b63a 97cf 863b
00000080: 3320 4fbc 16da 01bb bfc6 d4bb a167 01bc
00000090: 78fe 0fbb bbe2 7e3b 7a24 8ebc 2034 f03b
000000a0: d7b8 e83b 02e7 89bc da5c 153b 2622 8f3c
000000b0: b3aa b03c 7833 5fbb d6ad 36bb a9f6 c63b
000000c0: 09c2 263c 334d b2ba 29d1 59bb f816 a33c
000000d0: 9551 d7bb 5cfb 553c 7bbd 55bb 6f48 103c
000000e0: 8fd2 22bb d1dd 2dbc 4548 583c c22a 8dbb
000000f0: d9e6 e63c cd68 22b9 bc63 0abc 9ab3 fbba
00000100: c317 79bb 095f 583c 74cd 3939 9766 213a
00000110: 939f 6b3c a3ad f5bb 0f2f 003b ed0c 2e3c
00000120: 75a5 673b 89c4 4bbb d08a 783b a002 953b
00000130: 9aae 43bc 0f38 9bbc 2396 2cbc 85bb b23a
00000140: bde5 79bc c55b bbbb 9c2b c93c 1447 b7bc
00000150: 1b29 cebb 1c2e 6abb cac2 61ba 5f24 1e3c
00000160: 0ad0 ea3b becb 393c 5a93 cd3c 4a0a 76bb
00000170: cec9 13bc 8b52 81bb dbe7 743a 9ff3 7bbb
00000180: 63b8 51bc f1ab e53b 7f8d f53b 0749 93bc
00000190: e3fa be3b 3ff6 ecba b4c0 c13c 55f1 1abc
000001a0: 60e9 2cbc 8ab3 6dbc 7916 e0bb 4948 a23c
000001b0: 227c 073c 0edd 883c 9ea0 cbbb 7edf 09bc
000001c0: 3c73 623c 519b ea3b 7ab2 05bc 4d15 abbb
000001d0: 1abe 54bc 4ec2 be3a f1ec 8d3a 664b 78b8
000001e0: 10a0 f33b 16d8 803c da59 81bc 736e c1ba
000001f0: 0577 7dbc b71a 883a 862b 38bc 448f fbbb
00000200: b5a4 c93b af9d 693c 0592 3a3c 75f0 203c
00000210: 0122 07bc 36db dc3b b067 94bb 802d e43b
00000220: 67ad e8b9 8882 15bc 6309 c9bc d422 22ba
00000230: 777d 3f3b 2a7b 343c a851 a0bb 23a7 83bc
00000240: 2cca c43c a7cd c0bb f9fd 82bb 7f8d 32bc
00000250: c3f9 b93b de58 723b 0731 ae3b 7c36 51bc
00000260: 9788 cb3b 363d a63b 9e27 37bc 5c8a 8e3b
00000270: 3168 793b 6f1d b3bc 210f 833c 9f66 883b
00000280: d984 0a3c 3af8 523b 7d5a b83a 9bd2 37bc
00000290: 240c 9cbc b5f7 a6bb 9115 bf3b be9a 2b3b
000002a0: ee91 95bc 21ab 64bb 8333 b8bb 7c1c b33b
000002b0: 3c3c b03b a7e4 c9bb fa2d 8a3b fe27 8cbb
000002c0: a73d b03a a5c6 813b 2259 2bbc eef0 693c
000002d0: 637c a63b 894a 603c 9ca8 633a 329a 91b8
000002e0: d65a 853c bafd 3b3b c31f b8ba 2ea3 7f3b
000002f0: 43ba 6cbc e763 60bc d6fe 8ebb 0d6f 9e3b
00000300: 6883 83bc 741a 043c d2e7 893a ffcd fbb9
00000310: eec2 1e3c 1596 f03b 77e2 1d3c 73af 883b
00000320: 6763 513c 8404 8b3c 21be acbb 815d 9b3a
00000330: 0a07 843b ae07 073a 3509 aa3c a0ba 90b9
00000340: c31b 86bc 4091 a63b a657 cd3b ae4c 93bb
00000350: acbb c3bb 147f 1e3c cfb4 033a e062 a33c
00000360: 2bdf f33b 1ed9 753b 1d59 a13b 25a7 cb3b
00000370: b9d2 1dbc 1523 ca3b 0134 30bb 6c88 5abc
00000380: 3bc3 7dbb d612 19bb 0e26 6eba fd17 60bb
00000390: 4994 933a fa96 0a3c 114d ac3b 0dd1 0abc
000003a0: 1c0c 373c 87a7 9d3b f7da a13b da67 ee3a
000003b0: b04a 33bb d744 30ba 887d 303c df67 8fbc
000003c0: 4d64 24bb f32b ffbb 7d33 023b 7472 243b
000003d0: 5b34 8e3b 807e 23bc e1fd cf3b 6546 74bb
000003e0: c879 06bb d247 9dbb b6dd dabb 4952 9fbc
000003f0: c59e 5b3c 5b02 16ba d2ed c2bb 8e86 ebbb

action_model._discrete_distribution.branches.2.bias f4 [2]
0.010377488 -0.010377493
00000000: 5706 2a3c 5c06 2abc

action_model._discrete_distribution.branches.2.weight f4 [2, 256]
-0.003036556 -0.012983925 -0.0109439 0.0007482579 0.0061328565 -0.013142081 -0.00881121 0.008991403
0.01022675 0.020183219 -0.009162523 -0.014520535 0.0010941935 0.0047573554 0.007261411 0.0028895754
0.0036190583 0.0004441588 -0.0084455395 0.015293682 -0.010908338 0.009145094 0.017617028 -0.0016024375
0.0027462542 0.007886431 -0.0062333527 -0.018030223 0.008093061 0.0035132123 -0.004692929 -0.008076187
0.008648637 -0.005131005 -0.004658016 0.008880844 0.017522283 0.00717534 -0.004882969 0.014939137
0.0048085395 -0.0094527695 -0.01293184 0.012894695 -0.00702125 0.01925566 0.003155796 -0.0055000377
-0.0046031154 -6.277811e-05 0.0020494643 -0.013119255 -0.0051368917 -0.0034778677 -0.009324123 0.0157474
0.010016711 -0.015807074 0.016063409 0.012708033 0.0029316805 0.0141494395 -0.006572473 -0.00065631873
0.010746178 0.01711966 -0.003298153 0.010664428 0.0073045404 -0.0019990907 -0.011930089 0.020771652
0.0026454267 0.0029608747 -0.012891001 0.009418395 0.00032234026 -0.002001705 -0.0019730497 0.01286336
-0.002278044 -0.011613572 0.0055998424 -0.00032689105 -0.010033239 0.0028864085 0.0035470696 0.0023644876
0.0038147997 0.001321786 -0.0031730402 -0.0032926567 -0.027644524 -0.008671714 -0.009441713 -0.0070499363
0.00939606 0.002383669 -0.0013149976 0.0066199806 -0.003329926 0.015362771 -0.0016653225 -0.015766893
0.00781696 -0.0068518016 0.01115913 0.011688246 0.0016337667 -0.021375787 0.0028079462 0.00012418388
-0.011747639 0.00272827 0.01183839 -0.020916326 -0.005245781 0.0013727323 0.00031872932 -0.0041029644
0.00083675946 0.004147524 0.017882401 0.0056359186 0.0012650588 0.007820968 -0.01423179 -0.0028680689
-0.0061132726 0.01198632 0.01096547 0.0063172695 -0.004288448 -0.008258771 -0.0054677487 0.008828018
0.023978557 -0.0118019255 -0.0078081237 -0.013739273 0.0046627847 -0.009884963 0.017464675 -0.011813985
-0.012838732 0.008287128 0.00902994 -0.011898988 0.0117767155 0.01566644 0.029143617 -0.0019397661
0.003973562 0.009997999 0.009123376 -0.008946832 -0.005062885 -0.017257014 0.0065100864 -0.0107786385
-0.015136878 0.010608432 -0.0009136069 0.00025395854 0.010311604 0.007968084 0.0012816702 -0.003636557
0.0076883915 -0.017228302 0.014315535 -0.0051398287 -0.01627185 -0.019284911 -0.017023306 0.0010281806
0.018630378 0.0001656479 -0.025982749 0.0045891562 -0.010347412 0.020648183 0.0110166725 -0.009207917
-0.0038345307 0.011723707 0.017451024 0.018484535 -0.017787963 -0.0007502972 0.027127089 0.016959347
-0.012716294 0.009578006 0.0027514661 -0.00013403397 0.01747356 -0.0009819617 0.004429074 0.0012384835
-0.0074911527 0.014723015 0.017842693 0.00010885022 0.002300106 -0.008615532 0.00909688 0.011563178
-0.011562551 0.011009757 -0.0148654245 -0.0033925348 -0.004114055 -0.0055648545 -0.00051854673 -0.014289489
0.004181595 0.0065617007 0.0028243149 0.008819671 -0.0002781684 0.0030631826 0.014116194 -0.01492086
0.00241045 0.0034787653 -0.00372868 0.015287748 -0.0016891032 0.013766203 0.0016370651 0.0014910281
0.003469768 0.0047169663 0.002967054 0.015012477 0.011780629 -0.0075220866 0.014625504 -0.008378328
0.001954264 0.002697735 0.01169996 0.009783512 0.012287835 -0.0050572976 0.012978659 0.0062382575
0.011185721 0.010164906 -0.013235273 0.009504129 -0.009393207 -0.006867781 0.011463417 0.008709855
00000000: f500 47bb 87ba 54bc 0b4e 33bc bd26 443a
00000010: 21f6 c83b e251 57bc e55c 10bc ad50 133c
00000020: 198e 273c 4757 a53c 681e 16bc 8ae7 6dbc
00000030: 0b6b 8f3a 97e3 9b3b 21f1 ed3b 085f 3d3b
00000040: b92d 6d3b fcdd e839 295f 0abc 5a92 7a3c
00000050: e3b8 32bc 4ed5 153c 9651 903c e108 d2ba
00000060: 80fa 333b 1736 013c 2741 ccbb 1eb4 93bc
00000070: c298 043c ec3d 663b 24c7 99bb fc51 04bc
00000080: 03b3 0d3c fd21 a8bb 45a2 98bb f680 113c
00000090: e48a 8f3c 1d1f eb3b 5001 a0bb 48c3 743c
000000a0: f490 9d3b cadf 1abc 11e0 53bc 4544 533c
000000b0: 8412 e6bb 0cbe 9d3c 79d1 4e3b a939 b4bb
000000c0: bbd5 96bb bea7 83b8 4e50 063b 25f2 56bc
000000d0: 5f53 a8bb f0ec 63bb 35c4 18bc b100 813c
000000e0: 221d 243c d67d 81bc 6997 833c 5b35 503c
000000f0: 7021 403b 0dd3 673c e65d d7bb ce0c 2cba
00000100: bd10 303c 873e 8c3c d325 58bb dab9 2e3c
00000110: ed5a ef3b 2d03 03bb 6c76 43bc 5029 aa3c
00000120: e55e 2d3b 3c0b 423b c734 53bc 9d4f 1a3c
00000130: c7ff a839 0a2f 03bb 484e 01bb d8c0 523c
00000140: 3c4b 15bb da46 3ebc e27e b73b 9362 abb9
00000150: 7462 24bc e629 3d3b f475 683b 85f5 1a3b
00000160: b801 7a3b c73f ad3a c8f2 4fbb 9dc9 57bb
00000170: c576 e2bc ce13 0ebc 6ab1 1abc 2703 e7bb
00000180: eff1 193c 5437 1c3b ff5b acba 6cec d83b
00000190: e33a 5abb 22b4 7b3c f346 daba 9229 81bc
000001a0: b512 003c 1485 e0bb c9d4 363c 0f80 3f3c
000001b0: 1d24 d63a 461c afbc 8505 383b 5b37 0239
000001c0: 2b79 40bc c6cc 323b cef5 413c b758 abbc
000001d0: cde4 abbb 41ed b33a 201b a739 2972 86bb
000001e0: fa59 5b3a f4e7 873b 1d7e 923c 83ad b83b
000001f0: 54d0 a53a 8423 003c 742c 69bc 36f6 3bbb
00000200: d951 c8bb 4562 443c 84a8 333c 1901 cf3b
00000210: 1c86 8cbb cc4f 07bc cd2a b3bb 64a3 103c
00000220: ae6e c43c dd5c 41bc 4adb ffbb b01a 61bc
00000230: 46ca 983b 8af4 21bc 1412 8f3c 728f 41bc
00000240: 8c59 52bc bcc6 073c 50f2 133c f9f3 42bc
00000250: 20f3 403c e856 803c 98be ee3c c03f feba
00000260: a734 823b a6ce 233c 367a 153c bc95 12bc
00000270: 8fe6 a5bb 955e 8dbc 9052 d53b e398 30bc
00000280: ab00 78bc fdce 2d3c 1f7f 6fba bd25 8539
00000290: 00f2 283c 918c 023c b7fd a73a 4d53 6ebb
000002a0: e7ee fb3b 5e22 8dbc b58b 6a3c 026c a8bb
000002b0: 8b4c 85bc 64fb 9dbc 7674 8bbc 04c4 863a
000002c0: bc9e 983c c5b1 2d39 c6d9 d4bc a260 963b
000002d0: 3188 29bc 6126 a93c 467f 343c cedc 16bc
000002e0: c04c 7bbb cb14 403c 73f5 8e3c e16c 973c
000002f0: 10b8 91bc 98af 44ba a139 de3c 54ee 8a3c
00000300: 0158 50bc 12ed 1c3c f151 343b 788b 0cb9
00000310: b624 8f3c 2bb5 80ba c421 913b 9c54 a23a
00000320: 5878 f5bb cd38 713c d72a 923c 8446 e438
00000330: 60bd 163b 2928 0dbc 150b 153c 7c73 3d3c
00000340: db70 3dbc 4562 343c 1c8e 73bc 4a55 5ebb
00000350: 32cf 86bb 6259 b6bb 15ef 07ba 761e 6abc
00000360: c305 893b 8903 d73b 2418 393b 6280 103c
00000370: 21d7 91b9 adbf 483b 9c47 673c 9f76 74bc
00000380: a4f8 1d3b fffb 633b df5c 74bb 7679 7a3c
00000390: e664 ddba a48b 613c ca92 d63a 9a6e c33a
000003a0: 0c65 633b c890 9a3b e872 423b e4f6 753c
000003b0: 8a03 413c d67b f6bb cf9f 6f3c 4145 09bc
000003c0: 1c13 003b 7ccc 303b 30b1 3f3c 064b 203c
000003d0: ea52 493c b0b7 a5bb 71a4 543c 4c6a cc3b
000003e0: 5044 373c b58a 263c c2d8 58bc 35b7 1b3c
000003f0: f7e5 19bc 1f0b e1bb 0ed1 3b3c c8b3 0e3c

action_model._discrete_distribution.branches.3.bias f4 [2]
0.010414635 -0.010414632
00000000: 25a2 2a3c 22a2 2abc

action_model._discrete_distribution.branches.3.weight f4 [2, 256]
-0.015829593 -0.011146107 0.0067943526 -0.0044696545 -0.012178902 -0.025354533 -0.010296933 -0.023889871
-0.015463519 0.03793889 -0.015637645 -0.015859889 0.010792711 -0.013941751 -0.0028464643 0.026129752
0.020654546 -0.006670349 0.0007238473 0.015711872 -0.022116475 0.010017464 -0.012143666 0.008477925
0.00636924 0.0081669185 -0.00014872747 -0.01728131 0.021242458 0.03466527 0.010380334 -0.007469702
-0.012796515 0.008310675 0.009629312 -0.019204885 0.009419475 -0.011939748 -0.0060151014 0.0030656462
0.0052176444 -0.00040006585 0.0036899962 -0.00044890848 -0.017079713 0.0033747614 0.0022896228 0.005664466
0.010464908 0.0072577023 0.0013557763 -0.0019672993 -0.021307498 0.006934278 -0.006245348 0.027414612
0.004322578 -0.002374094 0.02399975 -0.0018079993 0.011470536 0.0028373986 -0.011799952 0.014370903
-0.0035643603 0.03348899 0.005014713 0.0036313855 -0.010991381 -0.0075679095 -0.005508302 0.0140221855
0.00039091817 0.003220976 -0.000499137 0.0105878925 0.008629615 -0.0023443399 -0.021460252 0.02417828
-0.0033796139 0.0027154475 -0.014762888 -0.004250821 -0.010595791 0.01911155 -0.013405757 0.002963591
0.01597098 0.023274958 -0.009203271 -0.015156507 0.00039092216 -0.013707878 -0.0030299053 0.008610273
0.005271827 -0.0020323803 0.01753116 -0.0027607307 -0.015910253 0.0009254285 -0.006290271 -0.022234622
0.006380076 0.0134681845 -0.01265228 -0.01852881 -0.0017592194 -0.0047212085 0.0077117765 0.015203018
-0.021800943 -0.010571277 0.004568788 -0.019505592 -0.018626377 0.018780213 0.014339201 -0.0021875214
-0.0024148216 0.014177696 0.009071918 0.008255621 -0.003046782 0.013387486 0.0013077466 -0.009446346
-0.00796645 0.024154706 -0.00031419072 0.006172221 0.018019654 -0.0048178425 -0.0076125897 0.014669234
0.016606102 0.0023046136 0.0069018286 -0.025549665 -0.0016370346 0.0032391048 0.024155367 0.0019709028
-0.021881323 0.01803763 0.0044280696 0.003673347 0.025450667 0.0066023497 0.0028591813 -0.005840354
0.003661629 0.021428235 0.0041122073 -0.028195025 0.02028597 0.000312264 0.0071328217 -0.0030115258
-0.0054210643 0.00827808 -3.563804e-05 -0.0075613414 0.02399833 0.02224849 -0.011337051 -0.01750593
-0.010301658 0.0014513724 0.0035713678 -0.0042198496 -0.0033649914 -0.00957734 -0.015701393 0.012456519
0.001322004 -5.9110243e-07 -0.00013015227 0.0057507297 0.013434493 0.008450222 0.012612064 -0.0012044896
0.009374215 0.0019390074 0.022816107 -0.0014947134 -0.004868957 0.0021241116 -0.00078230735 0.027324812
0.002692397 -0.018719934 0.003082368 -0.014809532 0.028863152 -0.005531553 0.029248549 0.006307839
-0.028407939 0.026618222 0.031265702 -0.0091962665 -0.003486146 0.0052867215 0.010762812 0.007426474
-0.009250959 -0.0010270841 -0.014824118 -0.003190814 0.002104298 -0.012336383 0.0063569196 -0.0005655689
0.01729411 -0.012367277 -0.014347344 0.03335852 0.01648963 -0.0064534973 0.010132398 -0.01295682
0.009029727 0.008364513 0.009378407 0.015172274 -0.002452201 0.0033950377 -0.0014888466 -0.01600543
-0.00134631 0.020838726 -0.021991864 0.008594964 -0.0040287315 -0.00062554533 0.01964438 -0.015081214
0.019814806 0.010510919 0.018649653 0.0026524728 0.017388178 -0.0070876125 -0.016390601 -0.010835359
0.0067779124 0.00028544792 -0.005670447 0.0046955557 0.022290647 0.006558114 -0.0072549977 -0.010799295
00000000: 10ad 81bc 299e 36bc 29a3 de3b 2e76 92bb
00000010: 048a 47bc 4fb4 cfbc 78b4 28bc b1b4 c3bc
00000020: b35a 7dbc cf65 1b3d 851a 80bc 99ec 81bc
00000030: e9d3 303c f16b 64bc bf8b 3abb 100e d63c
00000040: b933 a93c f192 dabb 92c0 3d3a 2fb6 803c
00000050: 9c2d b5bc 4a20 243c 3af6 46bc ffe6 0a3c
00000060: 0fb5 d03b 8ace 053c baf3 1bb9 8991 8dbc
00000070: aa04 ae3c 2cfd 0d3d 4712 2a3c 67c4 f4bb
00000080: 79a8 51bc 7f29 083c 43c4 1d3c 9053 9dbc
00000090: 2454 1a3c ef9e 43bc 541a c5bb 02e9 483b
000000a0: c6f8 aa3b eebf d1b9 ddd3 713b 7a5b ebb9
000000b0: c1ea 8bbc 1a2b 5d3b 7f0d 163b fc9c b93b
000000c0: 0175 2b3c 05d2 ed3b 4eb4 b13a ceed 00bb
000000d0: 108d aebc f138 e33b c7a5 ccbb 9c94 e03c
000000e0: 6aa4 8d3b b096 1bbb 209b c43c 64fa ecba
000000f0: eaee 3b3c a6f3 393b 9654 41bc f073 6b3c
00000100: 0b98 69bb c02b 093d 7652 a43b 8afc 6d3b
00000110: 3115 34bc 3afc f7bb fc7e b4bb 4fbd 653c
00000120: 26f4 cc39 0317 533b 84d8 02ba d778 2d3c
00000130: 3b63 0d3c 7fa3 19bb 69cd afbc 8711 c63c
00000140: 837c 5dbb a6f5 313b 0ae0 71bc 794a 8bbb
00000150: f899 2dbc d38f 9c3c d2a3 5bbc ce38 423b
00000160: 93d5 823c 20ab be3c 51c9 16bc ff52 78bc
00000170: aff4 cc39 0297 60bc 6091 46bb 1a12 0d3c
00000180: 4abf ac3b af31 05bb 829d 8f3c 60ed 34bb
00000190: 3856 82bc 7598 723a 9e1e cebb 6225 b6bc
000001a0: f50f d13b a9a9 5c3c 824b 4fbc bbc9 97bc
000001b0: 9c95 e6ba 5eb4 9abb 12b3 fc3b 1416 793c
000001c0: e497 b2bc 2633 2dbc c6b5 953b 31ca 9fbc
000001d0: 5896 98bc f6d8 993c f8ee 6a3c 855c 0fbb
000001e0: fc41 1ebb 9149 683c 62a2 143c 9642 073c
000001f0: 85ac 47bb 3057 5b3c b268 ab3a d9c4 1abc
00000200: b785 02bc 17e0 c53c f7b9 a4b9 5840 ca3b
00000210: f49d 933c fede 9dbb 0873 f9bb 3a57 703c
00000220: 8509 883c 0009 173b bc28 e23b 884d d1bc
00000230: c491 d6ba 2947 543b 7ae1 c53c 432a 013b
00000240: 7640 b3bc a7c3 933c 5719 913b 89bc 703b
00000250: eb7d d03c 8658 d83b 1a61 3b3b 7160 bfbb
00000260: f1f7 6f3b 448a af3c b2bf 863b 41f9 e6bc
00000270: c32e a63c 5db7 a339 72ba e93b 055d 45bb
00000280: 2fa3 b1bb c9a0 073c 0e7a 15b8 21c5 f7bb
00000290: 2598 c43c 7742 b63c 0abf 39bc 9968 8fbc
000002a0: 49c8 28bc fa3b be3a 9c0d 6a3b aa46 8abb
000002b0: 3087 5cbb 47ea 1cbc 35a0 80bc 6d16 4c3c
000002c0: 1847 ad3a 40ac 1eb5 7c79 08b9 9e70 bc3b
000002d0: 591c 5c3c cd72 0a3c d5a2 4e3c f7df 9dba
000002e0: 4f96 193c 4b26 fe3a d8e8 ba3c 42ea c3ba
000002f0: c68b 9fbb ae34 0b3b c213 4dba 49d8 df3c
00000300: ed72 303b 8c5a 99bc 8e01 4a3b aea3 72bc
00000310: 6b72 ec3c 0842 b5bb a79a ef3c fdb1 ce3b
00000320: c4b7 e8bc 750e da3c 7710 003d f0ab 16bc
00000330: d377 64bb 3c3c ad3b 8156 303c c759 f33b
00000340: 5691 17bc 399f 86ba dce0 72bc fa1c 51bb
00000350: 43e8 093b 8a1e 4abc b54d d03b b042 14ba
00000360: 61ac 8d3c 1fa0 4abc 1f11 6bbc f2a2 083d
00000370: 4315 873c dc77 d3bb 5c02 263c d848 54bc
00000380: 6cf1 133c 4f0b 093c e4a7 193c 2195 783c
00000390: 1bb5 20bb 487f 5e3b 6725 c3ba d21d 83bc
000003a0: ab76 b0ba fab5 aa3c 4828 b4bc e4d1 0c3c
000003b0: 7303 84bb a3fb 23ba 40ed a03c 3217 77bc
000003c0: a952 a23c fd35 2c3c 28c7 983c 1cd5 2d3b
000003d0: a771 8e3c 343f e8bb 9545 86bc ca86 31bc
000003e0: 4019 de3b 2ca8 9539 28cf b9bb 2ddd 993b
000003f0: e09a b63c 73e5 d63b 55bb edbb 87ef 30bc

action_model._discrete_distribution.branches.4.bias f4 [2]
-0.007733955 0.007733957
00000000: 1e6d fdbb 226d fd3b

action_model._discrete_distribution.branches.4.weight f4 [2, 256]
-0.0047822115 0.004165238 0.00023226201 -0.015647186 -0.01069878 -0.00780329 0.009692021 -0.0057932115
-0.007892326 -0.012043663 0.016339304 0.0018750825 -0.0024944157 0.020259734 -0.025766037 -0.022286037
-0.010515112 0.0036740848 -0.007745983 -0.004495467 0.0126556335 -0.00050446484 -0.02144452 -0.012983906
0.009070316 0.0031280855 0.012542959 0.011111948 -0.013768262 -0.013561441 -0.007739326 -0.011981862
0.00026564996 0.0006082312 -0.0029182672 0.023378223 -0.0048136082 -0.0021890616 0.012613674 -0.019494697
0.002572918 0.0056467615 0.009937576 -0.013483313 0.014475113 0.013047636 -0.0073805368 0.002413892
-0.00975911 -0.0055986233 -0.010029822 0.01941875 0.004551322 -0.0070884465 0.003860601 -0.0054669986
0.005356024 0.0048885657 -0.011911715 -0.010284022 0.0045833075 -0.01088329 -0.0118331155 0.0043807016
-0.013138232 -0.007983157 0.012252544 -0.015268148 -0.0034704057 -0.00683901 -0.0023159983 -0.0152402595
-0.0018876742 0.016775519 0.010529161 -0.018956244 0.0025737488 -0.007242969 0.0012191493 -0.020175153
-0.014539042 0.0066295303 0.020487264 0.0055069188 0.010991693 0.0069488403 0.013976777 -0.015965935
-0.0076814047 -0.008629621 0.0030314433 0.018286707 0.005079768 -0.015538876 0.0056519653 0.0014101862
0.0029725418 -0.011281174 -0.011619529 0.024273701 -0.008928188 -0.022932133 0.0059801633 0.016917419
-0.019474778 0.021262694 -0.0067043696 -0.017429473 0.008415983 -0.0020145194 0.04236772 0.003594623
0.010365778 -0.0055691763 0.0035864236 0.009966637 -0.027970515 0.0030140472 -0.014734734 0.0011893859
-0.010349201 0.011517991 -0.015860263 0.005894211 0.0011565778 -0.015482578 -0.0015655726 0.0071567288
-0.011588281 -0.017258273 -0.02028412 -0.007479666 -0.008459103 0.003690796 0.012304723 0.0017567978
-0.0050690663 -0.0088216355 0.007735812 0.011976938 -0.0066386326 0.009718847 -0.0059061083 -0.009745597
0.0040854965 0.0012139439 0.017647512 -0.0017906196 -0.013550754 0.0006226468 -0.012419671 -0.018417241
-0.0039627757 0.0018792349 0.024790943 -0.015410784 -0.00028700632 -0.003499187 0.011498534 -0.0075077363
-0.012450526 -0.0133457575 0.0065916968 0.0017309057 0.00339389 0.0026025418 0.006277825 0.005814593
0.0013370536 -0.00029322036 -0.011910735 -0.011642159 0.011244596 0.0030399852 -0.0040566805 -0.011420223
-0.019890554 0.036522955 0.0022972089 -0.0067793657 0.0041744825 0.008388262 -0.01853073 -0.0008700516
0.005431835 -0.015645355 -0.0054629133 -0.013343476 0.0011304389 -0.015981719 -0.0017552385 -0.017294712
0.0059295828 0.009429863 -0.012159648 0.009496788 0.005066281 -0.003890551 0.010642771 -0.0044903625
-0.0005331452 -0.018864287 -0.014261276 -0.0026524353 -0.014253725 0.015380474 -0.0072655394 0.006320973
0.004176259 -0.023840893 -0.004288317 -0.0008303601 0.002336972 -0.016214363 0.0006258009 -0.020388892
-0.010100948 -0.0027898601 0.009923702 0.024533363 0.0023797762 0.0132363085 0.0014088672 0.002357811
-0.0099291615 -0.0027928934 -0.017082658 0.0058209645 0.0107568195 0.009516634 0.012214898 -0.0054079555
-0.0021725558 -0.0075636213 0.0031305517 -0.01582407 0.014397084 0.0010119309 -0.016359963 -0.001786499
-0.0081476085 0.004812679 -0.022227455 -0.01112863 -0.0067129387 0.0021769386 -0.019843962 -0.0028682002
0.0027306715 0.0005514645 -0.004464449 0.007160981 0.010117718 0.009671403 0.008698633 0.020485401
00000000: 19b4 9cbb 8c7c 883b 5c8b 7339 872e 80bc
00000010: f049 2fbc beb2 ffbb 48cb 1e3c fbd4 bdbb
00000020: d14e 01bc c952 45bc 01da 853c 54c5 f53a
00000030: 5a79 23bb bef7 a53c 4c13 d3bc 3591 b6bc
00000040: 9447 2cbc eac8 703b 04d2 fdbb b64e 93bb
00000050: 9359 4f3c 103e 04ba 6bac afbc 73ba 54bc
00000060: aa9b 143c 9100 4d3b fc80 4d3c e30e 363c
00000070: 4794 61bc ce30 5ebc 2c9a fdbb 924f 44bc
00000080: ef46 8b39 b471 1f3a 6640 3fbb b083 bf3c
00000090: 79bb 9dbb 5c76 0fbb 95a9 4e3c 58b3 9fbc
000000a0: 679e 283b 7808 b93b 37d1 223c 1de9 5cbc
000000b0: 0629 6d3c c0c5 553c 6ed8 f1bb 6332 1e3b
000000c0: ade4 1fbc a874 b7bb 1f54 24bc 1214 9f3c
000000d0: 4223 953b 3346 e8bb 2302 7d3b 8224 b3bb
000000e0: 9681 af3b 4330 a03b 5b29 43bc 517e 28bc
000000f0: 922f 963b d44f 32bc afdf 41bc fd8b 8f3b
00000100: bd41 57bc cacb 02bc e5be 483c 4127 7abc
00000110: bf6f 63bb c619 e0bb 01c8 17bb 48b2 79bc
00000120: d66b f7ba d06c 893c 8182 2c3c 204a 9bbc
00000130: 57ac 283b 6d56 edbb ddcb 9f3a 5d46 a5bc
00000140: 2935 6ebc 883c d93b e8d4 a73c 6273 b43b
00000150: 8016 343c 19b3 e33b dafe 643c feca 82bc
00000160: 4bb4 fbbb 4163 0dbc 2eab 463b 01ce 953c
00000170: 2f74 a63b c596 7ebc 1f34 b93b ffd5 b83a
00000180: face 423b acd4 38bc d65f 3ebc a4d9 c63c
00000190: 8947 12bc 2bdc bbbc 3ff5 c33b 6696 8a3c
000001a0: 9289 9fbc 1a2f ae3c 54b0 dbbb 41c8 8ebc
000001b0: 31e3 093c 0706 04bb c689 2d3d c493 6b3b
000001c0: 39d5 293c a37d b6bb 340a 6b3b 1b4b 233c
000001d0: 6c22 e5bc 5287 453b f469 71bc 2be5 9b3a
000001e0: b28f 29bc f5b5 3c3c 62ed 81bc 3a24 c13b
000001f0: 5098 973a a4aa 7dbc e633 cdba fe82 ea3b
00000200: c6dc 3dbc 3961 8dbc e22a a6bc fc17 f5bb
00000210: 0d98 0abc 48e1 713b c099 493c 5a44 e63a
00000220: 691a a6bb 9f88 10bc b27c fd3b eb3a 443c
00000230: e388 d9bb cd3b 1f3c 0788 c1bb ffab 1fbc
00000240: a1df 853b 331d 9f3a 8491 903c 39b3 eaba
00000250: fb03 5ebc 1f39 233a e07b 4bbc c1df 96bc
00000260: 2cda 81bb a950 f63a 6016 cb3c 837d 7cbc
00000270: 5679 96b9 9e52 65bb 5964 3c3c 7503 f6bb
00000280: 4afd 4bbc 2aa8 5abc 29ff d73b 8fdf e23a
00000290: 076c 5e3b 688f 2a3b 37b6 cd3b 5788 be3b
000002a0: 1340 af3a 5fbb 99b9 3e25 43bc c1be 3ebc
000002b0: 413b 383c 7d3a 473b e7ed 84bb e31b 3bbc
000002c0: 84f1 a2bc 1899 153d c58c 163b 7125 debb
000002d0: 19ca 883b ec6e 093c c2cd 97bc 2d14 64ba
000002e0: 89fd b13b b02a 80bc 3d02 b3bb 989e 5abc
000002f0: 3c2b 943a 18ec 82bc 0810 e6ba a4ad 8dbc
00000300: f24c c23b b67f 1a3c 4339 47bc 6a98 1b3c
00000310: 0c03 a63b 9df8 7ebb 045f 2e3c e423 93bb
00000320: c5c2 0bba 4789 9abc 21a8 69bc 7bd4 2dbb
00000330: 7588 69bc 62fe 7b3c c313 eebb 2a20 cf3b
00000340: 00d9 883b fa4d c3bc 0385 8cbb 86ac 59ba
00000350: e227 193b fcd3 84bc ca0c 243a 9b06 a7bc
00000360: 727e 25bc 16d6 36bb 0697 223c 31fa c83c
00000370: 05f6 1b3b 1add 583c bda9 b83a 8185 1a3b
00000380: ecad 22bc fa08 37bb eef0 8bbc cabd be3b
00000390: 5f3d 303c a8eb 1b3c ff20 483c 3835 b1bb
000003a0: 7061 0ebb 41d8 f7bb f129 4d3b 7ba1 81bc
000003b0: bfe1 6b3c c4a2 843a 5405 86bc f628 eaba
000003c0: 8c7d 05bc adb3 9d3b 5a16 b6bc db54 36bc
000003d0: 36f8 dbbb f8aa 0e3b ce8f a2bc 6af8 3bbb
000003e0: 11f5 323b 2890 103a 834a 92bb aaa6 ea3b
000003f0: c9c4 253c ce74 1e3c b684 0e3c 00d1 a73c

network_body.linear_encoder.seq_layers.0.bias f4 [256]
0.005507786 0.008118903 0.010702689 -0.0075979056 0.0025004693 0.0061408803 0.0331546 0.0047171856
-0.0011591342 -0.006326187 0.020648815 0.00028220838 -0.015209163 -0.004929284 -0.008939467 0.01150687
0.0065458254 -0.026136914 0.021572446 0.0030909139 0.025640044 -0.038583867 0.020464094 -0.0063105845
-0.022410437 0.019006383 0.014672837 -0.013752314 -0.011184777 -0.0030406187 0.01635388 -0.020271514
-0.009509598 -0.015082565 -0.013852847 0.0150170475 -0.023686733 0.0011656089 -0.011273251 -0.016057163
-0.018290134 0.009276231 -0.015933156 -0.0004905846 -0.0047028153 0.011425211 0.0008001425 0.0285255
0.011198649 0.015382246 0.028936915 0.0029961711 -0.008563593 0.026408747 0.027184304 0.01262726
0.019971449 -0.025125617 0.030722268 0.0018604099 0.011181345 0.003663757 -0.0050344192 -0.008394861
-0.015688801 -0.0123473 0.0010937476 -0.011960619 -0.027407987 -0.021784712 -0.0067306682 -0.024690058
-0.020413695 0.0032331594 -0.0076690987 0.028922185 0.0019956576 -0.010128112 0.015138874 0.030137893
0.022962475 -0.023648506 0.003300819 0.004302471 0.019631226 0.0025574998 0.0047171335 0.02753527
-0.011536341 -0.0018821424 -0.0014436818 0.015752869 0.008225227 0.006123746 -0.0007606645 0.012811046
0.0023254466 -0.01300332 0.019914087 -0.013254321 0.006921912 0.0008586259 0.010613939 -0.023536889
-0.001814221 0.021465166 -0.0077573876 0.00011270949 0.013677327 -0.015970726 0.006055137 -0.018516472
0.0038468505 0.019638399 -0.012469627 0.007809122 0.008434964 0.0023852044 -0.027489468 0.017302947
0.01188674 -0.004649099 -0.012900093 0.007839075 -0.018817777 0.024612444 0.009802245 -0.008192907
0.019425172 0.021819232 0.016095642 0.019321725 0.017859884 -0.025848854 0.018662192 -0.010329444
-0.027385402 0.005431359 -0.008540414 -0.014053645 0.008297912 0.0003286869 0.002626341 0.00018820612
-0.0029399653 0.009779411 -0.00023553564 0.013116603 -0.021167219 -0.025987491 -0.011206453 -0.019496078
-0.004933552 -0.0051193233 -0.012086876 0.025163345 0.004631361 -0.004855155 -0.011420467 0.025534635
-0.007257939 0.018975243 0.0068708328 0.008000044 0.0023328657 0.0084131695 -0.00895409 0.0011162757
0.014162299 -0.0037328496 -0.014088923 0.011795143 0.020619005 -0.0055219945 0.018023418 -0.007293823
0.008740952 -0.02255442 -0.021192588 -0.014339538 0.008421456 -0.016235981 0.025120305 0.011287615
0.021530578 0.016658017 -0.015269787 -0.020739974 0.013303175 -0.011744708 0.016811347 0.007465407
-0.004738459 -0.0046837996 -0.0071248827 -0.011993721 0.0058889682 0.0040716585 -0.016405195 -0.0143321585
0.0115501005 -0.0008705219 0.006324847 0.0034114425 0.020029219 0.022022743 -0.00016303 0.021577058
0.0051733362 0.0047124824 0.0027701664 0.0004376422 -0.0143413395 0.0068594646 0.0054010605 -0.0064817686
-0.0017772937 -0.030209986 0.004693812 -0.017540948 0.0007516169 -0.021394646 -0.016145859 0.005239308
-0.0059542125 0.0051634433 0.004615963 0.013245 -0.0024555854 0.020597273 -0.0035121348 -0.01199105
0.034296744 -0.023882668 0.011370329 -0.017689062 0.016018426 -0.00021235859 0.0035627503 0.0022412918
-0.0048579997 -0.027522154 0.01418752 0.0012767946 -0.0075554424 0.0065581114 -0.010394402 0.016427318
0.010057664 0.016408015 0.020540314 -0.00722633 0.0062382496 0.027951531 0.0148048485 0.012475085
00000000: a87a b43b 2605 053c 555a 2f3c daf7 f8bb
00000010: eade 233b 7039 c93b 1ecd 073d 9f92 9a3b
00000020: 17ee 97ba e74b cfbb b427 a93c 5ef5 9339
00000030: da2f 79bc d585 a1bb d876 12bc 5087 3c3c
00000040: 5d7e d63b 151d d6bc b3b8 b03c ee90 4a3b
00000050: 120b d23c 1e0a 1ebd 51a4 a73c 05c9 cebb
00000060: 1896 b7bc 46b3 9b3c 5766 703c 6351 61bc
00000070: 5b40 37bc 1e45 47bb 92f8 853c 7210 a6bc
00000080: 25ce 1bbc dd1c 77bc 0df7 62bc 100a 763c
00000090: ae0a c2bc 58c7 983a 71b3 38bc 508a 83bc
000000a0: 31d5 95bc 55fb 173c 4086 82bc 939a 00ba
000000b0: 131a 9abb cf30 3b3c a7c0 513a 4fae e93c
000000c0: 8a7a 373c d105 7c3c 1c0d ed3c 695b 443b
000000d0: 504e 0cbc 2857 d83c 9eb1 de3c 91e2 4e3c
000000e0: 2a9b a33c 3dd4 cdbc 44ad fb3c ffd8 f33a
000000f0: f631 373c a41b 703b c5f7 a4bb 998a 09bc
00000100: cd85 80bc 544c 4abc 145c 8f3a 79f6 43bc
00000110: b786 e0bc da75 b2bc f08c dcbb ce42 cabc
00000120: 9f3a a7bc 6ae3 533b 104d fbbb 38ee ec3c
00000130: 94c9 023b 61f0 25bc 0a09 783c bee3 f63c
00000140: cd1b bc3c 83ba c1bc 8e52 583b befb 8c3b
00000150: aad1 a03c ba9b 273b 2f92 9a3b a691 e13c
00000160: ec02 3dbc 38b2 f6ba ec39 bdba 290c 813c
00000170: 1ac3 063c b4a9 c83b 5567 47ba 6ce5 513c
00000180: 8566 183b e10b 55bc de22 a33c a728 59bc
00000190: 35d1 e23b 6915 613a 16e6 2d3c 6fd0 c0bc
000001a0: 28cb edba b7d7 af3c af31 febb 725e ec38
000001b0: de16 603c 0ad5 82bc 2c6a c63b dbaf 97bc
000001c0: 711b 7c3b b5e0 a03c 684d 4cbc aae3 ff3b
000001d0: ce32 0a3c 1751 1c3b 9831 e1bc e9be 8d3c
000001e0: 9ac0 423c 7857 98bb e95a 53bc 776f 003c
000001f0: bd27 9abc 09a0 c93c 9899 203c 8b3b 06bc
00000200: 8a21 9f3c 3fbe b23c 02db 833c 9848 9e3c
00000210: e44e 923c fac0 d3bc 74e1 983c d43c 29bc
00000220: 5a57 e0bc 8bf9 b13b 18ed 0bbc 4241 66bc
00000230: f7f3 073c 9c53 ac39 b11e 2c3b 3259 4539
00000240: 6fac 40bb d339 203c 1efa 76b9 05e7 563c
00000250: e066 adbc b8e3 d4bc 459b 37bc 3db6 9fbc
00000260: a2a9 a1bb ffbf a7bb 0808 46bc 5c23 ce3c
00000270: acc2 973b fe17 9fbb e91c 3bbc 032e d13c
00000280: 01d4 edbb f871 9b3c b924 e13b 9e12 033c
00000290: fee2 183b 64d7 093c 2db4 12bc ff4f 923a
000002a0: fd08 683c d3a2 74bb 3ad5 66bc 6a40 413c
000002b0: 30e9 a83c d9f1 b4bb d9a5 933c 0601 efbb
000002c0: 3636 0f3c 0cc4 b8bc 149c adbc 62f0 6abc
000002d0: 26fa 093c 5201 85bc 19c9 cd3c b0ef 383c
000002e0: e560 b03c 6576 883c 212e 7abc e1e6 a9bc
000002f0: 8ff5 593c e06c 40bc f3b7 893c 5fa0 f43b
00000300: 1345 9bbb 8f7a 99bb d977 e9bb 5081 44bc
00000310: 3ff8 c03b 8c6b 853b 3064 86bc 6ed1 6abc
00000320: a23c 3d3c bc33 64ba aa40 cf3b 8292 5f3b
00000330: 5114 a43c 0a69 b43c 08f3 2ab9 5fc2 b03c
00000340: 1785 a93b 2b6b 9a3b ae8b 353b 5773 e539
00000350: f0f7 6abc 5cc5 e03b 61fb b03b 0465 d4bb
00000360: 15f4 e8ba ef7a f7bc 8dce 993b 09b2 8fbc
00000370: 2808 453a d343 afbc 5244 84bc 80ae ab3b
00000380: 8e1b c3bb 1a32 a93b 8141 973b 8e01 593c
00000390: e3ed 20bb 9dbb a83c d82b 66bb 1c76 44bc
000003a0: be7a 0c3d 96a5 c3bc 9e4a 3a3c a7e8 90bc
000003b0: 1339 833c 93ac 5eb9 087d 693b a3e2 123b
000003c0: db2f 9fbb 2476 e1bc c672 683c 1e5a a73a
000003d0: a593 f7bb 6de5 d63b 484d 2abc 9592 863c
000003e0: e6c8 243c 1a6a 863c 2944 a83c daca ecbb
000003f0: 3b6a cc3b 9cfa e43c 0990 723c 4d64 4c3c

network_body.linear_encoder.seq_layers.0.weight f4 [256, 69]
0.117019646 0.020581016 -0.0041613984 -0.10235979 -0.017308945 0.15925501 0.16436489 -0.0037794062
-0.010181821 -0.15790875 0.018966572 -0.020431604 -0.016610287 0.29014075 -0.048640825 -0.10273646
0.08724561 -0.2355131 0.17826556 0.20262954 0.19018984 0.37884706 0.15716396 0.117604196
0.057773463 -0.1110177 0.2480639 0.24412577 -0.14180386 -0.052126657 -0.12601365 -0.05658201
0.087428555 0.103720985 -0.037057023 -0.093658015 -0.117469564 -0.20342053 0.09742726 -0.13095987
-0.045754578 0.045719866 -0.14115793 0.054911092 -0.22362135 0.13697894 -0.037303824 0.05448241
-0.0016494988 0.116250075 0.008646142 0.11286825 0.027471315 -0.2520045 0.15290038 0.1022362
0.3230956 -0.15300465 0.05996152 -0.085322484 0.08798151 0.041488178 0.070644416 -0.10545897
-0.09979568 -0.0627665 -0.06994807 0.02276645 -0.07811617 -0.035253394 -0.11345119 0.13136762
0.061648086 0.10837906 -0.13633643 -0.06500609 -0.05436393 -0.003706001 -0.0991325 -0.04161068
0.13041334 -0.0179518 0.12463268 0.26179275 -0.068466276 -0.007109685 0.23606452 0.18557888
-0.022207946 0.01790952 -0.018751178 0.10415022 0.09860297 -0.08685103 0.13650262 -0.023130167
0.063655555 0.006093521 0.017310148 0.06507681 0.22531436 0.14625053 0.05430189 -0.15796044
-0.021510782 0.06610152 -0.22386062 0.2955124 -0.015165041 0.14545862 0.21766718 -0.015578186
-0.017868275 -0.0051259506 -0.1540578 0.011607294 0.102539405 -0.13310495 0.007811257 0.2534827
-0.09650391 -0.3136174 0.15857375 0.21575221 -0.09539872 0.18065675 -0.14712946 0.082004
-0.083327636 0.074677296 -0.19472483 0.1880558 0.091324985 0.41479003 0.0074636694 0.2027849
-0.09181948 0.02607461 -0.1506678 -0.058228195 0.11062098 0.06034827 -0.0659587 -0.030784613
-0.047710143 -0.22516648 -0.2879163 -0.19045122 0.0040221903 0.009548112 -0.040645566 -0.06796493
0.0062929112 0.13781571 -0.07853134 -0.024222076 0.049546972 -0.15783776 0.09733432 -0.028022032
-0.118542284 0.11739867 -0.066617146 0.033251986 -0.18281792 0.09476792 0.023350038 -0.046122372
0.042418703 -0.041516334 -0.09073675 0.07255329 -0.027122624 0.027348801 0.08011919 0.075310685
0.1543693 0.061581105 0.07482082 0.050943796 -0.040786825 -0.12557569 0.16502462 -0.07284619
0.007312717 -0.14931509 -0.08649235 0.23516038 0.32546547 -0.06449931 -0.121438555 -0.09305772
-0.23603803 -0.31156728 0.104365736 0.14224224 -0.04853944 0.29071346 -0.002521007 0.12757143
0.01212688 0.208111 -0.18465148 0.16997837 -0.13502681 -0.06071543 0.16254744 0.22596464
0.015214938 0.21157534 -0.026556311 0.10915481 -0.03835513 -0.027394477 0.16554295 0.16306438
0.076902546 -0.063428305 0.12816408 0.03230111 -0.11875311 0.109271795 -0.14273377 0.058209218
-0.10471997 0.19833694 -0.091550335 0.016472034 0.008821997 0.17182277 0.009947706 0.02638298
-0.0040715993 0.043540563 -0.06342338 -0.09804752 0.18558857 0.07102285 -0.18554991 0.033744093
0.21987401 -0.06978588 0.024573823 -0.123361744 -0.062898055 -0.08938484 -0.12940167 -0.120031215
-0.059527244 0.19090773 -0.14028928 -0.1826322 -0.042159457 -0.18095686 0.019330539 -0.015771694
00000000: ffa7 ef3d 8599 a83c 575c 88bb 02a2 d1bd
00000010: 7dcb 8dbc bf13 233e 454f 283e eaaf 77bb
00000020: a7d1 26bc d5b2 21be c95f 9b3c 2e60 a7bc
00000030: 4c12 88bc 548d 943e 9a3b 47bd 7e67 d2bd
00000040: d4ad b23d 592a 71be 3f8b 363e 1e7e 4f3e
00000050: 20c1 423e 3ef8 c13e 97ef 203e 78da f03d
00000060: dea3 6c3d 3f5d e3bd 7704 7e3e 1bfc 793e
00000070: 0835 11be c382 55bd b909 01be 8ac2 67bd
00000080: be0d b33d ab6b d43d 1bc9 17bd c6cf bfbd
00000090: e293 f0bd 794d 50be f187 c73d 581a 06be
000000a0: 2769 3bbd c144 3b3d b48b 10be 74ea 603d
000000b0: fffc 64be 3544 0c3e e5cb 18bd f328 5f3d
000000c0: ff33 d8ba 8514 ee3d 8ca8 0d3c 7827 e73d
000000d0: 860b e13c bc06 81be eb91 1c3e 3661 d13d
000000e0: c96c a53e 40ad 1cbe 369a 753d 8ebd aebd
000000f0: a62f b43d 82ef 293d 05ae 903d dffa d7bd
00000100: ad61 ccbd b98b 80bd ef40 8fbd b580 ba3c
00000110: 5ffb 9fbd dd65 10bd 1959 e8bd 3c85 063e
00000120: b482 7c3d d7f5 dd3d c79b 0bbe ea21 85bd
00000130: b6ac 5ebd 61e0 72bb fb05 cbbd f66f 2abd
00000140: 138b 053e a70f 93bc 6b3f ff3d b309 863e
00000150: 0c38 8cbd 5cf8 e8bb e6ba 713e 6408 3e3e
00000160: 70ed b5bc fcb6 923c 129c 99bc b64c d53d
00000170: 5bf0 c93d f4de b1bd 58c7 0b3e 7a7b bdbc
00000180: d85d 823d 29ac c73b 03ce 8d3c fe46 853d
00000190: cfb8 663e b3c2 153e a96b 5e3d 62c0 21be
000001a0: 6137 b0bc 3c60 873d b83b 65be 674d 973e
000001b0: cb76 78bc 1bf3 143e 25e4 5e3e a63b 7fbc
000001c0: 7d60 92bc 97f7 a7bb 54c1 1dbe 852c 3e3c
000001d0: 2e00 d23d aa4c 08be 93f5 ff3b 7cc8 813e
000001e0: d8a3 c5bd 7692 a0be 2861 223e 26ee 5c3e
000001f0: 6760 c3bd 15fe 383e 1ba9 16be b7f1 a73d
00000200: aea7 aabd 69f0 983d f265 47be b391 403e
00000210: 9808 bb3d 5c5f d43e cc91 f43b d8a6 4f3e
00000220: da0b bcbd 6c9a d53c a948 1abe b080 6ebd
00000230: 418d e23d bf2f 773d 5b15 87bd 0330 fcbc
00000240: b66b 43bd 0b92 66be c469 93be a505 43be
00000250: 94cc 833b af6f 1c3c f77b 26bd 3231 8bbd
00000260: c434 ce3b 901f 0d3e 0ad5 a0bd 606d c6bc
00000270: c4f1 4a3d 39a0 21be 3757 c73d 768e e5bc
00000280: 4cc6 f2bd b76e f03d 926e 88bd 3c33 083d
00000290: 9f34 3bbe af15 c23d 9448 bf3c d0ea 3cbd
000002a0: 3cbf 2d3d 080d 2abd 30d4 b9bd d296 943d
000002b0: 4430 debc 980a e03c 8815 a43d 7d3c 9a3d
000002c0: fc12 1e3e 783c 7c3d a83b 993d 71aa 503d
000002d0: 1610 27bd ea96 00be 37fc 283e 6230 95bd
000002e0: 849f ef3b 0ee6 18be e722 b1bd e2cd 703e
000002f0: 69a3 a63e 3718 84bd c7b4 f8bd 0c95 bebd
00000300: f4b3 71be bf85 9fbe b4bd d53d f3a7 113e
00000310: 4bd1 46bd 65d8 943e 7b37 25bb 16a2 023e
00000320: d2af 463c 0d1b 553e 4715 3dbe cf0e 2e3e
00000330: 7844 0abe beb0 78bd d672 263e 4663 673e
00000340: 1348 793c 35a7 583e 9f8c d9bc 8f8c df3d
00000350: 451a 1dbd 626a e0bc 1784 293e 59fa 263e
00000360: 157f 9d3d b3e6 81bd 723d 033e 2b4e 043d
00000370: d534 f3bd e4c9 df3d cd28 12be ca6c 6e3d
00000380: 6c77 d6bd d718 4b3e be7e bbbd 5cf0 863c
00000390: 238a 103c 4ff2 2f3e b4fb 223c 1f21 d83c
000003a0: 0d6b 85bb 9757 323d 1ee4 81bd 23cd c8bd
000003b0: ee0a 3e3e 6e74 913d cc00 3ebe 3f37 0a3d
000003c0: a726 613e e6eb 8ebd 0b4f c93c 15a5 fcbd
000003d0: b2d0 80bd 660f b7bd df81 04be edd2 f5bd
000003e0: d7d2 73bd 517d 433e fea7 0fbe ef03 3bbe
000003f0: 65af 2cbd c14c 39be 145b 9e3c a433 81bc
