MLagents/results/hb_07/Mario/Mario-71904.onnx (onnx, 352528 bytes, 16 tensors)

122 f4 [69]
0.003729241 0.003729241 0.0052739796 0.0052739796 0.3595711 0.010547437 0.003729241 0.003729241
0.3595711 0.010547437 0.003729241 0.003729241 0.3556022 0.020759342 0.003729241 0.003729241
0.35558847 0.020759342 0.003729241 0.003729241 0.3504552 0.03028301 0.003729241 0.003729241
0.350441 0.03028301 0.003729241 0.003729241 0.3492339 0.03476348 0.003729241 0.003729241
0.34929085 0.0351603 0.003729241 0.003729241 0.36754084 0.03800396 0.003729241 0.003729241
0.36805314 0.03708044 0.003729241 0.003729241 0.3770885 0.03961176 0.003729241 0.003729241
0.38009983 0.039436378 0.003729241 0.003729241 0.40315336 0.042644806 0.003729241 0.003729241
0.40723568 0.041324478 0.003729241 0.003729241 0.0052739796 0.003729241 0.003729241 0.49649066
0.24846992 0.003729241 0.005274582 0.008571217 0.003729241
00000000: 4866 743b 4866 743b 59d1 ac3b 59d1 ac3b
00000010: b419 b83e 28cf 2c3c 4866 743b 4866 743b
00000020: b419 b83e 28cf 2c3c 4866 743b 4866 743b
00000030: 7e11 b63e 7f0f aa3c 4866 743b 4866 743b
00000040: b10f b63e 7f0f aa3c 4866 743b 4866 743b
00000050: dd6e b33e 1314 f83c 4866 743b 4866 743b
00000060: 016d b33e 1314 f83c 4866 743b 4866 743b
00000070: c9ce b23e 2764 0e3d 4866 743b 4866 743b
00000080: 40d6 b23e 3f04 103d 4866 743b 4866 743b
00000090: 502e bc3e 0aaa 1b3d 4866 743b 4866 743b
000000a0: 7671 bc3e a9e1 173d 4866 743b 4866 743b
000000b0: be11 c13e f13f 223d 4866 743b 4866 743b
000000c0: 729c c23e 0a88 213d 4866 743b 4866 743b
000000d0: 1e6a ce3e 52ac 2e3d 4866 743b 4866 743b
000000e0: 3281 d03e db43 293d 4866 743b 4866 743b
000000f0: 59d1 ac3b 4866 743b 4866 743b 0634 fe3e
00000100: e66e 7e3e 4866 743b 67d6 ac3b 4a6e 0c3c
00000110: 4866 743b

action_model._discrete_distribution.branches.0.bias f4 [3]
-0.017773464 -0.009204429 0.02803933
00000000: a899 91bc 2cce 16bc bdb2 e53c

action_model._discrete_distribution.branches.0.weight f4 [3, 256]
0.0017672318 0.021809107 0.004751528 -0.026766397 0.0011979481 -0.00403316 0.006539863 -0.02440761
-0.022497505 -0.011014726 0.0057966136 0.008947608 0.017369578 0.024526445 -0.026124645 -0.005433642
-0.01550831 -0.007280146 0.006747393 -0.016881019 0.03441509 -0.004043812 0.004772011 0.003933035
-0.007295195 -0.0083700195 0.007592449 0.020761987 -0.013342014 -0.016681738 -0.0052258503 -0.01756195
0.00322243 0.005525237 0.0125815775 -0.00019478114 -0.01957044 -0.008733155 0.03145741 -0.023610715
-0.023625886 0.016204905 0.0011178774 -0.006670657 0.0064392146 -0.0035209802 0.0052649635 -0.012512237
-0.006828301 0.0011350368 -0.007856909 0.0123522235 0.0091195395 -0.0021199863 0.014522287 -0.01938982
-0.014834422 0.019605348 -0.017953934 -0.008627593 -0.013135279 -0.005103795 0.0041672997 -0.009081593
-0.01071118 -0.010319462 0.008071225 -0.007085483 -0.010015831 0.006732548 0.010134871 -0.017327743
-0.0025075853 0.008741485 -0.017975008 -0.0014681214 0.0017559588 -0.015089482 0.0013527144 -0.00069913536
-0.019332865 0.00075653626 -0.010309555 0.0044007436 -0.010785097 -0.017039483 0.02439763 -0.026779596
-0.004700644 -0.033710167 -0.026958039 0.023664363 -0.010987547 -0.011802535 -0.020247648 -0.012705493
-0.0018493604 0.0049497834 -0.013488796 0.010228252 -0.0006269185 -0.0019496399 -0.015835252 0.025696727
-0.00067396427 0.014733808 -0.0154958265 0.0012735622 -0.005011601 0.002437739 0.011253721 -0.002913146
0.0145985875 -0.01643229 0.009405991 0.025619011 -0.0062284223 0.0027692092 0.0073575363 0.004253463
0.009137095 -0.009583926 -0.01155661 -0.012264629 -0.0084074605 -0.015987651 0.0012585279 0.008836743
-0.0101032555 -0.0015354691 -0.022390658 -0.0068015754 -0.013967405 -0.021664176 -0.003991683 0.0022090427
-0.022050062 0.010187407 0.032460157 -0.00739861 -0.016181547 -0.00038024702 -0.008342466 0.018847307
0.007845704 0.0038075778 -0.0023238845 -0.00027460582 -0.017570868 -0.0040708454 -0.0053694635 -0.00072914624
-0.031148752 -0.011588166 0.0126931295 0.005724019 -0.013874603 0.018785195 0.011025379 0.006964861
-0.004481503 -0.026994279 -0.0018831543 0.012769532 0.003429386 -0.015187521 -0.005585361 0.009184274
0.01580458 0.014273174 0.00610914 -0.025356121 0.021218998 -0.0025952212 -0.012498235 -0.026116846
-0.0047584875 0.0036362489 0.009264832 -0.02984849 -0.0045115207 -0.014777721 -0.0034458633 -0.0013823118
-0.034374796 -0.017820228 -0.008053547 -0.007546027 0.012733527 0.0068950406 -0.0051886467 -0.0040469524
0.006216382 0.013405598 -0.010469016 -0.003046275 -0.019123767 -0.009849164 0.0068627778 -0.0043798285
0.0030262168 -0.019885408 -0.01691706 -0.00012569819 -0.003284201 -0.021092422 -0.024027543 0.0020752882
0.009090043 -0.021740107 0.0073505067 0.0109564345 0.008104395 -0.01193894 -0.015052741 -0.013681871
-0.0054070335 0.027711323 0.010106909 -0.00864221 0.0018869124 0.003678152 -0.016777245 0.0049438043
-0.0014277351 -0.0046860343 -0.015287268 -0.0034583542 -0.017787138 -0.0038382825 0.011172986 0.00425669
-0.0016791965 -0.00029232836 0.0084788585 0.005222889 0.0060225585 -0.002353789 -0.0024752873 0.003041362
-0.009217825 0.009489446 -0.0076182433 -0.012815561 -0.019597504 -0.0011307086 -0.012332162 0.00852295
-0.008412387 -0.012885172 0.0215452 -0.0059525417 -0.012893628 0.025616389 0.014358163 -0.0047183577
00000000: 76a2 e73a 03a9 b23c b5b2 9b3b 3445 dbbc
00000010: 7804 9d3a 9928 84bb 594c d63b 78f2 c7bc
00000020: b04c b8bc 1c77 34bc 85f1 bd3b fd98 123c
00000030: a54a 8e3c afeb c83c 5a03 d6bc b10c b2bb
00000040: 9116 7ebc 4a8e eebb 3c19 dd3b 104a 8abc
00000050: d6f6 0c3d f481 84bb 885e 9c3b b0e0 803b
00000060: 880c efbb 6822 09bc 14ca f83b 0b15 aa3c
00000070: 7698 5abc 24a8 88bc 9c3d abbb 14de 8fbc
00000080: 672f 533b 0c0d b53b f622 4e3c 2a3e 4cb9
00000090: 3052 a0bc 8215 0fbc 7cd9 003d 426b c1bc
000000a0: 138b c1bc 26c0 843c be85 923a 8795 dabb
000000b0: 0c00 d33b 3fc0 66bb b785 ac3b 2000 4dbc
000000c0: f1bf dfbb 84c5 943a 44ba 00bc fb60 4a3c
000000d0: 1f6a 153c 78ef 0abb e3ee 6d3c 66d7 9ebc
000000e0: 130c 73bc 659b a03c 2114 93bc bf5a 0dbc
000000f0: 5a35 57bc bc3d a7bb d88d 883b f6ca 14bc
00000100: f27d 2fbc f612 29bc 2c3d 043c 572d e8bb
00000110: 7119 24bc b59c dc3b bb0c 263c e9f2 8dbc
00000120: 4d56 24bb 7238 0f3c 5340 93bc fb6d c0ba
00000130: 3328 e63a e039 77bc 904d b13a 2e46 37ba
00000140: f55f 9ebc 4a52 463a 68e9 28bc 1d34 903b
00000150: fab3 30bc 6396 8bbc 8add c73c e260 dbbc
00000160: dc07 9abb ac13 0abd 1bd7 dcbc c4db c13c
00000170: 1d05 34bc 6b5f 41bc 65de a5bc b32a 50bc
00000180: 3d66 f2ba cb31 a23b 1c00 5dbc 6694 273c
00000190: ca57 24ba 0f8b ffba eeb8 81bc f181 d23c
000001a0: faac 30ba 1266 713c 35e2 7dbc a8ed a63a
000001b0: 5b38 a4bb 79c2 1f3b 8761 383c 7bea 3ebb
000001c0: ea2e 6f3c 039d 86bc 961b 1a3c f6de d13c
000001d0: cb17 ccbb 9f7b 353b 7d17 f13b a260 8b3b
000001e0: c1b3 153c e605 1dbc f057 3dbc 95f1 48bc
000001f0: 72bf 09bc 89f8 82bc 30f5 a43a fdc7 103c
00000200: 2088 25bc cb41 c9ba 9d6c b7bc c0df debb
00000210: 8bd7 64bc 1279 b1bc aacc 82bb 96c5 103b
00000220: 55a2 b4bc 15e9 263c f1f4 043d 0a70 f2bb
00000230: 2a8f 84bc e45b c7b9 d7ae 08bc ab65 9a3c
00000240: 458b 003c 8e88 793b 504c 18bb f8f8 8fb9
00000250: c8f0 8fbc ba64 85bb 53f2 afbb 2d24 3fba
00000260: ab2b ffbc 4adc 3dbc d8f6 4f3c 8d90 bb3b
00000270: 4e52 63bc 69e3 993c cba3 343c 7d39 e43b
00000280: 92d9 92bb 1b23 ddbc 2cd4 f6ba 4d37 513c
00000290: 8dbf 603b 15d5 78bc 6705 b7bb a379 163c
000002a0: 9b78 813c 08da 693c 2e2f c83b a4b7 cfbc
000002b0: 77d3 ad3c 9614 2abb 66c5 4cbc fff2 d5bc
000002c0: 16ed 9bbb 224e 6e3b 86cb 173c d284 f4bc
000002d0: 61d5 93bb 411e 72bc fed3 61bb b02e b5ba
000002e0: 96cc 0cbd bafb 91bc 06f3 03bc aa44 f7bb
000002f0: 49a0 503c cbef e13b 8605 aabb 4c9c 84bb
00000300: cbb2 cb3b 27a3 5b3c 3c86 2bbc 03a4 47bb
00000310: 72a9 9cbc 635e 21bc 27e1 e03b aa84 8fbb
00000320: 7e53 463b b9e6 a2bc a595 8abc dacd 03b9
00000330: c03b 57bb 04ca acbc 69d5 c4bc 8f01 083b
00000340: 67ee 143c 4f18 b2bc 85dc f03b 9e82 333c
00000350: 4cc8 043c 8b9b 43bc c69f 76bc ed29 60bc
00000360: 7c2d b1bb db02 e33c 7397 253c 0e98 0dbc
00000370: 4652 f73a 270d 713b 6f70 89bc a3ff a13b
00000380: d722 bbba 4e8d 99bb 7377 7abc 8ea5 62bb
00000390: 55b6 91bc b28b 7bbb e60e 373c b47b 8b3b
000003a0: 7c18 dcba a643 99b9 e9ea 0a3c c524 ab3b
000003b0: e258 c53b 0742 1abb 6e38 22bb 9651 473b
000003c0: 5c06 17bc 9f79 1b3c 75a2 f9bb 5cf8 51bc
000003d0: f28a a0bc 4934 94ba d60c 4abc d8a3 0b3c
000003e0: 1cd4 09bc 541c 53bc 8f7f b03c 8a0d c3bb
000003f0: cc3f 53bc 76d9 d13c 803e 6b3c 749c 9abb

action_model._discrete_distribution.branches.1.bias f4 [2]
0.01419436 -0.014194356
00000000: 768f 683c 728f 68bc

action_model._discrete_distribution.branches.1.weight f4 [2, 256]
-0.015932871 -0.014773966 -0.008075188 -0.009804523 -0.019629115 -0.036118183 -0.022416515 -0.02968453
0.009391956 0.008289328 -0.009537177 0.0031953373 0.015473355 0.018432694 -0.011587308 0.018210193
0.009250596 -0.012799004 -0.009639281 0.0029100678 -0.019747186 0.021930441 -0.0009463919 0.00982493
0.0009219085 0.02933812 -0.00531789 -0.012667432 0.015691107 -0.0016221629 0.002397844 0.025952497
-0.0021235566 -0.007618617 -0.008326425 -0.019281559 0.0036689702 0.00093376247 -0.02343321 0.012166908
0.019271221 -0.018074386 -0.009530935 0.023784094 0.037397508 0.0008168284 0.008950895 0.007480322
0.011711019 0.008033952 0.0062068575 0.027149396 -0.012771075 0.023140501 -0.01086018 0.011182457
-0.00016313024 -0.009425853 0.014498384 -0.01786228 0.025510129 -0.00054783537 -0.008316084 0.0021967278
-0.012458129 0.014952316 0.008720799 -0.010648617 0.01657652 -0.0067038503 0.00014094623 0.02074584
0.0019726756 -0.0009488509 0.01252489 0.0029759398 -0.016539052 -0.014602004 -0.013885013 0.0077970633
-0.026904775 -0.0068737464 0.02964361 -0.03373457 -0.004926976 0.0010882496 -0.0019982865 0.0122681875
0.014129711 0.0048428527 0.0355813 0.00843937 -0.008498781 -0.00465582 0.0142460605 0.0060200077
-0.014933999 0.006799957 0.0071285325 -0.021350328 0.011555346 -0.004602134 0.040882986 -0.009145939
-0.022532295 -0.011553451 -0.011269061 0.024913786 0.0167057 0.02702347 -0.005551798 -0.020245705
0.032780033 0.014255433 -0.0039748475 -0.009966758 -0.018034255 -0.0012560886 0.011263354 0.005253634
0.013215122 0.019239318 -0.023487141 0.0038088597 -0.020069154 0.0022613786 -0.01602049 -0.006087519
0.0024693739 0.020654993 0.017451711 0.015620496 -0.016503587 0.014727831 0.008510609 0.011103199
-0.00019864361 -0.015122449 -0.029858237 0.010386808 -0.006526906 0.0104896035 0.005923944 -0.023157792
0.024624383 -0.0022330703 -0.0058369692 -0.014941966 0.010162291 -0.0033698506 0.006294921 -0.011186206
0.0033227946 0.007019647 -0.0158843 -0.0059652906 0.006716908 -0.028925415 0.020432891 -0.0011624286
0.011931444 0.01335498 -0.00221358 -0.009829034 -0.018596783 -0.011308873 -0.014504484 0.015268913
-0.017975042 -0.021295834 -0.0063156076 -0.007179376 -0.0041295667 0.001776188 0.0023285472 -0.0076134843
-0.002838809 0.0098516485 -0.014703454 0.021544179 0.0008362205 0.01614687 0.0004355891 -0.013915383
0.019560764 0.003585407 0.0051791836 0.001394796 -0.01786478 -0.013217062 -0.002580165 0.02151774
-0.022276273 0.022872768 0.0006497705 0.0023426781 0.012992629 0.014709834 0.01082656 0.00040361163
0.012970865 0.026229909 -0.004502065 -0.0060415617 0.010554613 0.0012965039 0.029128604 0.0034139268
-0.027006337 0.004382873 0.0062706266 -0.014301484 0.003746801 0.005819124 0.012733101 0.026801713
0.0070243147 0.007295555 0.0036250215 0.016128518 -0.0076310183 0.011107096 -0.0030185566 -0.015987603
-0.00040630737 0.004140199 -0.0033344205 0.0010806716 -0.0010008693 0.0040769596 0.010206373 -0.007695092
0.0012344805 0.01068351 0.0048339907 0.0045471825 -0.004110502 0.0051672477 0.020841531 -0.01655614
-0.0017210027 -0.013725325 0.00622865 0.0021914416 0.012284006 -0.014092754 0.0025831412 -0.007885205
0.002865655 0.0064144894 -0.00772693 -0.027560823 0.017847389 -0.00059546484 -0.020324733 -0.012115753
00000000: a785 82bc 810e 72bc cb4d 04bc 26a3 20bc
00000010: 3dcd a0bc a9f0 13bd d7a2 b7bc f92c f3bc
00000020: b8e0 193c f6cf 073c d241 1cbc dd68 513b
00000030: f483 7d3c 2900 973c b1d8 3dbc 8b2d 953c
00000040: d08f 173c eab2 51bc 13ee 1dbc d6b6 3e3b
00000050: dac4 a1bc 78a7 b33c 4917 78ba bef8 203c
00000060: 3bac 713a 7f56 f03c b241 aebb 108b 4fbc
00000070: a38a 803c c19e d4ba 2625 1d3b 559a d43c
00000080: 5e2b 0bbb 97a5 f9bb 8f6b 08bc 5cf4 9dbc
00000090: 1b73 703b bdc7 743a 01f7 bfbc b657 473c
000000a0: aede 9d3c bc10 94bc a427 1cbc dcd6 c23c
000000b0: 212e 193d 6d20 563a c6a6 123c 7d1d f53b
000000c0: 93df 3f3c d6a0 033c e562 cb3b 6968 de3c
000000d0: c53d 51bc 2691 bd3c e5ee 31bc a036 373c
000000e0: f10d 2bb9 e56e 1abc a18a 6d3c eb53 92bc
000000f0: 9efa d03c 9c9c 0fba 2f40 08bc faf6 0f3b
00000100: 2e1d 4cbc 8ffa 743c afe1 0e3c 8977 2ebc
00000110: 7bcb 873c f9ab dbbb f7ca 1339 2ef3 a93c
00000120: 0148 013b 4ebc 78ba 3235 4d3c fc07 433b
00000130: e87c 87bc 3e3d 6fbc f77d 63bc 827e ff3b
00000140: 6767 dcbc 2a3d e1bb 28d7 f23c 432d 0abd
00000150: 7872 a1bb 99a3 8e3a aff5 02bb 8200 493c
00000160: 4e80 673c cbb0 9e3b b2bd 113d 4945 0a3c
00000170: 793e 0bbc d98f 98bb 4f68 693c 7c43 c53b
00000180: bbad 74bc 2cd2 de3b 7796 e93b e2e6 aebc
00000190: a252 3d3c 80cd 96bb eb74 273d d9d8 15bc
000001a0: a695 b8bc b04a 3dbc dea1 38bc ff17 cc3c
000001b0: 64da 883c 5360 dd3c dbeb b5bb 52da a5bc
000001c0: 5b44 063d 9f8f 693c 703f 82bb 9d4b 23bc
000001d0: 93bc 93bc 57a3 a4ba ee89 383c ad26 ac3b
000001e0: 3d84 583c c69b 9d3c 1b68 c0bc 109e 793b
000001f0: 1168 a4bc a333 143b 673d 83bc d079 c7bb
00000200: 38d5 213b a934 a93c e4f6 8e3c 1ced 7f3c
00000210: 8832 87bc 004d 713c 1570 0b3c 31ea 353c
00000220: fd4a 50b9 26c4 77bc 4399 f4bc 6e2d 2a3c
00000230: a8df d5bb 96dc 2b3c a51d c23b 69b5 bdbc
00000240: 13b9 c93c b458 12bb 0c44 bfbb 26cf 74bc
00000250: bd7f 263c b6d8 5cbb a045 ce3b 5946 37bc
00000260: 3ec3 593b 1105 e63b cb1f 82bc 7c78 c3bb
00000270: 8219 dc3b fef4 ecbc e162 a73c a25c 98ba
00000280: 1a7c 433c d9ce 5a3c b611 11bb f509 21bc
00000290: 4858 98bc da48 39bc 37a4 6dbc 762a 7a3c
000002a0: 6540 93bc 9a74 aebc 28f3 cebb f940 ebbb
000002b0: 5151 87bb fbce e83a 8a9a 183b 897a f9bb
000002c0: 500b 3abb cf68 213c c2e6 70bc 6b7d b03c
000002d0: cf35 5b3a 7146 843c c85f e439 59fd 63bc
000002e0: e53d a03c 26f9 6a3b 24b6 a93b 96d1 b63a
000002f0: 2959 92bc 608c 58bc fc17 29bb f945 b03c
00000300: bb7c b6bc ac5f bb3c 5c55 2a3a 9e87 193b
00000310: 09df 543c 8401 713c e261 313c d69b d339
00000320: c083 543c 1be0 d63c 0f86 93bb 4bf8 c5bb
00000330: 41ed 2c3c 74ef a93a 1c9f ee3c 30bc 5f3b
00000340: 653c ddbc 349e 8f3b d479 cd3b c650 6abc
00000350: e48c 753b 5aae be3b 7f9e 503c 448f db3c
00000360: 392c e63b 8d0f ef3b c591 6d3b f41f 843c
00000370: 9f0d fabb 8afa 353c fad2 45bb 6ff8 82bc
00000380: a705 d5b9 82aa 873b 4b86 5abb 52a5 8d3a
00000390: 9a2f 83ba 0498 853b a238 273c 1c27 fcbb
000003a0: 4bce a13a e409 2f3c 7466 9e3b 8800 953b
000003b0: 64b1 86bb 0452 a93b dcbb aa3c bea0 87bc
000003c0: 4593 e1ba 30e0 60bc b419 cc3b 4a9e 0f3b
000003d0: db42 493c 4be5 66bc eb49 293b f230 01bc
000003e0: b7cd 3b3b a330 d23b 3032 fdbb 3cc7 e1bc
000003f0: b034 923c f818 1cba 0e80 a6bc 2781 46bc

action_model._discrete_distribution.branches.2.bias f4 [2]
0.014380654 -0.014380656
00000000: d69c 6b3c d89c 6bbc

action_model._discrete_distribution.branches.2.weight f4 [2, 256]
-0.0057324977 -0.019006496 -0.0030110274 0.005948014 -0.002750246 -0.015062227 0.0014167164 0.0072251745
0.0057466086 0.027596818 -9.3042276e-05 -0.009726226 -0.005292192 0.009716652 -0.0018612607 0.0068838927
0.009224748 0.00071193866 -0.0037189613 0.020560052 -0.015702013 0.0132023655 0.021819398 0.005245332
0.01840397 0.003018208 -0.008784176 -0.01566931 0.0020635608 0.0008703833 0.0024072577 0.004941541
0.019505361 -0.0046950136 -0.0010698945 0.017556414 0.021748958 0.0107991 -0.0051267045 0.0018734038
0.021169687 -0.0055510947 -0.01562065 0.0030273655 -0.020710392 0.030972602 0.014101603 -0.0004646686
-0.01901825 0.001374574 0.009769911 -0.018915232 -0.004631002 -0.00800773 -0.017990584 0.009401146
-0.0066082687 -0.017907588 0.0164396 0.013013363 -0.021547385 0.010624617 -0.00096847716 -0.0060179867
0.008777226 0.015124134 0.0005296398 0.014267674 0.005179997 0.006452031 -0.012642464 0.01938911
0.0018977731 0.012009686 -0.019605577 0.0076459474 0.0030428334 0.008356545 -0.0041696895 0.016552761
-0.001055313 0.0003398725 -0.0028015825 0.01628914 -0.012142821 0.018556867 0.0064421194 -0.0022849024
0.009458943 -0.000106613996 -0.010478021 -0.012055864 -0.02107269 -0.004113665 -0.011451472 -0.000353614
0.01332452 0.0069476743 -0.0033601765 0.02022989 -0.0046054916 0.0045950543 -0.0035766186 -0.019778606
0.0073108845 0.00039604967 0.008366054 0.012076395 0.0074389344 -0.027920492 0.013604737 0.006182153
-0.010450289 0.019917531 0.024410222 -0.031639423 -0.0088455 0.0003165757 0.0046812603 -0.0038496556
-0.00857543 -0.002560433 0.018069033 0.010864262 0.0029242446 0.009453146 -0.0032620963 0.004577494
-0.02267809 0.015484138 -0.0030173264 0.003504369 -0.003347184 -0.013074376 0.008616345 0.012483512
0.011973891 -0.021496624 -0.007000493 -0.011356763 -0.0061870012 -0.015388808 0.024251316 -0.016211579
-0.020367801 0.011494275 0.025739381 -0.007730516 0.013741421 0.0057446184 0.032972146 1.2432483e-05
-0.005198101 0.01296673 0.018843913 -0.0059856926 -0.0035139099 -0.013491754 -0.012775836 -0.010356098
-0.024142886 -0.003725955 -0.0058861934 0.0007480025 0.01338459 0.012031693 -0.009390585 -0.015173863
0.016527275 -0.01469178 0.016864683 -0.013212666 -0.027515363 -0.009919386 -0.0037240959 0.0019749834
0.010616289 -0.0010590281 -0.021000762 0.0067899544 -0.016619122 0.016988305 0.0123310285 -0.009592599
-0.0022925816 0.0129393255 0.015709693 0.0081309965 -0.0137666315 0.012930362 0.028648501 0.021097507
-0.009999502 0.016147051 -0.009796223 0.017781373 0.02100614 -0.0101619605 0.00283418 0.0046948674
-0.021244258 0.018930078 0.023597246 -0.0006137222 -0.0021470238 -0.00012694014 0.008342249 0.017318714
0.004631874 5.5586155e-05 -0.01354063 -0.013172208 -0.009266224 -0.01685138 -0.0018261239 -0.024184065
0.0010715225 -0.010216102 0.0033717633 0.014112479 -0.0009012034 -0.0110686 0.010186126 -0.014852312
0.0035664046 0.007880491 -0.0026665067 0.019731918 -0.0006895112 0.022004453 -0.013984404 0.019222874
0.0040098876 0.0072177374 0.007581057 0.008346647 0.0114749 -0.013848189 0.013523901 -0.0077188862
-0.0005226764 0.005536251 0.011121142 0.010907994 0.014114113 -0.0070357816 0.006335269 0.004562535
0.0134546915 0.016671455 -0.012483895 0.013650503 -0.013844025 -0.009021459 0.012139526 0.01654817
00000000: add7 bbbb 83b3 9bbc a854 45bb 8fe7 c23b
00000010: 793d 34bb 8fc7 76bc 1db1 b93a 28c1 ec3b
00000020: 0c4e bc3b b912 e23c b11f c3b8 c05a 1fbc
00000030: 206a adbb 9832 1f3c 8cf5 f3ba 4792 e13b
00000040: 6623 173c 65a1 3a3a d1b9 73bb 8e6d a83c
00000050: 82a1 80bc bc4e 583c 98be b23c 09e1 ab3b
00000060: ecc3 963c 21cd 453b 81eb 0fbc ed5c 80bc
00000070: ce3c 073b 6f2a 643a 15c3 1d3b a6ec a13b
00000080: b5c9 9f3c a1d8 99bb b43b 8cba 78d2 8f3c
00000090: df2a b23c b5ee 303c eafd a7bb 008d f53a
000000a0: 0d6c ad3c f5e5 b5bb c1ed 7fbc c466 463b
000000b0: d7a8 a9bc 41ba fd3c 690a 673c c49e f3b9
000000c0: 29cc 9bbc 0d2b b43a fa11 203c 1ef4 9abc
000000d0: a9bf 97bb db32 03bc fd60 93bc 4407 1a3c
000000e0: 2d8a d8bb efb2 92bc 57ac 863c 0036 553c
000000f0: 2484 b0bc e012 2e3c 67e1 7dba 8832 c5bb
00000100: 5bce 0f3c 37cb 773c 86d7 0a3a f6c2 693c
00000110: f7bc a93b 8f6b d33b 5622 4fbc e9d5 9e3c
00000120: b3be f83a 46c4 443c e09b a0bc db8a fa3b
00000130: 466a 473b e4e9 083c e4a1 88bb a899 873c
00000140: 6e52 8aba ea30 b239 c19a 37bb cd70 853c
00000150: aff2 46bc 9204 983c 6a18 d33b 4dbe 15bb
00000160: aff9 1a3c f495 dfb8 01ac 2bbc f585 45bc
00000170: a2a0 acbc eccb 86bb f49e 3bbc 4565 b9b9
00000180: 164f 5a3c 51a9 e33b 6836 5cbb 27b9 a53c
00000190: aae9 96bb 1c92 963b b465 6abb be06 a2bc
000001a0: 2590 ef3b e3a4 cf39 c611 093c 12dc 453c
000001b0: 4ec2 f33b 84b9 e4bc 67e6 5e3c a893 ca3b
000001c0: b037 2bbc 172a a33c f2f7 c73c 5798 01bd
000001d0: b7ec 10bc 12fa a539 4265 993b 814a 7cbb
000001e0: f67f 0cbc f0cc 27bb 8205 943c 0400 323c
000001f0: afa4 3f3b 5ee1 1a3c e5c8 55bb cefe 953b
00000200: 67c7 b9bc 2fb1 7d3c 56be 45bb 8ea9 653b
00000210: 6e5c 5bbb e835 56bc 922b 0d3c a587 4c3c
00000220: 242e 443c b019 b0bc 6464 e5bb b711 3abc
00000230: 54bc cabb 5721 7cbc b2aa c63c 25ce 84bc
00000240: 60da a6bc 7c52 3c3c 65db d23c 4550 fdbb
00000250: b223 613c 5a3d bc3b cd0d 073d 1c95 5037
00000260: d554 aabb 6872 543c 8d5e 9a3c a123 c4bb
00000270: a049 66bb 850c 5dbc bd51 51bc a0ac 29bc
00000280: 4dc7 c5bc 272f 74bb f8e0 c0bb 9915 443a
00000290: 0a4b 5b3c 9420 453c f8da 19bc cb9b 78bc
000002a0: 3564 873c cbb5 70bc ce27 8a3c f079 58bc
000002b0: e667 e1bc ec84 22bc f60f 74bb b96e 013b
000002c0: f2ef 2d3c 16cf 8aba ca09 acbc 447e de3b
000002d0: d324 88bc 0f2b 8b3c 1508 4a3c 472a 1dbc
000002e0: 233f 16bb 77ff 533c 9db1 803c df37 053c
000002f0: 708d 61bc ded9 533c 43b0 ea3c aed4 ac3c
00000300: f4d4 23bc d246 843c 5680 20bc 3eaa 913c
00000310: 1215 ac3c 5a7e 26bc a6bd 393b 67d7 993b
00000320: 7008 aebc 4013 9b3c 034f c13c 33e2 20ba
00000330: 15b5 0cbb 3c1b 05b9 eead 083c fadf 8d3c
00000340: fac6 973b 2e25 6938 85d9 5dbc 3fd0 57bc
00000350: 5cd1 17bc e80b 8abc 8d5a efba a91d c6bc
00000360: 5472 8c3a 7061 27bc cdf8 5c3b 0738 673c
00000370: bd3e 6cba 1359 35bc b6e3 263c 1d57 73bc
00000380: 57ba 693b 2d1d 013c 8fc0 2ebb d5a4 a13c
00000390: 50c0 34ba af42 b43c d71e 65bc 4a79 9d3c
000003a0: 6065 833b c582 ec3b 846a f83b 60c0 083c
000003b0: 3801 3c3c 84e3 62bc 5a93 5d3c b6ee fcbb
000003c0: 3804 09ba 7069 b53b 7335 363c 71b7 323c
000003d0: e13e 673c 6a8c e6bb 1798 cf3b 5181 953b
000003e0: 1171 5c3c 9392 883c 4089 4cbc 5ca6 5f3c
000003f0: 0dd2 62bc bece 13bc dde4 463c 0790 873c

action_model._discrete_distribution.branches.3.bias f4 [2]
0.0122431135 -0.012243109
00000000: 5797 483c 5297 48bc

action_model._discrete_distribution.branches.3.weight f4 [2, 256]
-0.020139111 -0.0065234536 0.0065985997 0.0062603815 -0.0074227774 -0.026794557 -0.013499709 -0.0075808167
-0.008602915 0.03791976 -0.017753905 -0.016503181 0.015015719 -0.017569905 0.0024197432 0.018119685
0.016343566 -0.0023617193 -0.0062198928 0.011025512 -0.019364195 0.0065029142 -0.012751163 -0.005172351
0.0037739438 0.013262443 0.004441905 -0.025406245 0.020971345 0.051422898 0.018960211 -0.011852337
-0.01451962 0.019749071 0.015218628 -0.014464754 0.010193792 -0.017696097 -0.007582063 0.0011145294
0.0049062115 0.0024321994 0.011120475 -0.016795931 -0.024589343 0.0066954237 -0.0038963503 0.004089103
0.014272388 0.008557209 0.008156941 -0.010115204 -0.015340772 0.008845662 0.004083231 0.027577443
0.008664077 -0.0053515662 0.026011834 0.0037748183 0.008229367 -0.0041353004 -0.013590485 0.020655343
0.0075900597 0.028994914 0.0028449916 -0.004586163 -0.011750006 -0.004567503 -0.0037519534 0.009557752
0.0038105617 0.00699246 -0.0067490353 0.0038285737 0.012919304 -0.011922752 -0.01502265 0.0221157
0.0062793163 0.0036659546 -0.015066291 0.0030959111 -0.0021804613 0.018917786 -0.013692432 0.0033684822
0.008447582 0.028226515 -0.010418196 -0.012431431 -0.0040235254 -0.022064306 0.0104220165 0.022606246
0.0046137 -0.0062487936 0.0062585548 0.006656001 -0.013637084 0.00061836804 -0.012705693 -0.028835839
0.009846494 0.014582525 -0.0023933824 -0.02037281 0.0103878295 -0.01095895 0.009445775 0.015164284
-0.027231159 -0.01552121 0.0018123365 -0.020029984 -0.015448529 0.02722523 0.001253581 -0.003055257
-0.011073742 0.017370138 0.0068546054 0.01026842 0.0047826213 0.0056149196 -0.005242099 -0.011011679
-0.008240105 0.017873123 -0.010074059 -0.0036273343 0.017133744 0.0031983398 0.017113706 0.019628178
0.016616024 0.013196482 0.01099696 -0.021318926 -0.005581431 0.008319435 0.01495531 0.012207004
-0.026439348 0.019155307 0.004562472 0.0029955874 0.016252311 0.010886324 -0.0017636161 -0.0029611215
0.007499803 0.022003053 0.011963324 -0.02992566 0.026797866 -0.0013556008 0.0013716877 -0.0029098154
-0.008597083 0.016549043 0.005660595 -0.00063074334 0.026738042 0.023756096 -0.018727401 -0.02697412
-0.012579455 0.0033417593 0.0062707444 0.0005991476 -0.0057256864 -0.010283294 -0.0118112285 0.03074216
0.004452645 0.0062865056 0.016965918 0.005989134 0.020112915 0.014528382 0.009546997 0.001810169
0.014175002 0.00071093277 0.022178149 0.005755282 -0.008831697 -0.0056394134 0.0050190636 0.015756637
0.0025037671 -0.024702448 0.013971125 -0.010039222 0.031627733 -0.010765289 0.03730561 -0.003797873
-0.027598025 0.018052777 0.03247977 -0.009858969 0.001177624 0.016444221 0.0056837318 0.0020521097
-0.012803042 0.00072228594 -0.017151704 0.0006062924 -0.0020787062 -0.013381769 0.006798124 -0.0028962789
0.01609518 -0.010239394 -0.011945829 0.037346862 0.016051384 -0.004332203 0.0060234135 -1.5998645e-05
-0.00091891474 0.0071786433 0.011078503 0.016899718 0.009832831 0.006999522 -0.0033690534 -0.017034309
-0.0033545564 0.019904612 -0.02217802 0.0034804852 -0.0060904664 0.004730847 0.011855829 -0.021328598
0.018933432 0.018637076 0.017525138 0.0027303072 0.012249961 -0.002937918 -0.016806154 -0.019373432
0.00022727481 -0.004618646 -0.0067756153 0.0027639973 0.015810104 -0.00085284316 -0.0055736126 -0.006042231
00000000: c7fa a4bc b2c2 d5bb 1139 d83b e323 cd3b
00000010: c53a f3bb 4280 dbbc e22d 5dbc 8068 f8bb
00000020: 3ef3 0cbc c051 1b3d a370 91bc ae31 87bc
00000030: 7e04 763c c3ee 8fbc 8e94 1e3b bc6f 943c
00000040: f1e2 853c 13c7 1abb 3ed0 cbbb 59a4 343c
00000050: a9a1 9ebc 6616 d53b 41ea 50bc d37c a9bb
00000060: 4554 773b b84a 593c 668d 913b c220 d0bc
00000070: 19cc ab3c d1a0 523d 7252 9b3c 4e30 42bc
00000080: b3e3 6dbc cec8 a13c 8d57 793c 93fd 6cbc
00000090: dd03 273c 68f7 90bc f472 f8bb 6715 923a
000000a0: 49c4 a03b 8965 1f3b a732 363c 9f97 89bc
000000b0: 976f c9bc 4965 db3b e959 7fbb e2fd 853b
000000c0: bcd6 693c 8933 0c3c b1a4 053c 3eba 25bc
000000d0: dd57 7bbc 65ed 103c a0cc 853b 17ea e13c
000000e0: c6f3 0d3c 315c afbb c516 d53c f162 773b
000000f0: 78d4 063c 6a81 87bb a0aa 5ebc 6535 a93c
00000100: 09b6 f83b be86 ed3c 0a73 3a3b 8647 96bb
00000110: 1983 40bc feaa 95bb 55e3 75bb 1e98 1c3c
00000120: 9eba 793b 0221 e53b 0327 ddbb cfe8 7a3b
00000130: 7dab 533c a557 43bc 9021 76bc fc2b b53c
00000140: b9c2 cd3b 8340 703b 9bd8 76bc c5e4 4a3b
00000150: 12e6 0ebb 79f9 9a3c 3956 60bc c1c1 5c3b
00000160: ba67 0a3c 4b3b e73c 15b1 2abc 33ad 4bbc
00000170: c7d7 83bb 34c0 b4bc 1bc1 2a3c bc30 b93c
00000180: 852e 973b aec2 ccbb 9014 cd3b 951a da3b
00000190: 136e 5fbc fa19 223a 8a2b 50bc 2339 ecbc
000001a0: 3053 213c 8beb 6e3c 4bda 1cbb e1e4 a6bc
000001b0: b731 2a3c 2b8d 33bc 74c2 1a3c 9e73 783c
000001c0: e113 dfbc ac4c 7ebc ec8b ed3a ec15 a4bc
000001d0: d41b 7dbc 7207 df3c 334f a43a b53a 48bb
000001e0: a46e 35bc d24b 8e3c 999c e03b e03c 283c
000001f0: 89b7 9c3b 5cfd b73b eac5 abbb 546a 34bc
00000200: 8101 07bc a86a 923c aa0d 25bc 92b8 6dbb
00000210: 115c 8c3c 3d9b 513b 0b32 8c3c 46cb a03c
00000220: 541e 883c 0f36 583c 982c 343c 07a5 aebc
00000230: 70e4 b6bb 3d4e 083c 1e07 753c e3ff 473c
00000240: 5597 d8bc 97eb 9c3c ca80 953b 9e51 443b
00000250: 9123 853c 8d5c 323c 2329 e7ba 600f 42bb
00000260: e8c0 f53b bf3f b43c d101 443c a826 f5bc
00000270: 3387 db3c 6aae b1ba 34ca b33a 9ab2 3ebb
00000280: c8da 0cbc dc91 873c 837c b93b 7858 25ba
00000290: bd09 db3c 259c c23c 356a 99bc d4f8 dcbc
000002a0: 0f1a 4ebc 6b01 5b3b d17a cd3b 1d10 1d3a
000002b0: 8a9e bbbb 437b 28bc e283 41bc fbd6 fb3c
000002c0: 7ee7 913b 08ff cd3b 1cfc 8a3c 7f40 c43b
000002d0: d7c3 a43c 7308 6e3c 026b 1c3c 3143 ed3a
000002e0: 453e 683c e45d 3a3a f3ae b53c ce96 bc3b
000002f0: d2b2 10bc d4ca b8bb f576 a43b 1014 813c
00000300: 3e16 243b ca5c cabc 25e7 643c 8d7b 24bc
00000310: 158c 013d e560 30bc c4cd 183d bce5 78bb
00000320: 4115 e2bc 6be3 933c 8209 053d 8387 21bc
00000330: 815a 9a3a 08b6 863c 993e ba3b b07c 063b
00000340: dac3 51bc ca57 3d3a bb81 8cbc 98ef 1e3a
00000350: e73a 08bb 353f 5bbc ccc2 de3b 7fcf 3dbb
00000360: 0ada 833c 22c3 27bc 70b8 43bc 06f9 183d
00000370: 317e 833c 27f5 8dbb 0e60 c53b d434 86b7
00000380: 53e3 70ba d33a eb3b 9c82 353c 4771 8a3c
00000390: e219 213c 3f5c e53b 56cb 5cbb 898b 8bbc
000003a0: 1ed8 5bbb ff0e a33c aeae b5bc da18 643b
000003b0: 8992 c7bb 3905 9b3b f33e 423c 50b9 aebc
000003c0: 491a 9b3c c8ac 983c e190 8f3c f4ee 323b
000003d0: 0fb4 483c 168a 40bb 0fad 89bc 08b5 9ebc
000003e0: 9e50 6e39 0358 97bb fb05 debb 2e24 353b
000003f0: 3184 813c 5691 5fba daa2 b6bb e8fd c5bb

action_model._discrete_distribution.branches.4.bias f4 [2]
-0.00814721 0.008147212
00000000: e07b 05bc e27b 053c

action_model._discrete_distribution.branches.4.weight f4 [2, 256]
-0.017285181 0.0138935 -0.005503162 -0.02425671 -0.019753821 -0.0066398047 0.011614529 -0.02030708
-0.0066667562 -0.017139852 0.012060669 -0.0073163514 -0.010641108 0.02205157 -0.039916594 -0.024239836
-0.0072335238 0.0062026638 -0.01445483 -0.0033779421 0.021810092 -0.0013693416 -0.01894368 -0.012588368
0.014502157 -0.0032901177 0.0091883885 0.016087359 -0.011998776 -0.025107387 -0.01967369 -0.009392646
0.0058849924 0.002301064 -0.00069147605 0.02539362 -0.0075253514 -0.0023469857 0.01779836 -0.029042443
-0.0135367885 0.00016036276 0.010766509 -0.005895124 0.026518539 0.015828941 -0.008665959 -0.006638949
-0.0062327874 -0.0071114725 -0.010564826 0.018192995 0.010785891 -0.0015984403 0.010001697 -0.010859166
0.008197782 0.0073840595 -0.008900755 -0.010435231 -1.6151085e-05 -0.014005641 -0.016049612 0.008934938
-0.016031753 -0.0073763924 0.011204126 -0.020097751 -0.004767734 -0.0020176019 0.0007166531 -0.011118939
-0.0059897513 0.013266615 0.020006998 -0.014072591 0.0067250533 -0.004230539 -0.010646746 -0.029149314
-0.018487219 -0.0032511416 0.021687817 0.008896429 0.0095663825 0.009456242 0.016813567 -0.007902145
-0.0023110197 -0.012098197 0.011407262 0.029809859 -0.0026829042 -0.02583761 0.008806318 -0.010697842
0.0043559386 -0.0121998405 -0.01804445 0.025047056 -0.012261476 -0.03674018 0.009595786 0.013656053
-0.027658781 0.01689434 -0.007659816 -0.022833265 0.0029507296 -0.0066458816 0.039015826 0.0052698236
0.022105835 -0.0020585188 0.0076158424 0.017441815 -0.03844185 -0.0008492769 -0.013989168 0.0025048796
-0.011841894 0.011042318 -0.017479068 0.009359447 -0.0013672109 -0.017555935 -0.0016339722 0.007907152
-0.01182268 -0.022240516 -0.017731845 -0.00936738 -0.0058961203 0.0053838156 0.01094129 -0.0018482282
-0.004227444 -0.020603595 0.0027831527 0.01907107 -0.005669016 0.0073495954 -0.0027043456 0.0029756194
0.009186427 0.0049346928 0.017899808 0.0037935614 -0.015293463 -0.009398249 -0.020421304 -0.031784732
-0.0015449176 0.00011681638 0.027214589 -0.02279852 0.001460082 0.0022419947 0.017604724 -0.01826325
-0.018569753 -0.012562786 -0.0025018253 0.0026844544 0.0064689014 0.0024816282 0.011655204 0.010530509
0.013459164 -0.0071352343 -0.013579867 -0.014586991 0.02246151 0.00052218465 -0.005398736 -0.009149135
-0.02467402 0.030866211 0.0074206996 -0.011899308 -0.0077140993 0.01354233 -0.021757415 -0.0054408214
0.007320147 -0.020250972 -0.0033719006 -0.02027179 0.0027387403 -0.01696627 -0.0037484386 -0.01728344
0.0073218085 0.02519976 -0.01616137 0.018352548 0.009437814 -0.0050462964 0.0057004797 -0.018257372
0.002781186 -0.013383517 -0.016241755 -0.0010690135 -0.015705962 0.014153643 -0.0072969277 0.0029689844
-0.0005210426 -0.032762896 -0.008580586 -0.002579884 0.016256325 -0.011052788 0.006733867 -0.01957192
-0.012642561 0.009122461 0.017509645 0.024148392 0.0061562527 0.014953714 -0.00082294585 -0.009140726
-0.012037012 -0.009476835 -0.018763267 0.0028441907 0.013929335 0.0033213862 0.016495246 0.0011628713
-0.0030755575 -0.010133839 0.0014421867 -0.015759613 0.026554173 0.00090651854 -0.020644173 -0.008624947
-0.0018536982 0.0075154193 -0.025953606 -0.017980585 -0.011069808 0.004160567 -0.017005937 -0.006030049
-0.01180113 -0.00024539066 0.010816104 0.00855318 0.0043192054 0.011780449 0.0208809 0.0176212
00000000: a799 8dbc 90a1 633c de53 b4bb 02b6 c6bc
00000010: c4d2 a1bc b892 d9bb de4a 3e3c 095b a6bc
00000020: ce74 dabb e068 8cbc 1d9a 453c 01be efbb
00000030: 0b58 2ebc 7ea5 b43c 957f 23bd 9f92 c6bc
00000040: 3207 edbb b73f cb3b f4d3 6cbc 7760 5dbb
00000050: 14ab b23c 7b7b b3ba c72f 9bbc 713f 4ebc
00000060: 759a 6d3c 049f 57bb e58a 163c a3c9 833c
00000070: 8496 44bc 02ae cdbc b82a a1bc 9de3 19bc
00000080: e5d6 c03b 73cd 163b 2c44 35ba 4806 d03c
00000090: 3997 f6bb e3cf 19bb decd 913c 6bea edbc
000000a0: 68c9 5dbc 0d27 2839 0366 303c e22b c1bb
000000b0: 683d d93c b2ab 813c abfb 0dbc 8a8b d9bb
000000c0: 693c ccbb 5b07 e9bb 1818 2dbc 7a09 953c
000000d0: 4eb7 303c c282 d1ba 28de 233c a5ea 31bc
000000e0: fd4f 063c fbf5 f13b 79d4 11bc 88f8 2abc
000000f0: 317c 87b7 eb77 65bc 7a7a 83bc d963 123c
00000100: 0655 83bc aab5 f1bb 8391 373c 0aa4 a4bc
00000110: a73a 9cbb be39 04bb c7dd 3b3a 362c 36bc
00000120: ad45 c4bb 375c 593c b7e5 a33c ba90 66bc
00000130: d65d dc3b 55a0 8abb b06f 2ebc 8bca eebc
00000140: 8272 97bc 1b11 55bb a6aa b13c 54c2 113c
00000150: 51bc 1c3c 5bee 1a3c 9bbc 893c 0078 01bc
00000160: 7a74 17bb 8437 46bc 86e5 3a3c ce33 f43c
00000170: aad3 2fbb 65a9 d3bc 6048 103c 0046 2fbc
00000180: 43bc 8e3b d7e1 47bc f4d1 93bc 7c2f cd3c
00000190: 5ce4 48bc df7c 16bd a537 1d3c a3bd 5f3c
000001a0: ab94 e2bc 0066 8a3c 32ff fabb d40c bbbc
000001b0: 0761 413b b2c5 d9bb 0fcf 1f3d 7cae ac3b
000001c0: 4c17 b53c 37e8 06bb 518e f93b 23e2 8e3c
000001d0: 3475 1dbd 02a2 5eba d332 65bc e828 243b
000001e0: 8104 42bc d7ea 343c 4330 8fbc 5e58 193c
000001f0: fc33 b3ba 77d1 8fbc 022b d6ba 008d 013c
00000200: eab3 41bc be31 b6bc 6042 91bc a479 19bc
00000210: 3e34 c1bb b86a b03b 1943 333c 3f40 f2ba
00000220: 5f86 8abb dfc8 a8bc 8e65 363b ef3a 9c3c
00000230: 27c3 b9bb e0d4 f03b 643b 31bb 9c02 433b
00000240: ab82 163c 34b3 a13b 9ea2 923c 669d 783b
00000250: 6f91 7abc 1dfb 19bc 944a a7bc b530 02bd
00000260: d57e caba 51fb f438 21f1 de3c f6c3 babc
00000270: 3960 bf3a 6eee 123b c837 903c d09c 95bc
00000280: 981f 98bc 25d4 4dbc aaf5 23bb aced 2f3b
00000290: 14f9 d33b d0a2 223b 78f5 3e3c 2888 2c3c
000002a0: d383 5c3c afce e9bb 177e 5ebc 46fe 6ebc
000002b0: 3301 b83c 38e3 083a e1e7 b0bb 41e6 15bc
000002c0: 2c21 cabc 23db fc3c 5729 f33b 51f5 42bc
000002d0: 8ec6 fcbb a6e0 5d3c 9b3c b2bc eb48 b2bb
000002e0: d8dd ef3b 5ee5 a5bc 1bfb 5cbb 0611 a6bc
000002f0: 707c 333b d9fc 8abc 5da8 75bb 0096 8dbc
00000300: c8eb ef3b ba6f ce3c d964 84bc 1558 963c
00000310: 10a1 1a3c 675b a5bb 17cb ba3b 7c90 95bc
00000320: 8f44 363b 8a46 5bbc 6e0d 85bc 241e 8cba
00000330: caa9 80bc aee4 673c 111b efbb 4b93 423b
00000340: 9496 08ba 6332 06bd 9695 0cbc 4513 29bb
00000350: fc2b 853c c116 35bc c5a7 dc3b 4b55 a0bc
00000360: bf22 4fbc 6076 153c 6370 8f3c d9d2 c53c
00000370: 64ba c93b 6c00 753c f6ba 57ba fcc2 15bc
00000380: e336 45bc ba44 1bbc 6cb5 99bc 9a65 3a3b
00000390: de37 643c 9dab 593b 0a21 873c 7c6b 983a
000003a0: 4b8f 49bb 6708 26bc c107 bd3a 4e1a 81bc
000003b0: 2388 d93c 6ea3 6d3a f81d a9bc a64f 0dbc
000003c0: caf7 f2ba e843 f63b a89c d4bc 054c 93bc
000003d0: 245e 35bc 5e55 883b 0950 8bbc b897 c5bb
000003e0: 8759 41bc c7a7 80b9 0736 313c a322 0c3c
000003f0: 1f88 8d3b c902 413c 6c0e ab3c 565a 903c

network_body.linear_encoder.seq_layers.0.bias f4 [256]
0.017475557 0.0097366925 0.013138556 -0.0055230604 0.01152224 0.005089964 0.03350442 0.0034898515
-0.003012545 -0.018312903 0.020397047 -0.00053211575 -0.016908392 -0.012571452 -0.010650134 0.0063666427
0.011625269 -0.030792529 0.027921312 0.0053964667 0.027716668 -0.032222945 0.026753407 -0.021732215
-0.03178855 0.02385776 0.012120914 -0.015870187 -0.015152291 -0.003034764 0.015928855 -0.02739735
-0.004871107 -0.014981351 -0.010864236 0.015235334 -0.031401563 -0.002671766 -0.01603693 -0.019770334
-0.02643855 0.008134889 -0.014765038 0.009114083 -0.012299088 0.009886686 -0.00032598042 0.04234467
0.015929747 0.025490537 0.027784007 -0.0008469878 0.008169416 0.03316645 0.030868594 0.023364084
0.018435214 -0.033780538 0.03034843 -0.0040008537 0.011848427 -0.0035795588 -0.009446417 -0.010305814
-0.02392334 -0.014950925 0.0008132063 -0.0217203 -0.032339312 -0.02837948 -0.0065459954 -0.024433544
-0.022821791 0.0025771838 -0.016109975 0.032810476 -0.006021274 0.00088948547 0.017721266 0.033465758
0.027099459 -0.01650871 0.0008874406 -0.004406609 0.023354733 0.012083196 0.0043532667 0.050188746
-0.0055015394 -0.0022651453 0.0025617771 0.022129232 0.0020978237 0.0111892475 0.005335314 0.020759363
0.005902666 -0.011681103 0.030429326 -0.005171003 -0.001341813 -0.0033306929 0.01812147 -0.018330457
0.004585176 0.022394875 0.0015993433 0.0030632948 0.016781665 -0.011569877 0.007033611 -0.027174221
0.014302868 0.030898852 -0.010490992 0.002286776 0.010154751 0.005121821 -0.0230671 0.018436322
0.021373061 -0.0033646226 -0.022856163 -0.0012880441 -0.021188922 0.029705139 0.029514387 -0.015968753
0.016397858 0.024900097 0.0114758145 0.023047393 0.015928268 -0.024356782 0.023226824 -0.014772979
-0.024710514 0.014874027 -0.013193359 -0.0216459 0.011613295 -0.0032216876 0.004247499 0.0073319473
0.0020669622 0.014388127 0.011154547 0.02465772 -0.028214606 -0.022292016 -0.006822986 -0.024261393
0.0021311892 -0.007937584 -0.019930659 0.024880217 0.0040555885 -0.008766017 -0.015302458 0.028199516
-0.019351663 0.0227899 -0.0036706743 0.028649919 0.014692177 0.010518458 -0.010085915 -0.007257704
0.019293195 0.011350146 -0.01868374 0.027537927 0.032909755 0.0013098025 0.026999153 -0.013602038
0.01376025 -0.008265893 -0.030002138 -0.030672574 0.007453097 -0.015263793 0.024700904 0.031780668
0.03192281 0.014435563 0.01445664 -0.026276195 0.03517388 -0.014148747 0.011357698 0.018020835
-0.013677535 -0.0042753755 -0.008734377 -0.014736648 0.018634943 0.015328124 -0.018842548 -0.020655043
0.01651831 -0.014230101 0.01300706 0.017262217 0.025636116 0.031731453 -0.0016588075 0.032669954
0.004353738 0.0016341688 0.010974824 -0.0016999322 -0.011961484 0.00038813154 0.014394168 -0.010789106
-0.0026618321 -0.025638876 0.0125522595 -0.02974829 -0.0070141205 -0.021960434 -0.016146466 0.016752131
-0.016832955 0.014592778 0.003050597 0.018589588 -0.011076872 0.03335225 0.0039204597 -0.010910213
0.04350621 -0.0052528265 0.004915192 -0.020182343 0.022738568 0.0045302953 -0.007862922 -0.004905329
-0.009220356 -0.014890121 0.017959448 0.0053963256 -0.005578236 -0.00044217665 -0.011219445 0.022926273
0.019140374 0.03167137 0.014193168 -0.016602764 0.004159441 0.031193117 0.008263415 0.021960746
00000000: e628 8f3c a686 1f3c 1943 573c cafa b4bb
00000010: c7c7 3c3c b6c9 a63b ee3b 093d feb5 643b
00000020: 1e6e 45bb f104 96bc b517 a73c af7d 0bba
00000030: 7883 8abc 7ef8 4dbc e67d 2ebc 459f d03b
00000040: ea77 3e3c 9d40 fcbc 3cbb e43c d8d4 b03b
00000050: 110e e33c 35fc 03bd f629 db3c c207 b2bc
00000060: b634 02bd 5971 c33c cc96 463c 3202 82bc
00000070: 5141 78bc e4e2 46bb 3b7d 823c 6870 e0bc
00000080: cf9d 9fbb 5774 75bc e9ff 31bc 9f9d 793c
00000090: ed9e 00bd cc18 2fbb e15f 83bc 65f5 a1bc
000000a0: a895 d8bc 3348 053c 0fe9 71bc 3c53 153c
000000b0: 1d82 49bc c4fb 213c 5ae8 aab9 9b71 2d3d
000000c0: 1a7f 823c 88d1 d03c 499b e33c 6408 5eba
000000d0: 04d9 053c 8bd9 073d 22e0 fc3c 0966 bf3c
000000e0: 7205 973c 765d 0abd 459d f83c 9819 83bb
000000f0: e81f 423c 0897 6abb 25c5 1abc b8d9 28bc
00000100: e1fa c3bc b9f4 74bc 5a2d 553a c5ee b1bc
00000110: 3a76 04bd 157c e8bc ca7f d6bb db28 c8bc
00000120: c4f4 babc f8e5 283b 11f9 83bc 4764 063d
00000130: 1b4e c5bb 5c2c 693a 302c 913c 6413 093d
00000140: afff dd3c 463d 87bc 21a3 683a 5165 90bb
00000150: 6d52 bf3c 99f8 453c d9a5 8e3b b792 4d3d
00000160: 4246 b4bb d572 14bb 7de3 273b 5d48 b53c
00000170: a47b 093b 1b53 373c dcd3 ae3b 8a0f aa3c
00000180: 276b c13b 1962 3fbc ec46 f93c 8471 a9bb
00000190: c6df afba c147 5abb 7a73 943c c129 96bc
000001a0: 3e3f 963b 7575 b73c 0ea1 d13a 8fc1 483b
000001b0: b479 893c 958f 3dbc 357a e63b 799c debc
000001c0: 9456 6a3c 971f fd3c 69e2 2bbc bcdd 153b
000001d0: 1d60 263c f3d4 a73b 37f7 bcbc c507 973c
000001e0: 8f16 af3c 0081 5cbb d93c bbbc 97d3 a8ba
000001f0: 6494 adbc 3158 f33c 28c8 f13c e7d0 82bc
00000200: cd54 863c 4afb cb3c 0e05 3c3c e3cd bc3c
00000210: 007c 823c e087 c7bc 2e46 be3c 5d0a 72bc
00000220: b46d cabc 31b2 733c f528 58bc be52 b1bc
00000230: b145 3e3c f322 53bb 9b2e 8b3b d540 f03b
00000240: df75 073b 2ebc 6b3c 90c1 363c fdfe c93c
00000250: 5122 e7bc bf9d b6bc 5b93 dfbb d4bf c6bc
00000260: 6cab 0b3b a40c 02bc 9f45 a3bc 99d1 cb3c
00000270: bee4 843b 579f 0fbc 29b7 7abc ac02 e73c
00000280: 6187 9ebc e2b1 ba3c b28f 70bb 3cb3 ea3c
00000290: 75b7 703c 9c55 2c3c 653f 25bc 09d2 edbb
000002a0: c30c 9e3c f6f5 393c a50e 99bc 3897 e13c
000002b0: 61cc 063d aead ab3a 542d dd3c 15db 5ebc
000002c0: ac72 613c ab6d 07bc 0bc7 f5bc 0d45 fbbc
000002d0: 1c39 f43b fd14 7abc 8d59 ca3c 722c 023d
000002e0: 7ec1 023d 2483 6c3c 8bdb 6c3c 2d41 d7bc
000002f0: 7d12 103d 25d0 67bc a315 3a3c 6ea0 933c
00000300: bd17 60bc 7318 8cbb a21a 0fbc fb71 71bc
00000310: 4fa8 983c d022 7b3c b05b 9abc c434 a9bc
00000320: 6851 873c 5f25 69bc 901b 553c 7e69 8d3c
00000330: d502 d23c d7f8 013d 586c d9ba eed0 053d
00000340: cda9 8e3b 9b31 d63a c0cf 333c 42d0 deba
00000350: 1afa 43bc 227e cb39 84d5 6b3c cac4 30bc
00000360: 2272 2ebb 9f08 d2bc fea7 4d3c b0b2 f3bc
00000370: b5d6 e5bb 5ee6 b3bc 9845 84bc c43b 893c
00000380: 44e5 89bc 8c16 6f3c 86ec 473b 3149 983c
00000390: c57b 35bc 5e9c 083d 3377 803b c0c0 32bc
000003a0: 9133 323d e71f acbb 9e0f a13b 7155 a5bc
000003b0: 3c46 ba3c df72 943b 7cd3 00bc e2bc a0bb
000003c0: fa10 17bc b2f5 73bc b11f 933c a9d3 b03b
000003d0: a3c9 b6bb f2d3 e7b9 c3d1 37bc e1cf bb3c
000003e0: 46cc 9c3c d7b9 013d 768a 683c 8502 88bc
000003f0: ec4b 883b b588 ff3c 4663 073c 06e7 b33c

network_body.linear_encoder.seq_layers.0.weight f4 [256, 69]
0.117019646 0.020581016 0.0055572684 -0.092641085 -0.010144746 0.17219175 0.16436489 -0.0037794062
-0.0030176165 -0.14497201 0.018966572 -0.020431604 -0.011781024 0.30588585 -0.048640825 -0.10273646
0.09207147 -0.21976793 0.17826556 0.20262954 0.1946053 0.39374107 0.15716396 0.117604196
0.062516324 -0.09612396 0.2480639 0.24412577 -0.14305744 -0.04635654 -0.12601365 -0.05658201
0.0800091 0.11020249 -0.037057023 -0.093658015 -0.117265515 -0.20589064 0.09742726 -0.13095987
-0.0540507 0.048823904 -0.14115793 0.054911092 -0.21645911 0.12074555 -0.037303824 0.05448241
-0.0054546827 0.12110021 0.008646142 0.11286825 0.041390806 -0.26366866 0.15290038 0.1022362
0.32048118 -0.1445202 0.05996152 -0.085322484 0.09770021 0.041488178 0.070644416 -0.10805429
-0.08282367 -0.0627665 -0.06539981 0.037046775 -0.07811617 -0.035253394 -0.11345119 0.13221358
0.06249388 0.10238567 -0.1301498 -0.06500609 -0.05436393 -0.009699313 -0.09294563 -0.04161068
0.13041334 -0.020523483 0.13025555 0.26179275 -0.068466276 -0.009648835 0.2416874 0.18557888
-0.022207946 0.011845806 -0.008263712 0.10415022 0.09860297 -0.0904646 0.14699012 -0.023130167
0.063655555 -0.0020395657 0.024448449 0.06507681 0.22531436 0.13889204 0.055744205 -0.15796044
-0.021510782 0.06625358 -0.22218175 0.2955124 -0.015165041 0.13356866 0.22240648 -0.015578186
-0.017868275 0.011450539 -0.16779505 0.011607294 0.102539405 -0.1349041 0.010238983 0.2534827
-0.09650391 -0.30749342 0.14878298 0.21575221 -0.09539872 0.17706525 -0.13882977 0.082004
-0.083327636 0.07552301 -0.19472483 0.1880558 0.09050849 0.42547622 0.0074636694 0.19576792
-0.087311596 0.02607461 -0.1506678 -0.058228195 0.11275565 0.0624829 -0.054173835 -0.031041982
-0.047710143 -0.22516648 -0.2761314 -0.1907087 0.0040221903 0.009548112 -0.02473101 -0.06423718
0.0062929112 0.13781571 -0.063472115 -0.020494249 0.049546972 -0.15783776 0.11662895 -0.021453992
-0.118542284 0.11739867 -0.04964881 0.039820004 -0.18281792 0.09476792 0.036201783 -0.054331318
0.042418703 -0.041516334 -0.07066742 0.06392801 -0.027122624 0.027348801 0.10423075 0.058632307
0.1543693 0.061581105 0.07757583 0.034589153 -0.040786825 -0.12557569 0.18121392 -0.08375394
0.007312717 -0.14931509 -0.0814379 0.22589752 0.32546547 -0.06449931 -0.10238157 -0.11028928
-0.23603803 -0.31156728 0.09947696 0.14494467 -0.04853944 0.29071346 -0.0003864209 0.12757143
0.01212688 0.20902 -0.18438846 0.16997837 -0.1142923 -0.04363946 0.16254744 0.22596464
0.015214938 0.21393827 -0.024193475 0.12268591 -0.036560066 -0.027394477 0.16554295 0.1765954
0.078697555 -0.063428305 0.12816408 0.042407744 -0.10614212 0.109271795 -0.14273377 0.06814099
-0.09210897 0.19833694 -0.091550335 0.02770734 -0.00078220246 0.17182277 0.009947706 0.03921958
-0.013675785 0.043540563 -0.06342338 -0.09191907 0.18340053 0.07102285 -0.18554991 0.03983755
0.21250194 -0.06978588 0.024573823 -0.11477189 -0.060604695 -0.08938484 -0.12940167 -0.1100497
-0.06946617 0.19090773 -0.14028928 -0.15997212 -0.051446404 -0.18095686 0.019330539 -0.012477442
00000000: ffa7 ef3d 8599 a83c bf19 b63b 9cba bdbd
00000010: 2636 26bc 0953 303e 454f 283e eaaf 77bb
00000020: 34c3 45bb 8b73 14be c95f 9b3c 2e60 a7bc
00000030: 3205 41bc 129d 9c3e 9a3b 47bd 7e67 d2bd
00000040: f88f bc3d d80a 61be 3f8b 363e 1e7e 4f3e
00000050: 9d46 473e 6e98 c93e 97ef 203e 78da f03d
00000060: 8f08 803d a4dc c4bd 7704 7e3e 1bfc 793e
00000070: a67d 12be 5be0 3dbd b909 01be 8ac2 67bd
00000080: d0db a33d d8b1 e13d 1bc9 17bd c6cf bfbd
00000090: e728 f0bd ffd4 52be f187 c73d 581a 06be
000000a0: 4464 5dbd 93fb 473d b48b 10be 74ea 603d
000000b0: 75a7 5dbe 7149 f73d e5cb 18bd f328 5f3d
000000c0: 32bd b2bb 6303 f83d 8ca8 0d3c 7827 e73d
000000d0: 6889 293d 94ff 86be eb91 1c3e 3661 d13d
000000e0: 1c16 a43e 1afd 13be 369a 753d 8ebd aebd
000000f0: 0c17 c83d 82ef 293d 05ae 903d 914b ddbd
00000100: 759f a9bd b98b 80bd 56f0 85bd 5cbe 173d
00000110: 5ffb 9fbd dd65 10bd 1959 e8bd ff62 073e
00000120: 95f9 7f3d 94af d13d fd45 05be ea21 85bd
00000130: b6ac 5ebd dee9 1ebc 475a bebd f66f 2abd
00000140: 138b 053e dd20 a8bc b661 053e b309 863e
00000150: 0c38 8cbd 2616 1ebc e77c 773e 6408 3e3e
00000160: 70ed b5bc e914 423c 8564 07bc b64c d53d
00000170: 5bf0 c93d 8145 b9bd 9484 163e 7a7b bdbc
00000180: d85d 823d 3caa 05bb 1d48 c83c fe46 853d
00000190: cfb8 663e b739 0e3e 0954 643d 62c0 21be
000001a0: 6137 b0bc f5af 873d 9d83 63be 674d 973e
000001b0: cb76 78bc 39c6 083e 86be 633e a63b 7fbc
000001c0: 7d60 92bc 0b9b 3b3c 77d2 2bbe 852c 3e3c
000001d0: 2e00 d23d 4d24 0abe 68c1 273c 7cc8 813e
000001e0: d8a3 c5bd c76f 9dbe 915a 183e 26ee 5c3e
000001f0: 6760 c3bd 9850 353e 6429 0ebe b7f1 a73d
00000200: aea7 aabd cfab 9a3d f265 47be b391 403e
00000210: 845c b93d 05d8 d93e cc91 f43b 6377 483e
00000220: 6cd0 b2bd 6c9a d53c a948 1abe b080 6ebd
00000230: 6fec e63d 12ee 7f3d 62e5 5dbd c14b febc
00000240: b66b 43bd 0b92 66be 1861 8dbe 2449 43be
00000250: 94cc 833b af6f 1c3c b098 cabc c88e 83bd
00000260: c434 ce3b 901f 0d3e abfd 81bd 8ee3 a7bc
00000270: c4f1 4a3d 39a0 21be 29db ee3d 48c0 afbc
00000280: 4cc6 f2bd b76e f03d 8d5c 4bbd 4d1a 233d
00000290: 9f34 3bbe af15 c23d 5248 143d 848a 5ebd
000002a0: 3cbf 2d3d 080d 2abd 15ba 90bd b0ec 823d
000002b0: 4430 debc 980a e03c ee76 d53d 6e28 703d
000002c0: fc12 1e3e 783c 7c3d 14e0 9e3d 5bad 0d3d
000002d0: 1610 27bd ea96 00be 2490 393e 3087 abbd
000002e0: 849f ef3b 0ee6 18be eac8 a6bd ae51 673e
000002f0: 69a3 a63e 3718 84bd 6ead d1bd 59df e1bd
00000300: f4b3 71be bf85 9fbe 94ba cb3d 606c 143e
00000310: 4bd1 46bd 65d8 943e 8998 cab9 16a2 023e
00000320: d2af 463c 5709 563e 54d0 3cbe cf0e 2e3e
00000330: 1512 eabd 4abf 32bd d672 263e 4663 673e
00000340: 1348 793c a212 5b3e 6531 c6bc c042 fb3d
00000350: 02c0 15bd 626a e0bc 1784 293e 6dd5 343e
00000360: 2f2c a13d b3e6 81bd 723d 033e beb3 2d3d
00000370: 0a61 d9bd e4c9 df3d cd28 12be 818d 8b3d
00000380: a1a3 bcbd d718 4b3e be7e bbbd 81fa e23c
00000390: b80c 4dba 4ff2 2f3e b4fb 223c b6a4 203d
000003a0: 6610 60bc 9757 323d 1ee4 81bd 1140 bcbd
000003b0: 59cd 3b3e 6e74 913d cc00 3ebe b32c 233d
000003c0: 1c9a 593e e6eb 8ebd 0b4f c93c 860d ebbd
000003d0: a13c 78bd 660f b7bd df81 04be bd61 e1bd
000003e0: 4844 8ebd 517d 433e fea7 0fbe bbcf 23be
000003f0: 77b9 52bd c14c 39be 145b 9e3c 2f6e 4cbc
