MLagents/results/hb_02/Mario.onnx (onnx, 352528 bytes, 16 tensors)

122 f4 [69]
0.21320072 0.21320072 0.29806513 0.29806513 0.35790944 0.21320072 0.21320072 0.21320072
0.35790944 0.21320072 0.21320072 0.21320072 0.35790944 0.21320072 0.21320072 0.21320072
0.35790944 0.21320072 0.21320072 0.21320072 0.35790944 0.21320072 0.21320072 0.21320072
0.35790944 0.21320072 0.21320072 0.21320072 0.35790944 0.21320072 0.21320072 0.21320072
0.35790944 0.21320072 0.21320072 0.21320072 0.40400884 0.21320072 0.21320072 0.21320072
0.35790944 0.21320072 0.21320072 0.21320072 0.2980654 0.21320072 0.21320072 0.21320072
0.35790944 0.21320072 0.21320072 0.21320072 0.47018546 0.21320072 0.21320072 0.21320072
0.35790944 0.21320072 0.21320072 0.21320072 0.29806513 0.21320072 0.21320072 0.37533218
0.73065764 0.21320072 0.29806125 0.21327937 0.21320072
00000000: 4a51 5a3e 4a51 5a3e fe9b 983e fe9b 983e
00000010: e83f b73e 4a51 5a3e 4a51 5a3e 4a51 5a3e
00000020: e83f b73e 4a51 5a3e 4a51 5a3e 4a51 5a3e
00000030: e83f b73e 4a51 5a3e 4a51 5a3e 4a51 5a3e
00000040: e83f b73e 4a51 5a3e 4a51 5a3e 4a51 5a3e
00000050: e83f b73e 4a51 5a3e 4a51 5a3e 4a51 5a3e
00000060: e83f b73e 4a51 5a3e 4a51 5a3e 4a51 5a3e
00000070: e83f b73e 4a51 5a3e 4a51 5a3e 4a51 5a3e
00000080: e83f b73e 4a51 5a3e 4a51 5a3e 4a51 5a3e
00000090: 3fda ce3e 4a51 5a3e 4a51 5a3e 4a51 5a3e
000000a0: e83f b73e 4a51 5a3e 4a51 5a3e 4a51 5a3e
000000b0: 079c 983e 4a51 5a3e 4a51 5a3e 4a51 5a3e
000000c0: e83f b73e 4a51 5a3e 4a51 5a3e 4a51 5a3e
000000d0: 26bc f03e 4a51 5a3e 4a51 5a3e 4a51 5a3e
000000e0: e83f b73e 4a51 5a3e 4a51 5a3e 4a51 5a3e
000000f0: fe9b 983e 4a51 5a3e 4a51 5a3e 8a2b c03e
00000100: 610c 3b3f 4a51 5a3e 7c9b 983e e865 5a3e
00000110: 4a51 5a3e

action_model._discrete_distribution.branches.0.bias f4 [3]
0.0 0.0 0.0
00000000: 0000 0000 0000 0000 0000 0000

action_model._discrete_distribution.branches.0.weight f4 [3, 256]
0.0026583986 0.010711898 -0.005512163 0.009972523 0.0017435591 0.007873305 0.0074681165 -0.0049948646
-0.009298918 0.00088680594 0.0073832027 0.0030573318 0.013458321 -0.0004164286 0.0036794692 -0.0055130473
-0.0041195517 0.00980701 0.00060951133 -0.0017326133 0.0012081946 -0.010461162 -0.014301729 0.011734141
0.013433899 0.013112581 0.001200641 0.0052080965 0.0013238938 0.0077460045 -0.00063848 -0.003361667
-0.007514143 0.0056306967 -0.00040925673 0.0026638748 -0.000113567876 0.004786441 -0.0052835997 0.0023646178
-0.00036573585 0.010379928 -0.004000836 0.0009795486 -0.010968585 -0.009237069 0.008453487 -0.0001191536
-0.00674767 -0.0012285936 0.00656002 0.002151757 7.811811e-05 0.0046783304 -0.011004024 0.004888125
0.0074673793 0.007932805 0.00068470906 -0.0008201664 0.01123178 -0.003983077 -0.0024700386 -0.0043524336
-0.009117733 -0.0010344093 -0.007864199 0.013189635 0.009707375 -0.010860448 0.0108496 -0.0033264004
0.0028203463 -0.0041046687 0.008260327 -0.0015599212 0.0032937774 -0.0026016226 -0.009978424 -0.0035830878
-0.0017673158 0.0066351593 0.001795896 0.0017027565 0.0025562607 -0.007822056 -0.0027515718 0.0057396647
-0.002274975 -0.00068697723 -0.0029695195 0.0020273672 -6.325735e-05 0.010004339 -0.0055589257 -0.0006428131
0.00014553305 0.0019380039 0.002779701 0.0077191717 0.0014196743 4.6261655e-05 2.303277e-05 -0.0043985737
0.0035473525 0.0021437195 -0.002473369 -0.014771846 -0.004249644 0.0024977787 0.0098499255 0.004292403
0.010061061 0.0010487332 0.002139424 -0.0038093 0.0053802426 -0.0018821268 -0.009391773 0.013790177
-0.0008614151 -0.003523536 -0.004577151 -0.002494316 6.802594e-05 -0.0025682272 0.0063453647 0.0015606778
0.008998218 -0.002395132 0.003091872 -0.00742126 -0.0017916973 -0.0022107295 0.0022434238 0.0027240808
-0.017621089 0.0047144177 0.006797874 0.0074430476 -0.0002396704 -0.0006051712 -0.000985596 0.0028774743
0.007369064 -0.0074143955 -0.0010364557 -0.002196205 -0.003791439 -0.0057294834 0.015099972 -0.0041907337
0.005414588 0.0031900038 -0.0030512128 0.003996325 -0.006767881 -0.0059314272 0.0020028837 -0.004588572
-0.0027095661 -0.003504337 0.007578876 -0.011041382 -0.005373345 -0.005271442 -0.0028578204 0.0023771778
0.0010970116 0.00630768 0.0007148304 0.0036878125 -0.0053562988 0.0068921866 -0.0010335314 -0.004214604
-0.010999643 -0.010932978 -0.0009959025 0.007448026 0.0026417833 -0.0013359368 -0.00796958 0.0045756935
-0.0024747665 0.011058595 0.0059264745 -0.002314533 -0.007220734 0.0011912066 -0.008943972 0.01088016
0.0070231967 -0.009843654 -0.0021152382 -0.0090436395 -0.00072029926 -0.006977054 0.0016610603 0.0029248686
0.002789791 -0.00975287 -0.0066936575 0.002372692 -0.000769878 -0.009068205 0.012451687 0.0020307426
-0.005655166 0.0016119462 0.008955504 -0.002878431 0.005032742 -0.000333135 0.0011434768 -0.010222858
-0.0017071281 -0.00083623733 -0.007205156 0.0037034687 -0.0020914678 -0.000569948 0.00015486013 -4.482592e-05
-0.0012290251 0.0013732988 -0.004705767 1.2258449e-05 0.007979426 -0.0147183435 0.001115361 0.0012025016
0.001376813 0.0038716146 0.0034810107 0.01678705 0.00092335924 -0.0035989955 0.006170412 -0.0031308178
0.0036175852 -0.0137505485 0.010874938 0.012543807 0.00050747494 -0.002902764 -0.0077566295 0.002447156
-0.0063694194 0.0022769247 0.0023766903 0.0020586452 0.00840321 0.00092003634 0.00055885466 0.0054014586
00000000: 8738 2e3b f580 2f3c 609f b4bb cb63 233c
00000010: 2388 e43a 09ff 003c 1ab7 f43b f6ab a3bb
00000020: 7d5a 18bc 8a78 683a cbee f13b 845d 483b
00000030: 4a80 5c3c 1a54 dab9 4023 713b cba6 b4bb
00000040: 4efd 86bb 95ad 203c 9dc7 1f3a db18 e3ba
00000050: 495c 9e3a 4b65 2bbc cd51 6abc 8e40 403c
00000060: db19 5c3c 27d6 563c d45e 9d3a aea8 aa3b
00000070: 8186 ad3a 32d2 fd3b ab5f 27ba 6a4f 5cbb
00000080: 3339 f6bb b581 b83b 8291 d6b9 6794 2e3b
00000090: 4a2b eeb8 94d7 9c3b 0c22 adbb b4f7 1a3b
000000a0: 3cc0 bfb9 9310 2a3c 7219 83bb 3264 803a
000000b0: 94b5 33bc 1357 17bc 7f80 0a3c 1ae2 f9b8
000000c0: 8f1b ddbb c308 a1ba 70f5 d63b 7e04 0d3b
000000d0: 57d3 a338 ae4c 993b 394a 34bc 912c a03b
000000e0: ebb0 f43b 99f8 013c 0c7e 333a 6f00 57ba
000000f0: 8005 383c 7984 82bb 5fe0 21bb dc9e 8ebb
00000100: 8b62 15bc 0495 87ba d7d8 00bc 5719 583c
00000110: af0b 1f3c 05f0 31bc 85c2 313c bdff 59bb
00000120: 8fd5 383b 7580 86bb 5356 073c 4576 ccba
00000130: 6adc 573b fc7f 2abb 8b7c 23bc 3dd2 6abb
00000140: 47a5 e7ba c06b d93b 4564 eb3a 072f df3a
00000150: f086 273b 1528 00bc b753 34bb cc13 bc3b
00000160: bf17 15bb 4316 34ba 459c 42bb 94dd 043b
00000170: 08a9 84b8 3de9 233c a627 b6bb 7582 28ba
00000180: 3b9a 1839 9f04 fe3a a52b 363b 1bf1 fc3b
00000190: 5d14 ba3a 1309 4238 7f36 c137 e921 90bb
000001a0: b37a 683b a57d 0c3b 3f18 22bb 9d05 72bc
000001b0: 9940 8bbb c6b1 233b 9561 213c 49a7 8c3b
000001c0: 26d7 243c a675 893a 9435 0c3b 73a5 79bb
000001d0: bf4c b03b b2b1 f6ba f3df 19bc 32f0 613c
000001e0: 97d0 61ba 20eb 66bb edfb 95bb ae77 23bb
000001f0: 26a9 8e38 b44f 28bb c7ec cf3b a88f cc3a
00000200: 436d 133c a6f7 1cbb 01a1 4a3b 0a2e f3bb
00000210: 63d7 eaba e3e1 10bb 6806 133b 7e86 323b
00000220: 1a5a 90bc 677b 9a3b b3c0 de3b cfe4 f33b
00000230: 0850 7bb9 5aa4 1eba 1d2f 81ba 0294 3c3b
00000240: 3078 f13b 75f4 f2bb afd9 87ba 35ee 0fbb
00000250: cb79 78bb 64be bbbb df65 773c 6c52 89bb
00000260: db6c b13b 620f 513b dbf6 47bb 9bf3 823b
00000270: 1ac5 ddbb 6b5c c2bb d042 033b bb5b 96bb
00000280: fa92 31bb 05a9 65bb 3858 f83b eae6 34bc
00000290: e312 b0bb 0fbc acbb 454a 3bbb 6dca 1b3b
000002a0: 9ac9 8f3a a8b0 ce3b 7563 3b3a 3aaf 713b
000002b0: e483 afbb dad7 e13b 8f77 87ba a91a 8abb
000002c0: d937 34bc 3c20 33bc f188 82ba 920e f43b
000002d0: c521 2d3b 9a1a afba d792 02bc b3ef 953b
000002e0: b12f 22bb 1c2f 353c df32 c23b 6caf 17bb
000002f0: e89b ecbb 4322 9c3a bd89 12bc b342 323c
00000300: d822 e63b 4747 21bc cf9f 0abb c62b 14bc
00000310: 77d2 3cba c59f e4bb efb7 d93a 27af 3f3b
00000320: edd4 363b 80ca 1fbc 7856 dbbb 2b7f 1b3b
00000330: a3d1 49ba cf92 14bc 2902 4c3c 3516 053b
00000340: f94e b9bb f047 d33a 1bba 123c 0fa4 3cbb
00000350: b3e9 a43b 9fa8 aeb9 b7e0 953a c67d 27bc
00000360: b7c1 dfba f036 5bba 3b19 ecbb e5b5 723b
00000370: 0211 09bb 9068 15ba f361 2239 7703 3cb8
00000380: 3d17 a1ba 4300 b43a d632 9abb a3a9 4d37
00000390: 23bc 023c 3525 71bc 4e31 923a 429d 9d3a
000003a0: 2e76 b43a eaba 7d3b ab21 643b ff84 893c
000003b0: 970d 723a 20dd 6bbb 2b31 ca3b 682e 4dbb
000003c0: 0215 6d3b fb49 61bc cc2c 323c 8a84 4d3c
000003d0: 1108 053a 4c3c 3ebb 532b febb 7760 203b
000003e0: 90b6 d0bb 7538 153b 3fc2 1b3b 56ea 063b
000003f0: 9ead 093c 982e 713a 1a80 123a b8fe b03b

action_model._discrete_distribution.branches.1.bias f4 [2]
0.0 0.0
00000000: 0000 0000 0000 0000

action_model._discrete_distribution.branches.1.weight f4 [2, 256]
0.0032539726 -0.00041944193 -0.0018045678 -0.0042625624 -0.0015777949 0.004941333 0.003033523 -0.007819239
-0.002969169 0.002577138 0.017258221 -0.007527855 0.008867228 0.0087060165 0.0037398932 0.0005269838
-0.0027230938 -0.0014711573 -0.0024480089 -0.0066776327 0.0029872267 -6.976912e-05 -0.0057297256 0.0057652467
-0.0005679891 0.009862784 -0.0034239613 0.00071427034 0.0017166212 -0.008960908 -0.008334428 0.006329777
-0.0045302594 0.0064645666 -0.008175849 -0.009780559 0.0026963297 0.007715644 0.0080176825 0.0046661324
0.0073191077 -0.012131578 -0.008134899 -0.0056682467 -0.00040525114 0.00793522 0.0005540147 0.003077352
-0.0051715723 -0.0066047865 0.0036480152 -0.0045907306 -0.005116697 0.008897617 0.0023312082 0.0040768143
0.0010578114 -0.0024888816 0.008353591 -0.010944345 0.0046393294 -0.004736684 0.0073094494 -0.00075131166
0.011386153 0.008715144 0.002666437 -0.00072212255 -0.0012507037 -0.0017134835 0.00075125013 -0.004165436
-0.00462863 -0.0014699422 -0.00026834576 -0.0079980185 0.0122353975 -0.00087639655 0.010207064 0.001096217
-0.0061694765 0.0051561217 -0.002802311 -0.0076487535 0.0034592766 -0.0057979873 0.005926463 -0.010724962
-0.0012763406 -0.002053601 -0.003272526 -0.009128862 -0.0033025015 -0.009726868 0.015547532 0.0066872085
-0.0013115106 -0.0012595115 -0.00044157854 -0.003997445 0.0012594459 -0.00797776 -0.008571405 0.008917387
0.0043229805 0.0003689008 -0.00022056604 0.0006379905 0.0037502123 0.004691708 0.004042445 -0.00369033
0.003889927 -0.0032660756 -0.0055706673 0.008650436 -0.013968266 0.001900279 -0.002172584 0.002987669
0.0066795014 0.003095283 -0.001504945 0.007975127 0.0015191146 -0.0015022455 -0.0038425603 -0.0026020927
0.012094962 0.008682396 -0.0102689685 -0.00081905414 0.0018053467 0.007674022 -0.0056233164 0.0029600344
-0.012079438 -0.00079284067 0.0061713816 -0.0010317112 0.0032976014 -0.00223016 -0.011919273 -0.0062256036
-0.0010471741 -0.008986844 0.002741638 -0.010050089 -0.006483233 -0.0124845505 0.0008680631 0.0043018553
-0.0030370827 -0.0016437285 0.0014823864 0.00969761 -0.0040410254 -0.009395646 -0.011998824 -0.0076723183
0.006864676 -0.0037058778 -0.0028980542 -0.011823454 0.0006076666 0.0045939297 0.0023056509 -0.009150129
-0.003012349 -0.0032114682 0.009662732 0.005512064 0.0020683466 0.013989759 -0.0074349097 -0.0029305331
-0.0051117493 0.006003093 0.0061832666 -0.0030398576 0.00051707006 0.008668713 0.0040554865 -0.002188374
-0.008943 0.01129759 0.0005682144 -0.005970487 0.002684972 0.0038742383 0.0057752207 -0.0019520664
-0.0070681996 -0.0018694202 -0.008732225 -0.011164999 0.004643722 0.0012380426 -0.0006051138 0.00029088513
0.008624368 0.0008355509 -0.0034347046 -0.010739892 0.0051805014 0.002566382 0.011690676 0.0041536936
-0.0103563685 -0.003173618 -0.006595132 -0.0049352353 -0.0057830038 0.009364407 -0.0013036131 0.0009255888
-0.0096787885 -0.002043869 -0.0028396908 0.00033779276 -0.0017403279 0.0009946636 -0.008122139 -0.004287341
0.003638635 0.0020590879 -0.006391523 -0.0051030754 -0.015406037 0.010355284 -0.004967635 -0.006380358
0.0066549815 0.0067526735 0.0068291537 0.005428063 -0.0035663557 0.005037065 0.0012795468 0.0012710867
0.0023565555 0.0030754122 0.008419466 0.00031290855 -0.013315985 0.01036299 -0.014585659 0.0070383446
0.004789033 0.0056349076 0.00063251896 0.0023717287 0.011549025 0.003019581 -0.000650173 0.0023908177
00000000: 9a40 553b 8be8 dbb9 3f87 ecba f7ac 8bbb
00000010: 03ce ceba e8ea a13b 12ce 463b 441c 00bc
00000020: 6496 42bb 33e5 283b 1d61 8d3c 3aac f6bb
00000030: da47 113c aea3 0e3c ff18 753b 4925 0a3a
00000040: ef75 32bb d9d3 c0ba c66e 20bb 0bd0 dabb
00000050: 59c5 433b 0351 92b8 6cc0 bbbb 65ea bc3b
00000060: 1ae5 14ba 8497 213c 8a64 60bb df3d 3b3a
00000070: 4000 e13a c6d0 12bc 208d 08bc 056a cf3b
00000080: 9272 94bb b7d4 d33b fff3 05bc a33e 20bc
00000090: e8b4 303b 83d3 fc3b 995c 033c 5be6 983b
000000a0: 20d5 ef3b 87c3 46bc 3d48 05bc b3bc b9bb
000000b0: e377 d4b9 ba02 023c 4c3b 113a 66ad 493b
000000c0: 4b76 a9bb f76c d8bb 8a13 6f3b d76d 96bb
000000d0: f7a9 a7bb 50c7 113c 2fc7 183b cc96 853b
000000e0: 43a6 8a3a 811c 23bb 80dd 083c e94f 33bc
000000f0: 8405 983b 2f36 9bbb 1b84 ef3b acf3 44ba
00000100: fd8c 3a3c f7c9 0e3c 64bf 2e3b d34c 3dba
00000110: a7ee a3ba f796 e0ba 8bef 443a 367e 88bb
00000120: c3ab 97bb 13ab c0ba c2b0 8cb9 1f0a 03bc
00000130: fa76 483c fabd 65ba 883b 273c f0ae 8f3a
00000140: 5229 cabb aff4 a83b faa6 37bb 65a2 fabb
00000150: 08b5 623b 0bfd bdbb c632 c23b c0b7 2fbc
00000160: e24a a7ba b595 06bb e077 56bb 3991 15bc
00000170: c86e 58bb 715d 1fbc 13bb 7e3c 5f20 db3b
00000180: fee6 abba 3116 a5ba ab83 e7b9 00fd 82bb
00000190: fe13 a53a 27b5 02bc 146f 0cbc 3b1a 123c
000001a0: caa7 8d3b 0769 c139 bf47 67b9 d13e 273a
000001b0: 1fc6 753b e6bc 993b 7d76 843b 77d9 71bb
000001c0: 25ee 7e3b a80b 56bb 258a b6bb 8fba 0d3c
000001d0: 27db 64bc c812 f93a e961 0ebb c5cc 433b
000001e0: b8df da3b 3bda 4a3b 9341 c5ba 1baa 023c
000001f0: 071d c73a ffe6 c4ba 77d3 7bbb df87 2abb
00000200: f329 463c 9c40 0e3c 2d3f 28bc cbb5 56ba
00000210: 62a1 ec3a 5d76 fb3b cc43 b8bb 23fd 413b
00000220: d6e8 45bc a3d6 4fba 4d39 ca3b 7c3a 87ba
00000230: 921c 583b e027 12bb 0e49 43bc 2600 ccbb
00000240: 5541 89ba 8e3d 13bc 0ead 333b 21a9 24bc
00000250: 4d71 d4bb 008c 4cbc bb8e 633a 94f6 8c3b
00000260: cb09 47bb 6072 d7ba a24c c23a b9e2 1e3c
00000270: 946a 84bb 32f0 19bc b796 44bc 1268 fbbb
00000280: 13f1 e03b 50de 72bb 48ed 3dbb 29b7 41bc
00000290: d14b 1f3a ad88 963b 671a 173b 6cea 15bc
000002a0: d46a 45bb 7f77 52bb 6f50 1e3c 8b9e b43b
000002b0: 198d 073b 4d35 653c 8ba0 f3bb 300e 40bb
000002c0: 7680 a7bb 98b5 c43b 009d ca3b 5938 47bb
000002d0: fc8b 073a 3807 0e3c e3e3 843b d36a 0fbb
000002e0: a985 12bc 8719 393c 39f4 143a 13a4 c3bb
000002f0: 5bf6 2f3b efe6 7d3b 103e bd3b 7bdc ffba
00000300: 5b9c e7bb 5507 f5ba 9b11 0fbc 66ed 36bc
00000310: 5d2a 983b d145 a23a 80a0 1eba f181 9839
00000320: 394d 0d3c df08 5b3a c818 61bb 5ff6 2fbc
00000330: 32c1 a93b bf30 283b 408a 3f3c b51b 883b
00000340: c2ad 29bc 7afc 4fbb fa1b d8bb c1b7 a1bb
00000350: 5a7f bdbb 2b6d 193c ffdd aaba 37a3 723a
00000360: c893 1ebc 6ff2 05bb 1b1a 3abb c719 b139
00000370: b71b e4ba 5f5f 823a b812 05bc d37c 8cbb
00000380: 2a76 6e3b c3f1 063b fb6f d1bb b337 a7bb
00000390: 9a69 7cbc 36a9 293c 8bc7 a2bb 5212 d1bb
000003a0: 0812 da3b 8845 dd3b 18c7 df3b e5dd b13b
000003b0: 85b9 69bb f70d a53b 77b6 a73a 989a a63a
000003c0: 7170 1a3b db8c 493b cdf1 093c e00d a439
000003d0: 4a2b 5abc 88c9 293c b0f8 6ebc eaa1 e63b
000003e0: 52ed 9c3b 08a5 b83b a1cf 253a 016f 1b3b
000003f0: 1f38 3d3c 2ae4 453b 5f70 2aba 44af 1c3b

action_model._discrete_distribution.branches.2.bias f4 [2]
0.0 0.0
00000000: 0000 0000 0000 0000

action_model._discrete_distribution.branches.2.weight f4 [2, 256]
-0.00015406766 0.0058696116 -0.00047316262 -0.0038822626 -0.0021407583 -0.007987942 0.0056657805 0.00037318593
-0.0033827869 -0.0044208583 -0.0006472928 0.0025472306 0.00068897795 -0.00056370185 -0.002746564 0.005065674
-0.001071466 0.0045875804 0.0066935914 0.0017543937 0.0061426046 0.008336675 0.0062007094 0.012950462
0.011603567 -0.0018766792 0.004340975 -0.0003572031 0.007045111 -0.004567841 -0.005017025 -0.00011405159
-0.0015963439 -0.003169249 -0.0052347095 -0.0029734408 0.00060808833 0.0005364884 0.0003476069 0.0039621345
-0.0076686665 -0.0042983447 0.0063897124 0.0014297642 -0.008009285 0.0026884684 0.006812868 -0.0027414607
0.00078753754 0.0027799036 0.013137835 -0.004409548 0.0029517317 0.0026525825 -0.0018622034 -0.0042001116
-0.002239875 -0.0032049671 -0.0022292032 -0.006953586 -0.007324263 0.0032868616 0.01306261 0.0034433526
0.006792924 -0.004505339 0.00034462052 -0.007601991 -0.005273665 -0.0078640515 0.008601247 0.0027590345
-0.001871406 0.0033904754 -0.0034162307 -0.0077854446 0.016882613 0.008443853 0.0029720997 0.005929161
0.0027193339 0.003846408 0.002955253 -0.0062744017 -0.0050667604 -0.008280545 0.0070117945 0.008621861
0.0033462576 -0.003592031 0.004653319 -0.005352314 -0.0074794577 0.0013650594 0.00030034457 0.0073423604
-0.0071065174 -0.0078305965 0.011096535 0.011144067 -0.005139805 -0.004669178 0.005394196 -0.012365069
-0.0017851492 -0.006360429 -0.007618941 -0.0020075215 -0.0040319706 -0.0034604173 -0.003609923 0.0005396922
0.01163097 -0.0026700755 0.0032522676 -0.003639013 0.012793307 0.0066721016 -0.0044665188 -0.0059305243
0.007628038 -0.0005415007 0.0047229477 0.0033028193 -0.0060612247 -0.0065972568 -0.012548976 -0.0010960809
-0.0018660153 0.007575698 -0.0026046315 -0.007734911 -0.00020674265 -0.012461823 0.0077850595 0.0053280904
0.009631823 -0.004780791 0.013888259 0.01044505 -0.011435908 0.006590139 -0.0073719206 0.006056657
0.0015666271 -0.0016625439 -0.00014949379 -0.0040702214 -0.0011279624 -0.0030777473 0.0073416494 0.0009809978
0.0011687567 -0.004502282 0.001131214 0.004209621 0.0034951903 0.00068155915 -0.009367678 -0.008429106
0.0027285141 -0.0071769925 0.0013993746 0.000117691074 0.00147303 0.002605765 -0.0009405263 0.0009134376
-0.0012505136 0.0062561817 -0.0022807478 0.00045747287 0.0074384944 -0.00598427 -0.0026123172 0.00043642824
-0.0031380747 0.00095958303 0.0018894367 0.00738039 0.0066674883 -0.0023083787 0.01097669 -0.007164199
0.0014095953 -0.0003523416 -0.0005019374 0.0013485786 0.0030033195 0.0044045225 -0.0007493623 0.0033981209
0.010315976 0.0031444852 0.003873175 0.005748784 -0.0036344551 -0.005678822 0.00882875 0.008548903
-0.00036141017 -0.0097331405 -0.0023880915 -0.00304723 -0.00046566827 0.0053176163 0.0010932663 -0.009218118
-0.0042288695 0.0009028665 3.5020577e-05 0.00043434906 0.0034810991 0.012421091 -0.008276805 0.004633277
0.0023480363 0.0026085405 0.003411586 0.0058116666 -0.009580913 0.0014905861 -0.0052777114 0.009161641
-0.004975856 0.0056085265 0.0062211114 -0.008476149 -0.0024485837 5.8611604e-05 0.017087854 -0.0036225193
-0.0069977096 -0.0029723293 0.0023566352 -0.0005445403 -0.0051424275 0.0016307328 -0.013156235 0.0020581963
-0.013000615 -0.0030034643 0.0043896292 0.0011101803 0.003122754 -0.008292274 -0.004425467 0.0048087076
0.0030991503 -0.001984753 0.0071482384 -0.0077264057 -0.0092309145 0.0016516555 0.005948474 -8.299229e-05
00000000: 398d 21b9 df55 c03b d012 f8b9 8f6d 7ebb
00000010: f74b 0cbb dbdf 02bc 03a8 b93b 2ba8 c339
00000020: bfb1 5dbb d9dc 90bb 16af 29ba 70ef 263b
00000030: 879c 343a 64c5 13ba b3ff 33bb f4fd a53b
00000040: 6f70 8cba 6a53 963b ea55 db3b aff3 e53a
00000050: e747 c93b 8d96 083c 522f cb3b 2d2e 543c
00000060: e31c 3e3c e8fa f5ba bd3e 8e3b fd46 bbb9
00000070: adda e63b d4ad 95bb db65 a4bb fb2e efb8
00000080: 6a3c d1ba 2db3 4fbb ed87 abbb 0fde 42bb
00000090: 1e68 1f3a 21a3 0c3a 023f b639 cbd4 813b
000000a0: 7049 fbbb 21d9 8cbb cb60 d13b ed66 bb3a
000000b0: 6039 03bc 0431 303b 7b3e df3b 14aa 33bb
000000c0: c072 4e3a 0b2f 363b 1340 573c f87d 90bb
000000d0: d771 413b f3d6 2d3b 2d15 f4ba 17a1 89bb
000000e0: deca 12bb 6d0a 52bb d317 12bb e8da e3bb
000000f0: 5f00 f0bb 6368 573b 8f04 563c dfa9 613b
00000100: 2d97 de3b 86a1 93bb 2fae b439 1f1a f9bb
00000110: b5ce acbb 39d8 00bc 3fec 0c3c ebd0 343b
00000120: f749 f5ba bd32 5e3b d7e2 5fbb 0b1d ffbb
00000130: 684d 8a3c 1658 0a3c 8fc7 423b 6849 c23b
00000140: da36 323b 0514 7c3b ebac 413b 7f99 cdbb
00000150: 1107 a6bb 1fab 07bc 32c3 e53b b542 0d3c
00000160: e34c 5b3b 4868 6bbb de7a 983b 7762 afbb
00000170: 3d16 f5bb cbeb b23a 9177 9d39 2f98 f03b
00000180: cadd e8bb e74b 00bc 3ece 353c 9b95 363c
00000190: cf6b a8bb e7ff 98bb ccc1 b03b dc96 4abc
000001a0: abfb e9ba 256b d0bb 4fa8 f9bb 9f90 03bb
000001b0: 9f1e 84bb 2bc8 62bb 7594 6cbb 217a 0d3a
000001c0: d38f 3e3c 6ffc 2ebb ff23 553b 827c 6ebb
000001d0: 059b 513c a5a1 da3b e05b 92bb d854 c2bb
000001e0: 9ff4 f93b 7ff3 0dba f5c2 9a3b 1d74 583b
000001f0: 3d9d c6bb cd2d d8bb 389a 4dbc 5faa 8fba
00000200: 1595 f4ba 903d f83b 77b2 2abb 2375 fdbb
00000210: 0fc9 58b9 ad2c 4cbc d019 ff3b 4397 ae3b
00000220: cbce 1d3c 2ea8 9cbb 958b 633c b721 2b3c
00000230: ad5d 3bbc 18f2 d73b 2790 f1bb ec76 c63b
00000240: 4857 cd3a b7e9 d9ba 6fc1 1cb9 7e5f 85bb
00000250: 23d8 93ba 08b4 49bb 3892 f03b d394 803a
00000260: f830 993a e187 93bb 3e45 943a dcf0 893b
00000270: 900f 653b a9aa 323a e47a 19bc 3c1a 0abc
00000280: dfd0 323b fa2c ebbb 386b b73a ead0 f638
00000290: af12 c13a 7bc5 2a3b a78d 76ba c273 6f3a
000002a0: 46e8 a3ba a800 cd3b 9978 15bb f8d8 ef39
000002b0: 9dbe f33b b217 c4bb 6933 2bbb 68d0 e439
000002c0: 28a8 4dbb 878c 7b3a faa6 f73a 33d7 f13b
000002d0: f27a da3b 2b48 17bb 93d7 333c a8c1 eabb
000002e0: 2bc2 b83a 7dba b8b9 7394 03ba cac2 b03a
000002f0: 57d3 443b d053 903b da70 44ba 02b3 5e3b
00000300: 5704 293c b513 4e3b 18d5 7d3b 4c60 bc3b
00000310: 0a30 6ebb 6915 babb 76a6 103c b310 0c3c
00000320: a77b bdb9 c077 1fbc 8781 1cbb 09b4 47bb
00000330: f024 f4b9 663f ae3b ee4b 8f3a 9707 17bc
00000340: 5492 8abb 58ae 6c3a 0fe3 1238 58b9 e339
00000350: 2723 643b d581 4b3c 709b 07bc bfd2 973b
00000360: 83e1 193b 0cf4 2a3b ea94 5f3b cb6f be3b
00000370: 43f9 1cbc c55f c33a a7f0 acbb b51a 163c
00000380: 810c a3bb bbc7 b73b 77da cb3b 8cdf 0abc
00000390: 6b78 20bb bbd5 7538 d4fb 8b3c ca67 6dbb
000003a0: 0b4d e5bb 69cb 42bb c771 1a3b 7bbf 0eba
000003b0: cf81 a8bb 50be d53a 408d 57bc cee2 063b
000003c0: 8800 55bc c5d5 44bb e1d6 8f3b 7883 913a
000003d0: 1ea7 4c3b 51dc 07bc 8203 91bb 5d92 9d3b
000003e0: 1d1b 4b3b a112 02bb c53b ea3b ca2d fdbb
000003f0: 433d 17bc 5d7c d83a 6beb c23b 250c aeb8

action_model._discrete_distribution.branches.3.bias f4 [2]
0.0 0.0
00000000: 0000 0000 0000 0000

action_model._discrete_distribution.branches.3.weight f4 [2, 256]
0.0038041638 -0.008349801 0.007843467 -0.0023319628 0.0009909518 -0.0052920817 -0.0032982563 0.0016956775
-0.0009987893 -0.003969839 -0.0038657046 -0.004570411 -0.0019150808 -0.0027847933 0.0092896875 0.009227893
-0.0029546625 -0.006609651 -0.0047987746 5.03779e-07 0.004042817 -0.007754111 -0.015053636 -0.012168872
0.0088779805 0.0044887904 -0.003276037 -0.00053847465 -0.009392263 -0.0037427188 -0.004214894 0.002017668
0.0026208004 0.003304199 -0.005285175 0.007680416 0.0043246453 -0.0019193947 0.0069923075 -0.0035793395
-0.0017357605 -0.0033473712 0.003952646 0.006844097 -0.006069179 0.0059595755 -0.00047612167 0.007270276
-0.016511757 -0.00044429643 -0.000108218745 -0.00084587897 -0.0019400235 0.003335188 -0.0054125316 0.00011969769
0.008466137 0.0010049578 -0.010272169 0.009561073 0.013700247 -0.0036077562 0.004373172 0.0032710626
0.00036541425 -0.017906105 0.007920959 -0.0004016148 -0.013461429 0.005077095 0.007259538 -0.0016846018
-0.007886522 -0.00087356364 -0.000343487 0.01779112 -0.010235022 0.003744995 -0.005314251 -0.0032407846
-0.00065702543 -0.00030413453 0.005378188 -0.009593343 -0.0018431153 -0.007969092 0.0051018572 -0.0034461587
-0.0106732575 -0.012820867 -0.004362206 -0.014681856 0.0066579217 -0.0072303005 -0.0082287965 0.00016155388
-0.0055877115 0.00039041552 -0.009037717 -0.0027602836 -0.00038062772 0.011408156 -0.0024234927 -0.0013815578
0.0005664889 -0.0006625465 -0.00032026955 -0.0056858095 0.009184417 0.0042087617 -3.408895e-05 0.009424219
0.00637488 0.0010841386 -0.009786426 -0.009104579 0.0017147249 -0.0028826266 0.006902671 -0.0058270143
0.006317578 0.018874759 -0.0045288405 -0.0029552307 -0.0062628365 -0.00034355425 0.0010359412 0.0013627853
0.0047171265 -3.453351e-05 0.00013996121 -0.0037585516 -0.00041532793 -0.0032343497 0.0044486616 -0.01027841
0.0020269672 0.0010176221 -0.006618765 0.008491687 -0.007865625 -0.00085832813 -0.0037970045 -0.0023923272
-0.00028179007 -0.0020846527 0.000378302 0.0061681196 -0.002662664 -0.0016126893 0.012665333 -0.003580542
-0.0012600124 0.0004622452 0.004919511 -0.00081528333 -0.0033893534 0.004678512 -0.003438832 -0.002968125
0.0002912256 -0.010538611 0.0057376395 0.005607341 -0.018147806 0.0004276405 -0.003834631 -0.012228803
-0.0124570625 0.0019287709 0.0015785715 -0.004049793 0.0047231535 0.004487375 -0.0045205182 0.008907951
-0.0039044258 -0.006911157 0.001469179 -0.010152336 -0.0027845565 0.0035931503 0.002422882 -0.0034180798
0.0037238032 0.012294221 0.004879181 -0.011673546 -0.004205394 0.008290893 0.00240377 -0.0005524915
0.00060209696 -0.004090421 0.0027946427 0.0017819296 -0.0008276774 -0.0009414879 -0.008656447 -0.012316577
0.012679264 0.010696095 0.0026765768 0.0060123117 0.0018781376 -0.0024192387 0.00014526719 0.011792785
-0.0031885735 0.0011533665 0.0051797894 -0.00023165443 0.011272722 -0.00037157204 0.0033025134 -0.0007280877
0.0075154747 -0.009030119 -0.0040398226 -0.004567427 0.00051864836 0.008088319 0.0042759357 -0.00074687554
-0.0048875455 -0.000971959 -0.018697333 -0.0050920746 -0.009519968 -0.006840323 -0.002509891 -0.0042822324
-0.0070718946 -0.0020060998 0.0028223328 0.011680292 0.0028356295 0.00612235 0.0036623755 -0.0046227337
0.00019734887 0.014842804 0.0030070806 -0.0026047488 -0.009103706 0.0019575802 -0.00091081124 2.2808761e-05
0.0077272253 -0.0035493036 0.001519802 0.010877288 0.001517255 0.007105674 -0.00468818 0.0028288707
00000000: 474f 793b 9bcd 08bc e381 003c d8d3 18bb
00000010: d3e2 813a 3369 adbb 8f27 58bb 7f41 de3a
00000020: cfe9 82ba 6c15 82bb c357 7dbb 63c3 95bb
00000030: 7303 fbba 1481 36bb c633 183c 9730 173c
00000040: 03a3 41bb c595 d8bb 0a3f 9dbb 6e3b 0735
00000050: 9b79 843b 3316 febb 87a3 76bc f35f 47bc
00000060: f374 113c b416 933b c8b2 56bb 6c28 0dba
00000070: 02e2 19bc 6748 75bb 181d 8abb da3a 043b
00000080: bcc1 2b3b 438b 583b 432f adbb 00ac fb3b
00000090: c1b5 8d3b 3394 fbba ba1f e53b 5a93 6abb
000000a0: 7582 e3ba 925f 5bbb 3385 813b 7244 e03b
000000b0: f7df c6bb 8b48 c33b f89f f9b9 7f3b ee3b
000000c0: aa43 87bc 75f0 e8b9 7ff3 e2b8 fabd 5dba
000000d0: 6348 feba 2b93 5a3b 9b5b b1bb 3506 fb38
000000e0: 8db5 0a3c cab8 833a 994c 28bc 0ca6 1c3c
000000f0: 0077 603c 1b70 6cbb d34c 8f3b 535f 563b
00000100: 1295 bf39 d3af 92bc e9c6 013c d38f d2b9
00000110: 538d 5cbc c25d a63b 6be1 ed3b dbcd dcba
00000120: 7936 01bc ddff 64ba 0b16 b4b9 afbe 913c
00000130: cbb0 27bc 976e 753b 2b23 aebb 5863 54bb
00000140: 3b3c 2cba 3f74 9fb9 833b b03b 662d 1dbc
00000150: b094 f1ba cb90 02bc 7b2d a73b f3d8 61bb
00000160: e3de 2ebc 9d0e 52bc d6f0 8ebb 2b8c 70bc
00000170: b22a da3b 28ec ecbb 13d2 06bc ca66 2939
00000180: 1f19 b7bb afb0 cc39 ef12 14bc e0e5 34bb
00000190: fd8e c7b9 46e9 3a3c 76d3 1ebb 6315 b5ba
000001a0: 6d80 143a beae 2dba dae9 a7b9 0750 babb
000001b0: 3d7a 163c a7e9 893b bbfa 0eb8 0a68 1a3c
000001c0: 5fe4 d03b a819 8e3a 3f57 20bc 5f2b 15bc
000001d0: 9fc0 e03a 73ea 3cbb cd2f e23b 8af0 bebb
000001e0: af03 cf3b 3d9f 9a3c ab66 94bb 8bac 41bb
000001f0: 7b38 cdbb 121f b4b9 6bc8 873a 7d9f b23a
00000200: 2092 9a3b 13d8 10b8 8dc2 1239 0852 76bb
00000210: 5fc0 d9b9 62f7 53bb 14c6 913b c766 28bc
00000220: ded6 043b bb61 853a 3ae2 d8bb b720 0b3c
00000230: d3de 00bc 6d01 61ba 2ad7 78bb 97c8 1cbb
00000240: 39bd 93b9 ab9e 08bb d656 c639 f01d ca3b
00000250: 1780 2ebb e060 d3ba 4282 4f3c 87a7 6abb
00000260: 0027 a5ba 8059 f239 d933 a13b bdb8 55ba
00000270: ea1f 5ebb 344e 993b 075e 61bb e084 42bb
00000280: a3af 9839 23aa 2cbc cf02 bc3b c9bd b73b
00000290: b5aa 94bc f034 e039 6f4e 7bbb 515b 48bc
000002a0: b518 4cbc d0ce fc3a 12e8 ce3a 20b4 84bb
000002b0: afc4 9a3b d40a 933b db20 94bb a8f2 113c
000002c0: 65e1 7fbb fd76 e2bb 7891 c03a fc55 26bc
000002d0: 1b7d 36bb 0f7b 6b3b 37c9 1e3b dd01 60bb
000002e0: 0d0b 743b b36d 493c 89e1 9f3b 6742 3fbc
000002f0: 67cd 89bb 87d6 073c 9288 1d3b 14d5 10ba
00000300: 0bd6 1d3a f008 86bb 5326 373b a38f e93a
00000310: 7df8 58ba 2fce 76ba c5d3 0dbc 78cb 49bc
00000320: b0bc 4f3c ad3e 2f3c 8269 2f3b ed02 c53b
00000330: d72b f63a 178c 1ebb dd52 1839 8636 413c
00000340: 63f7 50bb 8f2c 973a 39bb a93b 43e8 72b9
00000350: 39b1 383c 8ecf c2b9 fb6e 583b 23dd 3eba
00000360: 5f44 f63b 10f3 13bc 7d60 84bb 5baa 95bb
00000370: e7f5 073a de84 043c 261d 8c3b f8c9 43ba
00000380: b427 a0bb 10cb 7eba 262b 99bc 6bdb a6bb
00000390: a4f9 1bbc ca24 e0bb fc7c 24bb f851 8cbb
000003a0: 5abb e7bb c578 03bb e3f6 383b b25e 3f3c
000003b0: f8d5 393b ff9d c83b 7704 703b 4d7a 97bb
000003c0: 6fef 4e39 3b2f 733c 7112 453b 6fb4 2abb
000003d0: b627 15bc bf4a 003b 82c3 6eba 7155 bf37
000003e0: aa34 fd3b 6f9b 68bb 1834 c73a a736 323c
000003f0: a1de c63a b7d6 e83b 4e9f 99bb 9364 393b

action_model._discrete_distribution.branches.4.bias f4 [2]
0.0 0.0
00000000: 0000 0000 0000 0000

action_model._discrete_distribution.branches.4.weight f4 [2, 256]
0.0047952617 -0.004141348 -0.0044938475 -9.254529e-05 0.002191957 0.0019485083 0.008387759 0.0049694884
0.0090183355 0.00322415 -0.0073303864 -0.0019582703 0.0040239645 0.0027674201 0.0045860503 0.003893805
0.0062898765 -0.0001582341 -0.0007047606 -0.005508287 0.007883784 -0.007605084 0.002301921 0.006310227
0.005570147 0.0045322897 -0.004394427 -0.006228431 0.0029247028 -0.0059216428 -0.009796179 0.007139211
-0.0014695682 0.0037583446 0.012917778 0.00958763 0.008113685 -0.0039461623 -0.017630799 -0.00041435446
-0.005567075 -0.00041901923 0.00987729 0.0018265847 0.002365567 -0.0061165066 -0.0027584895 0.008148665
0.0116024185 0.0061107394 -0.0033549678 0.0021520937 0.005864141 -0.0026497487 -0.00051177683 -2.8383904e-05
-0.0024298746 -0.0013085994 0.008841581 -0.0062315073 0.0032773097 0.0018950943 -0.0034674571 0.00684759
-0.00539426 0.008547709 0.011930915 0.0068462337 -0.001594319 -0.0027226924 0.0015930723 -0.0037273483
-0.0077437214 0.0056959353 -0.0025717055 0.0030679952 -0.0049354187 0.0009943189 -0.0018883657 0.008203844
0.00048255382 0.00047167527 -0.002268073 0.005593644 -0.010999414 -0.008401358 -0.0055974307 -0.0056383535
0.0037731628 0.0036279012 0.015093329 0.008949518 -0.0075222286 -0.004659924 0.0023063247 0.0017256121
-0.00023698185 -0.0042935354 -0.009803797 -0.003075819 -0.0010392888 0.009270758 -0.008597819 -0.00062407105
-0.0074764984 0.0023393293 -0.01677467 -0.0024700554 -0.0069348337 0.008906741 0.0040180827 -0.0037506674
-0.0034630203 0.0056640203 0.004309375 -0.01147922 0.0010141729 -0.003250932 0.0031935484 0.0013332482
-0.0032715087 0.008381706 -0.006228645 -0.007745544 0.007683453 0.005708751 0.0026276377 0.0077523002
-0.0013571553 0.014434344 -0.004847474 0.014272598 -0.009201842 0.0023188666 0.0016175883 -0.008239523
0.0017772503 -0.007142734 -0.002091023 0.008640218 0.004322465 -0.008123302 0.0005648077 0.010439734
-0.0112699075 -0.00995322 0.005973918 0.0019833893 -0.0029334282 0.0036169067 -0.0015786177 -0.004699738
-0.0052203755 -0.0051421784 -0.007506577 0.0048400667 0.0012359612 0.00333835 0.008526837 0.000276039
0.005118962 0.0057381783 3.2099073e-05 0.0104590375 0.0018959673 0.0032287568 0.005573708 -0.008332868
-0.006956011 0.0052016587 -0.011670626 0.0045897807 0.006714134 -0.003203759 0.0011919199 -0.002920099
-0.0095237205 -0.0022775054 -0.0033198793 -0.00013194357 -0.0040353495 0.009420174 0.01804439 0.0011082976
0.0016409457 0.0006248144 -0.000696246 0.005081265 -0.007228074 -0.0036962416 0.0073502325 -0.0024807246
-0.010012534 0.009126168 0.010324268 -0.0026140276 -0.0009034622 -0.005650514 -0.013814841 -0.0053136833
0.00041230835 0.005632174 -0.009699139 -0.0074578286 -0.00286621 0.0034133308 0.0007960897 0.0003475037
0.0023034064 0.005887078 -0.0055102 0.007617102 -0.008206351 -0.0018774354 -0.0035752994 -0.0132836765
0.0027775408 -0.0053999475 -0.0045873136 0.0013736741 -0.010502121 0.0014580524 0.008383694 0.0013444624
-0.003998972 -9.8232056e-05 -0.003571082 0.003095541 -1.1867052e-05 -0.004120289 -0.0018478272 -0.0025126494
-0.004540618 0.0015488298 -0.01213929 0.010144546 0.0008489587 0.00951855 -0.00877955 3.544026e-05
0.0020762973 -0.0023252543 0.0062985825 0.016713789 0.00062735245 -0.008114196 -0.0037619218 -0.0048738336
0.009156191 0.005823742 -0.008015109 -0.0024077573 -0.0006304871 0.0058399285 0.00022155132 -0.0018097857
00000000: 9221 9d3b 25b4 87bb 2041 93bb e014 c2b8
00000010: f0a6 0f3b 1765 ff3a d06c 093c 17d7 a23b
00000020: a4c1 133c 434c 533b bd33 f0bb 5356 00bb
00000030: 76db 833b 9b5d 353b 9446 963b 352f 7f3b
00000040: 4f1b ce3b a5eb 25b9 afbf 38ba dc7e b4bb
00000050: fd2a 013c 1234 f9bb d3db 163b 05c6 ce3b
00000060: c885 b63b 9a83 943b 20ff 8fbb de17 ccbb
00000070: 5fac 3f3b 570a c2bb 2780 20bc 0bf0 e93b
00000080: 879e c0ba 8f4e 763b 17a5 533c 6f15 1d3c
00000090: 43ef 043c cf4e 81bb 776e 90bc b73d d9b9
000000a0: 036c b6bb cfaf dbb9 5bd4 213c 036a ef3a
000000b0: a107 1b3b fa6c c8bb c6c7 34bb fa81 053c
000000c0: 1218 3e3c 993c c83b 05df 5bbb 240a 0d3b
000000d0: fb27 c03b 68a7 2dbb c328 06ba f819 eeb7
000000e0: 883e 1fbb 4f85 abba 47dc 103c ac31 ccbb
000000f0: 22c8 563b d064 f83a 473e 63bb c061 e03b
00000100: 55c2 b0bb b10b 0c3c e279 433c 5f56 e03b
00000110: 78f8 d0ba 336f 32bb a3ce d03a 8746 74bb
00000120: 0bbf fdbb f8a4 ba3b 0f8a 28bb 6b10 493b
00000130: 4bb9 a1bb ce53 823a 0a83 f7ba 6a69 063c
00000140: 47ff fc39 2f4b f739 f3a3 14bb e34a b73b
00000150: e336 34bc d9a5 09bc a76a b7bb f0c1 b8bb
00000160: 2b47 773b 15c2 6d3b 034a 773c 00a1 123c
00000170: 077d f6bb 47b2 98bb b525 173b ef2d e23a
00000180: 557e 78b9 c9b0 8cbb 1ba0 20bc ae93 49bb
00000190: bf38 88ba 61e4 173c dedd 0cbc b398 23ba
000001a0: 6afd f4bb 6f4f 193b 086b 89bc a7e0 21bb
000001b0: 9a3d e3bb 94ed 113c 1faa 833b c2cd 75bb
000001c0: d7f3 62bb 3f99 b93b a835 8d3b 5713 3cbc
000001d0: ffed 843a 970d 55bb da4a 513b 63c0 ae3a
000001e0: cf66 56bb 6c53 093c a919 ccbb 55ce fdbb
000001f0: 7ac5 fb3b 7910 bb3b 7234 2c3b 0207 fe3b
00000200: 93e2 b1ba 077e 6c3c 8fd7 9ebb 9dd7 693c
00000210: 53c3 16bc 20f8 173b 4205 d43a 10ff 06bc
00000220: a0f2 e83a 980d eabb 8b09 09bb b38f 0d3c
00000230: 77a3 8d3b 9917 05bc 9a0f 143a 6b0b 2b3c
00000240: 6ba5 38bc d512 23bc dbc0 c33b c0fb 013b
00000250: c23e 40bb a009 6d3b 9fe9 ceba 4300 9abb
00000260: af0f abbb b87f a8bb bbf9 f5bb 6c99 9e3b
00000270: faff a13a 38c8 5a3b 26b4 0b3c 54b9 9039
00000280: f7bc a73b 5407 bc3b 1ea2 0638 625c 2b3c
00000290: 1b82 f83a 8d99 533b a7a3 b63b 9586 08bc
000002a0: 40ef e3bb ad72 aa3b 2736 3fbc df65 963b
000002b0: 3d02 dc3b 28f6 51bb 323a 9c3a 225f 3fbb
000002c0: 6109 1cbc 3342 15bb 5592 59bb 555a 0ab9
000002d0: f73a 84bb 1357 1a3c d4d1 933c 4c44 913a
000002e0: 0015 d73a 96ca 233a 4784 36ba bd80 a63b
000002f0: 7bd9 ecbb a53c 72bb 38da f03b a793 22bb
00000300: 9d0b 24bc ec85 153c 1e27 293c 1b50 2bbb
00000310: 52d6 6cba f227 b9bb a557 62bc 681e aebb
00000320: 172b d839 1a8e b83b 23e9 1ebc cd60 f4bb
00000330: 06d7 3bbb 30b2 5f3b adb0 503a 2831 b639
00000340: bff4 163b 64e8 c03b e88e b4bb e298 f93b
00000350: ee73 06bc 4714 f6ba 924f 6abb c7a3 59bc
00000360: 6707 363b 0bf2 b0bb 2d51 96bb db0c b43a
00000370: 1711 2cbc 1f1c bf3a c35b 093c ac38 b03a
00000380: cf09 83bb ef01 ceb8 d008 6abb 8fde 4a3b
00000390: 9a18 47b7 7d03 87bb cb32 f2ba 43ab 24bb
000003a0: 77c9 94bb 1b02 cb3a dfe3 46bc 4f35 263c
000003b0: a78c 5e3a b1f3 1b3c 1ad8 0fbc b0a5 1438
000003c0: 7d12 083b 4b63 18bb 5764 ce3b 5beb 883c
000003d0: e974 243a 68f1 04bc 938a 76bb aeb4 9fbb
000003e0: d903 163c 17d5 be3b ce51 03bc 77cb 1dbb
000003f0: 4647 25ba df5c bf3b 3b50 6839 5536 edba

network_body.linear_encoder.seq_layers.0.bias f4 [256]
0.0 0.0 0.0 0.0 0.0 0.0 0.0 0.0
0.0 0.0 0.0 0.0 0.0 0.0 0.0 0.0
0.0 0.0 0.0 0.0 0.0 0.0 0.0 0.0
0.0 0.0 0.0 0.0 0.0 0.0 0.0 0.0
0.0 0.0 0.0 0.0 0.0 0.0 0.0 0.0
0.0 0.0 0.0 0.0 0.0 0.0 0.0 0.0
0.0 0.0 0.0 0.0 0.0 0.0 0.0 0.0
0.0 0.0 0.0 0.0 0.0 0.0 0.0 0.0
0.0 0.0 0.0 0.0 0.0 0.0 0.0 0.0
0.0 0.0 0.0 0.0 0.0 0.0 0.0 0.0
0.0 0.0 0.0 0.0 0.0 0.0 0.0 0.0
0.0 0.0 0.0 0.0 0.0 0.0 0.0 0.0
0.0 0.0 0.0 0.0 0.0 0.0 0.0 0.0
0.0 0.0 0.0 0.0 0.0 0.0 0.0 0.0
0.0 0.0 0.0 0.0 0.0 0.0 0.0 0.0
0.0 0.0 0.0 0.0 0.0 0.0 0.0 0.0
0.0 0.0 0.0 0.0 0.0 0.0 0.0 0.0
0.0 0.0 0.0 0.0 0.0 0.0 0.0 0.0
0.0 0.0 0.0 0.0 0.0 0.0 0.0 0.0
0.0 0.0 0.0 0.0 0.0 0.0 0.0 0.0
0.0 0.0 0.0 0.0 0.0 0.0 0.0 0.0
0.0 0.0 0.0 0.0 0.0 0.0 0.0 0.0
0.0 0.0 0.0 0.0 0.0 0.0 0.0 0.0
0.0 0.0 0.0 0.0 0.0 0.0 0.0 0.0
0.0 0.0 0.0 0.0 0.0 0.0 0.0 0.0
0.0 0.0 0.0 0.0 0.0 0.0 0.0 0.0
0.0 0.0 0.0 0.0 0.0 0.0 0.0 0.0
0.0 0.0 0.0 0.0 0.0 0.0 0.0 0.0
0.0 0.0 0.0 0.0 0.0 0.0 0.0 0.0
0.0 0.0 0.0 0.0 0.0 0.0 0.0 0.0
0.0 0.0 0.0 0.0 0.0 0.0 0.0 0.0
0.0 0.0 0.0 0.0 0.0 0.0 0.0 0.0
00000000: 0000 0000 0000 0000 0000 0000 0000 0000
00000010: 0000 0000 0000 0000 0000 0000 0000 0000
00000020: 0000 0000 0000 0000 0000 0000 0000 0000
00000030: 0000 0000 0000 0000 0000 0000 0000 0000
00000040: 0000 0000 0000 0000 0000 0000 0000 0000
00000050: 0000 0000 0000 0000 0000 0000 0000 0000
00000060: 0000 0000 0000 0000 0000 0000 0000 0000
00000070: 0000 0000 0000 0000 0000 0000 0000 0000
00000080: 0000 0000 0000 0000 0000 0000 0000 0000
00000090: 0000 0000 0000 0000 0000 0000 0000 0000
000000a0: 0000 0000 0000 0000 0000 0000 0000 0000
000000b0: 0000 0000 0000 0000 0000 0000 0000 0000
000000c0: 0000 0000 0000 0000 0000 0000 0000 0000
000000d0: 0000 0000 0000 0000 0000 0000 0000 0000
000000e0: 0000 0000 0000 0000 0000 0000 0000 0000
000000f0: 0000 0000 0000 0000 0000 0000 0000 0000
00000100: 0000 0000 0000 0000 0000 0000 0000 0000
00000110: 0000 0000 0000 0000 0000 0000 0000 0000
00000120: 0000 0000 0000 0000 0000 0000 0000 0000
00000130: 0000 0000 0000 0000 0000 0000 0000 0000
00000140: 0000 0000 0000 0000 0000 0000 0000 0000
00000150: 0000 0000 0000 0000 0000 0000 0000 0000
00000160: 0000 0000 0000 0000 0000 0000 0000 0000
00000170: 0000 0000 0000 0000 0000 0000 0000 0000
00000180: 0000 0000 0000 0000 0000 0000 0000 0000
00000190: 0000 0000 0000 0000 0000 0000 0000 0000
000001a0: 0000 0000 0000 0000 0000 0000 0000 0000
000001b0: 0000 0000 0000 0000 0000 0000 0000 0000
000001c0: 0000 0000 0000 0000 0000 0000 0000 0000
000001d0: 0000 0000 0000 0000 0000 0000 0000 0000
000001e0: 0000 0000 0000 0000 0000 0000 0000 0000
000001f0: 0000 0000 0000 0000 0000 0000 0000 0000
00000200: 0000 0000 0000 0000 0000 0000 0000 0000
00000210: 0000 0000 0000 0000 0000 0000 0000 0000
00000220: 0000 0000 0000 0000 0000 0000 0000 0000
00000230: 0000 0000 0000 0000 0000 0000 0000 0000
00000240: 0000 0000 0000 0000 0000 0000 0000 0000
00000250: 0000 0000 0000 0000 0000 0000 0000 0000
00000260: 0000 0000 0000 0000 0000 0000 0000 0000
00000270: 0000 0000 0000 0000 0000 0000 0000 0000
00000280: 0000 0000 0000 0000 0000 0000 0000 0000
00000290: 0000 0000 0000 0000 0000 0000 0000 0000
000002a0: 0000 0000 0000 0000 0000 0000 0000 0000
000002b0: 0000 0000 0000 0000 0000 0000 0000 0000
000002c0: 0000 0000 0000 0000 0000 0000 0000 0000
000002d0: 0000 0000 0000 0000 0000 0000 0000 0000
000002e0: 0000 0000 0000 0000 0000 0000 0000 0000
000002f0: 0000 0000 0000 0000 0000 0000 0000 0000
00000300: 0000 0000 0000 0000 0000 0000 0000 0000
00000310: 0000 0000 0000 0000 0000 0000 0000 0000
00000320: 0000 0000 0000 0000 0000 0000 0000 0000
00000330: 0000 0000 0000 0000 0000 0000 0000 0000
00000340: 0000 0000 0000 0000 0000 0000 0000 0000
00000350: 0000 0000 0000 0000 0000 0000 0000 0000
00000360: 0000 0000 0000 0000 0000 0000 0000 0000
00000370: 0000 0000 0000 0000 0000 0000 0000 0000
00000380: 0000 0000 0000 0000 0000 0000 0000 0000
00000390: 0000 0000 0000 0000 0000 0000 0000 0000
000003a0: 0000 0000 0000 0000 0000 0000 0000 0000
000003b0: 0000 0000 0000 0000 0000 0000 0000 0000
000003c0: 0000 0000 0000 0000 0000 0000 0000 0000
000003d0: 0000 0000 0000 0000 0000 0000 0000 0000
000003e0: 0000 0000 0000 0000 0000 0000 0000 0000
000003f0: 0000 0000 0000 0000 0000 0000 0000 0000

network_body.linear_encoder.seq_layers.0.weight f4 [256, 69]
-0.009556956 -0.049057446 0.22258283 -0.062483825 -0.049504895 0.002672609 -0.0013719228 -0.06697273
-0.007811856 0.010698978 0.093601204 -0.16081941 0.010452513 0.007378444 0.006799278 0.0379062
-0.14238118 -0.057601843 -0.02985259 -0.10771305 0.08298739 -0.03460957 0.21518853 -0.046512995
0.016087467 0.22533435 0.17640887 -0.08652751 -0.03277466 -0.033904213 -0.1545874 -0.21578209
0.028466297 0.023903146 -0.15434888 0.103563994 -0.009271821 -0.06890907 -0.006006845 -0.2636326
0.25498754 -0.1776328 -0.05899135 0.049252786 0.2583302 0.14747742 0.037938636 -0.10937057
-0.07417329 -0.22857971 -0.045635257 -0.03256468 -0.14932655 -0.21443538 0.10909821 -0.025573293
-0.06774915 0.03465454 -0.08390698 -0.12940569 -0.1945166 0.09860216 0.048853118 0.03670641
-0.20035218 -0.13034518 -0.09887059 0.10978372 -0.17462635 -0.050273072 -0.05552772 -0.07281618
0.0548785 0.010598442 0.088301726 0.19987144 -0.06343628 0.17707065 -0.012622242 0.29362136
0.09228306 0.11955271 -0.02097211 -0.11746248 -0.054659277 0.054539476 0.050511762 -0.21553181
-0.2590645 -0.06430715 -0.14052099 0.3665256 -0.009315368 0.034757227 0.032177527 0.024922803
-0.120931774 0.016773378 -0.031995647 0.104980424 -0.15148741 -0.09287178 0.21146697 -0.013160859
-0.059551142 -0.16026375 -0.15836121 -0.18704088 -0.19853169 0.11942211 -0.22969633 -0.007479038
0.21611534 0.09756126 -0.010297628 0.17771435 -0.033190977 0.16744114 -0.0049832086 -0.10716777
-0.061292265 -0.020044003 0.06933345 -0.009209356 0.13743164 -0.13225573 -0.026074449 0.18206784
-0.18329832 -0.09385975 -0.17658378 -0.16735892 -0.17789616 -0.1993807 -0.08612325 0.030980686
0.134809 -0.1685183 0.08644743 -0.050851226 0.062162984 0.028874038 -0.17383645 0.18198542
0.02986225 0.009128947 0.06939644 -0.20944728 0.08053418 -0.047309518 0.05609449 0.007312745
0.12801549 -0.039755527 0.033438027 0.06263291 -6.3924745e-05 -0.12039108 -0.08360151 -0.16620268
-0.02411621 0.0804066 0.18806413 -0.0666573 -0.0440814 -0.12516744 0.044820394 -0.045436706
-0.0062399204 -0.027495835 -0.074294865 0.10864456 0.046385422 -0.10663307 0.1659526 0.023262031
-0.085297056 -0.057369895 -0.113043696 -0.20998387 -0.21671216 -0.208607 -0.042719055 -0.32680568
-0.08858673 0.029706428 0.025358377 0.23575874 -0.08163106 0.07697707 -0.014951451 -0.08024345
-0.040639978 0.101801276 0.12491195 -0.17646441 0.11398578 0.038630005 0.09133052 0.19172907
-0.021517389 0.102628134 0.23086001 0.229625 -0.04785416 -0.144203 0.22590344 0.23793364
-0.38004792 -0.09195248 -0.12454744 -0.020505494 -0.15504302 0.111934684 0.048187423 -0.1670061
0.03696279 0.14398704 0.21044546 0.1514508 -0.05921818 -0.102851585 0.011970314 -0.006926827
-0.06599277 0.04940268 0.10101841 0.12920213 -0.15729421 -0.013530439 0.07442796 -0.008237221
-0.20998281 -0.01490158 -0.024966966 0.04253771 -0.19910942 0.025986312 0.12886792 -0.13195698
0.15621842 0.25452527 -0.019191101 -0.11686755 -0.22439425 -0.028381439 -0.059638735 0.05126745
-0.1163912 0.22274843 -0.023383835 0.18476707 0.1129123 0.04624605 0.13822566 0.06294176
00000000: c794 1cbc 76f0 48bd c1ec 633e 0aef 7fbd
00000010: a5c5 4abd f026 2f3b 17d2 b3ba 0029 89bd
00000020: 99fa ffbb c44a 2f3c fdb1 bf3d d8ad 24be
00000030: 0441 2b3c e0c6 f13b 7acc de3b 8843 1b3d
00000040: 5fcc 11be e9ef 6bbd 6b8d f4bc a998 dcbd
00000050: 4bf5 a93d c4c2 0dbd 625a 5c3e 6984 3ebd
00000060: ddc9 833c 0cbe 663e 87a4 343e 5635 b1bd
00000070: b93e 06bd 25df 0abd 294c 1ebe fbf5 5cbe
00000080: 2732 e93c 88d0 c33c a20d 1ebe 5c19 d43d
00000090: d6e8 17bc 3320 8dbd 11d5 c4bb dafa 86be
000000a0: ba8d 823e 5fe5 35be eaa0 71bd 4abd 493d
000000b0: db43 843e 5204 173e 8b65 1b3d adfd dfbd
000000c0: 2ae8 97bd cd10 6abe 09ec 3abd 8b62 05bd
000000d0: 0fe9 18be f394 5bbe e26e df3d 157f d1bc
000000e0: 11c0 8abd ebf1 0d3d 6cd7 abbd ed82 04be
000000f0: 5c2f 47be eeef c93d 351a 483d 7659 163d
00000100: 1f29 4dbe 3579 05be aa7c cabd 49d6 e03d
00000110: 40d1 32be 23eb 4dbd 0971 63bd a620 95bd
00000120: 47c8 603d 16a5 2d3c 89d7 b43d 19ab 4c3e
00000130: e1ea 81bd 0252 353e 85cd 4ebc 8a55 963e
00000140: e7fe bc3d 0dd8 f43d b4cd abbc 2b90 f0bd
00000150: 68e2 5fbd c964 5f3d 6ce5 4e3d 5fb4 5cbe
00000160: 1aa4 84be 78b3 83bd bce4 0fbe 3ea9 bb3e
00000170: 7c9f 18bc 985d 0e3d 95cc 033d e82a cc3c
00000180: 14ab f7bd 5368 893c de0d 03bd faff d63d
00000190: 841f 1bbe 8f33 bebd cc8a 583e a5a0 57bc
000001a0: e6eb 73bd 2e1c 24be 7129 22be a587 3fbe
000001b0: e44b 4bbe 9493 f43d 8435 6bbe b812 f5bb
000001c0: 574d 5d3e 33ce c73d 62b7 28bc c0fa 353e
000001d0: 43f3 07bd b175 2b3e 2f4a a3bb c77a dbbd
000001e0: 990d 7bbd 5233 a4bc b2fe 8d3d d7e2 16bc
000001f0: e1ba 0c3e 0c6e 07be 159a d5bc fe6f 3a3e
00000200: 8eb2 3bbe 8a39 c0bd 61d2 34be 2360 2bbe
00000210: 692a 36be 742a 4cbe 6361 b0bd 35cb fd3c
00000220: 5f0b 0a3e 1090 2cbe 5a0b b13d 6049 50bd
00000230: 9d9e 7e3d 3f89 ec3c 2f02 32be 635a 3a3e
00000240: ada1 f43c 9491 153c b91f 8e3d 5979 56be
00000250: 1bef a43d a0c7 41bd 56c3 653d c09f ef3b
00000260: 7e16 033e b1d6 22bd 50f6 083d af45 803d
00000270: 560f 86b8 998f f6bd 4537 abbd 0931 2abe
00000280: 5c8f c5bc 37ac a43d e293 403e 9f83 88bd
00000290: b38e 34bd e52b 00be 9795 373d d71b 3abd
000002a0: 3f78 ccbb f23e e1bc e827 98bd 0a81 de3d
000002b0: a4fe 3d3d 7062 dabd 7aef 293e 0490 be3c
000002c0: 39b0 aebd b2fc 6abd 7483 e7bd 0306 57be
000002d0: cbe9 5dbe 139d 55be 2dfa 2ebd 1353 a7be
000002e0: f66c b5bd e55a f33c 5fbc cf3c bd6a 713e
000002f0: 2f2e a7bd 27a6 9d3d eef6 74bc ae56 a4bd
00000300: 1b76 26bd 307d d03d d6d1 ff3d 16b3 34be
00000310: 6071 e93d 7f3a 1e3d 7f0b bb3d a054 443e
00000320: 3c45 b0bc b32e d23d 9166 6c3e d122 6b3e
00000330: b902 44bd f4a9 13be 3b53 673e e0a4 733e
00000340: a495 c2be 9551 bcbd ba12 ffbd 23fb a7bc
00000350: 99c3 1ebe 033e e53d 2d60 453d a603 2bbe
00000360: 4b66 173d 5771 133e 047f 573e eb15 1b3e
00000370: c38e 72bd daa3 d2bd 231f 443c 70fa e2bb
00000380: 3827 87bd 775a 4a3d bde2 ce3d 904d 043e
00000390: bc11 21be c6ae 5dbc b06d 983d 69f5 06bc
000003a0: bc05 57be c225 74bc 8687 ccbc 063c 2e3d
000003b0: 57e3 4bbe 3fe1 d43c f4f5 033e bb1f 07be
000003c0: b9f7 1f3e 2351 823e a836 9dbc 4158 efbd
000003d0: 9bc7 65be 3180 e8bc bf47 74bd d1fd 513d
000003e0: 825e eebd 2a18 643e 758f bfbc 9433 3d3e
000003f0: 903e e73d 806c 3d3d 078b 0d3e 9ce7 803d

network_body.linear_encoder.seq_layers.2.bias f4 [256]
0.0 0.0 0.0 0.0 0.0 0.0 0.0 0.0
0.0 0.0 0.0 0.0 0.0 0.0 0.0 0.0
0.0 0.0 0.0 0.0 0.0 0.0 0.0 0.0
0.0 0.0 0.0 0.0 0.0 0.0 0.0 0.0
0.0 0.0 0.0 0.0 0.0 0.0 0.0 0.0
0.0 0.0 0.0 0.0 0.0 0.0 0.0 0.0
0.0 0.0 0.0 0.0 0.0 0.0 0.0 0.0
0.0 0.0 0.0 0.0 0.0 0.0 0.0 0.0
0.0 0.0 0.0 0.0 0.0 0.0 0.0 0.0
0.0 0.0 0.0 0.0 0.0 0.0 0.0 0.0
0.0 0.0 0.0 0.0 0.0 0.0 0.0 0.0
0.0 0.0 0.0 0.0 0.0 0.0 0.0 0.0
0.0 0.0 0.0 0.0 0.0 0.0 0.0 0.0
0.0 0.0 0.0 0.0 0.0 0.0 0.0 0.0
0.0 0.0 0.0 0.0 0.0 0.0 0.0 0.0
0.0 0.0 0.0 0.0 0.0 0.0 0.0 0.0
0.0 0.0 0.0 0.0 0.0 0.0 0.0 0.0
0.0 0.0 0.0 0.0 0.0 0.0 0.0 0.0
0.0 0.0 0.0 0.0 0.0 0.0 0.0 0.0
0.0 0.0 0.0 0.0 0.0 0.0 0.0 0.0
0.0 0.0 0.0 0.0 0.0 0.0 0.0 0.0
0.0 0.0 0.0 0.0 0.0 0.0 0.0 0.0
0.0 0.0 0.0 0.0 0.0 0.0 0.0 0.0
0.0 0.0 0.0 0.0 0.0 0.0 0.0 0.0
0.0 0.0 0.0 0.0 0.0 0.0 0.0 0.0
0.0 0.0 0.0 0.0 0.0 0.0 0.0 0.0
0.0 0.0 0.0 0.0 0.0 0.0 0.0 0.0
0.0 0.0 0.0 0.0 0.0 0.0 0.0 0.0
0.0 0.0 0.0 0.0 0.0 0.0 0.0 0.0
0.0 0.0 0.0 0.0 0.0 0.0 0.0 0.0
0.0 0.0 0.0 0.0 0.0 0.0 0.0 0.0
0.0 0.0 0.0 0.0 0.0 0.0 0.0 0.0
00000000: 0000 0000 0000 0000 0000 0000 0000 0000
00000010: 0000 0000 0000 0000 0000 0000 0000 0000
00000020: 0000 0000 0000 0000 0000 0000 0000 0000
00000030: 0000 0000 0000 0000 0000 0000 0000 0000
00000040: 0000 0000 0000 0000 0000 0000 0000 0000
00000050: 0000 0000 0000 0000 0000 0000 0000 0000
00000060: 0000 0000 0000 0000 0000 0000 0000 0000
00000070: 0000 0000 0000 0000 0000 0000 0000 0000
00000080: 0000 0000 0000 0000 0000 0000 0000 0000
00000090: 0000 0000 0000 0000 0000 0000 0000 0000
000000a0: 0000 0000 0000 0000 0000 0000 0000 0000
000000b0: 0000 0000 0000 0000 0000 0000 0000 0000
000000c0: 0000 0000 0000 0000 0000 0000 0000 0000
000000d0: 0000 0000 0000 0000 0000 0000 0000 0000
000000e0: 0000 0000 0000 0000 0000 0000 0000 0000
000000f0: 0000 0000 0000 0000 0000 0000 0000 0000
00000100: 0000 0000 0000 0000 0000 0000 0000 0000
00000110: 0000 0000 0000 0000 0000 0000 0000 0000
00000120: 0000 0000 0000 0000 0000 0000 0000 0000
00000130: 0000 0000 0000 0000 0000 0000 0000 0000
00000140: 0000 0000 0000 0000 0000 0000 0000 0000
00000150: 0000 0000 0000 0000 0000 0000 0000 0000
00000160: 0000 0000 0000 0000 0000 0000 0000 0000
00000170: 0000 0000 0000 0000 0000 0000 0000 0000
00000180: 0000 0000 0000 0000 0000 0000 0000 0000
00000190: 0000 0000 0000 0000 0000 0000 0000 0000
000001a0: 0000 0000 0000 0000 0000 0000 0000 0000
000001b0: 0000 0000 0000 0000 0000 0000 0000 0000
000001c0: 0000 0000 0000 0000 0000 0000 0000 0000
000001d0: 0000 0000 0000 0000 0000 0000 0000 0000
000001e0: 0000 0000 0000 0000 0000 0000 0000 0000
000001f0: 0000 0000 0000 0000 0000 0000 0000 0000
00000200: 0000 0000 0000 0000 0000 0000 0000 0000
00000210: 0000 0000 0000 0000 0000 0000 0000 0000
00000220: 0000 0000 0000 0000 0000 0000 0000 0000
00000230: 0000 0000 0000 0000 0000 0000 0000 0000
00000240: 0000 0000 0000 0000 0000 0000 0000 0000
00000250: 0000 0000 0000 0000 0000 0000 0000 0000
00000260: 0000 0000 0000 0000 0000 0000 0000 0000
00000270: 0000 0000 0000 0000 0000 0000 0000 0000
00000280: 0000 0000 0000 0000 0000 0000 0000 0000
00000290: 0000 0000 0000 0000 0000 0000 0000 0000
000002a0: 0000 0000 0000 0000 0000 0000 0000 0000
000002b0: 0000 0000 0000 0000 0000 0000 0000 0000
000002c0: 0000 0000 0000 0000 0000 0000 0000 0000
000002d0: 0000 0000 0000 0000 0000 0000 0000 0000
000002e0: 0000 0000 0000 0000 0000 0000 0000 0000
000002f0: 0000 0000 0000 0000 0000 0000 0000 0000
00000300: 0000 0000 0000 0000 0000 0000 0000 0000
00000310: 0000 0000 0000 0000 0000 0000 0000 0000
00000320: 0000 0000 0000 0000 0000 0000 0000 0000
00000330: 0000 0000 0000 0000 0000 0000 0000 0000
00000340: 0000 0000 0000 0000 0000 0000 0000 0000
00000350: 0000 0000 0000 0000 0000 0000 0000 0000
00000360: 0000 0000 0000 0000 0000 0000 0000 0000
00000370: 0000 0000 0000 0000 0000 0000 0000 0000
00000380: 0000 0000 0000 0000 0000 0000 0000 0000
00000390: 0000 0000 0000 0000 0000 0000 0000 0000
000003a0: 0000 0000 0000 0000 0000 0000 0000 0000
000003b0: 0000 0000 0000 0000 0000 0000 0000 0000
000003c0: 0000 0000 0000 0000 0000 0000 0000 0000
000003d0: 0000 0000 0000 0000 0000 0000 0000 0000
000003e0: 0000 0000 0000 0000 0000 0000 0000 0000
000003f0: 0000 0000 0000 0000 0000 0000 0000 0000
