MLagents/results/hb_08/Mario.onnx (onnx, 352528 bytes, 16 tensors)

122 f4 [69]
000000 a8 8f a3 3a a8 8f a3 3a f7 4e e7 3a f7 4e e7 3a
       0.0012478726 0.0012478726 0.0017647435 0.0017647435
000010 63 ab ae 3e 96 57 27 3c a8 8f a3 3a a8 8f a3 3a
       0.34115133 0.010213753 0.0012478726 0.0012478726
000020 63 ab ae 3e 96 57 27 3c a8 8f a3 3a a8 8f a3 3a
       0.34115133 0.010213753 0.0012478726 0.0012478726
000030 85 f3 b0 3e 00 64 fd 3c a8 8f a3 3a a8 8f a3 3a
       0.3456079 0.030931473 0.0012478726 0.0012478726
000040 1e 00 b1 3e 00 64 fd 3c a8 8f a3 3a a8 8f a3 3a
       0.34570402 0.030931473 0.0012478726 0.0012478726
000050 fa a4 b8 3e a8 b2 3e 3d a8 8f a3 3a a8 8f a3 3a
       0.36063367 0.0465571 0.0012478726 0.0012478726
000060 6e 5d b9 3e 32 a1 3e 3d a8 8f a3 3a a8 8f a3 3a
       0.36204094 0.046540447 0.0012478726 0.0012478726
000070 60 c3 be 3e ae e2 66 3d a8 8f a3 3a a8 8f a3 3a
       0.37258434 0.056368522 0.0012478726 0.0012478726
000080 7c 96 c6 3e c1 b2 6d 3d a8 8f a3 3a a8 8f a3 3a
       0.38786685 0.0580318 0.0012478726 0.0012478726
000090 b8 5e ca 3e 15 df 6f 3d a8 8f a3 3a a8 8f a3 3a
       0.3952539 0.058562357 0.0012478726 0.0012478726
0000a0 29 b1 d3 3e a3 1f 82 3d a8 8f a3 3a a8 8f a3 3a
       0.413461 0.063536905 0.0012478726 0.0012478726
0000b0 9e 16 d7 3e e0 e5 80 3d a8 8f a3 3a a8 8f a3 3a
       0.42009443 0.06293845 0.0012478726 0.0012478726
0000c0 e3 61 de 3e 7c dc 8a 3d a8 8f a3 3a a8 8f a3 3a
       0.43434057 0.06780335 0.0012478726 0.0012478726
0000d0 7a 91 d5 3e 25 4c 88 3d a8 8f a3 3a a8 8f a3 3a
       0.41712552 0.066551484 0.0012478726 0.0012478726
0000e0 9e ef df 3e 0b 78 95 3d a8 8f a3 3a a8 8f a3 3a
       0.437375 0.07298287 0.0012478726 0.0012478726
0000f0 f7 4e e7 3a a8 8f a3 3a a8 8f a3 3a 1c 68 2c 3e
       0.0017647435 0.0012478726 0.0012478726 0.1683659
000100 ec f1 14 3e a8 8f a3 3a 44 13 e9 3a 1c 07 39 3c
       0.14545411 0.0012478726 0.0017782231 0.011293199
000110 a8 8f a3 3a
       0.0012478726

action_model._discrete_distribution.branches.0.bias f4 [3]
000000 38 3b f0 3c 57 aa 5e bd 71 dd cb 3c
       0.029325113 -0.054361667 0.024885865

action_model._discrete_distribution.branches.0.weight f4 [3, 256]
000000 58 5a e9 3c be 63 82 3d f8 b6 e1 bc 3a 12 40 3d
       0.028485462 0.063666806 -0.027553067 0.046892382
000010 8e e6 b1 bc 96 6d 6e 3d ba a2 22 3c 2b 27 5e bc
       -0.021716382 0.058209978 0.009926492 -0.013559143
000020 73 97 07 bc 4a 1e cb 3c bd 51 0e 3d 94 c5 48 bb
       -0.008275854 0.024794716 0.03474592 -0.0030635344
000030 4a 73 08 bd 77 38 70 3c 8d fc 50 bd f2 00 1d bc
       -0.033313073 0.0146619 -0.0510221 -0.009582745
000040 91 f6 fc bc 73 f0 bb bc d1 fd 87 3d 80 8a 1c bc
       -0.03087929 -0.022941804 0.066402085 -0.009554505
000050 ae 05 50 3d 82 c4 4d 3c 05 e3 e9 bc 0a 29 38 3d
       0.050786667 0.012559058 -0.028550634 0.044961013
000060 a3 d4 94 3d 44 43 d2 bb 60 fe e3 bc a7 86 69 3a
       0.0726712 -0.00641671 -0.027831256 0.00089083094
000070 ee e2 0f bd a0 e6 99 bc 2e 11 5b bc 16 3a 7e 3c
       -0.035128526 -0.018786728 -0.013370795 0.015516778
000080 56 ad 9c bc 17 b2 13 3d fc 19 70 bc 0b 06 9c bc
       -0.019125622 0.03605851 -0.014654633 -0.01904585
000090 09 ec 6b 3d bb 83 3f 3d a0 ec 57 bd 14 ee 7c 3c
       0.057598148 0.046756487 -0.052715898 0.015437622
0000a0 12 44 87 bc 21 7e 2f 3d c9 12 c2 3d e6 0b 96 3d
       -0.01651195 0.042844895 0.09476239 0.07326488
0000b0 57 28 5f 3d 87 8a f8 3b 58 c5 c4 3d 1d 54 06 3c
       0.05448183 0.007584873 0.09607953 0.008198765
0000c0 13 9d 3f 3c af b6 ae 3c 34 1c b7 3c e9 50 0e bd
       0.011695164 0.021327345 0.022352315 -0.03474513
0000d0 1e 2b d1 3c 41 cd 0c bc 1b a1 74 bd f0 17 ff 3b
       0.025533255 -0.008593858 -0.059723955 0.007784836
0000e0 52 08 cd 3b 66 7c 48 3c 59 8a 3a 3c bc 96 a8 b9
       0.0062570954 0.01223669 0.011385524 -0.00032155763
0000f0 e7 dc 41 bc ea 54 26 bc d7 fc 93 3c 89 ca fa bc
       -0.011832452 -0.010152081 0.0180649 -0.030614154
000100 71 a9 65 3b 7e 6e 9f bb 2b 4d 64 bc 09 ca 06 bd
       0.0035043622 -0.0048654666 -0.013934414 -0.03290752
000110 1c 4f 89 3c 03 41 13 3c 69 c4 ab bb 5e 98 e4 b9
       0.016761355 0.008987668 -0.00524192 -0.0004360107
000120 7b 53 36 3a 34 72 5e 3c ed 5c 26 bc 80 b2 5d 3c
       0.00069551886 0.013577033 -0.010153991 0.013531327
000130 07 70 36 bd 4b 3c b5 bc 7d 82 99 bc 65 f3 94 bc
       -0.04454043 -0.022123476 -0.01873898 -0.018182466
000140 7b cc ff bb c1 01 8e 3c fc 56 90 3c 69 ec c0 3c
       -0.0078063584 0.01733482 0.017619602 0.02355023
000150 c5 d0 b0 3c ec 1e 35 3d 1d 09 e1 bc bd c0 d8 3c
       0.021583924 0.044218943 -0.027470166 0.026459092
000160 cd 07 16 3d b1 91 20 bd d6 55 2d bd 05 e8 87 3c
       0.036628533 -0.039201442 -0.042318188 0.016590128
000170 a3 17 21 bd 00 1b 1b 3d f2 5e e5 bb 7e 81 94 bc
       -0.039329182 0.037867546 -0.0069998438 -0.018128153
000180 36 66 61 3c 61 69 3c 3d a1 b5 97 3c f0 9d 9b 3c
       0.013757279 0.045998935 0.018519225 0.018996209
000190 f5 2f ed 3c cf ba 31 bd b5 63 95 3d ce f1 8a 3c
       0.028953532 -0.043391045 0.07294408 0.016961005
0001a0 48 d7 37 bd 86 61 a0 bc 3f 72 c0 3c aa ee 43 3d
       -0.044883043 -0.019577753 0.023491977 0.04783503
0001b0 63 92 30 3d e4 08 24 bd 37 f1 03 3d db 89 79 3c
       0.043108355 -0.04004754 0.032212462 0.015230621
0001c0 a0 ba 6c 3d 6b e8 22 3c 1a 96 e4 ba a4 d9 10 3b
       0.057795167 0.009943108 -0.0017439753 0.002210238
0001d0 4a dd 27 bc 19 84 ac 3c 77 20 38 bd 66 ea 8c 3c
       -0.0102456305 0.021059083 -0.044952836 0.017201614
0001e0 d4 48 44 3d 56 54 70 3a e7 37 d5 3c 00 07 a9 3c
       0.047921017 0.00091678405 0.026027633 0.02063322
0001f0 d5 12 f9 3c c4 4d 2a 3c b5 15 0f bc be 41 85 bc
       0.030404488 0.010394517 -0.008733203 -0.0162667
000200 ed d1 74 3c 81 86 8a 3c f5 47 86 3d e0 08 49 3d
       0.014942628 0.01690984 0.065566935 0.04908073
000210 9a 69 a6 3b ff 59 34 bc 75 91 6e 3c 96 b7 e7 3b
       0.0050785067 -0.011007785 0.014561047 0.0070714457
000220 28 e3 00 bc 15 12 e2 3c 96 f5 cc 39 25 bb 83 3c
       -0.007866658 0.027596513 0.00039092888 0.016080448
000230 85 f4 1b 3c f6 c4 0d 3d 46 ba 8b 3c cb 96 10 3d
       0.009518747 0.034611665 0.017056596 0.035300057
000240 83 e0 af 3c f9 a4 de 3c a7 ad 02 3d 0b 27 1c 3d
       0.02146936 0.027178274 0.03190389 0.03812317
000250 93 63 bc 3c 68 75 56 bd a8 8e fd b8 ae e8 b2 3c
       0.0229967 -0.05235806 -0.00012090552 0.021839466
000260 52 4a 15 3d 4f 28 6f bc 1e 15 33 bb 1f 40 0f 3d
       0.03644783 -0.014597013 -0.002732582 0.03497326
000270 0f a6 97 3b 0a ad 1b bd dd c5 ad 3c 93 de 90 bd
       0.00462795 -0.03800682 0.021212513 -0.07073703
000280 93 f6 15 3d bd 84 ca bc 26 b5 af 3b 29 9f 7a b8
       0.036612105 -0.024721498 0.0053621707 -5.9752874e-05
000290 39 fc c6 bb a8 d8 d0 3c 11 b7 5e 3b 97 33 16 bd
       -0.0060725478 0.025493935 0.0033983628 -0.036670294
0002a0 32 f2 29 bd dc 95 10 3d f6 75 5f bc f9 56 18 bc
       -0.04149074 0.035299167 -0.013638964 -0.00929808
0002b0 9b 24 d0 bc d7 c3 6a bd 8f 9c cc 3c 94 08 5b 3d
       -0.02540808 -0.057315674 0.024976997 0.053474978
0002c0 15 64 89 bd 78 e6 0d 3d e3 83 34 3c a2 1e af 3b
       -0.06708542 0.03464362 0.011017772 0.005344228
0002d0 9f be 0b bd 31 cb f3 3c cc 61 95 3c a8 e7 db bb
       -0.034117337 0.029759975 0.01823511 -0.006710965
0002e0 69 25 27 bd 1c 69 f4 3c 20 19 d3 3c 53 05 0e bd
       -0.04080716 0.029835276 0.025768816 -0.034673046
0002f0 48 4f 0e 3d ad 65 c2 3c d1 d0 0a bd fb c0 23 3b
       0.034743577 0.023730123 -0.03389055 0.0024986851
000300 3e 49 0a bc eb c4 86 3c 81 a6 94 3c 65 70 9e 3d
       -0.008440314 0.01645132 0.018145801 0.07736281
000310 a5 07 71 3d e7 3d 39 3d 5d ff 72 bc ab 79 19 3d
       0.05884518 0.04522505 -0.014831391 0.037469547
000320 aa 05 95 3c 7b ba 0e 3d 65 d8 e1 bc f4 22 00 3d
       0.018191177 0.03484581 -0.027569005 0.031283334
000330 98 2c 78 3d 27 54 cc 3c b5 7a a1 3c ca 76 65 3c
       0.060589403 0.02494247 0.019711832 0.014005372
000340 c5 58 39 3c 36 75 b1 3c 4e c0 76 3d 79 fc 86 bc
       0.011312668 0.021662336 0.06024199 -0.01647781
000350 15 a7 6a 3c 40 73 34 3b 4f 4b 29 3d be a1 1b 3c
       0.014322062 0.0027534515 0.041331585 0.009499012
000360 19 79 04 bd bc 98 74 bc 7d 8a 18 bd fc c0 96 3d
       -0.03234205 -0.014928993 -0.037241448 0.073610276
000370 0b 6f 1c 3d d4 d9 c2 3c 97 3a 52 3c e5 1e e4 bb
       0.038191836 0.02378551 0.012831352 -0.0069616907
000380 f9 ef 1e 3a e8 6e 9a bb c8 e0 82 3c 63 92 96 3c
       0.00060629804 -0.004712928 0.015976325 0.01838035
000390 0d 78 67 3c 70 ec 72 bc 02 9f 4a 3d 4e 7c 34 3d
       0.014127743 -0.014826879 0.049468048 0.04406386
0003a0 bf 9b 58 3b 77 37 57 3d 26 71 60 3c a7 ff 5e 3d
       0.0033051816 0.05254313 0.013698852 0.054443028
0003b0 ff 8e 13 bb 61 a7 8b bb e8 6e 27 3d a3 df 56 3c
       -0.0022515652 -0.0042618965 0.040877253 0.013114843
0003c0 b2 17 71 3c 3b 45 94 3c 3e 9e 2d 3d b1 d9 6a 3c
       0.014715122 0.018099418 0.04238724 0.014334128
0003d0 a7 6d 08 bc 7f 91 28 bb 17 92 38 bb 9a a1 1b bc
       -0.008326924 -0.0025721488 -0.0028163248 -0.009498978
0003e0 c9 da 16 3d cb aa c3 3c 94 b9 f8 bc 27 a0 8d bc
       0.036829744 0.023885151 -0.030361928 -0.01728828
0003f0 77 e1 3a 3d 0a df 21 bb 0d 15 11 3d 0a d0 95 3d
       0.045625176 -0.0024699592 0.035420466 0.07315071

action_model._discrete_distribution.branches.1.bias f4 [2]
000000 e2 80 8c 3c e6 80 8c bc
       0.0171513 -0.017151307

action_model._discrete_distribution.branches.1.weight f4 [2, 256]
000000 e7 ca 88 bc 43 e2 db bc d5 0f 49 bd c8 a4 df 3b
       -0.016698314 -0.026841288 -0.049087364 0.0068250634
000010 51 e4 76 3b 57 9f 96 39 d2 19 e8 bc 29 e7 36 3c
       0.0037672708 0.00028728947 -0.028332625 0.011163511
000020 37 f6 8d bb b7 a5 d0 bc 38 4b 25 3a 17 fb 30 3d
       -0.0043323296 -0.025469644 0.0006305459 0.043208208
000030 ea c1 9f 3b e1 48 36 bc 48 ae 04 bd c5 92 b9 3c
       0.0048754113 -0.011125774 -0.03239277 0.022652993
000040 e5 80 78 ba f8 b1 0a bb ad bc be 3c 11 2d ae 3c
       -0.0009479656 -0.0021163207 0.023283327 0.021261724
000050 d8 95 24 3d f1 17 b3 3c b0 6b 77 bc fa 1e 87 bc
       0.040181965 0.021862002 -0.015101358 -0.016494263
000060 4f 13 c5 3c 6c 48 fd bc f9 a4 43 bb 35 47 9b 3c
       0.024057059 -0.030918323 -0.002985297 0.018954853
000070 92 45 7e 3c 80 4a 99 bb 6f 33 13 bc 6a 60 80 3c
       0.015519517 -0.0046780705 -0.008984431 0.015670974
000080 7e 41 c1 3c 38 cf ab 3c 16 8c c5 3a 70 af 44 bc
       0.0235908 0.020972833 0.0015071656 -0.012004718
000090 59 5c 80 3c 15 36 9e 3d 00 15 aa 3c 13 e4 b5 3b
       0.015669035 0.07725159 0.020761967 0.00555087
0000a0 e3 f4 d1 bb 6f c7 9f bb ab b8 06 3c 11 bf 56 3d
       -0.0064073666 -0.0048760693 0.008222739 0.05242831
0000b0 f7 36 a1 3d 08 d2 2e 3c c5 5b 1b 3d 02 00 c6 3b
       0.07871812 0.010670193 0.037929315 0.0060424814
0000c0 46 fe 89 3b d4 2d 65 3d fb c1 bd bb 51 a9 db 3b
       0.00421122 0.05595191 -0.0057909465 0.0067035337
0000d0 bc f5 d7 3c 79 f2 6b bb a6 70 f2 bc 75 b5 9c 3b
       0.026362292 -0.003600268 -0.02959473 0.0047823736
0000e0 8d 2f dc 3b 91 5b 93 bb 3b e2 ee b8 71 1f a3 3c
       0.0067195357 -0.0044969996 -0.00011390863 0.019912453
0000f0 3f 92 0c bd a0 6f 5e 3b 2a b0 96 3c 2d 69 27 bc
       -0.03431916 0.0033941045 0.018394548 -0.010217947
000100 a8 c2 70 bb 3d f3 fa 3b 50 b3 11 bc 66 77 ae bc
       -0.0036737118 0.007658391 -0.008892849 -0.021297168
000110 c8 9a 0f bc 6a 31 cd 3b db 89 dd 3a 66 75 a1 3c
       -0.00876493 0.006261994 0.0016902046 0.0197093
000120 9d 2c 37 bc 0a ed a7 bc f4 f8 9b bc b6 c1 6e bc
       -0.01118007 -0.020498771 -0.019039609 -0.0145725515
000130 95 4d 4a 3c 14 3c 9a 3c 24 00 f7 bc 03 57 15 bc
       0.012347599 0.018827476 -0.030151434 -0.0091149835
000140 87 c2 31 bb f6 71 41 bc 15 cd 2a 3b 9c 0d ed 3c
       -0.0027124004 -0.011806956 0.002606218 0.028937154
000150 8f 8a 7d 3a 7a d7 82 3b fa 78 e5 bb 0a 19 bb 3c
       0.0009671831 0.003992972 -0.007002947 0.022839088
000160 d8 8b fd 3c 2d dc 2e bc bb f0 29 bc 6d b6 db 3c
       0.030950472 -0.010672611 -0.010372336 0.026820386
000170 20 1d 36 bd c9 57 85 3c 4a 4f d6 3b cb f3 5a 3d
       -0.04446137 0.01627721 0.0065402137 0.053455155
000180 e9 ed d1 3c ea 39 1b 3d 2a 82 4a 3d 37 80 72 3c
       0.02562614 0.037897028 0.04944054 0.014801077
000190 3a c1 ec 3c 98 b3 00 3d a0 1e 16 3d d5 06 7a 3c
       0.028900731 0.031421274 0.0366503 0.015260418
0001a0 a1 90 aa 3c c6 11 19 bc 28 42 c6 3c 06 08 74 3c
       0.020820918 -0.009342616 0.024201468 0.014894491
0001b0 6b f9 f7 ba 6c 08 58 bd 9f 4c a9 bb b5 94 87 bc
       -0.0018918937 -0.052742407 -0.0051666046 -0.016550401
0001c0 40 4b 38 3c ab 92 b5 bc 17 e7 bb 3c e0 e9 a3 3c
       0.01124841 -0.022164663 0.02293734 0.020008981
0001d0 ca f9 75 3b 2d 32 0c 3b 0f 82 d6 3a d2 39 87 3c
       0.003753292 0.0021392212 0.0016365665 0.016507063
0001e0 3b c6 e0 3c f5 22 13 bc dc 68 a4 3b 99 dd 4f 3d
       0.027438274 -0.008980502 0.005017383 0.05074844
0001f0 13 39 06 3d f4 5a e5 3c 46 ba ae bb d7 39 a3 bc
       0.032769274 0.027997471 -0.005332264 -0.019925041
000200 1c bb f2 3b 25 93 a8 bb 96 ea aa 3b fa 07 8e 3c
       0.007407559 -0.005144494 0.005215953 0.017337788
000210 94 05 cd bc ee 36 56 3d 9a b7 f3 3b ea 9f 8c 3b
       -0.025027074 0.05229848 0.0074376585 0.004291524
000220 31 78 d8 bc c1 8c 27 3d c0 ac 87 3b e6 6e f1 bb
       -0.0264245 0.040905718 0.0041404665 -0.0073679565
000230 f3 a5 33 bc 94 ee 2a 3d b0 b8 63 3c 3d 38 98 bd
       -0.010964858 0.041731432 0.013899013 -0.074326016
000240 fe eb 37 3c a5 1d bc 3c 0a 2e 0f 3d ce 60 fc 3b
       0.0112256985 0.022963354 0.034956016 0.0077019697
000250 54 39 ca 3c dc 3c e5 bc fb 93 86 3c bd 39 c3 bb
       0.02468554 -0.027983122 0.016427984 -0.0059578107
000260 96 4a 57 3d 96 57 7d bc f3 8d 86 bc d7 0a 2b bc
       0.052561365 -0.015462777 -0.016425109 -0.010439596
000270 dc 5f aa 3c fd b9 26 bc fb 96 81 3c fc 50 49 3c
       0.020797662 -0.010176179 0.015819063 0.012287375
000280 5b 7e 9a 3c b5 b6 38 bb 60 e8 82 bc e7 88 87 3c
       0.01885908 -0.0028185074 -0.015979946 0.016544772
000290 47 59 b5 3c bc 65 a2 3d cd 52 0e bb 31 19 47 bd
       0.022137297 0.079295605 -0.0021716834 -0.04860801
0002a0 bc 06 ca bc ee cc 87 3c b0 0b 10 bd 70 1d 78 3c
       -0.024661414 0.01657721 -0.035167396 0.015143737
0002b0 7e 89 d9 3c bd 1f 4d 3d 2a d2 56 bc 0c ca 40 3d
       0.02655482 0.050079096 -0.01311163 0.047067687
0002c0 39 57 f7 bc b4 55 43 3d 34 74 3a 3d 2c 79 01 3b
       -0.030192958 0.047689155 0.045520976 0.0019756062
0002d0 b6 ee 5b bd 4f 40 75 3c e3 c4 1c 3b b0 a0 d8 3b
       -0.05369445 0.014968946 0.0023921065 0.0066109523
0002e0 0e 77 f6 ba 09 06 da ba 38 ac 2c 3c 7b 89 4d 3b
       -0.0018803792 -0.0016633879 0.010539107 0.0031362462
0002f0 43 36 ee 3c cf 24 0d 3d c8 b1 45 3d c1 28 3f 3b
       0.029078608 0.03445893 0.04826525 0.0029168578
000300 08 55 ea 3b c6 62 f0 bc 14 04 70 bc 42 50 23 3d
       0.00715125 -0.029343974 -0.01464941 0.03987146
000310 86 32 b6 3b 58 94 e1 3a 4e 3b 33 3c b9 42 2e bd
       0.005560222 0.0017210348 0.010939432 -0.0425441
000320 cf fd 1d bd 2a 2e 19 3d 48 29 a3 3c cc 6d e2 bc
       -0.03857213 0.03739754 0.019917145 -0.027640246
000330 85 3a e5 bb 83 5e c4 3c 55 b7 80 3c f8 51 db 3c
       -0.0069955015 0.023970848 0.01571242 0.026772484
000340 39 07 15 3d ca 2d 21 3d fd 2a b2 3b 45 df 60 3c
       0.03638384 0.03935031 0.0054372535 0.013725107
000350 29 6c 41 3b 6d 18 07 3d d2 c0 d7 3a 45 53 90 3c
       0.0029513931 0.03298228 0.0016460663 0.017617831
000360 50 e1 07 bd dc cf 12 bd 60 56 fa b9 d1 7f e7 bb
       -0.03317386 -0.03584276 -0.0004774807 -0.0070647974
000370 f2 1b 4c bc 88 ae 1f 3d 80 fc a6 3c cb 51 de bb
       -0.012457835 0.038984805 0.020384073 -0.006784653
000380 26 e3 64 3d ee 3e 33 3d 11 62 75 3c f5 c5 ec bc
       0.055880688 0.043761186 0.014976994 -0.028902987
000390 e7 06 0e bc 4f a7 84 3b 4a db 7a 3c fa 26 33 3d
       -0.008668638 0.004048265 0.015311072 0.043738343
0003a0 e1 56 c0 3c c8 e7 c4 bc 8e 1f 06 3b 15 62 dc bb
       0.023478927 -0.024036303 0.0020465585 -0.0067255595
0003b0 6c 81 cb bc b9 64 fe bc 6b 9a 23 3d fb 77 d8 3b
       -0.024841987 -0.031053888 0.039942186 0.0066060997
0003c0 1e 86 0c bb 9e d0 cc bc 1b 61 02 3c 58 c5 3c bd
       -0.0021442245 -0.02500182 0.007957722 -0.04608664
0003d0 19 c5 8b bc 80 de 09 3c f3 83 f4 ba 71 37 9b bb
       -0.017061757 0.008414865 -0.0018655047 -0.0047368337
0003e0 b6 a4 cf bc 4b 1c a4 3c 2e b0 94 bb c4 c6 12 bc
       -0.025347095 0.020033022 -0.004537604 -0.008958522
0003f0 94 8a ac bc da 90 8d bc 3a f9 0f 3c 09 e8 0a 3c
       -0.021062173 -0.017280985 0.008787448 0.008478173

action_model._discrete_distribution.branches.2.bias f4 [2]
000000 b9 6b a5 bd bd 6b a5 3d
       -0.08077187 0.0807719

action_model._discrete_distribution.branches.2.weight f4 [2, 256]
000000 a2 c3 1c bd 01 99 6d 3c da c6 89 3c 41 df ea bb
       -0.038272507 0.014501811 0.016818453 -0.007167727
000010 c6 ac 48 bd ba 7e 0d bd 0e 6c dc 3c 72 24 e7 3c
       -0.048992895 -0.034544684 0.026906993 0.02821562
000020 36 e4 e8 3c e6 d5 5a bc d6 22 01 3c 88 89 9d 3c
       0.028429132 -0.013356661 0.007881841 0.01923062
000030 c9 97 b4 3c 47 56 c8 bc d3 53 0f bd 4a 52 33 bc
       0.022045033 -0.024455203 -0.03499205 -0.010944912
000040 f9 5a bd ba d8 83 6c 3a 4e 3f 07 bd 95 18 7b bc
       -0.0014446668 0.0009022332 -0.033019356 -0.015325685
000050 50 ae dc 3c 85 43 5e bc ed 65 10 bc fc a3 df bc
       0.026938587 -0.013565903 -0.0088133635 -0.027299874
000060 45 1d e8 bc 69 5c 03 bc 53 dc 08 3d 1a 66 a0 3c
       -0.02833427 -0.008017638 0.033413243 0.019579936
000070 be 9b 03 3d 7c 0a 19 3d 8b 9d 0b bc a0 db 92 bb
       0.03213095 0.037363514 -0.008521448 -0.0044817477
000080 62 8f 4a 3d a8 1e 92 bb aa 37 df ba db a1 c7 3b
       0.049453147 -0.004459221 -0.0017030139 0.0060922927
000090 90 e3 50 bb c8 ad 4a bc 7e 88 a6 bc 24 18 f3 bb
       -0.003187392 -0.012370534 -0.020328756 -0.0074186493
0000a0 1c db 87 3d 02 51 f3 bc 24 25 8c bc 62 71 d4 3b
       0.06633589 -0.029701713 -0.017107554 0.006483243
0000b0 52 68 12 bd 85 37 da bb 43 a2 30 bd f5 44 1a bc
       -0.03574402 -0.0066594505 -0.043123495 -0.009415855
0000c0 6c 8f 5c 3b 51 44 23 ba b5 f7 c1 3b f0 44 07 3b
       0.0033654822 -0.00062281365 0.0059194216 0.0020640455
0000d0 e8 04 05 bc e1 7d e5 3c e2 7b bf bc 83 f8 18 bc
       -0.0081188455 0.028014125 -0.023374502 -0.009336594
0000e0 05 2e 0f 3c 8b e7 28 3d 71 6e b6 3c 10 dd fb 3c
       0.008738999 0.04123644 0.02226946 0.03074506
0000f0 15 98 3b bd 1c d4 15 3d 07 7c 1c bc 9e 3e 2c 3d
       -0.045799334 0.036579236 -0.009551055 0.042051904
000100 d2 b9 e4 3c 77 10 b1 3c 28 8f f7 3b 34 e0 81 3d
       0.027920637 0.021614296 0.0075549074 0.063415915
000110 3b fd 4c bc 65 e1 88 3c e4 58 6e 3c 80 ec 47 3b
       -0.012511547 0.016709039 0.01454756 0.0030505955
000120 d3 3e 74 3d c1 4e 12 bd a8 64 e8 bc 3a eb f6 3a
       0.059630226 -0.035719637 -0.02836831 0.0018838414
000130 ad ce 24 3d 6e 39 65 3d c8 46 d6 bb 70 1a 81 bc
       0.040236164 0.055962972 -0.0065391995 -0.015759677
000140 a7 d4 a8 3c cd 06 22 bd d6 7d e5 3c a9 dc 33 3c
       0.020609213 -0.039557267 0.028014105 0.010977902
000150 6d e7 7b 3c 22 99 9c 3a 10 ac b7 bc 6e ea ce bb
       0.015375 0.0011947493 -0.022420913 -0.0063145673
000160 3f 6d d9 bc d6 15 13 bd 95 bc fb bb 70 1e 46 bd
       -0.02654135 -0.035909496 -0.007682393 -0.04836887
000170 e3 17 d4 bc 5e 35 6e bd c5 3d fd bc 43 f3 4c 3d
       -0.025890296 -0.058156364 -0.030913243 0.05003668
000180 9f 18 39 3c a6 f8 b1 bb 53 93 a6 3c e0 7d 97 3b
       0.011297374 -0.0054312525 0.020333922 0.0046231598
000190 06 31 77 3c dc ce db 3c 63 62 3d bd 88 35 49 bc
       0.015087372 0.026832037 -0.046236407 -0.012280829
0001a0 5c ce 44 bc d8 d8 05 bb d0 d0 95 bc 03 8f 6a bc
       -0.0120120905 -0.0020423438 -0.018288046 -0.014316323
0001b0 3a 1a 8b 3b 77 19 09 3d b9 09 a6 3c 0c d2 ca bb
       0.00424507 0.03347155 0.020268308 -0.0061895903
0001c0 fe 3f f9 bc 87 6b 3c 3c 5e 09 30 bb fa 65 4f 3d
       -0.030426022 0.011500246 -0.0026861052 0.05063436
0001d0 9c 12 b2 3b 54 21 86 bc eb 7f 83 3c e0 2f d1 3c
       0.0054343473 -0.016373314 0.016052207 0.025535524
0001e0 32 8a 40 bc 75 18 3d 3c 91 56 0c bd 50 ff 07 bb
       -0.011751698 0.011541476 -0.034262244 -0.0020751543
0001f0 48 7c b7 3c a5 0b 0f bd 22 cb ee 3b e8 8f 25 bc
       0.02239813 -0.034923214 0.007287399 -0.010105111
000200 15 0f 90 bc f9 aa e4 3c ec 82 6b bd e2 69 5b 3a
       -0.017585317 0.027913557 -0.057497904 0.0008369965
000210 78 7b b7 3c e7 d2 c1 3c 4a 39 91 bc 01 11 58 3d
       0.022397742 0.023660136 -0.017727513 0.05275059
000220 8c 31 68 bc 20 9c f5 bb 85 84 84 3d 9d e6 96 bc
       -0.014171969 -0.007495418 0.064705886 -0.018420512
000230 ec 67 04 3a 96 1d c9 3c c1 2e ca bc 16 7b 17 3d
       0.0005050886 0.02455024 -0.024680497 0.03698262
000240 e1 c8 15 bc 41 70 02 bd 41 7f 0b bc 43 ef 03 bd
       -0.009142132 -0.031845335 -0.008514226 -0.0322106
000250 93 81 86 3c a6 1a ed bc d9 04 99 bc 06 7e 99 bc
       0.016419208 -0.028943371 -0.01867907 -0.01873685
000260 9a 6e d8 bb 38 b9 f9 3c 4a 7a bf 3a c5 52 b6 bc
       -0.0066049816 0.030483827 0.0014608589 -0.022256264
000270 97 59 9e 3b 35 d2 98 3d fb 2d 59 bd 8c eb ea bc
       0.0048324573 0.07461969 -0.053022366 -0.02867677
000280 b9 c6 bd bc 83 cf ef 3b b9 aa 48 ba 73 6f ab 3c
       -0.023166047 0.0073184385 -0.0007654834 0.020927167
000290 62 fa 11 3d fc a5 c6 3b 90 27 b2 bc e8 80 e0 39
       0.035639174 0.0060622673 -0.02174738 0.00042820652
0002a0 57 ff 91 bc 6d 8f 87 bc 79 39 4d 3c d8 aa cb 3c
       -0.01782195 -0.016547883 0.01252591 0.024861738
0002b0 0b b0 c8 3c 66 3c e2 3c ef b2 af bc b3 ab b1 3c
       0.024498006 0.02761669 -0.021447627 0.021688318
0002c0 12 40 f1 bc a6 18 af bb 6e 6a 08 bd 09 2b 3e 3b
       -0.029449496 -0.0053435145 -0.033304624 0.002901735
0002d0 ad a6 fd bb f6 10 0c 3d c0 95 37 3d d2 14 7f bc
       -0.0077408166 0.034195863 0.044820547 -0.015568929
0002e0 8a b5 af bb a2 af 4d 3c c5 e9 90 bb b6 54 c5 3a
       -0.0053622173 0.012554081 -0.0044223987 0.0015055153
0002f0 d2 4f 0f bc e5 a1 ec 3b 3c f6 98 3c 62 4b b2 3c
       -0.008747058 0.007221448 0.018672101 0.021764461
000300 b7 57 9c 3b cf 67 6b bd 1e 59 11 3d 46 3c 1e 3d
       0.0047711986 -0.057472046 0.03548538 0.0386317
000310 4f 99 d8 bb 63 fa 1c bd 20 99 91 bc 66 73 c0 bc
       -0.0066100727 -0.038324725 -0.017773211 -0.023492526
000320 d4 df 05 3b d7 b7 be bc ab b8 a0 bc e8 17 fc 3c
       0.0020427601 -0.023281021 -0.019619307 0.030773118
000330 c2 cc 88 bd 5c 6b 7f 3a a0 ca a0 3c 92 f9 91 3c
       -0.066796795 0.0009743476 0.01962787 0.0178192
000340 49 cb 24 bd a6 50 dc 3c b8 af 60 bd f9 ff d5 3c
       -0.04023293 0.026893925 -0.05485508 0.026123034
000350 39 05 34 3b 2f 5d cd bc 63 b9 97 3b 80 23 e2 bc
       0.0027468933 -0.025068847 0.004630254 -0.027604818
000360 b4 ca a7 3c d1 37 4d bd 44 4c 64 3c 75 6c 0d bd
       0.020482399 -0.05010206 0.013934199 -0.03452726
000370 6a 01 27 bc b6 c1 64 bb c2 3b ad 3c 89 91 d8 3b
       -0.010193208 -0.00349055 0.021146659 0.006609146
000380 93 32 9a bb 7c 66 eb 3c 24 20 02 3d 0a 12 b1 bc
       -0.004705736 0.028735392 0.031768933 -0.021615047
000390 20 e3 3a 3d 0a c7 39 bb 82 d1 b5 bc db 50 07 bd
       0.04562676 -0.0028347396 -0.022194628 -0.033036094
0003a0 7c 16 f7 3c e9 01 d3 bc 73 6f 9c 3c 63 fa 18 bd
       0.030162089 -0.025757747 0.019096112 -0.037348162
0003b0 06 91 04 bd 8b cb 5c bd 15 ca 81 bc 5e 21 95 3c
       -0.032364868 -0.05390505 -0.01584343 0.018204387
0003c0 1b c3 c1 bc 50 cb aa bb 71 4d 37 3c 0a e3 58 3d
       -0.023652604 -0.005212225 0.011187897 0.052950896
0003d0 d6 78 6d 3a 44 f3 8f bc f8 ec 1f bd d5 25 aa 3c
       0.00090588385 -0.017572053 -0.03904435 0.020769993
0003e0 c4 75 02 bc 26 db ea bc d3 07 4a 3d 89 3d 0e 3d
       -0.007962648 -0.028668951 0.049323868 0.034726653
0003f0 80 c2 d3 bc 39 78 1e bd 73 ce 5f bb 84 f0 44 bc
       -0.02584958 -0.038688872 -0.0034150153 -0.012020234

action_model._discrete_distribution.branches.3.bias f4 [2]
000000 b3 bc 1e bd b2 bc 1e 3d
       -0.038754176 0.038754173

action_model._discrete_distribution.branches.3.weight f4 [2, 256]
000000 63 27 20 bc 24 0b 37 bc 75 43 15 bb b3 b3 b7 bc
       -0.0097750155 -0.01117209 -0.0022775803 -0.022424554
000010 d6 e6 b2 3c fd af bf 3b 66 af 10 3d 4e 3a 31 3c
       0.021838587 0.005849837 0.035323523 0.010817124
000020 56 88 41 3c 2e 30 11 38 4a 33 07 3d 41 58 c1 3c
       0.01181229 3.4615565e-05 0.033007897 0.023601653
000030 6b 57 e7 3c 0c be b3 3c 13 f9 94 3d e9 b2 92 b9
       0.028239926 0.021941207 0.0727407 -0.00027980588
000040 7d 00 2d 3d 1e d3 a3 bc 39 78 82 3c 78 2b 23 3d
       0.042236794 -0.01999813 0.015926467 0.039836377
000050 3e 54 f0 3c a1 27 db 3c 5d f3 b3 bc e0 0f 07 3d
       0.029337045 0.026752295 -0.02196663 0.032974124
000060 29 bc 75 3c 7d 69 5f 3c 3b 07 8f bc af 5b b5 3c
       0.014998474 0.01363599 -0.017459502 0.022138445
000070 c8 24 ac 3c 06 01 9a 3b b5 40 c1 bb 2c c5 b4 3c
       0.021013632 0.004699829 -0.0058976063 0.022066675
000080 bf db b9 3b 9d 7f 5b 3c 86 96 f8 3c c2 8f 95 3c
       0.0056719477 0.013397125 0.030345213 0.018257026
000090 37 b6 5f 3d 94 b5 84 bc 35 a2 13 3d 58 34 f1 bc
       0.054617133 -0.016199864 0.036043365 -0.029443905
0000a0 b9 6b 4c 3c 7c d1 9f bc f6 44 43 3b 90 ae 5f ba
       0.012476855 -0.01950907 0.0029795743 -0.0008532787
0000b0 7c b0 d5 ba c9 d1 5f bd 54 cd a9 bc 3b 12 0d bc
       -0.0016303207 -0.054643426 -0.02072779 -0.0086103035
0000c0 91 43 20 3d 2d ee 8a bb 55 8e 0c 3c 76 86 f7 3c
       0.039126936 -0.0042398185 0.0085788565 0.030215483
0000d0 2b 76 8b bc 4b 79 f9 bc 01 9d 8a 3c f6 64 2f 3d
       -0.01702412 -0.030453345 0.016920568 0.042820893
0000e0 9e 43 95 3b 62 b7 f0 3c 1f 3b f4 3c a6 36 11 3c
       0.0045551797 0.029384319 0.029813347 0.008863127
0000f0 73 ed 51 3d 7f 04 3b 3d 4f 63 8d 3c 81 e2 bb 3c
       0.05125184 0.045658585 0.017259268 0.022935154
000100 53 1e 8a 3c a8 6a 59 bc 5b 56 8c 3c 8b 50 2c 3d
       0.016860163 -0.013270058 0.017131021 0.042069
000110 f9 fe 0b 3d 49 0e 0f 3c 90 d9 2a 3d 92 95 37 3d
       0.034178708 0.008731433 0.04171139 0.044820376
000120 f2 35 04 3d 0b 0e 06 3c c6 ce 37 3d c0 6b a7 3b
       0.03227801 0.008182059 0.04487493 0.0051092803
000130 df fc b7 3c 85 c4 cf bb 64 15 17 3d 07 6f 1b bb
       0.022459446 -0.0063405656 0.036885634 -0.00237173
000140 73 82 3e 3c 33 f6 aa 3c 6c 72 29 3a 63 a5 a5 bb
       0.011627781 0.02086935 0.00064638886 -0.005055116
000150 b6 6b 30 3d ed aa ad 3c a0 62 d9 bc 57 93 66 bc
       0.04307147 0.021199668 -0.026536286 -0.0140732145
000160 c7 2a 49 bc e4 35 13 3d 9a a8 0a bd 83 99 86 bb
       -0.012278265 0.035940066 -0.033852197 -0.0041076555
000170 3f c6 6a 3c ad e8 a7 bc 63 3c f3 3c 32 f9 bf bc
       0.014329492 -0.02049669 0.02969188 -0.023434255
000180 f9 c9 45 3c 30 73 5b bd 64 a0 e1 3a 18 25 9a 3d
       0.01207208 -0.05357665 0.0017213938 0.07526606
000190 03 7e 9b bb 26 cc 90 3c 09 ee 27 bc b7 7a cb bb
       -0.0047452464 0.01767547 -0.010249623 -0.006209697
0001a0 58 8f 58 bd c5 03 1d 3c d3 dc d4 bb 2f 12 ff ba
       -0.05287108 0.009583418 -0.006496051 -0.0019460375
0001b0 6b 37 0c 3c c4 6e b1 bc 93 4b 20 bc a1 24 88 bb
       0.008558135 -0.021659262 -0.009783643 -0.004154757
0001c0 52 8b 6b bc 4c ac 86 bc a2 d5 81 bb 08 47 58 bc
       -0.014376478 -0.01643958 -0.0039622346 -0.013200529
0001d0 79 76 be 3c 5a 09 c8 3c 4f 88 48 3c 98 31 11 3d
       0.023249852 0.024418522 0.01223953 0.035447687
0001e0 c3 77 d5 3c ae 7d ae bc 06 e3 90 3c 0f 4e d6 bb
       0.026058083 -0.021300163 0.017686378 -0.006540067
0001f0 36 1d 74 3a 5b 9f e5 3b ad c6 92 3c 42 78 37 bc
       0.0009312214 0.007007522 0.017917002 -0.011198105
000200 f4 53 82 3c 6f 30 5e 3c c9 32 ff 3b 62 83 39 bd
       0.015909173 0.013561352 0.0077880365 -0.045291312
000210 9b d8 98 bc f0 5b 01 3d 30 9e 69 3d 50 49 47 3c
       -0.018657973 0.03158182 0.057035625 0.012163475
000220 ec 66 47 bb f8 79 c0 3c a1 67 31 3c 7e be 0a 3d
       -0.0030426336 0.02349566 0.01082793 0.033873074
000230 6d 05 c5 3c 09 51 ab 3c 9f 5e 2a bd c2 ea 49 bd
       0.024050439 0.020912664 -0.041594144 -0.049296148
000240 16 d8 01 bd 95 69 73 ba ee 9a 80 3b 21 ae fb 3b
       -0.031700216 -0.00092854473 0.003924719 0.00768067
000250 6b 13 c8 3c ac 47 04 3c 99 c7 2c bd 30 ed 0a bd
       0.024423322 0.0080737285 -0.04218254 -0.033917606
000260 03 b3 8d bd 3c b8 ed 3c 57 65 0e 3d b0 3b f6 3c
       -0.069189094 0.029018514 0.034764614 0.030057758
000270 df 2c e1 3c 20 06 ba bb 24 95 75 bc fc 29 34 3d
       0.027487217 -0.0056769997 -0.014989171 0.043985352
000280 f5 58 b0 3b b0 d1 f0 3c ee 49 a7 3c 35 ff ef ba
       0.0053816983 0.029396862 0.020420995 -0.001831031
000290 c8 4a 48 3c c0 dd 83 bb c6 49 81 3c 37 82 d0 bb
       0.0122248605 -0.0040242374 0.015782248 -0.006363179
0002a0 1e fd 0a 3a e2 73 12 3b e8 e9 0d 3c e6 e7 d3 bb
       0.00053019996 0.0022346904 0.008661725 -0.0064668534
0002b0 12 96 52 3a de 5f 27 3c 7d 5d e3 bc 80 41 1b bc
       0.00080332265 0.010215728 -0.02775454 -0.009476066
0002c0 12 01 00 b9 d9 2e 62 3b 78 c4 2b bc f3 49 fa 3a
       -0.0001220743 0.0034512787 -0.0104838535 0.0019095525
0002d0 81 26 f1 3a 76 0d 9b 3b 2c a4 cf 3b b9 20 9f bc
       0.0018398316 0.0047318293 0.0063367095 -0.019424783
0002e0 c3 ed 97 3c 9e f3 c7 3c 4a fd e1 bc c5 23 b1 bb
       0.01854599 0.024408158 -0.027586598 -0.0054058754
0002f0 59 b1 80 3b 30 b7 2c bd c9 0b ff 3c 2d f6 9a bc
       0.0039273915 -0.04216689 0.03113355 -0.018916214
000300 98 8f 0d bb 60 90 32 bc f1 55 25 3d b4 07 5c 3c
       -0.002160048 -0.0108986795 0.040365163 0.013429571
000310 d5 22 8e 3c 46 9d 91 3c d8 0e a7 bc c7 0a 87 3c
       0.017350594 0.01777519 -0.02039282 0.016484631
000320 51 49 f4 3b b2 9f 15 3c aa e3 12 3d 77 08 44 bd
       0.007455029 0.009132313 0.03586165 -0.047859635
000330 33 10 31 3c 83 9a a1 3b c0 24 e3 ba 01 c6 94 3c
       0.010807085 0.0049317493 -0.0017329678 0.018160822
000340 45 6e 98 bc 77 a0 61 3c 6a e5 29 3d a1 d9 c9 bb
       -0.018607268 0.013771168 0.041478552 -0.0061599766
000350 57 8b 0a 3d df 73 e8 bc c0 71 1c 3d 57 05 ed 3b
       0.03382429 -0.028375564 0.038194418 0.0072333026
000360 f6 c2 5e 3a 4c 70 75 bd e5 f1 2e 3c c5 f6 fc bc
       0.00084976794 -0.059921548 0.010677789 -0.030879388
000370 b4 74 b0 3b 1d 26 0b 3c 52 66 26 3d 10 ce 28 3c
       0.005385006 0.008492974 0.040624924 0.010303035
000380 90 cc 00 3d 6e 19 90 bc 05 9a 3d bc 23 56 c2 3c
       0.031445086 -0.01759025 -0.011572366 0.023722714
000390 b7 57 5b 3c 2c db fa bc d3 7a c4 bb d1 f2 9a bc
       0.013387612 -0.030622087 -0.005996087 -0.018914612
0003a0 fc 03 ea 3c 93 9f 8b 3c 48 a9 02 bc 0f a9 1d bc
       0.028566353 0.017043864 -0.00797493 -0.009622826
0003b0 45 64 7e 3c 77 07 d3 3c 35 92 e8 bb 85 c7 cd 3c
       0.015526836 0.025760395 -0.0070975074 0.025119552
0003c0 3e b0 a9 bc f0 c1 b5 bb d6 90 bb 3c 32 c2 51 3c
       -0.020713922 -0.005546801 0.022896212 0.012802647
0003d0 02 20 f9 3b d5 6a d3 bb 07 47 db bb 3f 12 5d bc
       0.0076026926 -0.0064519444 -0.0066918167 -0.01349312
0003e0 88 f4 8a 3c ab 90 f2 3c 9d dc 87 3c ac 4d 90 bc
       0.016962305 0.029609999 0.016584689 -0.017615162
0003f0 fd 95 d1 3c 52 1c 8a 3c 33 33 92 bc 92 c2 b6 3c
       0.025584215 0.016859207 -0.01784668 0.022309575

action_model._discrete_distribution.branches.4.bias f4 [2]
000000 93 6f bc bc 92 6f bc 3c
       -0.023002421 0.02300242

action_model._discrete_distribution.branches.4.weight f4 [2, 256]
000000 52 24 2b 3d 65 8e e0 3b a2 c2 c4 bc 74 59 94 3b
       0.041782685 0.0068529123 -0.02401859 0.004527265
000010 77 83 93 bc 69 26 cb bb 39 a4 ba bc dd 71 c0 bc
       -0.018007023 -0.006199647 -0.022783386 -0.023491794
000020 f4 a4 e7 bc 13 6e 29 bd 95 24 7a 3b 0c 52 05 3d
       -0.028276898 -0.04136474 0.0038168777 0.03254895
000030 07 db 05 38 94 f6 e9 bc 33 9e 00 3c e1 2e a8 bc
       3.1913656e-05 -0.02855996 0.007850218 -0.020530166
000040 6d 16 02 bd bd 80 5e 3c 90 8d b0 bc 4b 44 34 bd
       -0.03175967 0.013580498 -0.021551877 -0.04401044
000050 bd 4c e5 3c 1d 17 9d bc 24 58 e0 ba 86 93 2e bd
       0.027990693 -0.01917606 -0.0017116112 -0.042621158
000060 9d 8a 86 bc a2 c2 44 bc db c8 89 3d 11 87 a5 bc
       -0.016423518 -0.012009295 0.06727763 -0.020206006
000070 30 37 cc 3c 39 f4 37 bb cb 86 d5 bb 02 c5 8a bc
       0.02492866 -0.0028069152 -0.0065163127 -0.016939644
000080 b8 30 b2 bc 53 f9 3b 3c 54 b4 02 bd f0 85 01 bc
       -0.021751747 0.011473018 -0.031910256 -0.007905468
000090 e8 b5 9f bc fd c9 5b bc 90 19 23 bd c7 be e0 3b
       -0.01949592 -0.013414857 -0.0398193 0.00685868
0000a0 90 bb b7 bb c1 f0 b1 bc 70 2f 85 bc e6 33 cf bc
       -0.005607076 -0.021721246 -0.016257972 -0.025293302
0000b0 82 bd 07 bd 86 49 88 bc 59 c3 a6 3c a0 57 c4 bc
       -0.033139713 -0.016636621 0.02035682 -0.023967564
0000c0 d0 24 bc bc bd 36 5e bb a2 8d 95 3b 36 08 34 3c
       -0.022966772 -0.0033907138 0.004564003 0.010988286
0000d0 00 5e fd bc f4 ed a9 3b 83 12 47 3c c9 10 a1 bb
       -0.030928612 0.005185837 0.01215041 -0.004915331
0000e0 8c cb 8a 3c fd 3e 36 bc ac 3e 19 bd 24 64 00 bd
       0.016942762 -0.011123416 -0.037413284 -0.0313455
0000f0 08 fe 6f bc 47 9f 15 3d 20 fd b8 bc 04 ad 16 3d
       -0.014647968 0.03652885 -0.022581637 0.036786094
000100 ae 30 31 bb 20 6d 7a bb f5 cc 22 3d 38 04 ea 3a
       -0.0027037072 -0.0038212016 0.039746244 0.001785404
000110 53 4e dc bc b5 87 23 bd 8c b8 fc bc c6 7e 8b 3d
       -0.026892817 -0.039924342 -0.030849718 0.068112895
000120 1c a3 18 bc c3 79 2d 3c eb 84 6d bc 29 9e 58 bd
       -0.009316232 0.010588112 -0.014497022 -0.05288521
000130 b0 20 45 3c 98 d8 53 3d 3a 55 a5 bc 10 50 c6 3b
       0.012031719 0.05172023 -0.02018224 0.0060520247
000140 6a 8b cc bc e1 63 c7 bc da 60 cc bc 55 a9 02 3d
       -0.024968822 -0.024339618 -0.024948526 0.03189977
000150 a4 81 04 bd 6d f2 cd 3a 06 12 1e 3d d4 08 cb 3c
       -0.032350197 0.0015712507 0.038591407 0.024784483
000160 bc 04 12 bd 7a 3e 91 bb b1 41 26 bc f8 3e 55 bc
       -0.035649046 -0.0044324966 -0.010147498 -0.013015501
000170 3a 3f ab 3c 78 f3 3c bc 4b 3b 1c 3b cd ba 62 bc
       0.020904172 -0.011532657 0.0023839052 -0.013838482
000180 72 48 26 bd 31 b3 25 3b f9 44 02 3c ee 8e 12 3c
       -0.040596433 0.0025283808 0.007951015 0.00894521
000190 96 e4 5d 3b 3a a2 1c bc d7 d4 fa 3c 9f 63 d6 bc
       0.0033858172 -0.009560162 0.030619068 -0.02617055
0001a0 bb c7 2a bc 16 0a 9a 3b b9 f0 46 bc f4 8b 23 3b
       -0.010423596 0.0047009094 -0.012142354 0.0024955245
0001b0 1e 6d f3 3c 78 69 69 bd 59 ab f8 bc fa 57 8a bb
       0.029715117 -0.05698535 -0.030355142 -0.0042219134
0001c0 d6 f3 3f bd 5f d9 51 bc 4f f0 d7 bc b9 ce 7b bc
       -0.0468634 -0.012808173 -0.026359705 -0.015369111
0001d0 32 a7 57 bc 21 51 da bc fe e3 d0 3b 4f 71 0c 3d
       -0.013162421 -0.026650013 0.006374835 0.034287747
0001e0 5a 86 cc b9 77 28 c3 bc 29 f3 75 bc f2 b0 89 3b
       -0.00039010012 -0.023823006 -0.015011587 0.0042020017
0001f0 d8 6e d8 3b bb be 21 bc 21 cd 94 3c f8 ce 5b bd
       0.0066050105 -0.009872134 0.01816422 -0.053664178
000200 eb 00 ee bc 58 b0 97 bc 59 f4 fa bb e9 74 cf 3c
       -0.029053172 -0.018516704 -0.007658523 0.025324302
000210 ea df 93 bc ed 65 be bc b0 da 73 bc 8c bd 1d 3d
       -0.018051106 -0.023241961 -0.014883682 0.038510844
000220 28 c4 50 bc 8d 0c 93 3c 09 55 69 bd 5e ae fe bc
       -0.01274208 0.01795032 -0.05696586 -0.031089004
000230 9e f0 3c bb 3f 31 60 bc 2a 67 21 3d c3 da f7 3c
       -0.0028829942 -0.013683616 0.039405026 0.03025568
000240 e2 af 00 bc a2 3f 87 bc f3 80 d4 3b 19 40 eb 3c
       -0.007854434 -0.016509835 0.0064850985 0.028717088
000250 1c 6d 27 bc 60 7f 06 bb a0 8a be bc 4f 27 49 bc
       -0.010218885 -0.0020522699 -0.02325946 -0.012277438
000260 76 3e ed bb ff 80 f0 3c f2 d5 a2 ba 2a ae 81 3c
       -0.007240112 0.029358385 -0.001242338 0.015830118
000270 e7 dd 0b bd 08 38 23 3c 93 62 1e 3d 27 00 9a 3c
       -0.03414717 0.009962089 0.038668226 0.0187989
000280 e7 ad 2d bb ec c9 91 bc 67 b0 9b bc 61 e1 e8 bc
       -0.002650136 -0.01779648 -0.019005014 -0.028427782
000290 58 29 48 3b ed 9b ac 3b 0c 79 ea bc e4 c5 92 3b
       0.003054222 0.0052676112 -0.028622173 0.004479157
0002a0 95 9f e7 bb 23 b0 d2 3c 2a dc 51 3b c1 78 04 3d
       -0.007068584 0.025718754 0.0032022097 0.032341722
0002b0 e7 a3 c8 3b 47 9d 73 3d e8 2c b7 3c 4a ed 3f bc
       0.0061230543 0.059476163 0.02236028 -0.011714289
0002c0 40 5a 92 bb f1 b4 d5 bb a3 ea 1b bc 19 0a 03 3b
       -0.004466325 -0.006521814 -0.009516391 0.0019995032
0002d0 9f ed ad bc 44 39 5f bc 73 cd 2a 3d f6 28 7c bc
       -0.02123147 -0.013624493 0.041699838 -0.015390625
0002e0 f8 f8 83 3b 90 9d f5 bc 90 83 bd bb 28 c5 03 3d
       0.004027482 -0.029982358 -0.0057835057 0.032170445
0002f0 24 01 7d bd 87 6b 80 3c 41 56 07 3c 54 db e9 bb
       -0.061768666 0.015676273 0.008260311 -0.0071367417
000300 51 ad de 3c d3 ac 03 3d 7c 26 b9 bc 95 2d e3 bc
       0.027182253 0.03214724 -0.022601359 -0.027731696
000310 fc 40 a6 bc 38 91 e1 bc ed 23 b2 39 c2 b1 b2 3c
       -0.020294659 -0.027535066 0.00033977572 0.021813277
000320 f8 8d cb bc 74 77 01 3a f0 98 ba 3c 29 ee 17 3d
       -0.02484797 0.00049387594 0.022778004 0.03709236
000330 38 f7 2a bc 8b 8b 86 bc a1 f8 b2 bc fd 30 f1 bc
       -0.010434918 -0.016423961 -0.021847071 -0.029442305
000340 b1 7a 17 3b 03 09 13 bd 3c d4 75 bc 56 e7 5b 3d
       0.0023113901 -0.035897266 -0.015004214 0.053687416
000350 b5 c7 43 bd 43 8c 3a bd 1e ab fb bc 64 dc 9c 39
       -0.047797877 -0.04554392 -0.030721243 0.00029918842
000360 47 c2 0e 3c 18 dd d8 bc 8d 3b 87 bd 37 83 20 3c
       0.0087133115 -0.026472613 -0.06603155 0.009796909
000370 f8 27 08 bc 36 ce b8 3b 27 13 a8 bc 1e 6a ec bb
       -0.008310311 0.0056398166 -0.020516945 -0.0072147986
000380 b6 43 91 3c b3 ca a9 3c 14 0a 62 3b df b4 8c bc
       0.017732482 0.020726537 0.003449087 -0.01717609
000390 2f be da bc 46 56 55 3d 0c 4f 31 bd bb 2c a7 3b
       -0.026702015 0.05208423 -0.043288276 0.005101768
0003a0 d7 42 c4 3c 85 02 92 ba 9c 88 27 bc 23 86 9b 3c
       0.023957653 -0.0011139667 -0.010225441 0.01898486
0003b0 37 16 67 bb 52 fe 8e bc 9e 5e a0 3b d2 46 18 bc
       -0.0035261044 -0.017455254 0.0048940917 -0.009294229
0003c0 78 dc c1 bc 34 77 ee 3b d0 06 1a bd a1 5f 01 3d
       -0.023664698 0.0072773937 -0.037604153 0.03158534
0003d0 e2 23 bc bc 96 a8 82 3c dd 75 18 3c 6f 7f fd bb
       -0.022966329 0.015949529 0.009305445 -0.0077361385
0003e0 00 e2 8d bc 9d 9a ad bc 6c 70 13 bd 2d d4 07 3c
       -0.01731968 -0.02119189 -0.035995886 0.008290333
0003f0 c6 74 27 bc 12 0b f6 bc 1f df 5a 3d 49 ea e4 bc
       -0.010220712 -0.030034576 0.05343544 -0.027943747

network_body.linear_encoder.seq_layers.0.bias f4 [256]
000000 cb 20 1e bd 58 c7 29 bd 5a f6 50 bd f8 31 33 ba
       -0.038605493 -0.041449875 -0.05101619 -0.0006835754
000010 98 27 1d bd d6 b0 56 3b e2 25 f1 bc da c9 be 3c
       -0.038367838 0.003275921 -0.02943701 0.02328961
000020 ce 22 90 3c 40 08 59 bd 1c 2b b0 bc 8c 42 bb 3c
       0.017594721 -0.052986383 -0.021504931 0.02285888
000030 e6 b5 46 3c 2d 7f e0 bc 64 26 2b bd 22 85 e8 3b
       0.012128329 -0.027404392 -0.04178466 0.007095949
000040 3a 31 0d bd da a3 22 bd a0 c3 d6 3c 81 4c 0b 3b
       -0.034470774 -0.039707042 0.026216328 0.0021255317
000050 5c 0c 59 bb 48 29 9e bb a0 57 e8 bc 1c dc f1 3a
       -0.003311894 -0.0048266985 -0.028362095 0.0018452439
000060 2c 5d cf 3b ed ee 11 bd 27 06 f4 3c 40 98 d7 bb
       0.0063282456 -0.035628248 0.02978809 -0.006579429
000070 35 e5 07 bd 98 13 81 3c 5c db 11 3d c7 3b d1 3c
       -0.033177573 0.015756413 0.035609588 0.0255412
000080 5b 9c 36 3c de a2 cf 3b 06 d6 99 bd df 42 85 bc
       0.0111456765 0.006336554 -0.07511525 -0.016267238
000090 7e 43 42 3b 85 35 a3 3c ac e4 da 3c 3e 10 00 3c
       0.002964228 0.019922981 0.026720367 0.007816372
0000a0 85 81 d6 3b a6 69 74 bd 79 e1 24 bc 4c 43 90 3b
       0.0065462017 -0.059671067 -0.0100635225 0.0044025537
0000b0 9b 9b 54 3c 60 82 93 3b 1d ce 86 bd 29 23 a4 3c
       0.012976552 0.004501626 -0.06582282 0.020036297
0000c0 8a f7 11 3d fa 53 fd bc f6 41 1f ba 6d 65 b0 3b
       0.035636462 -0.030923832 -0.00060751976 0.0053831846
0000d0 bb 5e 83 bc 60 85 20 3d 34 0c 31 bd e3 c0 b8 3c
       -0.016036382 0.039189696 -0.04322453 0.022552913
0000e0 1b 80 1d 3c 01 21 16 bc fe 00 51 bd 15 1d ce 3c
       0.009613062 -0.009163142 -0.051026337 0.025160352
0000f0 35 1c 57 3b f5 4f fa 39 da 7d 20 bc 6a b6 a4 bc
       0.003282321 0.00047743288 -0.00979563 -0.020106513
000100 21 88 1b bd 64 86 14 3c 29 3c c9 3c 01 ee 20 bd
       -0.03797162 0.009065244 0.02456482 -0.03928948
000110 df 04 a6 bc ae a2 04 3d 9e 6a 0b 3d 62 65 66 3c
       -0.020265995 0.032381706 0.034037225 0.0140622575
000120 c8 09 34 bd 54 77 72 3d da 69 06 bd 24 fa dd 3c
       -0.04395464 0.05919583 -0.03281579 0.027096815
000130 47 a8 05 3d 6d 93 6c 3c ea a9 d7 3c bc 12 3b bd
       0.032631185 0.014439446 0.026326139 -0.045672163
000140 9b 5f a6 3c e6 94 b3 bd 90 cf 26 3d ba f5 4c bc
       0.02030926 -0.087686345 0.04072529 -0.012509758
000150 ec 62 11 3d 07 f8 93 3c 17 d6 57 3d 1a ad 96 bb
       0.03549473 0.018062605 0.052694406 -0.004598272
000160 4e 61 d5 3c 58 a3 2c 3c 19 7a c1 bb 70 07 65 3d
       0.026047375 0.010536991 -0.0059044478 0.055915296
000170 5a 05 e0 bc 6e 9e 40 bc 58 af 05 3d 86 50 57 3b
       -0.027346302 -0.011756523 0.032637924 0.0032854392
000180 d8 4f bf 3c f9 28 00 3d 1e f9 44 bd ec a0 12 bc
       0.023353502 0.031289075 -0.04808914 -0.0089495
000190 d5 b6 a5 3c 61 83 a5 3c 0b 08 00 bd f9 1c 12 3d
       0.020228783 0.020204248 -0.03125767 0.03567216
0001a0 bd 19 fc 3b 0c df 45 bc d2 e8 5a bd ba e2 0d bd
       0.007693498 -0.012077104 -0.05344469 -0.03464005
0001b0 e2 7e 11 3d 4f fb 2d 3b 3b da 16 bc 64 4a 09 3c
       0.035521396 0.0026547497 -0.009207304 0.0083795525
0001c0 fe 8a fe bc 55 c3 36 3d 42 19 9c 3c 54 1f 99 bc
       -0.031072136 0.044619877 0.019055013 -0.018691696
0001d0 4a be 32 bd 56 2d 83 3c 08 44 07 bd 6f bc d0 bc
       -0.043638505 0.016012829 -0.033023864 -0.025480477
0001e0 ad 66 15 bd d0 81 cc 3b 92 46 ac bd be 95 da bc
       -0.036474872 0.006241061 -0.08411898 -0.02668273
0001f0 9e e5 2f 3c a1 6d a4 39 6c 22 3c bd 62 d0 0e 3c
       0.010735897 0.00031362197 -0.045931265 0.0087166745
000200 f8 e7 d3 3c 6b f3 0a bc f1 ba ed 3b 3a 74 53 3c
       0.025867447 -0.008480887 0.007254951 0.012906129
000210 d7 6d 69 bc 67 9d 0a bd ca ee ae bc 7e fd 23 3c
       -0.014247379 -0.033841517 -0.021354098 0.010009168
000220 12 70 3c bb a2 32 01 3d d6 45 f4 bc 30 28 d2 3a
       -0.0028753323 0.031542428 -0.029818457 0.0016033705
000230 d8 e9 1f bd c4 77 00 3d 9e e7 c1 3c 2d c0 a5 bd
       -0.03904137 0.031364217 0.023670014 -0.08093295
000240 1f d1 a4 3c 52 96 61 bd 78 81 87 bc c6 e5 08 3d
       0.020119248 -0.055074997 -0.016541228 0.033422254
000250 53 38 44 bb 9c 7a 05 3a 04 02 83 3b 89 ef 45 bd
       -0.0029940798 0.00050918176 0.003998043 -0.04832414
000260 b4 7b 1b 3b 42 fc 8d 3c db 12 82 3c 21 d7 1c 3d
       0.0023724856 0.0173322 0.015878132 0.0382911
000270 da fb 26 bd 8c c4 9b bd 52 10 36 3c aa 94 1e 3c
       -0.040767528 -0.07605848 0.0111122895 0.009678999
000280 66 c8 5c bd 94 db b2 3c 69 3a fb 3c e4 3d 35 3d
       -0.053902052 0.021833219 0.0306675 0.044248477
000290 e4 e5 59 3c 90 b3 6f 3c 93 b2 ab 3c 3f 7a 43 3d
       0.013299439 0.014630213 0.020959174 0.047724005
0002a0 1a e7 51 bd 45 2d eb bb 66 d1 26 bc a1 f6 c0 3c
       -0.051245786 -0.0071770274 -0.01018176 0.023555102
0002b0 10 9a 2f bc 7b d4 ea bc fd f9 99 3c 6b 4d 96 bc
       -0.010717884 -0.028665772 0.018795962 -0.018347463
0002c0 0d fc b4 3b 59 81 f5 bc 54 19 6c 3c a8 2b c9 3b
       0.005523211 -0.029968904 0.014410336 0.0061392374
0002d0 44 47 d8 bc 67 32 90 b9 15 80 0f bd e1 9b 5c bc
       -0.02640117 -0.00027503373 -0.035034258 -0.013464899
0002e0 01 ce 07 3c 97 1f 24 3c 7c 97 19 3c ca a8 03 3d
       0.008288861 0.010017297 0.009374496 0.03214339
0002f0 dd 90 80 bc 80 65 08 3c 8e bb 2b bd 05 83 1e bd
       -0.015694076 0.008324981 -0.041926913 -0.03869917
000300 19 4c fd 3c 5c 79 e7 3b 48 b2 be bc 67 66 ce 3b
       0.030920075 0.0070640277 -0.02327837 0.0062988284
000310 e4 07 c7 3b bd e3 61 3b fc 7d c4 bc 1a 0c 9d 3c
       0.0060739387 0.0034468018 -0.023985855 0.01917081
000320 ea 79 00 3b 02 a0 8e 3c 25 9d 21 3c 1a e9 31 3d
       0.0019603916 0.017410282 0.009864126 0.043435194
000330 b8 c7 09 3d de 55 00 3c 4f 79 a6 bc ae 00 84 3c
       0.033637732 0.007832972 -0.020321516 0.016113605
000340 df 82 97 3a dd ca 25 3d 05 50 1c 3d 6f d7 36 bd
       0.0011559388 0.04047667 0.03816225 -0.044639047
000350 fa a1 48 bd c1 99 2f bd ae 38 26 bd 65 86 68 bc
       -0.048982598 -0.04287124 -0.040581398 -0.014192198
000360 6d c3 16 bc 6f c9 5d bc 55 46 15 3c 4a 65 17 bc
       -0.009201867 -0.013536795 0.009111007 -0.009240458
000370 67 53 7a bc ca 1e 08 bd c8 b3 e1 3c 8b 75 8b bd
       -0.015278674 -0.033232488 0.027551547 -0.06809529
000380 12 b0 1c bd b2 b7 df bc aa 05 77 3c 89 ee 28 3d
       -0.03825385 -0.027309272 0.015077034 0.04124311
000390 31 5a 0f 3d 50 df 39 3d 91 9c 89 3c ee 71 67 bc
       0.034998123 0.045378983 0.01679829 -0.014126284
0003a0 38 19 b4 3c 0b 1a 30 bd e2 5b 6f ba af 61 75 bd
       0.021984681 -0.042993587 -0.0009130818 -0.05990761
0003b0 36 a9 21 ba 4d 64 01 3d fc 5f 1c bd 91 32 c8 bc
       -0.0006166877 0.031589795 -0.038177475 -0.024438174
0003c0 77 e6 26 bd 22 9d bb 3c 9a 20 46 3c 9a 4d 11 3c
       -0.040747132 0.022902075 0.012092734 0.008868599
0003d0 52 07 48 3c b6 b8 9f bd 0b bc b6 bc 8a e0 b0 3c
       0.012208777 -0.07798903 -0.022306463 0.021591444
0003e0 28 fd 4e bb e9 f2 ec 3a 13 74 28 3c 07 a5 ad bc
       -0.0031583998 0.0018077764 0.0102815805 -0.021196855
0003f0 9d f4 62 bb c7 66 a6 ba 57 80 22 3d 79 4e 0b 3d
       -0.0034630664 -0.0012695425 0.039673176 0.034010384
