MLagents/results/hb_03/Mario/checkpoint.pt (torch, 696567 bytes, 23 tensors)

network_body.vector_processors.0.normalizer.running_mean f4 [69]
0	0x00000000	0.0
1	0x00000000	0.0
2	0x3f7fde98	0.99949026
3	0x3f7fde98	0.99949026
4	0x3dd0c43e	0.1019368
5	0x00000000	0.0
6	0x00000000	0.0
7	0x00000000	0.0
8	0x3dd0c43e	0.1019368
9	0x00000000	0.0
10	0x00000000	0.0
11	0x00000000	0.0
12	0x3dd3e5e8	0.103465855
13	0x00000000	0.0
14	0x00000000	0.0
15	0x00000000	0.0
16	0x3dd3e5e8	0.103465855
17	0x00000000	0.0
18	0x00000000	0.0
19	0x00000000	0.0
20	0x3de06c8f	0.10958206
21	0x00000000	0.0
22	0x00000000	0.0
23	0x00000000	0.0
24	0x3de06c8f	0.10958206
25	0x00000000	0.0
26	0x00000000	0.0
27	0x00000000	0.0
28	0x3debe7fe	0.115188584
29	0x00000000	0.0
30	0x00000000	0.0
31	0x00000000	0.0
32	0x3decf336	0.11569826
33	0x00000000	0.0
34	0x00000000	0.0
35	0x00000000	0.0
36	0x3e01f50a	0.12691131
37	0x3a059c50	0.000509684
38	0x00000000	0.0
39	0x00000000	0.0
40	0x3dfc9b88	0.12334353
41	0x3a059c50	0.000509684
42	0x00000000	0.0
43	0x00000000	0.0
44	0x3e1c0d92	0.15239552
45	0x00000000	0.0
46	0x00000000	0.0
47	0x00000000	0.0
48	0x3e1222f8	0.14271152
49	0x3a059c50	0.000509684
50	0x00000000	0.0
51	0x00000000	0.0
52	0x3e2fe2c6	0.17176351
53	0x00000000	0.0
54	0x00000000	0.0
55	0x00000000	0.0
56	0x3e246756	0.16055045
57	0x3a059c50	0.000509684
58	0x00000000	0.0
59	0x00000000	0.0
60	0x3f7fde98	0.99949026
61	0x00000000	0.0
62	0x00000000	0.0
63	0x3e0b510c	0.13605136
64	0x3ea7f619	0.32804945
65	0x00000000	0.0
66	0xbf7fdc7b	-0.999458
67	0x3bb1a5c7	0.0054213735
68	0x00000000	0.0

network_body.vector_processors.0.normalizer.running_variance f4 [69]
0	0x3f800000	1.0
1	0x3f800000	1.0
2	0x3ffff0ca	1.9995358
3	0x3ffff0ca	1.9995358
4	0x43349cd6	180.61264
5	0x3f800000	1.0
6	0x3f800000	1.0
7	0x3f800000	1.0
8	0x43349cd6	180.61264
9	0x3f800000	1.0
10	0x3f800000	1.0
11	0x3f800000	1.0
12	0x4336ff16	182.99643
13	0x3f800000	1.0
14	0x3f800000	1.0
15	0x3f800000	1.0
16	0x4336ff16	182.99643
17	0x3f800000	1.0
18	0x3f800000	1.0
19	0x3f800000	1.0
20	0x4340709a	192.43985
21	0x3f800000	1.0
22	0x3f800000	1.0
23	0x3f800000	1.0
24	0x4340709a	192.43985
25	0x3f800000	1.0
26	0x3f800000	1.0
27	0x3f800000	1.0
28	0x4348f7a6	200.96738
29	0x3f800000	1.0
30	0x3f800000	1.0
31	0x3f800000	1.0
32	0x4349bc8b	201.7365
33	0x3f800000	1.0
34	0x3f800000	1.0
35	0x3f800000	1.0
36	0x435a6628	218.39905
37	0x3fffef4c	1.9994903
38	0x3f800000	1.0
39	0x3f800000	1.0
40	0x435526a0	213.15088
41	0x3fffef4c	1.9994903
42	0x3f800000	1.0
43	0x3f800000	1.0
44	0x437e6f0a	254.43375
45	0x3f800000	1.0
46	0x3f800000	1.0
47	0x3f800000	1.0
48	0x43710a71	241.04079
49	0x3fffef4c	1.9994903
50	0x3f800000	1.0
51	0x3f800000	1.0
52	0x438c0ecf	280.1157
53	0x3f800000	1.0
54	0x3f800000	1.0
55	0x3f800000	1.0
56	0x4384b69b	265.4266
57	0x3fffef4c	1.9994903
58	0x3f800000	1.0
59	0x3f800000	1.0
60	0x3ffff0ca	1.9995358
61	0x3f800000	1.0
62	0x3f800000	1.0
63	0x449c71b5	1251.5533
64	0x43e7fe48	463.98657
65	0x3f800000	1.0
66	0x3fffed3a	1.9994271
67	0x3f88dac7	1.0691766
68	0x3f800000	1.0

network_body.linear_encoder.seq_layers.0.weight f4 [256, 69]
0	0x3cba3d7b	0.022734394
1	0xbcf997b6	-0.03046785
2	0x3cfb172a	0.030650694
3	0xbd317d92	-0.043332644
4	0x3d273af6	0.040827714
5	0xbd8bf33f	-0.06833505
6	0x3cded1a6	0.027199578
7	0x3c901369	0.01758738
8	0x3b853d26	0.0040661274
9	0xbdef692c	-0.11689982
10	0xbd7a9c53	-0.06118424
11	0x3c036258	0.008019052
12	0x3bea81a0	0.007156566
13	0x3b980ab3	0.0046399473
14	0xbe035e7c	-0.12829012
15	0xbdb79b4a	-0.08965166
16	0xbd58705f	-0.05284154
17	0x3e1aa7a1	0.15103008
18	0x3def45af	0.11683213
19	0xbd12d4ca	-0.035847463
20	0xbe5a5f0b	-0.21325319
21	0x3e829d43	0.25510606
22	0xbbf4aa66	-0.007466602
23	0xbd01deea	-0.031706728
24	0xbde6c55f	-0.11268114
25	0xbd1e5792	-0.038657732
26	0xbcfd034f	-0.030885367
27	0x3b2996d9	0.0025877266
28	0x3d24fb87	0.040278938
29	0xbe7567fb	-0.23965447
30	0x3d51b802	0.051200874
31	0x3e1279c4	0.14304262
32	0xbab0c6f3	-0.0013487026
33	0x3e12bc68	0.14329684
34	0xbe0bc555	-0.13649495
35	0x3d2d05e4	0.042241946
36	0xbe0d772f	-0.13814996
37	0x3dbd2d73	0.092371844
38	0xbca4e92e	-0.02013072
39	0xbe3470c6	-0.17621145
40	0xbd4e5451	-0.05037338
41	0xbcea70a3	-0.028618162
42	0x3d23f48c	0.04002814
43	0x3c9fb74e	0.019496586
44	0x3e09c5bd	0.13454337
45	0x3e71c504	0.23610312
46	0x3d8c9eb8	0.06866211
47	0x3a5e7c96	0.00084871927
48	0xbe260c9a	-0.16215745
49	0xbd72ede3	-0.059308898
50	0xbdb941fb	-0.09045788
51	0x3e0d951c	0.13826412
52	0xbdde461a	-0.108532146
53	0x3d820351	0.06348289
54	0x3e0bd3d1	0.1365502
55	0xbd5805a7	-0.052739765
56	0x3d317127	0.0433208
57	0x3d7bc6ed	0.061469007
58	0x3c8af9c6	0.016964804
59	0x3d5774e6	0.052601717
60	0x3da07632	0.07835044
61	0xbe83d906	-0.25751513
62	0xbbbe23e5	-0.005802619
63	0xbda13f6b	-0.07873424
64	0x3db381ee	0.087650165
65	0x3e201235	0.15631945
66	0x3d928c41	0.071556576
67	0x3d004b4e	0.031321816
68	0xbecdc8c6	-0.4019224
69	0xbda0b3f8	-0.07846826
70	0xbe05d7fa	-0.1307067
71	0xbdfa6cb6	-0.12227766
72	0xbdcbd98a	-0.09953602
73	0x3bbf6d4b	0.005841886
74	0x3bea53e0	0.007151112
75	0xbe060ff9	-0.1309203
76	0xbe400df3	-0.18755321
77	0xbd982022	-0.07428004
78	0xbdd833fe	-0.10556792
79	0x3e01ac5a	0.12663403
80	0xbd33042c	-0.04370515
81	0x3e0284de	0.12745997
82	0xbe04cd2d	-0.12968893
83	0xbcf506c6	-0.029910456
84	0x3d5367de	0.051612727
85	0x3d18dcfc	0.037320122
86	0x3e69f625	0.22847803
87	0xbdcda3fa	-0.10041042
88	0xbc95abd6	-0.018270414
89	0xbe499f53	-0.19689684
90	0x3c6647a6	0.014055168
91	0xbbe91ab4	-0.007113779
92	0xbd85a3db	-0.065253936
93	0xbd33254e	-0.04373675
94	0x3e87462c	0.26420724
95	0xbd1ad750	-0.037802994
96	0x3e00f177	0.12592112
97	0x3b2ac130	0.002605509
98	0x3b336cef	0.0027378162
99	0xbce15e13	-0.027510678
100	0xbdbad890	-0.09123337
101	0xbe038371	-0.1284311
102	0xbe33c549	-0.17555727
103	0xbcf1bbc3	-0.029508477
104	0x3be0af63	0.006856845
105	0xbd669858	-0.05629763
106	0xbe2f568d	-0.1712286
107	0xbb927d17	-0.0044704783
108	0x3d90471e	0.070448145
109	0xbc876f9d	-0.016532714
110	0x3cab1864	0.020885654
111	0xbd9cbfa3	-0.07653739
112	0x3e3d8a68	0.18509829
113	0xbd41eb38	-0.047343463
114	0xbde2c198	-0.11072081
115	0xbe5d21fa	-0.21594992
116	0xbdff59bb	-0.124682866
117	0xbcf3e747	-0.029773368
118	0xbdfcfd70	-0.12353027
119	0xbe249c2a	-0.16075197
120	0x3c8a5323	0.016885346
121	0x3e38b3d5	0.1803735
122	0x3cea7883	0.028621918
123	0xbdf8b4a2	-0.12143828
124	0x3bc588fc	0.0060282927
125	0xbc544a5b	-0.012957181
126	0xbe93ce81	-0.28868487
127	0xbdf00c35	-0.11721078
128	0x3e4d5205	0.20050819
129	0x3c649cf7	0.013953439
130	0x3e05a801	0.1305237
131	0xbd31ba66	-0.043390654
132	0x3d9bd8d4	0.07609716
133	0x3e164b9c	0.1467728
134	0xbdacd76f	-0.08439528
135	0x3d7b22ba	0.061312415
136	0x3e433ef6	0.19066986
137	0x3d11d66a	0.03560487
138	0xbe0c3f7f	-0.13696097
139	0xbe38417a	-0.17993727
140	0x3c58a90b	0.013223897
141	0x3dea6b18	0.11446208
142	0x3e346645	0.17617138
143	0x3cea1cef	0.02857825
144	0xbdd5a5fa	-0.10432048
145	0xbd7ad465	-0.06123771
146	0xbe2f0c8d	-0.17094631
147	0xbe4e1f4b	-0.20129125
148	0xbbff69f4	-0.007794613
149	0xbd93b02d	-0.07211337
150	0xbd995570	-0.07486999
151	0xbcfdd463	-0.030985063
152	0x3e12750b	0.14302461
153	0xbde6c041	-0.11267138
154	0xbe2bd8db	-0.16781943
155	0x3cd49ca3	0.025953596
156	0xbd2729be	-0.040811293
157	0xbe0c010d	-0.13672276
158	0x3b1b977e	0.002374142
159	0xbe85134e	-0.2599129
160	0x3dd3983f	0.10331773
161	0x3e34a54d	0.17641182
162	0x3c18c449	0.009324142
163	0xbe1e8c91	-0.1548331
164	0x3cc0e34f	0.02354589
165	0xbd7d92e6	-0.06190767
166	0x3c8b1af7	0.016980631
167	0xbe62c41e	-0.22145125
168	0x3ddb6ac4	0.10713723
169	0x3d8b84d8	0.06812447
170	0x3db7560d	0.0895196
171	0x3c84d099	0.016212748
172	0xbd256d8a	-0.040387668
173	0xbd4ab978	-0.049493283
174	0x3d93c496	0.0721523
175	0x3cb3be4e	0.02194133
176	0xbe845143	-0.25843248
177	0x3d5f3eec	0.054503366
178	0xbdc33259	-0.095310874
179	0xbe5d54af	-0.21614335
180	0x3e6ccb89	0.23124518
181	0xbe341db9	-0.17589463
182	0xbe0fe958	-0.14053857
183	0xbe0a6b43	-0.1351748
184	0x3d904fda	0.070464805
185	0x3dbd33a7	0.092383675
186	0xbd8f5301	-0.069982536
187	0xbdf68951	-0.1203791
188	0x3d2649e7	0.040597823
189	0x3dcbcafa	0.09950824
190	0xbe5800e8	-0.21094096
191	0xbdcece2b	-0.10097917
192	0x3d759559	0.059956882
193	0x3dcf7809	0.10130317
194	0x3d9b28e6	0.0757616
195	0xbe168e49	-0.14702715
196	0x3d4f7f94	0.050658777
197	0xbd910ea8	-0.070828736
198	0xbbea516b	-0.007150819
199	0x3da4e215	0.08050934
200	0xbd4b6400	-0.049655914
201	0xbd66fc8b	-0.056393187
202	0xbda43f4d	-0.08019886
203	0xbd8e4a52	-0.06947769
204	0x3d8f16d8	0.06986779
205	0x3de7f8d0	0.11326754
206	0x3c880e6e	0.016608443
207	0x3dcf851e	0.10132812
208	0xbdea6f0d	-0.114469625
209	0xbd4554ba	-0.048176505
210	0xbbf4a7a4	-0.0074662734
211	0x3d5f40bb	0.05450509
212	0xbdfb0789	-0.122572966
213	0xbe233074	-0.15936452
214	0x3df12976	0.11775486
215	0x3cbb0c24	0.022832938
216	0x3d9409d1	0.07228435
217	0xbce6075b	-0.02807968
218	0xbc683592	-0.014172928
219	0xbe21a48b	-0.15785424
220	0xbe6936e4	-0.22774845
221	0x3e1fa0c0	0.15588665
222	0xbe2e80d4	-0.17041332
223	0xbbcfa967	-0.006337333
224	0x3d03a037	0.032135215
225	0x3cdd44cb	0.027010342
226	0xbe3d4bef	-0.18485998
227	0x3e2a152b	0.16609637
228	0x3d947330	0.07248533
229	0x3b5b313c	0.0033446094
230	0x3d5fdcb9	0.054653857
231	0xbc427f6a	-0.011871198
232	0xbe6d557c	-0.23177141
233	0x3dffec5c	0.12496254
234	0x3d85038c	0.06494817
235	0xbd5ecc74	-0.0543942
236	0x3e0e5510	0.13899636
237	0x3e37c5fb	0.17946617
238	0x3dfbbeb0	0.1229223
239	0xbe4f39a0	-0.20236826
240	0x378ce23a	1.6794645e-05
241	0x3d88793b	0.06663748
242	0x3d089d8b	0.03335337
243	0xbdc95ed3	-0.098325394
244	0x3d8cbdf4	0.06872168
245	0x3e5927b5	0.21206553
246	0xbda253d7	-0.079261474
247	0xbb565ad4	-0.0032707946
248	0xbd0c77fe	-0.03429412
249	0x3dba945d	0.09110329
250	0xbbe41bea	-0.0069613354
251	0xbdacf41d	-0.084449984
252	0xbcfe130e	-0.031014945
253	0x3e4248c1	0.18973066
254	0xbce17d3f	-0.027525542
255	0x3d9eead5	0.077596344

network_body.linear_encoder.seq_layers.0.bias f4 [256]
0	0x00000000	0.0
1	0x00000000	0.0
2	0x00000000	0.0
3	0x00000000	0.0
4	0x00000000	0.0
5	0x00000000	0.0
6	0x00000000	0.0
7	0x00000000	0.0
8	0x00000000	0.0
9	0x00000000	0.0
10	0x00000000	0.0
11	0x00000000	0.0
12	0x00000000	0.0
13	0x00000000	0.0
14	0x00000000	0.0
15	0x00000000	0.0
16	0x00000000	0.0
17	0x00000000	0.0
18	0x00000000	0.0
19	0x00000000	0.0
20	0x00000000	0.0
21	0x00000000	0.0
22	0x00000000	0.0
23	0x00000000	0.0
24	0x00000000	0.0
25	0x00000000	0.0
26	0x00000000	0.0
27	0x00000000	0.0
28	0x00000000	0.0
29	0x00000000	0.0
30	0x00000000	0.0
31	0x00000000	0.0
32	0x00000000	0.0
33	0x00000000	0.0
34	0x00000000	0.0
35	0x00000000	0.0
36	0x00000000	0.0
37	0x00000000	0.0
38	0x00000000	0.0
39	0x00000000	0.0
40	0x00000000	0.0
41	0x00000000	0.0
42	0x00000000	0.0
43	0x00000000	0.0
44	0x00000000	0.0
45	0x00000000	0.0
46	0x00000000	0.0
47	0x00000000	0.0
48	0x00000000	0.0
49	0x00000000	0.0
50	0x00000000	0.0
51	0x00000000	0.0
52	0x00000000	0.0
53	0x00000000	0.0
54	0x00000000	0.0
55	0x00000000	0.0
56	0x00000000	0.0
57	0x00000000	0.0
58	0x00000000	0.0
59	0x00000000	0.0
60	0x00000000	0.0
61	0x00000000	0.0
62	0x00000000	0.0
63	0x00000000	0.0
64	0x00000000	0.0
65	0x00000000	0.0
66	0x00000000	0.0
67	0x00000000	0.0
68	0x00000000	0.0
69	0x00000000	0.0
70	0x00000000	0.0
71	0x00000000	0.0
72	0x00000000	0.0
73	0x00000000	0.0
74	0x00000000	0.0
75	0x00000000	0.0
76	0x00000000	0.0
77	0x00000000	0.0
78	0x00000000	0.0
79	0x00000000	0.0
80	0x00000000	0.0
81	0x00000000	0.0
82	0x00000000	0.0
83	0x00000000	0.0
84	0x00000000	0.0
85	0x00000000	0.0
86	0x00000000	0.0
87	0x00000000	0.0
88	0x00000000	0.0
89	0x00000000	0.0
90	0x00000000	0.0
91	0x00000000	0.0
92	0x00000000	0.0
93	0x00000000	0.0
94	0x00000000	0.0
95	0x00000000	0.0
96	0x00000000	0.0
97	0x00000000	0.0
98	0x00000000	0.0
99	0x00000000	0.0
100	0x00000000	0.0
101	0x00000000	0.0
102	0x00000000	0.0
103	0x00000000	0.0
104	0x00000000	0.0
105	0x00000000	0.0
106	0x00000000	0.0
107	0x00000000	0.0
108	0x00000000	0.0
109	0x00000000	0.0
110	0x00000000	0.0
111	0x00000000	0.0
112	0x00000000	0.0
113	0x00000000	0.0
114	0x00000000	0.0
115	0x00000000	0.0
116	0x00000000	0.0
117	0x00000000	0.0
118	0x00000000	0.0
119	0x00000000	0.0
120	0x00000000	0.0
121	0x00000000	0.0
122	0x00000000	0.0
123	0x00000000	0.0
124	0x00000000	0.0
125	0x00000000	0.0
126	0x00000000	0.0
127	0x00000000	0.0
128	0x00000000	0.0
129	0x00000000	0.0
130	0x00000000	0.0
131	0x00000000	0.0
132	0x00000000	0.0
133	0x00000000	0.0
134	0x00000000	0.0
135	0x00000000	0.0
136	0x00000000	0.0
137	0x00000000	0.0
138	0x00000000	0.0
139	0x00000000	0.0
140	0x00000000	0.0
141	0x00000000	0.0
142	0x00000000	0.0
143	0x00000000	0.0
144	0x00000000	0.0
145	0x00000000	0.0
146	0x00000000	0.0
147	0x00000000	0.0
148	0x00000000	0.0
149	0x00000000	0.0
150	0x00000000	0.0
151	0x00000000	0.0
152	0x00000000	0.0
153	0x00000000	0.0
154	0x00000000	0.0
155	0x00000000	0.0
156	0x00000000	0.0
157	0x00000000	0.0
158	0x00000000	0.0
159	0x00000000	0.0
160	0x00000000	0.0
161	0x00000000	0.0
162	0x00000000	0.0
163	0x00000000	0.0
164	0x00000000	0.0
165	0x00000000	0.0
166	0x00000000	0.0
167	0x00000000	0.0
168	0x00000000	0.0
169	0x00000000	0.0
170	0x00000000	0.0
171	0x00000000	0.0
172	0x00000000	0.0
173	0x00000000	0.0
174	0x00000000	0.0
175	0x00000000	0.0
176	0x00000000	0.0
177	0x00000000	0.0
178	0x00000000	0.0
179	0x00000000	0.0
180	0x00000000	0.0
181	0x00000000	0.0
182	0x00000000	0.0
183	0x00000000	0.0
184	0x00000000	0.0
185	0x00000000	0.0
186	0x00000000	0.0
187	0x00000000	0.0
188	0x00000000	0.0
189	0x00000000	0.0
190	0x00000000	0.0
191	0x00000000	0.0
192	0x00000000	0.0
193	0x00000000	0.0
194	0x00000000	0.0
195	0x00000000	0.0
196	0x00000000	0.0
197	0x00000000	0.0
198	0x00000000	0.0
199	0x00000000	0.0
200	0x00000000	0.0
201	0x00000000	0.0
202	0x00000000	0.0
203	0x00000000	0.0
204	0x00000000	0.0
205	0x00000000	0.0
206	0x00000000	0.0
207	0x00000000	0.0
208	0x00000000	0.0
209	0x00000000	0.0
210	0x00000000	0.0
211	0x00000000	0.0
212	0x00000000	0.0
213	0x00000000	0.0
214	0x00000000	0.0
215	0x00000000	0.0
216	0x00000000	0.0
217	0x00000000	0.0
218	0x00000000	0.0
219	0x00000000	0.0
220	0x00000000	0.0
221	0x00000000	0.0
222	0x00000000	0.0
223	0x00000000	0.0
224	0x00000000	0.0
225	0x00000000	0.0
226	0x00000000	0.0
227	0x00000000	0.0
228	0x00000000	0.0
229	0x00000000	0.0
230	0x00000000	0.0
231	0x00000000	0.0
232	0x00000000	0.0
233	0x00000000	0.0
234	0x00000000	0.0
235	0x00000000	0.0
236	0x00000000	0.0
237	0x00000000	0.0
238	0x00000000	0.0
239	0x00000000	0.0
240	0x00000000	0.0
241	0x00000000	0.0
242	0x00000000	0.0
243	0x00000000	0.0
244	0x00000000	0.0
245	0x00000000	0.0
246	0x00000000	0.0
247	0x00000000	0.0
248	0x00000000	0.0
249	0x00000000	0.0
250	0x00000000	0.0
251	0x00000000	0.0
252	0x00000000	0.0
253	0x00000000	0.0
254	0x00000000	0.0
255	0x00000000	0.0

network_body.linear_encoder.seq_layers.2.weight f4 [256, 256]
0	0x3c1c1c62	0.009528251
1	0x3dc174ee	0.09446131
2	0xbd875ade	-0.066091284
3	0xbc2854a6	-0.010274088
4	0xbbe682f0	-0.007034652
5	0xbcb57c2e	-0.02215394
6	0x3c48fb71	0.01226698
7	0xbdab463a	-0.08363004
8	0xbc8d16e7	-0.017222835
9	0x3dd2e837	0.10298198
10	0xbdea4a09	-0.11439902
11	0x3d28cc2e	0.041210346
12	0x3d2ae636	0.041723453
13	0x3d1202e0	0.035647273
14	0x3d3f6fc4	0.046737447
15	0xbd3e939a	-0.046527483
16	0xbdf69ad8	-0.12041253
17	0xbc2bbade	-0.010481564
18	0xbdb59660	-0.088665724
19	0x3ca659f6	0.020306569
20	0xbc0d0906	-0.008608108
21	0x3cbcc1a2	0.02304155
22	0xbd3fc606	-0.04681971
23	0x3ca721d7	0.020401878
24	0xbe244593	-0.16042165
25	0xbd89ce03	-0.06728747
26	0x3d2f3df2	0.042783685
27	0x3bdcc823	0.0067377253
28	0xbe02fb8f	-0.12791274
29	0x3dd43380	0.10361385
30	0xbd8ca090	-0.06866562
31	0x3dbcc2e3	0.09216859
32	0xbe1c90c5	-0.152896
33	0xbe38ddae	-0.18053314
34	0x3dcb03bd	0.099128224
35	0xbdb22b7b	-0.086996995
36	0xbcb2e638	-0.021838292
37	0x3d81eaae	0.0634359
38	0x3e1f4ade	0.15555903
39	0xba523fcb	-0.000802037
40	0x3c0a0c6a	0.008425811
41	0x3e19e836	0.15029988
42	0x3d6696a9	0.056296024
43	0xbd99ebc5	-0.075156726
44	0xbc1b1cfb	-0.009467359
45	0xbdd7c23c	-0.10535094
46	0x3d18517b	0.03718708
47	0xbe24b946	-0.16086301
48	0x3d15e868	0.036598593
49	0x3ca77f18	0.020446345
50	0x3d8023ff	0.06256866
51	0xbc3dbe70	-0.011581048
52	0xbd9c77ed	-0.076400615
53	0xbd75911e	-0.059952848
54	0x3de8273a	0.11335607
55	0x3c1eae45	0.009685104
56	0xbd172674	-0.036901906
57	0xbc2d716d	-0.010586125
58	0xbe2e7ea3	-0.17040496
59	0x3e2a54a1	0.16633846
60	0xbc1149a7	-0.008867658
61	0xbd7c1303	-0.06154157
62	0x3a835998	0.0010021208
63	0x3ba1f47d	0.0049424754
64	0x3c637609	0.013883122
65	0x3c9af061	0.01891345
66	0x3b4699b1	0.003030401
67	0xbd20b59c	-0.039235696
68	0xbde5aa22	-0.11214091
69	0xbc2144d2	-0.009843068
70	0xbe2f1e46	-0.17101392
71	0x3d7ff33c	0.062487826
72	0xbe09523e	-0.13410279
73	0xbd183918	-0.037163824
74	0x3bdfd0f6	0.00683033
75	0x3d311324	0.043231145
76	0x3b9433cc	0.004522776
77	0xbdfbdcd8	-0.12297982
78	0xbdbd833a	-0.09253545
79	0x3d234557	0.03986105
80	0xbddf88fb	-0.10914799
81	0xbc9db438	-0.019250974
82	0xbd15d7f4	-0.036582902
83	0xbe23bd80	-0.15990257
84	0x3de795cc	0.11307868
85	0xbc8d0ef8	-0.017219052
86	0x3dcd86c1	0.10035468
87	0xbcf5bc30	-0.029996961
88	0xbd45e3cb	-0.048312943
89	0x3cb53012	0.022117648
90	0x3de2f1fc	0.11081311
91	0x3db7e4fd	0.08979223
92	0xbd6c5e7f	-0.057707306
93	0xbcc8f182	-0.024529222
94	0x3bb7ab33	0.0056051253
95	0xbd57be34	-0.052671626
96	0x3d28a78c	0.04117541
97	0x3d6cd4c3	0.057820093
98	0xbe05f5b5	-0.13082011
99	0xbcac676f	-0.021045415
100	0x3ced4032	0.028961275
101	0x3baf9c93	0.0053592413
102	0xbce7e55a	-0.028307606
103	0x3d5bce09	0.053663287
104	0x3dc14438	0.0943684
105	0xbd212a72	-0.03934712
106	0xbd6f7cad	-0.05846851
107	0xbc0e315f	-0.008678763
108	0x3d7173f4	0.058948472
109	0xbd549044	-0.051895395
110	0xbcac5c33	-0.021040058
111	0x3e31f9e4	0.17380482
112	0x3d81c2c5	0.063359775
113	0xbae9f272	-0.0017848744
114	0xbd86f8ff	-0.06590461
115	0xbc96e53f	-0.01841986
116	0x3d420a5a	0.047373153
117	0xbdbefbbd	-0.09325359
118	0x3c9b8577	0.01898454
119	0x3cd46ede	0.025931772
120	0x3d7b2e5f	0.06132352
121	0xbd12c5eb	-0.03583328
122	0x3c88bbcb	0.01669111
123	0x3d148cff	0.036267277
124	0x3d4b5a3a	0.049646594
125	0x3ddfa3d6	0.10919921
126	0x3db52817	0.08845537
127	0x3cdaac15	0.026693383
128	0xbcbefd96	-0.023314279
129	0xbd3f9924	-0.046776906
130	0x3dca0445	0.098640956
131	0x3db0b631	0.086285
132	0xbcfcb1e5	-0.030846545
133	0xbd273604	-0.040822998
134	0xbc3ee210	-0.011650577
135	0xbbf1b697	-0.0073765027
136	0x3da6d451	0.08145965
137	0x3cec0c8d	0.028814578
138	0x3d0b433f	0.033999678
139	0x3dde9bd0	0.108695626
140	0xbde85724	-0.11344746
141	0xbd40b3e9	-0.047046576
142	0x3db0d4ab	0.08634313
143	0x3cb69059	0.022285627
144	0xbce5f241	-0.028069617
145	0x3ce41a7a	0.027844656
146	0x3a33b1f2	0.0006854824
147	0xbc7cffb3	-0.015441823
148	0xbd02e1ad	-0.031953502
149	0x3d94c3b5	0.07263891
150	0xbbf9813f	-0.0076142843
151	0xbc4206cf	-0.011842444
152	0xbd09ed82	-0.03367377
153	0x3cc8f569	0.024531083
154	0x3dd75286	0.10513787
155	0x3c411443	0.011784616
156	0xbb8f8ad2	-0.0043805623
157	0xbc59bc6a	-0.01328955
158	0x3c516cb0	0.012782261
159	0x3c9baca6	0.019003224
160	0x3d48bbb4	0.049007133
161	0xbafc9a72	-0.0019272103
162	0x3c987473	0.018610215
163	0x3cf08dc0	0.029364467
164	0xbb336c0d	-0.0027377636
165	0x3afa63d5	0.0019103239
166	0xbc0bb3e3	-0.008526775
167	0x3cf8b7de	0.030361112
168	0x3d69971f	0.057028886
169	0x3d073edf	0.033018943
170	0xbd50ae9e	-0.050947778
171	0xbd9a7894	-0.0754253
172	0xbdcd9663	-0.100384496
173	0xbdfd38ac	-0.12364325
174	0xb9923e37	-0.00027893644
175	0xbe01474a	-0.12624851
176	0xbac06ed6	-0.0014681469
177	0x3d6d16b4	0.05788298
178	0x3d4131e8	0.047166735
179	0xbd290886	-0.041267894
180	0x3d6c3f67	0.057677653
181	0x3dc624fe	0.096750244
182	0xbd995a7e	-0.07487963
183	0x3dbfd444	0.09366658
184	0x3c8f9b3f	0.017530082
185	0x3c843504	0.016138561
186	0xbd9883db	-0.074470244
187	0xbcefb441	-0.029260756
188	0x3d335620	0.043783307
189	0x3d15e894	0.036598757
190	0xbd5b575d	-0.053550113
191	0x3cd27e66	0.025695037
192	0xbda46bf9	-0.08028407
193	0x3dabd20d	0.083896734
194	0xbd5f4a2a	-0.054514088
195	0x3d4b3cdf	0.049618598
196	0xbdd55f2a	-0.10418542
197	0xbd40eae0	-0.047098994
198	0x3dad4543	0.08460476
199	0x3d324f1f	0.043532487
200	0x3c9bb8de	0.01900905
201	0x3d93c374	0.07215014
202	0x3d0a3835	0.03374501
203	0xbd21aacb	-0.03946952
204	0xbc46a5da	-0.012124503
205	0xbc5eda59	-0.013601863
206	0xbd641897	-0.055687513
207	0x3c7d32cb	0.0154540045
208	0x3af1b5bd	0.0018441003
209	0xbd153b12	-0.036433287
210	0x3d3a5312	0.04548938
211	0xbc834883	-0.016025787
212	0x3d601170	0.05470413
213	0x3cfc2d64	0.030783363
214	0xbd2bb4f6	-0.041920625
215	0x3d0f1fbd	0.034942377
216	0xbd21f363	-0.039538752
217	0x3d526edf	0.051375266
218	0x3d204fb8	0.039138526
219	0xbb439dda	-0.0029848726
220	0xbda5596d	-0.08073697
221	0x3d58181e	0.052757375
222	0xbbbcfaa9	-0.0057671857
223	0xbd3f1bbe	-0.046657316
224	0xba8cb887	-0.0010736146
225	0xbc1fdac8	-0.009756751
226	0x3cdef0d0	0.027214438
227	0xbc3d9429	-0.011570969
228	0x3bfda23a	0.007740286
229	0x3dabbcdd	0.08385632
230	0x3d19c782	0.03754378
231	0xbb0b1b9f	-0.002122618
232	0x3d2bc1be	0.041932814
233	0x3c6c9f60	0.014442295
234	0x3c856feb	0.016288718
235	0xbc210bf7	-0.009829513
236	0x3ccee6d3	0.02525655
237	0xbbcb0866	-0.0061960695
238	0x3cb2de42	0.021834496
239	0x3b1f5518	0.0024312194
240	0x3d853b82	0.06505491
241	0x3cc3e3bb	0.023912301
242	0xbb844644	-0.0040366966
243	0x3c398f4f	0.011325671
244	0x3c52b453	0.012860375
245	0x3d29b6bb	0.04143403
246	0x3da81ea2	0.08208968
247	0x3d7ac0a6	0.06121888
248	0x3d1dd1d8	0.0385302
249	0xbd91b292	-0.07114138
250	0xbd161e72	-0.03665013
251	0xbc2dc14f	-0.01060517
252	0x3cd544be	0.026033755
253	0x3d738aee	0.059458666
254	0x3c66f529	0.014096537
255	0x3da595b5	0.08085195

network_body.linear_encoder.seq_layers.2.bias f4 [256]
0	0x00000000	0.0
1	0x00000000	0.0
2	0x00000000	0.0
3	0x00000000	0.0
4	0x00000000	0.0
5	0x00000000	0.0
6	0x00000000	0.0
7	0x00000000	0.0
8	0x00000000	0.0
9	0x00000000	0.0
10	0x00000000	0.0
11	0x00000000	0.0
12	0x00000000	0.0
13	0x00000000	0.0
14	0x00000000	0.0
15	0x00000000	0.0
16	0x00000000	0.0
17	0x00000000	0.0
18	0x00000000	0.0
19	0x00000000	0.0
20	0x00000000	0.0
21	0x00000000	0.0
22	0x00000000	0.0
23	0x00000000	0.0
24	0x00000000	0.0
25	0x00000000	0.0
26	0x00000000	0.0
27	0x00000000	0.0
28	0x00000000	0.0
29	0x00000000	0.0
30	0x00000000	0.0
31	0x00000000	0.0
32	0x00000000	0.0
33	0x00000000	0.0
34	0x00000000	0.0
35	0x00000000	0.0
36	0x00000000	0.0
37	0x00000000	0.0
38	0x00000000	0.0
39	0x00000000	0.0
40	0x00000000	0.0
41	0x00000000	0.0
42	0x00000000	0.0
43	0x00000000	0.0
44	0x00000000	0.0
45	0x00000000	0.0
46	0x00000000	0.0
47	0x00000000	0.0
48	0x00000000	0.0
49	0x00000000	0.0
50	0x00000000	0.0
51	0x00000000	0.0
52	0x00000000	0.0
53	0x00000000	0.0
54	0x00000000	0.0
55	0x00000000	0.0
56	0x00000000	0.0
57	0x00000000	0.0
58	0x00000000	0.0
59	0x00000000	0.0
60	0x00000000	0.0
61	0x00000000	0.0
62	0x00000000	0.0
63	0x00000000	0.0
64	0x00000000	0.0
65	0x00000000	0.0
66	0x00000000	0.0
67	0x00000000	0.0
68	0x00000000	0.0
69	0x00000000	0.0
70	0x00000000	0.0
71	0x00000000	0.0
72	0x00000000	0.0
73	0x00000000	0.0
74	0x00000000	0.0
75	0x00000000	0.0
76	0x00000000	0.0
77	0x00000000	0.0
78	0x00000000	0.0
79	0x00000000	0.0
80	0x00000000	0.0
81	0x00000000	0.0
82	0x00000000	0.0
83	0x00000000	0.0
84	0x00000000	0.0
85	0x00000000	0.0
86	0x00000000	0.0
87	0x00000000	0.0
88	0x00000000	0.0
89	0x00000000	0.0
90	0x00000000	0.0
91	0x00000000	0.0
92	0x00000000	0.0
93	0x00000000	0.0
94	0x00000000	0.0
95	0x00000000	0.0
96	0x00000000	0.0
97	0x00000000	0.0
98	0x00000000	0.0
99	0x00000000	0.0
100	0x00000000	0.0
101	0x00000000	0.0
102	0x00000000	0.0
103	0x00000000	0.0
104	0x00000000	0.0
105	0x00000000	0.0
106	0x00000000	0.0
107	0x00000000	0.0
108	0x00000000	0.0
109	0x00000000	0.0
110	0x00000000	0.0
111	0x00000000	0.0
112	0x00000000	0.0
113	0x00000000	0.0
114	0x00000000	0.0
115	0x00000000	0.0
116	0x00000000	0.0
117	0x00000000	0.0
118	0x00000000	0.0
119	0x00000000	0.0
120	0x00000000	0.0
121	0x00000000	0.0
122	0x00000000	0.0
123	0x00000000	0.0
124	0x00000000	0.0
125	0x00000000	0.0
126	0x00000000	0.0
127	0x00000000	0.0
128	0x00000000	0.0
129	0x00000000	0.0
130	0x00000000	0.0
131	0x00000000	0.0
132	0x00000000	0.0
133	0x00000000	0.0
134	0x00000000	0.0
135	0x00000000	0.0
136	0x00000000	0.0
137	0x00000000	0.0
138	0x00000000	0.0
139	0x00000000	0.0
140	0x00000000	0.0
141	0x00000000	0.0
142	0x00000000	0.0
143	0x00000000	0.0
144	0x00000000	0.0
145	0x00000000	0.0
146	0x00000000	0.0
147	0x00000000	0.0
148	0x00000000	0.0
149	0x00000000	0.0
150	0x00000000	0.0
151	0x00000000	0.0
152	0x00000000	0.0
153	0x00000000	0.0
154	0x00000000	0.0
155	0x00000000	0.0
156	0x00000000	0.0
157	0x00000000	0.0
158	0x00000000	0.0
159	0x00000000	0.0
160	0x00000000	0.0
161	0x00000000	0.0
162	0x00000000	0.0
163	0x00000000	0.0
164	0x00000000	0.0
165	0x00000000	0.0
166	0x00000000	0.0
167	0x00000000	0.0
168	0x00000000	0.0
169	0x00000000	0.0
170	0x00000000	0.0
171	0x00000000	0.0
172	0x00000000	0.0
173	0x00000000	0.0
174	0x00000000	0.0
175	0x00000000	0.0
176	0x00000000	0.0
177	0x00000000	0.0
178	0x00000000	0.0
179	0x00000000	0.0
180	0x00000000	0.0
181	0x00000000	0.0
182	0x00000000	0.0
183	0x00000000	0.0
184	0x00000000	0.0
185	0x00000000	0.0
186	0x00000000	0.0
187	0x00000000	0.0
188	0x00000000	0.0
189	0x00000000	0.0
190	0x00000000	0.0
191	0x00000000	0.0
192	0x00000000	0.0
193	0x00000000	0.0
194	0x00000000	0.0
195	0x00000000	0.0
196	0x00000000	0.0
197	0x00000000	0.0
198	0x00000000	0.0
199	0x00000000	0.0
200	0x00000000	0.0
201	0x00000000	0.0
202	0x00000000	0.0
203	0x00000000	0.0
204	0x00000000	0.0
205	0x00000000	0.0
206	0x00000000	0.0
207	0x00000000	0.0
208	0x00000000	0.0
209	0x00000000	0.0
210	0x00000000	0.0
211	0x00000000	0.0
212	0x00000000	0.0
213	0x00000000	0.0
214	0x00000000	0.0
215	0x00000000	0.0
216	0x00000000	0.0
217	0x00000000	0.0
218	0x00000000	0.0
219	0x00000000	0.0
220	0x00000000	0.0
221	0x00000000	0.0
222	0x00000000	0.0
223	0x00000000	0.0
224	0x00000000	0.0
225	0x00000000	0.0
226	0x00000000	0.0
227	0x00000000	0.0
228	0x00000000	0.0
229	0x00000000	0.0
230	0x00000000	0.0
231	0x00000000	0.0
232	0x00000000	0.0
233	0x00000000	0.0
234	0x00000000	0.0
235	0x00000000	0.0
236	0x00000000	0.0
237	0x00000000	0.0
238	0x00000000	0.0
239	0x00000000	0.0
240	0x00000000	0.0
241	0x00000000	0.0
242	0x00000000	0.0
243	0x00000000	0.0
244	0x00000000	0.0
245	0x00000000	0.0
246	0x00000000	0.0
247	0x00000000	0.0
248	0x00000000	0.0
249	0x00000000	0.0
250	0x00000000	0.0
251	0x00000000	0.0
252	0x00000000	0.0
253	0x00000000	0.0
254	0x00000000	0.0
255	0x00000000	0.0

action_model._discrete_distribution.branches.0.weight f4 [3, 256]
0	0x3c1d346b	0.009595017
1	0x3c8e01e7	0.017334891
2	0xbbe2ea2d	-0.0069248886
3	0x3b8beb4b	0.0042699925
4	0x3bac17df	0.005251869
5	0xb92bb322	-0.00016374563
6	0xbbae5ad7	-0.0053208875
7	0x3b10c3dc	0.0022089398
8	0xbc0cc8b2	-0.008592771
9	0x3b7b71ad	0.0038367317
10	0xbaadecc3	-0.0013269413
11	0x3ba8a6ea	0.005146851
12	0x3bece733	0.0072297095
13	0xbac11def	-0.0014733652
14	0xbb49588e	-0.0030722949
15	0xbb217e48	-0.002464192
16	0xba7829ca	-0.0009466676
17	0xba9dd1ff	-0.0012040733
18	0xbc81e9bc	-0.015858524
19	0xbada4feb	-0.0016655897
20	0x3bd2e527	0.0064360085
21	0xbc49d67a	-0.012319202
22	0xbab38a89	-0.0013697903
23	0xbbda7115	-0.0066663125
24	0x3baca3cb	0.005268549
25	0x3a0b77fe	0.00053203094
26	0xbb394267	-0.0028268339
27	0xbb40d2b7	-0.002942247
28	0x3b8791b6	0.004137243
29	0x3beee123	0.007290022
30	0x3bb86bdd	0.0056280927
31	0x3ba7234d	0.0051006437
32	0x38eb2480	0.00011212472
33	0xba62186d	-0.00086248555
34	0xbac01201	-0.0014653803
35	0x3b496a5b	0.0030733559
36	0xbc1e7cab	-0.009673278
37	0xb9ab1041	-0.00032627772
38	0x3b904033	0.0044021844
39	0xbb8d4cf3	-0.0043121516
40	0xb9e0549b	-0.00042787645
41	0x399f32b2	0.00030364614
42	0x3c3895a4	0.011266146
43	0x3b27e8fe	0.0025621052
44	0x3b93c5cb	0.0045096627
45	0x3bf9caa8	0.0076230355
46	0xbc029177	-0.007969252
47	0xbc1db6eb	-0.009626131
48	0x3b8683be	0.0041050604
49	0xbc10fd01	-0.008849383
50	0x3bcd1a8a	0.006259267
51	0x3b2ce405	0.0026381027
52	0x3ba851c6	0.0051367013
53	0x3bb053a2	0.0053810636
54	0xbb28f63a	-0.0025781528
55	0x3bc675c1	0.006056518
56	0xbb9a1192	-0.0047018016
57	0xbbb161ce	-0.0054132706
58	0xbc2213bb	-0.009892399
59	0xba39283f	-0.0007063187
60	0xbbbbcc4f	-0.0057311426
61	0xbaf62dff	-0.0018782018
62	0xba43f8a4	-0.000747571
63	0xbc045a5f	-0.008078187
64	0x3bfaebd2	0.0076575065
65	0xbc4532ee	-0.012036068
66	0xbb05a463	-0.0020392172
67	0x3c0481c1	0.008087576
68	0xbc4b5417	-0.012410185
69	0xbbc5974f	-0.0060300003
70	0xbba47add	-0.0050195293
71	0xbbaf89cb	-0.0053570024
72	0x3c1fbec3	0.009750071
73	0x3800689f	3.0615014e-05
74	0x3be1be0f	0.006889112
75	0x3c4bfb87	0.0124501055
76	0x3a9f610a	0.0012159657
77	0xbbd39a58	-0.006457608
78	0xbac2584b	-0.0014827339
79	0xbb807d02	-0.003921152
80	0xba235dc0	-0.00062319264
81	0xbb668b40	-0.0035178214
82	0xbb71d403	-0.003690005
83	0x3c83b65c	0.016078167
84	0x3b41d1ab	0.0029574435
85	0xbbe8c912	-0.0071040476
86	0xbbcdefc3	-0.0062846853
87	0x3c3a9acb	0.011389445
88	0xba86b931	-0.001027858
89	0xbaf66a03	-0.0018799905
90	0x3c3504ea	0.011048535
91	0x3bbd9e24	0.005786674
92	0xbb85186c	-0.004061749
93	0x3b5a93e5	0.0033352312
94	0x3c07104f	0.008243634
95	0x3b9a8e47	0.004716668
96	0xbc20e884	-0.009821061
97	0xbb06bfbb	-0.0020561058
98	0x3a131dec	0.00056120637
99	0xbb7df2b3	-0.0038749396
100	0xbb9b7a65	-0.004744815
101	0x3bc1c0d4	0.0059128795
102	0xbb905527	-0.004404682
103	0x3ab6525d	0.0013910044
104	0xba911943	-0.0011070151
105	0x3ad1e0f5	0.0016012477
106	0x3c4e3257	0.012585244
107	0x39a30590	0.00031093927
108	0xbc193787	-0.009351618
109	0x3c5d9587	0.01352442
110	0xb96a0bcd	-0.00022320375
111	0x37c57798	2.353992e-05
112	0x3c0d25c8	0.008614965
113	0xbbc78102	-0.006088377
114	0xbc2b2c0d	-0.010447514
115	0xbb2a0cba	-0.0025947527
116	0xbc2777b7	-0.010221413
117	0xba227ed0	-0.0006198706
118	0x3adc16bd	0.0016791445
119	0xbb9dfff8	-0.0048217736
120	0x3aeca3aa	0.0018054147
121	0x3a88d7b7	0.0010440265
122	0x3c07b637	0.0082831895
123	0x3c8309a6	0.015995812
124	0xbb803f65	-0.003913807
125	0x3b24c954	0.0025144415
126	0xbb91bcf3	-0.0044475733
127	0x39ce1e02	0.0003931374
128	0xba9569c1	-0.0011399315
129	0x3b88b3da	0.0041718306
130	0xbc05c2ef	-0.008164152
131	0xb90689c0	-0.00012830552
132	0x3bebbc7a	0.007194099
133	0x3b1157e4	0.002217763
134	0x3b3d1ac5	0.0028855067
135	0xbb05a9ba	-0.0020395354
136	0x3c0373b7	0.008023194
137	0xbbf7cc75	-0.007562215
138	0xbbecaf97	-0.0072230804
139	0x3ba21d82	0.0049473653
140	0x387c9240	6.0217688e-05
141	0x3b3b01e6	0.0028535067
142	0x3a9c232d	0.0011912339
143	0xbc623bb3	-0.013808179
144	0x39b64d23	0.00034771216
145	0xbc462147	-0.012092895
146	0xbc165b59	-0.009177052
147	0xbc2c1db9	-0.010505133
148	0xbc293533	-0.010327625
149	0x3c22bd49	0.009932824
150	0x3a3e793d	0.0007265991
151	0xbbdad065	-0.0066776746
152	0x3b41b2cf	0.002955604
153	0xbb804ce9	-0.0039154184
154	0xbada87aa	-0.0016672511
155	0x3c6ae2c2	0.01433629
156	0x3c00a23c	0.00785118
157	0xbb47b68c	-0.0030473797
158	0x3b96e7a5	0.004605251
159	0x3b4cd717	0.0031256133
160	0x3a574fca	0.00082134886
161	0xbb4dfc57	-0.0031430924
162	0xba7ef6cf	-0.00097261084
163	0xbb4deb1b	-0.0031420651
164	0xbbbde7e8	-0.0057954676
165	0xba9577b7	-0.0011403476
166	0xba84c8f7	-0.0010130693
167	0x3c0a1585	0.008427982
168	0x3c059034	0.0081520565
169	0xbc2362d1	-0.00997229
170	0x3c099071	0.008396254
171	0xbb845649	-0.0040386063
172	0xbbd460f7	-0.0064812857
173	0x3c36d827	0.011159933
174	0x3bdfd605	0.006830933
175	0x3b5db790	0.0033831336
176	0x3c009531	0.00784807
177	0x3c10e1b3	0.008842873
178	0x3c90da8d	0.017682338
179	0xbbeeb5dd	-0.0072848634
180	0x3c12c99b	0.008959199
181	0xbb19048b	-0.0023348655
182	0x3b2094f9	0.0024502857
183	0xba7cdeff	-0.0009646266
184	0x3b9fbe9e	0.0048750183
185	0xbbbe3228	-0.005804319
186	0xbb9a4059	-0.004707378
187	0x39988d4f	0.00029096982
188	0x3b3b4963	0.0028577677
189	0x3b211f7e	0.0024585421
190	0xbc09d0e8	-0.008411624
191	0xbbc9ff7c	-0.0061644893
192	0x3bfe8297	0.0077670324
193	0xb9199324	-0.00014646031
194	0xba7f45ef	-0.0009737899
195	0xba3df424	-0.00072461576
196	0x3bb03dcd	0.005378461
197	0x3b12f749	0.0022425225
198	0xbc448c7d	-0.011996386
199	0x3b11bc8b	0.0022237625
200	0xbc117ad3	-0.008879381
201	0xbbe644eb	-0.0070272586
202	0xbbb82d06	-0.0056206016
203	0x3c1e34d4	0.00965615
204	0xbb8658cf	-0.0040999423
205	0x3c71a5fd	0.014749047
206	0x3b50d72b	0.0031866531
207	0xbb84474b	-0.004036819
208	0xbafecff7	-0.001944064
209	0xbb82f5bf	-0.0039965804
210	0x3b00354a	0.0019563013
211	0x3b39040c	0.0028231172
212	0xbbd8e9d0	-0.0066196695
213	0xbc03507f	-0.008014797
214	0xbbeeac98	-0.0072837584
215	0x3add5017	0.001688483
216	0x3bd9f7dd	0.006651862
217	0xbc05f604	-0.0081763305
218	0x3aeb0950	0.0017931852
219	0xbb87ff04	-0.0041502733
220	0x3c099aff	0.00839877
221	0xbb0213c3	-0.0019848205
222	0xbb2700e2	-0.0025482704
223	0xbc0d19f9	-0.008612149
224	0xbaea148a	-0.0017858904
225	0x3a2d6baa	0.00066154695
226	0x3bbe7fbd	0.0058135674
227	0xbb573dc5	-0.0032843214
228	0x3b2d8377	0.0026476064
229	0x3926a208	0.00015891355
230	0xbb8c64cc	-0.004284477
231	0x3bb0ffd2	0.00540159
232	0x3bfdcce0	0.0077453703
233	0xbb84ed5f	-0.004056617
234	0xbb0ae5b9	-0.0021194054
235	0xb9653b3a	-0.00021861205
236	0xbbb63767	-0.0055608037
237	0xbbcc0dac	-0.0062272158
238	0xbc10364f	-0.008802011
239	0x3bb975f7	0.0056598145
240	0x3ae0a550	0.0017139111
241	0xbaa165fa	-0.0012313717
242	0xbadb09eb	-0.001671133
243	0x3b0dbb9b	0.0021626714
244	0xb9f2e5c3	-0.00046329023
245	0xbb9b27a3	-0.0047349497
246	0xba1981d2	-0.00058558316
247	0x3bc66d14	0.0060554836
248	0xbb2be58c	-0.002622935
249	0xbbd40e32	-0.006471419
250	0x3ba7ced7	0.005121093
251	0x3c75505b	0.0149727715
252	0xbbc7ca41	-0.0060971086
253	0xba4eb64d	-0.00078854413
254	0x3bffc5e7	0.007805574
255	0x3b90f115	0.0044232705

action_model._discrete_distribution.branches.0.bias f4 [3]
0	0x00000000	0.0
1	0x00000000	0.0
2	0x00000000	0.0

action_model._discrete_distribution.branches.1.weight f4 [2, 256]
0	0xbb4ade63	-0.0030955307
1	0x3c105793	0.008809942
2	0xbbe3f90a	-0.006957178
3	0xb96e76da	-0.00022741724
4	0xbbcba56d	-0.0062147886
5	0xbbdfaee0	-0.0068262666
6	0xbabc6e2e	-0.0014376098
7	0xbab49389	-0.0013776879
8	0xbb311a78	-0.0027023833
9	0x3ac928ca	0.0015347239
10	0xbbe860f7	-0.0070916372
11	0x3bb29886	0.005450311
12	0x3a19b8d3	0.0005864028
13	0x3b5f4a7b	0.0034071493
14	0xbc12493e	-0.008928595
15	0xbb820145	-0.0039674365
16	0xbb423ce9	-0.0029638356
17	0xbc512218	-0.012764476
18	0xba96cf97	-0.0011505958
19	0xbbf917ef	-0.00760173
20	0x3bcc331a	0.0062316777
21	0x3b5ae2df	0.0033399386
22	0x38ab43bb	8.166531e-05
23	0x39ca8d36	0.00038633653
24	0xbbafa3d3	-0.0053601055
25	0xbb9d4259	-0.004799169
26	0xbc0ec5dd	-0.0087141665
27	0x3be52640	0.006993085
28	0xbad68055	-0.001636515
29	0xbc2bfec7	-0.010497755
30	0xbafcfb20	-0.0019300915
31	0x3c0eb085	0.008709078
32	0x3c0763ab	0.008263509
33	0x3bd7f390	0.006590314
34	0x3bd20eb8	0.006410446
35	0x3babdb19	0.0052446243
36	0x3c39328f	0.011303558
37	0x3bb3c5c5	0.0054862224
38	0xbbf40620	-0.007447019
39	0x3c690c08	0.01422406
40	0x3b1ef565	0.0024255153
41	0x3aaed30f	0.0013338047
42	0x3b8a661d	0.0042235986
43	0xbb5fb0ed	-0.0034132556
44	0xbb5123b0	-0.003191214
45	0x3bf33a7d	0.007422744
46	0x3b9d0c80	0.00479275
47	0x3c25aa91	0.010111467
48	0xbc2c843d	-0.010529575
49	0xbc0515ab	-0.008122842
50	0xbaabae7c	-0.0013098265
51	0x3c20f713	0.009824532
52	0xbbecd66d	-0.00722771
53	0x3a42c2e4	0.00074295537
54	0x3c00761e	0.007840661
55	0x39919ced	0.00027773474
56	0xbbc39d26	-0.0059696613
57	0xb92ef812	-0.00016686346
58	0x39c2afcb	0.0003713354
59	0x3a07949a	0.00051719847
60	0xbc167551	-0.009183244
61	0x3a3270d0	0.00068069715
62	0xbb27639b	-0.0025541547
63	0xbbc6b56b	-0.006064107
64	0x3bf5a712	0.007496723
65	0x390d1ba8	0.0001345711
66	0xbc01cbf2	-0.0079221595
67	0x3c1f27fa	0.009714121
68	0xbbd93808	-0.006628994
69	0xbbee727a	-0.0072768303
70	0xbbb101e3	-0.0054018362
71	0x3b6e1452	0.003632803
72	0xbc0a53b9	-0.008442813
73	0x3b84f5e6	0.0040576337
74	0xbb88afac	-0.0041713323
75	0xbc714a30	-0.01472716
76	0x3c2847f4	0.010271061
77	0x3b392ed1	0.0028256665
78	0x3cbb4ecb	0.02286472
79	0xbc0d5dcf	-0.008628323
80	0x3c43e533	0.011956501
81	0xbbb57827	-0.005538005
82	0x3c5cd2f2	0.013478028
83	0x3c603dcb	0.013686608
84	0x3a17c87f	0.0005790069
85	0x3a029ffb	0.00049829454
86	0xbadd6df8	-0.0016893735
87	0x3b78ddd5	0.003797402
88	0x3bc424e1	0.0059858416
89	0x3bf823d8	0.0075726323
90	0xbb945775	-0.0045270273
91	0xbbf92848	-0.007603679
92	0x3b5cf8cf	0.0033717637
93	0xbbe41cc3	-0.0069614365
94	0x3c385233	0.011250067
95	0x3bc6127d	0.0060446844
96	0x3c7b2127	0.015327728
97	0x3a0a9409	0.0005286341
98	0xbbe53d9f	-0.006995871
99	0xbc9d587a	-0.019207228
100	0xbc5f3f52	-0.013625937
101	0x3b4c554d	0.0031178773
102	0x392b25f9	0.00016321977
103	0x3b5b6b07	0.0033480541
104	0x3b48b63f	0.0030626205
105	0x3c209c74	0.009802926
106	0x3b0f416e	0.0021859067
107	0x3c42e22f	0.011894747
108	0x3c23b8c4	0.009992782
109	0x3c461fbf	0.01209253
110	0xba61c1d0	-0.0008611949
111	0xbb43f993	-0.0029903396
112	0xba225fb4	-0.00061940704
113	0x3b82500c	0.0039768275
114	0xbbd1e1ad	-0.0064050765
115	0xbba004f2	-0.004883402
116	0x3b6e210f	0.0036335622
117	0xb93b7cfd	-0.00017880271
118	0x3ac1457b	0.0014745438
119	0xb9e2df8a	-0.0004327263
120	0x39a28465	0.0003099769
121	0xbbb4f017	-0.005521785
122	0xbb252ebc	-0.0025204858
123	0xba5f9d8d	-0.0008530252
124	0xba64b783	-0.0008724855
125	0xbbd43ce3	-0.006476985
126	0x3c46cdbc	0.012134012
127	0x3c2dcaf1	0.010607467
128	0xbc31ce45	-0.010852401
129	0xba659913	-0.00087584666
130	0xbbb37ed3	-0.005477765
131	0x3b056ec8	0.002036022
132	0x3bbb9b6f	0.0057253162
133	0x3ab23a28	0.0013597654
134	0xbc30a2ac	-0.0107809715
135	0x3be3f40f	0.0069565843
136	0x3c2a7c3b	0.010405595
137	0xbc134693	-0.008988994
138	0xbbc5ccb5	-0.006036366
139	0x3b4c6cdd	0.0031192817
140	0xbbd1ab55	-0.006398598
141	0xbc38c3b3	-0.011277127
142	0xbb99b7c8	-0.004691098
143	0xbc5c1c57	-0.013434491
144	0xbbdf3ddf	-0.0068127955
145	0x3aa8864f	0.001285741
146	0xbb8a982b	-0.0042295656
147	0xbbc6d05b	-0.0060673184
148	0x3b028ead	0.0019921467
149	0xbbc27e69	-0.0059354794
150	0x3ba6cbb1	0.0050902
151	0xbb9ee9c7	-0.004849646
152	0x3bb038df	0.0053778733
153	0xba628908	-0.0008641635
154	0x3bacd7bd	0.0052747414
155	0xbac8da0b	-0.0015323771
156	0xbc637368	-0.013882495
157	0x3c3a18a3	0.011358413
158	0x3ae58635	0.001751131
159	0xba4793d2	-0.00076132745
160	0x3b86a6dc	0.0041092467
161	0xbb628e8f	-0.0034569835
162	0x3bf5ba78	0.0074990354
163	0x3a98c0df	0.001165416
164	0x3bcbf4ff	0.006224274
165	0xb8e93aa7	-0.00011121231
166	0x3bb416ba	0.0054958733
167	0xbaaaa549	-0.001301923
168	0xba85f0cf	-0.0010218861
169	0x3bedade2	0.0072533945
170	0x3b36e487	0.002790721
171	0xbc26feea	-0.010192612
172	0xbba4cb68	-0.0050291307
173	0xbbb43d31	-0.0055004586
174	0xbb86c187	-0.0041124257
175	0x3c507778	0.012723796
176	0xbbf6c27f	-0.00753051
177	0xbc2cdd37	-0.010550789
178	0x3b7380a5	0.0037155536
179	0xbc5315fd	-0.01288366
180	0xbb66e267	-0.003523016
181	0xbc3128b7	-0.01081293
182	0x3c30a2b8	0.010780983
183	0x3bc13eda	0.005897385
184	0x3c260859	0.010133826
185	0xbc0f3359	-0.00874027
186	0xbbcbd234	-0.0062201265
187	0x3adfe1b3	0.0017080813
188	0x3bf5251f	0.007481232
189	0xbb11807f	-0.0022201834
190	0x3c136863	0.008997056
191	0x3b1e65cf	0.002416957
192	0xbadf1652	-0.0017020202
193	0x3bc088c8	0.0058756806
194	0x3b41e710	0.0029587187
195	0x3c8a7951	0.016903551
196	0xbbb7307f	-0.005590498
197	0xba94b888	-0.0011346499
198	0xbbcad89f	-0.006190374
199	0x39859ae7	0.00025483148
200	0xbb9bbac7	-0.00475249
201	0xba23334f	-0.0006225602
202	0x3c02bbf2	0.00797938
203	0xba8694ac	-0.0010267696
204	0x3a8684a4	0.0010262919
205	0x3c5c0e68	0.013431169
206	0xbc1cb99b	-0.009565736
207	0xbc1fd641	-0.009755672
208	0xbb5108b7	-0.0031896064
209	0x3be8a613	0.0070998757
210	0x3af8bd27	0.001897727
211	0xbb048b1b	-0.0020224515
212	0x3bcf9022	0.0063343206
213	0x3b9edabb	0.004847852
214	0xbb7ff888	-0.0039058048
215	0x3b0d3c3f	0.0021550802
216	0xb9c60573	-0.00037769563
217	0x3c6eaf65	0.0145681845
218	0x3814cb0f	3.5475063e-05
219	0xbbf63115	-0.0075131753
220	0xbb32c6c2	-0.0027279113
221	0xbbe146d0	-0.0068748966
222	0x3b65d47d	0.003506928
223	0x3aa3b03d	0.0012488436
224	0x3addf87b	0.0016935015
225	0x3b633a97	0.0034672373
226	0xbbd97692	-0.006636449
227	0x3c12545f	0.008931248
228	0x3c7ca7e7	0.01542089
229	0x38c5daae	9.434424e-05
230	0x3bb44e27	0.0055024805
231	0xbbab7fea	-0.0052337544
232	0x3c111496	0.008855006
233	0x3bae63ca	0.0053219544
234	0x3afd49ca	0.0019324359
235	0x3b9516fb	0.0045498586
236	0xbc52097f	-0.012819647
237	0xba254c6f	-0.000630564
238	0xbaaacf23	-0.0013031702
239	0x3ac3584c	0.0014903634
240	0x3a3c627c	0.0007186306
241	0xbc2e5f07	-0.0106427735
242	0x3c47f3fe	0.012204168
243	0xba4144f1	-0.0007372639
244	0x3a87648b	0.0010329647
245	0x3c5d11fd	0.013493058
246	0xbba00d0f	-0.004884369
247	0x3c1dde71	0.009635554
248	0xb9cc0b87	-0.000389185
249	0x3aa2850b	0.0012399269
250	0x3a8501d9	0.0010147645
251	0xbc650488	-0.013978131
252	0x3c25ab6c	0.010111671
253	0xb9d6f11b	-0.00040996898
254	0x3b87844f	0.0041356455
255	0xbc3c9cb9	-0.011511975

action_model._discrete_distribution.branches.1.bias f4 [2]
0	0x00000000	0.0
1	0x00000000	0.0

action_model._discrete_distribution.branches.2.weight f4 [2, 256]
0	0x3c1282a5	0.008942281
1	0x3b7f6fa8	0.0038976464
2	0xbc079a20	-0.008276492
3	0x3bf8cad7	0.00759254
4	0xbaaa49a9	-0.0012991923
5	0xbbd078f7	-0.0063620764
6	0xba04ffd1	-0.000507352
7	0x39245702	0.00015672672
8	0xbbbf5d28	-0.0058399625
9	0xbbdfe382	-0.006832541
10	0x3c084aee	0.008318646
11	0xbbd9b9f3	-0.0066444813
12	0xbc0ce846	-0.0086003
13	0xba53cc82	-0.0008079485
14	0x3b9b7800	0.0047445297
15	0x3b0d9c10	0.0021607913
16	0xbbc536ff	-0.006018519
17	0x3b0e9971	0.0021758939
18	0xba888060	-0.0010414235
19	0xbc7ef7c7	-0.015562004
20	0x3c0a4103	0.008438352
21	0x3c436486	0.011925822
22	0x3b990f2f	0.0046709995
23	0x3bfc681a	0.0077028396
24	0x3b008001	0.0019607546
25	0x3b9b21e4	0.0047342647
26	0xbc19a2b7	-0.009377173
27	0x3bf324cf	0.0074201594
28	0x3bfa49f5	0.007638211
29	0x3b368036	0.0027847416
30	0xb9d7085a	-0.00041014218
31	0xbc195a0e	-0.00935985
32	0xbc3bf86e	-0.0114728045
33	0xb99328ab	-0.00028068325
34	0x3b3b6c25	0.0028598395
35	0x3c5e5727	0.013570583
36	0xbc01f5c3	-0.007932129
37	0x3c07a01d	0.00827792
38	0xb8a7fd77	-8.010392e-05
39	0xbbbe9545	-0.005816134
40	0xbbc01a0a	-0.005862479
41	0xbbad29cd	-0.005284524
42	0x3b050927	0.0020299645
43	0x3bcc9e03	0.0062444224
44	0x3b9659e6	0.0045883534
45	0x3bb0d61e	0.0053966185
46	0xbb0fc748	-0.002193885
47	0x3aeebe4d	0.0018214673
48	0xbc475259	-0.012165629
49	0xbb879629	-0.0041377735
50	0xbc5d0917	-0.013490937
51	0x3ac3956f	0.0014921854
52	0xbc0ecaf3	-0.008715379
53	0xbabe166d	-0.0014502533
54	0xbb024294	-0.001987611
55	0x3bf1fdba	0.007384983
56	0x3c5ae5b3	0.013360429
57	0xbc295f42	-0.010337653
58	0x3aef0b57	0.0018237632
59	0xbb645742	-0.0034842049
60	0xba8625bb	-0.0010234633
61	0xbb08f139	-0.0020895733
62	0xbc23fe5f	-0.010009377
63	0xbb8736d3	-0.0041264086
64	0x3adb5b58	0.0016735597
65	0xbb690a4d	-0.0035559118
66	0x3a5a938f	0.0008338028
67	0x3bfbc53d	0.0076834247
68	0xbb7583d2	-0.0037462604
69	0xbc45743b	-0.012051637
70	0xbb6ae5c3	-0.0035842515
71	0x3b969527	0.004595417
72	0x3c1e768f	0.009671821
73	0x3aa20edf	0.0012364051
74	0xba803d73	-0.0009783938
75	0xbb160857	-0.0022893155
76	0x3b4debea	0.0031421133
77	0xba9adccd	-0.0011815071
78	0xbb090853	-0.0020909503
79	0xbb063387	-0.002047749
80	0x3a4787b5	0.00076114695
81	0x3b3e4e43	0.0029038347
82	0xbc17dca3	-0.0092689125
83	0xbb0e4a09	-0.002171161
84	0xbbb8ef05	-0.0056437277
85	0xba71dbf0	-0.00092261937
86	0x3af2e52f	0.0018531437
87	0x3b29594f	0.0025840586
88	0x3bf8661f	0.007580533
89	0xbadd71c2	-0.0016894864
90	0xbb3e6d64	-0.00290569
91	0xbc047b2e	-0.008086009
92	0xbaf5c088	-0.0018749395
93	0xbc2d066c	-0.010560613
94	0x3bce029f	0.0062869336
95	0xbbd55c3d	-0.00651124
96	0xbb6d193d	-0.0036178373
97	0x39e5d890	0.00043839635
98	0x3bb173ef	0.0054154317
99	0x3a6d39fb	0.0009049472
100	0xbaeecc28	-0.0018218802
101	0x3b3c3787	0.002871962
102	0xbb4b6c86	-0.0031040027
103	0x3b787ac0	0.0037914962
104	0x3a4a41d9	0.00077155005
105	0xbb47a959	-0.003046593
106	0xbbafdb4c	-0.0053667184
107	0x3b8ce0a2	0.0042992393
108	0x3b5ba498	0.0033514854
109	0xbbf4a4fd	-0.007465957
110	0xbc0a26c7	-0.008432097
111	0xbad7984a	-0.0016448584
112	0xbbb9d9a4	-0.0056716967
113	0x3bc88a23	0.006119983
114	0xbb33039f	-0.002731539
115	0xbb20db0b	-0.0024544622
116	0xbbc3308e	-0.005956716
117	0xbb919a79	-0.0044434634
118	0x3c108a6e	0.008822067
119	0xbc2d7451	-0.010586814
120	0xbbdc1237	-0.0067160386
121	0x3a42d1a8	0.0007431754
122	0x3a398fa4	0.0007078594
123	0xbc1d3755	-0.009595712
124	0x3c072ebb	0.0082508875
125	0x3ac7687f	0.0015213637
126	0xbbdb0f3a	-0.0066851648
127	0x3b07327b	0.0020629454
128	0xbbfbd43a	-0.0076852115
129	0xbc247f59	-0.010040128
130	0x3bb17033	0.0054149865
131	0xbc4d6915	-0.012537261
132	0xbb77ed6a	-0.0037830719
133	0xbb46918b	-0.0030299153
134	0x3a720c97	0.00092334434
135	0xbc087fb4	-0.008331228
136	0xbaa6aa83	-0.0012715611
137	0x3b5d412d	0.0033760772
138	0x3ba9a687	0.0051773223
139	0x3a84d03c	0.001013286
140	0x3ae315b8	0.0017325198
141	0x3b3ff510	0.0029290356
142	0xba117262	-0.00055483554
143	0x3bc51611	0.0060145934
144	0x3b050966	0.0020299791
145	0x3c0ff61d	0.008786705
146	0xbabbb194	-0.001431989
147	0x3a3bf40b	0.0007169849
148	0xba763dab	-0.00093933445
149	0xbbd7ae00	-0.0065820217
150	0xbc000e2a	-0.007815877
151	0x3c071d08	0.008246668
152	0xbba11cc8	-0.004916761
153	0x3a8314f7	0.0010000755
154	0xbc655ec8	-0.013999648
155	0x3c329697	0.010900161
156	0x3b658a85	0.003502519
157	0xbb848c64	-0.004045056
158	0x3af30f9a	0.0018544078
159	0xbbc3a0dc	-0.0059701037
160	0xbb746a07	-0.0037294643
161	0x3bc3d567	0.0059763673
162	0xbc21d02a	-0.00987629
163	0x3acb24cd	0.0015498638
164	0xbb1dfa4c	-0.0024105487
165	0x3a828877	0.0009958883
166	0xbba3ab36	-0.004994775
167	0xbb76652f	-0.0037596931
168	0xbaee70e2	-0.0018191601
169	0x3bf989a5	0.0076152855
170	0x3a2ba26a	0.0006547334
171	0xbb8539d1	-0.00406573
172	0x3ba4deb7	0.0050314325
173	0xbb9e5df6	-0.0048329784
174	0xbbdc6bb8	-0.0067267083
175	0xba92c06f	-0.0011196266
176	0x3b903376	0.004400666
177	0xb86b2770	-5.6065095e-05
178	0xbbaa9d77	-0.0052067596
179	0x39a96182	0.0003230684
180	0xbae80020	-0.0017700233
181	0xb8ec55c5	-0.00011269333
182	0xbc5fa567	-0.013650275
183	0x3b3b1792	0.0028547985
184	0xbb60fd2f	-0.0034330597
185	0xbc059212	-0.008152502
186	0xbb2aa817	-0.002604013
187	0xbbc6384b	-0.006049191
188	0xbad53788	-0.001626716
189	0xbbc0998b	-0.0058776787
190	0x3be29acd	0.0069154263
191	0xbc0da743	-0.008645835
192	0xbb6454f3	-0.0034840673
193	0x3baaf81f	0.0052175666
194	0x3b4040f1	0.0029335583
195	0xbbdd3ab8	-0.0067513846
196	0xbb96ac25	-0.004598158
197	0x3bc1fca2	0.0059200088
198	0xbb0a1668	-0.0021070484
199	0xbbe2a3ff	-0.0069165225
200	0xba68970b	-0.0008872605
201	0xbb29a1d2	-0.0025883806
202	0xbbc60ca1	-0.006043986
203	0x3b57d313	0.0032932207
204	0xbbf86690	-0.007580586
205	0x3b4d57f0	0.0031332932
206	0x3b2d8ed0	0.0026482828
207	0xbb5e4d23	-0.0033920489
208	0xbbc7af16	-0.00609387
209	0x3b3b5fab	0.0028590958
210	0x3b9332bf	0.0044921334
211	0xbb4e4287	-0.003147276
212	0xbbd05572	-0.006357842
213	0xbb7210b0	-0.0036936216
214	0x3aa12174	0.0012293295
215	0x3c18a0a1	0.009315641
216	0xbb9e801c	-0.004837049
217	0x3bc341b0	0.0059587583
218	0xba24d7e2	-0.00062882726
219	0x3ba1240f	0.0049176286
220	0x3a770fc7	0.0009424653
221	0x380f795e	3.420689e-05
222	0x39521cb7	0.00020037858
223	0xbc17e912	-0.009271877
224	0x3b41413b	0.0029488343
225	0xba6cbb1a	-0.0009030566
226	0xbb0b440f	-0.0021250283
227	0xbbac2561	-0.0052534794
228	0x3afc94c0	0.0019270405
229	0xbab43909	-0.0013749908
230	0xbb853988	-0.004065696
231	0x3ac07d31	0.0014685747
232	0xb90c230c	-0.00013364496
233	0x3b4fd51a	0.0031712712
234	0xbb9bfa6a	-0.0047600763
235	0x3c1f54be	0.009724794
236	0x3bf7e7c7	0.007565472
237	0x3baf0d31	0.0053421487
238	0x3c182c33	0.009287882
239	0xbba696d3	-0.0050838976
240	0xbc3dc487	-0.0115825
241	0xbc6176cf	-0.013761236
242	0x3b252e26	0.0025204509
243	0x3b1623ab	0.0022909443
244	0x3b9a1112	0.004701742
245	0xbc05036c	-0.008118492
246	0xbbb2814e	-0.005447543
247	0xbb385648	-0.00281276
248	0x3b9ff4a2	0.0048814574
249	0xb89a1a32	-7.3481715e-05
250	0xbb7a1a03	-0.0038162477
251	0x3bd09cff	0.0063663716
252	0x3bd74c9f	0.0065704132
253	0xbbed155d	-0.0072352127
254	0x3bca5baf	0.0061754803
255	0xbc393c55	-0.011305888

action_model._discrete_distribution.branches.2.bias f4 [2]
0	0x00000000	0.0
1	0x00000000	0.0
