MLagents/results/hb_09/Mario/Mario-0.onnx (onnx, 383492 bytes, 16 tensors)

124 f4 [99]
00000000: 0000 803f 0000 803f 0000 803f 0000 803f
00000010: 0000 803f 0000 803f 0000 803f 0000 803f
00000020: 0000 803f 0000 803f 0000 803f 0000 803f
00000030: 0000 803f 0000 803f 0000 803f 0000 803f
00000040: 0000 803f 0000 803f 0000 803f 0000 803f
00000050: 0000 803f 0000 803f 0000 803f 0000 803f
00000060: 0000 803f 0000 803f 0000 803f 0000 803f
00000070: 0000 803f 0000 803f 0000 803f 0000 803f
00000080: 0000 803f 0000 803f 0000 803f 0000 803f
00000090: 0000 803f 0000 803f 0000 803f 0000 803f
000000a0: 0000 803f 0000 803f 0000 803f 0000 803f
000000b0: 0000 803f 0000 803f 0000 803f 0000 803f
000000c0: 0000 803f 0000 803f 0000 803f 0000 803f
000000d0: 0000 803f 0000 803f 0000 803f 0000 803f
000000e0: 0000 803f 0000 803f 0000 803f 0000 803f
000000f0: 0000 803f 0000 803f 0000 803f 0000 803f
00000100: 0000 803f 0000 803f 0000 803f 0000 803f
00000110: 0000 803f 0000 803f 0000 803f 0000 803f
00000120: 0000 803f 0000 803f 0000 803f 0000 803f
00000130: 0000 803f 0000 803f 0000 803f 0000 803f
00000140: 0000 803f 0000 803f 0000 803f 0000 803f
00000150: 0000 803f 0000 803f 0000 803f 0000 803f
00000160: 0000 803f 0000 803f 0000 803f 0000 803f
00000170: 0000 803f 0000 803f 0000 803f 0000 803f
00000180: 0000 803f 0000 803f 0000 803f
1.0 1.0 1.0 1.0 1.0 1.0 1.0 1.0
1.0 1.0 1.0 1.0 1.0 1.0 1.0 1.0
1.0 1.0 1.0 1.0 1.0 1.0 1.0 1.0
1.0 1.0 1.0 1.0 1.0 1.0 1.0 1.0
1.0 1.0 1.0 1.0 1.0 1.0 1.0 1.0
1.0 1.0 1.0 1.0 1.0 1.0 1.0 1.0
1.0 1.0 1.0 1.0 1.0 1.0 1.0 1.0
1.0 1.0 1.0 1.0 1.0 1.0 1.0 1.0
1.0 1.0 1.0 1.0 1.0 1.0 1.0 1.0
1.0 1.0 1.0 1.0 1.0 1.0 1.0 1.0
1.0 1.0 1.0 1.0 1.0 1.0 1.0 1.0
1.0 1.0 1.0 1.0 1.0 1.0 1.0 1.0
1.0 1.0 1.0

action_model._discrete_distribution.branches.0.bias f4 [3]
00000000: 0000 0000 0000 0000 0000 0000
0.0 0.0 0.0

action_model._discrete_distribution.branches.0.weight f4 [3, 256]
00000000: 83b4 97bb affe 8dba 9d9e 773c 0dc4 d83b
00000010: 1a9f d7bb 83fa 173c cebf 8dbb 835e 6a3b
00000020: 91ce bfba 420d 26ba 4ed3 c93b d3bd a0bb
00000030: cfdb 10bc 37b8 d63b a02b 9c39 302f e83b
00000040: f7cc 11bc 8a88 1ebc 2a33 a6bb 670a b0bb
00000050: 37f1 8dbb 4dcc 96b8 a768 c13b c083 71ba
00000060: 4f29 c13b c2a2 993b fe26 b2bb 47ec cf3b
00000070: 104a 82bb a0be a33b 3898 aebb d393 753b
00000080: 9801 ef3a cf73 aa39 33af 353c e9d5 263c
00000090: e067 92bb de71 483c f7ed 6b3c 538b a7ba
000000a0: 7787 353c cab3 5cba 7f7a d23b bc58 c13a
000000b0: 83f1 af39 d37b f63b d82b 03ba 3030 e53b
000000c0: 70ab 00ba d373 fbbb 9782 283b cdfd 74ba
000000d0: a77d 4b3b 4139 39ba 3d45 d13b 3ade 31bc
000000e0: db09 a93b cee6 16bc 3c3c b4bb 3797 3bbc
000000f0: 7068 bbba 45c8 9aba 553c 6b3b aa18 2abc
00000100: c516 07bb 1ea2 043b 4ff1 cd3a 69f6 bebb
00000110: 769b 14bc 08c4 733b 08c4 15bc d742 47bb
00000120: 2345 abbb 55f5 8ebb 5d10 e6bb a50d 373b
00000130: 2cd8 c7bb a22a 1cbc 63ef 783b 2b79 dfba
00000140: 8d5b ce3b a0d3 7aba 73b6 52bb 0f4b d4bb
00000150: 6ffd 623c d8a2 89bb 17a7 46bb b4ed 0cbc
00000160: dd46 f3bb e0eb 51bb bd4b 5abb b2c2 d9ba
00000170: b22e 853c 9e37 9e3b 93c6 313c 75ce ffbb
00000180: 72bc 3abc 73b5 b23b 8f92 c2bb 79c4 3ebb
00000190: 5df5 023c 7d56 a6bb 5fe4 c0bb 6825 e53b
000001a0: 3b7e 0c3c 07fe e93a dbe5 113b e974 93ba
000001b0: 69ed a5bb 8cbc 123c 3908 96bb 5040 db3b
000001c0: eb09 693b 381b e73b f1ca 183b 7883 f1ba
000001d0: 7f0a f53a cbd5 f9bb cfec 263a caba 813b
000001e0: 2ffd 8bbb 5b52 3aba c8a4 2bba fb68 d5ba
000001f0: f342 95bb ddee 2d3c 80a3 ddbb 2b22 89bb
00000200: 7de2 2dbb a060 70bb c6a8 a13a 6f9f 2a3b
00000210: b785 c03a edb0 70bc 5292 cf38 a2e5 113b
00000220: 2334 033c c865 683b a777 3a3b 3fc4 8fbb
00000230: ef9a 8abb 77c6 60bb 0d9e f2bb af98 d7ba
00000240: 0b5b 36bb db39 ebbb ff94 2cbb 668d c3b9
00000250: e5e2 f83b e2fc 613b 6550 ed38 5b1d 87bb
00000260: f3d6 c9bb 5b43 39bc 5a20 cd3a 6043 5dbc
00000270: 23de bd3a b00b 88bb ff13 3c3c 78f2 493b
00000280: 63cd c4bb 53c7 48bc 7e09 a2bb 7878 6abb
00000290: b24d 3dbb 97b8 a8bb e9c7 103c 74f3 02bc
000002a0: 251d e439 d9b3 ca3b aaeb e7bb a10d 043b
000002b0: 6b86 803a 7f74 c3bb d816 b5bb a573 d8bb
000002c0: ca6d e8ba e305 2c3c 5bea 56ba d678 05bc
000002d0: e763 173c ad4a 523a e2e7 e83b f4d8 40bb
000002e0: b55a 9e3b 557f 19bb bdcd af3a 0d90 273b
000002f0: 57e3 82ba ebac 203c af25 ec3a 074c 323b
00000300: bed1 9eb9 66c0 a53a 26ff babb 8652 abbb
00000310: ea94 7fbb c3a3 263c aafd 13bc f5b8 c6bb
00000320: 47d3 3bbb d7ff 543b 9d6b acba f0bb f339
00000330: 71a7 48bc be2a 263c b7a6 b0bb ef9e a4bb
00000340: f853 97bb cdf2 36ba 77dc 093c 4a31 7ebb
00000350: 6da6 863a 4f93 8d3b 5c8d 273b 71ce 113b
00000360: 1c99 31bb 59f8 c93b 4081 e9ba 7f3e 69bb
00000370: 7319 dcbb aa54 473b e00f 6b3b e006 743b
00000380: ef80 a6bb edec 3e3c aae8 54bc 739b 073c
00000390: 3aa8 3ab9 cf63 9abb 9745 34bc d78d 34bb
000003a0: bb02 f0b9 f96e 093c c79c c1bb 7da6 c639
000003b0: cfb2 7a3b 6ab1 683c af59 bd3b 5fa4 a83b
000003c0: 2e2a b43b 508c 913a 3295 0d39 4a05 7e3a
000003d0: be85 923b 6395 be3b 5d89 4dbb 2e61 b7bb
000003e0: a2e5 5cbc 8505 fcbb 6d04 8abb c390 40bc
000003f0: 9836 30bc 3238 e73b 668f bebb bea8 013c
-0.004629673 -0.0010833348 0.0151135 0.006615168 -0.0065802457 0.009276035 -0.0043258434 0.00357619
-0.0014633705 -0.0006334373 0.0061592227 -0.0049054413 -0.008841469 0.006552722 0.00029787142 0.0070857033
-0.008898965 -0.009676108 -0.005072017 -0.005372334 -0.0043317336 -7.190611e-05 0.005902368 -0.00092130527
0.005894817 0.0046885917 -0.005436777 0.006345305 -0.003976114 0.0049970895 -0.0053282045 0.0037472143
0.0018234728 0.0003251121 0.011089134 0.010182836 -0.0044679493 0.012234179 0.014399997 -0.0012782611
0.011079661 -0.00084191246 0.006423294 0.0014751176 0.0003355854 0.007522085 -0.00050037866 0.00699427
-0.00049083587 -0.0076737194 0.0025712603 -0.00093456806 0.0031050236 -0.00070657214 0.0063864277 -0.010856206
0.0051586456 -0.009210302 -0.0055003446 -0.011449627 -0.0014298093 -0.0011808953 0.0035894115 -0.010381857
-0.0020612937 0.002023823 0.0015712174 -0.005827714 -0.009070268 0.00371957 -0.009140976 -0.003040483
-0.0052267476 -0.004362742 -0.0070209936 0.0027931717 -0.0060987677 -0.009531649 0.0037984482 -0.0017049661
0.006297535 -0.0009568278 -0.0032152205 -0.0064786742 0.013854369 -0.0042003207 -0.0030311996 -0.008601595
-0.007424219 -0.0032031462 -0.0033309304 -0.001661381 0.016257618 0.0048284074 0.010850566 -0.007806594
-0.011397468 0.0054537593 -0.0059378813 -0.0029108806 0.0079930695 -0.005076228 -0.005886599 0.0069929846
0.008575018 0.0017852195 0.0022262249 -0.0011250052 -0.005063702 0.008956086 -0.004578617 0.0066910163
0.003555889 0.0070528053 0.0023314322 -0.0018426022 0.0018695145 -0.007624363 0.00063676847 0.0039590346
-0.004272125 -0.0007107609 -0.00065476866 -0.0016281897 -0.0045551 0.0106160315 -0.0067638755 -0.0041849813
-0.0026532703 -0.0036678687 0.0012333624 0.0026034971 0.0014688288 -0.01469062 9.8977835e-05 0.0022262116
0.008008036 0.0035461057 0.0028452666 -0.004387408 -0.0042298953 -0.0034297982 -0.007404095 -0.0016448701
-0.0027825262 -0.007178528 -0.0026333926 -0.00037298648 0.0075954073 0.0034483005 0.00011316015 -0.0041233725
-0.006159657 -0.011307563 0.00156499 -0.013504833 0.0014485758 -0.004151784 0.011479377 0.0030814689
-0.0060059293 -0.012254554 -0.004944979 -0.0035777371 -0.0028885421 -0.005148958 0.008836725 -0.007992614
0.00043509263 0.0061859903 -0.007077654 0.0020149725 0.0009805685 -0.005964815 -0.005526405 -0.006605583
-0.0017732915 0.01049945 -0.0008198374 -0.008146485 0.009240127 0.0008021992 0.0071077207 -0.002942619
0.0048325905 -0.0023421843 0.0013412755 0.0025568039 -0.0009985965 0.009806852 0.0018016602 0.002720596
-0.00030292379 0.001264584 -0.0057066856 -0.0052283434 -0.0038998672 0.01017088 -0.009032646 -0.006064529
-0.0028659867 0.0032501125 -0.001315463 0.00046488596 -0.012246952 0.0101420265 -0.0053909677 -0.005023829
-0.004618164 -0.0006978929 0.008414379 -0.0038786703 0.0010272987 0.004320539 0.0025566434 0.0022248293
-0.0027099317 0.0061636386 -0.0017815009 -0.003559023 -0.006716901 0.0030415454 0.0035867617 0.0037235543
-0.005081288 0.011653167 -0.012994925 0.008276808 -0.00017801012 -0.004711605 -0.01100292 -0.0027550363
-0.00045778402 0.008388274 -0.005908582 0.00037889546 0.003825355 0.014202455 0.0057785134 0.0051465477
0.0054981923 0.0011104438 0.00013502387 0.0009690119 0.0044715097 0.005816148 -0.0031362392 -0.0055963015
-0.013482483 -0.0076910877 -0.0042119534 -0.011753264 -0.010755204 0.0070562596 -0.0058154343 0.007913766

action_model._discrete_distribution.branches.1.bias f4 [2]
00000000: 0000 0000 0000 0000
0.0 0.0

action_model._discrete_distribution.branches.1.weight f4 [2, 256]
00000000: 0dfb 25b9 8098 f2bb 773d 95bb 9052 68bb
00000010: b42b 4bbb 8880 903b b7aa 32bb 4428 823a
00000020: d59b 883c 109d ef3b 4d7c 1fbb 9b02 f23b
00000030: bb1d 7a3b 83c6 4fbb 079a 0abb 0966 c63b
00000040: cfae d5bb 2f80 603b ca01 e63a 37ad 20bb
00000050: 6f26 33bc e074 03bb 04eb 3abb 25fc 143c
00000060: 4739 9cba 0b1d 9bbb 2085 1abb 1aac 35bb
00000070: e7c6 c73b 5507 083a 5f37 98bb c165 953b
00000080: 988a 4e39 7f75 2cbb 5869 183b 2b59 d9bb
00000090: 82a8 533b 3f39 263b e83c 12bc 3f3a d839
000000a0: 1b25 cf3b 7866 fd3a d8d9 8a3a 7a03 2a3b
000000b0: b35a 7bbb 3557 fe3b d0ee d9bb 49b6 0f3c
000000c0: a527 073b 6772 133c 77f4 423b 270d ba3b
000000d0: b28f cebb 71b9 1d3c b4f4 363c 34c6 c3ba
000000e0: f1ca 16bc c7ea c4bb 4f97 963b 7dee d43b
000000f0: 9d69 b73a c3f0 29bc e931 90bb fb51 1b39
00000100: 9bbc 7d3b f5d3 05bc 9f07 123c 781c b9ba
00000110: ddfd b03a 10cb b23b 92fc 0fb9 0242 153c
00000120: 9352 96bb 826a a5ba 94a3 21bc ddec 3cbc
00000130: 48c8 90bb c7fb 183c aba6 383b c9a8 8a3a
00000140: fce9 11bb 2e19 9c39 8df4 f33b 049d adbc
00000150: 7351 11bc 7b3f 81bb 5018 823b 502e dc3a
00000160: 93fb 173b bea4 353c 489e 6ab8 c80b 743b
00000170: 338b 923b ba18 31bb 394c 423b fb2e 89bb
00000180: c162 a6bb 0fa9 84bb 4b8f 703c 6419 8dbb
00000190: f3d1 d93b a74e 91bb 901b d8bb e825 d43a
000001a0: 9683 aeba 5dd3 32bc f0bb 01bc 891a 973b
000001b0: cf8f 2abb 95d2 f3ba 803f 92bc 4d06 e7ba
000001c0: 005c 52bb 62ad 653b 976e 7fbb faaf 6f39
000001d0: fba2 c3bb 1277 34bc 12ca ec3b 671a 85ba
000001e0: 17a0 7e3c 0ac2 65bb 1b53 11bc 1085 113c
000001f0: ae0e 253c 8d08 d6ba e9ac b13a 86a1 303b
00000200: a862 6f3a 4fa1 183b 36b0 0d3c e3c1 f0ba
00000210: 9af9 e93b 3a14 82bb e0ff d43a 85c4 713b
00000220: aeb7 99ba c541 ecbb fe5d a9ba 186d fabb
00000230: 5ad7 1b3b ca44 77ba afe4 c7bb 825b 1e3b
00000240: f838 54bb 29c1 ac3b 9f7b 803c b374 8eba
00000250: f863 b53b 5bb1 1ebc 6e3f 883b 9eb3 22bc
00000260: 0375 c8bb 894d b13b dffb a2bb d8d7 22b6
00000270: e478 343a 13cc 93bb 3cb6 1839 c564 7a3a
00000280: 3a0a 7a3b b7c6 2fbc 6d9d 303c 9b99 1fbc
00000290: 109e 8f3b 6a11 66bb ca70 5ebb e25c 4fbb
000002a0: 7b2b 08bc 22c8 8bb9 5653 3bbb 7c89 123c
000002b0: 49ea 92ba dd4b 143c 9f5a b43a 9dcf 01bb
000002c0: eec5 bd3b 74e5 06bc 8c30 82bb 308b 723c
000002d0: ef63 f2bb a31b 5ebc 9cdb 083a 3b0b 64bb
000002e0: d7c5 263b 17d5 b93a fc79 14bb 39b9 a3bb
000002f0: 233e 88ba 8376 093b eadc 173b f32a 03bb
00000300: 431f df3b 93dd 18bb b5de a4b8 78bd 1c3a
00000310: 2bd5 6bbb 22f5 2abc 0817 3f3c 298f 2ebb
00000320: d720 803a d39b eab9 f50c 76bb b570 7bbb
00000330: 2e77 313c 83d4 d339 2a51 9fba 36f1 933b
00000340: c18f b6ba 9d78 673c e040 bc3b 95c7 893a
00000350: b7ee 83bb 5ac3 39b9 0072 1abc 9245 c93b
00000360: 9c41 c0bb 2cee 15bb 10a1 91bc 1ee6 9cbb
00000370: 5d7e e43a 1208 59b9 f145 b73b b781 f7bb
00000380: 1f3b e23b 2234 51bb 6384 af3b af49 003c
00000390: ef43 b03b 332f e63a 133c 8abb 58f9 e0bb
000003a0: ea4d b83b 136c d5bb 858c 20bc e871 253c
000003b0: f0ac b5b9 21ed 14bb a038 903b 40db ffbb
000003c0: a712 4a3c 5340 fe3b db2a 433a 88b9 d1bb
000003d0: d9a3 38bb 9d74 583b 9b48 213b 5a4b 5fbb
000003e0: 170b aebb ab46 0d3c 1681 023c 9c1b 01bc
000003f0: 076f 5cbb bff0 89ba 93e4 b43b 6793 5dbc
-0.0001582915 -0.0074034333 -0.0045544463 -0.0035449602 -0.003100139 0.0044098534 -0.0027262399 0.0009930213
0.016675869 0.0073124245 -0.0024335564 0.0073855645 0.0038164693 -0.0031704016 -0.0021148936 0.006054644
-0.006521083 0.003425609 0.0017548141 -0.0024517307 -0.010934456 -0.0020058677 -0.0028521428 0.009093319
-0.0011918925 -0.004733687 -0.0023577884 -0.0027720989 0.006096709 0.0005189081 -0.0046452726 0.004559249
0.00019697321 -0.002631515 0.002325615 -0.006632944 0.0032296483 0.0025363711 -0.008925654 0.00041242127
0.006321562 0.0019332906 0.0010593487 0.0025942014 -0.0038353621 0.0077618607 -0.006650783 0.0087714875
0.0020622995 0.008999444 0.0029747763 0.0056778374 -0.006303751 0.009626732 0.01116674 -0.0014936388
-0.009203658 -0.006009433 0.004595674 0.0064981566 0.0013993267 -0.0103723435 -0.004400481 0.00014812492
0.0038717154 -0.00816821 0.00891295 -0.0014122864 0.0013503392 0.005456336 -0.00013731632 0.009109976
-0.0045874803 -0.0012620243 -0.00986566 -0.011531082 -0.0044184066 0.009337372 0.0028175514 0.0010578866
-0.002226471 0.000297734 0.007444924 -0.021193035 -0.008869517 -0.003944335 0.0039701834 0.001679847
0.0023190721 0.011086641 -5.593736e-05 0.0037238467 0.0044721602 -0.0027022795 0.0029647483 -0.0041865087
-0.0050776904 -0.0040484737 0.014682601 -0.0043060053 0.0066473424 -0.004434425 -0.0065950826 0.0016185613
-0.0013314362 -0.010914651 -0.007918343 0.0046113175 -0.0026025658 -0.0018602187 -0.017852545 -0.0017625779
-0.0032098293 0.003504597 -0.0038975829 0.00022858373 -0.0059703565 -0.011014717 0.007226237 -0.0010154963
0.015541098 -0.0035058283 -0.008869912 0.008881822 0.010074301 -0.0016329453 0.001355556 0.0026951744
0.00091318274 0.0023289507 0.008647969 -0.001836833 0.0071403505 -0.0039696964 0.0016250573 0.0036890816
-0.0011727714 -0.007209989 -0.0012921689 -0.0076423995 0.0023779483 -0.00094325526 -0.0061002593 0.002416343
-0.0032382589 0.00527205 0.015683947 -0.0010868519 0.005535599 -0.0096858395 0.004157952 -0.009930519
-0.0061174645 0.0054108542 -0.004973873 -2.4265519e-06 0.0006884469 -0.0045104115 0.00014563737 0.0009551759
0.0038153068 -0.01072853 0.010779721 -0.009741212 0.004382856 -0.0035105594 -0.003394174 -0.0031641056
-0.008311148 -0.00026661257 -0.0028583608 0.008943912 -0.0011208738 0.00905129 0.0013759917 -0.0019807585
0.0057914173 -0.008233417 -0.0039730724 0.014803693 -0.007397167 -0.013556394 0.00052207126 -0.0034796733
0.0025447512 0.0014177886 -0.0022655716 -0.0049964455 -0.0010394495 0.002097518 0.0023172447 -0.0020014613
0.0068091466 -0.0023325428 -7.861612e-05 0.0005979161 -0.0035985212 -0.010434421 0.011663206 -0.0026635623
0.0009775412 -0.00044748056 -0.0037544344 -0.003836674 0.010831637 0.0004040339 -0.0012154926 0.0045148386
-0.001392834 0.014127878 0.0057450384 0.0010511751 -0.0040262598 -0.00017715749 -0.009426594 0.0061423266
-0.0058671962 -0.0022877557 -0.017776996 -0.0047881743 0.0017432679 -0.00020697739 0.0055930545 -0.007553305
0.0069040204 -0.0031921943 0.005356358 0.007830068 0.005379192 0.0017561674 -0.004218587 -0.0068656616
0.0056245225 -0.0065131276 -0.0097991275 0.010097958 -0.0003465186 -0.0022724348 0.0044012815 -0.007808119
0.012333549 0.007759133 0.00074450456 -0.006400291 -0.0028173833 0.0033028491 0.0024609927 -0.0034072013
-0.0053113806 0.008622806 0.007965347 -0.007880118 -0.0033635513 -0.0010524018 0.005520412 -0.013523913

action_model._discrete_distribution.branches.2.bias f4 [2]
00000000: 0000 0000 0000 0000
0.0 0.0

action_model._discrete_distribution.branches.2.weight f4 [2, 256]
00000000: 4ce1 35bb 7d9c dd3b f366 393b be40 c4bb
00000010: af30 913b c723 d3ba 4af9 933b 7d29 d4bb
00000020: 4fb3 483b 7f54 823b af04 25bc 242b 833b
00000030: d35e 6e3c 636c be3b 57a5 4c3c 8f7f 81bb
00000040: 0a92 a73b 7374 d63a 7505 213c 0804 a1bb
00000050: 3341 37bb 071c 003c 7e4e 0f3c 0837 28bc
00000060: 17ee 8fbb cff9 d33b 4cf7 adb9 b517 66bc
00000070: 83c9 47bc 2673 ac3b 5791 0e3b 5aba 4ebb
00000080: 7ff9 48bc 333e 5b3a 7233 563b 2749 d0ba
00000090: c4f5 14bc 303d 5fbb e0a5 bb3b a266 393b
000000a0: 9208 04bc 276d 26bc 1bd5 f83b fdca 5abc
000000b0: cbe1 f2bb a3a5 803b 9f91 c1bb bd07 82ba
000000c0: 816d c83a 05e1 0ebb 31de 143c e1e0 863c
000000d0: 17ee c33b 0c6f 9dba 7e5f acbb 9e6b 28bc
000000e0: 934c 1fbb 443f b3ba e502 e8ba 0bec 5d3b
000000f0: 3fa7 44bc 7b78 133b bb99 34bc c518 8a3c
00000100: 55b9 f83b ec58 1dba 8788 21bb f026 e13b
00000110: b773 5aba 3996 c0bb ce85 0abc 8bf5 143c
00000120: e74d ee3b 121f 10bb dd66 d53b cfb3 0b3b
00000130: e2a6 d3bb 896b 84bb 3341 8bba 3357 b1bb
00000140: 712d c8bb 2f00 f63b 0fef 9c3b 88a0 7cbc
00000150: fca8 c73b 706d 923a 95c4 f1ba 19f3 b63b
00000160: 73cb 743c 2995 493c 3a21 d0ba eb25 65bb
00000170: 8ac1 833a 9ac0 46bc 2bdd 73bb 02b4 d4ba
00000180: 0ebe 883b 07d1 e1b9 f5cc 78bc efdf 5f3a
00000190: 9571 03bc d775 053b 87ae ecba c055 313c
000001a0: f34c 80ba d7d6 30bb 16d1 133b 439d d4bb
000001b0: 40c9 f5ba 6d56 143b 0363 c8ba ce2a 9dba
000001c0: a05e 2c3c c33f f3bb 3abb fc3b 4b12 ea3b
000001d0: 5338 64ba b295 cd3b 3d9b 873a fa23 9fbb
000001e0: ad7c ae3b 32fa e43b 7a68 ebba a5e3 ffba
000001f0: 13e5 8039 0340 1cbb 5bcc 19bb 0f2b 313b
00000200: 68b7 a8bb 2785 c53b 2fb6 ff3a 83f5 67bb
00000210: 00d4 dd3a f78d cdbb bbc3 993b 8a6a 97bb
00000220: 0bbe 0abc 2cbc 8c3a 4faa 66bb eeef b63b
00000230: e28e b73a bc35 09bc 866b 3abb a5dd bcbb
00000240: c1ce 0ebc 73df 22bc 5238 7439 6751 74bb
00000250: 856f 25bc 26a2 15bb 417f 2dbc a335 caba
00000260: b881 5bbb 220e d93a d5a8 323c 9885 993b
00000270: b63c 28bc 104e 50bc 8e14 4a3c 5d3e 03bc
00000280: ef50 49bb 0969 0f3c b693 95bc fa02 cb3b
00000290: e674 18bc 5b44 cc39 c5dc e2ba fd45 b6ba
000002a0: 1ff8 443b eb54 b53b 3390 2abc 7d84 e43a
000002b0: 1ed0 ba3a 109f eabb 73a7 8cbb 8708 adbb
000002c0: c15f 9a3c 43c3 9339 e329 e9bb d822 e73b
000002d0: c0cc 32bc 9105 83bb 5d9b fd3b 0750 16bc
000002e0: 7e2b 493c 3723 5f3b b005 81bb 97f9 223c
000002f0: 4a6c 53bb d02e da3b 9f0b 6a3b 4f42 34bb
00000300: 1f2e 70bb 06d6 29ba 29a3 8abb 03f1 07bc
00000310: 80bb 6c3b 1e0a 023b 6d98 db3b 2708 423b
00000320: 5728 88ba c7b9 62bc 13c7 10bc 8f20 a23a
00000330: dd4d fa3b 6f87 2f3b ba5f e2bb 9035 85bb
00000340: 44dd 9939 99a7 1dbc d0e1 b93b ca0d 293c
00000350: b8ae 193c bed0 bd3a f210 36bc 77d7 13bc
00000360: 8799 b13a aad8 adb9 9767 03bc 8898 0539
00000370: a98a 0b3b c4c9 c43b 585f 1fbc d115 b73b
00000380: eee1 a8bb 5b2a 2e3b f348 c0bb 5038 393b
00000390: 2d1a 0ebb a8db e93b 335a e6bb 57db c239
000003a0: 64cd a73b 8243 23ba 8b8a f2b9 bf98 f1ba
000003b0: b011 51bc a7da 9abb 9e7d 3bbc fb9f 113c
000003c0: 976d abba 1085 e6bb 897e 1cbb bfe9 bb3b
000003d0: d392 5ebc 883f 08bc cf07 06bb d596 afbb
000003e0: d7dc f2bb fe66 af3a 3fac 6fbb ea46 c8ba
000003f0: 24fd 233c 03c1 113c 2865 9bb9 3801 f8bb
-0.0027752696 0.0067630396 0.0028290122 -0.005989163 0.0044308524 -0.0016108685 0.0045158016 -0.0064746724
0.0030624454 0.003977358 -0.010071917 0.0040029455 0.014548975 0.0058112605 0.012490592 -0.0039519737
0.0051138448 0.0016361609 0.009827961 -0.0049138106 -0.0027962446 0.007819182 0.008746741 -0.010267027
-0.004392396 0.0064689885 -0.00033181382 -0.014043738 -0.01219404 0.00526275 0.002175411 -0.003154418
-0.012266516 0.00083634554 0.0032684472 -0.0015890942 -0.009091798 -0.003406357 0.005726561 0.0028289934
-0.008058684 -0.01015786 0.0075937635 -0.01335406 -0.0074121705 0.0039259954 -0.005907252 -0.0009920519
0.0015291424 -0.0021801603 0.009086178 0.016464652 0.0059793103 -0.0012011244 -0.005260407 -0.010279564
-0.0024307116 -0.0013675471 -0.0017701058 0.0033862616 -0.012002765 0.0022502232 -0.01102298 0.016857514
0.0075904527 -0.0006002325 -0.0024648027 0.006871097 -0.0008333283 -0.005877283 -0.008454753 0.009091745
0.0072724703 -0.0021991176 0.0065125064 0.002131689 -0.006459103 -0.0040411395 -0.0010624289 -0.0054120063
-0.0061089327 0.007507346 0.00478924 -0.015419133 0.0060931426 0.0011171531 -0.0018445427 0.0055831787
0.014941084 0.012303629 -0.0015879043 -0.0034965228 0.0010052186 -0.012130881 -0.0037210684 -0.0016227963
0.004173047 -0.00043071082 -0.015185584 0.00085401436 -0.008022686 0.0020364427 -0.0018057384 0.010823667
-0.0009788558 -0.0026983523 0.0022555045 -0.0064884736 -0.0018751994 0.0022634522 -0.0015288297 -0.0011990906
0.010520607 -0.0074233725 0.007712749 0.007143294 -0.0008705903 0.0062739486 0.0010345947 -0.0048565837
0.005324921 0.0069878334 -0.0017960214 -0.0019522799 0.00024584736 -0.0023841865 -0.0023467753 0.0027033722
-0.005148817 0.006027836 0.0019509251 -0.003539414 0.0016924143 -0.006273027 0.0046925223 -0.0046208547
-0.008468161 0.0010737232 -0.0035196727 0.005582801 0.0014004374 -0.008374628 -0.0028445437 -0.005763727
-0.008716286 -0.00994097 0.00023290634 -0.0037279965 -0.010097389 -0.0022832244 -0.010589422 -0.0015427362
-0.0033494066 0.0016559998 0.0109045105 0.004685115 -0.010268381 -0.012713924 0.012334002 -0.008010474
-0.0030718406 0.00875307 -0.01825891 0.006195423 -0.0093052145 0.0003896084 -0.0017308226 -0.0013906356
0.0030055118 0.0055338047 -0.010410356 0.0017434504 0.0014252698 -0.007160075 -0.0042924224 -0.0052805576
0.018844487 0.00028183506 -0.007115589 0.0070537142 -0.010913074 -0.0039984663 0.007739468 -0.009174353
0.012278436 0.003404809 -0.0039374456 0.009947202 -0.003226059 0.0066584125 0.0035712493 -0.0027505343
-0.0036648584 -0.00064787304 -0.004230876 -0.008297208 0.00361225 0.0019842456 0.00670152 0.002960691
-0.0010387999 -0.013838238 -0.0088365255 0.0012369322 0.0076386766 0.0026783606 -0.006908384 -0.004065223
0.0002934729 -0.009622478 0.005672671 0.010318229 0.009380035 0.0014481766 -0.0111124385 -0.009023539
0.0013549783 -0.0003315856 -0.008020303 0.0001274069 0.0021292365 0.0060054976 -0.009727322 0.0055873175
-0.005153886 0.0026575539 -0.005868071 0.0028262325 -0.0021683082 0.007136781 -0.0070297956 0.00037165984
0.00512092 -0.0006228016 -0.0004626106 -0.0018432363 -0.012760565 -0.0047257724 -0.011443524 0.00888824
-0.0013078925 -0.0070349053 -0.0023879132 0.005734652 -0.01358481 -0.008315928 -0.0020451432 -0.0053585568
-0.00741158 0.0013382134 -0.0036571173 -0.0015279923 0.010009084 0.008896115 -0.0002963927 -0.0075685047

action_model._discrete_distribution.branches.3.bias f4 [2]
00000000: 0000 0000 0000 0000
0.0 0.0

action_model._discrete_distribution.branches.3.weight f4 [2, 256]
00000000: 784e deba e27d 803b be9c c3ba 0b1e 93b9
00000010: 7267 9cbb 2646 453a 8d2a 5cbb 60a6 3a3c
00000020: ccde 2abc 19d6 c6bb 4e35 21bc a1dc cb3b
00000030: a3b0 16bc 3d84 693b 474e 97bb e55e 74bb
00000040: 10cd e83b e288 863b d462 2ebb b2b0 0a3c
00000050: b305 95bb abab a73b c5a4 90bb da2e 993b
00000060: 272b da3a a1f0 80bc 4dfe a8bb 37e9 5bbb
00000070: 7bbc 6ebb c717 84ba 88c1 41bc ce6b 23b8
00000080: 43b8 13bc a774 003c 9308 95bb 42a0 6138
00000090: 312c a939 5541 d23a 77e2 e4bb ffc0 313a
000000a0: efb4 cb3b ae65 253b eb94 92bc 2dd5 4e3b
000000b0: 6554 71b9 acce 293c 5b08 293c 50b8 293c
000000c0: 6cae c5bb fa0f 10bc 1eb7 1fbc 1312 51bc
000000d0: bbff 02ba 7540 11bb c3ce 463b a521 503b
000000e0: cfe9 8e3a cbce 8ebb ef85 093c 1f2c b93b
000000f0: 00e9 b8ba 8722 42ba 07ba a3ba 432e ad3a
00000100: 4cbe 96ba be90 833c 0e29 1ebc 861b 43bb
00000110: 8f66 29bb 82ce f9b7 c30d af39 bb8b 29bc
00000120: 0262 f13b dd54 4fbc ac7a 113c ea49 52bc
00000130: 4211 6eba 4fd3 e63b 1073 d0bb df5e b23b
00000140: 1ac8 d539 5719 073b 065a 48bc 2aad 2bbb
00000150: 03e8 15bc bfca 2ebc d383 30bc fdfc 863b
00000160: c592 20bc c614 863b adbe d43b fb7c 4139
00000170: b8bc cc3b e1d3 843b ceb7 47bb c3b1 1e3b
00000180: f05e d7bb 8fa0 0d3c 6251 013c c3ee bb3a
00000190: dadf 1ebb 3fd7 18bc 1242 f9b9 2321 c0ba
000001a0: 6c0a 413b cfbe 53bb 6b7f ecba b817 e9bb
000001b0: 37ee cf3b 87ba 903b 3dfc 9e3c 57c2 1b37
000001c0: 3fcf b2bb 5dc5 84bb eb46 30bc 3b27 cfbb
000001d0: fa6c 04bb 98a6 51bb af77 2dbb 60c1 80bb
000001e0: 025b 3aba 58fe ad3a 80c3 8ebb 6fd5 2a3c
000001f0: c4e4 aebb 0bdf 153b d2d5 ee3a 1d0c 7b3b
00000200: 1499 143c 57d5 ce3b 35b5 e83b e5e2 523b
00000210: b22d cd3b 7887 f3bb 2504 78bb c676 a9bb
00000220: cb03 78bb 5bb7 093c 35f0 d9bb b29b f439
00000230: 73fd 113c fbec 58b9 c920 a63b c3ec 36bb
00000240: bf03 b6bb d7a8 75bb e98f 363c 1a90 c83a
00000250: 70ed 84ba 08b7 1d3c 8ef3 a63b ec8a 03bc
00000260: 154a 943b b485 093b 5198 393c 3ad2 a83b
00000270: 352d ba3b e5bc dc3a 4819 113c f3c4 b43b
00000280: 0879 c339 53a0 eabb bd19 f0bb 9fbd db3a
00000290: bf1d c0b9 dba9 d23a 9b47 eebb 2f32 83bc
000002a0: f856 bc39 3d44 08bc 68bd 51bc 138f be3b
000002b0: 1787 37ba 7831 0a3c d15f 093b 5a84 fabb
000002c0: e1c1 333b 0380 57ba 523b 74ba ecc5 113c
000002d0: 1185 933b 506c fe3a c3bc 42bc fc01 2ebc
000002e0: b53c 64bb 9f52 c93b efee c4bb 35a0 a23b
000002f0: e716 9c39 1d4d d3bb ceb4 063c 172a 0a3c
00000300: 22ba 62bb 59ba 2b3c 32aa f93b eadc d4ba
00000310: 2f01 f9bb b3a6 b3bb 4833 2a3b eda0 223c
00000320: cfe1 f63b 3431 b5bb 874c 42bb 93c3 b73b
00000330: ef08 84bb ff4d 9dbb 383a 7abb ab66 8d3b
00000340: ef10 eabb 0876 823a 6561 2cbc d00b eabb
00000350: 9f8a cebb 6da9 84bc d1da 1eba e76f 58ba
00000360: 052b b9bb d8ff c8bb 2b7d 01bc 1b63 f5bb
00000370: ea05 63bb 878e c53b b1f0 0e3c 5d09 e4bb
00000380: 93d4 473b 8f40 a0b8 ef13 0dbc 9e52 a9bb
00000390: 9de8 e5bb f1d4 bfbb 237e 67bb efb4 9abb
000003a0: 376b d7bb d2de dabb 4be8 29ba 7301 49bc
000003b0: 232f 0dbc a908 493b a332 0e3c 4517 803b
000003c0: fa7f 69bc c268 00ba 6075 6238 b6a5 bf39
000003d0: efdb 03bc 7b77 583b 82b1 cd3b b06e 12bb
000003e0: e398 7bbb 4b73 03bb a8e7 643c 1e79 883b
000003f0: 0e12 38b5 769d 343c d26d e4ba c51e af3a
-0.0016960641 0.0039212564 -0.0014924032 -0.0002806041 -0.004773074 0.00075254065 -0.0033594698 0.011392206
-0.0104290955 -0.006068003 -0.009839369 0.0062213694 -0.009197387 0.0035631799 -0.0046174857 -0.0037288007
0.0071045235 0.004105673 -0.00266092 0.008464979 -0.0045477985 0.0051169 -0.0044141733 0.0046747746
0.001664494 -0.01573974 -0.005157268 -0.0033555755 -0.003642826 -0.0010077887 -0.011825927 -3.896263e-05
-0.009016099 0.007840312 -0.0045481413 5.3793432e-05 0.00032267117 0.0016041199 -0.0069850045 0.0006780773
0.0062166373 0.0025237608 -0.017893275 0.0031560168 -0.0002301499 0.010364216 0.0103169335 0.010358885
-0.0060327556 -0.008792872 -0.009748248 -0.012760657 -0.0004997213 -0.0022163664 0.0030335642 0.0031758335
0.0010903421 -0.0043581477 0.008393749 0.0056510116 -0.0014107525 -0.00074056577 -0.0012491354 0.001321264
-0.0011500805 0.01606023 -0.009653343 -0.0029771044 -0.0025848483 -2.9779276e-05 0.00033388854 -0.010348256
0.00736642 -0.01265451 0.008879345 -0.012835005 -0.0009081551 0.007044233 -0.006361373 0.0054434384
0.00040775613 0.002061447 -0.0122284945 -0.0026195743 -0.009149554 -0.010668456 -0.010773617 0.004119514
-0.009800618 0.004091832 0.006492457 0.00018452473 0.006248083 0.0040535782 -0.0030474546 0.002421484
-0.0065725967 0.008644237 0.007892938 0.0014338124 -0.0024242313 -0.009328662 -0.00047542207 -0.0014658313
0.0029455675 -0.0032309776 -0.0018043345 -0.007113423 0.006345536 0.004416767 0.019407386 9.283968e-06
-0.0054568346 -0.004051848 -0.010759096 -0.0063218153 -0.0020206557 -0.0031990167 -0.0026469042 -0.003929302
-0.0007108898 0.0013274653 -0.0043568015 0.010426863 -0.0053373296 0.002286854 0.0018221682 0.003830678
0.0090697 0.006312053 0.0071016797 0.0032178697 0.006261551 -0.0074319206 -0.0037844267 -0.0051716296
-0.0037844058 0.008405532 -0.0066509494 0.0004665531 0.008910525 -0.00020687647 0.0050698263 -0.0027912117
-0.005554646 -0.003748467 0.011142709 0.0015301735 -0.0010141563 0.009626158 0.005094952 -0.008028727
0.004525433 0.0020984234 0.011327819 0.005152014 0.0056816586 0.0016840963 0.008856125 0.0055166422
0.00037283474 -0.0071602254 -0.007327287 0.0016764886 -0.00036643256 0.0016072349 -0.0072717196 -0.01601514
0.0003592295 -0.0083170505 -0.012801506 0.0058153956 -0.0007001026 0.008434646 0.0020961652 -0.007645172
0.0027428793 -0.00082206744 -0.0009316701 0.008897286 0.0045019467 0.0019410942 -0.011885825 -0.01062059
-0.0034826223 0.0061438824 -0.0060099284 0.004962946 0.00029771702 -0.0064484016 0.008221818 0.008432887
-0.0034595807 0.01048144 0.007619166 -0.0016240154 -0.007599018 -0.0054825186 0.0025970507 0.009926063
0.0075342427 -0.005529547 -0.0029647665 0.005608031 -0.0040293853 -0.0048005576 -0.0038181674 0.0043152175
-0.007143132 0.0009953389 -0.010521268 -0.0071425214 -0.006303146 -0.01619407 -0.0006059828 -0.0008256421
-0.0056508803 -0.0061340146 -0.0079033775 -0.007488621 -0.0034640976 0.0060289535 0.0087243775 -0.006959124
0.0030491694 -7.6414195e-05 -0.00861071 -0.0051673194 -0.007016255 -0.005854242 -0.0035322986 -0.004721276
-0.0065740603 -0.0066793943 -0.0006481453 -0.012268412 -0.008617195 0.0030675328 0.008679065 0.003909024
-0.014251703 -0.00048984226 5.3991913e-05 0.00036553823 -0.008048042 0.00330302 0.006277264 -0.0022343807
-0.0038390688 -0.0020057734 0.013971247 0.004164829 -6.8571615e-07 0.01102387 -0.0017427749 0.001336061

action_model._discrete_distribution.branches.4.bias f4 [2]
00000000: 0000 0000 0000 0000
0.0 0.0

action_model._discrete_distribution.branches.4.weight f4 [2, 256]
00000000: adf4 df39 ed2d f53a 81ac 23ba e2b4 6cbb
00000010: b642 153c be10 08bc 79c2 19bc 25a2 513c
00000020: a3d9 6bba 2d1d c739 a89c 20bb e96a c53b
00000030: 779f 08bc 3e29 0bbc a5d1 ad3a 00c6 5cbb
00000040: 1e78 0a3c 02eb 56bb 776e 773a 5bea 02bc
00000050: a0d8 573a fd20 fa3a 6ff8 21bb 4f35 10bc
00000060: 70aa 00ba 3b8f f03a cb70 8abb 8f86 2d3b
00000070: db2d 9a3b 7245 313b d775 28bc dad6 a43b
00000080: 81e4 94bb 171f babb 0826 fbba 13bd 893a
00000090: 6b78 54bb 3007 78bb 0bae f73b 2296 f3b8
000000a0: ee3b 433b 0c7e c13b f270 0d3b f82a 15bc
000000b0: 2a1f 273c d3b0 fb3b 2be1 70bb 2521 293c
000000c0: 7afa c739 b0ad 9ebb 4077 0a38 c272 e2bb
000000d0: 0d57 2f3c 5361 26bb 5656 33bb 24de acbb
000000e0: d7f2 31bc 918b 99ba caf1 453b 47d3 90b9
000000f0: 7054 ec3b 0d62 8fbb fb76 b539 6ca8 8cbb
00000100: 9c01 c63a 1dba ed3b 2b49 58ba 2399 bfbb
00000110: 9553 5fbc 4cc0 2139 6be2 f4bb a7dd 74ba
00000120: 8bd0 373c d7fd b9ba 9580 4f3a 47b2 d83a
00000130: b94d 1c3c 2d03 4ebb 6876 3639 6aa1 04bc
00000140: e29f af3b e5cb ec3b 77f5 8dba 90b9 793b
00000150: 40fd 04bb 97c3 97bb db7a 40bb d7e9 58bc
00000160: 5133 123c 3323 18bc d7df 2cbb 9e13 bf3b
00000170: 9a72 79bb d4f3 233b 2322 0cbc cff3 c53b
00000180: 0073 e83a 777e e1bb 9caf 2cbc 4774 a1bb
00000190: b7cf 823b 0049 0abc a1f8 0d3c c3fd ce3a
000001a0: 92f8 4bbb 0d70 44b9 7aff 133b 786b edbb
000001b0: f5d4 31bb eabe 7d3a 6462 2b3c 4336 423c
000001c0: 63cb 16bb 4d8f d03b 38d2 8e3b 334e 44bb
000001d0: c149 473b 8ad2 bc3a fddd f63b 8857 c6bb
000001e0: d5a8 1f3c d5b1 ae3b 70e8 393c f5ae e1bb
000001f0: bd6f f638 dac9 233c df3a 22bb 52dd f7ba
00000200: 2994 01bc ddcc db3a 9167 1b3b 42d9 a93b
00000210: 04b2 8ebb 3be3 5f3c 7f35 3cbb f810 74bb
00000220: 92c9 4dbc 5272 fe3a 333b 11bc b397 28bc
00000230: 6a36 4fbc 38ed 05bc cc40 99b9 0b72 cab9
00000240: 6a49 5a38 62eb 09bb fd9c 513c 380a 51bb
00000250: 271c a03a 8868 eb3b eaba 7cbb 5ecd 84ba
00000260: 425c 003b af35 53bb 04b0 3bbb 8d44 2d3c
00000270: 6140 ccbb e9d3 07bc f4e5 87ba dbff 8f3b
00000280: 93d4 853a a8ed cbbb 6cac aa3b d54c d63b
00000290: 6b72 be3b fc64 a23a 42e7 813b 3034 763c
000002a0: f777 11bb d7d8 0dbc 4fdc 03bc 1718 5e3b
000002b0: 387d fe39 efff 6bba 1de5 c3bb ba9b f9b7
000002c0: 5820 893b b989 ba3b b3b2 91bb 3d5a 3ebb
000002d0: f64a 463b 1610 90bb 5570 21bc d4c7 3cbc
000002e0: 2fb0 f7bb b6a5 05bc 3ccb 90ba 9597 e0ba
000002f0: 8e74 b3bb 05b8 b23b 28c9 e83b b2da ee3b
00000300: d48a 0bbc 3bfa ecba d5d8 f73b 7af4 5ebb
00000310: 0003 2dbc 2b14 feba 063a ca3a 3830 91bb
00000320: f0a3 6f3b 98f1 4abb bf1f 833c 952d 5d3b
00000330: 5b60 8239 bfb9 d6ba 8fd3 4e3b 6bcb d039
00000340: 5748 223c 48aa 64bb ebf0 b6bb 6c14 8ebb
00000350: 8315 37bb 2243 94bb 3763 29bb fb32 c13b
00000360: adc3 aa3b 2435 33bb e81f 8b39 2f44 103c
00000370: 785d 41ba b23c ecbb ef4e e3bb f7ad d73a
00000380: 4d0e 38bb 9b01 8eba 7365 e7ba f27e 0d3c
00000390: 4d5d 363c a9b6 a3bb 6318 843a f3b0 18bb
000003a0: 95d6 133c 6879 c23a e78a a53b cf5c be3b
000003b0: 953d d73a 53ec 82bc f505 bfbb 8b1a d83b
000003c0: cf11 d03b fa6b dabb d06a fe3b b570 d33b
000003d0: 8fed ea3b 3f60 8cbb 6ddf a53a 207b 6f3b
000003e0: 0e9b 8abb afb4 3dbc 4aa9 2b3b 18b2 c1bb
000003f0: 9479 9bbb 12ad 943b bf3f 84bb 46df 23bc
0.00042716172 0.0018705704 -0.00062436616 -0.0036118557 0.009110143 -0.008304773 -0.009384745 0.012795006
-0.0008996969 0.00037977975 -0.0024507437 0.0060247076 -0.008338801 -0.00849372 0.0013261331 -0.0033687353
0.00845149 -0.0032793884 0.0009438763 -0.007990445 0.0008233879 0.0019083318 -0.0024714728 -0.008801772
-0.00049082097 0.0018353233 -0.0042248718 0.0026477908 0.0047051734 0.002704945 -0.010282001 0.005030495
-0.0045438414 -0.0056799757 -0.0019161114 0.0010508619 -0.0032420408 -0.003784608 0.0075585893 -0.00011615107
0.002979036 0.0059049185 0.0021582213 -0.009104483 0.010200301 0.007680991 -0.0036755304 0.010322844
0.00038142857 -0.0048424825 3.3012824e-05 -0.006910653 0.010701907 -0.00253876 -0.0027364693 -0.0052755047
-0.01086112 -0.0011714568 0.0030203932 -0.00027623234 0.007212214 -0.0043757022 0.00034611658 -0.0042925384
0.0015106681 0.0072548524 -0.0008250649 -0.0058471127 -0.013630767 0.00015425793 -0.00747328 -0.000934089
0.011219154 -0.001419003 0.00079155836 0.0016532623 0.009540015 -0.0031434998 0.00017400982 -0.008095125
0.0053596357 0.0072264546 -0.00108306 0.0038104989 -0.002029255 -0.0046314704 -0.0029370103 -0.0132393455
0.008923368 -0.009285736 -0.0026378536 0.005831196 -0.0038062693 0.002501716 -0.008553061 0.006041027
0.0017734468 -0.006881531 -0.010539915 -0.0049271914 0.0039920467 -0.008440256 0.008665235 0.001579218
-0.0031123501 -0.00018733759 0.0022582696 -0.0072454773 -0.002713499 0.00096796325 0.01046047 0.011853757
-0.0023009412 0.006364739 0.004358556 -0.0029953837 0.003040895 0.0014406007 0.0075337873 -0.006052915
0.009744843 0.005331258 0.011346921 -0.0068873116 0.00011751007 0.009996856 -0.0024754328 -0.0018910563
-0.007908859 0.0016769428 0.0023712853 0.00518337 -0.004354717 0.013665016 -0.002871841 -0.003724156
-0.012560265 0.0019412732 -0.008864212 -0.010290074 -0.012647251 -0.008174233 -0.00029230712 -0.0003861341
5.2043622e-05 -0.002104484 0.012793777 -0.003189696 0.0012215421 0.007184092 -0.0038563558 -0.0010132005
0.001958624 -0.0032228043 -0.002863885 0.010575426 -0.0062332605 -0.008290269 -0.0010368214 0.004394514
0.0010210447 -0.006223399 0.0052085426 0.006539921 0.0058119795 0.0012389715 0.0039643357 0.015027091
-0.0022196749 -0.008657656 -0.008048131 0.003388887 0.0004853995 -0.00090026757 -0.00597824 -2.9755629e-05
0.004184764 0.0056926874 -0.0044463514 -0.0029045485 0.0030257083 -0.004396449 -0.009853442 -0.011522252
-0.0075588445 -0.008157184 -0.0011046897 -0.0017135019 -0.005476541 0.0054540657 0.007104058 0.007289254
-0.008516986 -0.0018079946 0.00756369 -0.003402023 -0.010559797 -0.0019384673 0.0015428669 -0.004430797
0.003656622 -0.0030966755 0.016006349 0.0033749093 0.00024867323 -0.0016382261 0.0031559204 0.0003982441
0.0099049425 -0.0034891535 -0.005582919 -0.0043359306 -0.0027936406 -0.0045246044 -0.002584649 0.00589597
0.0052113147 -0.0027344907 0.00026535918 0.008805319 -0.00073762937 -0.007209384 -0.0069369 0.0016455044
-0.0028084696 -0.0010834219 -0.0017654136 0.008636223 0.011130643 -0.00499614 0.0010078069 -0.002329883
0.009023328 0.0014837207 0.005051959 0.0058094035 0.0016421551 -0.015981829 -0.0058295676 0.006594961
0.006349779 -0.006665704 0.007764198 0.0064526447 0.0071694325 -0.0042839344 0.0012655087 0.0036541894
-0.0042299097 -0.011578723 0.0026193433 -0.005911123 -0.004744718 0.004537233 -0.0040359194 -0.010001963

network_body.linear_encoder.seq_layers.0.bias f4 [256]
00000000: 0000 0000 0000 0000 0000 0000 0000 0000
00000010: 0000 0000 0000 0000 0000 0000 0000 0000
00000020: 0000 0000 0000 0000 0000 0000 0000 0000
00000030: 0000 0000 0000 0000 0000 0000 0000 0000
00000040: 0000 0000 0000 0000 0000 0000 0000 0000
00000050: 0000 0000 0000 0000 0000 0000 0000 0000
00000060: 0000 0000 0000 0000 0000 0000 0000 0000
00000070: 0000 0000 0000 0000 0000 0000 0000 0000
00000080: 0000 0000 0000 0000 0000 0000 0000 0000
00000090: 0000 0000 0000 0000 0000 0000 0000 0000
000000a0: 0000 0000 0000 0000 0000 0000 0000 0000
000000b0: 0000 0000 0000 0000 0000 0000 0000 0000
000000c0: 0000 0000 0000 0000 0000 0000 0000 0000
000000d0: 0000 0000 0000 0000 0000 0000 0000 0000
000000e0: 0000 0000 0000 0000 0000 0000 0000 0000
000000f0: 0000 0000 0000 0000 0000 0000 0000 0000
00000100: 0000 0000 0000 0000 0000 0000 0000 0000
00000110: 0000 0000 0000 0000 0000 0000 0000 0000
00000120: 0000 0000 0000 0000 0000 0000 0000 0000
00000130: 0000 0000 0000 0000 0000 0000 0000 0000
00000140: 0000 0000 0000 0000 0000 0000 0000 0000
00000150: 0000 0000 0000 0000 0000 0000 0000 0000
00000160: 0000 0000 0000 0000 0000 0000 0000 0000
00000170: 0000 0000 0000 0000 0000 0000 0000 0000
00000180: 0000 0000 0000 0000 0000 0000 0000 0000
00000190: 0000 0000 0000 0000 0000 0000 0000 0000
000001a0: 0000 0000 0000 0000 0000 0000 0000 0000
000001b0: 0000 0000 0000 0000 0000 0000 0000 0000
000001c0: 0000 0000 0000 0000 0000 0000 0000 0000
000001d0: 0000 0000 0000 0000 0000 0000 0000 0000
000001e0: 0000 0000 0000 0000 0000 0000 0000 0000
000001f0: 0000 0000 0000 0000 0000 0000 0000 0000
00000200: 0000 0000 0000 0000 0000 0000 0000 0000
00000210: 0000 0000 0000 0000 0000 0000 0000 0000
00000220: 0000 0000 0000 0000 0000 0000 0000 0000
00000230: 0000 0000 0000 0000 0000 0000 0000 0000
00000240: 0000 0000 0000 0000 0000 0000 0000 0000
00000250: 0000 0000 0000 0000 0000 0000 0000 0000
00000260: 0000 0000 0000 0000 0000 0000 0000 0000
00000270: 0000 0000 0000 0000 0000 0000 0000 0000
00000280: 0000 0000 0000 0000 0000 0000 0000 0000
00000290: 0000 0000 0000 0000 0000 0000 0000 0000
000002a0: 0000 0000 0000 0000 0000 0000 0000 0000
000002b0: 0000 0000 0000 0000 0000 0000 0000 0000
000002c0: 0000 0000 0000 0000 0000 0000 0000 0000
000002d0: 0000 0000 0000 0000 0000 0000 0000 0000
000002e0: 0000 0000 0000 0000 0000 0000 0000 0000
000002f0: 0000 0000 0000 0000 0000 0000 0000 0000
00000300: 0000 0000 0000 0000 0000 0000 0000 0000
00000310: 0000 0000 0000 0000 0000 0000 0000 0000
00000320: 0000 0000 0000 0000 0000 0000 0000 0000
00000330: 0000 0000 0000 0000 0000 0000 0000 0000
00000340: 0000 0000 0000 0000 0000 0000 0000 0000
00000350: 0000 0000 0000 0000 0000 0000 0000 0000
00000360: 0000 0000 0000 0000 0000 0000 0000 0000
00000370: 0000 0000 0000 0000 0000 0000 0000 0000
00000380: 0000 0000 0000 0000 0000 0000 0000 0000
00000390: 0000 0000 0000 0000 0000 0000 0000 0000
000003a0: 0000 0000 0000 0000 0000 0000 0000 0000
000003b0: 0000 0000 0000 0000 0000 0000 0000 0000
000003c0: 0000 0000 0000 0000 0000 0000 0000 0000
000003d0: 0000 0000 0000 0000 0000 0000 0000 0000
000003e0: 0000 0000 0000 0000 0000 0000 0000 0000
000003f0: 0000 0000 0000 0000 0000 0000 0000 0000
0.0 0.0 0.0 0.0 0.0 0.0 0.0 0.0
0.0 0.0 0.0 0.0 0.0 0.0 0.0 0.0
0.0 0.0 0.0 0.0 0.0 0.0 0.0 0.0
0.0 0.0 0.0 0.0 0.0 0.0 0.0 0.0
0.0 0.0 0.0 0.0 0.0 0.0 0.0 0.0
0.0 0.0 0.0 0.0 0.0 0.0 0.0 0.0
0.0 0.0 0.0 0.0 0.0 0.0 0.0 0.0
0.0 0.0 0.0 0.0 0.0 0.0 0.0 0.0
0.0 0.0 0.0 0.0 0.0 0.0 0.0 0.0
0.0 0.0 0.0 0.0 0.0 0.0 0.0 0.0
0.0 0.0 0.0 0.0 0.0 0.0 0.0 0.0
0.0 0.0 0.0 0.0 0.0 0.0 0.0 0.0
0.0 0.0 0.0 0.0 0.0 0.0 0.0 0.0
0.0 0.0 0.0 0.0 0.0 0.0 0.0 0.0
0.0 0.0 0.0 0.0 0.0 0.0 0.0 0.0
0.0 0.0 0.0 0.0 0.0 0.0 0.0 0.0
0.0 0.0 0.0 0.0 0.0 0.0 0.0 0.0
0.0 0.0 0.0 0.0 0.0 0.0 0.0 0.0
0.0 0.0 0.0 0.0 0.0 0.0 0.0 0.0
0.0 0.0 0.0 0.0 0.0 0.0 0.0 0.0
0.0 0.0 0.0 0.0 0.0 0.0 0.0 0.0
0.0 0.0 0.0 0.0 0.0 0.0 0.0 0.0
0.0 0.0 0.0 0.0 0.0 0.0 0.0 0.0
0.0 0.0 0.0 0.0 0.0 0.0 0.0 0.0
0.0 0.0 0.0 0.0 0.0 0.0 0.0 0.0
0.0 0.0 0.0 0.0 0.0 0.0 0.0 0.0
0.0 0.0 0.0 0.0 0.0 0.0 0.0 0.0
0.0 0.0 0.0 0.0 0.0 0.0 0.0 0.0
0.0 0.0 0.0 0.0 0.0 0.0 0.0 0.0
0.0 0.0 0.0 0.0 0.0 0.0 0.0 0.0
0.0 0.0 0.0 0.0 0.0 0.0 0.0 0.0
0.0 0.0 0.0 0.0 0.0 0.0 0.0 0.0

network_body.linear_encoder.seq_layers.0.weight f4 [256, 99]
00000000: e903 5a3d 5716 1abb 51ec d6bc a0d5 d13c
00000010: 8f79 c93d e5bc b53d b889 053e 121d a2bd
00000020: 59f4 eabd bc76 013e 5d26 2cbe 3efa ae3b
00000030: 1c90 513d ec5e 28be f825 1abe 46cb dbbd
00000040: ffa6 d7bd 7b47 a6bd e5be 8fbd c8f1 69bd
00000050: 809a 703c 0bf9 75bd d460 a03d 51e0 6f3e
00000060: 966e ca3c e971 e7bb 6996 8c3d 688e 81bb
00000070: 0bca 133d 7756 0fbe 0f39 093d e14a c2b9
00000080: 667c de3d 1e0a 03be baf8 68bc d90c 893e
00000090: 8e6a 413e f0d7 46be 05c1 1cbe 3c5c 303e
000000a0: fd07 ca3d 52dd 64bd 8ade 233e 172e dabd
000000b0: d34c 983a ad82 323d 87ed 27bd 574a 253d
000000c0: ee8f d3bd 93dc 98bc 934c f73d 1729 2fbe
000000d0: 1a30 d73a b077 05bd 030e 0b3e fc78 90bd
000000e0: 4231 613d b932 133d 92f4 4abe c0e6 bb3d
000000f0: e88a 2c3d e407 633c 5251 bc3b 5b99 b33c
00000100: aa9c 1f3d f347 833d ff69 69be 8575 d1bd
00000110: fa5a cdbd 6027 e4bd 1bfc 2b3d 6efc 993d
00000120: 2fb9 95bd 254b 133e 5a71 8dbd f1f6 153e
00000130: fa00 8d3c 8f63 e33c a543 4cbb ac85 873d
00000140: 1366 35bc 2c21 10bc f734 ccbc 86df 0dbe
00000150: d1df 9b3d 970b a83d 2396 38bd 3d7e 36be
00000160: 6a3e 2abc 8325 88bd f6ee a9bc c7ff 843d
00000170: 41fa 9a3d e604 7b3d 3fa5 d8bd 104d 473e
00000180: 8797 9ebd 4b7b 9d3d f114 7e3b cc92 c73d
00000190: 8833 723d fc47 723d 4664 703e bf8a b0bc
000001a0: 923c 873d 5b1d a53e ad02 b5bd 7d08 5c3b
000001b0: 6a3f 0b3e c537 05be a467 d93d 330d 163d
000001c0: 137e b6bc 753e cb3c 5623 01bc c3bf 8c3d
000001d0: 23e7 96bc 84ad a73d 80fa 553d a96a 9d3d
000001e0: b8bc b3bd 2256 2f3a 6519 743d ec17 98bb
000001f0: 7ee8 ff3c 0475 7b3d ad0f 02bd d08c dfbc
00000200: 47b0 2cbe 4bac 6b3d 252f 963d 1578 06be
00000210: ac81 c5bd 0b5b 48bc dc5b 7ebd 936f 803e
00000220: 193e bcbb d96b 11be 1f08 af3b 5a56 d6bd
00000230: 5927 8b3d b6e0 e4bd 4817 483c 6d5f 13bd
00000240: 2cac 9f3d 7759 12be b71f c03b c5ae 8a3c
00000250: 00a7 283c 7827 b4bd fb6a 483d cd15 11bc
00000260: 26a5 dcbc 15af 39bd 390e bcbd 6f10 4bbd
00000270: 516b 873d d3be 52bd fed4 5fbb 068b f23d
00000280: 2285 77bd a626 d7bc 8386 043e 8f43 f53b
00000290: 193c 87bc 6d59 6dbb d5f4 b1bd f0d8 b5bb
000002a0: 3be9 21bd 95c6 ab3d 49ff 713a eaad 993d
000002b0: 568e ca3d 2339 d5bd 6861 05bd f36f d0bb
000002c0: 94ff babc 5f08 a5bc fee5 04be 2967 b63d
000002d0: 69b5 8bbe 1576 a1bd a88f e7bb decb c4bd
000002e0: 5eec e6bc 77c9 023d 88bc 483e 7b32 8a3d
000002f0: b35c 8a3c 2914 a7bd d936 17bd 256d 9a3d
00000300: a1a8 8a3a aa4f 323d e83a e4bc 4e53 153d
00000310: 9d61 64bd 0e8f cfbd e96c 1fbd 9124 1cbe
00000320: c19a 273d 63a3 d13d f3d8 36be 048f 0f3e
00000330: 2e5e efbd decd 313d cabd d9bd d017 ecbd
00000340: 9de4 67bc cfaf 2dbe bcf5 c03d 798e a4bd
00000350: 0f92 99bd 5dea 793d 1248 23be 65ef 52bd
00000360: d0e1 46be b12f e7bd 4999 143d 5ac5 d33d
00000370: 45f9 37be ebeb 93bd 67ba ee3c b92b db3c
00000380: e7e9 c23d 22b6 113e e901 d63d 07bb 293d
00000390: 8b82 65bc c74f 4e3e d324 e9bc af15 b1bc
000003a0: d150 40bd b54c 343d 4577 a0bd 5b78 0dbe
000003b0: bdab e9b8 cc82 9e3d 3b94 083d 8ab8 813d
000003c0: 134d ef3d 0895 463c 3042 ef3d 9cd3 6ebd
000003d0: 0a8d afbb 5315 02bd 9484 a6bd 63b4 d63c
000003e0: fcdf 00be 4c79 113e 9e9b cf3d 3081 f4bc
000003f0: a097 873d 74a8 40be b182 32be db4f 39be
0.053226385 -0.002351185 -0.026235731 0.02561456 0.098376386 0.088739194 0.13040817 -0.07915701
-0.11472387 0.1264295 -0.1681151 0.00533989 0.051162824 -0.1644246 -0.15053546 -0.10732131
-0.10529899 -0.081191026 -0.07018832 -0.057115346 0.014685273 -0.06005196 0.078309685 0.23425414
0.024710935 -0.0070631397 0.06864626 -0.0039537437 0.036081355 -0.13997827 0.03350168 -0.00037058353
0.10863571 -0.12796828 -0.014219457 0.26767614 0.18888304 -0.19418311 -0.15308006 0.17222685
0.09864805 -0.05587513 0.1600286 -0.10653322 0.0011619575 0.043581653 -0.040998008 0.0403541
-0.10330187 -0.018659865 0.12075152 -0.17105518 0.0016417534 -0.032584846 0.13579564 -0.07054326
0.054978617 0.035937045 -0.19819859 0.091748714 0.04212466 0.013856862 0.005746999 0.021923712
0.038967766 0.064102076 -0.2279434 -0.10227493 -0.10027118 -0.11140323 0.041988473 0.0751885
-0.073107116 0.14384134 -0.06906386 0.14644982 0.01721238 0.027757434 -0.003116825 0.06617293
-0.0110717 -0.008796971 -0.0249276 -0.13854799 0.07611049 0.082053356 -0.045065057 -0.17821594
-0.010390857 -0.0664778 -0.020743828 0.06494098 0.075672634 0.06128397 -0.10578393 0.19462991
-0.07743745 0.07689532 0.0038769806 0.09744796 0.059131175 0.05915068 0.23475751 -0.021550534
0.0660335 0.3224896 -0.08838401 0.0033574395 0.1359841 -0.13009556 0.10615471 0.03663368
-0.022276914 0.024810055 -0.00788196 0.06872513 -0.018420761 0.08187392 0.05224085 0.076863594
-0.087762296 0.0006688555 0.05959453 -0.0046415236 0.03123879 0.06139089 -0.03175323 -0.027288824
-0.1686412 0.05753736 0.07333211 -0.13131745 -0.096438736 -0.012228738 -0.062099323 0.25085124
-0.0057447073 -0.14201297 0.0053415443 -0.10465689 0.06794614 -0.11175673 0.012212582 -0.035979677
0.07796511 -0.1429194 0.0058631557 0.01692904 0.010293722 -0.087965906 0.04893015 -0.008855295
-0.026934218 -0.045332987 -0.091824 -0.04957622 0.06612266 -0.051451515 -0.0034154053 0.11842923
-0.0604297 -0.026263546 0.12941937 0.0074848603 -0.016508149 -0.0036216632 -0.08689276 -0.0055495426
-0.039529067 0.08387486 0.0009231461 0.075038746 0.0989043 -0.104112886 -0.032563597 -0.0063610016
-0.022826947 -0.020145593 -0.1297836 0.08906395 -0.27286842 -0.078838505 -0.0070666857 -0.09609197
-0.02818888 0.031930413 0.19603169 0.0674791 0.016889906 -0.08158142 -0.03691754 0.07540349
0.001057882 0.043533005 -0.02786012 0.0364564 -0.055757154 -0.101347074 -0.038922224 -0.15248324
0.04091907 0.10236242 -0.17856197 0.140194 -0.11687885 0.04340922 -0.106319025 -0.115279794
-0.014153627 -0.16961597 0.0942187 -0.08034987 -0.074985616 0.061014522 -0.15945461 -0.051497836
-0.19422078 -0.11288393 0.036278997 0.10340376 -0.17966183 -0.07222732 0.029141618 0.026754247
0.095172696 0.14229634 0.10449583 0.04143813 -0.014008175 0.2014762 -0.028459942 -0.021616785
-0.046952073 0.044018466 -0.07835249 -0.13815443 -0.000111422945 0.07739791 0.03334449 0.06334026
0.116846226 0.012120493 0.11682546 -0.058307275 -0.0053573893 -0.031758618 -0.08130756 0.026209062
-0.12585443 0.14206427 0.101371035 -0.029846758 0.06620717 -0.1881426 -0.17432667 -0.18096869

network_body.linear_encoder.seq_layers.2.bias f4 [256]
00000000: 0000 0000 0000 0000 0000 0000 0000 0000
00000010: 0000 0000 0000 0000 0000 0000 0000 0000
00000020: 0000 0000 0000 0000 0000 0000 0000 0000
00000030: 0000 0000 0000 0000 0000 0000 0000 0000
00000040: 0000 0000 0000 0000 0000 0000 0000 0000
00000050: 0000 0000 0000 0000 0000 0000 0000 0000
00000060: 0000 0000 0000 0000 0000 0000 0000 0000
00000070: 0000 0000 0000 0000 0000 0000 0000 0000
00000080: 0000 0000 0000 0000 0000 0000 0000 0000
00000090: 0000 0000 0000 0000 0000 0000 0000 0000
000000a0: 0000 0000 0000 0000 0000 0000 0000 0000
000000b0: 0000 0000 0000 0000 0000 0000 0000 0000
000000c0: 0000 0000 0000 0000 0000 0000 0000 0000
000000d0: 0000 0000 0000 0000 0000 0000 0000 0000
000000e0: 0000 0000 0000 0000 0000 0000 0000 0000
000000f0: 0000 0000 0000 0000 0000 0000 0000 0000
00000100: 0000 0000 0000 0000 0000 0000 0000 0000
00000110: 0000 0000 0000 0000 0000 0000 0000 0000
00000120: 0000 0000 0000 0000 0000 0000 0000 0000
00000130: 0000 0000 0000 0000 0000 0000 0000 0000
00000140: 0000 0000 0000 0000 0000 0000 0000 0000
00000150: 0000 0000 0000 0000 0000 0000 0000 0000
00000160: 0000 0000 0000 0000 0000 0000 0000 0000
00000170: 0000 0000 0000 0000 0000 0000 0000 0000
00000180: 0000 0000 0000 0000 0000 0000 0000 0000
00000190: 0000 0000 0000 0000 0000 0000 0000 0000
000001a0: 0000 0000 0000 0000 0000 0000 0000 0000
000001b0: 0000 0000 0000 0000 0000 0000 0000 0000
000001c0: 0000 0000 0000 0000 0000 0000 0000 0000
000001d0: 0000 0000 0000 0000 0000 0000 0000 0000
000001e0: 0000 0000 0000 0000 0000 0000 0000 0000
000001f0: 0000 0000 0000 0000 0000 0000 0000 0000
00000200: 0000 0000 0000 0000 0000 0000 0000 0000
00000210: 0000 0000 0000 0000 0000 0000 0000 0000
00000220: 0000 0000 0000 0000 0000 0000 0000 0000
00000230: 0000 0000 0000 0000 0000 0000 0000 0000
00000240: 0000 0000 0000 0000 0000 0000 0000 0000
00000250: 0000 0000 0000 0000 0000 0000 0000 0000
00000260: 0000 0000 0000 0000 0000 0000 0000 0000
00000270: 0000 0000 0000 0000 0000 0000 0000 0000
00000280: 0000 0000 0000 0000 0000 0000 0000 0000
00000290: 0000 0000 0000 0000 0000 0000 0000 0000
000002a0: 0000 0000 0000 0000 0000 0000 0000 0000
000002b0: 0000 0000 0000 0000 0000 0000 0000 0000
000002c0: 0000 0000 0000 0000 0000 0000 0000 0000
000002d0: 0000 0000 0000 0000 0000 0000 0000 0000
000002e0: 0000 0000 0000 0000 0000 0000 0000 0000
000002f0: 0000 0000 0000 0000 0000 0000 0000 0000
00000300: 0000 0000 0000 0000 0000 0000 0000 0000
00000310: 0000 0000 0000 0000 0000 0000 0000 0000
00000320: 0000 0000 0000 0000 0000 0000 0000 0000
00000330: 0000 0000 0000 0000 0000 0000 0000 0000
00000340: 0000 0000 0000 0000 0000 0000 0000 0000
00000350: 0000 0000 0000 0000 0000 0000 0000 0000
00000360: 0000 0000 0000 0000 0000 0000 0000 0000
00000370: 0000 0000 0000 0000 0000 0000 0000 0000
00000380: 0000 0000 0000 0000 0000 0000 0000 0000
00000390: 0000 0000 0000 0000 0000 0000 0000 0000
000003a0: 0000 0000 0000 0000 0000 0000 0000 0000
000003b0: 0000 0000 0000 0000 0000 0000 0000 0000
000003c0: 0000 0000 0000 0000 0000 0000 0000 0000
000003d0: 0000 0000 0000 0000 0000 0000 0000 0000
000003e0: 0000 0000 0000 0000 0000 0000 0000 0000
000003f0: 0000 0000 0000 0000 0000 0000 0000 0000
0.0 0.0 0.0 0.0 0.0 0.0 0.0 0.0
0.0 0.0 0.0 0.0 0.0 0.0 0.0 0.0
0.0 0.0 0.0 0.0 0.0 0.0 0.0 0.0
0.0 0.0 0.0 0.0 0.0 0.0 0.0 0.0
0.0 0.0 0.0 0.0 0.0 0.0 0.0 0.0
0.0 0.0 0.0 0.0 0.0 0.0 0.0 0.0
0.0 0.0 0.0 0.0 0.0 0.0 0.0 0.0
0.0 0.0 0.0 0.0 0.0 0.0 0.0 0.0
0.0 0.0 0.0 0.0 0.0 0.0 0.0 0.0
0.0 0.0 0.0 0.0 0.0 0.0 0.0 0.0
0.0 0.0 0.0 0.0 0.0 0.0 0.0 0.0
0.0 0.0 0.0 0.0 0.0 0.0 0.0 0.0
0.0 0.0 0.0 0.0 0.0 0.0 0.0 0.0
0.0 0.0 0.0 0.0 0.0 0.0 0.0 0.0
0.0 0.0 0.0 0.0 0.0 0.0 0.0 0.0
0.0 0.0 0.0 0.0 0.0 0.0 0.0 0.0
0.0 0.0 0.0 0.0 0.0 0.0 0.0 0.0
0.0 0.0 0.0 0.0 0.0 0.0 0.0 0.0
0.0 0.0 0.0 0.0 0.0 0.0 0.0 0.0
0.0 0.0 0.0 0.0 0.0 0.0 0.0 0.0
0.0 0.0 0.0 0.0 0.0 0.0 0.0 0.0
0.0 0.0 0.0 0.0 0.0 0.0 0.0 0.0
0.0 0.0 0.0 0.0 0.0 0.0 0.0 0.0
0.0 0.0 0.0 0.0 0.0 0.0 0.0 0.0
0.0 0.0 0.0 0.0 0.0 0.0 0.0 0.0
0.0 0.0 0.0 0.0 0.0 0.0 0.0 0.0
0.0 0.0 0.0 0.0 0.0 0.0 0.0 0.0
0.0 0.0 0.0 0.0 0.0 0.0 0.0 0.0
0.0 0.0 0.0 0.0 0.0 0.0 0.0 0.0
0.0 0.0 0.0 0.0 0.0 0.0 0.0 0.0
0.0 0.0 0.0 0.0 0.0 0.0 0.0 0.0
0.0 0.0 0.0 0.0 0.0 0.0 0.0 0.0
