MLagents/results/hb_11/Mario/Mario-7399.onnx (onnx, 383492 bytes, 16 tensors)

124 f4 [99]
000000 cb 75 3e 3c cb 75 3e 3c cb 75 3e 3c cb 75 3e 3c
       0.011624764 0.011624764 0.011624764 0.011624764
000010 91 ab 86 3c 91 ab 86 3c ad 07 a4 3e cd ab 86 3c
       0.016439231 0.016439231 0.32037106 0.016439343
000020 c6 c6 0e 3d cb 75 3e 3c cb 75 3e 3c cb 75 3e 3c
       0.034857534 0.011624764 0.011624764 0.011624764
000030 ad 07 a4 3e cd ab 86 3c c6 c6 0e 3d cb 75 3e 3c
       0.32037106 0.016439343 0.034857534 0.011624764
000040 cb 75 3e 3c cb 75 3e 3c 29 43 be 3e 14 de fb 3c
       0.011624764 0.011624764 0.37160614 0.030745544
000050 65 86 db 3d cb 75 3e 3c cb 75 3e 3c cb 75 3e 3c
       0.10718993 0.011624764 0.011624764 0.011624764
000060 0e af bf 3e c6 c6 0e 3d 86 42 da 3d cb 75 3e 3c
       0.37438244 0.034857534 0.106572196 0.011624764
000070 cb 75 3e 3c cb 75 3e 3c 03 69 d1 3e 17 de fb 3c
       0.011624764 0.011624764 0.4090043 0.03074555
000080 bc 97 b7 3e cb 75 3e 3c cb 75 3e 3c cb 75 3e 3c
       0.35857952 0.011624764 0.011624764 0.011624764
000090 3b e5 d1 3e 51 cb 49 3d be b6 b6 3e cb 75 3e 3c
       0.409952 0.049266163 0.35686296 0.011624764
0000a0 cb 75 3e 3c cb 75 3e 3c 7f 2d e8 3e 14 de fb 3c
       0.011624764 0.011624764 0.4534721 0.030745544
0000b0 e7 f6 b0 3e cb 75 3e 3c cb 75 3e 3c cb 75 3e 3c
       0.34563372 0.011624764 0.011624764 0.011624764
0000c0 d8 3b e7 3e 58 ae 54 3d 43 fc ab 3e cb 75 3e 3c
       0.45162845 0.05192408 0.33590898 0.011624764
0000d0 cb 75 3e 3c cb 75 3e 3c 00 1d e8 3e 52 cb 49 3d
       0.011624764 0.011624764 0.45334625 0.049266167
0000e0 28 9f 9c 3e cb 75 3e 3c cb 75 3e 3c cb 75 3e 3c
       0.30590177 0.011624764 0.011624764 0.011624764
0000f0 03 67 e8 3e 32 65 72 3d 9b f9 98 3e cb 75 3e 3c
       0.45391092 0.05917854 0.29877934 0.011624764
000100 cb 75 3e 3c cb 75 3e 3c 7e d4 ef 3e 58 ae 54 3d
       0.011624764 0.011624764 0.46841806 0.05192408
000110 45 5d d4 3e cb 75 3e 3c cb 75 3e 3c cb 75 3e 3c
       0.4147741 0.011624764 0.011624764 0.011624764
000120 61 a8 ed 3e 51 88 8c 3d d8 ce d2 3e cb 75 3e 3c
       0.46417525 0.06861938 0.41173434 0.011624764
000130 cb 75 3e 3c cb 75 3e 3c 4f b6 fd 3e 51 88 8c 3d
       0.011624764 0.011624764 0.49553153 0.06861938
000140 59 a5 92 3e cb 75 3e 3c cb 75 3e 3c cb 75 3e 3c
       0.28641775 0.011624764 0.011624764 0.011624764
000150 65 e3 fd 3e 5e df 99 3d ab 6d 86 3e cb 75 3e 3c
       0.4958755 0.07513307 0.26255545 0.011624764
000160 cb 75 3e 3c cb 75 3e 3c 91 ab 86 3c cb 75 3e 3c
       0.011624764 0.011624764 0.016439231 0.011624764
000170 cb 75 3e 3c 3b f2 ba 3e a7 71 92 3e cb 75 3e 3c
       0.011624764 0.36512932 0.28602335 0.011624764
000180 da ab 86 3c 33 20 59 3c cb 75 3e 3c
       0.016439367 0.013252306 0.011624764

action_model._discrete_distribution.branches.0.bias f4 [3]
000000 00 00 00 00 00 00 00 00 00 00 00 00
       0.0 0.0 0.0

action_model._discrete_distribution.branches.0.weight f4 [3, 256]
000000 53 2f 9f 3b e5 29 b5 b8 2b f7 83 bb 48 1a 95 bb
       0.0048579364 -8.638556e-05 -0.0040272675 -0.004550252
000010 83 f7 31 bb cc 40 10 b9 37 1e aa bb 29 80 83 3b
       -0.0027155585 -0.00013757049 -0.00519159 0.0040130806
000020 d0 97 5f bb 8f 44 82 3b a9 94 28 bb 08 88 6b bb
       -0.0034117587 0.003975458 -0.0025723374 -0.0035939235
000030 ae 5d 12 3c 0d 68 56 3b 8e b3 c2 bb 1c ad 39 3c
       0.008933468 0.0032715828 -0.0059418147 0.011332776
000040 01 fc 27 3c b3 fd 23 3c 3f 58 13 bb 42 60 82 bb
       0.0102529535 0.010009217 -0.0022483019 -0.00397876
000050 b7 b0 0c bc 72 7f 89 3b 42 09 02 bb 33 28 66 ba
       -0.008587054 0.004196101 -0.0019841944 -0.0008779794
000060 35 bf bf 3b 26 0c 81 3a d5 c9 7e 3b 3f b2 e1 3b
       0.005851651 0.000984554 0.0038877625 0.0068877037
000070 d0 56 c4 bb cb 13 1c 3c f6 2b 93 bb d6 41 9d bb
       -0.005991794 0.009526203 -0.0044913245 -0.004799108
000080 af ec eb 3b 6b bc dd bb 0a ee a8 3b 0d 0c d9 bb
       0.0071998457 -0.006766846 0.0051553296 -0.006623751
000090 69 37 b2 b6 37 cc 12 bc 00 39 30 3b 89 15 27 3b
       -5.311264e-06 -0.008959821 0.0026889443 0.0025495014
0000a0 77 c8 2e 3b f6 ea 81 3b 29 61 25 bb 94 46 c5 bb
       0.002666978 0.003964777 -0.0025234914 -0.0060203765
0000b0 32 5b d4 ba 9a f6 3b 3a 0e 49 11 3a 8a 81 27 bb
       -0.0016201495 0.00071702304 0.0005542197 -0.002555939
0000c0 2d 21 f4 ba 62 73 7f 3b 72 8b 69 ba 20 ac 41 bc
       -0.001862561 0.0038978686 -0.00089090236 -0.011820823
0000d0 fe 13 0e ba 3a 13 fb ba a4 15 9f bb 9a c0 dc 3b
       -0.0005419849 -0.001915551 -0.0048548747 0.006736827
0000e0 d8 bb 4a bb 21 50 8a bb 08 d8 02 bb 12 bf 30 bc
       -0.0030934718 -0.004220978 -0.001996519 -0.010787742
0000f0 1a 27 5b bb d1 9d c2 bb ed 46 33 bc 3e 93 05 3b
       -0.0033440054 -0.0059392233 -0.010942203 0.0020381953
000100 eb 69 56 3c e1 d9 36 3a 88 2a 73 bb c0 be 47 bc
       0.013086776 0.00069752155 -0.0037104208 -0.012191474
000110 de 5c b2 3b 80 4f a1 3b e7 09 ca 3b 31 69 8a 3b
       0.0054431995 0.004922807 0.006165731 0.0042239656
000120 0f 3a f1 bb 2d 5f 81 3c 6a 15 6a 3b cb 45 00 bc
       -0.0073616575 0.015792454 0.003571833 -0.00782914
000130 fd 6e e7 3b 80 3c 23 3c 72 b1 e2 3b c7 57 9b b9
       0.0070627914 0.009963155 0.006918126 -0.00029629303
000140 6a 40 c2 39 cf 63 af bb e6 6a 88 bb dd 86 e3 bb
       0.00037050556 -0.0053524743 -0.004163134 -0.006943567
000150 20 ca ed 3b 55 eb e7 bb e1 47 90 3a 58 76 be bc
       0.007256761 -0.0070776143 0.001100775 -0.02324979
000160 5b b3 19 3b 8d db fd ba 48 5a 5b bb a3 dc 39 3a
       0.0023452851 -0.0019367799 -0.003347056 0.00070900674
000170 1e 05 1b 3c 43 17 aa 3b ad 3f 6f 3b d8 85 52 3a
       0.009461669 0.0051907613 0.003650646 0.00080308085
000180 a7 c2 81 3b 17 76 a6 3a e7 9a 36 bc c3 6a 60 bb
       0.003959972 0.0012699988 -0.01114533 -0.0034243322
000190 8d 56 0a bc 92 b2 9c 3b 67 6f f4 3b 6b 5c 26 3c
       -0.008443487 0.0047820294 0.0074595693 0.01015387
0001a0 0f 57 9b 3b 0f c5 44 3b 5b 29 0d 3b e0 a2 64 bb
       0.004740603 0.0030024683 0.0021539542 -0.003488712
0001b0 e7 97 33 bb 7b 7d 35 bb ba 64 25 3c 29 dc 01 ba
       -0.0027403773 -0.00276932 0.010094816 -0.0004953766
0001c0 c3 98 8c ba 2f dd 25 3c 87 87 06 ba b5 e7 15 3c
       -0.0010726679 0.010123535 -0.00051318895 0.009149482
0001d0 3b 66 c3 39 77 11 3e 3a 5a 7b 2f 3b 97 cc 3b bb
       0.00037269466 0.0007250527 0.0026776404 -0.002865588
0001e0 e6 01 c3 ba 6b ec 11 3c 48 4e 88 3b fa 7a f6 3b
       -0.0014877885 0.008906464 0.0041597225 0.007521984
0001f0 eb a9 fc 39 d8 ca 1d bc 8d 6f f6 3a bd a2 11 ba
       0.00048191784 -0.009630881 0.0018801555 -0.0005555561
000200 bf c3 56 bb 32 c2 3d 3c 44 b2 35 bb 38 10 92 bb
       -0.0032770482 0.011581944 -0.0027724663 -0.0044575
000210 c5 af ee 3b 8c 09 95 3b cf c7 1b 3c 22 d7 bf 3b
       0.007284137 0.004548257 0.009508087 0.0058545033
000220 f3 e6 35 ba ba a5 e2 3b db fc 39 bb 1b f8 97 ba
       -0.0006939016 0.006916729 -0.0028379473 -0.0011594327
000230 b5 3a e8 bb 81 39 16 3c e2 f4 84 bb 8d fa 96 3b
       -0.0070870765 0.009168983 -0.0040575126 0.0046075047
000240 5b 5d 77 3b cb be 0e bc 22 29 2b bc eb ed fa 3b
       0.0037744853 -0.008712481 -0.010446819 0.0076577566
000250 e2 36 08 3c 1e 19 8e bb d8 c7 aa 3b 74 ac ca ba
       0.008313866 -0.0043364903 0.0052118115 -0.0015462772
000260 6d d1 c5 3b 4f a9 39 3b 8b 8b 43 bb 3d 95 47 3b
       0.0060369284 0.0028329676 -0.0029837813 0.0030453943
000270 bc 32 b4 bb 75 61 d2 3b c1 98 1b 3b 17 bc a5 bb
       -0.005499212 0.006420309 0.0023742171 -0.0050578224
000280 8d 00 51 3b c5 4e 79 ba ad 42 a1 3b 25 b3 10 bc
       0.0031891197 -0.0009510334 0.0049212785 -0.008831774
000290 bb a9 32 ba dd 47 1d bb ab 55 43 3c d8 bc d8 3b
       -0.0006815453 -0.0023999133 0.01192228 0.006614309
0002a0 34 c0 89 3b f8 d5 1e bb 62 f6 06 3b 3a 04 09 bb
       0.0042038206 -0.0024236422 0.0020593633 -0.002090706
0002b0 1f 6a a6 3b c9 aa cc 3b 83 e7 fa 3a 9b d7 39 bc
       0.0050785686 0.006245945 0.0019142482 -0.011342908
0002c0 27 67 73 3b 83 e3 7d 3b 87 5b fe bb 77 4c 13 bb
       0.003714034 0.0038740344 -0.0077623758 -0.0022475997
0002d0 07 68 2c 3b 4a f0 3a bb 7a d8 36 bc 31 6d a6 b9
       0.0026307122 -0.002852457 -0.0111600105 -0.0003174334
0002e0 bf 41 a8 b7 d6 d3 c1 b9 ea ca 64 bb 39 17 32 3b
       -2.0057776e-05 -0.0003696966 -0.0034910985 0.0027174486
0002f0 64 bc 04 3b 17 d2 8a 38 84 48 49 3b 4b d5 0a 3b
       0.002025389 6.619485e-05 0.0030713389 0.0021184261
000300 0f c2 7a 3b 2a a5 6d bb 99 09 25 3c df 3a 0a bb
       0.003826264 -0.0036261776 0.010073089 -0.0021092219
000310 7d 73 b0 3a 12 78 cf 3b 10 3f f4 bb fb a5 9c ba
       0.0013462153 0.006331452 -0.0074538067 -0.0011951322
000320 e7 51 40 3b 7d 96 60 3a b3 5c 93 3a 17 55 09 3c
       0.0029345693 0.00085673464 0.0011242836 0.008382103
000330 e8 c6 5d ba 22 9d d4 3b d0 62 ff ba 93 98 00 3c
       -0.00084601203 0.0064884583 -0.0019484404 0.0078488765
000340 97 37 f4 bb d2 db e7 3b 8f 7c 0b 3b cd 1e 56 3b
       -0.007452916 0.007075765 0.002128396 0.0032672167
000350 4a 58 5a b9 bc 7b 86 3b df 24 0d 3c 93 99 33 3b
       -0.0002082299 0.0041041058 0.008614748 0.002740477
000360 07 bf e0 3b 36 29 29 bc 80 5d 50 bb 53 46 d3 ba
       0.0068587097 -0.010324767 -0.0031794012 -0.0016118981
000370 02 af d1 bb 6f dc 06 3c ca 33 fb 3b c9 44 11 3c
       -0.0063990364 0.008231266 0.007666086 0.008866497
000380 10 24 72 bc 77 5e 00 3c 62 99 d2 3a 57 40 37 3c
       -0.014779106 0.007835022 0.001606744 0.011184773
000390 7c 5c 0e 3c 6b 88 d1 bb 06 6b 1a bc 3a 71 0e ba
       0.008689042 -0.006394436 -0.00942493 -0.0005433742
0003a0 16 69 40 bb e9 c1 0c bb 45 d5 dd b9 33 f4 3e bc
       -0.002935951 -0.0021477884 -0.00042311303 -0.011654901
0003b0 c0 b8 df 39 bd b6 3a 3b 2b b4 5c bb 72 10 a8 3b
       0.00042671524 0.0028490268 -0.0033676724 0.0051289136
0003c0 32 6f e8 bb 96 01 ba 3b f9 04 91 bb 9f 5a 26 3c
       -0.0070933336 0.0056764586 -0.0044256416 0.010153442
0003d0 41 a6 c3 3b 81 33 b2 39 1a ff 5a 3a 66 ae 3d bc
       0.0059707467 0.0003398918 0.0008354053 -0.011577224
0003e0 53 82 7b 3a 85 dc b5 ba fa a1 39 bb 73 ce 21 3b
       0.000959431 -0.0013874924 -0.0028325305 0.0024689704
0003f0 a7 ba 26 bc b0 07 93 ba d3 1e 1c 3c 2d 92 4d 3c
       -0.010176337 -0.0011217501 0.009528833 0.012547058

action_model._discrete_distribution.branches.1.bias f4 [2]
000000 00 00 00 00 00 00 00 00
       0.0 0.0

action_model._discrete_distribution.branches.1.weight f4 [2, 256]
000000 cd 33 bd 3b 9c f3 03 3c 16 1d c3 3b 01 85 81 bc
       0.0057739974 0.0080536865 0.005954395 -0.015810492
000010 5d a6 72 3b ea 95 c7 bb 02 4c 06 3c 0a 91 e4 ba
       0.003702543 -0.006090869 0.008196833 -0.0017438245
000020 0f 06 b3 bb 9d 34 42 bb 79 ad bd bb ed 77 06 bc
       -0.0054633687 -0.002963341 -0.005788502 -0.0082073035
000030 92 22 f1 39 fb 09 9e 3b bf 31 ef bb d5 67 7b ba
       0.0004599286 0.004822967 -0.0072996314 -0.00095903623
000040 9d a5 54 bb 6f f2 61 3b 04 14 1b 3b df f9 4e b9
       -0.0032447346 0.0034476777 0.0023663053 -0.00019738775
000050 5d b9 2e bb ab 5d e8 3b dd 21 0c bc 02 d2 fe 3a
       -0.0026660778 0.007091244 -0.0085529955 0.0019441249
000060 9f dc 89 39 47 7f 98 3b 75 5c 50 3a a2 e8 98 ba
       0.00026295052 0.0046538445 0.00079483475 -0.001166601
000070 27 b1 b5 39 2b 89 ae bb 11 4b 46 3b d7 3f 32 bb
       0.00034655 -0.0053264103 0.0030257145 -0.0027198696
000080 c8 33 86 3b 82 82 cf 3a 82 65 74 3b 93 f6 88 3a
       0.0040955283 0.0015831741 0.0037291949 0.0010449461
000090 33 be 1a 3a 61 1f 42 3b 5f 56 25 3c 4b e7 16 3b
       0.00059029757 0.0029620754 0.010091393 0.0023026045
0000a0 73 06 71 3b 82 59 5d 3a c2 d8 2f 3b 45 b8 4c bb
       0.0036777526 0.00084438187 0.0026832079 -0.0031237763
0000b0 67 8a 3f 3b 00 a2 61 b9 1f 82 01 3c 50 77 50 bb
       0.0029226781 -0.00021518022 0.007904558 -0.0031809397
0000c0 81 f2 92 3b a8 0d 1a 3c 7d bb cf bb bd 3d 32 bb
       0.004484475 0.00940267 -0.006339489 -0.0027197443
0000d0 07 9c 77 3a 2b 6a 0b 3c 14 33 3a bc 23 11 71 bc
       0.0009445552 0.008509199 -0.011364717 -0.014713558
0000e0 cf ee 02 bb d2 c6 d8 bb 40 c2 b7 bb 8e 66 43 bb
       -0.0019978767 -0.006615498 -0.005607873 -0.0029815766
0000f0 95 99 c2 ba f2 21 1d bc cc a3 0f 3c 14 46 3a 3b
       -0.0014846796 -0.009590613 0.00876708 0.0028423117
000100 1b eb 69 bb bb c5 e7 bb 34 4b 1f bb 6c 76 2e b7
       -0.0035693112 -0.007073132 -0.00243063 -1.039878e-05
000110 e2 e2 ee 3b 9f 7f 1a ba d7 07 6e 3c eb 59 b3 bb
       0.00729023 -0.0005893651 0.014528236 -0.0054733655
000120 c9 5d b2 3b cb b2 91 3a e7 18 54 3b 57 26 a6 3a
       0.005443309 0.0011115907 0.0032363476 0.0012676221
000130 ca 5e b8 ba 85 dc 12 3c 02 b5 9d 3a ed 99 4d 3b
       -0.0014066335 0.008963709 0.0012032094 0.0031372264
000140 ef 5d 87 39 8a 78 f1 ba 21 30 84 3b c5 45 aa 3b
       0.00025819193 -0.0018422764 0.0040340577 0.0051963055
000150 db 4e 24 3b 8b 1c 1e 3b f2 e1 2a bc 50 52 1c bc
       0.0025071416 0.00241259 -0.010429846 -0.009541109
000160 1c 98 c5 3b a6 0c 37 bc dd c4 0d 3b 1d 7d 02 bb
       0.0060300957 -0.011172449 0.0021632232 -0.0019911
000170 b3 51 14 bc 77 8d a9 3b 7f 78 2e bc a6 e6 22 3c
       -0.009052682 0.0051743346 -0.010648846 0.009942686
000180 28 98 25 3b 74 2c 09 3b 1c 14 8b bb 70 2a 9c ba
       0.0025267694 0.0020931037 -0.0042443406 -0.0011914503
000190 d1 43 c3 ba 02 fb 5b bb 8a f2 18 3c 9f 93 ce 3b
       -0.001489753 -0.003356636 0.00933517 0.006304219
0001a0 76 be 45 bb 3c 49 bf b9 35 32 49 bb e0 e7 02 3c
       -0.0030173338 -0.00036484923 -0.0030700092 0.007989854
0001b0 bd 6b d4 3b 3d 56 39 3c 51 68 28 bb f5 ba ae 3b
       0.00648257 0.011312065 -0.0025696943 0.0053323456
0001c0 86 e0 a2 bb 64 e8 1a bc 7e fa 1b 3c af 2f 08 3c
       -0.004970613 -0.00945482 0.009520171 0.00831215
0001d0 07 1c 0e bb fa 9b 40 3b 20 81 7e bb 78 e0 d1 bb
       -0.0021684186 0.0029389844 -0.0038834289 -0.0064049326
0001e0 70 ab fd 38 d3 ee 44 bc 6b 57 3c 3b f6 40 cb 3b
       0.00012095913 -0.012019831 0.0028738629 0.0062028123
0001f0 03 07 2e bb 28 cd 67 bb 39 83 b7 39 77 c3 5a 3b
       -0.0026554472 -0.0035370085 0.00035002248 0.0033380666
000200 7e 96 be bb 85 60 47 bc b7 14 62 3b ec 3c b1 39
       -0.00581628 -0.012169008 0.003449721 0.0003380546
000210 6b 8e bf 39 e2 95 5d 3b 6b af 3f 39 b9 fe 82 bb
       0.00036536469 0.003381126 0.00018280528 -0.0039976505
000220 a1 bb 2e 3c cf 66 e3 bb ab b2 6c 3b 64 57 3d bb
       0.010664851 -0.006939746 0.0036117237 -0.00288912
000230 87 7f 87 bb 18 f8 d9 3a 6c d0 27 bb 3c f3 35 bb
       -0.0041350755 0.0016629724 -0.0025606407 -0.0027763387
000240 df 8b cd bb a8 16 bb bb 3f 68 f7 38 82 fa ff bb
       -0.0062727774 -0.005709488 0.00011797295 -0.0078118453
000250 4f 0c 74 3a 24 06 85 3b 77 4d 8a bb ca 63 ef 3b
       0.00093096955 0.00405957 -0.0042206603 0.007305597
000260 09 3e 00 bb 75 93 29 3b da 32 26 3b 7b d2 a2 ba
       -0.0019568226 0.0025875245 0.00253599 -0.0012422347
000270 ff 59 ff bb e1 e1 25 3c fa 6a 8b bb 94 43 83 bb
       -0.007792711 0.0101246545 -0.004254696 -0.0040058587
000280 b5 27 35 bc e3 6d c3 ba 91 26 97 3b 48 5d e1 ba
       -0.01105683 -0.0014910068 0.004612752 -0.0017193938
000290 ee 7d 4a 3b 8e 0c 32 3a 1b 4a 9d 3a a8 98 e2 3a
       0.0030897814 0.0006792032 0.0012000235 0.0017287927
0002a0 c0 4f e6 bb c7 b7 08 3c 8a 1e 0c bb 20 ab 77 3a
       -0.00702855 0.008344597 -0.0021380507 0.0009447802
0002b0 70 9c a5 3b df 5e 5c 3b 85 2f 4a 3c 62 05 ca 3b
       0.005054049 0.0033625884 0.012340431 0.0061651925
0002c0 b3 96 ad bb a1 2b 92 bb 46 f4 33 39 10 fc a7 3b
       -0.0052975058 -0.0044607674 0.00017161769 0.0051264837
0002d0 a0 57 51 ba 5b bf fc bb 7e 9d a3 bb fb a8 65 3a
       -0.00079857744 -0.007713241 -0.0049931398 0.0008760837
0002e0 38 81 fa 3b e5 bf 9d bc 7b 98 40 bc 2f 41 09 3c
       0.0076447986 -0.019256542 -0.011755104 0.008377357
0002f0 0f f4 f6 ba 7d 64 c9 3b d7 43 12 bc 07 98 29 3b
       -0.0018841046 0.0061460123 -0.008927307 0.002587797
000300 af e6 e5 ba 2e e2 0a 3a 08 0a 1c 3c 67 42 a9 bb
       -0.0017540063 0.00052979856 0.009523876 -0.0051653865
000310 7d 65 32 3c 5e 4a 93 3b db 40 0d bb 4b b1 05 bc
       0.0108884545 0.0044949492 -0.002155355 -0.008159946
000320 0c b1 10 bc 15 46 a3 3a b9 7d c0 bb 78 b5 34 bb
       -0.008831274 0.0012456799 -0.0058743623 -0.0027573984
000330 4e 36 8b bb c9 d2 8a 3b a7 d8 59 b9 1a 3d c9 3a
       -0.004248417 0.0042365533 -0.00020775442 0.0015353293
000340 5b b8 0b 3c a9 64 95 bb af 5d 6b bc c9 d6 08 3b
       0.0085278405 -0.0045591188 -0.014365598 0.0020879975
000350 ab a9 61 3b 80 94 cd ba 20 82 eb bb 4b 41 71 bc
       0.0034433405 -0.0015684515 -0.007187143 -0.01472504
000360 b7 35 66 3b bf a4 1c bb a0 bd d1 3a 3f 6b a7 ba
       0.0035127231 -0.0023901907 0.0016001947 -0.0012773051
000370 8f 6b 23 3c 95 c4 d5 3a 24 06 88 ba 10 7f 3e 3b
       0.009974374 0.0016309196 -0.0010377807 0.0029067434
000380 97 8e c1 bb b8 a2 9c bb 65 ab ee 3b 0f bd b6 3b
       -0.0059068906 -0.00478014 0.0072836154 0.0055767368
000390 e5 52 1c bb d3 27 21 bb e0 0f 99 bb 07 21 bb bb
       -0.002385312 -0.0024590387 -0.004671082 -0.0057107243
0003a0 78 57 2b 3c d2 72 dc 3b 53 83 ee 3b 4b 65 2e 3b
       0.010457866 0.006727555 0.0072788387 0.0026610668
0003b0 e5 22 97 ba 83 dc 22 bc 5d 19 ee bb 65 de 71 bb
       -0.0011530785 -0.009940269 -0.007266207 -0.003690624
0003c0 47 0c 30 3b ab 9b a7 3b 24 3f 1f bb ac 39 03 bc
       0.0026862787 0.0051149926 -0.002429911 -0.0080093555
0003d0 95 dc 0d 3a 47 92 59 bc cb 03 ab 3b 9d c3 15 3c
       0.00054115924 -0.013279504 0.005218958 0.009140876
0003e0 d0 70 f5 bb c7 b8 d7 3b 93 a8 e1 3a 82 f0 e7 3b
       -0.007490255 0.0065833065 0.0017216377 0.0070782313
0003f0 f9 a0 00 3c ae 50 37 3b 5b 1f 5c ba b7 60 09 3b
       0.007850879 0.0027971673 -0.00083970063 0.0020962188

action_model._discrete_distribution.branches.2.bias f4 [2]
000000 00 00 00 00 00 00 00 00
       0.0 0.0

action_model._discrete_distribution.branches.2.weight f4 [2, 256]
000000 d3 e9 01 bc 26 df 09 3b dd f9 11 3c f2 6b a4 bb
       -0.007929283 0.0021037548 0.00890967 -0.005017751
000010 a6 fc b9 bb ae 3c 07 bc b8 5f 3c bc d3 fa d6 bb
       -0.00567587 -0.008254213 -0.0114974305 -0.0065606623
000020 87 07 ae 3b cf c4 47 3b 3c 2b 9c 3b bb 07 49 bc
       0.005310956 0.0030482297 0.004765896 -0.0122699095
000030 50 19 e1 ba 02 47 0e 3a e5 6c b6 ba 4b f0 ef bb
       -0.0017173681 0.0005427451 -0.0013917951 -0.0073223463
000040 29 e2 b2 38 a2 5e 94 3b 70 34 13 bc 56 62 06 bc
       8.529827e-05 0.0045278827 -0.00898467 -0.008202156
000050 0f 34 d4 3b 57 e6 ea bb 8f c2 10 bb 95 7a 6b bc
       0.0064759324 -0.007168572 -0.0022088622 -0.014372488
000060 5d 48 dd bb 1f 00 e3 bb fe a4 09 ba 56 38 21 3b
       -0.006753011 -0.0069275047 -0.0005250721 0.002460023
000070 0a 16 14 3c 20 56 61 bb 5f 75 89 3b 1b 8f 90 3a
       0.009038458 -0.003438361 0.0041949 0.0011028977
000080 58 d8 06 bc 34 74 2a 3b 98 2d fa 3a f7 8a f2 bb
       -0.008230291 0.0026009204 0.0019087074 -0.00740182
000090 b8 d7 3e 3c fa d5 12 ba bb 3c 23 bc 9f bf cb bb
       0.011648111 -0.0005601343 -0.00996321 -0.0062179114
0000a0 ca 7c dd 3b ec d4 8c bb 53 50 96 3b 09 af 31 ba
       0.006759261 -0.004297843 0.004587212 -0.00067780964
0000b0 fc 6a 48 3b 35 54 be 3b 10 c6 5b 3c 72 f4 9d 3b
       0.0030581346 0.005808378 0.013413921 0.0048204
0000c0 4a f1 d7 bb f4 32 16 3c 0b 02 1a 3c 9b 7c 14 3c
       -0.006590043 0.009167422 0.009399901 0.009062911
0000d0 2e 3e 9f 3b eb b9 d0 bb 43 84 11 bc 93 30 26 bb
       0.0048597073 -0.0063698194 -0.008881631 -0.0025358542
0000e0 c4 d7 2f bb 3b 04 54 bb b2 c9 6e bc 20 b7 80 3a
       -0.0026831487 -0.0032351154 -0.014574455 0.00098202
0000f0 6b 14 1c bb 6d f5 23 bb 43 1e 6b bb af 12 72 3a
       -0.002381588 -0.0025018111 -0.0035876192 0.00092343515
000100 78 75 3d ba 36 f6 c7 bb 93 f5 34 bb c7 fd 42 3c
       -0.0007227282 -0.0061023487 -0.0027612194 0.011901326
000110 92 39 fd 3b 2a 1e e6 38 e2 29 d9 3a a0 b5 f3 bb
       0.00772781 0.00010972873 0.0016568268 -0.007437423
000120 6d e6 44 3a 3e b9 2c bc 2c 3d 2c bc 09 0e 1f 3c
       0.0007511143 -0.010542212 -0.010512631 0.009707936
000130 eb f3 00 3b dd b4 b9 ba 8f 3e e4 3b 7a 29 db bb
       0.0019676636 -0.0014168281 0.0069654654 -0.006688294
000140 80 bc 31 3c 30 14 53 3b 7f 30 1e 3c a7 4b 6f 3c
       0.010848165 0.0032208078 0.009655117 0.014605439
000150 61 2d 14 bb 4e fb 96 3a 26 a5 1f 3b 63 6e 9e b9
       -0.0022610056 0.0011518986 0.002435991 -0.00030218353
000160 2a c1 e6 bb ac a0 03 bc 7a 48 f8 ba 6b 37 69 3b
       -0.00704207 -0.008033913 -0.0018942498 0.003558601
000170 4b c0 13 bb 6b 27 f6 3b 7c 5d c8 bb fa 0f 57 bb
       -0.0022545035 0.007512023 -0.00611466 -0.003281592
000180 dc 1d 02 bc b1 5c 06 3c 9f ce f7 ba 46 c2 8e 3b
       -0.007941689 0.00820081 -0.0018906182 0.0043566553
000190 ad 8d 05 b9 87 64 4a 3b e7 72 b8 3b 60 24 9f 3a
       -0.00012736647 0.0030882673 0.005628932 0.0012141578
0001a0 61 36 21 bb 28 8e 7f bb 10 c7 56 3b e7 2b 55 bc
       -0.0024599063 -0.0038994644 0.003277246 -0.013010955
0001b0 4d 55 bd 3b 9b 24 5a ba 7b 63 94 3b db 9f e9 3b
       0.005777991 -0.00083214947 0.0045284606 0.007129652
0001c0 75 74 e0 3b 41 04 31 3c c1 0f 25 3c 4f 76 91 3a
       0.0068498203 0.010804237 0.010074557 0.0011097881
0001d0 24 cb b4 3b 8d 10 61 bb 35 5e 59 bc 18 4c 01 bc
       0.0055173803 -0.003434214 -0.01326709 -0.007891677
0001e0 15 99 1b bc cb fb f1 3b e7 35 06 3c 88 fd a2 ba
       -0.009496947 0.0073847524 0.008191562 -0.0012435177
0001f0 e1 b4 ab bb 68 58 d9 3b 9a 6d 28 ba 9f 33 41 bb
       -0.0052400683 0.0066328533 -0.00064250233 -0.0029480231
000200 cd 91 ea b9 66 79 ad 3b 99 bd a8 3b 38 30 8e 39
       -0.00044740588 0.005294013 0.005149555 0.00027120276
000210 9f 04 af b9 6c 72 c0 b9 f7 60 fb 3a 9b c0 57 bc
       -0.00033382044 -0.00036706345 0.0019178678 -0.013168479
000220 7a 9b 67 3b 87 71 bb 3b 6a 9b db b9 d8 82 00 bc
       0.0035340474 0.0057203206 -0.00041886728 -0.007843696
000230 c5 7f 4d 3a 55 67 76 3a 76 35 a1 3b c7 8d 96 3b
       0.00078391685 0.0009399553 0.004919703 0.004594538
000240 f3 be 19 b9 30 85 78 3b a4 ce 2e 3b db 2b b3 ba
       -0.00014662351 0.0037921183 0.002667346 -0.0013669686
000250 10 20 fc 3b 6b 99 a4 3c 08 4e 0d bc 02 0c d1 3a
       0.007694252 0.020092687 -0.008624561 0.0015949013
000260 87 4e 36 3c cf 39 4d bc 9c 68 44 bc 57 e5 ab 3b
       0.011127121 -0.01252599 -0.011987831 0.0052458453
000270 03 5c 8c 3b 90 60 66 3c 6b 5b 17 3b 3b a5 96 3a
       0.0042834296 0.014061108 0.002309526 0.0011493334
000280 17 76 04 3b fd 24 df bb 40 4c 97 bb 37 d0 2e bb
       0.0020211989 -0.0068098293 -0.004617244 -0.0026674399
000290 eb ca ba 3b 0f a9 58 ba e3 25 0d 3c 04 9e b5 3b
       0.0057004592 -0.0008264938 0.00861499 0.0055425186
0002a0 92 3c 01 3c 58 54 32 bc 85 23 48 bb fa 95 b4 bb
       0.007887976 -0.010884367 -0.003053875 -0.0055110427
0002b0 64 13 81 3b 7f 28 47 3c 34 c0 17 bb 9f 22 b6 ba
       0.003939079 0.012155651 -0.0023155333 -0.0013895816
0002c0 37 d6 1f 3a 54 09 be ba e7 a0 2c 3b 49 c3 84 bb
       0.0006097289 -0.001449863 0.0026341022 -0.0040516
0002d0 45 70 0b 3c 8b ba 10 b8 e2 75 50 3c 02 b9 63 3a
       0.008510654 -3.4506007e-05 0.012723418 0.0008686931
0002e0 0c d1 9f 3a 72 e2 7e bb 50 50 14 bb cd ef 1d 3b
       0.0012193038 -0.0038892296 -0.0022630878 0.0024099231
0002f0 db cd 9c 3b a6 6e a9 bb cb c9 14 3b 32 7a d5 bb
       0.004785282 -0.005170661 0.0022703286 -0.006514811
000300 e3 fc fe 3b 0b dd 59 bb 02 4e a5 3b f9 57 05 bc
       0.0077816113 -0.0033243324 0.0050446996 -0.00813865
000310 ff 18 a4 bb 57 8b 50 3b c2 87 d2 39 af 2e 7c ba
       -0.0050078626 0.0031821334 0.0004015547 -0.00096199935
000320 e7 c9 84 3b ee 31 97 ba 48 e2 6a bb cb 8f 31 bc
       0.004052389 -0.0011535266 -0.003584044 -0.010837506
000330 68 dd f2 bb 3a c4 84 39 2d 87 4c 3b cd b9 ff 3b
       -0.0074116476 0.00025323202 0.00312085 0.0078041316
000340 04 db 09 3b 3b 83 31 bc 4f b6 01 bc 43 07 b5 3b
       0.0021035085 -0.01083451 -0.007917001 0.0055245473
000350 28 8d 30 bb 45 c3 5f 3b 56 af 99 bb 38 d2 64 ba
       -0.0026939604 0.003414349 -0.004690091 -0.0008728835
000360 7a 9d 8c b9 43 bf b5 ba ff 4d 8f 3b 99 8c 17 39
       -0.0002682021 -0.0013866205 0.0043733115 0.00014452859
000370 25 c8 00 3c 55 f7 9b 3a 75 c3 25 3b d8 21 0c bb
       0.007860218 0.0011899272 0.0025293503 -0.0021382477
000380 73 1e 41 bc 89 34 38 bc 21 db 23 3a bd d3 89 39
       -0.011787045 -0.011242994 0.00062506093 0.00026288434
000390 5a ad 1f bc cf 27 18 bc bb ca c3 ba 37 52 cb 3b
       -0.00974592 -0.009286835 -0.0014937738 0.006204869
0003a0 fe 9e 00 bc 9a 2f 0c 3c ed e1 99 bb 84 cb c4 ba
       -0.007850407 0.008556271 -0.004696122 -0.0015014266
0003b0 04 32 24 bb 00 fd ec 3b e2 89 6f bc a0 43 f7 3b
       -0.0025054226 0.0072323084 -0.014620276 0.0075459033
0003c0 cf 8a 7b bb af f3 d6 bb 0b ab 66 bb cc c7 a3 3a
       -0.0038382297 -0.006559811 -0.0035197164 0.0012495457
0003d0 5b cf 85 3b 20 9d 1b 3c 9c 7f 1c 3c 9a d1 bc ba
       0.0040835566 0.009497911 0.009551909 -0.0014405728
0003e0 55 1f 73 ba d2 e7 76 bb 87 87 11 bc d3 58 c4 3b
       -0.0009274383 -0.0037674797 -0.00888241 0.005992034
0003f0 27 1d 20 3b 08 ab 3c bc 51 04 3f 3b a7 ae f2 3a
       0.0024431439 -0.011515386 0.002914686 0.0018515185

action_model._discrete_distribution.branches.3.bias f4 [2]
000000 00 00 00 00 00 00 00 00
       0.0 0.0

action_model._discrete_distribution.branches.3.weight f4 [2, 256]
000000 e7 35 2e 3c 0d 1c f9 3a 32 ff 47 bb e3 d7 73 3b
       0.0106329685 0.0019005552 -0.0030517098 0.0037207536
000010 9b b5 8a ba 2a c5 10 3b f5 0c f4 3b 9d f4 66 3b
       -0.0010582687 0.0022090175 0.0074478337 0.0035241016
000020 99 1f 2c bb d9 86 c5 bb 78 79 4d bb d3 6c 2e bc
       -0.002626395 -0.006028038 -0.0031352919 -0.010646063
000030 4c 09 36 bb cc c2 07 3c 17 5f 2d ba 4a 9f 4d 3b
       -0.0027776537 0.008286189 -0.0006613596 0.0031375461
000040 0d 1f fe 3b 7f 08 b4 3a ad 07 0f bc 4f e9 cd 3b
       0.0077551664 0.0013735442 -0.008729857 0.006283916
000050 77 80 f2 bb 61 95 15 bc 3b cb 13 3b 9b f8 08 b9
       -0.007400568 -0.009129853 0.0022551555 -0.00013062583
000060 0c fb 40 3b 2f 48 98 3c 5e ba 36 bc 73 17 1d 3a
       0.002944651 0.018589107 -0.011152832 0.0005992569
000070 c1 a7 c0 3a 65 98 d9 3b 84 12 41 ba 26 5e ae ba
       0.0014698432 0.0066404813 -0.0007365125 -0.0013303205
000080 fe 24 8a bb 44 6b af bb db 3d af 3a 55 08 d0 bb
       -0.0042158356 -0.005353363 0.0013369875 -0.0063486495
000090 e3 53 6c 3c 65 b7 d4 3a c5 33 d8 3b 4f b1 59 ba
       0.014424297 0.0016228972 0.0065979683 -0.0008304314
0000a0 8d b6 fb 39 fd b1 f2 3b d9 7e 19 3c 25 db 4d bb
       0.00048010462 0.0074064718 0.009368622 -0.0031411138
0000b0 3e e0 ad bb 07 2f 44 3b a7 25 f4 3a d1 bb 42 3b
       -0.005306273 0.0029935257 0.0018626944 0.0029713998
0000c0 2d a7 6e 3a 93 8c 7c bb 52 55 80 bb 6d ec 1d 3c
       0.00091038906 -0.0038535937 -0.003916421 0.009638888
0000d0 7b 6e 62 bb 8f ca 00 3c 05 db d0 3a 2b 96 96 3b
       -0.0034550715 0.007860794 0.0015934414 0.004595538
0000e0 51 cf 09 ba b5 07 0d 3c 9b 97 45 bc eb a5 ee 3b
       -0.0005257028 0.0086077945 -0.012060071 0.0072829626
0000f0 6d 6e e4 bb 40 4b ee bb de c6 31 bc ed 35 8b bc
       -0.0069711716 -0.007272154 -0.010850636 -0.016993487
000100 52 b9 8f b9 96 07 bc 3b 47 40 31 ba 2e 30 99 bb
       -0.0002741316 0.005738209 -0.0006761592 -0.004674933
000110 f0 d7 ab b8 27 c5 3b 3c 63 6d d1 bb a9 77 4a 39
       -8.194137e-05 0.011460579 -0.0063912137 0.00019308798
000120 0b ed b5 3b 41 40 27 3c d1 03 8c 3b d4 9d 01 3b
       0.0055519394 0.01020819 0.004272916 0.001977791
000130 db 9c 15 bc 57 61 04 ba 52 67 b7 3b c6 d0 be 3b
       -0.009131636 -0.0005049905 0.0055970335 0.0058232276
000140 3b fc a8 bb 6f 7a a3 bb 39 97 b4 3a 1f f8 92 3b
       -0.0051570213 -0.0049889605 0.0013777978 0.0044851447
000150 12 5f f1 bb c3 19 e9 bb a8 f6 7c 3a 93 28 3c 3a
       -0.0073660696 -0.0071136667 0.0009649792 0.0007177677
000160 2b fe 74 37 8d 50 39 3b 39 ec 0e ba 1e 46 8e ba
       1.4602711e-05 0.0028276772 -0.000545207 -0.0010854637
000170 1b 1c 72 bb 72 97 eb ba af 93 b4 bb ba fa 00 bc
       -0.0036943022 -0.0017974211 -0.0055107693 -0.007872278
000180 89 c3 99 3c 31 b3 13 bb 47 ef d6 bb 17 48 e5 3b
       0.018769996 -0.0022537226 -0.006559286 0.006997119
000190 26 b4 43 3c 93 78 31 3b 7c 51 9c 3a 37 41 d5 3a
       0.011944806 0.0027079924 0.001192614 0.0016270046
0001a0 1b 91 a1 bb 93 fe 81 ba 0d 4d 18 bc 27 77 ba 3b
       -0.004930628 -0.0009917788 -0.009295714 0.0056904736
0001b0 cb af ac 3b 00 8e c7 b9 24 a3 a4 3b 94 a0 a4 3b
       0.0052699796 -0.00038062036 0.0050243307 0.005024025
0001c0 23 6d b6 bb ab 9a 9e bb 0b 65 fc bb b3 e2 7e bb
       -0.0055672093 -0.004840215 -0.007702475 -0.0038892447
0001d0 c1 8d 95 bb 03 da 47 bc af 21 6f 3a ac 14 88 3b
       -0.0045640175 -0.012197974 0.0009122146 0.004152855
0001e0 0f 3f 5e bb 7b 63 9b 3b f6 59 89 bb 1d 0b 69 3b
       -0.0033912098 0.0047420836 -0.0041916324 0.0035559603
0001f0 f3 23 0c 3c 80 65 ce 3a bf b4 9e 3a 2f 90 07 3b
       0.008553493 0.0015746802 0.001210831 0.0020685305
000200 bd a9 3a bb 62 76 22 bc fe e4 b3 ba e0 e4 31 bb
       -0.002848252 -0.00991592 -0.0013724861 -0.0027144477
000210 0d 17 d4 39 d8 ec 58 3b 66 62 af ba af 09 2b bb
       0.00040452965 0.0033100154 -0.0013380765 -0.0026098301
000220 cd 67 d0 3b b8 d4 cc ba e8 ff 09 3a 83 22 ed 39
       0.0063600303 -0.001562736 0.0005264268 0.00045229876
000230 54 53 05 3b d6 5b 8a bb 9c 8f 17 3c 9f 61 e5 3b
       0.0020343857 -0.0042223735 0.009250548 0.0070001627
000240 48 be 3b 3c a7 bb b7 3a 57 99 77 3b c8 00 13 3b
       0.011458941 0.0014017717 0.0037780607 0.0022430886
000250 ad ef 63 3c ed 25 1d bb 28 56 6a 3c 9f 0d ed 3b
       0.013912124 -0.0023978904 0.014302768 0.00723429
000260 5b 04 b2 3a 6a 1d 1c 3c 6c 29 28 3a 45 05 06 3c
       0.001358162 0.009528497 0.0006414864 0.008179967
000270 1b 6c 40 ba d7 8b e2 3b 8d 14 78 bb fd d2 8f bb
       -0.0007340328 0.006913643 -0.0037854046 -0.0043891654
000280 4b 81 bd 3b 01 a1 25 3b a8 3a 9a 39 bf 6e aa ba
       0.005783235 0.0025272968 0.0002941687 -0.0013002976
000290 ff 3d 67 3b 75 21 96 3a d2 2d 48 3b 9c 1a 1b bb
       0.0035284755 0.0011454063 0.003054489 -0.0023666983
0002a0 cd 25 93 3a 34 e7 3f 3b 03 cc 92 ba 43 4e 20 3a
       0.0011226475 0.0029282095 -0.0011199716 0.00061151775
0002b0 4d f4 1e 3b ba 3c 5e 35 db 45 45 bb 5a a7 f7 ba
       0.0024254501 8.2789813e-07 -0.0030101452 -0.0018894479
0002c0 bf e9 e0 bb 46 c7 47 bc 83 c4 40 3c d1 13 1e 3c
       -0.006863802 -0.012193507 0.011765602 0.009648279
0002d0 8a 14 20 bc ec 4b 93 bb 8e 61 8e 3a 23 26 3b ba
       -0.009770522 -0.0044951346 0.0010862814 -0.00071391667
0002e0 23 e6 33 bb 5a 5a 8c ba a0 b2 c0 3b 82 75 ec 38
       -0.0027450405 -0.0010708079 0.0058806688 0.000112752445
0002f0 92 7f d5 3b 1f 81 8d 3b 1a 47 ae bc a6 e8 14 3c
       0.0065154517 0.004318371 -0.021274138 0.009088671
000300 45 d0 e6 3b 48 5b 72 ba 4d 71 8b 3b c5 82 2b bc
       0.0070438706 -0.00092451693 0.00425545 -0.01046819
000310 17 9f 62 3b b7 e8 15 bc 36 1e 9b 3a da 99 ac 3b
       0.0034579688 -0.009149722 0.0011834565 0.005267364
000320 ee 80 15 bc 4f 64 84 bb f3 f1 27 3b c0 a9 60 bb
       -0.0091249775 -0.004040278 0.002562639 -0.0034280866
000330 40 d2 1f 3b 4b b9 f0 3b 25 66 50 bb 13 a1 a2 3b
       0.0024386793 0.0073463074 -0.0031799164 0.004963049
000340 f1 d1 a4 bb 6b b4 b3 3b 30 4b 8e 3b 5a 5a 6b 3b
       -0.00502991 0.005484154 0.004342459 0.0035912008
000350 aa 3a f5 ba d5 6f b3 3b 05 61 9e bb 4e 31 bc 3a
       -0.00187095 0.005475978 -0.004833343 0.0014357956
000360 ef 0a 97 bb 13 46 61 bb 6b 70 92 bb 66 61 19 3c
       -0.0046094577 -0.0034374043 -0.0044689677 0.0093616005
000370 a7 97 54 bc 4e 80 87 bb 18 78 3e 3c 2f 6c 0a 3c
       -0.01297561 -0.004135168 0.011625312 0.008448645
000380 37 12 44 bc 2e 23 20 3c 88 80 d6 ba 43 94 a2 3b
       -0.011967233 0.0097740125 -0.001636521 0.004961522
000390 ab d8 5c bb d5 d5 ee 3b 40 e3 6d 3b 03 64 60 bc
       -0.003369848 0.0072886744 0.0036298782 -0.01369572
0003a0 ff 5f 90 ba 8b e2 dd b8 6f 1e 16 3c 8b 11 bd bb
       -0.0011014937 -0.00010580298 0.009162529 -0.0057699136
0003b0 14 2e 8f bb 0e 3a b1 3b e5 c7 d5 3b c2 c1 ea ba
       -0.0043695066 0.005408532 0.0065240734 -0.0017910528
0003c0 5b 22 f4 bb 7f 0d 08 b9 6c 39 b2 bb 5f 17 b6 bb
       -0.0074503846 -0.00012974998 -0.005438974 -0.0055569853
0003d0 62 a1 4b 3b 80 90 1a 3b 37 ad 8b b9 6f 05 57 3c
       0.0031071533 0.0023584664 -0.000266412 0.013123854
0003e0 b8 18 9e bb 72 46 5a bb 2c d4 c5 bb 1a b0 62 3b
       -0.004824724 -0.0033306149 -0.0060372557 0.0034589828
0003f0 04 99 32 bb 85 27 f7 bb c2 6d bc 3b 1b ff 3d 3c
       -0.002725185 -0.007542553 0.005750389 0.011596466

action_model._discrete_distribution.branches.4.bias f4 [2]
000000 00 00 00 00 00 00 00 00
       0.0 0.0

action_model._discrete_distribution.branches.4.weight f4 [2, 256]
000000 eb a3 84 bb c1 8e c2 3b 39 72 06 3b 8d be 5d bc
       -0.004047861 0.0059374277 0.002051486 -0.0135342
000010 b2 cf 2f bb b2 e8 e5 3b 0a 09 cd 39 18 e6 d5 ba
       -0.0026826677 0.007016265 0.00039107382 -0.0016319184
000020 24 de 0e 3b 00 dc ec 3a 33 cc 64 bb 32 b8 f9 3a
       0.0021799887 0.0018070936 -0.0034911751 0.0019052087
000030 59 34 3b ba d7 9b ad 3b 50 09 db bb fa 48 49 3b
       -0.00071412843 0.0052981186 -0.0066844597 0.0030713663
000040 9b 8e df 3b 51 d7 cb bb b6 74 47 3c e0 e2 a5 39
       0.00682242 -0.006220736 0.012173822 0.00031640287
000050 9d 3a e0 bb 9e 9e c7 bb 5d a5 74 bb c7 3a 9f bb
       -0.0068429247 -0.0060919067 -0.003733001 -0.0048593017
000060 3b dd 17 3c f6 c7 11 bc 42 65 82 3b 83 87 79 3b
       0.009269054 -0.008897772 0.003979356 0.0038075156
000070 f3 0f 43 3b c0 b5 c8 3b 67 65 99 ba 93 43 a2 3a
       0.0029764145 0.006125182 -0.0011703194 0.0012379758
000080 b1 1a 8d bb 81 c5 b6 bb 0b c9 d0 bb c4 da a4 ba
       -0.0043061604 -0.0055777435 -0.0063716224 -0.0012577404
000090 f3 58 ed bb 5f 95 11 3b 8e aa be bb 32 b0 dd 39
       -0.0072432696 0.0022214276 -0.0058186715 0.0004228368
0000a0 cf 41 b3 3b 3f 4e 3e bc 6e 69 89 3a 9f fe 3e 3c
       0.0054704915 -0.011615335 0.0010483691 0.011657386
0000b0 70 ac 54 bc a3 97 64 3c 68 c8 d2 3b ef 02 06 3c
       -0.012980565 0.013952169 0.0064325817 0.00817941
0000c0 5b a5 55 bb 0d fe 50 bb 0a 6d a2 3a 73 ba 89 bb
       -0.003259978 -0.0031889707 0.0012392115 -0.0042031347
0000d0 93 32 0e 3b 77 d5 c0 3b cc 34 08 bc 61 7f 0e 3c
       0.0021697625 0.005884822 -0.008313369 0.008697362
0000e0 f0 bf 0d bb 2f 89 87 3b e0 c4 ac ba 0f c2 3a ba
       -0.0021629296 0.0041362266 -0.0013181232 -0.0007124254
0000f0 c1 59 98 3b b6 2d cc 3a 8c c0 12 3c 15 13 eb 3b
       0.0046493714 0.0015577588 0.00895704 0.0071739056
000100 7b 55 6e ba 30 a8 f0 b9 08 9e 6d bc bd 02 12 bb
       -0.0009091717 -0.00045901677 -0.01450301 -0.0022279464
000110 a7 35 b1 bb 89 e2 46 3b ff fb a5 3c 41 fb 41 3b
       -0.005408007 0.0030347428 0.020261763 0.0029599222
000120 e5 64 08 bc 8f fc 3e 3b 98 58 70 3b e2 81 f2 3a
       -0.008324836 0.0029142236 0.00366739 0.0018501843
000130 a7 de 6e bc af 84 4a 39 67 0b 4d 3c f7 dd 28 3a
       -0.014579452 0.0001931365 0.012514926 0.0006441767
000140 45 17 07 3a 3b 9e 6a 3b 77 d7 ec 38 fe 2b 2a bc
       0.0005153309 0.003579988 0.000112934904 -0.010386465
000150 ca d7 9e 3b 92 b4 1a bc 8b 65 af ba 47 de f5 b9
       0.0048475014 -0.009442465 -0.0013381703 -0.0004689565
000160 53 ba 3d 3b 45 c7 02 bc 77 cf f5 bb 84 4b 28 bb
       0.002895017 -0.00798208 -0.0075015384 -0.0025679776
000170 c8 d8 3f 3b 4b c8 90 bb 9a ad 0e bc 4b c2 cd 3b
       0.0029273499 -0.004418408 -0.008708382 0.006279265
000180 53 e5 e0 bb 47 96 fb bb 71 88 0f bb 9b 25 10 bc
       -0.006863275 -0.0076778266 -0.0021901394 -0.008798028
000190 a8 47 e2 bb 87 76 10 bc 36 c5 be 3a fe 71 30 3b
       -0.0069055147 -0.008817322 0.0014554623 0.0026923413
0001a0 48 69 13 ba be 9c 04 3c d7 88 c8 ba 89 4c 95 b9
       -0.0005623293 0.008094011 -0.001529957 -0.00028476518
0001b0 3d a8 6d 3b c3 8a a5 3b e3 ce 5e 3c f3 bc 8f bb
       0.0036263608 0.005051942 0.01359913 -0.004386538
0001c0 9f db ff ba 87 eb 7a bb 2a 8d e1 3a bf c8 4c 3b
       -0.0019520408 -0.0038287358 0.0017208208 0.0031247584
0001d0 c6 8e 92 3a a6 80 a5 3b b6 45 bd 37 1f f0 e8 3b
       0.0011181466 0.0050507365 2.2563017e-05 0.007108703
0001e0 aa 44 ce 3b 9e 70 bc 39 52 37 f7 ba f0 02 d3 3b
       0.0062948065 0.0003594206 -0.0018861091 0.006439559
0001f0 09 38 c7 bb f7 cc 3d 3b 9a 69 ba 3a 33 a0 aa ba
       -0.006079678 0.002896128 0.0014222146 -0.0013017714
000200 dc cf b6 ba 63 b3 93 ba e6 dc b0 b9 55 1f 52 bc
       -0.0013947445 -0.0011268671 -0.00033733918 -0.012824853
000210 51 79 19 3a bd bd f9 ba f0 b1 0e 3b 9f 0b 25 ba
       0.00058545644 -0.0019053739 0.002177354 -0.0006295982
000220 ce 52 2e ba 6b 33 76 3a cb 35 21 3c 38 00 48 bc
       -0.0006649912 0.0009391817 0.009839485 -0.012207083
000230 07 35 28 bc ff 66 80 3a 82 ac 38 3c 1c dd b5 3b
       -0.010266549 0.000979632 0.011271598 0.00555004
000240 bc 35 9d 3b 1d 12 6f bb 20 2f 17 3a 17 17 f9 bb
       0.0047976654 -0.0036479302 0.0005767215 -0.0076016295
000250 5b 3c 1c bb cc 5c ca bb 02 36 02 3c a9 37 af bb
       -0.0023839686 -0.006175613 0.007947447 -0.0053472114
000260 5a 48 2e 3c 58 2d 6d 3c 28 74 ac 39 73 a6 be ba
       0.010637367 0.014476143 0.0003289294 -0.0014545455
000270 62 18 84 bb 52 a9 81 3b 03 16 12 3c 5c cd 1e bc
       -0.004031227 0.003956952 0.008916381 -0.009692516
000280 3f 3f 02 3c 22 d9 14 ba f3 64 2f bc aa d7 27 b9
       0.007949649 -0.0005678107 -0.0107052205 -0.00016006702
000290 65 17 72 bc d4 94 18 bb 36 e9 2c bc a7 df ea 3b
       -0.0147760855 -0.0023282068 -0.010553649 0.0071677747
0002a0 a7 3f 27 bb ec 5e 3e 3c 7b 59 78 bc 93 7c 61 bc
       -0.0025520117 0.011619311 -0.015158053 -0.013762611
0002b0 d5 a2 56 3b 7d 5c 8e 3b c5 0a df bb e3 6b ec bb
       0.0032750864 0.0043445216 -0.0068067038 -0.0072150095
0002c0 bb 60 51 3a 4d d7 6d bc 9e b3 04 bc c3 cf dd bb
       0.0007987131 -0.014516664 -0.008099465 -0.006769152
0002d0 bd 17 f9 ba 37 d7 07 bb 33 4c 41 bc 0e 07 18 bb
       -0.0019004267 -0.0020727643 -0.0117979525 -0.0023197564
0002e0 36 a0 43 3b cf 2c a3 3b b0 a9 47 bc df 92 01 3b
       0.0029850132 0.004979707 -0.012186453 0.001977138
0002f0 ca 6f 4f 3b a3 b4 d1 bb cf c0 82 3c 93 72 c3 bb
       0.0031652325 -0.0063997074 0.015961079 -0.005964586
000300 6e 6f 88 3b e3 b4 3c bc 13 d6 55 3c c4 09 b6 bb
       0.004163674 -0.011517736 0.013051528 -0.0055553634
000310 2a 54 1e ba 47 34 08 bb a4 ac b0 bb c7 07 06 3c
       -0.0006039763 -0.0020783113 -0.005391674 0.008180565
000320 18 b5 ce 3a a7 a3 72 bc 96 05 1f bc a2 88 fd 3b
       0.0015770523 -0.014809526 -0.009705922 0.007737235
000330 2b ea e8 bb 13 e0 48 3b 48 23 73 3b cb ce 92 3b
       -0.007107993 0.0030651137 0.0037099887 0.004480218
000340 95 d4 e7 3a 8e 77 81 bb 47 10 83 3b 8e 65 9b b9
       0.0017687256 -0.0039510196 0.003999743 -0.00029639568
000350 e2 29 c4 3b b1 e6 0f 3c e7 49 85 3b d8 2e ed 3b
       0.005986438 0.008783028 0.0040676477 0.00723825
000360 02 21 52 3b f0 bf b2 bb 34 d0 0b 3b 57 07 4c 3a
       0.0032063131 -0.0054550096 0.0021333816 0.0007783076
000370 8d f3 e7 3a b0 1a 79 bb 52 65 c9 bb 8e bf 34 3b
       0.0017696485 -0.0038010292 -0.0061461115 0.0027579996
000380 aa 22 38 3c bd cd ff 3a c2 09 01 bc 6b 24 36 bc
       0.011238733 0.0019516271 -0.007875862 -0.011117081
000390 74 ec 30 bc eb ce 60 bb 2a 76 6d 39 1b e5 6b bc
       -0.010798562 -0.003430302 0.00022646101 -0.014397885
0003a0 f5 99 a0 bb 4a 85 e1 bb 19 14 00 3b a2 ba f8 3b
       -0.0049011656 -0.0068823444 0.001954323 0.0075906077
0003b0 0d 2c 1c bc 87 50 a6 3a 34 8b 25 3c 59 fb 03 bb
       -0.009531987 0.0012688794 0.010103989 -0.0020138829
0003c0 1f db a5 bb 98 22 7a 3c ee 42 0f bb 40 bc bf ba
       -0.0050615217 0.015267037 -0.0021859962 -0.0014628246
0003d0 ba a6 1c 3c 76 cc 1b bb 57 d8 73 bb 4f 04 b6 bb
       0.009561235 -0.0023772991 -0.0037207806 -0.005554713
0003e0 78 34 64 3b ca d0 66 ba cf 67 46 bc 7f d4 fa 3b
       0.0034821313 -0.00088049157 -0.012109711 0.007654726
0003f0 4f 11 28 bb aa 5a a6 bb 23 0f 4f 3c dd 06 83 bb
       -0.0025645082 -0.005076726 0.012637886 -0.003998621

network_body.linear_encoder.seq_layers.0.bias f4 [256]
000000 00 00 00 00 00 00 00 00 00 00 00 00 00 00 00 00
       0.0 0.0 0.0 0.0
000010 00 00 00 00 00 00 00 00 00 00 00 00 00 00 00 00
       0.0 0.0 0.0 0.0
000020 00 00 00 00 00 00 00 00 00 00 00 00 00 00 00 00
       0.0 0.0 0.0 0.0
000030 00 00 00 00 00 00 00 00 00 00 00 00 00 00 00 00
       0.0 0.0 0.0 0.0
000040 00 00 00 00 00 00 00 00 00 00 00 00 00 00 00 00
       0.0 0.0 0.0 0.0
000050 00 00 00 00 00 00 00 00 00 00 00 00 00 00 00 00
       0.0 0.0 0.0 0.0
000060 00 00 00 00 00 00 00 00 00 00 00 00 00 00 00 00
       0.0 0.0 0.0 0.0
000070 00 00 00 00 00 00 00 00 00 00 00 00 00 00 00 00
       0.0 0.0 0.0 0.0
000080 00 00 00 00 00 00 00 00 00 00 00 00 00 00 00 00
       0.0 0.0 0.0 0.0
000090 00 00 00 00 00 00 00 00 00 00 00 00 00 00 00 00
       0.0 0.0 0.0 0.0
0000a0 00 00 00 00 00 00 00 00 00 00 00 00 00 00 00 00
       0.0 0.0 0.0 0.0
0000b0 00 00 00 00 00 00 00 00 00 00 00 00 00 00 00 00
       0.0 0.0 0.0 0.0
0000c0 00 00 00 00 00 00 00 00 00 00 00 00 00 00 00 00
       0.0 0.0 0.0 0.0
0000d0 00 00 00 00 00 00 00 00 00 00 00 00 00 00 00 00
       0.0 0.0 0.0 0.0
0000e0 00 00 00 00 00 00 00 00 00 00 00 00 00 00 00 00
       0.0 0.0 0.0 0.0
0000f0 00 00 00 00 00 00 00 00 00 00 00 00 00 00 00 00
       0.0 0.0 0.0 0.0
000100 00 00 00 00 00 00 00 00 00 00 00 00 00 00 00 00
       0.0 0.0 0.0 0.0
000110 00 00 00 00 00 00 00 00 00 00 00 00 00 00 00 00
       0.0 0.0 0.0 0.0
000120 00 00 00 00 00 00 00 00 00 00 00 00 00 00 00 00
       0.0 0.0 0.0 0.0
000130 00 00 00 00 00 00 00 00 00 00 00 00 00 00 00 00
       0.0 0.0 0.0 0.0
000140 00 00 00 00 00 00 00 00 00 00 00 00 00 00 00 00
       0.0 0.0 0.0 0.0
000150 00 00 00 00 00 00 00 00 00 00 00 00 00 00 00 00
       0.0 0.0 0.0 0.0
000160 00 00 00 00 00 00 00 00 00 00 00 00 00 00 00 00
       0.0 0.0 0.0 0.0
000170 00 00 00 00 00 00 00 00 00 00 00 00 00 00 00 00
       0.0 0.0 0.0 0.0
000180 00 00 00 00 00 00 00 00 00 00 00 00 00 00 00 00
       0.0 0.0 0.0 0.0
000190 00 00 00 00 00 00 00 00 00 00 00 00 00 00 00 00
       0.0 0.0 0.0 0.0
0001a0 00 00 00 00 00 00 00 00 00 00 00 00 00 00 00 00
       0.0 0.0 0.0 0.0
0001b0 00 00 00 00 00 00 00 00 00 00 00 00 00 00 00 00
       0.0 0.0 0.0 0.0
0001c0 00 00 00 00 00 00 00 00 00 00 00 00 00 00 00 00
       0.0 0.0 0.0 0.0
0001d0 00 00 00 00 00 00 00 00 00 00 00 00 00 00 00 00
       0.0 0.0 0.0 0.0
0001e0 00 00 00 00 00 00 00 00 00 00 00 00 00 00 00 00
       0.0 0.0 0.0 0.0
0001f0 00 00 00 00 00 00 00 00 00 00 00 00 00 00 00 00
       0.0 0.0 0.0 0.0
000200 00 00 00 00 00 00 00 00 00 00 00 00 00 00 00 00
       0.0 0.0 0.0 0.0
000210 00 00 00 00 00 00 00 00 00 00 00 00 00 00 00 00
       0.0 0.0 0.0 0.0
000220 00 00 00 00 00 00 00 00 00 00 00 00 00 00 00 00
       0.0 0.0 0.0 0.0
000230 00 00 00 00 00 00 00 00 00 00 00 00 00 00 00 00
       0.0 0.0 0.0 0.0
000240 00 00 00 00 00 00 00 00 00 00 00 00 00 00 00 00
       0.0 0.0 0.0 0.0
000250 00 00 00 00 00 00 00 00 00 00 00 00 00 00 00 00
       0.0 0.0 0.0 0.0
000260 00 00 00 00 00 00 00 00 00 00 00 00 00 00 00 00
       0.0 0.0 0.0 0.0
000270 00 00 00 00 00 00 00 00 00 00 00 00 00 00 00 00
       0.0 0.0 0.0 0.0
000280 00 00 00 00 00 00 00 00 00 00 00 00 00 00 00 00
       0.0 0.0 0.0 0.0
000290 00 00 00 00 00 00 00 00 00 00 00 00 00 00 00 00
       0.0 0.0 0.0 0.0
0002a0 00 00 00 00 00 00 00 00 00 00 00 00 00 00 00 00
       0.0 0.0 0.0 0.0
0002b0 00 00 00 00 00 00 00 00 00 00 00 00 00 00 00 00
       0.0 0.0 0.0 0.0
0002c0 00 00 00 00 00 00 00 00 00 00 00 00 00 00 00 00
       0.0 0.0 0.0 0.0
0002d0 00 00 00 00 00 00 00 00 00 00 00 00 00 00 00 00
       0.0 0.0 0.0 0.0
0002e0 00 00 00 00 00 00 00 00 00 00 00 00 00 00 00 00
       0.0 0.0 0.0 0.0
0002f0 00 00 00 00 00 00 00 00 00 00 00 00 00 00 00 00
       0.0 0.0 0.0 0.0
000300 00 00 00 00 00 00 00 00 00 00 00 00 00 00 00 00
       0.0 0.0 0.0 0.0
000310 00 00 00 00 00 00 00 00 00 00 00 00 00 00 00 00
       0.0 0.0 0.0 0.0
000320 00 00 00 00 00 00 00 00 00 00 00 00 00 00 00 00
       0.0 0.0 0.0 0.0
000330 00 00 00 00 00 00 00 00 00 00 00 00 00 00 00 00
       0.0 0.0 0.0 0.0
000340 00 00 00 00 00 00 00 00 00 00 00 00 00 00 00 00
       0.0 0.0 0.0 0.0
000350 00 00 00 00 00 00 00 00 00 00 00 00 00 00 00 00
       0.0 0.0 0.0 0.0
000360 00 00 00 00 00 00 00 00 00 00 00 00 00 00 00 00
       0.0 0.0 0.0 0.0
000370 00 00 00 00 00 00 00 00 00 00 00 00 00 00 00 00
       0.0 0.0 0.0 0.0
000380 00 00 00 00 00 00 00 00 00 00 00 00 00 00 00 00
       0.0 0.0 0.0 0.0
000390 00 00 00 00 00 00 00 00 00 00 00 00 00 00 00 00
       0.0 0.0 0.0 0.0
0003a0 00 00 00 00 00 00 00 00 00 00 00 00 00 00 00 00
       0.0 0.0 0.0 0.0
0003b0 00 00 00 00 00 00 00 00 00 00 00 00 00 00 00 00
       0.0 0.0 0.0 0.0
0003c0 00 00 00 00 00 00 00 00 00 00 00 00 00 00 00 00
       0.0 0.0 0.0 0.0
0003d0 00 00 00 00 00 00 00 00 00 00 00 00 00 00 00 00
       0.0 0.0 0.0 0.0
0003e0 00 00 00 00 00 00 00 00 00 00 00 00 00 00 00 00
       0.0 0.0 0.0 0.0
0003f0 00 00 00 00 00 00 00 00 00 00 00 00 00 00 00 00
       0.0 0.0 0.0 0.0
