MLagents/results/hb_12/Mario.onnx (onnx, 377673 bytes, 12 tensors)

92 f4 [99]
0	0x3b2dc320	0.0026514009
1	0x3b2dc320	0.0026514009
2	0x3b2dc320	0.0026514009
3	0x3b2dc320	0.0026514009
4	0x3b75bc32	0.0037496206
5	0x3b75bc32	0.0037496206
6	0x3e9ea4b4	0.30985034
7	0x3c8e68a8	0.017383888
8	0x3e046525	0.12929209
9	0x3b2dc320	0.0026514009
10	0x3b2dc320	0.0026514009
11	0x3b2dc320	0.0026514009
12	0x3e9ea389	0.30984142
13	0x3c8e68a8	0.017383888
14	0x3e046525	0.12929209
15	0x3b2dc320	0.0026514009
16	0x3b2dc320	0.0026514009
17	0x3b2dc320	0.0026514009
18	0x3eaa0638	0.3320787
19	0x3d140448	0.036136895
20	0x3e6d16dd	0.23153253
21	0x3b2dc320	0.0026514009
22	0x3b2dc320	0.0026514009
23	0x3b2dc320	0.0026514009
24	0x3eaff98e	0.34370083
25	0x3d1bc2af	0.03802746
26	0x3e68efeb	0.22747771
27	0x3b2dc320	0.0026514009
28	0x3b2dc320	0.0026514009
29	0x3b2dc320	0.0026514009
30	0x3ec4305b	0.38318142
31	0x3d412523	0.047154557
32	0x3ecbf1c1	0.3983288
33	0x3b2dc320	0.0026514009
34	0x3b2dc320	0.0026514009
35	0x3b2dc320	0.0026514009
36	0x3ecbea0f	0.3982701
37	0x3d52ddb3	0.05148096
38	0x3ec5f869	0.38666084
39	0x3b2dc320	0.0026514009
40	0x3b2dc320	0.0026514009
41	0x3b2dc320	0.0026514009
42	0x3ec48838	0.38385177
43	0x3d9a9338	0.07547611
44	0x3ee4d14c	0.4469093
45	0x3b2dc320	0.0026514009
46	0x3b2dc320	0.0026514009
47	0x3b2dc320	0.0026514009
48	0x3ec981eb	0.39356932
49	0x3da8e30e	0.08246432
50	0x3ee06356	0.43825787
51	0x3b2dc320	0.0026514009
52	0x3b2dc320	0.0026514009
53	0x3b2dc320	0.0026514009
54	0x3ee1d1a7	0.44105265
55	0x3dd446b4	0.10365048
56	0x3ea50122	0.32227427
57	0x3b2dc320	0.0026514009
58	0x3b2dc320	0.0026514009
59	0x3b2dc320	0.0026514009
60	0x3ee27b45	0.44234672
61	0x3de60b72	0.11232652
62	0x3ea078ed	0.3134226
63	0x3b2dc320	0.0026514009
64	0x3b2dc320	0.0026514009
65	0x3b2dc320	0.0026514009
66	0x3ece900c	0.40344274
67	0x3de00782	0.10938932
68	0x3ecb116a	0.39661723
69	0x3b2dc320	0.0026514009
70	0x3b2dc320	0.0026514009
71	0x3b2dc320	0.0026514009
72	0x3ece94c5	0.40347877
73	0x3e017bbf	0.12644862
74	0x3ecae419	0.3962715
75	0x3b2dc320	0.0026514009
76	0x3b2dc320	0.0026514009
77	0x3b2dc320	0.0026514009
78	0x3ed523a8	0.41628766
79	0x3df92fa5	0.121672906
80	0x3ee4fcac	0.44724023
81	0x3b2dc320	0.0026514009
82	0x3b2dc320	0.0026514009
83	0x3b2dc320	0.0026514009
84	0x3edc2e5c	0.4300412
85	0x3e0f955f	0.14021824
86	0x3eddc297	0.43312523
87	0x3b2dc320	0.0026514009
88	0x3b2dc320	0.0026514009
89	0x3b2dc320	0.0026514009
90	0x3b75bc32	0.0037496206
91	0x3b2dc320	0.0026514009
92	0x3b2dc320	0.0026514009
93	0x3f36ffd2	0.714841
94	0x3f049b48	0.5179944
95	0x3b2dc320	0.0026514009
96	0x3b75c769	0.003750289
97	0x3beb8e0e	0.007188565
98	0x3b2dc320	0.0026514009

action_model._discrete_distribution.branches.0.bias f4 [3]
0	0x3bd59425	0.0065179043
1	0x3b430368	0.002975667
2	0xbc323114	-0.010875959

action_model._discrete_distribution.branches.0.weight f4 [3, 256]
0	0xbca7c218	-0.020478293
1	0x3c45a5c0	0.012063444
2	0x3bd8a3b2	0.006611311
3	0xbb2b073e	-0.0026096846
4	0xbd3bd4ad	-0.04585712
5	0xbc142e2c	-0.009044211
6	0xbc257367	-0.010098315
7	0xbbfce8d9	-0.0077181873
8	0xbc74bb7b	-0.014937277
9	0x3a2f182c	0.0006679322
10	0x3d0ea200	0.034822464
11	0x3d1ff150	0.039048493
12	0xbbc7d689	-0.0060985726
13	0x3b639cb2	0.003473085
14	0x3b5d31be	0.0033751572
15	0xbcf31ba3	-0.029676264
16	0x3ce674a1	0.028131785
17	0x3b8dca8b	0.0043271235
18	0x39a06b8e	0.00030597713
19	0x3d1460f8	0.03622529
20	0xbc061fca	-0.00818629
21	0x3cceecff	0.025259493
22	0x3bbe714e	0.005811847
23	0x3d5d6e06	0.054060005
24	0xbb7f6513	-0.0038970157
25	0x3d67f20d	0.056627322
26	0x3d1031c0	0.035203695
27	0x3d05a9de	0.0326327
28	0x3cfafa87	0.030637039
29	0xbd58c320	-0.05292046
30	0xbc12d49c	-0.008961823
31	0x3cb93838	0.022609815
32	0xbc577ded	-0.013152582
33	0x3b320dff	0.0027168987
34	0xbbf4f3b5	-0.007475341
35	0xbcb3a763	-0.021930402
36	0x3b12f0b9	0.0022421314
37	0xbc733b57	-0.014845691
38	0x3cb0a4ae	0.0215629
39	0xbb9bee29	-0.0047586155
40	0x3cb32b21	0.021871151
41	0x3c8d063d	0.017214889
42	0x3cb9636a	0.022630412
43	0xbc598582	-0.01327646
44	0x3d301a51	0.042993847
45	0x3ce3b032	0.027793977
46	0xbc838af9	-0.016057478
47	0x3cc68fcf	0.024238495
48	0x3cd95a9b	0.026532462
49	0xbbeff9cd	-0.0073234797
50	0x3abeb293	0.0014549069
51	0x3c79cf41	0.015247167
52	0x3c335a82	0.010946872
53	0x3cc15b61	0.023603143
54	0x3cd1ec37	0.025625331
55	0x3c76aa9c	0.015055325
56	0xbc7e0d3b	-0.015506084
57	0x3c9b6e8e	0.018973615
58	0x3b431ef9	0.00297731
59	0xbd091fc7	-0.03347757
60	0xbc1f3ab5	-0.009718587
61	0xbce25299	-0.027627276
62	0x3c8ae495	0.0169547
63	0xbc9359d4	-0.01798717
64	0x3847febc	4.7682537e-05
65	0xbcc99564	-0.024607368
66	0xbc8811c3	-0.016610032
67	0x3cd235ef	0.025660483
68	0x3d1ccf8b	0.038283866
69	0x3c83c846	0.016086709
70	0xbc5333e7	-0.012890792
71	0x3ce36680	0.027758837
72	0x3c90f3f3	0.017694449
73	0xbc190c64	-0.009341333
74	0xbbad544d	-0.0052895905
75	0x3b07250c	0.0020621447
76	0x3bd81e2f	0.006595395
77	0xbd07deaa	-0.033171333
78	0x3d11c73e	0.035590403
79	0xbd2bd57b	-0.041951638
80	0xbc9ffc2a	-0.01952942
81	0x3b97a1d4	0.0046274457
82	0x3c8e66e1	0.01738304
83	0x3bc60dcc	0.006044125
84	0xbce1508b	-0.027504226
85	0x3b9cc90d	0.0047847093
86	0x3d1b907e	0.037979595
87	0xbc9be4af	-0.019029943
88	0xbb3a772c	-0.002845238
89	0xbb8221b6	-0.003971304
90	0xbc62ff00	-0.013854742
91	0x393e0f76	0.00018125572
92	0xbba5299e	-0.0050403615
93	0xba0f4e69	-0.0005466701
94	0x3d8b43e7	0.06800061
95	0xbc46a76e	-0.012124879
96	0xbc498d3e	-0.012301741
97	0x3c814296	0.015778821
98	0x3ce889b9	0.028385984
99	0x3cbbe753	0.022937452
100	0xbd02a3da	-0.031894542
101	0x3c960c3d	0.018316383
102	0xbac56b19	-0.0015061825
103	0xbce36f01	-0.027762892
104	0x395d842d	0.00021125442
105	0x3ce50e6a	0.027960975
106	0x3d13bf88	0.03607133
107	0x3cda144e	0.02662101
108	0x3c92361c	0.017848067
109	0x3c5677b0	0.013090059
110	0x3c393b11	0.011305586
111	0x3c802496	0.015642446
112	0x3c8bd439	0.01706897
113	0x3d2506f7	0.040289845
114	0x3c7642ab	0.015030543
115	0xbc5823ab	-0.013192098
116	0xbcef6f5f	-0.02922791
117	0x3b1f3067	0.0024290325
118	0x3ca18420	0.019716322
119	0xbbc6e536	-0.0060698045
120	0x3be9039a	0.007111025
121	0x3c9f6263	0.019456094
122	0x3c54ce3e	0.012988625
123	0xbd0d565d	-0.03450619
124	0x3c1dd191	0.009632484
125	0xbc75a092	-0.014991896
126	0xbc5d15ee	-0.013493998
127	0x3c7e21a8	0.015510954
128	0xbd01d559	-0.031697605
129	0xbc20df57	-0.009818873
130	0xbc53b209	-0.012920865
131	0xbd210ac8	-0.039316922
132	0xbd1f3b26	-0.038874768
133	0x3d7123cc	0.05887203
134	0xbc9451b9	-0.018105375
135	0xbc60a29c	-0.013710644
136	0x3d0819ab	0.033227604
137	0xbd0d28bd	-0.03446268
138	0xbd6d5a91	-0.0579477
139	0x3c56a2bd	0.013100323
140	0x3cecdde2	0.028914396
141	0xbbb20784	-0.005433025
142	0xbcd101be	-0.025513526
143	0xb96badee	-0.0002247614
144	0x3ccbdadf	0.02488464
145	0x3c0b7909	0.008512744
146	0x3b4ec684	0.003155143
147	0xbce8edd0	-0.02843371
148	0xbccc85d2	-0.024966154
149	0x3c95aeb1	0.018271776
150	0x3d1b7b52	0.037959404
151	0xbcd152ef	-0.025552241
152	0xbc5c0034	-0.013427783
153	0xbbb74fc1	-0.005594224
154	0x3cbe47e0	0.023227632
155	0xbbb4c6f8	-0.005516883
156	0x3a90f55b	0.001105945
157	0x3c3be05c	0.011467066
158	0x3bb1bcd6	0.0054241223
159	0xbb5659cd	-0.0032707334
160	0x3d1e7aef	0.038691457
161	0xbc8a3908	-0.016872898
162	0x3d067bbb	0.032832842
163	0xbb3bfe16	-0.0028685383
164	0xbbcb09ac	-0.0061962213
165	0x3cedbe77	0.029021485
166	0xb9c1acab	-0.00036940476
167	0xbd499511	-0.049214426
168	0x3c8d4ff5	0.01725004
169	0x3aa7c0c7	0.0012798541
170	0x3cc84910	0.024448901
171	0x3c9a6d36	0.018850904
172	0x3ce5aa0e	0.02803519
173	0x3d684a10	0.056711257
174	0x3b44fa2a	0.0030056336
175	0xbd0f0004	-0.034912124
176	0x3c25f64d	0.010129523
177	0x3c05644a	0.008141587
178	0x3cbf9f8c	0.023391508
179	0xbb9326aa	-0.004490693
180	0xbbad1f6f	-0.005283288
181	0xbc9cbe6b	-0.019133767
182	0xbd06875d	-0.032843936
183	0x3c562b41	0.013071836
184	0x3c9f377f	0.019435642
185	0x3d1d1761	0.038352374
186	0xbbdaee86	-0.0066812662
187	0xbbb562f0	-0.005535476
188	0x3a06144b	0.0005114718
189	0xbc3c6469	-0.011498549
190	0x3c1d45a9	0.009599128
191	0xbd215a48	-0.03939274
192	0xbc8a64ac	-0.016893707
193	0xbce00cb5	-0.02734981
194	0xbc9545c5	-0.018221745
195	0x3cab0ca3	0.02088005
196	0xbca7d52a	-0.020487387
197	0x3bbb7bc7	0.0057215425
198	0x3c9d5d24	0.019209452
199	0x3d0c1723	0.034201752
200	0x3811ae4c	3.473302e-05
201	0x3c7cfbdc	0.015440907
202	0xbae5ad7b	-0.0017523015
203	0x3d1ab7d6	0.037772976
204	0x3c8832b8	0.016625747
205	0xbc83f64d	-0.016108656
206	0xbc677871	-0.014127837
207	0xbb6220b1	-0.003450435
208	0x3bdae8b6	0.0066805733
209	0x3d46064f	0.04834586
210	0xbcb6d5d0	-0.02231875
211	0xbd0fc936	-0.035104
212	0x3c232407	0.00995732
213	0x3d43d480	0.047810078
214	0xbc968c38	-0.018377408
215	0xbd7808a2	-0.060555108
216	0xbb37d2d5	-0.002804925
217	0x3c672ea0	0.014110237
218	0x3d18fa43	0.037348043
219	0xbd29d5e7	-0.04146376
220	0x3d756044	0.05990626
221	0xbd082370	-0.03323692
222	0x3ca5b747	0.020228995
223	0x3afb5afe	0.0019176898
224	0x3d215df8	0.039396256
225	0x3bdecd5c	0.006799383
226	0xbbd285bb	-0.0064246333
227	0xbc0a844f	-0.008454396
228	0xbbdbe250	-0.006710328
229	0x3c522056	0.012825092
230	0xbd0d71d7	-0.034532394
231	0x3cd8c2d6	0.026460093
232	0xbcbad8d0	-0.022808462
233	0x3c6a0cd5	0.014285286
234	0x3c353be9	0.011061647
235	0x3cd6d0cf	0.026222615
236	0xbc3323a7	-0.010933793
237	0x3d788f0b	0.06068329
238	0xbb8796ac	-0.0041378345
239	0x3d3de7b3	0.046363544
240	0x3b8457fe	0.00403881
241	0x3d5f59b1	0.054528896
242	0x3d1b76dd	0.037955154
243	0xbcf3d0d3	-0.029762661
244	0x3bab5a71	0.0052292873
245	0x3d3235a2	0.04350818
246	0xbd877a9d	-0.066151835
247	0xbb0c6370	-0.0021421574
248	0x3cc21a45	0.023694167
249	0xbce4bad2	-0.027921114
250	0xbcb2041a	-0.021730471
251	0x3cf98b99	0.030462073
252	0xbcd92058	-0.02650468
253	0xbc29410a	-0.010330448
254	0x3c6fd7a7	0.014638818
255	0x3c3872ff	0.011257886

action_model._discrete_distribution.branches.1.bias f4 [2]
0	0xbbf102e2	-0.00735508
1	0x3bf102d5	0.007355074

action_model._discrete_distribution.branches.1.weight f4 [2, 256]
0	0x3cb4a648	0.022051945
1	0xbcf8f898	-0.030391976
2	0x3b658c69	0.0035026318
3	0xbc1d927c	-0.009617444
4	0xbc21d4d1	-0.0098774
5	0xbb8c732a	-0.0042861896
6	0xbcd4326d	-0.025902951
7	0xbb3656f3	-0.0027822822
8	0x3c81f462	0.015863601
9	0x3c19f416	0.0093965735
10	0x3ca85cb3	0.020552015
11	0xbc20571d	-0.009786394
12	0xbd0dde39	-0.034635756
13	0x3c868d57	0.016424818
14	0x3ba8b76b	0.0051488183
15	0xbc8f3e0a	-0.017485637
16	0x3c95f2cb	0.01830425
17	0xbb6c4e2a	-0.0036057332
18	0x3caabf99	0.020843314
19	0xbcda8add	-0.026677543
20	0x3cfdb47e	0.030969854
21	0xbbda5f0b	-0.006664162
22	0x3c4bc346	0.0124366935
23	0x3ba23059	0.004949611
24	0xbcab5998	-0.020916745
25	0xbb2b1bbb	-0.0026109058
26	0x3c9c8992	0.019108567
27	0xbc4e8506	-0.012604957
28	0x3b2ad577	0.0026067176
29	0xbca75e74	-0.020430781
30	0xbcb58e73	-0.022162652
31	0xbcf37cbe	-0.029722568
32	0xbc8e33b7	-0.017358644
33	0x3c31416a	0.010818819
34	0xbc1e0c00	-0.009646416
35	0x3c268494	0.010163445
36	0xbc164ba8	-0.009173311
37	0x3a27314a	0.0006377889
38	0x3cb79410	0.022409469
39	0x3c06118c	0.008182894
40	0xbc7ef6b6	-0.01556175
41	0x392569ae	0.00015774995
42	0x3c36f59e	0.011166958
43	0x3b442793	0.0029930815
44	0x3bde53e7	0.0067849043
45	0x3c019b1a	0.007910514
46	0xbc3d6a96	-0.011561057
47	0xbc4f3632	-0.0126471985
48	0xbb8ad6a0	-0.004237011
49	0x3bd1d260	0.0064032525
50	0xbb711073	-0.0036783486
51	0xbc856bef	-0.016286818
52	0x3c8eccc0	0.017431617
53	0x3c0e9e49	0.00870473
54	0x3a95f7c8	0.0011441642
55	0x3c38ac95	0.0112716155
56	0x3c9060a5	0.017624209
57	0x3bb569df	0.0055363025
58	0x3b0200ec	0.0019836975
59	0xbb71f654	-0.0036920505
60	0xbca60d41	-0.020269992
61	0x3c456636	0.012048295
62	0xbbe7bde3	-0.007072197
63	0xbc88d702	-0.016704086
64	0x3cca4fb6	0.024696212
65	0xbbd578d8	-0.00651465
66	0xbca948d9	-0.02066462
67	0xbc1b1931	-0.009466455
68	0xbcab02b8	-0.02087532
69	0xbb947c7d	-0.0045314417
70	0xbaadf90e	-0.0013273077
71	0xbbfa1920	-0.0076323897
72	0xbcbab892	-0.022793088
73	0xbbbe4962	-0.0058070878
74	0x3b520865	0.003204846
75	0xbc3cc686	-0.011521941
76	0x3c4f85d1	0.012666182
77	0x3c069c66	0.008215999
78	0x3bfe0aa5	0.007752734
79	0x3ba277cd	0.004958129
80	0x3d06d6e8	0.032919794
81	0xbc5f22f9	-0.013619178
82	0xbccdf86f	-0.025142876
83	0xbc4b3c43	-0.012404504
84	0xbaefacfc	-0.0018285806
85	0xbcc39b2e	-0.023877706
86	0x3c959acb	0.018262288
87	0x3c21b6f2	0.009870278
88	0x3c9f034d	0.019410754
89	0xbb49fd1d	-0.0030821033
90	0xb9d98aa3	-0.00041492758
91	0x3c60693e	0.013696967
92	0x3c35ddc4	0.011100236
93	0x3bc34fa2	0.0059604207
94	0xbbb6412a	-0.0055619674
95	0xbc8bdce7	-0.017073108
96	0x3c31fef1	0.010864005
97	0xbab8bade	-0.0014093777
98	0xbc639b42	-0.013891997
99	0xbc24a18a	-0.01004828
100	0x3bfa373e	0.00763598
101	0xbc8971d0	-0.016777903
102	0x3c693e34	0.014236022
103	0xbc12866d	-0.008943182
104	0x3ca6e097	0.020370765
105	0xbcdbbc64	-0.02682323
106	0x3ba061bf	0.0048944647
107	0x3c4a6367	0.012352801
108	0xba9c63bf	-0.0011931582
109	0x3b875523	0.004130022
110	0xbcd4146a	-0.02588864
111	0xbb8ccf8c	-0.0042972025
112	0xbcfa47f5	-0.03055189
113	0xbbbeadf3	-0.005819076
114	0xbc8dcb26	-0.017308783
115	0xbb9481e0	-0.004532084
116	0xbc9e2835	-0.019306282
117	0x3cc599d8	0.02412121
118	0x3c9e8359	0.01934974
119	0x3d148d6b	0.03626768
120	0xbc6fb166	-0.014629697
121	0xbbcc8e1b	-0.006242526
122	0x3c620c3a	0.01379686
123	0xba9ae423	-0.0011817258
124	0xbcaf7ca2	-0.021421734
125	0xbc831c2b	-0.016004642
126	0xbc18de9e	-0.00933042
127	0x3c21abd9	0.009867632
128	0x3b96de09	0.0046041054
129	0xbb7f08c2	-0.0038915132
130	0x3bc51fc2	0.0060157487
131	0xbc958189	-0.018250244
132	0xbcefce29	-0.02927311
133	0x3c1b77a3	0.009488973
134	0xbc9fa0c1	-0.019485833
135	0xbb281bc2	-0.002565131
136	0x3c0968e9	0.008386829
137	0xbc616d70	-0.013759002
138	0xbc186fc1	-0.009303988
139	0x3ac697ad	0.0015151404
140	0xbc6f629a	-0.014610911
141	0xbb6d8399	-0.0036241768
142	0x3c85b586	0.016321909
143	0xbba27812	-0.004958161
144	0xbc7be319	-0.0153739685
145	0xbca94142	-0.020661
146	0xbb888e73	-0.004167372
147	0xbc8f19f4	-0.01746843
148	0xbc2bfd36	-0.010497382
149	0xbc37885e	-0.011201946
150	0x3c7b1c64	0.015326593
151	0xbb1a52a3	-0.002354779
152	0xbba65d9a	-0.005077076
153	0xbab64aca	-0.0013907787
154	0x3c73d2d4	0.014881808
155	0x3bdb5352	0.006693282
156	0xbc1abc36	-0.009444287
157	0xbd019ed1	-0.0316456
158	0x3c081d3e	0.008307753
159	0xbb9ce850	-0.004788436
160	0xbbca3357	-0.006170671
161	0x3c0743b4	0.008255888
162	0x3ab46619	0.0013763338
163	0xbb971af6	-0.0046113683
164	0x3c7fc9d0	0.015612081
165	0xbb77ba86	-0.0037800386
166	0x3b4efcbb	0.0031583745
167	0xbc195221	-0.00935796
168	0x3d2d288a	0.04227499
169	0x3b93113d	0.004488139
170	0x3c594710	0.0132615715
171	0xbbcba547	-0.006214771
172	0x3bbd7c93	0.0057826727
173	0x3bfd28e8	0.0077258237
174	0xbd291b35	-0.041285712
175	0xbc8f0e6e	-0.017462935
176	0xba66caa1	-0.0008803998
177	0x3cd2dfc4	0.025741465
178	0xbd0dfad1	-0.034663025
179	0x3c8e9119	0.017403172
180	0x3c8a0035	0.016845802
181	0xb9c056e3	-0.0003668583
182	0x3c098193	0.008392709
183	0xbcd43ccf	-0.025907902
184	0xbca44c21	-0.020055832
185	0xbc465a36	-0.012106469
186	0xbcf84bb1	-0.03030953
187	0xbc4979fe	-0.012297152
188	0xbc6794d8	-0.014134608
189	0xbc35c080	-0.011093259
190	0x3c372b6b	0.011179785
191	0xbc5260a1	-0.012840421
192	0xbba4e1ad	-0.0050317855
193	0x3c24df1f	0.010062962
194	0xbb095759	-0.0020956604
195	0xbacd6829	-0.0015671301
196	0x3a302523	0.0006719401
197	0x3b62adc1	0.0034588429
198	0x3c33001c	0.010925319
199	0xbbd8e93f	-0.006619602
200	0xba463dfa	-0.0007562336
201	0xbc8cc066	-0.017181586
202	0xbcbb333e	-0.022851583
203	0xbc3a417c	-0.011368152
204	0xbca5fa84	-0.020261057
205	0xbbd3c35c	-0.0064624976
206	0x3b0ebebd	0.002178117
207	0xbc07df7e	-0.008293031
208	0xbae6cda0	-0.0017608888
209	0xb9984923	-0.0002904619
210	0xbcf4f1f4	-0.029900528
211	0x3c023ee0	0.007949561
212	0xbc34f138	-0.011043839
213	0xb994181f	-0.0002824673
214	0xb875aa9a	-5.8571437e-05
215	0xbb1542e8	-0.0022775475
216	0x3be82d34	0.0070854668
217	0x3ab05192	0.0013452044
218	0xbcae9ddd	-0.02131551
219	0x3c8b4292	0.016999517
220	0xbb2793a8	-0.0025570188
221	0xbc153463	-0.009106728
222	0x3c06f625	0.008237396
223	0xbce74f84	-0.028236158
224	0xbbc91562	-0.0061365822
225	0x3a4a7eb0	0.00077245664
226	0x3b5474f8	0.0032418352
227	0xbc808ded	-0.015692675
228	0xbc3d5269	-0.011555293
229	0x3a71d59c	0.00092252507
230	0xbb6ae985	-0.0035844755
231	0xbaf63ea6	-0.0018786981
232	0x3b463661	0.0030244815
233	0x3be88c0d	0.0070967735
234	0xbbbbb37f	-0.0057281847
235	0x3ce2804c	0.027649067
236	0x3c0ad138	0.008472733
237	0x3b46515d	0.0030260899
238	0x3c33c451	0.010972098
239	0x3b89ec58	0.0042090826
240	0xbb90e7ea	-0.0044221776
241	0x3cac8030	0.021057218
242	0xbc88209b	-0.01661711
243	0xbc25d2ca	-0.010121057
244	0x3c9e8113	0.019348657
245	0x3caa4783	0.020786053
246	0xbbe57078	-0.0070019327
247	0xbd02ccb0	-0.031933486
248	0x3c98db95	0.018659392
249	0x3c470dd7	0.012149296
250	0xbb7b73b2	-0.003836852
251	0xbba1bbce	-0.004935718
252	0xbcd5f631	-0.02611837
253	0x3c81507d	0.01578545
254	0x3bed0c1a	0.0072341086
255	0x3b696a42	0.0035616313

action_model._discrete_distribution.branches.2.bias f4 [2]
0	0x3cabd0d0	0.020973593
1	0xbcabd0d2	-0.020973597

action_model._discrete_distribution.branches.2.weight f4 [2, 256]
0	0x3b8bb489	0.004263465
1	0xbaf2cc27	-0.0018523977
2	0xbc47f59e	-0.012204556
3	0x3cac1bea	0.021009404
4	0xbc015542	-0.007893862
5	0x3ab6ebcf	0.0013955774
6	0x3cbb8435	0.02289019
7	0x3bb390ec	0.0054799225
8	0x3d446cdc	0.04795538
9	0xbcec3be7	-0.028837157
10	0x3ce1d057	0.027565164
11	0xbc28521f	-0.010273485
12	0x3d3e2710	0.04642397
13	0x3aba6665	0.001422119
14	0xbc354481	-0.011063696
15	0x3b310be4	0.0027015144
16	0xbad68b9f	-0.0016368515
17	0xbc955b20	-0.018231928
18	0xbd12b5c6	-0.035817884
19	0xbc8e4bba	-0.017370094
20	0x3c47662d	0.012170357
21	0xbcbed5a9	-0.02329524
22	0xbc471c35	-0.012152721
23	0xbcc5ab91	-0.02412966
24	0x3caa9a7a	0.020825613
25	0x3cebe370	0.028794974
26	0xbd3d8904	-0.046273246
27	0x3d225bc8	0.03963831
28	0x3c721012	0.014774339
29	0x3c32d63f	0.010915338
30	0x3c92572a	0.017863829
31	0x3cc7e689	0.02440192
32	0x3c251ff7	0.010078422
33	0x3cb19326	0.021676611
34	0x3b9981f8	0.004684683
35	0xbc808dd5	-0.01569263
36	0x3c91a763	0.017780012
37	0x3c2cd013	0.010547656
38	0x3b07becc	0.002071309
39	0x3bfb38de	0.007666691
40	0x3cc7c660	0.024386585
41	0x3c3d3850	0.0115490705
42	0x3d4dd504	0.050251976
43	0xbc4ddb74	-0.012564529
44	0xbc84ab30	-0.01619491
45	0xbb84aa30	-0.0040486082
46	0xbb229715	-0.002480929
47	0x3d0aff19	0.033934686
48	0xbc1b88bb	-0.009493048
49	0x3bf2046c	0.007385781
50	0xbd0e1d0d	-0.034695674
51	0x3d058903	0.032601368
52	0x3c3f6933	0.011682796
53	0x3ca4a877	0.020099862
54	0xbcee557f	-0.029093502
55	0x3bb88e33	0.005632186
56	0x3c9af2c1	0.018914582
57	0xbce98d10	-0.028509647
58	0x3ca76b27	0.020436836
59	0xbb6ece2a	-0.0036438801
60	0x3cac7356	0.02105109
61	0xba068bcf	-0.00051325274
62	0xbc5a921b	-0.013340498
63	0x3d0d9e0e	0.03457456
64	0x3cb3aaec	0.021932088
65	0x3b17879a	0.0023121596
66	0x3ca64143	0.020294791
67	0x3c257d13	0.010100621
68	0x3c56d647	0.013112611
69	0x3b861fe0	0.0040931553
70	0x3b81e2fb	0.0039638258
71	0x3c6fcb04	0.014635805
72	0x3d2e6bdf	0.042583343
73	0x3cb186ea	0.021670777
74	0x3cb176af	0.021663038
75	0xbd00f966	-0.031487845
76	0xbc08b9c3	-0.00834507
77	0xbceb9c23	-0.028760975
78	0xbd011c2b	-0.031521004
79	0x3c686f5c	0.014186706
80	0xba8ed99c	-0.0010898593
81	0x3c5551c5	0.013019984
82	0x3c4edb16	0.012625476
83	0xbbda2eb2	-0.0066583985
84	0x38e5d60c	0.0001095944
85	0x3c6357c2	0.013875904
86	0xbc981603	-0.018565184
87	0x3c721d71	0.014777527
88	0xbc752ba4	-0.014964018
89	0xbc6579f1	-0.014006124
90	0x3bc63f59	0.006050032
91	0xbc8e98de	-0.017406877
92	0xbc64e9b6	-0.013971737
93	0x3b9519fe	0.0045502177
94	0xbc907b51	-0.017636927
95	0xbc0e2c8f	-0.008677616
96	0x3c75c635	0.0150008695
97	0x3c9edd01	0.019392492
98	0x3d4af2d8	0.049548
99	0x3af26bd0	0.0018495265
100	0xbcbc6065	-0.022995183
101	0x3d06ba11	0.03289229
102	0xbc26c9e7	-0.010179973
103	0xbc5bf0ce	-0.0134241115
104	0xbc3b7d92	-0.0114435125
105	0x3cd4cb4f	0.025975851
106	0xbc00b4c7	-0.007855601
107	0xbca8a281	-0.0205853
108	0xbca50c7a	-0.02014755
109	0xbd3cd250	-0.046099007
110	0x38e32c7d	0.0001083249
111	0xbbfb3503	-0.0076662316
112	0x3c167785	0.009183769
113	0xbcad54f8	-0.02115868
114	0xbcd717bb	-0.026256433
115	0xbbecfa9b	-0.007232023
116	0x3b326496	0.0027220598
117	0xbcc4142f	-0.023935406
118	0xbafb9d69	-0.0019196692
119	0xbc4be1e7	-0.012443996
120	0xbb84a84c	-0.004048383
121	0xbbc974f1	-0.0061479737
122	0xba0c355c	-0.00053485273
123	0xbc227ecb	-0.009917925
124	0x3bce1017	0.006288539
125	0xbb7fc2e0	-0.0039026067
126	0xbc511413	-0.012761134
127	0x3b950314	0.004547486
128	0xbc9eba41	-0.019375922
129	0xbcaafdaa	-0.02087291
130	0x3b7282c8	0.0037004221
131	0x3c8f21b7	0.017472131
132	0xbc8efc18	-0.017454192
133	0xbcebb991	-0.028775008
134	0xbc283631	-0.0102668265
135	0xbd12eb77	-0.035869088
136	0xbbfdbcce	-0.0077434545
137	0x3c9121e5	0.017716357
138	0xbcb78a8e	-0.022404935
139	0xbc693b50	-0.014235333
140	0x3d000a24	0.03125967
141	0xbd09097a	-0.033456303
142	0x3ba690d3	0.0050831824
143	0x3d15123e	0.03639435
144	0x3d8e6593	0.069529675
145	0x3cd3ab15	0.025838414
146	0xbc0677a1	-0.008207233
147	0xbc215441	-0.009846748
148	0x3ca9aab2	0.020711277
149	0x3d137cdd	0.03600775
150	0xbc43f17a	-0.011959428
151	0xbd131001	-0.035903934
152	0x3d1f0590	0.038823664
153	0xbc726954	-0.01479562
154	0x3c0956ac	0.008382481
155	0x3d081848	0.03322628
156	0x3d1ff7b9	0.039054606
157	0x3ca627ad	0.02028259
158	0xbc49bbc9	-0.012312838
159	0x3cca3d8f	0.024687557
160	0x3c90e9cf	0.017689614
161	0xbc0990ea	-0.008396367
162	0x3cce65b9	0.02519499
163	0x3cce6f18	0.025199458
164	0xbc014292	-0.007889407
165	0xbd3f0d8e	-0.046643786
166	0xbcd41353	-0.02588812
167	0xbc847624	-0.016169615
168	0xbb23f4f2	-0.0025017825
169	0xbca61557	-0.020273848
170	0xbc7c8286	-0.015411979
171	0x3c952f1b	0.018210938
172	0xbcf83276	-0.0302975
173	0xbd0afb07	-0.033930805
174	0x3c66ea7a	0.0140939895
175	0x3af4f0ed	0.0018687524
176	0x3c12102c	0.0089149885
177	0x3cd72c97	0.02626638
178	0x3d2ed11a	0.042679884
179	0xbbd26085	-0.0064201974
180	0xbce29f49	-0.027663844
181	0xbc4dc310	-0.012558714
182	0xbce0ccc1	-0.027441384
183	0x3c7d6de3	0.015468094
184	0x3c5adfb1	0.013358996
185	0x3ca77368	0.020440772
186	0x3c263c86	0.010146266
187	0xbc1a1cd9	-0.009406292
188	0xbcacd163	-0.021095937
189	0xbc6a4fa9	-0.014301219
190	0x3cbef2b3	0.023309087
191	0x3c3bf89d	0.011472848
192	0x3c3d61a7	0.011558927
193	0x3c7ce988	0.015436538
194	0xbc374a7e	-0.011187194
195	0xbc0f4263	-0.008743855
196	0xbc8049ed	-0.01566025
197	0xbc174418	-0.009232543
198	0x3cc6d07c	0.024269335
199	0xbb205fc7	-0.002447115
200	0xbcd42cba	-0.025900234
201	0x3c1fad07	0.009745843
202	0x3c8f2611	0.017474206
203	0xbc2763b3	-0.010216641
204	0x3d219ce1	0.039456252
205	0x3c2086e2	0.009797784
206	0xbcb1ee5d	-0.021720106
207	0xbb82ed6a	-0.003995587
208	0x3c9079a0	0.01763612
209	0x3a818a88	0.0009883204
210	0xbc515752	-0.012777166
211	0x3c5148ac	0.012773674
212	0x3cdd68cf	0.027027516
213	0x3b3796a7	0.002801338
214	0x3cc4739b	0.023980906
215	0x3c713058	0.014720999
216	0xbb87cda6	-0.0041443883
217	0xbc4eae81	-0.012614847
218	0x3ccc835d	0.024964983
219	0x3c1a5c36	0.009421399
220	0x3c8ebfa4	0.017425366
221	0x3c35e38e	0.011101617
222	0xbbf6f3f4	-0.0075364057
223	0x3b15e6cc	0.0022873161
224	0x3d1e43cc	0.038638875
225	0xbc4f5d2c	-0.012656491
226	0xbb87ac3a	-0.004140404
227	0x3c09491f	0.00837925
228	0x3c0685a3	0.008210572
229	0x3d2c0c75	0.042004067
230	0x3c91f6f4	0.017817952
231	0x3c1cf3ad	0.009579581
232	0xbc0f3c7d	-0.008742449
233	0xbcff19ea	-0.031140286
234	0x3c02504c	0.007953715
235	0xbcd20e79	-0.025641667
236	0x3ca457a4	0.020061322
237	0x3d2d0ec6	0.042250417
238	0x3bce992c	0.0063048806
239	0x3cdc2e3e	0.026877519
240	0xbc2f6a24	-0.010706458
241	0x3b7ff1c1	0.0039054009
242	0x3d694cd6	0.056958042
243	0xb81e98d2	-3.781246e-05
244	0xbc085f4e	-0.008323504
245	0x3c7e27f9	0.01551246
246	0xbd3d28b5	-0.0461814
247	0x3d6d5012	0.05793769
248	0xbb742e2b	-0.0037258964
249	0xbcb219a4	-0.021740742
250	0x3bc172ec	0.0059035923
251	0x3d10a6f2	0.03531546
252	0x3c88e06e	0.016708579
253	0x3b92b41e	0.004477038
254	0x3b69ccaa	0.0035674968
255	0xbcd5d7fd	-0.026103968

network_body.linear_encoder.seq_layers.0.bias f4 [256]
0	0x3ac9b752	0.0015389717
1	0x3b6a6ee7	0.003577167
2	0xbd03cc08	-0.032177
3	0x3c495162	0.01228747
4	0x3c5dde8a	0.013541827
5	0xbc949cfd	-0.018141264
6	0x3c5b7718	0.013395093
7	0xbc1137ca	-0.008863399
8	0x3ce0a19e	0.027420815
9	0xbcd58e11	-0.02606872
10	0x3c8d6a88	0.017262712
11	0x3d183cd7	0.037167396
12	0x3c417339	0.011807256
13	0x3d0675be	0.03282713
14	0xbc635269	-0.013874629
15	0xbcb059a6	-0.021527123
16	0xbbbb25c6	-0.00571129
17	0xbc4bf1a7	-0.012447751
18	0x3bd56599	0.0065123555
19	0x3bac46ec	0.005257478
20	0xbc41fdeb	-0.011840324
21	0x3c7da301	0.015480758
22	0xbc7f1ba3	-0.015570554
23	0xbb9ab936	-0.004721786
24	0x3c632f49	0.013866254
25	0x3b0bb7b0	0.0021319203
26	0x3c884ed8	0.016639158
27	0x3b6ab5d8	0.0035813954
28	0xbcd9461d	-0.02652269
29	0x3c522a27	0.012827433
30	0xbc0eb57b	-0.0087102605
31	0x3b94bfac	0.0045394506
32	0xbc154ba1	-0.00911227
33	0xbb470779	-0.0030369444
34	0xbc879f97	-0.01655559
35	0xbc770797	-0.015077493
36	0xbc8bbf69	-0.017059045
37	0xbcd3fa54	-0.025876202
38	0xbc81b30b	-0.015832445
39	0xbc4ea59b	-0.012612726
40	0xbc67c842	-0.014146866
41	0x3b6d8b24	0.0036246264
42	0x3ba7db3e	0.0051225713
43	0x3c225286	0.00990737
44	0x3c95c47d	0.01828217
45	0x3bfb2b88	0.0076651014
46	0x3c80b0d8	0.015709326
47	0xbc2c489a	-0.010515356
48	0x3c416db5	0.011805941
49	0xbc296f73	-0.010341513
50	0x3af84302	0.0018940868
51	0x3c8d265b	0.017230203
52	0x3c91143f	0.01770985
53	0xbc8548fc	-0.016270153
54	0x3caa9869	0.020824628
55	0x3c790c78	0.015200727
56	0xbc409896	-0.011755129
57	0x3cbb9ded	0.022902453
58	0xbcd2d012	-0.025733981
59	0x3c93d768	0.01804705
60	0x3cd67e18	0.026183173
61	0xbc173ff1	-0.009231553
62	0xbc85a819	-0.016315507
63	0xbcd4cb45	-0.025975833
64	0x3c4c9da2	0.0124887545
65	0xbc9769cf	-0.01848307
66	0xbc9fc4d6	-0.019503038
67	0x3cdbe17d	0.02684092
68	0xba3d1112	-0.00072123215
69	0xbc08b248	-0.008343287
70	0xb9bfbdde	-0.0003657182
71	0x3bee1dee	0.0072667515
72	0xbcf973b6	-0.030450683
73	0x39c2623e	0.0003707576
74	0x3cbcb0ae	0.023033466
75	0x3c9f3e01	0.019438745
76	0x3bd81e48	0.0065954067
77	0x3b6b672a	0.0035919645
78	0xbc162bbd	-0.009165701
79	0xbc70d28a	-0.014698634
80	0x3c7c4a6d	0.015398604
81	0x3c12fbb4	0.0089711435
82	0xbc8ea47c	-0.017412417
83	0x3c56ec2e	0.013117833
84	0x3c83a64c	0.016070507
85	0xbcb2f72d	-0.021846378
86	0xbbc342d4	-0.0059588943
87	0xba8f815a	-0.0010948584
88	0x3c5d3d8a	0.013503442
89	0x3c86f34e	0.016473439
90	0xbc09fc9c	-0.008422043
91	0xbbda2760	-0.006657526
92	0x3d1c91d1	0.038225
93	0xbc0bcb9d	-0.008532432
94	0xbcbf8c5b	-0.023382356
95	0x3ce9fe8a	0.028563756
96	0x3caaa7da	0.020831991
97	0xbca3064f	-0.01990047
98	0xbcb778f4	-0.022396542
99	0xbcd8ba86	-0.026456129
100	0x3af2e083	0.0018530044
101	0x3c94a5d9	0.018145489
102	0x3c9c780f	0.019100217
103	0xbd02b5f7	-0.031911816
104	0x3c929fe6	0.017898511
105	0xbbdcc43c	-0.00673726
106	0x3c5553d0	0.013020471
107	0x3c05dfcb	0.008171032
108	0xbbaf5146	-0.0053502647
109	0x3ca47e73	0.020079827
110	0x3b81ec3e	0.00396493
111	0xbc70ce80	-0.014697671
112	0x3a246137	0.00062705897
113	0xbc7df2ea	-0.01549981
114	0x3cd3a49b	0.025835326
115	0xbbd8c4dd	-0.006615265
116	0xbcdbcb9f	-0.026830493
117	0xbc1d0489	-0.009583601
118	0x3c2d0688	0.010560639
119	0xbd0c7861	-0.03429449
120	0x38836e56	6.2671184e-05
121	0x3ba55334	0.005045319
122	0x3c3caaed	0.011515361
123	0xbc4a87e3	-0.0123614995
124	0xbb99bca9	-0.0046916795
125	0x3af4bf5e	0.0018672755
126	0x3c12eb75	0.00896727
127	0xbb781042	-0.0037851487
128	0x3cb7de4c	0.022444867
129	0x3ca8d0f2	0.020607445
130	0xbb4ebb8d	-0.0031544894
131	0xbbbda200	-0.005787134
132	0x3b055b1f	0.0020348502
133	0x3c566fa4	0.013088141
134	0x3b47debb	0.0030497748
135	0x3c17676e	0.009240968
136	0xbc6029f8	-0.013681881
137	0xbc082148	-0.008308716
138	0xba5b5af2	-0.0008367739
139	0xba04b69f	-0.0005062613
140	0x3be0c613	0.00685955
141	0xbc48f990	-0.012266532
142	0x3b14c4c5	0.0022700292
143	0x3bab0ea4	0.005220251
144	0xbc6f6c16	-0.014613172
145	0x3caf6a71	0.02141306
146	0x3ba1ca73	0.004937464
147	0x3c5021af	0.012703343
148	0x3c58c8dc	0.013231482
149	0xbb929522	-0.0044733444
150	0x3c9683ec	0.018373452
151	0xbcc625df	-0.02418798
152	0x3c256006	0.010093695
153	0x3c538d77	0.012912146
154	0x3c969971	0.018383713
155	0xbb810809	-0.0039377254
156	0x3c586114	0.013206739
157	0xbc2face6	-0.010722375
158	0xbcabc42a	-0.020967562
159	0xb9c52edb	-0.00037609678
160	0xbcab01f7	-0.02087496
161	0xbc3b3a3d	-0.011427459
162	0x3c813983	0.015774494
163	0x3ba7004b	0.0050964705
164	0xbbd6fbe1	-0.006560788
165	0x3d2802d8	0.041018337
166	0x3c5541e7	0.013016201
167	0x3bd9f864	0.006651925
168	0xbbbaf8d9	-0.0057059345
169	0xbc0c095a	-0.008547151
170	0x3c6d7b29	0.014494696
171	0x3cf4a39e	0.029863175
172	0x3c2bbfd1	0.010482744
173	0xbb51037b	-0.0031892944
174	0xbbd2a9fa	-0.006428954
175	0xbcaa59aa	-0.020794708
176	0x3d06d17c	0.032914624
177	0x3cad4b66	0.021154117
178	0xbc45fe2b	-0.012084524
179	0xbc977671	-0.018489094
180	0x3c543e6c	0.012954336
181	0x3c9edeb9	0.019393312
182	0xbcca21a8	-0.024674252
183	0x3aa0711c	0.001224074
184	0x3ca7530d	0.020425344
185	0x3c8e5761	0.01737565
186	0xbb80642d	-0.003918192
187	0xbbba8662	-0.005692289
188	0x3c6fa2be	0.014626203
189	0x3bdd51b3	0.006754124
190	0x3c010ff3	0.007877338
191	0x3b4dc32a	0.0031396844
192	0xbc094dfe	-0.008380411
193	0xbc072267	-0.008247948
194	0xbbc52437	-0.00601628
195	0x3caa295e	0.020771679
196	0xb33c9800	-4.3910404e-08
197	0xbca91b0f	-0.020642785
198	0x3c5b6749	0.013391324
199	0x3cc8462b	0.024447521
200	0xbc98382f	-0.018581478
201	0x3cc5ff9f	0.024169741
202	0xbad797ce	-0.001644844
203	0xbc8f1aaa	-0.01746877
204	0xbce7a41d	-0.028276497
205	0x3bb6b1a5	0.005575376
206	0x3b3d36fd	0.0028871887
207	0x3bdd1a34	0.0067475084
208	0xbb533839	-0.0032229556
209	0xbca415cf	-0.02002993
210	0x3cb27d56	0.02178828
211	0xbc0f01c4	-0.008728448
212	0xbc0764ba	-0.008263761
213	0x3c304727	0.010759152
214	0xbc14934e	-0.009068323
215	0xbb503b2e	-0.0031773555
216	0xbbc9a61d	-0.0061538354
217	0xbcb33839	-0.021877395
218	0x3cea6657	0.028613253
219	0x3cb0976b	0.021556577
220	0x3bd51211	0.006502398
221	0xbd476791	-0.048682753
222	0xbb6b79d7	-0.0035930777
223	0xbcd9bb5f	-0.026578603
224	0x3d03e0fc	0.032196984
225	0x3b268236	0.0025407202
226	0x3d2799eb	0.040918272
227	0xbc9e7652	-0.019343529
228	0x3ce5c3bd	0.028047437
229	0xba8e7d19	-0.0010871022
230	0xbd04e4ac	-0.03244464
231	0xbbcdf36f	-0.006285123
232	0x3af2271b	0.0018474789
233	0xbc5724af	-0.013131305
234	0x3c84ce07	0.016211523
235	0xbc867303	-0.016412264
236	0x3d15ce85	0.036573905
237	0xbc241737	-0.0100153005
238	0x3a5c14e7	0.00083954487
239	0xbbd51362	-0.0065025548
240	0x3abd8aa9	0.001446088
241	0x3cd05908	0.025433078
242	0xbb2d0d8b	-0.0026405777
243	0x3bc4d8d4	0.0060072932
244	0x3cc637be	0.024196502
245	0xbcd10c43	-0.025518542
246	0xbbafd282	-0.0053656707
247	0x38d7a384	0.00010282456
248	0xbb57ae4f	-0.0032910293
249	0xbc1c7786	-0.009549981
250	0x3c15ab63	0.0091351
251	0xbbd30261	-0.0064394926
252	0xbc55b31d	-0.013043192
253	0xbcef700e	-0.029228237
254	0xbb5be4a8	-0.0033553038
255	0xbbda2d5d	-0.0066582398

network_body.linear_encoder.seq_layers.0.weight f4 [256, 99]
0	0x3da9e9de	0.0829656
1	0x3a54ed0e	0.0008122482
2	0x3d0bb90e	0.03411203
3	0x3e48a383	0.19593625
4	0xbc904579	-0.017611252
5	0x3d7bd718	0.061484426
6	0x3e16e235	0.14734729
7	0xbd848ed7	-0.06472557
8	0x3e2cb241	0.16864873
9	0xbc0f7171	-0.008755074
10	0x3d1ae596	0.037816606
11	0xbe0c1426	-0.13679561
12	0xbd4e350d	-0.050343562
13	0x3d0fbba7	0.03509107
14	0xbd3856e2	-0.045004733
15	0x3d2d0c01	0.042247776
16	0xbdf7a5ac	-0.12092146
17	0xbe11ed0e	-0.14250585
18	0x3d9e6755	0.07734553
19	0xbc963374	-0.018335082
20	0x3dffc390	0.124884725
21	0x3d9901f7	0.07471078
22	0x3da9db5a	0.08293791
23	0xbc7e86d3	-0.015535074
24	0xbd8f4b60	-0.069967985
25	0xbe5139d0	-0.2043221
26	0x3d87dc69	0.06633837
27	0x3d3027de	0.04300677
28	0x3c5fe7fd	0.01366615
29	0x3e449e01	0.19200899
30	0x3e3aebff	0.18254088
31	0xbcddafef	-0.02706143
32	0x3dddc04b	0.108276926
33	0xbc3eab90	-0.011637583
34	0xbcc91972	-0.024548266
35	0xbdbbc344	-0.09168103
36	0xbd8107da	-0.06300326
37	0x3e2e4001	0.17016603
38	0xbd6dfb22	-0.058100827
39	0x3dae8340	0.08521128
40	0xbd326c63	-0.043560397
41	0x3d36568a	0.044516124
42	0x3c72d39f	0.014820962
43	0x3e100a24	0.14066368
44	0xbe6d693d	-0.23184676
45	0xbe439ece	-0.19103548
46	0xbe6332de	-0.22187373
47	0xbe122548	-0.14272034
48	0xbd04ab56	-0.03238996
49	0x3d07c0f7	0.03314301
50	0xbe613e2d	-0.21996374
51	0x3c254a73	0.010088551
52	0xbd48443f	-0.04889321
53	0x3d6f9639	0.058492873
54	0xbe10ea46	-0.14151868
55	0xbe202e74	-0.1564272
56	0x3931d391	0.0001695885
57	0xbe300439	-0.17189111
58	0xbdf2aa34	-0.1184887
59	0xbda0331f	-0.078222506
60	0x3e1cb71d	0.15304227
61	0x3e6ee5a2	0.23329785
62	0xbd9db24b	-0.07700022
63	0x3e051e52	0.12999848
64	0x3e1e778e	0.15475294
65	0xbe5a1620	-0.21297503
66	0xbd7d3166	-0.06181469
67	0x3dffb0f8	0.12484926
68	0xbe08b72e	-0.13351128
69	0xbe8d1a59	-0.27559164
70	0x3dd68678	0.10474867
71	0x3e0f4cb8	0.1399411
72	0x3e042f15	0.12908585
73	0x3b5ef540	0.0034020692
74	0xbd57604b	-0.052582067
75	0x3d1f4b0e	0.038889937
76	0x3dab58d5	0.08366553
77	0x3d29635e	0.04135453
78	0x3de5ec57	0.11226719
79	0xbdd25402	-0.102699295
80	0xbe4c4e2f	-0.199517
81	0xbc9511a1	-0.018196883
82	0x3e2ebc91	0.1706412
83	0x3df6765f	0.12034296
84	0x3d556f76	0.05210825
85	0xbd9fac37	-0.07796519
86	0xbb7f12b0	-0.003892105
87	0xbc12c12a	-0.008957187
88	0xbdf12d38	-0.11776203
89	0xbd3fa611	-0.046789233
90	0x3ce552e3	0.027993625
91	0xbe4a3ec5	-0.19750507
92	0x3e4246af	0.18972276
93	0xbe3a94ca	-0.18220821
94	0xbd3c3381	-0.045947555
95	0xbccd0243	-0.025025493
96	0x3e3f55e3	0.18685107
97	0x3da00d00	0.078149796
98	0xbcca05b4	-0.024660923
99	0x3dc0bfa2	0.09411551
100	0xbd82a808	-0.06379706
101	0x3d515729	0.051108513
102	0x3ce34e2b	0.027747234
103	0xbd98a583	-0.07453444
104	0xbde2ba43	-0.11070683
105	0x3dc221a1	0.094790705
106	0xbe277d7e	-0.16356465
107	0x3e28f442	0.16499427
108	0xbd797dd0	-0.060911
109	0x3d736ae3	0.059428107
110	0xbcf479e1	-0.029843273
111	0xbe0dec73	-0.1385973
112	0xbdb12aa9	-0.08650715
113	0x3c628fc8	0.013828225
114	0xbc28421a	-0.010269666
115	0x3e03979b	0.12850802
116	0x3e504899	0.20340194
117	0x3d1da13b	0.03848384
118	0xbd7ee4a4	-0.062229767
119	0xbcdd49a0	-0.027012646
120	0xbe274f06	-0.16338739
121	0xbd43ff47	-0.047850873
122	0x3d7a8855	0.061165173
123	0xbe48e7a5	-0.19619615
124	0xbdb3b08a	-0.087739065
125	0x3c0d6cb2	0.008631872
126	0xbc68ea36	-0.0142159965
127	0xbdf9ef13	-0.12203803
128	0xbe2a86e8	-0.16653025
129	0xbdb06f06	-0.08614926
130	0xbc6059a4	-0.013693247
131	0xbd3a8c73	-0.0455441
132	0x3c59cfa4	0.013294134
133	0xbdcff2c1	-0.101537235
134	0xbdb390b8	-0.08767837
135	0x3dd509b6	0.10402243
136	0x3d70cd40	0.05878949
137	0x3d771435	0.060322005
138	0xbd55c543	-0.052190077
139	0x3dbdccf1	0.09267605
140	0x3d4938f1	0.04912657
141	0xbe5f2a09	-0.21793379
142	0xbd8d3e0f	-0.06896602
143	0x3e572468	0.21009982
144	0x3e1d4c50	0.15361142
145	0x3c1f25fb	0.009713645
146	0x3c066806	0.008203512
147	0x3b0148d5	0.001972725
148	0x3c751103	0.014957669
149	0xba41c277	-0.0007391343
150	0xbdcba03c	-0.09942672
151	0xbd24bb76	-0.04021784
152	0xbdb02253	-0.08600297
153	0x3dbdcb8d	0.0926734
154	0x3dc40c6a	0.0957268
155	0xbe979b00	-0.29610443
156	0x3dd5c66d	0.10438237
157	0xbe7d7fed	-0.24755831
158	0x3c959022	0.018257204
159	0xbd2124a3	-0.03934158
160	0x3d19d955	0.03756078
161	0x3b07fdf3	0.002075073
162	0x3dc83ffd	0.0977783
163	0xbe25abd5	-0.1617883
164	0x3d093c92	0.03350503
165	0xbde95230	-0.11392629
166	0xbd3eebfe	-0.04661178
167	0x3da4a0cb	0.08038481
168	0x3c9ea655	0.019366423
169	0xbbe2519c	-0.0069067013
170	0x3d11fd7a	0.035642125
171	0x3e0839d4	0.1330331
172	0x3de79e88	0.11309534
173	0xbc7acd43	-0.015307727
174	0xbadd24ed	-0.0016871967
175	0x3bb5ad18	0.005544316
176	0xbe789fdb	-0.2427973
177	0x3d3eebe8	0.046611696
178	0x3bbd6922	0.005780355
179	0xbe584eca	-0.21123806
180	0x3d32d175	0.043656785
181	0xbdb69793	-0.08915629
182	0x3d7912ab	0.06080882
183	0x3cc714eb	0.024301967
184	0xbb996e22	-0.0046823183
185	0x3cde6f42	0.027152661
186	0x3dcd07d5	0.100112595
187	0xbd4fb895	-0.05071314
188	0xbd4c056c	-0.04980986
189	0xbdb5af49	-0.088713236
190	0xbe1494ab	-0.14509837
191	0x3d53091a	0.05152235
192	0x3d577aaa	0.052607216
193	0x3e049058	0.12945688
194	0x3cb1b146	0.021690976
195	0x3d839881	0.06425572
196	0xbd2dcda6	-0.04243245
197	0x3d50168f	0.050802764
198	0xbce51325	-0.02796323
199	0x3c4b7c1c	0.012419727
200	0xbd18d4f0	-0.037312448
201	0x3c88d998	0.01670532
202	0x3cc9f09e	0.024650868
203	0xbe542d22	-0.20720342
204	0xbc8bd38d	-0.017068649
205	0x3ca26553	0.019823706
206	0x3d83fedf	0.06445097
207	0xbcc79fd6	-0.024368208
208	0xbbbd2577	-0.0057722884
209	0xbdafe8b3	-0.08589306
210	0x3cf25ed5	0.029586235
211	0x3c85acf4	0.016317822
212	0x3de4e79b	0.11176988
213	0x3c7a82d4	0.015289981
214	0x3d6e32ff	0.058154102
215	0xbd62b68c	-0.05534987
216	0x3be9ccd3	0.0071350127
217	0x3e304439	0.17213525
218	0xbcd6d309	-0.026223676
219	0xbe21d357	-0.15803276
220	0x3d5c4ff5	0.05378719
221	0x3e134889	0.14383139
222	0x3dfba285	0.122868575
223	0xbdb20d3c	-0.086939305
224	0x3d0abeee	0.03387349
225	0x3dc0a400	0.094062805
226	0x3dbfc793	0.09364238
227	0xbdaa8bc6	-0.08327441
228	0xbd4835b1	-0.04887933
229	0x3c19f3c0	0.009396493
230	0x3d392c1f	0.045208093
231	0x3da39583	0.079875015
232	0x3d258644	0.04041125
233	0x3cc51ec9	0.024062531
234	0x3ce229e4	0.027607866
235	0xbcc19dfd	-0.023634905
236	0x3d2aa20c	0.041658446
237	0x3bcad7b8	0.0061902665
238	0x3d8877a2	0.06663443
239	0x3c98920b	0.018624326
240	0x3b37c4f1	0.002804097
241	0xbceb0560	-0.028689086
242	0xbc0a5b0e	-0.008444561
243	0x3cfea885	0.031086216
244	0xbe6a5882	-0.22885326
245	0x3d96099f	0.07326054
246	0xbd24e6cb	-0.040259164
247	0xbd72d262	-0.059282668
248	0x3df56685	0.11982445
249	0xbd4d0aa3	-0.050058972
250	0x3d0a5f66	0.033782385
251	0xbc40bbf4	-0.0117635615
252	0x3cb765a8	0.02238734
253	0x3d7bbadd	0.061457504
254	0xbdc84431	-0.097786315
255	0xbdbdae44	-0.09261754

network_body.linear_encoder.seq_layers.2.bias f4 [256]
0	0xbbd5a63d	-0.0065200613
1	0x3c6cbdf4	0.014449585
2	0xbcc96244	-0.02458299
3	0xbb78b8ef	-0.0037952026
4	0xba96ff96	-0.0011520262
5	0xbc10b99d	-0.008833316
6	0x3c3b5ef5	0.011436214
7	0xbb810d5c	-0.00393836
8	0x3c7328dc	0.014841285
9	0xbcbd4e08	-0.023108497
10	0x3c683165	0.014171933
11	0xbc995498	-0.018717095
12	0x3ca233e2	0.01980013
13	0xbb7c8939	-0.003853394
14	0xbc95f99e	-0.018307503
15	0x3c571e4b	0.013129781
16	0xbc297678	-0.010343187
17	0xbcd49d57	-0.025953932
18	0xbc8d71e7	-0.017266227
19	0x3bb4ac00	0.005513668
20	0x3c9ba9b5	0.019001821
21	0xbbdf5bfd	-0.006816386
22	0x3bae4223	0.0053179427
23	0x3ae5d1ac	0.00175338
24	0x3cce94c6	0.025217425
25	0x3cc113eb	0.023569068
26	0xbc8b8c0a	-0.01703455
27	0x3cf6095b	0.030033758
28	0x3b01db13	0.0019814416
29	0xbbcbc090	-0.0062180236
30	0x3c110689	0.008851656
31	0x3cdbf5d4	0.026850618
32	0x3bce596e	0.006297282
33	0x3ce5c1a7	0.028046442
34	0x3bd0b7bb	0.0063695586
35	0xbca0cf1f	-0.019630013
36	0xbb2257f0	-0.0024771653
37	0x39b4093c	0.00034339156
38	0x3ca883f0	0.020570725
39	0x3c8fab9a	0.01753788
40	0x3c53757e	0.01290643
41	0xbaf20d5f	-0.001846712
42	0x3cdd5273	0.027016854
43	0xbc801cc9	-0.015638726
44	0xbc3a7142	-0.011379542
45	0xbc3ea6a1	-0.011636407
46	0xba5521a1	-0.0008130316
47	0x3cb4b1b0	0.022057384
48	0xbc412908	-0.011789568
49	0x3ba1dd3c	0.0049397033
50	0xbc86005a	-0.01635759
51	0x3cc020c2	0.02345312
52	0x3c69474a	0.014238188
53	0xbc21138f	-0.009831323
54	0xb8d6b17a	-0.00010237373
55	0xbce53b58	-0.027982399
56	0x3be25565	0.0069071525
57	0xbc252375	-0.010079254
58	0x3b9b4456	0.004738371
59	0x3c158490	0.009125844
60	0x3bcca361	0.006245062
61	0xbb7fc917	-0.003902977
62	0x3a44a9c6	0.0007502105
63	0x3c8a1e1d	0.016860062
64	0x3c98a719	0.018634366
65	0xbc862f27	-0.016379906
66	0x3c6965e2	0.014245482
67	0x3bcb2eca	0.006200646
68	0x3c1a5de1	0.009421797
69	0xbac5dd36	-0.0015095833
70	0x3b858981	0.0040752296
71	0x3cbc9fb3	0.02302537
72	0x3ca055e7	0.019572211
73	0x3ca29589	0.019846695
74	0x3c99bf02	0.018767837
75	0xbc31fc07	-0.010863311
76	0x3b85fa04	0.004088642
77	0xbc82c038	-0.015960798
78	0xbcd08783	-0.025455242
79	0xbbc62d29	-0.006047864
80	0xbba12b77	-0.0049185115
81	0x38dcc3da	0.00010526898
82	0x3bc4b1af	0.006002627
83	0xbbafcd1a	-0.005365026
84	0xbc792532	-0.015206622
85	0x3b6e5ffe	0.0036373134
86	0xbc9180cd	-0.017761612
87	0x3cb59211	0.022164376
88	0xbc7c4994	-0.015398402
89	0xbc793117	-0.015209458
90	0xbc4ed2ec	-0.01262353
91	0xbc9ec8e0	-0.019382894
92	0xbc7106f8	-0.014711134
93	0xbc5503b7	-0.013001374
94	0x3aaf5b82	0.0013378712
95	0x3b85b818	0.0040807836
96	0x3bf0e055	0.007350961
97	0x3c8657f2	0.016399357
98	0x3cefabe0	0.029256761
99	0x3c4965be	0.012292324
100	0xbca415dd	-0.020029956
101	0x3c7ec148	0.0155490115
102	0xbc00f91e	-0.007871894
103	0x3aefb2d6	0.001828755
104	0xbcabcf45	-0.020972857
105	0x3c8acc82	0.01694322
106	0xbc47a1fb	-0.012184615
107	0xbca2e148	-0.019882813
108	0xbc4ecd46	-0.012622183
109	0xbc8207e5	-0.015872905
110	0xbb68db38	-0.0035531055
111	0xbc4c6408	-0.012475021
112	0x3ba361f0	0.0049860403
113	0xbc8b9d6b	-0.017042836
114	0xbba8d878	-0.005152758
115	0xbbcb659f	-0.0062071825
116	0x3ad64bc3	0.0016349483
117	0xbcbaa40f	-0.022783307
118	0xbc9e97cb	-0.01935949
119	0x3b55c703	0.003261984
120	0xbcc9f90e	-0.024654891
121	0x3b3a2a61	0.0028406607
122	0xbc949c2e	-0.018140879
123	0xbbb25c04	-0.005443098
124	0xba48a1ab	-0.0007653485
125	0x3bc644d0	0.0060506836
126	0xbc8f35f3	-0.01748178
127	0x3c1b69e4	0.0094856955
128	0xbcc17c9f	-0.023618994
129	0x3b52d89c	0.0032172566
130	0xbb261e3a	-0.0025347606
131	0xbabbe189	-0.0014334182
132	0x3c2d11cf	0.010563328
133	0xbbf574d3	-0.007490733
134	0xbaddfcef	-0.0016936342
135	0xbbeeff40	-0.0072936118
136	0xbb2f6e76	-0.002676872
137	0x3b0fca36	0.0021940595
138	0xb9d3ac92	-0.0004037363
139	0xbca4fa0b	-0.020138761
140	0x3c9f8724	0.01947362
141	0xbca36614	-0.019946136
142	0xbb950aac	-0.0045483913
143	0x3c332aa1	0.0109354565
144	0x3d2d9b0c	0.042384192
145	0x3cae8272	0.021302436
146	0xbc4bac12	-0.0124311615
147	0xbc8aaa1d	-0.01692682
148	0x3c2c708e	0.010524882
149	0x3c1efd7b	0.009703989
150	0xbbede721	-0.0072602187
151	0xbce84d40	-0.028357148
152	0x3b9b89da	0.004746658
153	0xbcac9fbd	-0.021072263
154	0x3c239db0	0.009986326
155	0x3c83134f	0.016000418
156	0x3ca32697	0.019915862
157	0x3c1faa81	0.009745241
158	0xbcb9fdc4	-0.022704013
159	0xbb93e294	-0.004513094
160	0x3af49d40	0.0018662587
161	0xbcf3b5b9	-0.029749738
162	0x3c997e6b	0.018737039
163	0x3cb03525	0.021509716
164	0xbc67cdca	-0.014148185
165	0xbbb6ac3e	-0.005574732
166	0x3bd4efc7	0.0064983102
167	0xbc0caeb3	-0.008586573
168	0x3c3f0eb7	0.011661223
169	0xbcbcc692	-0.023043904
170	0xbc12face	-0.008970929
171	0xbc14870b	-0.0090654
172	0xbc269fa8	-0.010169901
173	0xba08ef2e	-0.0005223629
174	0xbb56d62a	-0.003278146
175	0xbc0c0b6c	-0.008547645
176	0x3b8094a3	0.003923969
177	0x3c1b88e3	0.009493086
178	0x3c920da0	0.017828763
179	0x3b99dff7	0.004695888
180	0xbca6eff5	-0.020378092
181	0xbc782f94	-0.015148062
182	0xbbc3b50c	-0.00597251
183	0x3c25a6cc	0.010110568
184	0x3c4234a0	0.011853367
185	0x3c3d429a	0.011551524
186	0x3bb1000b	0.0054016165
187	0xbc08326a	-0.008312801
188	0xbb59372f	-0.0033144464
189	0x3c0af4f4	0.008481253
190	0x3acf5d12	0.0015820584
191	0xbbdb00dc	-0.006683452
192	0x3bab8774	0.005234653
193	0x3b36fd55	0.0027921994
194	0xbc58275b	-0.013192977
195	0xbbb85502	-0.005625368
196	0xbb3a09a4	-0.0028387094
197	0xbcbbf6ea	-0.022944886
198	0x3c30a130	0.010780618
199	0x3ae2f153	0.0017314352
200	0xbcb4875c	-0.0220372
201	0x3c478754	0.012178261
202	0x3c8ebdf3	0.01742456
203	0xbc1bc076	-0.0095063355
204	0x3cd1f6ae	0.025630321
205	0x3a68ef64	0.00088857696
206	0xbcc115a7	-0.023569895
207	0xbbbd5529	-0.005777974
208	0x3c3f0a3a	0.011660153
209	0xbb5b61a8	-0.0033474956
210	0x3c1ced9f	0.009578138
211	0xbc6d5f05	-0.014487986
212	0x3c79e616	0.015252611
213	0x3c128792	0.008943455
214	0x3b6719e3	0.0035263232
215	0x3be68756	0.0070351763
216	0xbcc34bef	-0.023839919
217	0x3c8ece17	0.017432256
218	0x3c9a0823	0.018802708
219	0xbc8d07e2	-0.017215673
220	0x3c63992d	0.0138915
221	0x3b3a1fae	0.002840023
222	0xbc2a25eb	-0.010385017
223	0x3b7336bd	0.0037111484
224	0x3c932756	0.017963093
225	0xbae5471a	-0.0017492503
226	0xbc6deb50	-0.014521435
227	0x3c3cf70b	0.011533509
228	0x3b5788ac	0.003288786
229	0x3cf116c0	0.029429793
230	0x3c26da7b	0.010183926
231	0x3c1a06da	0.009401048
232	0x39e07e4c	0.00042818708
233	0xbc06041e	-0.008179693
234	0xba5329c0	-0.00080552325
235	0xbc189e8d	-0.009315145
236	0xba8f45c0	-0.0010930821
237	0x3d204eaa	0.03913752
238	0xbd09b7ef	-0.03362268
239	0x3cc7bdb4	0.02438245
240	0xbc0ca785	-0.008584862
241	0x3c0a8291	0.008453981
242	0x3cd3fc78	0.025877222
243	0x3bf92795	0.0076035955
244	0xbc84c141	-0.016205432
245	0x3c4826bc	0.012216266
246	0xbbadd314	-0.0053047035
247	0x3d11c75f	0.035590526
248	0xbad9eeb5	-0.0016626926
249	0xbd00b465	-0.031422038
250	0x3b19f18b	0.0023489918
251	0x3d0173cd	0.031604577
252	0xb99aec4b	-0.0002954922
253	0xbc985a63	-0.018597787
254	0x3bc678ad	0.006056866
255	0xbccdf29b	-0.025140097
