MLagents/results/hb_16/Mario/Mario-233586.onnx (onnx, 377673 bytes, 12 tensors)

92 f4 [99]
000000 46 99 07 3b 46 99 07 3b 46 99 07 3b 46 99 07 3b
       0.0020690723 0.0020690723 0.0020690723 0.0020690723
000010 90 c3 3f 3b 90 c3 3f 3b 68 93 9a 3e aa 94 87 3c
       0.0029260851 0.0029260851 0.30190587 0.01655038
000020 f0 95 ea 3d 46 99 07 3b 46 99 07 3b 46 99 07 3b
       0.114543796 0.0020690723 0.0020690723 0.0020690723
000030 aa 92 9a 3e aa 94 87 3c f0 95 ea 3d 46 99 07 3b
       0.3019002 0.01655038 0.114543796 0.0020690723
000040 46 99 07 3b 46 99 07 3b 7f 8d a3 3e 93 76 06 3d
       0.0020690723 0.0020690723 0.3194389 0.032827925
000050 47 b4 58 3e 46 99 07 3b 46 99 07 3b 46 99 07 3b
       0.2116252 0.0020690723 0.0020690723 0.0020690723
000060 84 2d a8 3e 36 6f 0b 3d 9a 32 55 3e 46 99 07 3b
       0.32847226 0.034041606 0.20820084 0.0020690723
000070 46 99 07 3b 46 99 07 3b a2 5d c9 3e f4 c2 2e 3d
       0.0020690723 0.0020690723 0.3932925 0.04266639
000080 b5 8d bf 3e 46 99 07 3b 46 99 07 3b 46 99 07 3b
       0.374128 0.0020690723 0.0020690723 0.0020690723
000090 ea 99 da 3e 74 7c 39 3d 8e 10 ca 3e 46 99 07 3b
       0.42695552 0.045284703 0.39465755 0.0020690723
0000a0 46 99 07 3b 46 99 07 3b 74 03 bf 3e 86 d3 90 3d
       0.0020690723 0.0020690723 0.37307322 0.07071595
0000b0 53 f8 d9 3e 46 99 07 3b 46 99 07 3b 46 99 07 3b
       0.4257227 0.0020690723 0.0020690723 0.0020690723
0000c0 68 f1 c2 3e 9f 12 9b 3d 77 d0 ea 3e 46 99 07 3b
       0.38074803 0.07571911 0.4586217 0.0020690723
0000d0 46 99 07 3b 46 99 07 3b 57 45 dd 3e 32 40 c8 3d
       0.0020690723 0.0020690723 0.43216965 0.09777869
0000e0 35 2f 9a 3e 46 99 07 3b 46 99 07 3b 46 99 07 3b
       0.3011414 0.0020690723 0.0020690723 0.0020690723
0000f0 26 df e9 3e d1 79 d7 3d 64 70 9f 3e 46 99 07 3b
       0.4567806 0.105212815 0.31140435 0.0020690723
000100 46 99 07 3b 46 99 07 3b dc 66 bf 3e 0f d7 d5 3d
       0.0020690723 0.0020690723 0.37383163 0.1044141
000110 56 87 d2 3e 46 99 07 3b 46 99 07 3b 46 99 07 3b
       0.41118878 0.0020690723 0.0020690723 0.0020690723
000120 fb 68 c0 3e d2 a3 f3 3d fb af de 3e 46 99 07 3b
       0.37580094 0.118964806 0.43493637 0.0020690723
000130 46 99 07 3b 46 99 07 3b f9 f7 d9 3e 50 51 f3 3d
       0.0020690723 0.0020690723 0.42572 0.118807435
000140 3f 03 d2 3e 46 99 07 3b 46 99 07 3b 46 99 07 3b
       0.41018102 0.0020690723 0.0020690723 0.0020690723
000150 53 03 e3 3e 72 19 09 3e 34 ab de 3e 46 99 07 3b
       0.44338474 0.13388613 0.43489993 0.0020690723
000160 46 99 07 3b 46 99 07 3b 90 c3 3f 3b 46 99 07 3b
       0.0020690723 0.0020690723 0.0029260851 0.0020690723
000170 46 99 07 3b 5e 4a 38 3f c5 24 05 3f 46 99 07 3b
       0.0020690723 0.71988475 0.5200923 0.0020690723
000180 d6 d0 3f 3b 72 15 dd 3b 46 99 07 3b
       0.0029268763 0.0067469412 0.0020690723

action_model._discrete_distribution.branches.0.bias f4 [3]
000000 9a 51 b9 bc a3 9f 84 3c 26 db e7 3b
       -0.022621918 0.016189402 0.007075685

action_model._discrete_distribution.branches.0.weight f4 [3, 256]
000000 0b cb 41 3c 87 6e e1 3c 1a 64 85 bc 50 f1 1e 3d
       0.011828194 0.027518524 -0.016283084 0.038804352
000010 bf 36 9a 3c e5 de 9a 3c f3 46 ae 3b 5d 41 20 bc
       0.018824933 0.018905113 0.0053185164 -0.009781209
000020 02 f7 40 3c 06 8f 27 3b b6 17 09 bd 34 21 9f 3c
       0.011777641 0.0025567426 -0.033469878 0.019425012
000030 4c fb 59 bc d6 a5 d0 3b 0e bc 29 3d 1c 8f 14 bd
       -0.013304543 0.0063674254 0.04143911 -0.036269292
000040 8b 1f 1f 3b 0f 39 c0 3c e2 5d d0 3c 82 d6 86 bc
       0.0024280276 0.023464708 0.025435392 -0.016459707
000050 d9 56 ef 3b 2e 85 b8 bb b5 1d e3 bc 01 f0 0b bb
       0.007304054 -0.0056311106 -0.027724126 -0.002135277
000060 0f 7a a3 bc 45 32 51 3d 4f 3d c2 bc 2b ac 61 3d
       -0.019955663 0.05107333 -0.023710875 0.055095833
000070 3b 30 3d 3d e5 c3 c1 3c f9 7c 8c bd c6 24 e0 3c
       0.046188574 0.02365298 -0.06859774 0.027361285
000080 8a b4 f0 3c f0 97 9b 3c d5 96 0b bd 9b 03 84 3c
       0.029382963 0.018993348 -0.03407939 0.016115
000090 08 62 fa 3b c6 2a 7f 3c e5 3b 5c 3c c3 b0 77 bc
       0.0076410808 0.015574163 0.013442014 -0.015117827
0000a0 5b e9 2c 3a 7b 32 51 3c 99 7a 05 3c 84 a3 74 bb
       0.0006596052 0.012768383 0.008146905 -0.0037328908
0000b0 a6 c1 90 bb 9a f1 6a bc 91 d6 a8 3d 39 f3 f8 3c
       -0.004417616 -0.014339829 0.0824405 0.030389415
0000c0 2a 11 05 bd 9b 26 0d bb 48 4f d8 b9 a7 61 55 bc
       -0.032487072 -0.0021537903 -0.000412578 -0.01302377
0000d0 77 10 23 bd 37 df 61 3c 2d 3e 74 bc 40 a1 92 3c
       -0.039810624 0.013786129 -0.014907402 0.017899156
0000e0 63 48 5b 3c 69 82 19 3d 56 2f ec bb 80 6d e4 3a
       0.013383958 0.037477884 -0.0072077913 0.0017427653
0000f0 0d df 36 bc 27 3d 24 3a 9f 46 2e 3b 51 2c 05 3d
       -0.011161578 0.0006265216 0.0026592386 0.032512967
000100 ef bd 42 bd 64 e3 ee bc 63 1e d9 bc 72 26 90 bc
       -0.047544416 -0.029161163 -0.026503747 -0.017596457
000110 fb 6f 9b bc 43 e1 3c bd cd 84 e7 bc f8 7c 33 bc
       -0.018974295 -0.046113264 -0.028261567 -0.010955088
000120 2c 2f 39 3d b9 c2 df bb 54 a8 f1 3b 67 9a d0 3c
       0.045211002 -0.0068286327 0.0073748026 0.02546425
000130 b3 33 94 3a ee e3 b1 3c 67 fa 35 bd 04 f5 1a 3d
       0.0011306911 0.02171513 -0.044428255 0.03783132
000140 8c 22 b1 bc 36 ba cf 3b e7 86 eb bc ce a0 61 3d
       -0.021622919 0.0063393367 -0.02875085 0.055084996
000150 38 9f b6 bd 50 12 b1 bb 34 27 f0 bc 06 50 7e bc
       -0.08917087 -0.0054037943 -0.029315569 -0.015522009
000160 71 ce 71 3d 18 07 09 3d d1 69 a1 3b 3f 2c 09 3c
       0.05903477 0.03345403 0.0049259444 0.0083723655
000170 cc 8a ab bb 3b dc 99 3c c7 74 34 3c d8 9a e9 3c
       -0.0052350517 0.018781772 0.01101417 0.028516218
000180 d1 d1 88 bc 43 9d 15 bd 04 d7 38 3c 67 b8 18 bb
       -0.01670161 -0.03652693 0.0112817325 -0.0023303272
000190 cc d6 30 bc d6 c1 1c 3d f2 7b f5 3c d0 a4 a8 3c
       -0.010793399 0.038270794 0.029966328 0.020586401
0001a0 d0 d0 2b 3d d8 c1 a2 3d 0d 57 ce bb 26 b9 03 3d
       0.041947186 0.07947129 -0.0062969984 0.032158993
0001b0 04 49 29 bc 45 7d 2a 3c 2e 49 35 3b b4 93 58 3c
       -0.01033235 0.010405843 0.0027662027 0.013218809
0001c0 db ea dd 3a ea d5 ac 3b 1c e6 28 3c 7a 12 2f 3c
       0.0016930954 0.005274524 0.010308769 0.0106855575
0001d0 b9 75 5c bb 20 41 e4 39 87 a4 c6 bc 0b 8d e1 3c
       -0.0033639504 0.0004353607 -0.024248375 0.027533075
0001e0 ee 82 2c bb 99 7e 71 bc 1c 38 2c bc 50 9b 24 3d
       -0.0026323157 -0.014739656 -0.010511424 0.04018718
0001f0 1e 75 3f 3b c7 5c 91 bc b4 e8 be 3c 6e 59 47 3c
       0.0029214094 -0.017744435 0.02330432 0.012167318
000200 d1 5c 8c bc 0e 82 d1 bb 33 f6 14 bc 8f 83 8f 3c
       -0.017134102 -0.0063936776 -0.009091902 0.017518787
000210 47 0b d2 bb c7 45 7c bb 68 70 37 bc 77 2a 05 3d
       -0.006410036 -0.003849374 -0.011196233 0.0325112
000220 22 12 c1 3b 27 92 02 3c 14 23 f3 bc be 51 dd bc
       0.005892054 0.007969416 -0.029679812 -0.027016517
000230 5d f9 5f 3c bf 28 22 3c 75 1f 96 bb a9 d3 92 bb
       0.013670293 0.00989741 -0.0045813867 -0.0044807983
000240 ea ef d3 bc 3a 3e 40 3d a3 65 92 3d 69 92 b4 bc
       -0.025871236 0.046934344 0.07148292 -0.02204247
000250 43 6e e6 3a 36 a6 09 3b f3 29 d6 bc 87 93 45 bb
       0.0017580468 0.002100361 -0.02614305 -0.0030147748
000260 38 7a 86 3c 14 c8 1b bd 86 7c 55 bb e6 41 b7 bc
       0.0164157 -0.038032606 -0.0032575442 -0.02237029
000270 65 70 15 3d c5 ed 88 bb d2 db f9 bc 1c 21 b1 ba
       0.03648414 -0.004178735 -0.030500326 -0.0013513896
000280 5a f2 5d bc 80 42 3a bb b0 c4 06 bb cd a4 c8 3c
       -0.013546551 -0.0028420985 -0.0020564012 0.024492646
000290 4b 61 7e 3b c0 b7 38 bd bf 26 94 3c 3a b1 2b bd
       0.0038815315 -0.045097113 0.018084882 -0.041917063
0002a0 36 8f a7 bb 6f 21 a8 3c 73 77 c0 bc c1 70 0f 3c
       -0.0051135076 0.020523755 -0.023494458 0.00875491
0002b0 14 05 b9 3c 32 cf ed bc c4 f3 8a bd e0 e4 81 3d
       0.02258543 -0.029029462 -0.06784776 0.063424826
0002c0 52 5b ee 3c 15 b5 32 3c 70 12 c0 3b 29 12 f7 bc
       0.02909628 0.010907431 0.005861573 -0.030160027
0002d0 41 5c 89 3c 86 ab d0 bc 29 da 37 bb 7c c4 09 bd
       0.016767623 -0.025472414 -0.0028053618 -0.033634648
0002e0 45 27 c8 bb fa ea 5e 3c 39 5d 10 bd 72 1b 87 ba
       -0.006108197 0.013605827 -0.035245154 -0.0010307862
0002f0 76 3e ed 3c 8a 48 a0 bc 14 77 7f 3c d9 b1 38 3b
       0.028960448 -0.01956584 0.015592355 0.0028182177
000300 0d 4b 19 bc d2 87 2f bc 6f e1 18 bd 27 6d 83 3b
       -0.009356272 -0.010713534 -0.037324365 0.0040108147
000310 28 6e f4 3c 64 45 2c 3c 65 c4 02 3d 45 44 30 3d
       0.029837683 0.010514591 0.031925578 0.043033857
000320 e5 38 49 3d 55 77 2f 3d e4 e8 cf 3c 72 82 8b 3b
       0.049126524 0.042838413 0.025379606 0.0042574937
000330 90 7e 67 3d 37 7f c4 bc 80 a7 81 3c f8 5a f9 bb
       0.056517184 -0.023986442 0.01582694 -0.0076097213
000340 82 65 13 bd 1b 4b 3c 3b b2 08 3e bc 54 e0 34 3b
       -0.035985477 0.002873129 -0.011598753 0.002759953
000350 7e 9f f0 3c 3d 4d 67 3b 24 71 8e 3d 0e 02 5f bd
       0.029372927 0.003529384 0.069551736 -0.05444532
000360 a8 cd 42 bd 89 4c 30 3c c7 61 1e 3d a7 dd 4f 3d
       -0.04755941 0.010760435 0.038667466 0.050748494
000370 68 7f fb 3c fe d9 04 3b 65 6f 4c 3d 42 d9 87 3a
       0.0307004 0.0020271535 0.04991092 0.001036443
000380 6f af 4f bc 70 55 59 3c 10 cf cc 3c 8d 20 a1 bb
       -0.012676104 0.013264999 0.025001079 -0.0049172104
000390 a9 1b ae 3c 2d d4 e7 3c 49 89 52 bd 1e 78 9d 3a
       0.021253424 0.028299415 -0.051400457 0.0012013947
0003a0 5f 07 9d 3c 76 01 a1 3a 74 66 09 bc 4c 5c 1b bd
       0.019168554 0.0012283761 -0.008386243 -0.037929818
0003b0 7a 4d ea bc 12 a2 0e bc 04 c2 06 3d f2 7e 58 3d
       -0.028601397 -0.008705633 0.03289987 0.05285544
0003c0 44 e0 6e 3b 8f ca b3 bc 5d 55 42 bd b1 56 c6 bc
       0.003644959 -0.021947173 -0.04744469 -0.02421126
0003d0 ec a7 61 3d 93 bf 88 3c 80 26 63 3d e4 67 4c 3c
       0.055091783 0.016692912 0.05545664 0.012475941
0003e0 ef f2 00 3d 17 c1 a7 3b f5 79 07 3d 05 a0 74 3c
       0.03148168 0.0051194536 0.03307529 0.01493073
0003f0 bc 71 e7 bc eb 2e 73 3b 7e d7 7a 3d 85 9a 5d bd
       -0.028252475 0.0037106823 0.061240666 -0.05410244

action_model._discrete_distribution.branches.1.bias f4 [2]
000000 a6 c1 be ba b2 c1 be 3a
       -0.0014553561 0.0014553575

action_model._discrete_distribution.branches.1.weight f4 [2, 256]
000000 4f 5f 46 3d 26 b6 8e bc 70 26 e8 3c 51 17 b4 bb
       0.048430737 -0.01742084 0.02833864 -0.0054959436
000010 d6 0a 54 3b 53 08 c1 bc 5d 8d a9 3c b8 f1 89 3c
       0.0032355092 -0.02356354 0.02069729 0.016838893
000020 0c 72 8a bc 40 c6 2d 3b e2 00 e4 bb bd 01 97 bc
       -0.016900085 0.0026515871 -0.006958113 -0.018433446
000030 32 ad 9e b9 55 10 87 bc 3e 3f be bb a3 e2 63 3c
       -0.0003026515 -0.01648728 -0.005805879 0.013909015
000040 ff 61 0d 3c 89 b3 07 3c aa f4 bc 3c 24 69 ed bc
       0.008629321 0.008282551 0.023065884 -0.028980799
000050 7f e4 eb 3c 85 2b 1c bd d0 1d f3 bc 3d 25 29 bc
       0.028795479 -0.03812744 -0.029677302 -0.01032382
000060 35 c4 02 3d 77 95 86 3c 5a d0 54 3c 15 46 11 3d
       0.0319254 0.016428692 0.012989128 0.035467226
000070 5e bc bd bc ca 66 b6 bb 21 20 b0 bc 5e 68 01 bc
       -0.02316111 -0.0055664526 -0.021499695 -0.007898418
000080 19 e2 1f 3d 24 bc 11 3d 7d 2f 2c 3c 7b 93 dc bc
       0.039033983 0.035579816 0.010509369 -0.026925793
000090 46 99 b7 3c 21 4b 85 bc a5 34 43 3b d7 dc 28 3d
       0.022411954 -0.016271176 0.0029786017 0.041226234
0000a0 33 b5 37 3b 65 b6 de 3c 92 e2 36 3c 27 4c a3 3a
       0.0028031587 0.027186582 0.011162417 0.0012458608
0000b0 d6 1a 0e bd 45 65 8a 3b 87 d2 1e bc c3 f3 8e 3c
       -0.03469356 0.004223498 -0.009693748 0.017450219
0000c0 83 8c 1d bd e3 72 f3 3b ce 00 1e bc f5 24 89 3c
       -0.03846408 0.007429467 -0.009643747 0.016741255
0000d0 5d ac 8c 3b 65 af 71 bc 26 1b aa 3c ba 6d d9 bb
       0.0042930082 -0.01475129 0.020764899 -0.006635395
0000e0 ca 3e 7d bc 43 cc 76 bc be ce b6 3b c2 1f e9 3b
       -0.015456865 -0.015063348 0.005578845 0.0071143815
0000f0 81 68 ba ba 3e db 7e 3c 7b 84 96 3a 2b 88 dd 3c
       -0.0014221818 0.015555201 0.0011483574 0.027042469
000100 e3 6d d4 bc 50 f1 0c 3d 7e b0 97 3c 45 1f 9b bc
       -0.025931304 0.03440982 0.018516775 -0.018935809
000110 b6 1e f9 bc 1f bf b3 3c 09 bc f2 3c c6 c4 0a 3c
       -0.030410152 0.02194172 0.029630678 0.008469766
000120 22 0e d2 bc 68 6c 31 bd cb bb a9 3c 81 88 8b bc
       -0.025641505 -0.043316275 0.02071943 -0.017032864
000130 cb 62 0f 3d 7f 2d d5 3c e6 be 61 bc 43 a4 b7 bb
       0.035006326 0.02602267 -0.013778424 -0.0056042983
000140 d6 0d 9f bc 72 54 20 3c d2 65 c2 3c bb 3b d2 bb
       -0.019415777 0.009785758 0.023730192 -0.006415812
000150 9d 22 a6 bc 41 eb 90 3c a2 83 47 bd dd f8 10 3d
       -0.020280177 0.017690303 -0.04870952 0.035393585
000160 dd 86 13 3c 0a 7d 58 3c ee 28 3d 3c ff aa 7f bc
       0.009004322 0.013213405 0.011545403 -0.0156047335
000170 9b 5d 9a ba 52 31 ce bc 89 ff 1d 3c 54 a2 84 3b
       -0.0011777164 -0.025170002 0.009643444 0.0040476713
000180 91 c5 87 bc 08 b2 a2 bb 1e 16 50 bb d1 23 0e 3d
       -0.0165737 -0.0049650706 -0.0031751464 0.034702126
000190 b3 22 06 3c 85 0c 73 b9 da ac 2d bc 16 a7 06 3b
       0.008186984 -0.0002317895 -0.010600293 0.0020546368
0001a0 8f f3 ea bc a1 f4 c7 bc 3d e9 d2 bc 48 b0 2e 3c
       -0.02868059 -0.02440864 -0.025745982 0.010662146
0001b0 84 2b 89 bc 1e fa 89 bc d6 d0 f8 3b 9e 92 f0 3c
       -0.016744383 -0.016842898 0.0075932546 0.029366788
0001c0 bb 2a 90 39 54 32 5a bb 8e f4 65 bd 11 5b d8 ba
       0.00027497657 -0.0033294158 -0.05614143 -0.0016506632
0001d0 f6 fb cb bb e4 e5 9f bb 0b 17 1d bd b1 64 2f 3b
       -0.0062251044 -0.0048797 -0.038352054 0.0026762898
0001e0 a1 af 08 3c 7e e7 6a 3b 85 9f 8e 3c a6 37 20 bc
       0.008342654 0.0035843547 0.01741005 -0.009778893
0001f0 73 ce 56 bd 17 2e 05 bc e4 c2 96 3b ac a0 7b 3c
       -0.05244298 -0.008128664 0.0046008695 0.015358131
000200 31 91 3e bc 73 fa ff bb 26 d6 6e bb e3 69 05 bd
       -0.011631296 -0.0078118383 -0.003644356 -0.032571685
000210 34 dd 8e bd ee f6 ca 3c 8b ee 3f 3c a0 f7 80 3b
       -0.06975785 0.024775948 0.011714588 0.003935769
000220 9c 2a b1 bb 37 50 e3 3c 62 f7 b5 bc cf b2 e9 bc
       -0.0054066908 0.02774821 -0.022212688 -0.028527645
000230 48 f0 04 bc f9 d5 47 bc 33 43 8b bb fd 58 a8 bb
       -0.008113928 -0.012197011 -0.004249954 -0.0051375614
000240 67 65 18 3c 26 47 f5 bc ed 32 22 3d 9b 78 05 bc
       0.00930152 -0.029941153 0.039599348 -0.00814643
000250 9a 40 71 bc 79 6e cd bb b3 49 ba bc d5 d9 80 3c
       -0.014724875 -0.006269273 -0.02274022 0.01572887
000260 ae 61 e5 3b 1f 61 72 3c 90 f7 16 bc ae 60 35 3a
       0.0070001697 0.014793663 -0.009214297 0.00069190084
000270 75 57 cd 3c 46 01 0a 3d c3 7e 97 bd f9 0d b0 3c
       0.025066117 0.03369262 -0.07397225 0.021491038
000280 74 9e 5d 3c 97 f1 0b bc 3b d3 8f 3b cb 52 39 3c
       0.013526548 -0.008541486 0.0043891943 0.011311243
000290 96 4f 04 bc 45 ea df 3c ac 6a a2 bc 9a f1 42 bd
       -0.008075615 0.027333388 -0.019826256 -0.04759369
0002a0 71 d0 0c bd 2a 25 e1 bc fc 09 3f bd 95 7d 52 bd
       -0.034378473 -0.027483542 -0.04664038 -0.051389296
0002b0 e9 7f ba bc f4 11 60 bd c4 7f 9f 3c df 28 ff 3a
       -0.02276607 -0.05470462 0.019470103 0.0019467137
0002c0 29 65 dd 3c a1 08 6f 3d c4 5a 19 bc aa a3 06 3d
       0.027025776 0.05835784 -0.009360019 0.032870926
0002d0 6a d9 d3 3b 24 ff e8 3c 85 b2 33 bc 58 86 81 bc
       0.0064651268 0.028441973 -0.010967855 -0.01581113
0002e0 68 4c c9 3c 19 26 14 3d 55 cb 79 bd 44 f2 9c 3b
       0.024572566 0.036169145 -0.06098493 0.0047896225
0002f0 67 e1 09 3d 3b 49 b6 bb 2b a3 16 bd 5c dd 48 3b
       0.033662226 -0.005562929 -0.036776703 0.0030649519
000300 f6 f2 02 bc c3 21 b2 3c 9c 58 38 bd 45 c8 a9 3c
       -0.007992497 0.021744614 -0.04500638 0.020725379
000310 71 37 be 3c e2 df c3 3c 96 29 66 bc 41 5c 3f bc
       0.023219796 0.023910467 -0.014048001 -0.01167971
000320 fa c5 54 3c 40 d0 a2 3b cd cc 5e bc 56 c2 99 3c
       0.012986654 0.004968673 -0.013598633 0.018769424
000330 03 ce c2 3c 6e 31 28 bc 88 3b b9 3c d1 19 aa bb
       0.023779875 -0.010265691 0.022611395 -0.005191066
000340 f4 e2 77 3c 65 61 94 3c 5d 2e 0d 3d 8e e5 41 3d
       0.015129793 0.018112848 0.034468044 0.04733806
000350 de e7 9e b9 88 8b 06 3b 4c 6f 82 ba b9 44 1a 3c
       -0.00030308863 0.0020529944 -0.0009951382 0.009415799
000360 a3 9a 01 bd b4 6a 76 3b 9c d8 72 bb 14 a3 2b bc
       -0.031641614 0.003760022 -0.0037055379 -0.010475893
000370 01 85 5b 3c f4 23 3d bb 09 fc 05 3d 39 ad d0 bc
       0.01339841 -0.002886054 0.032711063 -0.025473224
000380 ea 35 54 3d 76 d9 1a 3d 37 7d ea bc 55 c2 39 3c
       0.05180923 0.037805043 -0.02862416 0.011337836
000390 85 88 2b 3d 78 e6 24 bc 0c 5c 85 bd 2a 6b 09 3c
       0.041878242 -0.010064714 -0.06511697 0.008387366
0003a0 af 9c 54 3c 63 1b a6 bb 2e bf 73 3c 7d a1 b0 bc
       0.012976809 -0.0050691827 0.014877124 -0.021561379
0003b0 2b 90 29 bc 96 f0 a3 bc ea 2c 68 bc f9 3d 04 3d
       -0.010349314 -0.020012181 -0.014170865 0.032285664
0003c0 ff 99 1c 3b 1e 17 87 3c b9 26 ec bc 24 71 3d ba
       0.00238955 0.016490515 -0.028827058 -0.0007226637
0003d0 c0 57 c2 b9 a9 a9 5b 3b 1b 36 32 3d ce 27 bb 3c
       -0.00037067942 0.0033517873 0.04350863 0.022846129
0003e0 07 e7 00 3c 68 8f 02 bd e1 cb fb 3c 2d 76 bc 3c
       0.007867581 -0.031875044 0.030736865 0.02300557
0003f0 b0 a0 23 bd bf bb 81 bb 06 ac 8f 3c a1 10 2a bc
       -0.039948165 -0.0039591487 0.017538082 -0.010379941

action_model._discrete_distribution.branches.2.bias f4 [2]
000000 5b 44 10 3c 5f 44 10 bc
       0.00880536 -0.008805363

action_model._discrete_distribution.branches.2.weight f4 [2, 256]
000000 c1 13 25 3c 3a f7 83 3d f5 c2 0a 3d 1b 0a 56 3d
       0.0100755105 0.06443639 0.03387733 0.05225573
000010 f7 fb 66 bb 24 23 c3 bc f6 97 7a 3d bf a0 63 3d
       -0.0035245398 -0.023820467 0.061180077 0.05557322
000020 24 ae 17 3c 1c 02 a8 ba 27 98 ac bb 7f e3 27 bc
       0.009257827 -0.0012818011 -0.0052671614 -0.01024711
000030 83 7b 0e ba 8b b5 73 bc c8 d2 f6 bc 22 c1 15 bc
       -0.0005435275 -0.014874826 -0.030129805 -0.009140285
000040 a6 37 35 3d 3a 59 2b 3d 51 17 e4 bb cf 59 3a 3d
       0.044242524 0.04183314 -0.0069607873 0.045495804
000050 7f 73 91 3d 76 51 85 bb 4a df 8a 3c de 46 97 bc
       0.07102107 -0.004068549 0.016952176 -0.01846641
000060 98 fb 8d bc 7a b6 42 bd 67 74 7a 3d 7b c0 82 bc
       -0.017331883 -0.047537304 0.061146166 -0.015960922
000070 db 62 40 bd ae 48 7b bc ad fa a9 bc c3 0b 26 3c
       -0.046969276 -0.015337152 -0.020749414 0.01013464
000080 ce 05 8e bc d4 59 88 bc 98 b3 0e 3d 17 0b bd bc
       -0.017336752 -0.016644396 0.034839243 -0.023076577
000090 04 2a 20 bc 0d f4 7e 3d 8d 2a 62 bd 9e 96 18 bd
       -0.009775642 0.062244464 -0.05521636 -0.037253015
0000a0 87 74 c6 bb a8 39 04 3b f0 02 38 3c 8c f5 0a bd
       -0.0060563716 0.0020175967 0.011231169 -0.033925578
0000b0 46 28 27 bd 89 bd 57 3c 35 95 f3 bc 82 64 0c bd
       -0.040809892 0.013167747 -0.029734233 -0.03427554
0000c0 0f 00 17 3d ce ae 8c b9 ea d4 55 bb ac c7 ec bb
       0.03686529 -0.0002683312 -0.0032628127 -0.007225951
0000d0 c7 a9 b8 bc bd 99 37 bd 4f 8c 75 bc 82 ce a5 3d
       -0.022541894 -0.04482435 -0.014987065 0.08096029
0000e0 e3 cf 4a 3c 91 e8 91 3c 2b 29 34 3c 52 b6 71 3c
       0.012378666 0.017811092 0.010996143 0.014752941
0000f0 5b 78 0f 3c 8c 92 c4 bc d5 a0 f8 bc 1e 23 8d 3d
       0.008756722 -0.02399566 -0.030350128 0.06891464
000100 a4 d8 ca 3b 9c c0 97 bb 77 76 5d bc ca d1 3d 3c
       0.0061903764 -0.004631115 -0.013517014 0.011585662
000110 47 4a f6 bc b3 13 f1 3b 2c 09 10 3c 4b ae a6 3b
       -0.030064715 0.0073570847 0.008791249 0.0050866953
000120 8d bb 16 3b 7a a3 4a bc 28 23 07 3d e2 90 e9 3b
       0.0022999973 -0.012368077 0.032992512 0.007127867
000130 e3 5b 23 3d c1 f1 20 3c 07 0d eb 3c 1b 30 59 bc
       0.039882552 0.009823264 0.028692735 -0.013256098
000140 d0 09 c1 3a c7 27 2b 3d 9c 37 e4 3c ac 0d c9 bc
       0.0014727656 0.04178598 0.027858548 -0.024542652
000150 72 6a 13 bd 0f f0 19 3d cf c9 1a bd e3 85 d2 3c
       -0.035990186 0.037582453 -0.037790116 0.025698608
000160 1e c3 b1 bc 7c c8 17 bc 72 ae 81 3c d6 83 1e bc
       -0.021699484 -0.009264108 0.015830252 -0.009674987
000170 c1 49 84 bb 1d e1 9d bc 97 3c 16 bc 39 5f ca 3d
       -0.0040371125 -0.019272381 -0.009169719 0.098814435
000180 13 e0 f7 3c f2 eb c4 3c c0 05 06 3d a7 6c 21 3d
       0.030258214 0.024038289 0.032720327 0.03941026
000190 8a db ad 3c 9d aa fc bc 6b 3c c1 bc 4f f8 30 3d
       0.021222848 -0.030843074 -0.02358838 0.043205556
0001a0 72 ff 93 3d b9 c3 82 3d 1e 41 33 bc 38 a1 90 3c
       0.07226457 0.063849874 -0.010940818 0.017655
0001b0 b2 f1 ba bb 1f 3a 09 bc 18 a7 13 bd ce a9 85 3d
       -0.005705082 -0.008375674 -0.036048025 0.06526528
0001c0 ea 96 c6 3c a7 cb 80 bc 6f 9a 07 3d 5d 31 ae 3c
       0.024241883 -0.015722109 0.033106264 0.021263773
0001d0 b5 fb a9 bc 6d 9f ab 3c 6d 34 8d 3b 7a fe 51 3d
       -0.020749906 0.020950044 0.004309228 0.05126808
0001e0 f0 c7 bf bc 7c af 61 bc 9a 9c bb bc 13 27 c4 3a
       -0.023410767 -0.013774749 -0.022901822 0.0014965258
0001f0 da 91 15 3d 3f 4a 92 3c 98 c4 e3 3b 3a 4b 82 3b
       0.036516048 0.017857669 0.006950926 0.003976253
000200 51 c0 28 3a 46 ac 1c 3d b5 3e d6 bb ce 4c a2 3d
       0.0006437349 0.03825023 -0.006538237 0.079248056
000210 18 3a ec bc 04 8c 35 3c af cc bc bc 98 58 00 3d
       -0.028836295 0.011080746 -0.02304682 0.03133449
000220 f5 f1 57 3d 2e a8 c8 3b 1e 8e e7 bb fa b8 90 bc
       0.052720983 0.006123564 -0.0070665022 -0.017666329
000230 19 f1 0f 3d fa f6 1e 3d 2d a6 13 bc cc 51 b1 b8
       0.035142038 0.038809754 -0.009011787 -8.4552536e-05
000240 e0 6d 9f 3c 7d 2e 8e 3d 35 bf c6 bc a2 88 2e bc
       0.019461572 0.06942461 -0.024261096 -0.010652693
000250 52 6c 40 bc e0 1b 6b 3b 34 90 74 bc 2b 08 9e bc
       -0.011744576 0.003587477 -0.014926959 -0.019291004
000260 29 5d 4b bc b0 ea e8 bc 81 17 aa bb f7 ec 5b 3c
       -0.012412348 -0.02843222 -0.00519079 0.013423196
000270 b0 76 d3 bb e8 63 72 3c 21 3b 19 3c 50 71 c5 ba
       -0.0064533576 0.014794327 0.009352476 -0.0015063677
000280 c6 85 fc bc 3b 70 c2 bb 4f 8a 31 39 8d ae 02 bd
       -0.030825507 -0.005933789 0.0001693156 -0.031904746
000290 7a e9 14 bc 42 c0 9a bc 9b 4e 0d bc 2b f1 11 bb
       -0.009088868 -0.018890504 -0.008624698 -0.0022268991
0002a0 b7 c4 14 ba b5 04 c7 bc 3a 05 37 bd 9a dc 14 3d
       -0.0005675065 -0.024294237 -0.04468272 0.036343195
0002b0 f7 ee dc bc f4 07 76 3c 20 a2 14 bd 81 b4 6c bc
       -0.026969416 0.015016545 -0.036287427 -0.014447332
0002c0 3c 69 08 bd 26 46 eb bb 2e 91 81 bc 73 c1 07 3d
       -0.033303484 -0.007179993 -0.015816297 0.033143472
0002d0 0e fc ce bc e3 ce d5 ba 23 fd d4 bc 10 06 1f bd
       -0.025266673 -0.0016312267 -0.025999611 -0.03882414
0002e0 00 31 5c 3c 08 ef 91 ba 9c c2 b5 bc 4f c3 27 3d
       0.013439417 -0.0011133859 -0.022187524 0.040957745
0002f0 31 f2 53 3d d6 a4 47 3b e1 4e e0 ba 25 60 10 bc
       0.051744644 0.003046324 -0.0017113351 -0.008811985
000300 1e 2a 7a bc 15 7d 16 3d d8 4c 72 bd bf 6c 85 bc
       -0.015268831 0.03674038 -0.059155315 -0.016287206
000310 07 aa 21 bc 7b b5 14 bd 82 3c de bc 28 b4 12 3d
       -0.009867198 -0.036305886 -0.027128462 0.03581634
000320 b9 76 b4 3c c7 e1 5d bb 5c 4e 8f 3c 5b 57 5d 3d
       0.022029268 -0.0033856498 0.01749342 0.054038387
000330 57 83 15 bc db 84 38 bd dd 59 9c 3d 3c 4a 3c 3d
       -0.009125552 -0.045048576 0.076343276 0.045969233
000340 a1 57 5d bd ac c3 62 bc 2b ee 0b 3c a7 8f ae bc
       -0.054038648 -0.013840597 0.00854067 -0.021308733
000350 e7 42 85 3d b5 1d a2 bc a1 bf 3c bd 2a e8 2a 3c
       0.06506901 -0.019789556 -0.04608119 0.010431329
000360 89 65 67 3d 3b 7a 39 bc 30 52 0e bd 11 c4 01 bc
       0.056493316 -0.011320646 -0.03474635 -0.007920281
000370 e8 bc f6 bc eb 72 b3 3b 64 8d ff bb c7 6d a1 bc
       -0.030119374 0.005476346 -0.0077988375 -0.019705666
000380 15 e4 3b 3d eb 85 fe 3b 12 92 ea 3a 09 c6 21 bc
       0.045871813 0.007767429 0.0017896316 -0.009873875
000390 c1 e2 15 3d a5 ff 2f bc e2 f2 2e 3d ff 7c 24 3d
       0.036593203 -0.010742103 0.0427121 0.040158268
0003a0 2c 53 ce bb a9 7d 8a bc b4 90 41 3d ba 43 13 bc
       -0.006296536 -0.016905623 0.04725714 -0.008988315
0003b0 df a0 4f bc eb 27 91 3c 28 6f 99 3d 3e 7e 81 bc
       -0.012672632 0.01771923 0.074919045 -0.015807267
0003c0 e2 80 66 bc 19 96 86 3c 4a 06 a4 3c d0 0b f9 bc
       -0.014068814 0.016428994 0.02002253 -0.03040114
0003d0 a6 e0 bf bc 76 23 d2 bc aa 98 44 bc 02 fc af bc
       -0.02342255 -0.025651675 -0.011999289 -0.021482471
0003e0 f5 9c a1 bc 0e e9 3f 39 59 94 87 bc 9e e8 48 bb
       -0.019728163 0.00018301999 -0.01655023 -0.0030656229
0003f0 25 1c 14 3d 25 26 96 bc e0 ff e6 bc 1a 2d 02 bd
       0.036159653 -0.018328736 -0.028198183 -0.031781293

network_body.linear_encoder.seq_layers.0.bias f4 [256]
000000 5f c0 5c 3a 05 82 b2 3b 63 1a 6f bb 03 c9 b1 3c
       0.00084209995 0.0054476284 -0.0036484234 0.021702295
000010 69 ba 57 3c e1 17 89 bc 32 91 66 bb 8d e3 98 3c
       0.013167002 -0.01673502 -0.0035181758 0.018663192
000020 11 01 4e 3a 29 bf f0 bc e1 12 94 3c 00 94 d0 bc
       0.0007858435 -0.029388027 0.018075408 -0.025461197
000030 e7 d5 55 3d 7d 15 08 bb f1 a1 32 3c 4a c5 bd bc
       0.052205946 -0.002076476 0.010902868 -0.023165364
000040 18 95 a6 3c 8a d9 82 3c 00 11 55 3c 8b cf 31 3d
       0.020334765 0.015972871 0.013004541 0.04341082
000050 d4 e0 8e bc 1e 95 b5 bc d9 4f ec 3c 03 2b df 3b
       -0.01744119 -0.022165831 0.028846668 0.0068105473
000060 23 92 0e bc 28 f7 85 3c 08 9d 0f bc d1 f1 92 3c
       -0.008701834 0.016353205 -0.0087654665 0.017937573
000070 76 f5 d0 bc ea 24 1a bd a4 12 ab 3c 0b f2 62 3c
       -0.02550767 -0.03763286 0.020882912 0.013851653
000080 11 28 a1 3c 2f 16 2c 3d 2e 4c 10 bc d0 20 21 3d
       0.019672425 0.042013343 -0.008807225 0.039337933
000090 33 0d a8 3b 3f a7 20 3d e4 36 e0 bc b0 5a ea bb
       0.0051285266 0.039222 -0.027369924 -0.007151924
0000a0 a8 9d 2d bc 2c 03 a6 bc 6a f4 03 3d c4 ee ad ba
       -0.01059667 -0.020265184 0.032215513 -0.001327001
0000b0 d6 aa 4b bb db 22 ea 3b 43 bf 98 3a 0a ad 17 3b
       -0.0031077168 0.0071452684 0.001165368 0.002314391
0000c0 26 21 b7 3b 6b e2 5f bc 52 93 a8 bb 0f 0d 0e 3c
       0.0055886684 -0.013664822 -0.005144515 0.008670106
0000d0 35 dc 99 ba 91 17 08 3c 64 7a 77 bc cf 07 4b bc
       -0.00117386 0.0083064 -0.015104864 -0.012391998
0000e0 e8 ee d1 3c e1 c0 9b ba 5a 25 24 bc 03 fd 67 bc
       0.025626615 -0.0011883044 -0.010018671 -0.014159444
0000f0 78 e0 6a bc f6 5a c0 3b b3 71 b1 bb ec bd 1a bc
       -0.014335744 0.0058702184 -0.0054151653 -0.009444695
000100 a2 a4 8c bc 20 10 3c 3c 5b a9 14 bd 9b ef b5 bc
       -0.017168347 0.011478454 -0.036294322 -0.02220898
000110 d7 30 b9 bc 65 d7 30 bc a4 9e 99 b9 58 08 1c bc
       -0.022606296 -0.010793542 -0.0002930063 -0.009523474
000120 20 93 19 bd 4a 21 61 bc 56 8c 72 bc 73 1d 59 3c
       -0.037493825 -0.013740847 -0.0148039665 0.01325165
000130 3f f0 f1 3c 6c 8d b0 bb ae 58 5d 3c 91 7b 92 3c
       0.029533504 -0.0053879526 0.013509912 0.017881187
000140 63 d7 e0 3c 31 c5 2c bd 0d f7 0c 3c c5 81 fc 3b
       0.027446454 -0.042180244 0.008603823 0.0077058994
000150 66 d9 09 bd 7c 6d 9d bc 1b 21 82 3d 63 f8 3a bc
       -0.033654593 -0.019217245 0.063539706 -0.011411759
000160 b6 d5 06 3c d7 db 84 3c ae 41 7c 3c 28 b2 ab 3c
       0.008229664 0.016218109 0.015396519 0.020958975
000170 10 8d b9 3c c7 b9 c1 3c 90 0f 2d 3c b0 ad 4d 3c
       0.022650272 0.023648156 0.010562792 0.012553617
000180 30 5b 89 3b a5 01 a4 bc b0 09 45 3b a1 84 d0 3c
       0.0041917786 -0.020020315 0.0030065589 0.025453867
000190 c0 d3 36 3b ea f6 7c 3c 6f 8d 1c bc 53 33 2a bb
       0.002789721 0.015439728 -0.009555205 -0.0025970533
0001a0 af c8 f6 bb 36 e3 82 3c 61 3e 19 3d 82 1f 24 bc
       -0.0075312476 0.015977483 0.037413005 -0.010017278
0001b0 47 a2 c8 3c 09 75 fd bc 43 17 8a 39 e3 bd 94 bc
       0.024491442 -0.030939596 0.00026338742 -0.018156951
0001c0 c1 4f 07 bc b8 32 18 3a 41 81 35 3c 77 d4 aa bc
       -0.008258761 0.00058058975 0.01107818 -0.020853264
0001d0 1b 9e 90 3c 4e 22 af bb d4 6e 5c 3c 78 f9 cf bc
       0.017653516 -0.0053446656 0.013454158 -0.02538751
0001e0 f6 fb c3 3c 39 2c 74 bb db b0 12 bc 98 4a 0d bc
       0.023923855 -0.0037257804 -0.008953298 -0.008623742
0001f0 46 ba 51 3d 86 bd 6b bb b3 9a f9 3c 5c d1 46 bc
       0.051203035 -0.003597112 0.030469274 -0.012134876
000200 d4 a8 15 3c 45 da 99 bc 03 7b b0 3c e7 b3 3f 3b
       0.00913449 -0.018780837 0.021543032 0.0029251517
000210 ae 34 03 3b 32 9c 03 3c b4 5f ac 3c db c3 89 3b
       0.0020020413 0.008032845 0.021041729 0.004204256
000220 7c 4b 07 3b 31 a1 5b bc 21 9a a1 bc 36 5c 2e 3b
       0.0020644357 -0.01340513 -0.019726815 0.0026605255
000230 f1 f3 eb bc ff 1e 34 bd da e3 61 ba 38 86 bc bc
       -0.028802844 -0.043974873 -0.00086170214 -0.02301322
000240 51 59 8b 3c 6f c7 50 bc db 0f 0f bb 59 bf d8 bb
       0.017010363 -0.012742861 -0.002182952 -0.0066146073
000250 bf 27 1c bc 50 07 ba 3b 87 70 3a bc c8 e5 1d 3d
       -0.009530961 0.0056771412 -0.011379368 0.038549215
000260 39 aa 49 3d ce 68 8f 3c c1 26 75 3a 8f 75 b5 bc
       0.049234603 0.01750603 0.0009351783 -0.022150783
000270 4e ab 14 bc ad 2f 94 bc 36 97 9f 3c 7d 21 01 3d
       -0.009074045 -0.01808914 0.019481283 0.031526078
000280 20 f2 d6 bc 0e 04 dc 3b ea 9a bf bc ee 08 92 3c
       -0.026238501 0.0067143505 -0.023389298 0.017826524
000290 23 04 19 3b 35 a8 1e bc b0 76 b8 3a b3 e2 90 bc
       0.0023348413 -0.009683658 0.0014073458 -0.017686224
0002a0 3c c0 f0 3c 60 fc 07 bc eb 4f 3d 3d 87 c6 25 bc
       0.02938854 -0.008299917 0.046218794 -0.010118133
0002b0 df 7a af 3a 26 c9 61 3c 68 a0 04 3c d6 14 97 3c
       0.0013388059 0.013780868 0.008094884 0.018442553
0002c0 90 30 8a bc d2 b0 5d bc ff 1a b5 3c c3 be ff 3c
       -0.01686886 -0.013530927 0.0221076 0.031218892
0002d0 1d 48 a5 bc 9d 17 29 3c eb b7 b8 3b e6 a8 7a 3c
       -0.020175988 0.010320571 0.005637159 0.015299058
0002e0 56 9b 0e 3d a0 86 5b bc 10 b2 f1 3a ed 6a 0c 3c
       0.03481611 -0.013398796 0.0018439908 0.008570415
0002f0 1f 6b 87 3c f4 9d 63 bc f8 f0 ca bc 40 e9 ac ba
       0.016530572 -0.013892639 -0.024773106 -0.0013192073
000300 e3 fa 16 bd 82 46 1d bd 6b 2d 17 ba ba 05 78 3c
       -0.036860358 -0.03839732 -0.00057669607 0.015138084
000310 1d 78 2f bc 59 f8 88 bc 57 11 0e 3c 8c f4 8a 3c
       -0.01070979 -0.016719984 0.008671126 0.016962312
000320 74 63 6a bc 07 3a 16 3b 2f d4 0a 3d 3d a0 da 3c
       -0.014305938 0.002292277 0.03389376 0.026687736
000330 1b f9 80 3c d8 07 3d 3c c3 78 9c bb c1 35 44 b8
       0.015743783 0.011537515 -0.004775138 -4.6780104e-05
000340 64 45 fb bc c4 19 8c 3c 0a 13 18 3c d1 b7 03 bc
       -0.030672736 0.01710213 0.009281883 -0.008039431
000350 75 e5 e6 bc 08 33 17 3c 72 14 1d bb 90 ac 84 3c
       -0.028185586 0.009228475 -0.0023968485 0.016195565
000360 34 ca 35 bc 0d e2 77 3b 8b cd 41 bc be d8 e9 bc
       -0.011095572 0.0037823946 -0.01182879 -0.028545734
000370 9a fd d1 3b 05 f9 d3 3c 0a 84 4d bc 32 a0 b6 3a
       0.0064084055 0.025875578 -0.012543688 0.001393324
000380 41 f7 e1 ba 53 c5 2d bb 2a 03 bf 3c f8 1e 04 bd
       -0.0017239825 -0.002651532 0.023316938 -0.032256097
000390 4d 2f e9 bb 5d f0 ba 3b ac c2 5d bc 86 99 32 ba
       -0.0071162344 0.005704923 -0.013535183 -0.0006813038
0003a0 e7 15 cc 3b 9a 40 2b bd df 17 39 3d 32 34 bb 3b
       0.006228197 -0.041809656 0.04518878 0.0057130093
0003b0 58 89 e9 bc 3d ba 0e 3b 0f 1b a8 3c df 22 83 bc
       -0.028507873 0.0021778487 0.020520715 -0.016007839
0003c0 e0 b1 9b bb 18 27 9d bc 0a ba c2 bc c6 5f dd bb
       -0.004751429 -0.01918368 -0.023770351 -0.006755802
0003d0 a6 34 b9 bc 0e ce e9 3b cb 5a 43 3c 6e f9 b5 3c
       -0.022608113 0.0071351593 0.011923502 0.022213664
0003e0 57 b0 06 bd 93 69 e3 bb ad c2 91 bc db ed 0c 3c
       -0.032883015 -0.0069400757 -0.017793024 0.008601631
0003f0 0b 71 5d bc 09 07 9a 3c aa d1 65 bb 1f b6 82 bc
       -0.013515721 0.018802183 -0.0035067596 -0.015955983

network_body.linear_encoder.seq_layers.0.weight f4 [256, 99]
000000 ae 17 49 bd c6 04 04 3c 91 9c 13 3d 86 ed cc 3b
       -0.04909485 0.008057779 0.036037985 0.006253901
000010 55 6f 4f bd 95 5a 1f be f0 5b 2d bd d1 5f 0a bd
       -0.050643284 -0.15561898 -0.042324007 -0.033782784
000020 2b 24 99 bd c9 04 06 bd f2 c5 10 3e e6 97 a9 ba
       -0.074776016 -0.032719407 0.1413801 -0.0012938946
000030 fd 9b 5e bd c3 8e 17 3c 68 0d 0e 3d 2d b1 13 bd
       -0.05434798 0.009250346 0.034680754 -0.03605764
000040 d2 ac 03 3d 9a 77 1e 3e 32 2f 47 be 0b 54 b6 bd
       0.032147236 0.15475312 -0.19451597 -0.08902749
000050 b0 1b d1 bd b4 0c 17 3e 67 85 f0 bd 03 2f 83 3b
       -0.10210359 0.1475094 -0.117441945 0.004003407
000060 03 e4 fd 3d d3 95 8c 3c 8a 71 2c 3e 63 1a 31 bd
       0.123970054 0.017161286 0.16840187 -0.043238055
000070 b7 cb 1a bd ef 61 96 bd 66 73 a9 bb 02 96 36 3d
       -0.037791934 -0.07342898 -0.0051712273 0.044576652
000080 92 b4 60 bd 51 ac de 3d 7c 95 8a bc ee 42 f3 bb
       -0.054859705 0.108727105 -0.016916983 -0.00742375
000090 79 5b 12 bc 15 0c 31 be 56 f0 fc bd 25 09 68 3b
       -0.008932942 -0.17289765 -0.12350528 0.0035405841
0000a0 d1 54 b6 3d da d1 12 3e 8f 0d ec bd d4 d3 16 3c
       0.08902896 0.14337865 -0.115260236 0.009205777
0000b0 c3 90 95 3d b6 a1 b3 3c 48 f2 02 be e9 5c ae 3d
       0.07303002 0.021927696 -0.12787735 0.08513815
0000c0 8f 56 57 bd 29 2f f0 bd c2 ff c8 3d ef 56 4c 3c
       -0.052572783 -0.11727745 0.09814407 0.012471898
0000d0 3a fa d1 bd 4a 7e e2 bd ee 8f 07 3e 43 8f d6 bc
       -0.10252805 -0.11059244 0.13238499 -0.02619136
0000e0 78 8e 62 bd 02 5c a7 3e 39 62 59 bd 22 20 b1 bd
       -0.05531165 0.32687384 -0.053072188 -0.08648707
0000f0 db bc 25 3c 8b 77 ae bd 0d 14 57 3b be 6f 13 3e
       0.010115827 -0.08518895 0.0032818348 0.14398095
000100 92 2d 39 3d 54 68 6f bd 23 c2 f1 3d 30 19 f1 3c
       0.045209475 -0.058449104 0.11804607 0.029430956
000110 cd 9f 75 3c 84 d2 35 bd be 8b c5 bd dc a0 ae bd
       0.014991713 -0.044390216 -0.09645794 -0.08526775
000120 f6 83 37 be 13 35 91 bd a8 e2 95 3c 45 1c ab 3d
       -0.17921433 -0.07090201 0.018296555 0.08355001
000130 57 26 48 3d 06 fb c7 3c 2b 05 9d bd 34 44 61 bd
       0.04886469 0.02441169 -0.07667001 -0.054996684
000140 32 76 6c be 22 dc 85 3c 3a 80 64 3c f1 90 d1 bd
       -0.23091963 0.016340319 0.013946587 -0.102327235
000150 82 f6 9e bc 72 fd ed bc 8a 77 be bc 73 2d 34 3e
       -0.019404653 -0.029051516 -0.02325036 0.17595463
000160 85 f0 05 be 16 88 1a b9 cd 82 80 bd ad 8e 01 be
       -0.13080032 -0.0001473728 -0.06274948 -0.12652083
000170 4b 01 b4 bc ca d7 3f bd f6 68 d1 3e e4 0d c6 3c
       -0.021973273 -0.04683665 0.4090039 0.024176545
000180 3d 99 99 bc 71 c7 83 3d 9d 94 61 3e cb f6 87 3d
       -0.018749828 0.06434525 0.22029348 0.06638869
000190 56 de 88 bd a7 d9 be bc 0e 4b 64 3c 1f 9e dd 3c
       -0.06683032 -0.023297144 0.01393391 0.027052937
0001a0 eb 88 c8 3d d9 dc 14 be 21 ed e7 bd 1a cb 86 bd
       0.0979174 -0.14537372 -0.113245256 -0.06581707
0001b0 5e f7 9b 3d 9b ca f7 b9 be 21 d1 bd 87 d9 24 3e
       0.07615541 -0.00047262464 -0.10211514 0.16098605
0001c0 66 84 1a be 07 bd e1 3d fd 72 6c bd 32 85 02 be
       -0.15089568 0.11022382 -0.05772685 -0.12746122
0001d0 2f 4b f0 bd 26 37 04 bd 98 00 b2 bd e1 b5 ee bc
       -0.1173309 -0.032279156 -0.086915195 -0.029139461
0001e0 76 ed 26 3e 44 22 3a bc 7d a8 83 bd a0 11 c6 3b
       0.16301522 -0.011360709 -0.06428621 0.0060445815
0001f0 e4 5f b7 bc 8c ae 3e be 9e 7d d2 bb 9a 95 bf 3d
       -0.022384591 -0.18621272 -0.006423666 0.09354706
000200 43 8d 5e bc cc 3d a1 bc 5f 7b 8e 3d 05 de a5 3d
       -0.013583484 -0.019682787 0.06957125 0.080989875
000210 32 22 7b bd 25 58 17 be dc b5 94 be 9d 4c f2 3d
       -0.061311908 -0.14779718 -0.29044998 0.11831019
000220 17 a2 8d 3b 39 bc 28 be 11 66 14 be b4 5f ae 3d
       0.004322301 -0.16478051 -0.1449206 0.08514348
000230 5b 32 08 be 78 72 93 3d e9 99 3a 3e e0 c7 ec 3c
       -0.13300459 0.071995676 0.18222775 0.028903902
000240 05 32 25 3d 8c 78 06 3e 8e 05 49 3c 53 a2 b0 3d
       0.040330905 0.13131922 0.012269391 0.08624711
000250 d7 8b 01 3d 89 19 ff 3b 9a c6 c2 3d 26 dd b3 bd
       0.031627502 0.0077850264 0.095105365 -0.08782415
000260 8c f1 43 bd 53 1f 96 3c 6f 1b 35 3d ff 3c 0b bc
       -0.04783778 0.018325483 0.044215616 -0.008498429
000270 46 ef c2 bd c9 b6 e0 3d 73 f3 1f 3e bd 08 ce 3c
       -0.09518294 0.109723635 0.15620212 0.025150651
000280 55 da 4a be c4 33 41 3e 6e 89 2b be c1 77 7a 3d
       -0.1980985 0.18867403 -0.16751644 0.061149362
000290 36 18 c5 bc 14 ca e8 3d d3 84 ea 3d e9 3b 25 be
       -0.024059396 0.11366668 0.114511155 -0.16136135
0002a0 ed 31 a2 bd 9b 5e f6 bd 50 5a da bd 57 b8 94 3d
       -0.07919679 -0.12029763 -0.10661757 0.072617225
0002b0 56 0d 38 3d 9a 5b 09 3c d8 f2 87 3d af 02 88 bd
       0.044934593 0.008383656 0.06638116 -0.06641137
0002c0 e7 6a 67 3d 22 e8 ee 3d 93 de 1e 3d 1f 27 5b be
       0.056498434 0.116653696 0.038786482 -0.21401642
0002d0 d5 50 b9 3c f1 2f ef 3c 43 f7 b8 3d a9 17 dd bd
       0.022621552 0.029197665 0.090315364 -0.107955284
0002e0 05 e7 00 3e 14 08 8b be 8c 54 03 3e 5c 7c 62 bd
       0.12588127 -0.271546 0.12825221 -0.05529438
0002f0 35 55 bd bc 4d c5 e7 3d 1e d4 4d be 64 3e 76 3e
       -0.023111919 0.11316929 -0.20100448 0.24047238
000300 c5 1a 2e be 9d 68 c3 bc e1 bd 18 be c2 38 25 be
       -0.170024 -0.023853594 -0.14916183 -0.16134933
000310 1c e2 d7 3d 8a 21 19 bd 49 1c a6 bd 32 9f 9a 3d
       0.10541174 -0.0373855 -0.08110864 0.07549895
000320 67 9d 81 be 21 62 6f 3d 09 d8 9d bc d0 9d 6a 3d
       -0.253154 0.058443192 -0.019268053 0.057279408
000330 85 ae 6c 3d f8 8f b1 3d 3a 28 f6 3d ff 8c 19 bd
       0.057783622 0.08670038 0.12019391 -0.03748798
000340 48 e3 14 3e d8 67 9c 3d 69 d2 79 bb 86 45 2c 3d
       0.14539826 0.07636994 -0.00381198 0.04205849
000350 9c 86 a0 3b 46 3f b2 3c bf 94 44 3e ad 30 e2 bd
       0.004898859 0.021758687 0.19197367 -0.110444404
000360 fc c5 c7 3a c6 cf 0c 3e 69 fa 55 bd 77 81 35 3e
       0.0015241499 0.13751134 -0.052240763 0.17725168
000370 32 52 d9 3d 9b cc 68 be b4 e2 17 bd f7 03 0b 3d
       0.10611381 -0.22734301 -0.037081435 0.033939328
000380 97 09 ec 3c c8 d7 8b bd ac e1 2d 3b fc 61 00 3e
       0.028813167 -0.068282664 0.0026532216 0.12537378
000390 1c 04 13 3d 95 bd d0 3d b2 54 30 3a 30 9a 31 bc
       0.03589259 0.1019241 0.0006726488 -0.010839984
0003a0 97 a0 eb 3d 78 39 1d 3d 8a 79 6f 3e 02 31 8a 3c
       0.115052395 0.038384885 0.23386207 0.016869072
0003b0 17 6c 16 bd 50 25 04 3e 45 3e 40 bd 1e 1c d6 bd
       -0.036724176 0.12904859 -0.046934385 -0.10454582
0003c0 35 d7 8e bd 3b 27 f6 bd 26 33 08 3d 94 5b a5 3c
       -0.06974641 -0.12019201 0.033251904 0.02018527
0003d0 b8 3b ad bd 26 41 43 3c c1 88 fb 3c 57 b3 e0 bc
       -0.08458656 0.011917388 0.030704858 -0.027429266
0003e0 3c 4e 0d 3e 18 62 91 bc 1b 91 40 3d a6 48 bc bd
       0.13799375 -0.01774697 0.047013383 -0.09193544
0003f0 19 03 88 3d 81 ba 02 be 17 e2 01 3e 41 7e ea 3d
       0.06641216 -0.12766458 0.12683903 0.11449862

network_body.linear_encoder.seq_layers.2.bias f4 [256]
000000 9a 3b ac bb b3 cd 2b bb 38 f2 95 3a 1f 09 e2 3a
       -0.0052561285 -0.0026215136 0.0011439985 0.001724515
000010 64 b9 fc bc e0 3d 0a 3a ed f5 97 3b 5d f9 14 3d
       -0.03085012 0.00052735023 0.004637471 0.036370624
000020 8e c4 87 bc 5e 9a 26 bc 9b 8c 91 3b c0 cb e9 bc
       -0.016573217 -0.01016864 0.0044418103 -0.028539538
000030 4e b5 e1 bb fa 17 b9 bb db 3d cf bc 6b 59 75 bb
       -0.0068880683 -0.00564861 -0.02529805 -0.003743733
000040 9e e5 06 3b 6a a3 86 bc ea 1e 29 bd 53 34 06 3c
       0.002058364 -0.016435344 -0.041289248 0.008191186
000050 b2 5e 6e 3c dd b2 86 bc 9e 00 a9 3c 82 91 4f b9
       0.014548944 -0.01644271 0.020630177 -0.00019795264
000060 1b 5c 9d ba 06 3e c2 bc 97 44 8c 3c de f7 d0 bc
       -0.0012005599 -0.023711216 0.01712255 -0.025508817
000070 19 64 4a ba 78 dd 0f bd cf ba 10 3d 89 b7 43 3c
       -0.0007720604 -0.03512332 0.035334405 0.011945614
000080 62 41 3a bc cb 6c 95 bc 9a b9 08 3c d6 7c 55 bc
       -0.011368128 -0.018240353 0.008345032 -0.0130302515
000090 26 78 aa bc e1 67 95 bb cf 8e f4 3c 1d c2 7b bb
       -0.020809244 -0.0045595025 0.029853253 -0.003841526
0000a0 1d 2d 0e 3b 68 dc 4b bc 1f b1 c6 3c 25 78 66 3c
       0.002169437 -0.012442686 0.02425438 0.014066731
0000b0 f7 c4 66 3a 59 e4 97 3c d6 9b 90 bc e0 d3 b3 bb
       0.0008803154 0.018541502 -0.017652433 -0.005487904
0000c0 3f 86 ab 3c 87 7e b2 3b 09 60 77 bc 6c f3 03 3c
       0.020938037 0.005447212 -0.01509858 0.008053642
0000d0 d1 0b 4d 3c 4e e4 2b 3c 91 42 42 bc ea ed d6 3c
       0.012515024 0.010491444 -0.011856691 0.026236493
0000e0 2b fc 9f bb 50 17 e6 3a d0 59 e3 39 48 3d c2 ba
       -0.0048823557 0.0017554555 0.0004336373 -0.0014819289
0000f0 ba 36 39 3c 98 bb 41 bc 29 b7 46 bc 1d 85 b2 bb
       0.011304552 -0.011824511 -0.01212863 -0.0054479972
000100 f4 89 ed 3c ec f0 a5 3c 07 35 12 bc 3d 89 92 3c
       0.028996445 0.020256482 -0.0089237755 0.017887706
000110 0a f5 4e bc 47 f8 00 3c 73 10 f3 b9 ed ad 1d bc
       -0.012631664 0.007871694 -0.00046360827 -0.009623987
000120 b1 1b c4 bc ca f9 ad bb b0 68 22 bc 0b 9e 07 bd
       -0.023938986 -0.005309318 -0.009912655 -0.033109706
000130 6b bd d2 3a 74 5b 86 bc 36 ac 27 3d fc 20 0f bd
       0.001607818 -0.01640103 0.040935718 -0.034943566
000140 fe 28 00 3c 45 9a 9e 3c 93 9b 9c 3a 7a 61 40 bc
       0.007822273 0.01936067 0.001194822 -0.01174199
000150 dd 15 22 3d 67 09 5c 3b 84 dd 51 3c 38 a8 ee 3b
       0.03957163 0.003357494 0.012809161 0.007283237
000160 18 52 d1 bc 59 35 8e bc 0a 1c 26 3b e6 79 80 bc
       -0.02555184 -0.017359423 0.0025346302 -0.015683126
000170 9d f9 27 3b d9 7a 83 bc a3 49 94 bc 07 87 90 3c
       0.002563096 -0.01604979 -0.018101519 0.017642511
000180 e3 4f 07 3d fd e9 15 3d cc cc 1c bb fe 06 a6 ba
       0.03303517 0.0366001 -0.002392578 -0.0012666879
000190 91 f7 2c 3c 3a b7 76 bc c6 b0 b0 bc 8b f8 da bb
       0.010557071 -0.015058333 -0.021568667 -0.0066824607
0001a0 6e b7 25 3c 5f 79 fa 3b 73 6e d9 bc 19 37 e5 bc
       0.010114534 0.007643863 -0.026541924 -0.027980374
0001b0 da 65 e2 ba 28 cf fe bc 21 94 21 bc cc 8c a5 3a
       -0.0017272786 -0.03110464 -0.009861977 0.0012630462
0001c0 eb b7 9b bb 72 4f 0f bd d7 f8 8e 3c ca 09 20 bd
       -0.0047521493 -0.034987874 0.01745264 -0.039071836
0001d0 c4 d4 23 bd e6 11 a1 bc fe 90 b6 3c ff 75 86 39
       -0.03999783 -0.019661855 0.022285935 0.00025646386
0001e0 76 83 1a bc 74 5a d7 bc 61 98 84 3a bb 27 35 3c
       -0.009430757 -0.026288249 0.0010116213 0.011056836
0001f0 65 86 a1 3c 41 4f 45 3b 41 2c c5 bc df 5e dc bc
       0.019717405 0.0030107053 -0.024068953 -0.026900707
000200 f8 39 84 bc b2 b4 bf 3a a1 00 a1 bc dc ba 05 3d
       -0.016140923 0.0014625995 -0.01965362 0.032648906
000210 90 70 0c 3d 39 fa 6a bc 78 d7 34 bc e4 14 9f bc
       0.034287035 -0.014341884 -0.0110377 -0.019419141
000220 06 c4 a6 3b 43 33 c9 bc e2 b4 a6 3c 2a 40 5d bb
       0.005089286 -0.024560576 0.020349924 -0.0033760169
000230 22 68 1d bd 01 af 99 bb e7 a6 26 3c db 52 8e bc
       -0.038429387 -0.0046900515 0.010171629 -0.017373493
000240 b7 fe 5c 3c cc 76 96 3c 62 69 89 bc 65 78 89 bc
       0.013488463 0.018367194 -0.016773883 -0.016781041
000250 62 9e 97 bc ba 27 e8 bc bc db 8d bb c7 ef 9e bb
       -0.01850814 -0.028339256 -0.004329173 -0.004850361
000260 8a ef a0 bc 5d 2c e5 3b b3 0f 2a bc d8 2e 96 3b
       -0.019645471 0.006993814 -0.01037972 0.004583221
000270 44 1a b5 bc e5 e3 66 3b 88 4c 01 3d 2e d8 67 bc
       -0.022107251 0.003523105 0.031567127 -0.014150662
000280 ae b1 73 3c b9 85 ae bc 08 a2 ff bc 8d 52 b1 bc
       0.014873905 -0.021303998 -0.031205192 -0.021645809
000290 d3 71 df bc bc c3 96 3b 3f 45 2f bc 5f fb b6 3c
       -0.027275955 0.00460097 -0.010697662 0.02233666
0002a0 0c 6d 38 bc fa 48 1f bd 8f de 8b 3c 06 99 86 bb
       -0.011256468 -0.038887955 0.017073898 -0.0041075973
0002b0 cc b2 03 bb 1d 77 97 3c 66 d1 92 3c 36 e9 0b bd
       -0.0020095585 0.018489415 0.017922115 -0.034157954
0002c0 36 fe 09 bd b3 f2 39 3c e3 dc 56 3c c8 8e 94 3c
       -0.0336897 0.011349368 0.013114187 0.01813449
0002d0 d1 c5 f6 bc 43 b1 68 3b 65 42 ef 3a 37 81 af 3c
       -0.030123623 0.0035506047 0.001825404 0.02142392
0002e0 30 f9 49 bc c9 94 29 3c 42 01 b7 3c 3d b2 53 3b
       -0.012327477 0.010350415 0.022339467 0.0032302283
0002f0 78 73 80 bb 97 fd 80 3c dd 57 9c bc 1b b2 cf bc
       -0.003920015 0.015745921 -0.019084865 -0.025353482
000300 78 62 05 3c ef 92 75 bb 92 a8 12 3d 96 2d b6 bc
       0.008141153 -0.0037471612 0.035805292 -0.022238534
000310 3e ee 2e bd 5e 9d c7 bb 59 50 ce bc d1 84 87 3c
       -0.042707674 -0.0060917577 -0.025184797 0.016542824
000320 af e3 b6 bc 85 32 87 bc ef df 6f bc f4 9b ba 3c
       -0.022325365 -0.016503582 -0.014640792 0.022779442
000330 4b 22 23 bd b8 ae 58 3c 5e a3 35 bc cc 2c 55 3c
       -0.039827626 0.01322525 -0.011086313 0.013011169
000340 f7 09 1c bc 2e 67 d2 bb 96 a1 52 bb 3d d3 2b 3a
       -0.00952386 -0.0064209914 -0.003213977 0.0006554609
000350 36 2d 13 bc 42 5d 18 3c 96 8f 1c bc 68 26 c4 3c
       -0.008982947 0.009299578 -0.009555718 0.023944095
000360 f0 71 cf 3c 43 df 1d bd 90 7f d0 bc 32 56 1e bd
       0.025322884 -0.038542997 -0.025451452 -0.03865642
000370 c6 b7 04 3d 99 df a2 bc 94 12 e4 bc d3 9c 7e bc
       0.032401823 -0.01988201 -0.02784089 -0.0155403195
000380 4f f3 5e 3b 54 d4 56 bc bb 6b 33 bc 4c 14 3b 3b
       0.0034019535 -0.013112146 -0.010950978 0.0028546033
000390 56 1b 83 bc 9e 5d cc bc 83 93 0c 3d 81 7a 9b bb
       -0.016004246 -0.024946984 0.034320366 -0.004744828
0003a0 51 3e 86 bc 56 54 9e 3a 53 90 14 39 9e 04 cf 39
       -0.016387137 0.0012079577 0.00014168145 0.00039485557
0003b0 a1 ce 66 3c 49 ba 09 3c af 32 07 3c 89 7f 0a bd
       0.01408735 0.00840623 0.00825183 -0.033813033
0003c0 7f 43 42 bc 39 49 7b 3a 47 b8 a9 3c 9e f6 1e ba
       -0.011856913 0.0009585801 0.020717753 -0.00060639705
0003d0 85 01 db bb bf ff cd bc c3 2d 1a bc 17 80 3f bc
       -0.0066835308 -0.025146363 -0.0094103245 -0.011688254
0003e0 9e 6d 17 bd 4b af 48 bc d8 c3 3a bd e1 42 10 bd
       -0.036969773 -0.012248824 -0.045596927 -0.03522003
0003f0 7b bb 49 3c 41 86 59 bd 5e 80 5b bb 19 e4 18 3c
       0.012312765 -0.05310655 -0.003349326 0.0093317265
