MLagents/results/hb_14/Mario.onnx (onnx, 377673 bytes, 12 tensors)

90 f4 [99]
0.10846523 0.10846523 0.10846523 0.10846523 0.15294117 0.15294117 0.29552606 0.15294117
0.23792645 0.10846523 0.10846523 0.10846523 0.29552606 0.15294117 0.23792645 0.10846523
0.10846523 0.10846523 0.29552606 0.186388 0.27815506 0.10846523 0.10846523 0.10846523
0.29552606 0.186388 0.27815506 0.10846523 0.10846523 0.10846523 0.33995727 0.21404006
0.38644865 0.10846523 0.10846523 0.10846523 0.35274503 0.186388 0.3647059 0.10846523
0.10846523 0.10846523 0.27815506 0.23792645 0.44473076 0.10846523 0.10846523 0.10846523
0.38644865 0.23792645 0.4304982 0.10846523 0.10846523 0.10846523 0.33995727 0.2781551
0.4227116 0.10846523 0.10846523 0.10846523 0.38644865 0.2781551 0.40566915 0.10846523
0.10846523 0.10846523 0.3262453 0.23792645 0.46302754 0.10846523 0.10846523 0.10846523
0.37591875 0.21404006 0.41444507 0.10846523 0.10846523 0.10846523 0.3647059 0.27815506
0.4227116 0.10846523 0.10846523 0.10846523 0.41444507 0.27815506 0.4227116 0.10846523
0.10846523 0.10846523 0.15294117 0.10846523 0.10846523 0.29440528 0.42787755 0.10846523
0.15293798 0.10864655 0.10846523
00000000: 0523 de3d 0523 de3d 0523 de3d 0523 de3d
00000010: 9c9c 1c3e 9c9c 1c3e 314f 973e 9c9c 1c3e
00000020: fea2 733e 0523 de3d 0523 de3d 0523 de3d
00000030: 314f 973e 9c9c 1c3e fea2 733e 0523 de3d
00000040: 0523 de3d 0523 de3d 314f 973e 7fdc 3e3e
00000050: 576a 8e3e 0523 de3d 0523 de3d 0523 de3d
00000060: 314f 973e 7fdc 3e3e 576a 8e3e 0523 de3d
00000070: 0523 de3d 0523 de3d e10e ae3e 512d 5b3e
00000080: 99dc c53e 0523 de3d 0523 de3d 0523 de3d
00000090: ff9a b43e 7fdc 3e3e bbba ba3e 0523 de3d
000000a0: 0523 de3d 0523 de3d 576a 8e3e fea2 733e
000000b0: c0b3 e33e 0523 de3d 0523 de3d 0523 de3d
000000c0: 99dc c53e fea2 733e 436a dc3e 0523 de3d
000000d0: 0523 de3d 0523 de3d e10e ae3e 586a 8e3e
000000e0: a86d d83e 0523 de3d 0523 de3d 0523 de3d
000000f0: 99dc c53e 586a 8e3e deb3 cf3e 0523 de3d
00000100: 0523 de3d 0523 de3d a009 a73e fea2 733e
00000110: f211 ed3e 0523 de3d 0523 de3d 0523 de3d
00000120: 6c78 c03e 512d 5b3e 2532 d43e 0523 de3d
00000130: 0523 de3d 0523 de3d bbba ba3e 576a 8e3e
00000140: a86d d83e 0523 de3d 0523 de3d 0523 de3d
00000150: 2532 d43e 576a 8e3e a86d d83e 0523 de3d
00000160: 0523 de3d 0523 de3d 9c9c 1c3e 0523 de3d
00000170: 0523 de3d 4abc 963e c412 db3e 0523 de3d
00000180: c69b 1c3e 1582 de3d 0523 de3d

action_model._discrete_distribution.branches.0.bias f4 [3]
0.0 0.0 0.0
00000000: 0000 0000 0000 0000 0000 0000

action_model._discrete_distribution.branches.0.weight f4 [3, 256]
0.0015441956 0.008354906 0.004279443 -0.0072003673 -0.010574275 -0.00072190753 0.008267469 -3.7802492e-05
-0.0072398344 -0.0019271655 -0.010296348 0.00092209066 -0.0015118225 0.0054215114 -0.0022377279 0.004132672
-0.0043569333 -0.0013191402 0.008925034 0.0061922623 0.005270393 0.006131158 -0.001636995 -0.0050275787
0.0022287401 -0.00065044797 -0.004068536 0.0021493067 -0.0013391011 0.0032401741 -0.00043695085 -0.006537435
0.015457367 -0.004179015 0.00024213389 -0.010854912 0.0018932149 -0.0031967356 0.0022338973 0.003899004
0.0061073187 0.0052442015 0.010336957 0.00084950554 -0.005083496 0.0054387487 -0.0017598475 0.0037318026
-9.73001e-05 0.00056076836 0.0032839898 -0.0020751664 0.0050558182 0.005824811 -0.009650524 -0.016988082
0.0044533266 0.010869744 -0.00750382 0.0027619859 -0.0038396255 0.004173623 -0.0027513478 -0.00039255098
-0.0018548503 -0.002176643 0.00675434 -0.009735549 0.00013512372 0.0053803083 -0.004333237 0.0009144436
0.0061710603 -0.008025891 -0.0102647375 -0.00914791 -0.019032154 0.0014146366 0.0020797362 -0.0114802355
-0.017381502 -0.0065274723 -0.0030213294 0.00066612766 -0.007326163 0.004409867 0.0017016962 0.00063304807
-0.004194753 0.0011189135 -0.0058301874 -0.007440941 0.00051051535 0.0047434224 -0.0022524178 0.0035405026
-0.007880973 0.0017822919 0.0029298754 -0.0077325203 0.0010431181 -0.009487348 0.004506243 0.0055432725
-0.0012550016 -0.0027707154 0.0044834446 -0.0064640157 0.012122238 -0.008592332 0.008798174 0.0026266216
-0.0028858937 -0.00022507516 0.003769432 -0.0014697419 -0.0015717403 0.0025239727 0.0112482235 0.0037333907
-0.0015339501 -0.003618183 -0.011265142 -0.0063494043 -0.0063613667 -0.0022606223 -0.014260083 0.0021892875
-0.0033403751 -0.0016261267 -0.005359474 -0.0090461215 0.0032827791 0.004444175 -0.0053255237 -0.0062562847
-0.007142623 0.005514917 0.007577517 0.00027734015 -0.009120681 -0.014264918 0.0052939462 0.0018586795
-0.00033088154 0.002349104 0.0018450605 0.004819105 0.005287304 -0.0049947766 -0.004195498 -0.0043157763
0.001523707 -0.0029215382 0.005794266 -0.004615774 -0.0031370153 -0.007066215 -0.002492847 0.0058900104
0.007587053 -0.012512013 -0.0021311145 0.0012645728 -0.0005554686 -0.003023161 -0.008866285 -0.005896605
0.0056241937 0.000224128 0.0032559317 0.009686623 0.0010319544 -0.006691056 -0.00205278 -0.0011873841
-0.00459576 -0.008138473 2.119124e-05 -0.0029978927 -0.0058734636 -0.0076495893 0.00075927516 -0.008834594
0.00863815 -0.0033991567 0.0012192361 -0.0009191708 -0.002965025 -0.006634436 0.0031739317 -0.0013355324
0.012487433 -0.009159945 0.0040305317 0.007007234 -0.0011270462 -0.0032557044 -0.009783101 0.0008333644
0.005216708 -0.0019864622 0.016657462 -0.0037886545 0.0045525865 0.00291772 0.0028076067 -0.00033027088
0.006920879 0.0070617604 -0.003919914 2.8082612e-05 -0.013890675 0.0077578197 -0.0040886356 0.0023167578
0.005422789 0.0062372857 0.008204925 -0.012162969 0.010876445 0.0033695851 0.00763151 -0.002078543
0.005169866 -0.00036066872 -0.004266634 0.003332859 0.005929126 -0.0022223878 -0.009062299 0.0031509008
0.0025289038 0.0074368822 0.0038791378 0.0010693547 -0.004624264 -0.0027969892 0.004461136 -0.007954097
-0.0056280927 -0.008677341 -0.0050905175 0.007964682 0.0050143893 -0.010822034 0.0016552088 0.004064662
0.00917166 0.0012762103 0.008227288 0.009903052 0.0065086046 -0.008325634 0.008084702 -0.00018856053
00000000: 9b66 ca3a 04e3 083c 923a 8c3b 0ff1 ebbb
00000010: b93f 2dbc 653e 3dba 4774 073c 1e8e 1eb8
00000020: 223c edbb f298 fcba 03b2 28bc 75b8 713a
00000030: 5828 c6ba efa6 b13b d8a6 12bb 5e6b 873b
00000040: 9bc4 8ebb 00e7 acba 4e3a 123c 76e8 ca3b
00000050: 43b3 ac3b e2e7 c83b 7090 d6ba 63be a4bb
00000060: 0e10 123b d382 2aba 5b51 85bb 62db 0c3b
00000070: c784 afba 1a59 543b 8d16 e5b9 fb37 d6bb
00000080: e540 7d3c 1ef0 88bb 52e5 7d39 cdd8 31bc
00000090: c025 f83a 5380 51bb 9466 123b 6f86 7f3b
000000a0: e71f c83b 8dd7 ab3b 575c 293c 5ab1 5e3a
000000b0: 7593 a6bb 8837 b23b afaa e6ba 4291 743b
000000c0: 980d ccb8 8700 133a 3538 573b 84ff 07bb
000000d0: 47ab a53b 0ede be3b 3b1d 1ebc 972a 8bbc
000000e0: 36ed 913b 0317 323c 9be2 f5bb 6f02 353b
000000f0: 3aa2 7bbb e3c2 883b f54f 34bb 4dcf cdb9
00000100: 731e f3ba 03a6 0ebb 8353 dd3b da81 1fbc
00000110: ffaf 0d39 4c4d b03b d4fd 8dbb 45b7 6f3a
00000120: 9b36 ca3b 077f 03bc 6e2d 28bc 1ee1 15bc
00000130: 52e9 9bbc 546b b93a 2f4c 083b 9917 3cbc
00000140: a763 8ebc 68e4 d5bb 7f01 46bb 129f 2e3a
00000150: 4f10 f0bb a580 903b 730b df3a 23f3 253a
00000160: 2374 89bb 82a8 923a 280b bfbb 23d3 f3bb
00000170: 1bd4 053a b66e 9b3b 4d9d 13bb c707 683b
00000180: 321f 01bc cb9b e93a 2703 403b 1561 fdbb
00000190: 3cb9 883a d270 1bbc 1ba9 933b 57a4 b53b
000001a0: de7e a4ba e494 35bb dce9 923b 18d0 d3bb
000001b0: 5a9c 463c dac6 0cbc 3726 103c 6623 2c3b
000001c0: 4321 3dbb 2702 6cb9 9308 773b 5ba4 c0ba
000001d0: da02 ceba 3c69 253b 784a 383c e7ab 743b
000001e0: d30e c9ba 0a1f 6dbb 6e91 38bc aa0e d0bb
000001f0: 0373 d0bb f326 14bb 20a3 69bc 267a 0f3b
00000200: 32ea 5abb c223 d5ba 879e afbb 2f36 14bc
00000210: e523 573b 71a0 913b bb81 aebb 8501 cdbb
00000220: aa0c eabb 7ab6 b43b d24c f83b f767 9139
00000230: e96e 15bc 67b7 69bc d778 ad3b ef9e f33a
00000240: 2b7a adb9 6df3 193b f5d5 f13a 95e9 9d3b
00000250: 1f41 ad3b 39ab a3bb 637a 89bb 5b6b 8dbb
00000260: 1fb7 c73a 4777 3fbb d3dd bd3b eb3f 97bb
00000270: 6296 4dbb b58b e7bb 085f 23bb fd00 c13b
00000280: d09c f83b 30ff 4cbc 2baa 0bbb 06c0 a53a
00000290: de9c 11ba 3a20 46bb e543 11bc 4f38 c1bb
000002a0: 284b b83b e703 6b39 7861 553b a4b4 1e3c
000002b0: a542 873a a540 dbbb ef87 06bb 00a2 9bba
000002c0: 0798 96bb 3b57 05bc d7c3 b137 4b78 44bb
000002d0: 2f76 c0bb 68a9 fabb 180a 473a f9be 10bc
000002e0: 0787 0d3c 63c4 5ebb c6ce 9f3a 82f4 70ba
000002f0: dd50 42bb af65 d9bb bd01 503b 080d afba
00000300: 1798 4c3c 9813 16bc 8d12 843b f09c e53b
00000310: 65b9 93ba a85d 55bb 4d49 20bc 2376 5a3a
00000320: ebf0 aa3b 4e2f 02bb 3b75 883c 134b 78bb
00000330: dd2d 953b 3837 3f3b d3ff 373b 3528 adb9
00000340: 8ac8 e23b 5766 e73b 9f72 80bb f392 eb37
00000350: b795 63bc 4f35 fe3b f6f9 85bb bfd4 173b
00000360: a7b1 b13b 2562 cc3b f36d 063c 3147 47bc
00000370: 1e33 323c 42d4 5c3b bf11 fa3b 2a38 08bb
00000380: fb67 a93b 2318 bdb9 1fcf 8bbb 186c 5a3b
00000390: 1d49 c23b 7ba5 11bb 097a 14bc 587f 4e3b
000003a0: f7bb 253b 17b1 f33b 2239 7e3b 9729 8c3a
000003b0: 2387 97bb b14d 37bb b92e 923b e751 02bc
000003c0: dd6b b8bb 682b 0ebc 5bce a6bb 4c7e 023c
000003d0: bf4f a43b e74e 31bc 97f3 d83a db30 853b
000003e0: bb44 163c 8346 a73a bfcb 063c 6940 223c
000003f0: 2246 d53b 3d68 08bc b375 043c 55b8 45b9

action_model._discrete_distribution.branches.1.bias f4 [2]
0.0 0.0
00000000: 0000 0000 0000 0000

action_model._discrete_distribution.branches.1.weight f4 [2, 256]
0.008097127 0.0011100111 -0.0021948328 -0.0010958384 0.0040237443 -0.0069769197 0.0064943745 -0.021629104
-0.001405051 0.0049826414 -0.0018657179 -0.0035623068 -0.006085227 0.0020411143 -0.0020266203 -0.003211074
-0.0021884465 0.0017265946 0.0018356951 -0.0076736594 -0.009647838 0.0011694011 -0.014194508 -0.0015338712
-0.0019026917 0.002656617 -0.0014133306 0.009537096 0.0027442516 0.0043063583 -0.002089283 0.00892406
-0.0065290295 0.0005479425 0.0039342046 -0.004278913 -0.010431459 -0.0046609794 -0.007989977 -0.007818939
0.00073296967 0.0019220691 -0.008130484 -0.012384779 -0.0029560707 0.005919028 0.0013357706 0.00544925
0.006605244 0.000481922 -0.015199238 0.005112791 -0.0071158833 0.0015773012 0.0024907691 0.0022966757
0.006683559 0.0037276987 0.013680997 -0.011049188 -0.012988888 0.00033245538 -0.007954545 -0.005857945
0.0051495093 0.0010005358 0.00076566 -0.0041632224 -0.0060011046 -0.00016693134 0.004179376 0.0004418258
0.00025262733 0.0061354437 0.0124758715 0.00033485735 0.0018591741 0.004444768 -0.0063761882 0.0037256386
0.004694185 -0.00824952 0.006576287 0.01210847 0.0016244723 0.009670464 -0.0032968668 -0.010098658
0.008708613 0.00013685464 0.0016430401 -0.00428494 -0.0014604962 0.0037217294 -0.013301256 0.007665956
0.0043087904 -0.0048507885 -0.006127578 0.004874824 -0.007127332 0.00028888087 -0.0005673041 0.003300594
0.0060877237 -0.003173474 0.0023937204 -1.1198595e-05 0.0031506363 0.00078093546 0.006168922 -0.00027619983
0.006012514 0.0043442324 0.010778409 0.0019082375 0.0031026779 0.009533391 -0.005725485 0.0011564031
-0.0012366929 0.0003679246 -0.010426586 0.010704363 0.003934528 -0.013181917 -0.005773473 -0.0028614108
0.018074235 -0.00047128228 -0.006160533 -0.0076156333 -0.007659431 -0.0009579742 0.0016439356 0.005315867
0.0021201908 0.00087689346 0.00862637 0.002025809 -0.00034437966 0.0010645237 -0.0017640482 -0.011007781
-0.0046649906 0.013169396 0.0069772475 -0.008720101 0.0038235746 -0.004013014 0.0025721716 -0.0005704815
0.0033040908 -0.0031548974 -0.009134467 -0.0034829793 0.0020216447 -0.00041183416 -0.0044228756 1.2739176e-05
-0.00811247 -0.0046369387 -0.0028365138 0.0021539435 0.008029214 0.0039721928 0.004342135 0.0028535193
-0.0038907223 -0.017657751 0.0011400937 -0.008077023 0.000616257 -0.017349184 -0.0011080247 -0.002918714
0.0025185472 -0.0073832585 -0.005874203 0.0046843756 0.0048505752 0.0037341502 -0.0022399602 0.0007686319
0.0004950358 -0.005413714 0.0035494496 -0.0019679116 -0.0025272341 0.0008474219 0.0063222903 0.0071076043
-0.0010468217 -0.0017848175 -0.006089836 -0.005072977 0.009062348 0.005580113 0.0016987671 -0.004299262
0.004097088 -0.011948722 0.013769381 -0.0032821668 -0.0035732442 0.0002844451 -0.004690835 0.0045866943
-0.002381625 -0.009758598 0.00028930267 -0.0011486182 0.013525799 0.0077531557 0.001132946 -0.0016251098
0.0018589769 0.018754594 -0.0025375884 -0.0052021444 -0.0072373585 0.0042454423 -0.002209004 -0.00378196
-0.0029156967 0.004863193 -0.0040152357 0.0058659054 0.0012855916 0.015722673 -0.002556438 0.0037399568
0.00638855 -0.0010336579 0.008805559 0.014568386 -0.008079174 0.00030800083 0.0015445766 -0.0002838186
-0.0054358914 0.0026255865 0.0048999875 0.0060326452 0.007891094 0.0016516878 0.0121126445 -0.0009126958
-0.007354731 0.005503151 -0.00432489 0.0033186225 -0.005386479 -0.0015754292 -0.004554506 0.004956067
00000000: d0a9 043c cb7d 913a 2fd7 0fbb 3ca2 8fba
00000010: 9dd9 833b a59e e4bb c3ce d43b 852f b1bc
00000020: b029 b8ba 6d45 a33b 1b8b f4ba 9775 69bb
00000030: 9566 c7bb 37c4 053b 0cd1 04bb e270 52bb
00000040: 0a6c 0fbb e74e e23a b59b f03a 5273 fbbb
00000050: f711 1ebc 9746 993a 1590 68bc 2d0c c9ba
00000060: bd63 f9ba a31a 2e3b 813f b9ba 7b41 1c3c
00000070: e7d8 333b 5a1c 8d3b 5aec 08bb 3836 123c
00000080: 78f1 d5bb cca3 0f3a 80ea 803b 2036 8cbb
00000090: b6e8 2abc 21bb 98bb 64e8 02bc 021b 00bc
000000a0: c324 403a f0ed fb3a b935 05bc 87e9 4abc
000000b0: a3ba 41bb 68f4 c13b 0615 af3a 9f8f b23b
000000c0: cd70 d83b 7aaa fc39 3a06 79bc 3389 a73b
000000d0: 5b2c e9bb 72bd ce3a 2c3c 233b d383 163b
000000e0: c201 db3b 684c 743b 4326 603c a707 35bc
000000f0: 58cf 54bc 684d ae39 c853 02bc 01f4 bfbb
00000100: 37bd a83b 6924 833a 93b6 483a a46b 88bb
00000110: eaa4 c4bb 4a0a 2fb9 26f3 883b dba4 e739
00000120: 1173 8439 d50b c93b 9967 4c3c cb8f af39
00000130: 88af f33a 6ba5 913b 58ef d0bb d829 743b
00000140: aed1 993b ff28 07bc e57d d73b 9b62 463c
00000150: 3fec d43a de70 1e3c 3f10 58bb d774 25bc
00000160: 92ae 0e3c a380 0f39 475b d73a af68 8cbb
00000170: 1f6e bfba 42e8 733b 83ed 59bc b332 fb3b
00000180: c130 8d3b 5df3 9ebb dac9 c8bb fdbc 9f3b
00000190: 658c e9bb ef74 9739 22b7 14ba c74e 583b
000001a0: 877b c73b 0ffa 4fbb f7df 1c3b 99e1 3bb7
000001b0: e87a 4e3b b1b7 4c3a ab24 ca3b eace 90b9
000001c0: 9f04 c53b 105a 8e3b ed97 303c d31d fa3a
000001d0: 4c56 4b3b f131 1c3c d99c bbbb 7392 973a
000001e0: 8718 a2ba 01e6 c039 45d4 2abc 5a61 2f3c
000001f0: 37ed 803b f8f8 57bc 672f bdbb 8286 3bbb
00000200: 6b10 943c 7016 f7b9 4cde c9bb 908c f9bb
00000210: f7fb fabb 8f20 7bba 5379 d73a b930 ae3b
00000220: e6f2 0a3b 53df 653a 9e55 0d3c 6fc3 043b
00000230: db8d b4b9 7d87 8b3a a337 e7ba fb59 34bc
00000240: c7dc 98bb 73c4 573c 65a1 e43b c1de 0ebc
00000250: f094 7a3b 9a7f 83bb e191 283b 5e8c 15ba
00000260: 7289 583b 65c2 4ebb bba8 15bc b242 64bb
00000270: 927d 043b 72eb d7b9 c5ed 90bb 58ba 5537
00000280: 2aea 04bc 76f1 97bb cee4 39bb 2d29 0d3b
00000290: f78c 033c 2b29 823b 7848 8e3b 1c02 3b3b
000002a0: 7dfb 7ebb fda6 90bc 326f 953a 7d55 04bc
000002b0: 4f8c 213a e01f 8ebc 243b 91ba e547 3fbb
000002c0: 360e 253b 43ef f1bb 637c c0bb 647f 993b
000002d0: 93f1 9e3b a5b8 743b 4ccc 12bb 037e 493a
000002e0: 4ac5 013a 8665 b1bb e29d 683b 14f8 00bb
000002f0: f49f 25bb 8525 5e3a 372b cf3b e8e6 e83b
00000300: 8235 89ba 8af0 e9ba 3f8d c7bb 373b a6bb
00000310: 3e7a 143c 61d9 b63b 2aa9 de3a d3e0 8cbb
00000320: dd40 863b 93c4 43bc f898 613c 9f19 57bb
00000330: 172d 6abb 9321 9539 93b5 99bb fb4b 963b
00000340: 0915 1cbb 87e2 1fbc 8cad 9739 3b8d 96ba
00000350: 509b 5d3c 2f0e fe3b 5c7f 943a a301 d5ba
00000360: eaa8 f33a 3ca3 993c ab4d 26bb c076 aabb
00000370: 5d27 edbb 5a1d 8b3b f0c4 10bb c3da 77bb
00000380: 4615 3fbb 6b5b 9f3b 3d92 83bb c836 c03b
00000390: 4c81 a83a d6cc 803c ea89 27bb 101a 753b
000003a0: 0b57 d13b ce7b 87ba 3145 103c 3db0 6e3c
000003b0: 835e 04bc 2c7b a139 6473 ca3a 7dcd 94b9
000003c0: 901f b2bb 0812 2c3b 1390 a03b 7fad c53b
000003d0: a649 013c 727d d83a 1d74 463c fa41 6fba
000003e0: f5ff f0bb c753 b43b cfb7 8dbb 3f7d 593b
000003f0: 1081 b0bb a27e ceba f73d 95bb 8166 a23b

action_model._discrete_distribution.branches.2.bias f4 [2]
0.0 0.0
00000000: 0000 0000 0000 0000

action_model._discrete_distribution.branches.2.weight f4 [2, 256]
-0.0086115245 -0.008737563 0.009418623 -0.0023063503 0.00240628 -0.005779974 2.581407e-05 0.010464511
-0.008068494 -0.002364757 0.0010586587 -0.0049379547 -0.0026293066 -0.0017688625 0.008159246 0.003979745
-0.0028485851 -0.0027852897 0.006467547 -0.0015702135 0.0008120262 0.01431638 0.012991482 -0.007931928
0.0028186308 -0.003592855 0.0018784034 -0.0052032373 -0.0041646743 -0.0005297361 -0.0035856806 0.0055281674
-0.017596474 0.0033183338 0.015907273 0.0033061064 -0.0024177968 0.001874177 0.003080201 0.005339471
0.0060204584 -0.007445025 0.008780442 -0.00017795473 -0.00034856467 0.0023909248 0.0073852683 0.0033446325
0.0026767778 0.0032909047 0.0005335987 0.016534975 0.00036052888 -0.00086954015 -0.0009336608 -0.0011508995
0.010150961 0.0001416226 0.00015390638 -0.005574199 0.008122492 -0.0042280504 -0.0016951364 -0.002117802
-0.0007554998 -0.011078666 -0.0036763642 0.003927387 -0.006979824 0.002014951 0.001024667 0.0017516256
0.0047293375 -0.012456833 -0.00075692957 -0.00321669 0.0074127815 -0.004766142 -0.005962129 0.009158813
0.009635147 0.007658203 -0.0135971075 0.007807482 0.0043799356 -0.0056133177 0.00936733 0.014578949
-0.0061511584 -0.0030541182 0.009941132 0.00677677 0.005764915 -0.013630429 0.0012343804 -0.0003716021
-0.004989332 0.011715413 -0.002314956 0.010586742 -0.0065565216 0.0053942217 0.0009242371 -0.0010486247
-0.009164794 -0.001409199 0.002182938 0.0028929212 -0.004061232 -0.011549022 -0.0049362527 0.0014563608
-0.0019783543 0.0025422587 0.0098221 -0.0057301344 -0.0025116825 0.007163295 -0.008178071 -0.00607115
0.0028384745 0.013055979 0.005314823 -0.0035603356 -0.0010078251 0.003366201 0.0046522305 -0.001275776
0.010079183 0.0047190394 -0.0018911762 -0.0038872876 0.0031983524 0.0009917142 -0.00863435 -0.0012516398
0.007392908 -0.004530937 0.008125425 0.0022671612 0.014567174 0.005180747 -0.00010410661 0.011763732
0.005420357 -0.007039796 0.0032106375 0.006603181 0.007135128 -0.016061047 -0.0070028375 -0.008102908
-0.0013834515 0.0033653274 0.00901575 -0.0039714924 -0.0044795885 -0.004057481 0.0005980946 -0.0028691909
-0.0045435927 -0.005552713 0.0141997775 0.0066951173 -0.0077158376 -0.0015711746 0.0076493346 -0.007022173
-0.00825712 0.013204231 -0.0006028819 -0.00948416 0.017054223 0.008989706 0.0035775923 -0.0007903858
0.0017367428 -0.00728069 -0.006009227 0.008113722 0.008760331 -0.005972259 -0.0030344443 -0.0030621556
0.0070580915 -0.0055156625 0.0008142544 0.003747939 -0.016226921 -0.0021342577 0.0059276535 0.01072118
0.0024404477 -0.005149196 0.002448319 0.0009594241 -0.0018775465 -0.0040915506 -0.0038456556 0.006131642
0.0031487343 -0.0032459814 0.001634611 -0.011023538 0.0042816657 -0.002407397 0.0034511525 0.007858606
0.0052586123 0.0040606293 -0.007771335 -0.003227723 0.0018485375 -0.0038352571 0.0035177704 -0.0048332238
0.00064810616 0.0009837527 -0.0023159024 0.009009699 -0.00831649 0.004327073 0.004785999 -0.011191676
0.008735688 0.0017559588 -0.008331428 -0.00843909 0.0043094074 0.0010632988 0.0046533304 0.00023878548
0.013760109 0.011419074 -0.011963441 -0.00814405 0.014070659 0.0026144718 -0.00078660104 -0.0003873885
0.0032737441 0.002592021 0.003335947 0.00966224 -0.0049951137 -0.0013796891 0.011223401 -0.0018897407
0.005829481 0.015141644 -0.0038934406 -0.0075495015 -0.0059744595 0.0065206825 -0.009770278 -0.005149175
00000000: 5a17 0dbc ff27 0fbc 9150 1a3c 2326 17bb
00000010: aeb2 1d3b f065 bdbb 4b8b d837 5773 2b3c
00000020: b731 04bc 0afa 1abb b1c2 8a3a 91ce a1bb
00000030: 7250 2cbb 2dd9 e7ba 5cae 053c 8568 823b
00000040: 54af 3abb 6889 36bb b7ed d33b 9fcf cdba
00000050: 28de 543a 408f 6a3c 3ada 543c ebf4 01bc
00000060: c7b8 383b 1b76 6bbb c234 f63a eb7f aabb
00000070: d277 88bb fddd 0aba bdfd 6abb a125 b53b
00000080: 7b26 90bc 6778 593b f84f 823c 43ab 583b
00000090: e673 1ebb f2a6 f53a 33dd 493b bbf6 ae3b
000000a0: 4447 c53b 65f5 f3bb d8db 0f3c 5c99 3ab9
000000b0: 8fbf b6b9 10b1 1c3b 1f00 f23b 9f31 5b3b
000000c0: e16c 2f3b 38ac 573b 34e1 0b3a 5b74 873c
000000d0: 5e05 bd39 daf1 63ba eac0 74ba c7d9 96ba
000000e0: 3750 263c 8780 1439 ee61 2139 c5a7 b6bb
000000f0: 3314 053c 758b 8abb 572f deba d2ca 0abb
00000100: bc0c 46ba 4b83 35bc 28ef 70bb 4fb1 803b
00000110: 02b7 e4bb 450d 043b 1f4e 863a cd96 e53a
00000120: 8ff8 9a3b bf17 4cbc af6c 46ba 1acf 52bb
00000130: ebe6 f23b 4c2d 9cbb f75d c3bb d90e 163c
00000140: bcdc 1d3c aaf1 fa3b 67c6 5ebc e8d5 ff3b
00000150: 9085 8f3b ecef b7bb 6e79 193c 8bdc 6e3c
00000160: a88f c9bb 9a27 48bb 21e0 223c ab0f de3b
00000170: 9de7 bc3b 2a52 5fbc efca a13a 97d3 c2b9
00000180: 8d7d a3bb 01f2 3f3c 84b6 17bb 0474 2d3c
00000190: 17d8 d6bb 03c2 b03b 8048 723a 0272 89ba
000001a0: ef27 16bc dfb4 b8ba 9f0f 0f3b 2a97 3d3b
000001b0: 1514 85bb 1c38 3dbc 4ac0 a1bb 5ce3 be3a
000001c0: 47a7 01bb 069c 263b e0ec 203c dac3 bbbb
000001d0: 0a9b 24bb 13ba ea3b 51fd 05bc 7ff0 c6bb
000001e0: b305 3a3b bfe8 553c f727 ae3b 8554 69bb
000001f0: 0019 84ba 7b9b 5c3b bd71 983b f037 a7ba
00000200: 2823 253c 2ca2 9a3b 58e1 f7ba ddc1 7ebb
00000210: 739b 513b 68fc 813a 1777 0dbc 100e a4ba
00000220: 3540 f23b 4178 94bb 8120 053c a794 143b
00000230: 28ab 6e3c 41c3 a93b d053 dab8 abbc 403c
00000240: 409d b13b 17ae e6bb 8f69 523b 7f5f d83b
00000250: cbcd e93b 7592 83bc 0f78 e5bb 0fc2 04bc
00000260: ee54 b5ba d38c 5c3b ccb6 133c 4b23 82bb
00000270: 83c9 92bb 9ef4 84bb 73c9 1c3a 0909 3cbb
00000280: 6be2 94bb 88f3 b5bb 2fa6 683c b762 db3b
00000290: 23d5 fcbb dfef cdba 45a7 fa3b 421a e6bb
000002a0: df48 07bc 8f56 583c b80a 1eba 7363 1bbc
000002b0: 4cb5 8b3c 8f49 133c 0a76 6a3b e531 4fba
000002c0: 6ba3 e33a db92 eebb 0de9 c4bb 6bef 043c
000002d0: 7e87 0f3c f1b2 c3bb 87dd 46bb 72ae 48bb
000002e0: 9047 e73b bbbc b4bb b073 553a fb9f 753b
000002f0: 52ee 84bc e7de 0bbb c33c c23b e3a7 2f3c
00000300: ebef 1f3b 96ba a8bb fa73 203b dd81 7b3a
00000310: 0218 f6ba 6a12 86bb 6507 7cbb f1eb c83b
00000320: ff5a 4e3b 88ba 54bb 7240 d63a 129c 34bc
00000330: 374d 8c3b 6bc5 1dbb bb2c 623b 62c1 003c
00000340: 7050 ac3b 070f 853b afa6 febb 3588 53bb
00000350: a04a f23a f058 7bbb 658a 663b 0560 9ebb
00000360: abe5 293a 43f1 803a 65c6 17bb 6b9d 133c
00000370: e341 08bc 1fca 8d3b dfd3 9c3b 4b5d 37bc
00000380: 2220 0f3c 3328 e63a 8b80 08bc 1c44 0abc
00000390: ee35 8d3b 635e 8b3a f77a 983b 7d62 7a39
000003a0: 1572 613c 1117 3b3c 4f02 44bc 9f6e 05bc
000003b0: 9f88 663c 8f57 2b3b e733 4eba 681a cbb9
000003c0: 508c 563b e5de 293b e79f 5a3b 5f4e 1e3c
000003d0: 0dae a3bb afd6 b4ba 5be2 373c 2db1 f7ba
000003e0: 3b05 bf3b a814 783c 1829 7fbb cf61 f7bb
000003f0: 66c5 c3bb 73ab d53b 8413 20bc 69ba a8bb

network_body.linear_encoder.seq_layers.0.bias f4 [256]
0.0 0.0 0.0 0.0 0.0 0.0 0.0 0.0
0.0 0.0 0.0 0.0 0.0 0.0 0.0 0.0
0.0 0.0 0.0 0.0 0.0 0.0 0.0 0.0
0.0 0.0 0.0 0.0 0.0 0.0 0.0 0.0
0.0 0.0 0.0 0.0 0.0 0.0 0.0 0.0
0.0 0.0 0.0 0.0 0.0 0.0 0.0 0.0
0.0 0.0 0.0 0.0 0.0 0.0 0.0 0.0
0.0 0.0 0.0 0.0 0.0 0.0 0.0 0.0
0.0 0.0 0.0 0.0 0.0 0.0 0.0 0.0
0.0 0.0 0.0 0.0 0.0 0.0 0.0 0.0
0.0 0.0 0.0 0.0 0.0 0.0 0.0 0.0
0.0 0.0 0.0 0.0 0.0 0.0 0.0 0.0
0.0 0.0 0.0 0.0 0.0 0.0 0.0 0.0
0.0 0.0 0.0 0.0 0.0 0.0 0.0 0.0
0.0 0.0 0.0 0.0 0.0 0.0 0.0 0.0
0.0 0.0 0.0 0.0 0.0 0.0 0.0 0.0
0.0 0.0 0.0 0.0 0.0 0.0 0.0 0.0
0.0 0.0 0.0 0.0 0.0 0.0 0.0 0.0
0.0 0.0 0.0 0.0 0.0 0.0 0.0 0.0
0.0 0.0 0.0 0.0 0.0 0.0 0.0 0.0
0.0 0.0 0.0 0.0 0.0 0.0 0.0 0.0
0.0 0.0 0.0 0.0 0.0 0.0 0.0 0.0
0.0 0.0 0.0 0.0 0.0 0.0 0.0 0.0
0.0 0.0 0.0 0.0 0.0 0.0 0.0 0.0
0.0 0.0 0.0 0.0 0.0 0.0 0.0 0.0
0.0 0.0 0.0 0.0 0.0 0.0 0.0 0.0
0.0 0.0 0.0 0.0 0.0 0.0 0.0 0.0
0.0 0.0 0.0 0.0 0.0 0.0 0.0 0.0
0.0 0.0 0.0 0.0 0.0 0.0 0.0 0.0
0.0 0.0 0.0 0.0 0.0 0.0 0.0 0.0
0.0 0.0 0.0 0.0 0.0 0.0 0.0 0.0
0.0 0.0 0.0 0.0 0.0 0.0 0.0 0.0
00000000: 0000 0000 0000 0000 0000 0000 0000 0000
00000010: 0000 0000 0000 0000 0000 0000 0000 0000
00000020: 0000 0000 0000 0000 0000 0000 0000 0000
00000030: 0000 0000 0000 0000 0000 0000 0000 0000
00000040: 0000 0000 0000 0000 0000 0000 0000 0000
00000050: 0000 0000 0000 0000 0000 0000 0000 0000
00000060: 0000 0000 0000 0000 0000 0000 0000 0000
00000070: 0000 0000 0000 0000 0000 0000 0000 0000
00000080: 0000 0000 0000 0000 0000 0000 0000 0000
00000090: 0000 0000 0000 0000 0000 0000 0000 0000
000000a0: 0000 0000 0000 0000 0000 0000 0000 0000
000000b0: 0000 0000 0000 0000 0000 0000 0000 0000
000000c0: 0000 0000 0000 0000 0000 0000 0000 0000
000000d0: 0000 0000 0000 0000 0000 0000 0000 0000
000000e0: 0000 0000 0000 0000 0000 0000 0000 0000
000000f0: 0000 0000 0000 0000 0000 0000 0000 0000
00000100: 0000 0000 0000 0000 0000 0000 0000 0000
00000110: 0000 0000 0000 0000 0000 0000 0000 0000
00000120: 0000 0000 0000 0000 0000 0000 0000 0000
00000130: 0000 0000 0000 0000 0000 0000 0000 0000
00000140: 0000 0000 0000 0000 0000 0000 0000 0000
00000150: 0000 0000 0000 0000 0000 0000 0000 0000
00000160: 0000 0000 0000 0000 0000 0000 0000 0000
00000170: 0000 0000 0000 0000 0000 0000 0000 0000
00000180: 0000 0000 0000 0000 0000 0000 0000 0000
00000190: 0000 0000 0000 0000 0000 0000 0000 0000
000001a0: 0000 0000 0000 0000 0000 0000 0000 0000
000001b0: 0000 0000 0000 0000 0000 0000 0000 0000
000001c0: 0000 0000 0000 0000 0000 0000 0000 0000
000001d0: 0000 0000 0000 0000 0000 0000 0000 0000
000001e0: 0000 0000 0000 0000 0000 0000 0000 0000
000001f0: 0000 0000 0000 0000 0000 0000 0000 0000
00000200: 0000 0000 0000 0000 0000 0000 0000 0000
00000210: 0000 0000 0000 0000 0000 0000 0000 0000
00000220: 0000 0000 0000 0000 0000 0000 0000 0000
00000230: 0000 0000 0000 0000 0000 0000 0000 0000
00000240: 0000 0000 0000 0000 0000 0000 0000 0000
00000250: 0000 0000 0000 0000 0000 0000 0000 0000
00000260: 0000 0000 0000 0000 0000 0000 0000 0000
00000270: 0000 0000 0000 0000 0000 0000 0000 0000
00000280: 0000 0000 0000 0000 0000 0000 0000 0000
00000290: 0000 0000 0000 0000 0000 0000 0000 0000
000002a0: 0000 0000 0000 0000 0000 0000 0000 0000
000002b0: 0000 0000 0000 0000 0000 0000 0000 0000
000002c0: 0000 0000 0000 0000 0000 0000 0000 0000
000002d0: 0000 0000 0000 0000 0000 0000 0000 0000
000002e0: 0000 0000 0000 0000 0000 0000 0000 0000
000002f0: 0000 0000 0000 0000 0000 0000 0000 0000
00000300: 0000 0000 0000 0000 0000 0000 0000 0000
00000310: 0000 0000 0000 0000 0000 0000 0000 0000
00000320: 0000 0000 0000 0000 0000 0000 0000 0000
00000330: 0000 0000 0000 0000 0000 0000 0000 0000
00000340: 0000 0000 0000 0000 0000 0000 0000 0000
00000350: 0000 0000 0000 0000 0000 0000 0000 0000
00000360: 0000 0000 0000 0000 0000 0000 0000 0000
00000370: 0000 0000 0000 0000 0000 0000 0000 0000
00000380: 0000 0000 0000 0000 0000 0000 0000 0000
00000390: 0000 0000 0000 0000 0000 0000 0000 0000
000003a0: 0000 0000 0000 0000 0000 0000 0000 0000
000003b0: 0000 0000 0000 0000 0000 0000 0000 0000
000003c0: 0000 0000 0000 0000 0000 0000 0000 0000
000003d0: 0000 0000 0000 0000 0000 0000 0000 0000
000003e0: 0000 0000 0000 0000 0000 0000 0000 0000
000003f0: 0000 0000 0000 0000 0000 0000 0000 0000

network_body.linear_encoder.seq_layers.0.weight f4 [256, 99]
0.010734322 -0.07805248 0.035652686 0.032106753 0.056372095 0.017520724 0.17009565 0.04152344
0.057646528 -0.098326966 0.009447577 0.08597837 0.16862735 -0.030390348 -0.05313299 0.024188753
-0.001869323 0.016471203 0.011713802 -0.0703041 0.05716025 -0.16246255 0.010153631 -0.040586792
0.18969344 0.10153633 -0.046209954 0.013721773 0.043586813 0.15619451 0.1642648 -0.050209112
0.042952232 -0.08830526 0.19802819 0.04549283 0.01160794 0.12782452 -0.13024995 -0.02662641
-0.19099024 -0.14084893 -0.20467302 -0.07757923 0.0948409 -0.08981719 0.13465591 0.0051853224
-0.19685331 0.08611508 -0.06390938 0.0051133367 -0.028468924 -0.039148014 -0.075325 0.048171896
-0.0025841356 -0.10748703 0.18177497 0.09654862 0.05397719 0.09152874 -0.07977246 -0.099701606
-0.0159931 0.08328174 0.09764235 0.17789476 -0.20404156 -0.04912782 0.1036868 -0.03301424
-0.07911719 -0.014626578 0.09856949 0.018116025 0.13028522 0.100866586 0.11823005 -0.015487281
-0.024658151 -0.06888299 -0.115012415 -0.19581029 0.06719248 -0.016399443 0.046687894 0.010756575
-0.09607173 0.14081722 -0.06919037 0.11592867 -0.040165562 0.007313428 0.0034275043 -0.1357647
-0.044468902 -0.1565715 -0.016956681 -0.19522281 0.019024003 0.06882 -0.16398433 -0.17229556
0.031990703 -0.20270711 -0.08858543 -0.008248134 -0.035325818 0.088257186 0.064206496 0.0020345314
0.14896795 0.11790868 -0.14751971 0.0072979685 -0.18226355 -0.039890807 -0.060317036 -0.07353132
0.15258883 -0.088852845 -0.14111054 0.03675728 0.027306559 0.029112443 -0.10408764 0.08257529
0.18739435 0.06516422 -0.121367514 0.0037899627 0.010516156 -0.036978647 -0.063587315 0.031502433
0.027002241 -0.08093128 0.09003557 0.0012250958 -0.07045918 -0.012847527 -0.15923393 0.06321929
-0.0017187153 -0.022774976 -0.042003933 -0.031204477 0.22210078 0.111248545 0.15365681 -0.16935253
0.09823392 -0.15949748 0.00022992195 -0.030937474 0.19163261 -0.09312305 -0.03257869 -0.03173453
0.11628288 0.19730386 -0.11698206 0.039196815 0.099940374 -0.059695788 0.059020378 -0.1846627
0.0042524706 -0.24500169 0.05501111 0.07910463 -0.25086948 -0.024778698 0.09956227 -0.13409942
0.0365034 -0.019373668 -0.034377895 -0.085581265 -0.090147816 0.16047919 -0.06634752 0.22008187
-0.10231739 0.22206546 0.039015703 0.0144253615 0.06407318 0.11031744 -0.08395838 0.14355229
0.06996119 -0.1073057 0.058112558 0.035375666 0.10923612 0.011112873 0.040494185 -0.10279121
0.03465183 -0.16359715 0.023975756 -0.06841732 -0.19643956 -0.043905526 -0.22815987 0.02862037
0.12589101 -0.1145941 -0.038743142 -0.011354573 -0.12996161 -0.10845432 0.08309134 -0.09699781
-0.03608446 0.040849216 -0.16821373 -0.09838435 0.031211803 -0.039817017 0.10925844 -0.2071395
0.08438616 0.0955665 -0.04310175 0.11761603 0.0583983 0.083809674 -0.28162366 -0.100213334
0.011968747 -0.059234213 -0.0005452294 0.13930343 -0.17802566 -0.1218832 -0.07888894 -0.0072557987
-0.09923282 0.062351342 0.11560766 0.082539424 0.092414275 0.04785792 0.032053728 -0.016981913
-0.10736588 -0.047807403 0.0057085184 0.04034752 -0.066760294 -0.092769176 -0.055489976 0.2501266
00000000: 02df 2f3c fbd9 9fbd 8d08 123d 5f82 033d
00000010: 6de6 663d 9f87 8f3c 8e2d 2e3e 7c14 2a3d
00000020: c41e 6c3d a65f c9bd 03ca 1a3c 6d15 b03d
00000030: a6ac 2c3e 2ef5 f8bc faa1 59bd 7e27 c63c
00000040: 1204 f5ba 9eee 863c 3feb 3f3c 99fb 8fbd
00000050: de20 6a3d 955c 26be 6a5b 263c 563e 26bd
00000060: ff3e 423e 48f2 cf3d a646 3dbd 4ad1 603c
00000070: 1688 323d 74f1 1f3e 0835 283e 12a8 4dbd
00000080: aeee 2f3d 63d9 b4bd e7c7 4a3e b156 3a3d
00000090: 3b2f 3e3c 6ee4 023e 3e60 05be a11f dabc
000000a0: f292 43be b43a 10be ce95 51be dce1 9ebd
000000b0: f23b c23d 13f2 b7bd 3de3 093e a3e9 a93b
000000c0: ea93 49be 1a5d b03d ece2 82bd c78d a73b
000000d0: a937 e9bc ab59 20bd fe43 9abd e54f 453d
000000e0: 9a5a 29bb 2922 dcbd 3823 3a3e 48bb c53d
000000f0: 3017 5d3d 6c73 bb3d be5f a3bd 5b30 ccbd
00000100: f603 83bc 9e8f aa3d b6f8 c73d 0b2a 363e
00000110: 45f0 50be 413a 49bd bf59 d43d f139 07bd
00000120: 3108 a2bd 51a4 6fbc cdde c93d 0f68 943c
00000130: 7d69 053e 2493 ce3d 9922 f23d 5dbe 7dbc
00000140: e4ff c9bc 8612 8dbd a18b ebbd 7e82 48be
00000150: 369c 893d 2058 86bc ce3b 3f3d 583c 303c
00000160: 41c1 c4bd 6432 103e aeb3 8dbd 036c ed3d
00000170: a584 24bd 7ba5 ef3b fb9f 603b e705 0bbe
00000180: 0625 36bd 4754 20be bde8 8abc 7de8 47be
00000190: 3ad8 9b3c 80f1 8c3d 82eb 27be 3f6e 30be
000001a0: af08 033d 7492 4fbe 476c b5bd 2e23 07bc
000001b0: ceb1 10bd 2fc0 b43d b27e 833d c655 053b
000001c0: 0e8b 183e 1b7a f13d 680f 17be cc23 ef3b
000001d0: 4ca3 3abe 8b64 23bd ff0e 77bd 9797 96bd
000001e0: 3f40 1c3e 7bf8 b5bd 487f 10be cd8e 163d
000001f0: 01b2 df3c 387d ee3c e72b d5bd 3c1d a93d
00000200: 4ee4 3f3e d274 853d 888f f8bd 0661 783b
00000210: f54b 2c3c ec76 17bd 113a 82bd b208 013d
00000220: ce33 dd3c 4dbf a5bd 9264 b83d 6593 a03a
00000230: e74c 90bd 6f7e 52bc 380e 23be 1d79 813d
00000240: 8446 e1ba 9692 babc 510c 2cbd 88a0 ffbc
00000250: 636e 633e 47d6 e33d 3658 1d3e c06a 2dbe
00000260: de2e c93d 4f53 23be 3417 7139 9670 fdbc
00000270: 573b 443e 4cb7 bebd 3c71 05bd 11fc 01bd
00000280: b825 ee3d 060a 4a3e 4a94 efbd d78c 203d
00000290: 8aad cc3d 9283 74bd 5abf 713d 3818 3dbe
000002a0: 4f58 8b3b b9e1 7abe 5453 613d 9c01 a23d
000002b0: f771 80be b2fc cabc 4ee7 cb3d 5c51 09be
000002c0: 9784 153d 87b5 9ebc d6cf 0cbd 3b45 afbd
000002d0: 6b9f b8bd a854 243e 35e1 87bd 245d 613e
000002e0: c88b d1bd 2165 633e eece 1f3d 5a58 6c3c
000002f0: cd38 833d 1cee e13d 5ff2 abbd 5fff 123e
00000300: d047 8f3d 17c3 dbbd 6f07 6e3d 13e6 103d
00000310: 30b7 df3d c512 363c 3bdd 253d 3384 d2bd
00000320: 14ef 0d3d 0386 27be ce68 c43c 611e 8cbd
00000330: 7427 49be 48d6 33bd bea2 69be 4475 ea3c
00000340: 93e9 003e 50b0 eabd 21b1 1ebd 8808 3abc
00000350: a814 05be 4c1d debd cb2b aa3d caa6 c6bd
00000360: 4ccd 13bd 8251 273d 3840 2cbe bc7d c9bd
00000370: e5af ff3c 2b17 23bd e4c2 df3d 611c 54be
00000380: a7d2 ac3d 5fb8 c33d 768b 30bd ace0 f03d
00000390: 0e33 6f3d 68a4 ab3d fa30 90be a63c cdbd
000003a0: 9018 443c 939f 72bd baed 0eba 8fa5 0e3e
000003b0: 5c4c 36be e69d f9bd 8690 a1bd 0dc2 edbb
000003c0: 943a cbbd 1f64 7f3d b5c3 ec3d 6e0a a93d
000003d0: b243 bd3d ab06 443d c54a 033d a71d 8bbc
000003e0: a4e2 dbbd b2d1 43bd 860e bb3b 7143 253d
000003f0: 9fb9 88bd c4fd bdbd 7549 63bd 9810 803e

network_body.linear_encoder.seq_layers.2.bias f4 [256]
0.0 0.0 0.0 0.0 0.0 0.0 0.0 0.0
0.0 0.0 0.0 0.0 0.0 0.0 0.0 0.0
0.0 0.0 0.0 0.0 0.0 0.0 0.0 0.0
0.0 0.0 0.0 0.0 0.0 0.0 0.0 0.0
0.0 0.0 0.0 0.0 0.0 0.0 0.0 0.0
0.0 0.0 0.0 0.0 0.0 0.0 0.0 0.0
0.0 0.0 0.0 0.0 0.0 0.0 0.0 0.0
0.0 0.0 0.0 0.0 0.0 0.0 0.0 0.0
0.0 0.0 0.0 0.0 0.0 0.0 0.0 0.0
0.0 0.0 0.0 0.0 0.0 0.0 0.0 0.0
0.0 0.0 0.0 0.0 0.0 0.0 0.0 0.0
0.0 0.0 0.0 0.0 0.0 0.0 0.0 0.0
0.0 0.0 0.0 0.0 0.0 0.0 0.0 0.0
0.0 0.0 0.0 0.0 0.0 0.0 0.0 0.0
0.0 0.0 0.0 0.0 0.0 0.0 0.0 0.0
0.0 0.0 0.0 0.0 0.0 0.0 0.0 0.0
0.0 0.0 0.0 0.0 0.0 0.0 0.0 0.0
0.0 0.0 0.0 0.0 0.0 0.0 0.0 0.0
0.0 0.0 0.0 0.0 0.0 0.0 0.0 0.0
0.0 0.0 0.0 0.0 0.0 0.0 0.0 0.0
0.0 0.0 0.0 0.0 0.0 0.0 0.0 0.0
0.0 0.0 0.0 0.0 0.0 0.0 0.0 0.0
0.0 0.0 0.0 0.0 0.0 0.0 0.0 0.0
0.0 0.0 0.0 0.0 0.0 0.0 0.0 0.0
0.0 0.0 0.0 0.0 0.0 0.0 0.0 0.0
0.0 0.0 0.0 0.0 0.0 0.0 0.0 0.0
0.0 0.0 0.0 0.0 0.0 0.0 0.0 0.0
0.0 0.0 0.0 0.0 0.0 0.0 0.0 0.0
0.0 0.0 0.0 0.0 0.0 0.0 0.0 0.0
0.0 0.0 0.0 0.0 0.0 0.0 0.0 0.0
0.0 0.0 0.0 0.0 0.0 0.0 0.0 0.0
0.0 0.0 0.0 0.0 0.0 0.0 0.0 0.0
00000000: 0000 0000 0000 0000 0000 0000 0000 0000
00000010: 0000 0000 0000 0000 0000 0000 0000 0000
00000020: 0000 0000 0000 0000 0000 0000 0000 0000
00000030: 0000 0000 0000 0000 0000 0000 0000 0000
00000040: 0000 0000 0000 0000 0000 0000 0000 0000
00000050: 0000 0000 0000 0000 0000 0000 0000 0000
00000060: 0000 0000 0000 0000 0000 0000 0000 0000
00000070: 0000 0000 0000 0000 0000 0000 0000 0000
00000080: 0000 0000 0000 0000 0000 0000 0000 0000
00000090: 0000 0000 0000 0000 0000 0000 0000 0000
000000a0: 0000 0000 0000 0000 0000 0000 0000 0000
000000b0: 0000 0000 0000 0000 0000 0000 0000 0000
000000c0: 0000 0000 0000 0000 0000 0000 0000 0000
000000d0: 0000 0000 0000 0000 0000 0000 0000 0000
000000e0: 0000 0000 0000 0000 0000 0000 0000 0000
000000f0: 0000 0000 0000 0000 0000 0000 0000 0000
00000100: 0000 0000 0000 0000 0000 0000 0000 0000
00000110: 0000 0000 0000 0000 0000 0000 0000 0000
00000120: 0000 0000 0000 0000 0000 0000 0000 0000
00000130: 0000 0000 0000 0000 0000 0000 0000 0000
00000140: 0000 0000 0000 0000 0000 0000 0000 0000
00000150: 0000 0000 0000 0000 0000 0000 0000 0000
00000160: 0000 0000 0000 0000 0000 0000 0000 0000
00000170: 0000 0000 0000 0000 0000 0000 0000 0000
00000180: 0000 0000 0000 0000 0000 0000 0000 0000
00000190: 0000 0000 0000 0000 0000 0000 0000 0000
000001a0: 0000 0000 0000 0000 0000 0000 0000 0000
000001b0: 0000 0000 0000 0000 0000 0000 0000 0000
000001c0: 0000 0000 0000 0000 0000 0000 0000 0000
000001d0: 0000 0000 0000 0000 0000 0000 0000 0000
000001e0: 0000 0000 0000 0000 0000 0000 0000 0000
000001f0: 0000 0000 0000 0000 0000 0000 0000 0000
00000200: 0000 0000 0000 0000 0000 0000 0000 0000
00000210: 0000 0000 0000 0000 0000 0000 0000 0000
00000220: 0000 0000 0000 0000 0000 0000 0000 0000
00000230: 0000 0000 0000 0000 0000 0000 0000 0000
00000240: 0000 0000 0000 0000 0000 0000 0000 0000
00000250: 0000 0000 0000 0000 0000 0000 0000 0000
00000260: 0000 0000 0000 0000 0000 0000 0000 0000
00000270: 0000 0000 0000 0000 0000 0000 0000 0000
00000280: 0000 0000 0000 0000 0000 0000 0000 0000
00000290: 0000 0000 0000 0000 0000 0000 0000 0000
000002a0: 0000 0000 0000 0000 0000 0000 0000 0000
000002b0: 0000 0000 0000 0000 0000 0000 0000 0000
000002c0: 0000 0000 0000 0000 0000 0000 0000 0000
000002d0: 0000 0000 0000 0000 0000 0000 0000 0000
000002e0: 0000 0000 0000 0000 0000 0000 0000 0000
000002f0: 0000 0000 0000 0000 0000 0000 0000 0000
00000300: 0000 0000 0000 0000 0000 0000 0000 0000
00000310: 0000 0000 0000 0000 0000 0000 0000 0000
00000320: 0000 0000 0000 0000 0000 0000 0000 0000
00000330: 0000 0000 0000 0000 0000 0000 0000 0000
00000340: 0000 0000 0000 0000 0000 0000 0000 0000
00000350: 0000 0000 0000 0000 0000 0000 0000 0000
00000360: 0000 0000 0000 0000 0000 0000 0000 0000
00000370: 0000 0000 0000 0000 0000 0000 0000 0000
00000380: 0000 0000 0000 0000 0000 0000 0000 0000
00000390: 0000 0000 0000 0000 0000 0000 0000 0000
000003a0: 0000 0000 0000 0000 0000 0000 0000 0000
000003b0: 0000 0000 0000 0000 0000 0000 0000 0000
000003c0: 0000 0000 0000 0000 0000 0000 0000 0000
000003d0: 0000 0000 0000 0000 0000 0000 0000 0000
000003e0: 0000 0000 0000 0000 0000 0000 0000 0000
000003f0: 0000 0000 0000 0000 0000 0000 0000 0000

network_body.linear_encoder.seq_layers.2.weight f4 [256, 256]
-0.02107421 -0.09344045 0.076022804 -0.012021379 0.01010326 0.030491045 0.030571176 -0.01434608
0.07938481 -0.058158856 0.046473242 0.024303168 0.1098667 -0.022176579 -0.034186594 -0.035072938
0.122651495 0.06205303 0.016380947 0.009947812 -0.07623459 0.067412056 0.059602976 -0.0034443669
0.076881 -0.013032636 0.0112733 -0.11360606 0.06322416 0.022938302 -0.15712233 -0.045375817
0.046627447 0.027680594 -0.032698344 0.074073255 0.014260773 0.0057980865 -0.07657474 0.044312004
0.020315848 -0.06713657 0.032397933 0.022676187 0.039417792 0.022407837 0.021051694 -0.024815805
0.044832528 0.021477515 0.027899824 0.051507656 0.022076285 0.035542168 -0.05945772 0.061799385
0.03729093 0.015722016 -0.08247183 -0.0380514 0.12055942 0.024964053 0.012407141 0.007925513
0.02880932 -0.011188701 0.093063936 -0.0018192703 -0.019141931 0.036414336 0.07198686 0.046506163
0.0043848916 -0.09005396 0.06391898 -0.009154344 0.035478503 -0.067145474 0.044253036 -0.019625327
0.034604352 -0.042176902 0.019201506 -0.036178034 -0.11411114 0.037218142 0.034531556 0.03185946
0.024222752 0.10741197 0.022472493 0.018316003 -0.024119081 -0.055171356 0.047857385 0.0890238
0.03328166 -0.002260274 0.0412244 -0.0016457979 -0.0034104628 0.028744802 0.013039233 0.17726023
0.033936933 0.016524347 -0.0031774812 -0.08789667 -0.13096902 -0.01492797 0.07218318 0.0148797305
0.15352781 -0.034925472 -0.0065520913 0.048969343 -0.04658733 -0.04212733 -0.06209923 -0.043728605
-0.0012918278 -0.057685934 -0.0066603897 -0.0057816915 0.101009086 0.062964134 0.062838405 0.05862124
-0.020031165 -0.08071402 -0.035041254 0.08991028 0.049996726 0.043618836 -0.028576931 0.0022039237
0.10021301 0.12803343 0.11801054 -0.009169177 -0.087330855 0.027736463 -0.022279784 -0.06890339
-0.030346276 -0.084689796 0.055700496 0.08386872 0.055539403 0.025469044 0.0063184435 -0.15065987
0.115487315 0.115966335 -0.044507556 -0.101999685 -0.04193704 0.09924515 0.015716825 -0.061404407
-0.10131507 -0.02199941 -0.010363563 0.054235853 0.022561127 0.0020683492 -0.004055263 0.02150796
0.14205714 0.03414037 0.023549214 0.013703684 0.059221838 -0.039532673 0.0006107868 -0.01888117
-0.0147589985 -0.026873697 -0.037606064 -0.015204841 -0.05771287 0.007815213 -0.15953246 0.032102924
-0.12649871 0.058338568 0.014564548 -0.0505453 -0.032019936 -0.012830851 -0.03079927 0.0930114
-0.077730596 -0.020094035 0.13529989 -0.032375596 -0.060722105 -0.08021158 -0.075613394 0.06776283
0.050463535 0.0055752373 0.23499222 0.09420455 -0.035748877 -0.029428206 0.038000822 -0.16483657
-0.052064154 -0.0789901 0.16816878 -0.046926882 0.006729219 0.050069716 0.003022592 -0.052701216
-0.026538912 0.069774315 -0.05221301 -0.059344042 -0.042112473 -0.10657363 -0.010739424 0.030704027
-0.042233646 -0.086036354 -0.031006074 7.0919255e-06 -0.051984057 0.07840043 -0.05536559 -0.021158231
-0.01703136 -0.07848235 -0.018951865 -0.09719226 0.018212412 0.030053243 -0.03491712 -0.08035829
0.05920735 0.043080203 0.005542527 0.058492787 0.049468026 0.11464406 -0.08518479 -0.03954197
-0.06167699 -0.044735685 -0.046798147 -0.0005642251 0.13694197 0.025078742 -0.036412828 0.0058100335
00000000: d2a3 acbc b55d bfbd d8b1 9b3d 51f5 44bc
00000010: 2588 253c 5bc8 f93c 6770 fa3c d20b 6bbc
00000020: 8194 a23d fb37 6ebd ba5a 3e3d 7017 c73c
00000030: cb01 e13d a8ab b5bc 3e07 0cbd a4a8 0fbd
00000040: b530 fb3d 512b 7e3d 5631 863c 26fc 223c
00000050: e120 9cbd 550f 8a3d 4022 743d e3ba 61bb
00000060: c973 9d3d d686 55bc a6b3 383c 4baa e8bd
00000070: ab7b 813d 1be9 bb3c ade4 20be fedb 39bd
00000080: 6cfc 3e3d 6ac2 e23c b3ee 05bd b8b3 973d
00000090: 04a6 693c e0fd bd3b 38d3 9cbd 8180 353d
000000a0: 6c6d a63c e67e 89bd b2b3 043d 69c3 b93c
000000b0: 8d74 213d a490 b73c 9a74 ac3c 844a cbbc
000000c0: 50a2 373d 9df1 af3c 2c8e e43c b1f9 523d
000000d0: 53d9 b43c aa94 113d f089 73bd 5a21 7d3d
000000e0: 60be 183d 75cb 803c fee6 a8bd c9db 1bbd
000000f0: dbe7 f63d 6a81 cc3c 5247 4b3c 03da 013c
00000100: 8601 ec3c d050 37bc 4e98 be3d 9574 eeba
00000110: 8acf 9cbc 3327 153d d96d 933d 3f7d 3e3d
00000120: 23af 8f3b 366e b8bd f4e7 823d 1afc 15bc
00000130: e851 113d 9183 89bd ac42 353d 4bc5 a0bc
00000140: 4bbd 0d3d b0c1 2cbd 7a4c 9d3c 6b2f 14bd
00000150: 1ab3 e9bd 0d72 183d f670 0d3d 117f 023d
00000160: cb6e c63c cffa db3d 3c18 b83c 710b 963c
00000170: 6195 c5bc 5cfb 61bd 1b06 443d 1c52 b63d
00000180: 5a52 083d 1b21 14bb ebda 283d d0b7 d7ba
00000190: 1282 5fbb 387a eb3c 82a2 553c b583 353e
000001a0: 7401 0b3d 115e 873c 4a3d 50bb 2b03 b4bd
000001b0: be1c 06be 7294 74bc c6d4 933d 1dca 733c
000001c0: 6536 1d3e 030e 0fbd edb2 d6bb 1494 483d
000001d0: 5bd2 3ebd b58d 2cbd c35b 7ebd c41c 33bd
000001e0: 8c52 a9ba 1648 6cbd 663f dabb 5874 bdbb
000001f0: dadd ce3d 57f3 803d 6cb1 803d d31c 703d
00000200: 6618 a4bc 644d a5bd 6b87 0fbd e222 b83d
00000210: 5ec9 4c3d aaa9 323d 2b1a eabc b46f 103b
00000220: 7b3c cd3d 321b 033e 83af f13d 513a 16bc
00000230: 85da b2bd 9437 e33c 1884 b6bc 381d 8dbd
00000240: c198 f8bc d871 adbd 3426 643d 5dc3 ab3d
00000250: 497d 633d 75a4 d03c f20a cf3b 9546 1abe
00000260: 9d84 ec3d c27f ed3d 8e4d 36bd 36e5 d0bd
00000270: 2cc6 2bbd 0b41 cb3d 92c0 803c 3083 7bbd
00000280: 477e cfbd 1b38 b4bc efcb 29bc 6a26 5e3d
00000290: 1dd2 b83c 248d 073b 03e2 84bb 7631 b03c
000002a0: 6d77 113e c6d6 0b3d 48ea c03c 6b85 603c
000002b0: 9992 723d 03ed 21bd 351d 203a afac 9abc
000002c0: bacf 71bc 3a26 dcbc d108 1abd ba1d 79bc
000002d0: 5564 6cbd 610b 003c 7a5c 23be 5b7e 033d
000002e0: e188 01be 6cf4 6e3d 24a0 6e3c 9708 4fbd
000002f0: 5627 03bd 7d38 52bc c04e fcbc c37c be3d
00000300: 3831 9fbd 3f9c a4bc 0e8c 0a3e 469c 04bd
00000310: beb7 78bd f845 a4bd 32db 9abd 3dc7 8a3d
00000320: dab2 4e3d 7bb0 b63b cda1 703e 51ee c03d
00000330: 6a6d 12bd 6c13 f1bc c0a6 1b3d ebca 28be
00000340: 3941 55bd 90c5 a1bd 7034 2c3e 6736 40bd
00000350: c880 dc3b e715 4d3d ae16 463b 3bdd 57bd
00000360: 2268 d9bc d6e5 8e3d 4fdd 55bd bd12 73bd
00000370: 217e 2cbd 4643 dabd 69f4 2fbc 0387 fb3c
00000380: 30fd 2cbd d433 b0bd 7300 febc 2df7 ed36
00000390: 3ced 54bd 6890 a03d 07c7 62bd 0754 adbc
000003a0: 5a85 8bbc 5bbb a0bd f140 9bbc bc0c c7bd
000003b0: 3232 953c 3832 f63c 4105 0fbd e392 a4bd
000003c0: 6883 723d de74 303d 169e b53b 2296 6f3d
000003d0: fc9e 4a3d 81ca ea3d 5d75 aebd c3f6 21bd
000003e0: 03a1 7cbd c43c 37bd 6aaf 3fbd 81e8 13ba
000003f0: 843a 0c3e ef71 cd3c 9e25 15bd 1862 be3b

network_body.vector_processors.0.normalizer.running_mean f4 [99]
0.0 0.0 0.0 0.0 0.9882353 0.9882353 0.08235294 0.011764706
0.047058824 0.0 0.0 0.0 0.08235294 0.011764706 0.047058824 0.0
0.0 0.0 0.08235294 0.023529412 0.07058824 0.0 0.0 0.0
0.08235294 0.023529412 0.07058824 0.0 0.0 0.0 0.11764707 0.03529412
0.16470589 0.0 0.0 0.0 0.12941177 0.023529412 0.14117648 0.0
0.0 0.0 0.07058824 0.047058824 0.24705884 0.0 0.0 0.0
0.16470589 0.047058824 0.22352941 0.0 0.0 0.0 0.11764707 0.07058824
0.21176471 0.0 0.0 0.0 0.16470589 0.07058824 0.18823531 0.0
0.0 0.0 0.10588236 0.047058824 0.28235295 0.0 0.0 0.0
0.15294118 0.03529412 0.2 0.0 0.0 0.0 0.14117648 0.07058824
0.21176471 0.0 0.0 0.0 0.2 0.07058824 0.21176471 0.0
0.0 0.0 0.9882353 0.0 0.0 0.78429633 0.35621667 0.0
-0.9881962 0.006240966 0.0
00000000: 0000 0000 0000 0000 0000 0000 0000 0000
00000010: fdfc 7c3f fdfc 7c3f a9a8 a83d c1c0 403c
00000020: c1c0 403d 0000 0000 0000 0000 0000 0000
00000030: a9a8 a83d c1c0 403c c1c0 403d 0000 0000
00000040: 0000 0000 0000 0000 a9a8 a83d c1c0 c03c
00000050: 9190 903d 0000 0000 0000 0000 0000 0000
00000060: a9a8 a83d c1c0 c03c 9190 903d 0000 0000
00000070: 0000 0000 0000 0000 f2f0 f03d 9190 103d
00000080: a9a8 283e 0000 0000 0000 0000 0000 0000
00000090: 8584 043e c1c0 c03c 9190 103e 0000 0000
000000a0: 0000 0000 0000 0000 9190 903d c1c0 403d
000000b0: fefc 7c3e 0000 0000 0000 0000 0000 0000
000000c0: a9a8 283e c1c0 403d e5e4 643e 0000 0000
000000d0: 0000 0000 0000 0000 f2f0 f03d 9190 903d
000000e0: d9d8 583e 0000 0000 0000 0000 0000 0000
000000f0: a9a8 283e 9190 903d c2c0 403e 0000 0000
00000100: 0000 0000 0000 0000 dad8 d83d c1c0 403d
00000110: 9190 903e 0000 0000 0000 0000 0000 0000
00000120: 9d9c 1c3e 9190 103d cdcc 4c3e 0000 0000
00000130: 0000 0000 0000 0000 9190 103e 9190 903d
00000140: d9d8 583e 0000 0000 0000 0000 0000 0000
00000150: cdcc 4c3e 9190 903d d9d8 583e 0000 0000
00000160: 0000 0000 0000 0000 fdfc 7c3f 0000 0000
00000170: 0000 0000 a5c7 483f 0862 b63e 0000 0000
00000180: 6dfa 7cbf 0481 cc3b 0000 0000
