MLagents/results/hb_01/Mario/Mario-468.onnx (onnx, 352528 bytes, 16 tensors)

122 f4 [69]
000000 be 22 3d 3d be 22 3d 3d 3c aa 85 3d 3c aa 85 3d
       0.04617571 0.04617571 0.0652661 0.0652661
000010 42 c5 9f 3e be 22 3d 3d be 22 3d 3d be 22 3d 3d
       0.31205183 0.04617571 0.04617571 0.04617571
000020 42 c5 9f 3e be 22 3d 3d be 22 3d 3d be 22 3d 3d
       0.31205183 0.04617571 0.04617571 0.04617571
000030 73 62 9e 3e f7 aa 85 3d be 22 3d 3d be 22 3d 3d
       0.30934486 0.065267496 0.04617571 0.04617571
000040 73 62 9e 3e f7 aa 85 3d be 22 3d 3d be 22 3d 3d
       0.30934486 0.065267496 0.04617571 0.04617571
000050 73 62 9e 3e f7 aa 85 3d be 22 3d 3d be 22 3d 3d
       0.30934486 0.065267496 0.04617571 0.04617571
000060 73 62 9e 3e f7 aa 85 3d be 22 3d 3d be 22 3d 3d
       0.30934486 0.065267496 0.04617571 0.04617571
000070 90 fa 9c 3e f7 aa 85 3d be 22 3d 3d be 22 3d 3d
       0.30659914 0.065267496 0.04617571 0.04617571
000080 90 fa 9c 3e f7 aa 85 3d be 22 3d 3d be 22 3d 3d
       0.30659914 0.065267496 0.04617571 0.04617571
000090 94 f2 90 3e 36 90 a3 3d be 22 3d 3d be 22 3d 3d
       0.28310072 0.079864904 0.04617571 0.04617571
0000a0 65 25 97 3e 36 90 a3 3d be 22 3d 3d be 22 3d 3d
       0.29520717 0.079864904 0.04617571 0.04617571
0000b0 94 f2 90 3e 99 9c e6 3d be 22 3d 3d be 22 3d 3d
       0.28310072 0.112603374 0.04617571 0.04617571
0000c0 69 18 94 3e 75 ae bc 3d be 22 3d 3d be 22 3d 3d
       0.28924873 0.092129625 0.04617571 0.04617571
0000d0 8f fa 9c 3e ec dc 04 3e be 22 3d 3d be 22 3d 3d
       0.3065991 0.129749 0.04617571 0.04617571
0000e0 65 25 97 3e ce bc d2 3d be 22 3d 3d be 22 3d 3d
       0.29520717 0.10289918 0.04617571 0.04617571
0000f0 3c aa 85 3d be 22 3d 3d be 22 3d 3d 4b 48 34 3f
       0.0652661 0.04617571 0.04617571 0.7042281
000100 21 00 0f 3f be 22 3d 3d 82 aa 85 3d a3 70 3e 3d
       0.5585957 0.04617571 0.065266624 0.046494137
000110 be 22 3d 3d
       0.04617571

action_model._discrete_distribution.branches.0.bias f4 [3]
000000 00 00 00 00 00 00 00 00 00 00 00 00
       0.0 0.0 0.0

action_model._discrete_distribution.branches.0.weight f4 [3, 256]
000000 67 70 ff ba c3 ab 9d 3a 15 91 e1 3a ff 78 e2 3b
       -0.0019488455 0.0012029338 0.0017209376 0.0069113965
000010 63 a9 1c 3c 7a e7 a3 3b 5f 15 f0 39 23 7a 39 bb
       0.009561869 0.0050019594 0.0004579229 -0.002830156
000020 a7 55 66 3b 3f f5 f2 ba a7 ff aa 3b db 7c 4f b7
       0.0035146268 -0.0018536224 0.0052184644 -1.2367232e-05
000030 bb d7 8a 3a 37 75 1f 3a d9 44 1a ba 3e a5 be bb
       0.0010592857 0.0006082835 -0.0005884893 -0.0058180382
000040 03 22 75 bc 4c 78 23 bc 63 0a c5 3a 7b 59 da 3b
       -0.014961722 -0.0099774115 0.0015033003 0.006663499
000050 48 43 f0 bb 2b 63 7d b8 53 75 77 bb 9f 56 4c 3c
       -0.0073322393 -6.0412258e-05 -0.003775914 0.012471824
000060 26 e8 3e 3b 47 4e c9 bb 60 1c d4 ba 0f fc 6d bc
       0.002913007 -0.0061433646 -0.0016182773 -0.0145254275
000070 dd 1d 3c bb dd f4 28 3a f2 e2 22 3c d4 fd 10 3c
       -0.0028704323 0.0006445179 0.009941803 0.00884958
000080 07 39 5b 3c bc ba 06 3c 43 f4 7e 3a ad e9 97 ba
       0.013380296 0.008223232 0.0009725729 -0.0011590027
000090 2b b2 71 ba 22 81 6b 3b eb 8d c5 bb 47 15 a7 3a
       -0.00092199695 0.0035935123 -0.006028881 0.001274743
0000a0 df 64 8f 3b 29 36 05 bb ba 9c d3 3b 2f 6a 3b ba
       0.0043760384 -0.0020326471 0.0064578922 -0.00071493065
0000b0 5f 51 12 39 58 bf 4c 3b 4b f7 2d 3b 4b bd a0 3c
       0.00013953958 0.003124198 0.0026545103 0.019621512
0000c0 38 ac 63 3c f7 da 12 3c 0b 08 f7 3b 04 88 24 bc
       0.013896041 0.008963338 0.0075388006 -0.010042194
0000d0 ea 71 e3 bb 99 c8 29 bb 07 92 83 bb 87 50 7a 3a
       -0.00694107 -0.002590692 -0.0040152106 0.00095487427
0000e0 62 80 91 bb cb 8b a1 3a 82 ac 93 bb f3 6a fc 3b
       -0.0044403533 0.0012324987 -0.0045066485 0.007703179
0000f0 1b 80 3c 3b 71 a6 1d 3c 7f 3f 08 3b 7b 0b bf 3b
       0.002876288 0.009622202 0.00207898 0.005830226
000100 88 b5 59 bb db 99 fe bb 93 e1 cc bb 85 4f cb 3b
       -0.0033219773 -0.007769806 -0.0062524765 0.006204548
000110 cd 5c 63 bb 12 98 50 3a db da d6 bb 32 3e 66 bb
       -0.0034692765 0.00079572306 -0.0065568513 -0.0035132286
000120 40 22 34 bb 2b 66 6a 3b 9f 00 a3 3a 10 ef f6 bb
       -0.0027486235 0.0035766463 0.0012436098 -0.0075358227
000130 be 34 1e 3b ff ae 69 bb b3 f4 39 3a e4 97 3b 3a
       0.0024140324 -0.0035657284 0.0007093653 0.00071561174
000140 5f 40 78 ba 5c 6b a7 b9 74 07 94 bb 0a 0d 76 3b
       -0.0009470041 -0.0003193271 -0.00451749 0.0037544393
000150 6a a6 07 3c 47 7b 58 3a fb 59 15 bc 43 2d c7 bb
       0.008279422 0.0008258116 -0.009115691 -0.0060783937
000160 53 18 11 3b 41 ed 8f 3b bf 0d 04 bc d6 32 c7 ba
       0.0022139743 0.0043922965 -0.008059918 -0.0015197645
000170 ba fc 1a bb 4b 5a 6b 3b 8a 76 c5 bb ad 52 cd 3a
       -0.0023649172 0.0035911973 -0.006026094 0.0015664898
000180 bc b6 89 3b 1d f6 4f 3b 9c e4 26 3c 85 cf e2 3b
       0.004202692 0.0031732388 0.010186341 0.006921711
000190 d3 17 b3 bb 33 5e 50 3b 28 b7 ff 3b 52 9d 45 bb
       -0.0054654866 0.0031794428 0.0078038163 -0.0030153585
0001a0 f8 b3 63 b8 58 0f 9a bb 37 0f 81 3b db ac df ba
       -5.4288626e-05 -0.004701536 0.0039385813 -0.0017065065
0001b0 97 97 90 bb 67 81 60 3b 1c 70 26 bb 5a fa ea ba
       -0.004412602 0.0034256817 -0.0025396412 -0.0017927394
0001c0 ea bb 59 3c 28 6c f7 ba ab 8d e9 bb fd 09 c3 ba
       0.013289431 -0.0018876838 -0.007127484 -0.0014880296
0001d0 20 63 f6 3b cc 9f a9 3b 6a a6 76 ba 54 d9 33 3b
       0.007519141 0.00517652 -0.0009408953 0.002744277
0001e0 40 4e f6 bb bb 17 e3 bb b7 d1 bb 3b 72 07 ed 3a
       -0.0075166523 -0.006930319 0.005731787 0.0018083884
0001f0 3f bc 3a 3c 63 dc 06 bb c6 29 21 bc 34 63 9f ba
       0.01139742 -0.0020578138 -0.00983662 -0.0012160302
000200 31 14 8f 3b 8b 71 1e bb d5 38 ca 3b 60 8b 93 ba
       0.0043664207 -0.0024176564 0.0061713257 -0.0011256747
000210 78 cf cd 36 f7 c8 17 3b af 7a 28 bb 4f a4 eb 3a
       6.1336286e-06 0.0023160556 -0.002570789 0.0017978045
000220 c0 2b 66 bb 5b 97 40 bb be 34 89 3b 77 03 91 3a
       -0.0035121292 -0.002938709 0.0041871956 0.0011063655
000230 17 ec 40 3c bb e7 fa ba 83 22 2c bb 52 5c 06 3c
       0.011775038 -0.0019142547 -0.0026265688 0.008200722
000240 23 95 00 3b ef 8a aa bb 7f dd 15 bb 17 7a 5a 3b
       0.0019620142 -0.0052045505 -0.0022867618 0.0033336931
000250 0a e3 64 b9 de 11 28 3c db 51 21 3a 02 dd 1a 3b
       -0.00021828353 0.010258166 0.000615386 0.0023630266
000260 07 d4 86 bb 09 9b 3c 3b 7a a4 4a 39 fe 85 1e 3c
       -0.004114631 0.0028778932 0.00019325493 0.009675501
000270 bc ac 00 3b 2b 78 3c bb b7 12 2e b9 97 27 19 bc
       0.0019634208 -0.002875815 -0.00016600905 -0.009347818
000280 b8 a5 76 bb 76 f9 8c 3b 70 16 5d 3c 59 3f 3b b9
       -0.0037635397 0.004302199 0.013494119 -0.00017857309
000290 39 45 af ba 7f 85 39 bc 83 4a 13 3a ff e2 9b ba
       -0.001337207 -0.011323332 0.0005618708 -0.0011893212
0002a0 6e 1a 81 3b 17 1a 8b 3b 91 e1 36 bb cd 73 df bb
       0.0039399182 0.0042450535 -0.0027905444 -0.0068192245
0002b0 c3 e8 ae 3a 38 d7 14 3a 0d ce a3 bb aa 63 3b 3b
       0.0013344515 0.0005677822 -0.0049989284 0.002859334
0002c0 7d 8a 65 bb e2 d3 b7 3a 81 dd 8b bc 67 b3 ad 3b
       -0.0035025172 0.0014024938 -0.017073395 0.0053009274
0002d0 55 ef 69 bb 0f 6e bc 3b 4b ac ab bb 17 bd 46 bc
       -0.0035695632 0.0057504247 -0.005239045 -0.0121300435
0002e0 e8 87 74 bb 1b 2a 17 3c 97 6b b6 bb 6e fb 24 3c
       -0.0037312452 0.009226347 -0.005567025 0.010069711
0002f0 7c a4 c9 39 f3 8a 75 3c bf 38 9f bb 39 91 99 3b
       0.00038460258 0.014986741 -0.0048590596 0.0046865013
000300 77 2c 4b 3b 8d 44 e1 3b 1b ff d9 bb ef 7d bd 3b
       0.0031001845 0.006874627 -0.0066527254 0.0057828347
000310 ef d9 d3 3a 36 b6 9c 3b 07 d1 1c bb 18 40 73 3b
       0.0016162972 0.0047824634 -0.00239283 0.003711706
000320 36 14 a6 bb 83 19 d8 3b bf 91 9b bb 5b ba 00 bb
       -0.0050683273 0.006594838 -0.004747599 -0.0019642327
000330 4a 71 c3 3a bf a2 5c bc 77 0d d7 3b e2 73 f2 3b
       0.0014911082 -0.013466536 0.0065628844 0.007399068
000340 44 5f b8 ba 2f 79 39 3b c8 9a 0a bc 8b 82 a5 bb
       -0.0014066477 0.002830099 -0.008459754 -0.0050509623
000350 a2 15 23 bb 0a b8 f9 ba 47 61 b0 3b 77 e4 39 ba
       -0.002488472 -0.001905204 0.00538269 -0.0007091234
000360 97 ae 33 3a 58 2a 91 3c dd e6 e8 bb e5 ff 22 bb
       0.0006854324 0.017720386 -0.007107599 -0.0024871763
000370 cd 95 48 bc db 39 85 3b 33 d4 05 3b ea 1e d4 ba
       -0.012242747 0.004065735 0.002042067 -0.001618353
000380 fa 5a 5e 3a 28 5d 22 3b 0b 16 92 3a c2 94 12 3c
       0.00084821845 0.0024774764 0.0011145485 0.008946599
000390 83 e1 c9 3b 0c d5 13 bc 90 08 5b bb 2b a6 6e bb
       0.0061609163 -0.009022962 -0.0033421852 -0.0036414962
0003a0 c3 58 8e b8 cd 9b c1 3a b2 ba a0 3b 52 b4 3b bb
       -6.787621e-05 0.0014771164 0.0049050683 -0.0028641415
0003b0 e3 d9 0c bc 3b 28 c2 b9 6b e6 ea bb 14 8a 33 bc
       -0.00859687 -0.00037032538 -0.0071685812 -0.010958213
0003c0 1b c4 ca 3b 5c a2 ba 3b f7 e7 42 3b fd 3f bd 3b
       0.0061879284 0.0056956243 0.0029740313 0.0057754503
0003d0 d7 dc 59 3b 62 ca 2e bc fa f7 6f 3b 30 43 2f 3c
       0.0033243203 -0.010668369 0.0036616311 0.010697171
0003e0 f1 2b 80 ba 1d ff d1 3b 8f 28 df bb e3 94 0f bb
       -0.000977872 0.0064085857 -0.006810255 -0.0021908812
0003f0 26 45 85 bc 8f 64 02 3c 00 95 b2 3b 4f a0 3b 3a
       -0.016268324 0.007958545 0.005449891 0.0007157372

action_model._discrete_distribution.branches.1.bias f4 [2]
000000 00 00 00 00 00 00 00 00
       0.0 0.0

action_model._discrete_distribution.branches.1.weight f4 [2, 256]
000000 67 5f 26 bc dd 2f 52 3b 3a 21 10 3c 00 ea 3d bb
       -0.010154582 0.0032071986 0.008796984 -0.0028978586
000010 eb fe eb 3b 1a 75 98 3b a9 c6 90 b8 bd 13 6d bb
       0.0072020194 0.0046526315 -6.9034584e-05 -0.0036175095
000020 77 ed be bb 55 ad bc bb 09 0b c2 bb 83 dc ed bb
       -0.005826648 -0.0057579675 -0.0059217256 -0.007258953
000030 d4 55 10 3b b1 c2 86 bb 87 9f 3a b9 fa 68 70 bb
       0.0022023814 -0.0041125645 -0.00017797771 -0.0036683665
000040 ff 34 10 bb 39 e9 30 bc 85 1d e9 3b cb 6e 11 3b
       -0.0022004244 -0.010797792 0.0071141147 0.0022191282
000050 1b 87 4a 3b 48 0a 97 ba f9 23 1a 3c 3f 72 94 3b
       0.0030903283 -0.001152345 0.009407991 0.0045302208
000060 e6 a0 90 b9 2a 85 9b bb 09 b2 a1 3b 90 de 6e ba
       -0.000275857 -0.004746099 0.0049345535 -0.0009112144
000070 ce 14 34 bc 45 d4 52 3b 07 66 1a 3c 93 e4 bf b8
       -0.010991288 0.003216998 0.009423739 -9.150165e-05
000080 67 66 ac bb 27 5c cc bb fb 71 1c 3b b5 6b 57 bc
       -0.0052612307 -0.0062365714 0.0023871649 -0.013148238
000090 f7 ea 95 3b 3b 55 5f bc 10 6a 27 3b c4 77 29 bb
       0.004575129 -0.01363116 0.0025545396 -0.002585874
0000a0 23 99 ef bb 98 ec 5e 3b 8b 6a 20 bc c3 3a 35 3c
       -0.0073119565 0.0034015533 -0.009791027 0.011061373
0000b0 3b ac 12 3c 4b fd a7 3b e2 ad 6e bb 4f b6 73 bc
       0.008952196 0.0051266304 -0.003641956 -0.014875009
0000c0 cd 9c e5 bb 53 08 32 3c 48 59 4c 39 27 cd 43 3c
       -0.0070072175 0.010866242 0.00019488216 0.011950768
0000d0 77 6c 47 3b a0 75 f0 38 97 e9 e9 bb 33 53 66 bb
       0.003042964 0.00011466001 -0.007138442 -0.0035144805
0000e0 2d e2 fc bb ef c3 c4 bb e8 2e 51 bb 38 4a 2e 3c
       -0.007717392 -0.0060048024 -0.0031918827 0.010637812
0000f0 a3 97 e5 ba 87 01 d0 3b 4d b2 e3 3a 9f 32 05 bc
       -0.0017516505 0.0063478383 0.0017371863 -0.008129745
000100 bd 67 1a bc 95 af 2b bb a5 d1 5a bc e7 cd 83 bb
       -0.009424147 -0.0026197184 -0.013355647 -0.004022348
000110 1b f0 3f 3c 9b 83 9f 3b 26 15 c8 3b 93 97 0f bb
       0.01171496 0.0048679835 0.0061060367 -0.0021910414
000120 f5 5f 83 bb 47 d2 be bb 9d 32 f1 3b 47 ac 6a 3c
       -0.0040092417 -0.005823407 0.00736077 0.014323301
000130 d3 50 1d 3c 5e 52 a5 3b f2 23 ee 3b b0 07 4d 3c
       0.0096017895 0.0050452193 0.0072674686 0.01251404
000140 9f af f1 bb a0 16 0b ba 4f d2 89 3b 6e 82 83 bb
       -0.007375672 -0.00053058006 0.004205979 -0.004013351
000150 c1 4b 01 bc 6f 6a 63 bb 66 79 cb b9 a0 15 83 3b
       -0.007891596 -0.003470089 -0.00038809626 0.0040003806
000160 6a e8 a5 3a 9e 69 bd b9 88 e6 06 3c 82 eb eb b9
       0.0012657766 -0.0003612758 0.008233674 -0.0004499816
000170 ef de a8 bb 6e 9f c5 b9 55 32 36 3c e8 6d e9 3a
       -0.005153529 -0.00037693552 0.0111203985 0.0017809244
000180 38 f9 f5 3b bd ef 86 b8 70 30 58 3c a3 27 7b bb
       0.007506516 -6.434273e-05 0.013195142 -0.0038323186
000190 57 bb a3 bb cd 29 d3 bb e9 4c 1b bc 57 eb db ba
       -0.004996698 -0.006444192 -0.009478786 -0.0016778511
0001a0 67 f4 19 3b 6d 1f d4 3b fa 66 0b bb cf 6c b8 bb
       0.0023491622 0.006473473 -0.0021271096 -0.0056282054
0001b0 0a 36 e2 ba 68 27 2f bc 47 1d 0f b9 a4 c6 21 3c
       -0.0017258537 -0.0106905475 -0.0001364845 0.00987402
0001c0 f2 97 cc 3b 33 a1 d1 bb 68 e0 6b bb 1f 57 1b 3c
       0.006243699 -0.0063973903 -0.003599191 0.0094812205
0001d0 44 cd 88 ba c5 e9 3a 3b 1e c3 90 3b 60 5f a8 bb
       -0.001043715 0.0028520685 0.004417791 -0.0051383227
0001e0 c0 9a 7f 3b bf 8d 6d 3b 0c 7d b0 3b fb 25 fe ba
       0.003900215 0.0036247817 0.0053860005 -0.0019389981
0001f0 f8 a4 57 bb 58 c6 04 bc 53 8f 62 37 98 45 7d bb
       -0.0032904726 -0.008103929 1.350402e-05 -0.0038646217
000200 15 65 2f bc 98 75 fe bb 05 a3 6b 3b a7 a9 49 bb
       -0.010705252 -0.007765483 0.0035955322 -0.0030771287
000210 d4 be 0a bc c3 22 4e 3b fb 00 31 3b bd 04 a8 3b
       -0.0084683485 0.0031453825 0.002700864 0.005127518
000220 cb 1c ad bb f7 12 56 3b 32 02 85 bb 00 d5 06 3b
       -0.0052829734 0.0032665113 -0.0040590996 0.0020573735
000230 b5 11 c1 3b dc 6f 4c 3a be af 36 3b 89 84 28 bc
       0.0058920034 0.0007798651 0.0027875747 -0.010285505
000240 a7 66 96 bb 03 03 25 3c 33 bc 20 bb a7 d3 20 3c
       -0.004589874 0.010071519 -0.0024526238 0.009816087
000250 59 38 41 3b e0 b0 18 3a 28 0a da bb 87 8e 02 3b
       0.0029483049 0.0005824696 -0.0066540428 0.0019921379
000260 fa ed 91 3b 88 46 4d 3b df 1e 1d 3c e9 c9 9d 3a
       0.004453418 0.0031322557 0.00958988 0.0012038323
000270 05 82 ee ba 8f ad 38 3b 38 14 2f bb 3a 84 d8 bb
       -0.0018196708 0.002817962 -0.0026714932 -0.0066075595
000280 13 a9 35 bb 1e 43 ac bb 40 7b da bb 58 f2 a2 bb
       -0.0027719184 -0.0052570244 -0.0066675246 -0.0049727373
000290 5b 63 88 3b 12 4e 0c 3c 46 0e 30 bb 9f aa 67 3a
       0.0041622347 0.008563535 -0.0026863976 0.0008837375
0002a0 cd ac 53 bc 8e 8e c4 3b 2b 5c e4 3b 6b ba c4 3b
       -0.012919617 0.005998439 0.006968995 0.006003668
0002b0 b4 a9 40 bb 04 0f ab 3a 63 a4 53 ba 83 63 f9 3b
       -0.0029398026 0.001305074 -0.0008073507 0.0076107397
0002c0 5f 3a 39 bb d6 10 c8 bb 70 ae fc 3b ed 23 69 3b
       -0.0028263552 -0.0061055226 0.0077112243 0.0035574392
0002d0 47 f9 46 3b cf 2b 13 bc cb 95 0c 3b 8c dc 3d 3b
       0.0030360983 -0.008982613 0.0021451588 0.0028970568
0002e0 fe 61 ac 3b 12 c8 3d bc 06 3a b4 bb aa cc 3f 3b
       0.005260705 -0.011583345 -0.005500081 0.0029266276
0002f0 87 bd f4 bb 9b 2a 75 3b 23 08 04 3c 73 e1 b3 3b
       -0.0074688825 0.0037409428 0.008058581 0.005489522
000300 bb e7 ee bb 6b 70 3f bc 43 29 20 ba c2 67 d2 3b
       -0.007290808 -0.011684517 -0.0006109664 0.0064210603
000310 2c 36 07 3c 0d 55 6e 3a da 31 03 bc df 46 f1 3b
       0.008252662 0.0009091653 -0.008007491 0.007363185
000320 7b 7c 98 3b 2f 83 e6 3b cf be b9 3b 2a e1 f3 ba
       0.004653511 0.0070346813 0.005668498 -0.0018606533
000330 2e e0 15 bb b3 a9 b5 3a eb b1 70 ba 4b 8a dc 3a
       -0.0022869217 0.0013859778 -0.0009181785 0.0016825882
000340 38 e6 30 b9 43 0f 3c 3b ef 4a 02 3c 62 2d 77 3c
       -0.00016870431 0.002869562 0.007952436 0.015086504
000350 82 45 a6 b8 bb c9 bd 3b 0c 1f 1e bb 29 cf 08 bc
       -7.928444e-05 0.0057918704 -0.0024127392 -0.008350172
000360 9f df d0 3b 6c 1e a1 bb 42 31 e0 3b cb 1b dc 3b
       0.006374314 -0.0049169566 0.0068418095 0.0067171804
000370 e5 71 ed bb a0 b0 11 bc 8f 16 fa bb 5c 01 9b 3a
       -0.0072462433 -0.008892208 -0.0076320837 0.0011825967
000380 3b 12 dd bb 1d 8c d3 3a 9c a0 ae 3b 53 79 eb ba
       -0.006746558 0.001613978 0.0053292047 -0.0017965235
000390 81 4d 99 3c d3 8b 44 3c ab 66 1d bc 5e c2 36 3b
       0.018713715 0.011996227 -0.0096069975 0.0027886848
0003a0 dc 04 24 bc a4 a5 32 3b 5f 01 1e 3b 7a e8 58 bc
       -0.010010924 0.0027259374 0.0024109704 -0.0132390205
0003b0 48 17 ef bb 08 41 f8 ba 2d 99 39 bb 21 b4 19 3c
       -0.0072964765 -0.0018940279 -0.002832006 0.009381325
0003c0 1f cf 9c 3b 97 62 35 3b 1a 7f 91 3b 60 04 8f 3b
       0.004785433 0.0027677172 0.0044402005 0.004364535
0003d0 64 44 a6 ba 43 ca da bb 61 30 b1 bb 48 8e d0 ba
       -0.0012685177 -0.0066769435 -0.0054073785 -0.0015911544
0003e0 f5 fc b3 b8 ff 6d 27 bc f6 96 02 bc 2a 7b 74 ba
       -8.582502e-05 -0.010219096 -0.007970562 -0.0009326214
0003f0 a3 64 92 bb a2 1a 90 3a a7 eb 9e 3b 5f e5 60 ba
       -0.0044675632 0.0010994265 0.0048498693 -0.0008579101

action_model._discrete_distribution.branches.2.bias f4 [2]
000000 00 00 00 00 00 00 00 00
       0.0 0.0

action_model._discrete_distribution.branches.2.weight f4 [2, 256]
000000 82 8b 91 bb 08 de 66 3b d8 a0 df ba 46 4f 8f 3b
       -0.0044416795 0.0035227556 -0.0017061485 0.004373464
000010 f5 24 fd 3a 33 85 01 bc 80 f3 dc ba 42 9d 2a 3b
       0.0019313382 -0.007905292 -0.0016857237 0.0026033674
000020 a1 54 9d b9 2b 84 af bb af a3 8c 3a c0 8f 74 3b
       -0.00030008427 -0.005356332 0.0010729934 0.0037317127
000030 1a a5 65 b9 17 4a af 3b 58 48 95 3b b8 d2 18 3c
       -0.00021900647 0.0053494084 0.004555743 0.009327583
000040 65 91 1e bb 24 0a 1d ba 1a b0 d6 b9 f8 b5 13 3b
       -0.0024195549 -0.0005990586 -0.00040948467 0.0022538882
000050 b2 e4 25 bc 9a 1d 4c 3b aa dd 86 3b a9 22 1b 3b
       -0.010125326 0.0031145574 0.00411578 0.0023671782
000060 03 6a 57 3b 6e 4a c7 3b 4c 25 9b ba 68 2c c0 bb
       0.0032869584 0.0060818708 -0.0011836677 -0.0058646686
000070 67 a5 51 3a 72 99 f1 bb e7 fc 32 3b 42 3f d5 3b
       0.0007997364 -0.0073730284 0.0027311386 0.006507785
000080 6a 6f c4 39 a6 0a 47 bc af e7 d6 3b 15 b6 71 bb
       0.00037467043 -0.012148535 0.0065583806 -0.003688221
000090 c0 09 62 3b 01 3d 17 3b 92 ee df 3b 66 dd 2e bb
       0.0034490675 0.0023077133 0.0068338597 -0.0026682257
0000a0 70 88 64 3b 73 b1 13 bc b0 9e 6f ba 97 68 19 bb
       0.0034871362 -0.009014475 -0.0009140773 -0.0023408288
0000b0 fc 61 1c bb eb 66 6f bc a8 3a cc ba 8f 7d 8c bb
       -0.0023862114 -0.01461194 -0.0015581446 -0.0042874287
0000c0 f4 ba 09 3c 14 f0 bf bb 47 57 a4 ba 25 77 6f ba
       0.0084063895 -0.005857477 -0.0012538218 -0.00091348804
0000d0 ba 5d 0f bc bf 63 ef bb ea 93 9f 3b 33 db ca ba
       -0.0087503735 -0.007305592 0.0048699277 -0.0015476703
0000e0 b6 61 ba 3b e8 98 fd ba ac 19 3a bc a0 5f dc bb
       0.0056879176 -0.0019347938 -0.01135866 -0.0067252666
0000f0 7a 7b 66 3b 6d 11 3b 3b dc 90 2c 3b 14 72 c4 3a
       0.0035168813 0.0028544322 0.002633146 0.0014987611
000100 a3 5c 34 bc 5b ef 95 bb 55 89 a0 3b e4 2a 32 3b
       -0.011008414 -0.0045756525 0.0048991838 0.002718621
000110 f0 1a 2a bb 83 05 3c 3b 80 a7 59 3c 6c 83 06 ba
       -0.0025955997 0.0028689809 0.013284564 -0.0005131278
000120 db f7 53 3b 19 22 93 bb 28 fa 31 3c 03 41 46 bc
       0.0032343778 -0.0044901487 0.010862865 -0.012100461
000130 30 1b 33 bc 83 2b a9 3a 0b 55 26 ba c8 6c 76 3b
       -0.010931775 0.0012906644 -0.000634507 0.003760146
000140 d7 a6 dc 3a ef 80 21 bc 75 bb f9 3b 2f 9e bb bb
       0.001683439 -0.0098574 0.0076212236 -0.005725644
000150 07 5f ee bb b7 26 aa 3b 0b 13 a6 bb ae e6 03 3c
       -0.0072745117 0.0051926035 -0.005068188 0.008050604
000160 ec 5b 4a bb df 9d 13 3b 7b ae 89 3a dd 23 6b ba
       -0.0030877544 0.0022524518 0.001050427 -0.00089698826
000170 f0 2e f2 3b 3c 95 0a 3c f7 e5 98 bb 0d 13 93 bb
       0.0073908493 0.008458432 -0.004666086 -0.004488355
000180 ed 20 5f 3a d2 9c 7a ba ab 3d 04 3a cc e5 02 bc
       0.0008511681 -0.0009560111 0.00050445896 -0.007989358
000190 9b da d5 bb 07 af ef ba 52 1e d4 3b 4b a9 b9 bb
       -0.006526304 -0.0018286415 0.006473341 -0.0056659332
0001a0 73 fc 0f ba d8 4c 7c 3b ff a0 72 bc 30 3e 08 bc
       -0.0005492635 0.003849795 -0.014808892 -0.008315608
0001b0 a3 b2 4a 3b ca a8 2c 3b fe 95 80 3c d5 b7 4e 3b
       0.003092923 0.0026345723 0.015696522 0.0031542678
0001c0 b0 35 d2 bb b4 9b 0c bb f2 02 4b 3c a8 b8 5a 3c
       -0.0064150915 -0.002145511 0.012390839 0.01334969
0001d0 79 c9 c0 3b b7 e0 84 bb 2b ce 11 3c 58 48 64 3b
       0.0058833924 -0.0040551084 0.008899252 0.003483316
0001e0 ed ad 7c 3c 3b 39 b9 3b 9b 83 c6 bb 7a 82 56 3a
       0.0154223265 0.0056525744 -0.006058169 0.00081828947
0001f0 a0 bb c1 bb 3d 1c 5c 3b e5 44 82 b9 8b 31 c9 bb
       -0.005912259 0.0033586167 -0.00024846863 -0.006139939
000200 53 63 88 bb e8 83 7f bb 9f 29 c6 3b 30 2b 02 3b
       -0.004162231 -0.0038988534 0.006047442 0.0019862168
000210 d5 d5 b3 ba 12 07 73 3b 9b 9b 47 bb b7 b5 5f bb
       -0.0013720343 0.0037083072 -0.0030457738 -0.003413541
000220 bb 81 2b 3c ba 5c bf 3b f0 06 85 bb be 9c 92 3b
       0.010467942 0.0058399113 -0.004059665 0.0044742515
000230 55 98 cd 3b 7b 7a 65 bb d2 97 6e bb fa ae 61 ba
       0.006274263 -0.003501563 -0.003640641 -0.00086091424
000240 d4 b7 27 bb d4 12 15 3c f5 b9 43 bc 23 74 0c bc
       -0.0025591748 0.009098727 -0.011946191 -0.008572611
000250 1d 8e 78 bc bf 70 e9 bb d3 27 98 b9 cf b2 f3 3b
       -0.015170601 -0.007124036 -0.0002902137 0.007437087
000260 71 b5 8f 3b df c4 22 bc c9 bc 86 ba d5 1e de ba
       0.004385643 -0.009934633 -0.0010279651 -0.0016946445
000270 da df 61 3b 25 60 75 bb 28 63 25 3a c0 ab da 3b
       0.0034465701 -0.003744134 0.0006309026 0.006673306
000280 e0 5f fc bb df 3a 26 3b c4 0b 07 bc b6 1c 89 bb
       -0.007701859 0.002536468 -0.008242551 -0.004184331
000290 5c b1 31 bb 22 21 23 bb 4d 84 57 ba 8b 4b 89 bb
       -0.002711377 -0.0024891575 -0.00082213135 -0.0041899136
0002a0 81 d8 35 bc 63 99 76 3a ac 00 11 bb 73 8b 09 3b
       -0.011098982 0.00094070117 -0.0022125645 0.002098766
0002b0 cb 8d b4 3b 36 0e 05 3c ff 54 ad 3b a9 0c 07 3c
       0.005510067 0.008121064 0.0052896733 0.0082427645
0002c0 1a 23 1c 3b fb 29 db 3a 53 07 07 3c bf 98 36 bb
       0.0023824633 0.0016720885 0.008241492 -0.002786204
0002d0 16 42 83 bb 55 8c 61 39 05 49 f1 3a f7 11 1c bb
       -0.004005681 0.0002150995 0.0018408602 -0.0023814419
0002e0 e9 00 c4 3b c1 80 9b bb ff 03 11 3b 26 3a 89 ba
       0.005981554 -0.0047455733 0.0022127626 -0.00104696
0002f0 73 bb bb bb 70 ec 5d ba 18 26 d6 3b 64 15 bd 3b
       -0.005729133 -0.0008465713 0.006535303 0.005770372
000300 2d b7 3d bb f4 09 97 3b 7a 5d b4 ba cc df c3 b9
       -0.0028948293 0.004609341 -0.0013760768 -0.0003736004
000310 ab 18 89 bb 09 ff 43 bb 6d 3c 9d 3b 97 42 9e bb
       -0.004183849 -0.0029906651 0.004798463 -0.0048297155
000320 65 76 4c 3b f1 07 34 b9 6f 9e 9c ba ae f7 02 bc
       0.0031198498 -0.00017169096 -0.0011949072 -0.007993622
000330 bb b0 bc 3b f6 6e b5 bb 1c 10 c8 b8 46 9a 19 3b
       0.0057583726 -0.005536909 -9.539744e-05 0.0023437901
000340 1c b4 18 3c 17 be cd ba 33 53 0f ba 10 a3 e6 3a
       0.009320285 -0.001569691 -0.0005467415 0.0017596204
000350 42 15 21 bc 12 ad 03 ba 3c 45 82 bb 63 f1 cd ba
       -0.009831728 -0.0005023043 -0.0039755385 -0.0015712198
000360 4b 7e c5 3b 81 ed 88 39 bb 96 1f bc c3 43 19 3b
       0.006027018 0.00026116896 -0.009740527 0.0023386336
000370 4a 26 df 3b be c1 90 bb 75 5c 05 bb 53 75 2f bb
       0.0068099843 -0.004417627 -0.0020349298 -0.0026772812
000380 b9 fa 02 bc 35 ef 2b bb 10 12 f9 3b a9 4d 20 bc
       -0.007994347 -0.0026235108 0.00760103 -0.009784141
000390 f7 80 af bb 74 38 a9 3b f3 d2 dd bb 08 df dc bb
       -0.00535595 0.0051642004 -0.006769532 -0.0067404546
0003a0 47 cb d0 bb ca 44 aa 3b 42 2c ce ba 5b f9 e8 b9
       -0.006371889 0.0051961886 -0.0015729743 -0.00044436273
0003b0 5c 70 14 3b 83 e8 57 bb ad e4 19 39 a5 0b 86 bb
       0.002264998 -0.0032944984 0.00014676405 -0.0040907436
0003c0 5d 34 5e bb 6d 51 1c ba 67 25 38 b9 98 6e 58 bb
       -0.0033905723 -0.0005963061 -0.00017561541 -0.0033024903
0003d0 0b 5a aa bb 0d 3b ad 3b 7f 7a 62 3b ce 2b b0 3b
       -0.0051987222 0.0052865804 0.0034557877 0.0053763157
0003e0 9d 83 d8 3a aa 4e 7e bc a9 0b a6 bb a0 9a 72 b9
       0.0016518716 -0.015521685 -0.005067308 -0.00023136521
0003f0 ca db a9 ba f8 0a 9c ba 2a 40 0e 3c 27 5b 20 bb
       -0.0012959179 -0.0011905124 0.00868229 -0.0024468394

action_model._discrete_distribution.branches.3.bias f4 [2]
000000 00 00 00 00 00 00 00 00
       0.0 0.0

action_model._discrete_distribution.branches.3.weight f4 [2, 256]
000000 30 b0 f9 bb b5 8d 41 bb 52 a2 b6 ba a1 6b 29 3b
       -0.00761988 -0.0029533927 -0.0013933873 0.0025851505
000010 0a 4f 0a bb ae 1b bf 3b e3 93 a1 3b f5 50 06 3c
       -0.002110424 0.005832157 0.0049309595 0.008198013
000020 1a f4 c4 3b ca 44 4a bb fb e3 83 3b 7a 2b fc 3a
       0.0060105445 -0.0030863755 0.00402498 0.0019239031
000030 b0 6d 3f bb 9e 7d 43 3b 93 1c b8 ba 2b b5 6d 3b
       -0.0029209666 0.0029829512 -0.0014046602 0.0036271315
000040 e1 37 1c 3b 2b 78 da bb 58 79 d8 bb af 77 8f bb
       0.0023837017 -0.006667157 -0.006606262 -0.004378281
000050 ce 49 11 3c aa 61 4d 39 6d 2f 6e ba 2d 50 01 3c
       0.008867694 0.00019586706 -0.00090860465 0.007892651
000060 68 3d 05 bc 8f 37 2e 3b 41 82 01 3c 49 69 a7 3a
       -0.008132316 0.0026583408 0.00790459 0.0012772466
000070 98 01 64 3b 43 b1 17 bb 66 b7 3c bb f7 0b 02 3c
       0.003479099 -0.0023146428 -0.0028795837 0.007937423
000080 75 e7 37 3c fb a5 69 bc d7 63 38 3b 47 71 9e 3a
       0.011224617 -0.014260764 0.002813568 0.0012088203
000090 0f c0 7f bb a9 b0 3f 3c 63 ac 34 bc 95 42 26 3a
       -0.0039024388 0.011699834 -0.011027428 0.0006342319
0000a0 b7 99 04 bc 20 3a 68 bb 0e 18 cc bb 54 17 a9 bb
       -0.008093289 -0.0035435036 -0.0062284535 -0.0051602516
0000b0 4f 46 b7 3b fb 5b 01 3c 3a c4 28 bc 8e b6 81 3a
       0.0055930982 0.007895465 -0.01030069 0.0009896324
0000c0 fb 57 60 3b 6f 99 a8 3b 13 fe b2 b8 84 6e bc 3b
       0.0034232128 0.005145244 -8.5350264e-05 0.005750479
0000d0 23 7f 8a bb e7 82 47 bc 62 d3 4f 3b b8 5f 5a bb
       -0.0042265817 -0.012177206 0.0031711687 -0.0033321213
0000e0 04 26 8c 3b dd 37 90 3b da 23 00 3c 5f 30 12 3c
       0.0042769928 0.0044011907 0.007821048 0.008922665
0000f0 c3 a1 1c bc 87 52 ab bc 85 fc 04 bc 71 ea 15 3c
       -0.009560051 -0.020913376 -0.008116846 0.0091501335
000100 b5 d4 0c bb be 91 aa 3b a3 b4 96 3b 03 64 d4 ba
       -0.0021489088 0.005205362 0.0045991703 -0.0016204122
000110 e7 99 9e 3b ef 69 f9 ba 6e 4e 01 bc 5f f0 4e bb
       0.004840124 -0.0019028763 -0.007892234 -0.0031576378
000120 5c a3 0e 3c b3 17 40 3c 24 09 8c bb ba d5 61 ba
       0.00870594 0.0117244 -0.0042735506 -0.00086149166
000130 ab e4 88 3b 4b 75 b9 3b 6b 64 40 bc 05 00 e7 b9
       0.00417765 0.0056597344 -0.0117426915 -0.00044059768
000140 56 0e 3f 3b b0 8a 4f 3b fb 18 7b 3b a7 1f ea ba
       0.0029152832 0.0031668358 0.003831445 -0.0017862216
000150 ec e3 17 3c cf c8 ec 3b ad cd 02 3c 35 6f f0 ba
       0.009270649 0.0072260867 0.007983607 -0.0018343689
000160 f5 47 54 3b ca e5 5d bb 23 f3 1e 3c 0f 70 90 bb
       0.0032391523 -0.0033858889 0.009701523 -0.0044078897
000170 72 f2 d7 3b 27 93 21 bc 0a e8 d9 ba 60 42 73 ba
       0.006590181 -0.009861744 -0.0016624939 -0.0009279605
000180 db 98 b7 bb d3 ea 05 bc a5 d4 11 3a 4b 33 a8 bb
       -0.0056029386 -0.008173662 0.00055629975 -0.0051330677
000190 a4 29 9a bc 4c e2 b7 ba 09 2f 9f bb 8b 4b ba bb
       -0.018818684 -0.0014029234 -0.004857902 -0.005685275
0001a0 1d a4 93 ba 1f 62 97 3b ff a0 2d 3b 3e 99 3b bb
       -0.001126412 0.0046198512 0.0026493666 -0.0028625275
0001b0 c3 06 d3 3a f3 91 a7 ba 75 d9 b2 bb cf 22 25 3c
       0.0016100038 -0.0012784585 -0.005458052 0.0100791
0001c0 bf 93 00 bc 40 fd 39 bc 44 7f 45 bc 37 cc 44 bb
       -0.007847725 -0.011351883 -0.012054268 -0.0030028948
0001d0 77 ad 11 3c 99 62 8f ba 8f c4 40 3c 67 d0 a6 bb
       0.008891455 -0.0010939419 0.011765613 -0.0050907615
0001e0 b8 97 86 3a cf bd d2 bb 9b 73 84 3b 8e 40 bb 3b
       0.0010268604 -0.0064313184 0.0040421016 0.0057144826
0001f0 e3 c5 63 3b 87 3f 80 3b 57 98 5f bb 05 b1 9d bb
       0.00347554 0.003913823 -0.0034117901 -0.004812362
000200 12 4b 2a 3a 9b 4a 1e 3a 5b 44 e5 3b bb 73 d5 bb
       0.00064961717 0.0006038339 0.006996674 -0.0065140403
000210 70 b6 e3 3b 7a 52 75 bb 53 ee cf bb 4d c3 91 bb
       0.0069492385 -0.0037433193 -0.006345549 -0.0044483305
000220 98 48 66 bb 5a da 8d bb 4d 01 30 3a e8 a5 40 3c
       -0.0035138484 -0.004329008 0.0006714061 0.011758305
000230 d0 58 78 bb a7 40 8a 3b 89 7e 14 3b 7d b0 8b ba
       -0.0037894733 0.004219133 0.0022658429 -0.0010657456
000240 21 71 a7 3b 97 2b f3 3b c5 11 f6 3a 24 86 b2 bb
       0.0051099216 0.007420968 0.0018773606 -0.0054481197
000250 df b6 72 3b 5b 95 0c 3b b7 f5 00 3c 17 00 90 3b
       0.003703527 0.0021451327 0.007871083 0.004394542
000260 45 af de ba 0a 93 c8 bb 12 b2 94 3b 47 7c 9e bb
       -0.001698949 -0.006121044 0.004537829 -0.0048365924
000270 ed 1c 7e ba 12 cc 17 3c 5f 14 fc bb 3a 43 c6 bb
       -0.00096936413 0.009264963 -0.007692858 -0.0060504945
000280 50 a9 f5 3b 56 81 83 bc 8f e3 bc 3b 28 3b 03 3c
       0.0074969903 -0.016052883 0.005764432 0.008009709
000290 55 33 2a 3b 18 fb cc ba 01 e4 93 bb 20 c3 e9 3a
       0.0025970538 -0.0015638797 -0.004513264 0.0017834641
0002a0 36 68 19 3b 27 44 e2 3b 6f 14 33 bc 4c d5 15 3c
       0.0023408062 0.006905097 -0.010930165 0.009145092
0002b0 55 83 67 3b 95 8c b6 ba 6d 2e 98 3b f7 8e 30 39
       0.0035326083 -0.0013927395 0.0046442063 0.00016837927
0002c0 d7 8c 79 bb 85 54 5c ba 4b b8 3d 3b 55 b2 65 bb
       -0.0038078332 -0.00084049284 0.0028948958 -0.003504892
0002d0 4c 6c 2c bb 9e 4e 17 bb 7a e7 ec 3b c7 cf 00 bb
       -0.0026309667 -0.002308763 0.0072297426 -0.0019655095
0002e0 c4 b4 9c 3b fb 97 37 3c a8 92 59 3c a3 7e 0c bc
       0.004782291 0.011205669 0.0132795945 -0.008575114
0002f0 6c 09 03 bc 84 17 0d 3c e3 2f be ba 15 74 cb bb
       -0.007997852 0.008611564 -0.0014510121 -0.0062089064
000300 37 ef a3 bb 09 05 c8 3a f7 14 3b 3c da 9d 2c 3c
       -0.005002882 0.001526029 0.011418573 0.010535682
000310 36 f3 28 bc 38 ea a0 ba 0e bd 99 bb 7b 2f de 3b
       -0.010311892 -0.0012276834 -0.0046917265 0.0067805625
000320 2b 9f 5c bb 9f 9e 16 bc a7 0d 23 3b c2 89 7f bb
       -0.0033664207 -0.009193092 0.0024879964 -0.0038992022
000330 50 d3 83 3a 7a 2c 82 3c d2 e7 44 bc 50 1b f3 ba
       0.0010057483 0.015890349 -0.012018161 -0.0018547568
000340 4d a8 41 3b 55 c6 b7 ba d6 02 9d bb 57 de d2 3b
       0.0029549778 -0.00140209 -0.004791598 0.0064351964
000350 ff 03 22 37 f0 47 dd 3b cd d8 30 3b 97 ec 9d bb
       9.656883e-06 0.0067529604 0.0026984692 -0.0048194635
000360 e2 bf 0c 3c 20 bc d8 3b 53 af 3b 3a 1e 3f 17 bb
       0.00859067 0.006614223 0.0007159609 -0.0023078392
000370 da 9e 77 ba 63 13 d3 bb 35 c8 6b bc 6f cd 8c ba
       -0.0009445973 -0.00644152 -0.014390995 -0.0010742376
000380 9b 71 9a ba c5 ad 63 ba 37 7a 03 3c 1d d0 1b 3c
       -0.0011783125 -0.00086852565 0.008024744 0.009510067
000390 68 d0 0c bc 68 0f 63 bc 1b bc fe 3b f1 c4 0f bc
       -0.00859461 -0.013858654 0.0077738888 -0.008774982
0003a0 e4 28 9b bb 6a 53 02 3c 86 9a 8d 3c ba f7 3b bb
       -0.004735099 0.007954458 0.017285597 -0.0028681592
0003b0 6d 1e 53 bb 72 1a de ba bf 62 13 3c be 82 c5 bb
       -0.003221418 -0.0016945137 0.008995711 -0.0060275486
0003c0 37 7e f9 bb 18 d4 f7 38 e2 06 d1 bb 6b 4b 82 3c
       -0.007613923 0.00011817383 -0.0063789943 0.015905103
0003d0 b4 d1 39 3a 30 9c d9 3a 6a 94 4b 3b 08 b9 75 3b
       0.0007088438 0.0016602334 0.0031063803 0.003749432
0003e0 a5 19 d9 ba db df 7f 3a 1f ea b1 bb e2 8e ff ba
       -0.0016563429 0.0009760835 -0.0054295207 -0.0019497538
0003f0 9f 6e 82 3b 6e 86 3a 3b 7f 76 25 bc b5 3f b1 3a
       0.003980472 0.0028461474 -0.010099052 0.0013523014

action_model._discrete_distribution.branches.4.bias f4 [2]
000000 00 00 00 00 00 00 00 00
       0.0 0.0

action_model._discrete_distribution.branches.4.weight f4 [2, 256]
000000 e4 04 10 bb 53 4a 61 3b 6f dc 22 3b 8f cf c0 bb
       -0.0021975571 0.0034376576 0.0024850627 -0.005884118
000010 6b a0 4f bb 5a c1 92 bb be 4c 13 3c 88 0d bc bb
       -0.003168131 -0.0044786157 0.008990465 -0.0057389177
000020 18 8b 95 3a d0 36 43 3c ca 8b b0 bb 28 3e ce bb
       0.0011409251 0.011914924 -0.005387758 -0.0062940307
000030 f5 c9 11 3b 7b 58 1e 3b 2a 57 97 bb cc f0 ab bb
       0.002224562 0.0024161625 -0.004618545 -0.005247211
000040 60 3e ba bb 0f 2c 10 3b 85 b9 8a bb 2c 79 be ba
       -0.005683705 0.0021998917 -0.0042335414 -0.0014531962
000050 70 3e ce 3b e4 5a 82 bb 6a 20 ee bb e7 09 0a 3c
       0.006294064 -0.00397812 -0.0072670477 0.008425212
000060 60 b9 24 3b c3 1a a0 3b f0 b2 15 3b ba 45 f7 3a
       0.0025134906 0.0048860027 0.002284225 0.0018865385
000070 f2 42 02 bb c9 4c bf bb 07 3c 1b bc 53 b9 8a bb
       -0.0019876328 -0.005838011 -0.009474761 -0.004233518
000080 77 3f cd bb c0 ad 85 bb e2 98 7c 3c f0 bf 75 bc
       -0.006263669 -0.0040795505 0.0154173095 -0.014999375
000090 c3 e3 0c 3c e6 63 1f bc df 99 f0 bb 28 fd de 3b
       0.0085992245 -0.0097284075 -0.0073425616 0.006805081
0000a0 87 d0 40 3b cb 8c a8 3b cc c0 b1 ba f0 83 fb 3b
       0.0029421167 0.005143737 -0.0013561486 0.0076756403
0000b0 17 f9 43 bb 3b 33 8d bb e0 6f ff bb c7 dd cf bb
       -0.0029903108 -0.0043090857 -0.007795319 -0.0063435766
0000c0 8d d1 0c 3c 60 12 8d bb 55 75 40 3b cc 7b b7 bb
       0.008594883 -0.004305169 0.002936681 -0.0055994745
0000d0 45 cb 7c bb aa 59 f5 3a e8 8e 53 bc 86 40 43 bb
       -0.0038573307 0.0018718739 -0.0129124895 -0.0029793098
0000e0 f7 ba 8e 3b a9 3f 4b bb 3f 87 84 3b 6b 13 05 bc
       0.004355784 -0.0031013286 0.004044443 -0.008122305
0000f0 ab 29 1b 3c e5 9c be bb ee 46 b0 3b cd 8d 49 bc
       0.009470384 -0.005817043 0.005379549 -0.012301874
000100 63 48 89 3b 38 c9 b2 38 f3 d9 cb 3b ff e5 df bb
       0.0041895374 8.525181e-05 0.00622105 -0.0068328376
000110 3b 68 41 bc 5a e1 a6 ba 4f 38 83 3c 7a 67 0c 3c
       -0.011804636 -0.0012731955 0.016018061 0.008569593
000120 0d 09 03 3b ab 9c 17 bc cb 81 42 bb 8f 3c b7 3a
       0.0019994408 -0.009253661 -0.0029679413 0.001397984
000130 ce 70 34 3b 60 d6 0c bb 33 1b e9 ba cf 42 d0 bb
       0.0027533057 -0.0021490082 -0.0017784595 -0.0063556205
000140 97 b1 86 3b a2 ea 72 bc ef 8e c7 3b b1 70 89 3a
       0.004110526 -0.014826449 0.006090037 0.0010485855
000150 d3 95 c6 bb 37 e2 c4 bb 2f 8d 56 bc 1e 89 cb 3a
       -0.006060341 -0.006008412 -0.013095184 0.0015528535
000160 29 51 0f bc b3 ed da bb e7 64 33 3a ee 6f 94 bb
       -0.008747377 -0.006681168 0.0006843344 -0.0045299446
000170 d3 2d 54 3a 77 b8 a7 bb 5e 2b 27 bc 05 0b e1 bb
       0.00080939865 -0.0051184255 -0.010203211 -0.0068677687
000180 5b 67 c5 3a 9a 64 d3 bb df d8 de 3a 1f 49 83 3b
       0.001506071 -0.0064512016 0.0017001888 0.0040065194
000190 73 c5 d0 bb d5 ab c4 3b 8d f6 db bb c8 3e 9f 3b
       -0.006371194 0.0060019293 -0.0067127408 0.004859779
0001a0 72 e8 79 bc 5f 8e 9e bb 5b 36 fc 3b a2 67 56 3a
       -0.015253173 -0.0048387493 0.0076969094 0.00081788946
0001b0 2d 74 7e ba 33 33 99 ba 08 69 5d 3b 28 c7 8b 39
       -0.00097066426 -0.0011688232 0.0033784527 0.0002666053
0001c0 52 48 cc bb fb 06 27 3a 00 b3 95 3b f7 25 6e bc
       -0.006234207 0.00063715846 0.0045684576 -0.014535419
0001d0 ff de 15 3b 2b aa a6 3b bf 4a c8 3b 27 f1 1f ba
       0.0022868512 0.0050862036 0.006112426 -0.0006101303
0001e0 86 11 8f bb a2 f1 8b bb 6a 2c 57 3a 67 2c eb 39
       -0.0043661026 -0.0042707482 0.00082082173 0.00044855775
0001f0 85 68 b1 ba 77 e9 31 bc 3f 9f d0 3b 66 5c 80 3b
       -0.0013535178 -0.010858885 0.00636664 0.0039172648
000200 6b 56 85 bb 18 85 4d 3b 07 6e 21 3b 7b dd 0c bc
       -0.0040691397 0.0031359848 0.0024632232 -0.008597727
000210 cf da 46 3b e7 bf d3 ba 47 bf ce bb 39 99 17 bb
       0.0030342822 -0.0016155214 -0.006309423 -0.00231321
000220 93 3a 8f b9 40 f4 13 3c 3d 56 1c bb 8a 1c 15 bb
       -0.00027318727 0.009030402 -0.0023855113 -0.0022752606
000230 da 23 e0 3b ef 01 8f bb 22 d7 2b 3c 03 0d d7 bb
       0.0068402113 -0.004364244 0.010488303 -0.0065628304
000240 a9 af 45 3b 9e 4e 17 3c 59 d1 8b 3b 00 97 73 3b
       0.0030164516 0.009235052 0.0042668995 0.003716886
000250 be 39 ae 3c 90 42 c5 3b 10 07 54 bb b7 c4 97 bb
       0.021267768 0.0060198978 -0.0032352842 -0.0046316045
000260 a3 31 9e 3a de ae 04 bb ff 52 fd bb 7c b6 31 ba
       0.0012069236 -0.002024583 -0.007730841 -0.00067792065
000270 8d e3 b7 3b 7b 40 f6 3b 0e 08 05 3a 9f 9f 98 bc
       0.005611843 0.007515011 0.00050747476 -0.0186308
000280 e9 7f a1 3b 05 82 d5 bb 99 c5 a4 3b 0b 74 8b 3b
       0.004928578 -0.0065157437 0.0050284383 0.0042557768
000290 ab 21 28 3b 0f a0 7d 3b c7 48 b0 3b f7 5d c6 bb
       0.0025654833 0.0038700139 0.0053797695 -0.006053682
0002a0 1f 72 6f bb 80 54 67 3c 26 32 9c 3b 6d b9 f0 3b
       -0.0036536527 0.014119267 0.0047667203 0.007346323
0002b0 e8 7a 96 3b 28 80 7f ba 18 c3 6e ba 21 7a 2c bc
       0.0045922883 -0.0009746575 -0.0009108051 -0.010527165
0002c0 4b b0 72 bb 0f ea 13 3b cd 7a 35 ba fb a5 09 3b
       -0.0037031348 0.002256993 -0.0006922901 0.0021003473
0002d0 e4 91 03 bc ab 49 45 3a c9 cd 96 bb ff c0 c2 bb
       -0.0080303885 0.0007525931 -0.004602168 -0.005943417
0002e0 a3 ce 53 3c 7f a4 bc bb 95 b5 70 ba ed a7 00 3c
       0.012927684 -0.005756914 -0.0009182331 0.007852537
0002f0 48 76 66 3c f6 7a 28 3b ba 5b ab 3b bf c6 87 bb
       0.014066286 0.0025708056 0.0052294405 -0.0041435654
000300 1f 27 fd bb ea e0 31 bb 37 b3 11 bc e3 dc 19 bb
       -0.007725611 -0.0027142116 -0.008892826 -0.0023477606
000310 38 e8 ee ba 47 41 dd bb 44 46 ad 3b 17 9e c5 3b
       -0.0018227166 -0.0067521664 0.0052879173 0.0060308087
000320 98 b8 87 bb d3 55 53 3b 7f 58 c3 3b 5b 81 6a 3c
       -0.0041418783 0.00322472 0.0059614773 0.014313067
000330 7f d0 92 bc f2 4e dc 3a 19 3d 1c 3c 37 72 f2 bb
       -0.017921684 0.0016808196 0.009536051 -0.0073988694
000340 2d 00 00 3c 07 8f a7 3b 9c 63 30 bc ea b5 e6 3b
       0.007812542 0.0051134857 -0.010765936 0.007040729
000350 a6 cb 41 bb 42 52 70 3b 78 eb 84 3a 17 09 b2 39
       -0.0029570847 0.0036670123 0.0010140976 0.00033957578
000360 ed a5 e6 bb 1a bd 99 3b 83 15 7f 3b 57 0d 29 bb
       -0.007038823 0.004691732 0.0038922734 -0.0025795305
000370 b2 d1 94 3b bd ef b3 bb f8 5c 2a 3b fd 9d 5c bb
       0.004541599 -0.0054912255 0.0025995355 -0.0033663504
000380 a3 c5 d8 ba db 3f c9 3b e7 f7 7b ba f3 b0 bb bb
       -0.0016538393 0.0061416454 -0.00096118305 -0.005727881
000390 84 b2 09 bc f7 e8 a8 bb 3a dc d3 bb 67 19 be bb
       -0.008404378 -0.0051547247 -0.006465462 -0.005801368
0003a0 e2 e9 4d 3a 05 27 3c bb 0f 03 26 bc 71 26 b9 bb
       0.00078549806 -0.002870978 -0.010132565 -0.0056503345
0003b0 a3 1d ac 3b fa 45 8b 3b 13 b0 5f 3a b7 9f a4 ba
       0.0052525564 0.004250285 0.0008533012 -0.0012559806
0003c0 a3 ac 6b bc 03 f0 71 3b cd ac d8 ba bc c0 bc bb
       -0.0143844215 0.003691674 -0.0016530991 -0.0057602804
0003d0 7d 64 df 3a 5a bb 43 3b c6 bc 3c b9 38 a1 36 bc
       0.0017043498 0.002986631 -0.00017999401 -0.011146836
0003e0 43 c3 02 bc 10 b3 57 3c 3a 70 e8 bb f7 78 d8 3b
       -0.007981124 0.01316525 -0.0070934566 0.006606217
0003f0 ed 4d c9 bb b8 f2 73 3b 52 e8 cc 3a 76 73 8c bb
       -0.0061433227 0.003722353 0.0015633202 -0.004286225

network_body.linear_encoder.seq_layers.0.bias f4 [256]
000000 00 00 00 00 00 00 00 00 00 00 00 00 00 00 00 00
       0.0 0.0 0.0 0.0
000010 00 00 00 00 00 00 00 00 00 00 00 00 00 00 00 00
       0.0 0.0 0.0 0.0
000020 00 00 00 00 00 00 00 00 00 00 00 00 00 00 00 00
       0.0 0.0 0.0 0.0
000030 00 00 00 00 00 00 00 00 00 00 00 00 00 00 00 00
       0.0 0.0 0.0 0.0
000040 00 00 00 00 00 00 00 00 00 00 00 00 00 00 00 00
       0.0 0.0 0.0 0.0
000050 00 00 00 00 00 00 00 00 00 00 00 00 00 00 00 00
       0.0 0.0 0.0 0.0
000060 00 00 00 00 00 00 00 00 00 00 00 00 00 00 00 00
       0.0 0.0 0.0 0.0
000070 00 00 00 00 00 00 00 00 00 00 00 00 00 00 00 00
       0.0 0.0 0.0 0.0
000080 00 00 00 00 00 00 00 00 00 00 00 00 00 00 00 00
       0.0 0.0 0.0 0.0
000090 00 00 00 00 00 00 00 00 00 00 00 00 00 00 00 00
       0.0 0.0 0.0 0.0
0000a0 00 00 00 00 00 00 00 00 00 00 00 00 00 00 00 00
       0.0 0.0 0.0 0.0
0000b0 00 00 00 00 00 00 00 00 00 00 00 00 00 00 00 00
       0.0 0.0 0.0 0.0
0000c0 00 00 00 00 00 00 00 00 00 00 00 00 00 00 00 00
       0.0 0.0 0.0 0.0
0000d0 00 00 00 00 00 00 00 00 00 00 00 00 00 00 00 00
       0.0 0.0 0.0 0.0
0000e0 00 00 00 00 00 00 00 00 00 00 00 00 00 00 00 00
       0.0 0.0 0.0 0.0
0000f0 00 00 00 00 00 00 00 00 00 00 00 00 00 00 00 00
       0.0 0.0 0.0 0.0
000100 00 00 00 00 00 00 00 00 00 00 00 00 00 00 00 00
       0.0 0.0 0.0 0.0
000110 00 00 00 00 00 00 00 00 00 00 00 00 00 00 00 00
       0.0 0.0 0.0 0.0
000120 00 00 00 00 00 00 00 00 00 00 00 00 00 00 00 00
       0.0 0.0 0.0 0.0
000130 00 00 00 00 00 00 00 00 00 00 00 00 00 00 00 00
       0.0 0.0 0.0 0.0
000140 00 00 00 00 00 00 00 00 00 00 00 00 00 00 00 00
       0.0 0.0 0.0 0.0
000150 00 00 00 00 00 00 00 00 00 00 00 00 00 00 00 00
       0.0 0.0 0.0 0.0
000160 00 00 00 00 00 00 00 00 00 00 00 00 00 00 00 00
       0.0 0.0 0.0 0.0
000170 00 00 00 00 00 00 00 00 00 00 00 00 00 00 00 00
       0.0 0.0 0.0 0.0
000180 00 00 00 00 00 00 00 00 00 00 00 00 00 00 00 00
       0.0 0.0 0.0 0.0
000190 00 00 00 00 00 00 00 00 00 00 00 00 00 00 00 00
       0.0 0.0 0.0 0.0
0001a0 00 00 00 00 00 00 00 00 00 00 00 00 00 00 00 00
       0.0 0.0 0.0 0.0
0001b0 00 00 00 00 00 00 00 00 00 00 00 00 00 00 00 00
       0.0 0.0 0.0 0.0
0001c0 00 00 00 00 00 00 00 00 00 00 00 00 00 00 00 00
       0.0 0.0 0.0 0.0
0001d0 00 00 00 00 00 00 00 00 00 00 00 00 00 00 00 00
       0.0 0.0 0.0 0.0
0001e0 00 00 00 00 00 00 00 00 00 00 00 00 00 00 00 00
       0.0 0.0 0.0 0.0
0001f0 00 00 00 00 00 00 00 00 00 00 00 00 00 00 00 00
       0.0 0.0 0.0 0.0
000200 00 00 00 00 00 00 00 00 00 00 00 00 00 00 00 00
       0.0 0.0 0.0 0.0
000210 00 00 00 00 00 00 00 00 00 00 00 00 00 00 00 00
       0.0 0.0 0.0 0.0
000220 00 00 00 00 00 00 00 00 00 00 00 00 00 00 00 00
       0.0 0.0 0.0 0.0
000230 00 00 00 00 00 00 00 00 00 00 00 00 00 00 00 00
       0.0 0.0 0.0 0.0
000240 00 00 00 00 00 00 00 00 00 00 00 00 00 00 00 00
       0.0 0.0 0.0 0.0
000250 00 00 00 00 00 00 00 00 00 00 00 00 00 00 00 00
       0.0 0.0 0.0 0.0
000260 00 00 00 00 00 00 00 00 00 00 00 00 00 00 00 00
       0.0 0.0 0.0 0.0
000270 00 00 00 00 00 00 00 00 00 00 00 00 00 00 00 00
       0.0 0.0 0.0 0.0
000280 00 00 00 00 00 00 00 00 00 00 00 00 00 00 00 00
       0.0 0.0 0.0 0.0
000290 00 00 00 00 00 00 00 00 00 00 00 00 00 00 00 00
       0.0 0.0 0.0 0.0
0002a0 00 00 00 00 00 00 00 00 00 00 00 00 00 00 00 00
       0.0 0.0 0.0 0.0
0002b0 00 00 00 00 00 00 00 00 00 00 00 00 00 00 00 00
       0.0 0.0 0.0 0.0
0002c0 00 00 00 00 00 00 00 00 00 00 00 00 00 00 00 00
       0.0 0.0 0.0 0.0
0002d0 00 00 00 00 00 00 00 00 00 00 00 00 00 00 00 00
       0.0 0.0 0.0 0.0
0002e0 00 00 00 00 00 00 00 00 00 00 00 00 00 00 00 00
       0.0 0.0 0.0 0.0
0002f0 00 00 00 00 00 00 00 00 00 00 00 00 00 00 00 00
       0.0 0.0 0.0 0.0
000300 00 00 00 00 00 00 00 00 00 00 00 00 00 00 00 00
       0.0 0.0 0.0 0.0
000310 00 00 00 00 00 00 00 00 00 00 00 00 00 00 00 00
       0.0 0.0 0.0 0.0
000320 00 00 00 00 00 00 00 00 00 00 00 00 00 00 00 00
       0.0 0.0 0.0 0.0
000330 00 00 00 00 00 00 00 00 00 00 00 00 00 00 00 00
       0.0 0.0 0.0 0.0
000340 00 00 00 00 00 00 00 00 00 00 00 00 00 00 00 00
       0.0 0.0 0.0 0.0
000350 00 00 00 00 00 00 00 00 00 00 00 00 00 00 00 00
       0.0 0.0 0.0 0.0
000360 00 00 00 00 00 00 00 00 00 00 00 00 00 00 00 00
       0.0 0.0 0.0 0.0
000370 00 00 00 00 00 00 00 00 00 00 00 00 00 00 00 00
       0.0 0.0 0.0 0.0
000380 00 00 00 00 00 00 00 00 00 00 00 00 00 00 00 00
       0.0 0.0 0.0 0.0
000390 00 00 00 00 00 00 00 00 00 00 00 00 00 00 00 00
       0.0 0.0 0.0 0.0
0003a0 00 00 00 00 00 00 00 00 00 00 00 00 00 00 00 00
       0.0 0.0 0.0 0.0
0003b0 00 00 00 00 00 00 00 00 00 00 00 00 00 00 00 00
       0.0 0.0 0.0 0.0
0003c0 00 00 00 00 00 00 00 00 00 00 00 00 00 00 00 00
       0.0 0.0 0.0 0.0
0003d0 00 00 00 00 00 00 00 00 00 00 00 00 00 00 00 00
       0.0 0.0 0.0 0.0
0003e0 00 00 00 00 00 00 00 00 00 00 00 00 00 00 00 00
       0.0 0.0 0.0 0.0
0003f0 00 00 00 00 00 00 00 00 00 00 00 00 00 00 00 00
       0.0 0.0 0.0 0.0
