MLagents/results/hb_01/Mario/Mario-1000.pt (torch, 696567 bytes, 23 tensors)

network_body.vector_processors.0.normalizer.running_mean f4 [69]
0.0 0.0 0.999001 0.999001 0.11888113 0.0 0.0 0.0
0.11888113 0.0 0.0 0.0 0.12687314 0.0 0.0 0.0
0.12687314 0.0 0.0 0.0 0.14685315 0.0 0.0 0.0
0.14685315 0.0 0.0 0.0 0.16583416 0.0 0.0 0.0
0.16483516 0.0 0.0 0.0 0.16783215 0.0 0.0 0.0
0.17182817 0.0 0.0 0.0 0.15584415 0.001998002 0.0 0.0
0.16783217 0.000999001 0.0 0.0 0.1808192 0.000999001 0.0 0.0
0.19480518 0.001998002 0.0 0.0 0.999001 0.0 0.0 0.28666428
0.30757892 0.0 -0.99896264 0.0057883263 0.0
00000000: 0000 0000 0000 0000 88be 7f3f 88be 7f3f
00000010: f377 f33d 0000 0000 0000 0000 0000 0000
00000020: f377 f33d 0000 0000 0000 0000 0000 0000
00000030: 08eb 013e 0000 0000 0000 0000 0000 0000
00000040: 08eb 013e 0000 0000 0000 0000 0000 0000
00000050: ac60 163e 0000 0000 0000 0000 0000 0000
00000060: ac60 163e 0000 0000 0000 0000 0000 0000
00000070: 6ed0 293e 0000 0000 0000 0000 0000 0000
00000080: 8cca 283e 0000 0000 0000 0000 0000 0000
00000090: 31dc 2b3e 0000 0000 0000 0000 0000 0000
000000a0: b9f3 2f3e 0000 0000 0000 0000 0000 0000
000000b0: 9c95 1f3e e9f0 023b 0000 0000 0000 0000
000000c0: 32dc 2b3e e9f0 823a 0000 0000 0000 0000
000000d0: ab28 393e e9f0 823a 0000 0000 0000 0000
000000e0: 027b 473e e9f0 023b 0000 0000 0000 0000
000000f0: 88be 7f3f 0000 0000 0000 0000 a9c5 923e
00000100: fc7a 9d3e 0000 0000 04bc 7fbf 00ac bd3b
00000110: 0000 0000

network_body.vector_processors.0.normalizer.running_variance f4 [69]
1.0 1.0 1.9989738 1.9989738 105.85314 1.0 1.0 1.0
105.85314 1.0 1.0 1.0 111.887115 1.0 1.0 1.0
111.887115 1.0 1.0 1.0 126.41258 1.0 1.0 1.0
126.41258 1.0 1.0 1.0 139.4715 1.0 1.0 1.0
138.80222 1.0 1.0 1.0 140.8042 1.0 1.0 1.0
143.44556 1.0 1.0 1.0 132.68832 2.996004 1.0 1.0
140.80418 1.999001 1.0 1.0 149.27173 1.999001 1.0 1.0
158.013 2.996004 1.0 1.0 1.9989738 1.0 1.0 646.8952
178.14679 1.0 1.9988539 1.0433978 1.0
00000000: 0000 803f 0000 803f 60de ff3f 60de ff3f
00000010: cfb4 d342 0000 803f 0000 803f 0000 803f
00000020: cfb4 d342 0000 803f 0000 803f 0000 803f
00000030: 34c6 df42 0000 803f 0000 803f 0000 803f
00000040: 34c6 df42 0000 803f 0000 803f 0000 803f
00000050: 3ed3 fc42 0000 803f 0000 803f 0000 803f
00000060: 3ed3 fc42 0000 803f 0000 803f 0000 803f
00000070: b478 0b43 0000 803f 0000 803f 0000 803f
00000080: 5ecd 0a43 0000 803f 0000 803f 0000 803f
00000090: e0cd 0c43 0000 803f 0000 803f 0000 803f
000000a0: 1072 0f43 0000 803f 0000 803f 0000 803f
000000b0: 36b0 0443 88be 3f40 0000 803f 0000 803f
000000c0: dfcd 0c43 44df ff3f 0000 803f 0000 803f
000000d0: 9045 1543 44df ff3f 0000 803f 0000 803f
000000e0: 5403 1e43 88be 3f40 0000 803f 0000 803f
000000f0: 60de ff3f 0000 803f 0000 803f 4bb9 2144
00000100: 9425 3243 0000 803f 72da ff3f 0f8e 853f
00000110: 0000 803f

network_body.linear_encoder.seq_layers.0.weight f4 [256, 69]
0.014809752 0.05849399 -0.118406124 0.09209554 0.16687956 -0.14080127 0.16573888 0.0112419175
0.08858094 -0.17365661 -0.059536073 0.057115868 0.015831817 0.068193205 -0.003998265 -0.009628991
0.012510459 -0.02801146 0.045721263 -0.014952113 0.081931725 0.031190934 -0.062379565 -0.01689453
-0.081919536 0.13548002 0.2248479 0.083730675 0.04017226 -0.11028722 -0.0040486315 -0.0081839105
-0.07450265 -0.1307037 0.011166664 -0.057030145 0.17376357 -0.042535745 0.34703475 0.16106406
0.13380948 0.08918012 0.148046 0.07916604 -0.00700293 -0.07159758 0.02250588 0.11194193
0.21059935 -0.078914344 -0.23352173 -0.021119311 0.29073116 -0.120837815 0.0751977 0.14422223
0.16838318 0.0027849823 -0.09348924 0.05255066 -0.17769611 0.32411993 0.05798988 0.046865676
0.036959164 0.07396645 -0.0523782 0.26913705 -0.101840936 0.059450205 -0.07345322 -0.0968671
-0.02387145 -0.08144041 -0.0568492 -0.029132333 0.06778778 0.010839177 0.08487698 -0.106173426
0.09623253 0.010969416 0.3080706 0.025620835 -0.06639915 -0.17470445 -0.052085485 -0.012782609
0.025380127 0.10785679 -0.05590775 -0.03244792 -0.0057993676 -0.086406164 -0.06270986 0.03789595
-0.12144643 -0.11971958 -0.041925717 0.066285886 -0.13581781 0.016390659 -0.04250472 -0.074292265
-0.08077407 -0.029747218 0.1134413 0.0910861 0.03291917 -0.019737676 -0.09509508 -0.13914186
-0.07092628 0.085528366 0.12666719 -0.0038246242 -0.005285049 -0.29562542 -0.12352328 0.025903769
-0.1040439 0.115018435 -0.12638919 0.2089088 -0.09787244 0.11368096 0.08643745 0.071959265
-0.1975915 -0.12108981 -0.03988601 -0.009488598 0.15292764 0.10045145 -0.22196044 -0.047156453
-0.018204574 0.11361732 0.034370337 0.049894385 -0.093514904 -0.10306798 -0.14620185 0.015470652
-0.08061024 0.21888748 -0.12811802 0.026924241 -0.106279284 0.055881582 -0.02409231 0.11343838
0.09260856 0.0039552273 0.06751817 0.115422204 0.16435522 0.0030676324 0.02114425 0.13633887
0.027699666 0.068410546 -0.033621445 -0.0035865295 -0.0050316174 0.15283209 0.06478647 -0.10004238
0.07854548 0.07813413 0.12797642 -0.041703936 0.16422637 -0.12700261 -0.042272333 0.2958897
0.081605636 -0.22769618 -0.13483511 0.094380945 -0.053498723 0.107689105 -0.08582223 -0.03112962
-0.04245544 0.07689319 -0.034672614 0.14318217 -0.010698144 -0.21334694 -0.020749638 -0.23092212
0.060984656 0.047638115 -0.16198087 -0.14389914 -0.073655464 -0.15555958 0.19260299 0.027572686
0.18361202 -0.023826132 0.094750404 0.17906934 -0.09266261 -0.02760523 -0.15869616 0.11905347
0.062322814 0.20394008 -0.11122429 0.053735167 -0.053781856 -0.15535535 0.041356776 -0.028208572
-0.09018771 -0.18701103 0.07139568 0.3407797 0.05322715 0.037315074 -0.09032015 -0.00641591
-0.099085465 0.040812284 -0.0239336 -0.048936605 0.036565363 0.20057856 -0.34356377 -0.04067866
-0.0021290074 0.07745399 -0.14922795 0.17153953 0.21739513 0.12930736 -0.32419083 -0.062204883
0.08226514 -0.036673855 0.004139814 0.06316894 -0.06863967 0.12543453 -0.02678676 0.03575252
0.07886916 0.0065436154 0.009967221 0.008945423 0.09692336 0.12786356 0.027149826 -0.017819975
00000000: 9aa4 723c 6597 6f3d e97e f2bd 969c bc3d
00000010: 7ae2 2a3e 352e 10be 74b7 293e 0530 383c
00000020: ed69 b53d 0ad3 31be 19dc 73bd 54f2 693d
00000030: bab1 813c e1a8 8b3d e103 83bb eac2 1dbc
00000040: abf8 4c3c 4a78 e5bc 3846 3b3d b5f9 74bc
00000050: d2cb a73d 2184 ff3c b781 7fbd 6666 8abc
00000060: 6ec5 a7bd 46bb 0a3e 873e 663e fd7a ab3d
00000070: ab8b 243d 44de e1bd 62aa 84bb cf15 06bc
00000080: d894 98bd 31d7 05be 62f4 363c 7198 69bd
00000090: 14ef 313e f639 2ebd 8aae b13e faed 243e
000000a0: 5a05 093e 11a4 b63d 5f99 173e ce21 a23d
000000b0: d678 e5bb c1a1 92bd 405e b83c d041 e53d
000000c0: 5ba7 573e d89d a1bd 5220 6fbe 6802 adbc
000000d0: b7da 943e d179 f7bd 4001 9a3d feae 133e
000000e0: a46c 2c3e 4084 363b 4977 bfbd 5c3f 573d
000000f0: f8f5 35be 0cf3 a53e cc86 6d3d 39f6 3f3d
00000100: 7e62 173d b97b 973d 868a 56bd 55cc 893e
00000110: fb91 d0bd 0f82 733d a46e 96bd 4262 c6bd
00000120: 0f8e c3bc 3bca a6bd b5da 68bd eea6 eebc
00000130: 52d4 8a3d ce96 313c fbd3 ad3d 7471 d9bd
00000140: 9015 c53d 11b9 333c 6ebb 9d3e c9e2 d13c
00000150: 47fc 87bd b9e5 32be 9757 55bd 266e 51bc
00000160: fce9 cf3c 05e4 dc3d 86ff 64bd 1ce8 04bd
00000170: 9f08 bebb b7f5 b0bd 076e 80bd c938 1b3d
00000180: e8b8 f8bd 8a2f f5bd 4dba 2bbd e5c0 873d
00000190: d313 0bbe b445 863c 6e19 2ebd 8b26 98bd
000001a0: e06c a5bd 70b0 f3bc ea53 e83d 598b ba3d
000001b0: 40d6 063d e8b0 a1bc 36c1 c2bd 347b 0ebe
000001c0: cc41 91bd 7f29 af3d 0bb5 013e 8ca6 7abb
000001d0: 342e adbb 375c 97be c6f9 fcbd 2434 d43c
000001e0: f814 d5bd c98e eb3d 2b6c 01be 30ec 553e
000001f0: 5971 c8bd 90d1 e83d 1e06 b13d 615f 933d
00000200: 6d55 4abe effd f7bd 835f 23bd 1176 1bbc
00000210: 1099 1c3e 7db9 cd3d 9949 63be 2027 41bd
00000220: c221 95bc 33b0 e83d e9c7 0c3d 0e5e 4c3d
00000230: be84 bfbd 4e15 d3bd f0b5 15be 9e78 7d3c
00000240: fb16 a5bd 0a24 603e 5f31 03be 3a90 dc3c
00000250: f4a8 d9bd 16e4 643d 3c5d c5bc 6252 e83d
00000260: 8fa9 bd3d da9a 813b f746 8a3d 7a62 ec3d
00000270: bc4c 283e 550a 493b b536 ad3c 6b9c 0b3e
00000280: 69ea e23c d41a 8c3d a4b6 09bd fb0b 6bbb
00000290: 44e0 a4bb 0480 1c3e c5ae 843d 05e3 ccbd
000002a0: 74dc a03d c904 a03d 400c 033e bfd1 2abd
000002b0: f52a 283e f90c 02be c125 2dbd db7e 973e
000002c0: db20 a73d 3029 69be 3712 0abe cc4a c13d
000002d0: 7a21 5bbd 1b8c dc3d 91c3 afbd 8b03 ffbc
000002e0: c1e5 2dbd 2d7a 9d3d df04 0ebd 599e 123e
000002f0: 4547 2fbc 9f77 5abe 25fb a9bc d976 6cbe
00000300: 0ccb 793d 2f20 433d 50de 25be 4c5a 13be
00000310: add8 96bd 034b 1fbe b839 453e 1de0 e13c
00000320: ca04 3c3e 052f c3bc 800c c23d f45d 373e
00000330: e5c5 bdbd 5d24 e2bc 3f81 22be 4ed2 f33d
00000340: 3546 7f3d abd5 503e 90c9 e3bd 6819 5c3d
00000350: 5d4a 5cbd 7915 1fbe b965 293d aa15 e7bc
00000360: 56b4 b8bd d27f 3fbe e637 923d ad7a ae3e
00000370: b604 5a3d b1d7 183d c5f9 b8bd 8e3c d2bb
00000380: 52ed cabd c82a 273d 6610 c4bc c071 48bd
00000390: 90c5 153d 7764 4d3e 97e7 afbe ab9e 26bd
000003a0: d186 0bbb 33a0 9e3d 36cf 18be 0fa8 2f3e
000003b0: d49c 5e3e 2669 043e 57fc a5be 8cca 7ebd
000003c0: a07a a83d 5337 16bd 47a7 873b b85e 813d
000003d0: f592 8cbd e971 003e e86f dbbc 3c71 123d
000003e0: 2786 a13d d36b d63b 8e4d 233c d38f 123c
000003f0: c17f c63d aaee 023e 5069 de3c 32fb 91bc

network_body.linear_encoder.seq_layers.0.bias f4 [256]
0.0 0.0 0.0 0.0 0.0 0.0 0.0 0.0
0.0 0.0 0.0 0.0 0.0 0.0 0.0 0.0
0.0 0.0 0.0 0.0 0.0 0.0 0.0 0.0
0.0 0.0 0.0 0.0 0.0 0.0 0.0 0.0
0.0 0.0 0.0 0.0 0.0 0.0 0.0 0.0
0.0 0.0 0.0 0.0 0.0 0.0 0.0 0.0
0.0 0.0 0.0 0.0 0.0 0.0 0.0 0.0
0.0 0.0 0.0 0.0 0.0 0.0 0.0 0.0
0.0 0.0 0.0 0.0 0.0 0.0 0.0 0.0
0.0 0.0 0.0 0.0 0.0 0.0 0.0 0.0
0.0 0.0 0.0 0.0 0.0 0.0 0.0 0.0
0.0 0.0 0.0 0.0 0.0 0.0 0.0 0.0
0.0 0.0 0.0 0.0 0.0 0.0 0.0 0.0
0.0 0.0 0.0 0.0 0.0 0.0 0.0 0.0
0.0 0.0 0.0 0.0 0.0 0.0 0.0 0.0
0.0 0.0 0.0 0.0 0.0 0.0 0.0 0.0
0.0 0.0 0.0 0.0 0.0 0.0 0.0 0.0
0.0 0.0 0.0 0.0 0.0 0.0 0.0 0.0
0.0 0.0 0.0 0.0 0.0 0.0 0.0 0.0
0.0 0.0 0.0 0.0 0.0 0.0 0.0 0.0
0.0 0.0 0.0 0.0 0.0 0.0 0.0 0.0
0.0 0.0 0.0 0.0 0.0 0.0 0.0 0.0
0.0 0.0 0.0 0.0 0.0 0.0 0.0 0.0
0.0 0.0 0.0 0.0 0.0 0.0 0.0 0.0
0.0 0.0 0.0 0.0 0.0 0.0 0.0 0.0
0.0 0.0 0.0 0.0 0.0 0.0 0.0 0.0
0.0 0.0 0.0 0.0 0.0 0.0 0.0 0.0
0.0 0.0 0.0 0.0 0.0 0.0 0.0 0.0
0.0 0.0 0.0 0.0 0.0 0.0 0.0 0.0
0.0 0.0 0.0 0.0 0.0 0.0 0.0 0.0
0.0 0.0 0.0 0.0 0.0 0.0 0.0 0.0
0.0 0.0 0.0 0.0 0.0 0.0 0.0 0.0
00000000: 0000 0000 0000 0000 0000 0000 0000 0000
00000010: 0000 0000 0000 0000 0000 0000 0000 0000
00000020: 0000 0000 0000 0000 0000 0000 0000 0000
00000030: 0000 0000 0000 0000 0000 0000 0000 0000
00000040: 0000 0000 0000 0000 0000 0000 0000 0000
00000050: 0000 0000 0000 0000 0000 0000 0000 0000
00000060: 0000 0000 0000 0000 0000 0000 0000 0000
00000070: 0000 0000 0000 0000 0000 0000 0000 0000
00000080: 0000 0000 0000 0000 0000 0000 0000 0000
00000090: 0000 0000 0000 0000 0000 0000 0000 0000
000000a0: 0000 0000 0000 0000 0000 0000 0000 0000
000000b0: 0000 0000 0000 0000 0000 0000 0000 0000
000000c0: 0000 0000 0000 0000 0000 0000 0000 0000
000000d0: 0000 0000 0000 0000 0000 0000 0000 0000
000000e0: 0000 0000 0000 0000 0000 0000 0000 0000
000000f0: 0000 0000 0000 0000 0000 0000 0000 0000
00000100: 0000 0000 0000 0000 0000 0000 0000 0000
00000110: 0000 0000 0000 0000 0000 0000 0000 0000
00000120: 0000 0000 0000 0000 0000 0000 0000 0000
00000130: 0000 0000 0000 0000 0000 0000 0000 0000
00000140: 0000 0000 0000 0000 0000 0000 0000 0000
00000150: 0000 0000 0000 0000 0000 0000 0000 0000
00000160: 0000 0000 0000 0000 0000 0000 0000 0000
00000170: 0000 0000 0000 0000 0000 0000 0000 0000
00000180: 0000 0000 0000 0000 0000 0000 0000 0000
00000190: 0000 0000 0000 0000 0000 0000 0000 0000
000001a0: 0000 0000 0000 0000 0000 0000 0000 0000
000001b0: 0000 0000 0000 0000 0000 0000 0000 0000
000001c0: 0000 0000 0000 0000 0000 0000 0000 0000
000001d0: 0000 0000 0000 0000 0000 0000 0000 0000
000001e0: 0000 0000 0000 0000 0000 0000 0000 0000
000001f0: 0000 0000 0000 0000 0000 0000 0000 0000
00000200: 0000 0000 0000 0000 0000 0000 0000 0000
00000210: 0000 0000 0000 0000 0000 0000 0000 0000
00000220: 0000 0000 0000 0000 0000 0000 0000 0000
00000230: 0000 0000 0000 0000 0000 0000 0000 0000
00000240: 0000 0000 0000 0000 0000 0000 0000 0000
00000250: 0000 0000 0000 0000 0000 0000 0000 0000
00000260: 0000 0000 0000 0000 0000 0000 0000 0000
00000270: 0000 0000 0000 0000 0000 0000 0000 0000
00000280: 0000 0000 0000 0000 0000 0000 0000 0000
00000290: 0000 0000 0000 0000 0000 0000 0000 0000
000002a0: 0000 0000 0000 0000 0000 0000 0000 0000
000002b0: 0000 0000 0000 0000 0000 0000 0000 0000
000002c0: 0000 0000 0000 0000 0000 0000 0000 0000
000002d0: 0000 0000 0000 0000 0000 0000 0000 0000
000002e0: 0000 0000 0000 0000 0000 0000 0000 0000
000002f0: 0000 0000 0000 0000 0000 0000 0000 0000
00000300: 0000 0000 0000 0000 0000 0000 0000 0000
00000310: 0000 0000 0000 0000 0000 0000 0000 0000
00000320: 0000 0000 0000 0000 0000 0000 0000 0000
00000330: 0000 0000 0000 0000 0000 0000 0000 0000
00000340: 0000 0000 0000 0000 0000 0000 0000 0000
00000350: 0000 0000 0000 0000 0000 0000 0000 0000
00000360: 0000 0000 0000 0000 0000 0000 0000 0000
00000370: 0000 0000 0000 0000 0000 0000 0000 0000
00000380: 0000 0000 0000 0000 0000 0000 0000 0000
00000390: 0000 0000 0000 0000 0000 0000 0000 0000
000003a0: 0000 0000 0000 0000 0000 0000 0000 0000
000003b0: 0000 0000 0000 0000 0000 0000 0000 0000
000003c0: 0000 0000 0000 0000 0000 0000 0000 0000
000003d0: 0000 0000 0000 0000 0000 0000 0000 0000
000003e0: 0000 0000 0000 0000 0000 0000 0000 0000
000003f0: 0000 0000 0000 0000 0000 0000 0000 0000

network_body.linear_encoder.seq_layers.2.weight f4 [256, 256]
-0.01571721 0.09793887 0.016447384 -0.015524124 0.08549795 0.038849745 0.12176497 0.067627735
0.025956081 0.1020792 -0.11481596 0.0196824 0.00336363 0.023440663 0.10552547 -0.06474812
0.01212861 -0.014947974 0.05975846 -0.11061785 -0.040327936 -0.028635707 0.033094168 -0.09129096
0.0749197 -0.024668362 -0.031848695 -0.08889063 -0.044239722 0.092097946 -0.0678102 0.07526478
-0.020588242 0.0576587 0.0061460673 -0.05654363 0.03870093 -0.053315457 -0.0918646 -0.07197834
-0.086491115 0.06738784 0.07242107 0.02056709 0.01040272 0.06811356 -0.075192675 -0.14211519
-0.008058311 -0.024351936 0.018258054 0.055788897 -0.046113998 -0.0052594133 -0.059964746 -0.040483676
0.06526198 0.021735553 0.10469416 -0.13728477 -0.012036312 0.1063224 0.12872322 0.01692917
-0.058011156 -0.020069279 -0.06463844 0.076863766 -0.061759666 -0.020677052 0.023292886 -0.038000286
0.029890979 -0.0026854982 -0.09161049 0.016951542 -0.024137823 0.020999486 -0.041830007 -0.015569411
0.12381773 -0.04373022 0.041044384 -0.07503421 0.03326395 -0.020358728 0.09950256 0.06949983
0.02916207 -0.04700462 0.045779765 0.0031398484 -0.085029855 0.012857405 -0.13676918 -0.05008913
-0.069886364 0.07470843 -0.13468276 0.014711272 -0.06385873 -0.0070562027 -0.03799329 0.070468426
0.08619633 -0.112885095 -0.096260294 0.14238152 -0.03809897 -0.015153467 -0.045199063 0.04713415
0.07363157 -0.013026834 0.11055171 0.06755368 0.010258754 -0.016118422 -0.110278144 0.08144399
-0.0321628 0.0024290502 0.069451265 0.00070198043 -0.0377119 0.044878438 -0.0888138 0.008383774
0.0025262933 0.12670909 0.017192993 0.020586928 -0.028717984 0.060921066 -0.04466346 0.038516987
0.018315785 0.05676069 0.05798736 0.02527723 0.00037091473 -0.052818857 0.0081825275 0.014625796
0.037744947 0.026716214 0.08182723 -0.046707362 -0.04601014 0.12475759 -0.039985314 -0.118364654
0.03423857 0.007369582 0.0484017 0.0692617 -0.07976886 0.006109042 -0.038467575 -0.01889447
-0.07934078 -0.05061759 -0.016503578 0.07001405 -0.034344345 -0.029981961 0.027001452 -0.04192479
0.037632413 0.099739075 0.05142505 -0.12194945 -0.09498613 -0.023668986 0.032485917 -0.0800474
0.041540407 0.14609508 0.005938015 -0.023263812 -0.030753663 -0.05613249 0.035530936 -0.058021452
-0.014689626 -0.04085035 0.0478506 0.04643745 -0.092111744 -0.03782743 0.085546575 -0.027947456
0.037801117 0.028624235 -0.039673008 -0.05895244 0.0809078 0.03058742 0.040449448 -0.08241249
-0.08194872 -0.06444576 -0.054419156 -0.007338633 0.046955213 -0.13634352 -0.11685053 -0.009339775
0.04596215 0.09239668 0.102619134 -0.11356096 0.031643935 0.08352826 0.035561778 0.018767016
-0.017074702 0.023886768 -0.063724115 0.05846949 0.030191878 -0.05671261 0.038348187 -0.026008511
0.051536433 0.03004636 -0.07335583 0.020156417 0.13092892 0.046925258 -0.020613201 0.092178725
-0.006523916 -0.10545244 0.02053313 0.008198934 -0.05842387 0.0033479265 -0.12701774 -0.0756519
-0.00020292439 -0.013995476 0.0834776 0.07495455 0.10905315 0.041322768 -0.05151549 -0.079939425
-0.14564225 0.012213707 -0.05114261 0.097981736 -0.01647873 0.027112309 -0.010501304 -0.119850166
00000000: 61c1 80bc 2d94 c83d aabc 863c e558 7ebc
00000010: 8d19 af3d e920 1f3d ea5f f93d 6980 8a3d
00000020: d9a1 d43c e60e d13d a124 ebbd fc3c a13c
00000030: 5970 5c3b a206 c03c bd1d d83d aa9a 84bd
00000040: 14b7 463c 59e8 74bc 49c5 743d 9d8b e2bd
00000050: e82e 25bd 6e95 eabc c08d 073d c1f6 babd
00000060: 806f 993d 4e15 cabc c773 02bd 4a0c b6bd
00000070: b634 35bd d99d bc3d 13e0 8abd 6c24 9a3d
00000080: aca8 a8bc 872b 6c3d f364 c93b 4b9a 67bd
00000090: de84 1e3d 4f61 5abd 8223 bcbd 6169 93bd
000000a0: 4122 b1bd a302 8a3d 7f51 943d 507c a83c
000000b0: 2c70 2a3c 1f7f 8b3d 9efe 99bd a586 11be
000000c0: 0207 04bc b67d c7bc ea91 953c e682 643d
000000d0: 08e2 3cbd 2857 acbb 989d 75bd 36d2 25bd
000000e0: 13a8 853d c20e b23c e469 d63d 6194 0cbe
000000f0: f433 45bc 8fbf d93d 05d0 033e 0baf 8a3c
00000100: 1b9d 6dbd 5468 a4bc 2961 84bd c06a 9d3d
00000110: b4f7 7cbd ec62 a9bc b9d0 be3c 30a6 1bbd
00000120: eddd f43c 2fff 2fbb 489e bbbd f6dd 8a3c
00000130: afbc c5bc 1d07 ac3c f155 2bbd d816 7fbc
00000140: 2694 fd3d 761e 33bd 281e 283d 89ab 99bd
00000150: c83f 083d 59c7 a6bc 00c8 cb3d ed55 8e3d
00000160: 4be5 ee3c eb87 40bd 9083 3b3d eac5 4d3b
00000170: 2224 aebd dda7 523c 380d 0cbe 422a 4dbd
00000180: 9520 8fbd bc00 993d 47ea 09be 8c07 713c
00000190: 5ec8 82bd b837 e7bb da9e 1bbd c051 903d
000001a0: b487 b03d 4d30 e7bd 1e24 c5bd 76cc 113e
000001b0: aa0d 1cbd 3f46 78bc a722 39bd bd0f 413d
000001c0: 26cc 963d 816e 55bc ef68 e23d 9559 8a3d
000001d0: 5514 283c c80a 84bc 82d9 e1bd 1bcc a63d
000001e0: 24bd 03bd b330 1f3b 773c 8e3d 1c05 383a
000001f0: cb77 1abd 74d2 373d 02e4 b5bd 195c 093c
00000200: 2b90 253b 07c0 013e 52d8 8c3c eba5 a83c
00000210: fa41 ebbc 5e88 793d 08f1 36bd fdc3 1d3d
00000220: fc0a 963c e67d 683d 2784 6d3d 3212 cf3c
00000230: 5577 c239 9658 58bd 0210 063c 09a1 6f3c
00000240: 729a 1a3d f6db da3c 0995 a73d 3850 3fbd
00000250: 2175 3cbd e880 ff3d a4c7 23bd 2b69 f2bd
00000260: be3d 0c3d 897c f13b dc40 463d 14d9 8d3d
00000270: db5d a3bd 5c2e c83b 2d90 1dbd 93c8 9abc
00000280: 6b7d a2bd 6454 4fbd 8332 87bc 8763 8f3d
00000290: a8ac 0cbd bb9c f5bc 2632 dd3c 54b9 2bbd
000002a0: 7224 1a3d 0044 cc3d 13a3 523d a2c0 f9bd
000002b0: 1788 c2bd 76e5 c1bc f40f 053d e4ef a3bd
000002c0: 4626 2a3d f399 153e ae93 c23b c093 bebc
000002d0: 1bef fbbc 2feb 65bd e388 113d e7a7 6dbd
000002e0: c2ac 70bc b252 27bd fefe 433d 3235 3e3d
000002f0: 15a5 bcbd eff0 1abd 0b33 af3d 10f2 e4bc
00000300: 58d5 1a3d 5f7d ea3c 2a80 22bd 1d78 71bd
00000310: fdb2 a53d 7892 fa3c 52ae 253d e1c7 a8bd
00000320: bbd4 a7bd 23fc 83bd 9fe6 5ebd ea78 f0bb
00000330: 1c54 403d a39d 0bbe 554f efbd db05 19bc
00000340: cf42 3c3d 783a bd3d fb29 d23d a692 e8bd
00000350: 129d 013d dd10 ab3d 3aa9 113d 49bd 993c
00000360: 3fe0 8bbc 2fae c33c ca81 82bd b47d 6f3d
00000370: f554 f73c 7b4b 68bd fd12 1d3d cd0f d5bc
00000380: de17 533d c923 f63c 953b 96bd 121f a53c
00000390: 3b12 063e b334 403d 04dd a8bc 33c8 bc3d
000003a0: 93c6 d5bb 73f7 d7bd 1835 a83c d254 063c
000003b0: de4d 6fbd e368 5b3b f010 02be 62ef 9abd
000003c0: 1ac8 54b9 484d 65bc 4ef6 aa3d c581 993d
000003d0: 4257 df3d 1042 293d e801 53bd 48b7 a3bd
000003e0: 3e23 15be 001c 483c ea7a 51bd a6aa c83d
000003f0: 67fe 86bc a21a de3c a90d 2cbc 0174 f5bd

network_body.linear_encoder.seq_layers.2.bias f4 [256]
0.0 0.0 0.0 0.0 0.0 0.0 0.0 0.0
0.0 0.0 0.0 0.0 0.0 0.0 0.0 0.0
0.0 0.0 0.0 0.0 0.0 0.0 0.0 0.0
0.0 0.0 0.0 0.0 0.0 0.0 0.0 0.0
0.0 0.0 0.0 0.0 0.0 0.0 0.0 0.0
0.0 0.0 0.0 0.0 0.0 0.0 0.0 0.0
0.0 0.0 0.0 0.0 0.0 0.0 0.0 0.0
0.0 0.0 0.0 0.0 0.0 0.0 0.0 0.0
0.0 0.0 0.0 0.0 0.0 0.0 0.0 0.0
0.0 0.0 0.0 0.0 0.0 0.0 0.0 0.0
0.0 0.0 0.0 0.0 0.0 0.0 0.0 0.0
0.0 0.0 0.0 0.0 0.0 0.0 0.0 0.0
0.0 0.0 0.0 0.0 0.0 0.0 0.0 0.0
0.0 0.0 0.0 0.0 0.0 0.0 0.0 0.0
0.0 0.0 0.0 0.0 0.0 0.0 0.0 0.0
0.0 0.0 0.0 0.0 0.0 0.0 0.0 0.0
0.0 0.0 0.0 0.0 0.0 0.0 0.0 0.0
0.0 0.0 0.0 0.0 0.0 0.0 0.0 0.0
0.0 0.0 0.0 0.0 0.0 0.0 0.0 0.0
0.0 0.0 0.0 0.0 0.0 0.0 0.0 0.0
0.0 0.0 0.0 0.0 0.0 0.0 0.0 0.0
0.0 0.0 0.0 0.0 0.0 0.0 0.0 0.0
0.0 0.0 0.0 0.0 0.0 0.0 0.0 0.0
0.0 0.0 0.0 0.0 0.0 0.0 0.0 0.0
0.0 0.0 0.0 0.0 0.0 0.0 0.0 0.0
0.0 0.0 0.0 0.0 0.0 0.0 0.0 0.0
0.0 0.0 0.0 0.0 0.0 0.0 0.0 0.0
0.0 0.0 0.0 0.0 0.0 0.0 0.0 0.0
0.0 0.0 0.0 0.0 0.0 0.0 0.0 0.0
0.0 0.0 0.0 0.0 0.0 0.0 0.0 0.0
0.0 0.0 0.0 0.0 0.0 0.0 0.0 0.0
0.0 0.0 0.0 0.0 0.0 0.0 0.0 0.0
00000000: 0000 0000 0000 0000 0000 0000 0000 0000
00000010: 0000 0000 0000 0000 0000 0000 0000 0000
00000020: 0000 0000 0000 0000 0000 0000 0000 0000
00000030: 0000 0000 0000 0000 0000 0000 0000 0000
00000040: 0000 0000 0000 0000 0000 0000 0000 0000
00000050: 0000 0000 0000 0000 0000 0000 0000 0000
00000060: 0000 0000 0000 0000 0000 0000 0000 0000
00000070: 0000 0000 0000 0000 0000 0000 0000 0000
00000080: 0000 0000 0000 0000 0000 0000 0000 0000
00000090: 0000 0000 0000 0000 0000 0000 0000 0000
000000a0: 0000 0000 0000 0000 0000 0000 0000 0000
000000b0: 0000 0000 0000 0000 0000 0000 0000 0000
000000c0: 0000 0000 0000 0000 0000 0000 0000 0000
000000d0: 0000 0000 0000 0000 0000 0000 0000 0000
000000e0: 0000 0000 0000 0000 0000 0000 0000 0000
000000f0: 0000 0000 0000 0000 0000 0000 0000 0000
00000100: 0000 0000 0000 0000 0000 0000 0000 0000
00000110: 0000 0000 0000 0000 0000 0000 0000 0000
00000120: 0000 0000 0000 0000 0000 0000 0000 0000
00000130: 0000 0000 0000 0000 0000 0000 0000 0000
00000140: 0000 0000 0000 0000 0000 0000 0000 0000
00000150: 0000 0000 0000 0000 0000 0000 0000 0000
00000160: 0000 0000 0000 0000 0000 0000 0000 0000
00000170: 0000 0000 0000 0000 0000 0000 0000 0000
00000180: 0000 0000 0000 0000 0000 0000 0000 0000
00000190: 0000 0000 0000 0000 0000 0000 0000 0000
000001a0: 0000 0000 0000 0000 0000 0000 0000 0000
000001b0: 0000 0000 0000 0000 0000 0000 0000 0000
000001c0: 0000 0000 0000 0000 0000 0000 0000 0000
000001d0: 0000 0000 0000 0000 0000 0000 0000 0000
000001e0: 0000 0000 0000 0000 0000 0000 0000 0000
000001f0: 0000 0000 0000 0000 0000 0000 0000 0000
00000200: 0000 0000 0000 0000 0000 0000 0000 0000
00000210: 0000 0000 0000 0000 0000 0000 0000 0000
00000220: 0000 0000 0000 0000 0000 0000 0000 0000
00000230: 0000 0000 0000 0000 0000 0000 0000 0000
00000240: 0000 0000 0000 0000 0000 0000 0000 0000
00000250: 0000 0000 0000 0000 0000 0000 0000 0000
00000260: 0000 0000 0000 0000 0000 0000 0000 0000
00000270: 0000 0000 0000 0000 0000 0000 0000 0000
00000280: 0000 0000 0000 0000 0000 0000 0000 0000
00000290: 0000 0000 0000 0000 0000 0000 0000 0000
000002a0: 0000 0000 0000 0000 0000 0000 0000 0000
000002b0: 0000 0000 0000 0000 0000 0000 0000 0000
000002c0: 0000 0000 0000 0000 0000 0000 0000 0000
000002d0: 0000 0000 0000 0000 0000 0000 0000 0000
000002e0: 0000 0000 0000 0000 0000 0000 0000 0000
000002f0: 0000 0000 0000 0000 0000 0000 0000 0000
00000300: 0000 0000 0000 0000 0000 0000 0000 0000
00000310: 0000 0000 0000 0000 0000 0000 0000 0000
00000320: 0000 0000 0000 0000 0000 0000 0000 0000
00000330: 0000 0000 0000 0000 0000 0000 0000 0000
00000340: 0000 0000 0000 0000 0000 0000 0000 0000
00000350: 0000 0000 0000 0000 0000 0000 0000 0000
00000360: 0000 0000 0000 0000 0000 0000 0000 0000
00000370: 0000 0000 0000 0000 0000 0000 0000 0000
00000380: 0000 0000 0000 0000 0000 0000 0000 0000
00000390: 0000 0000 0000 0000 0000 0000 0000 0000
000003a0: 0000 0000 0000 0000 0000 0000 0000 0000
000003b0: 0000 0000 0000 0000 0000 0000 0000 0000
000003c0: 0000 0000 0000 0000 0000 0000 0000 0000
000003d0: 0000 0000 0000 0000 0000 0000 0000 0000
000003e0: 0000 0000 0000 0000 0000 0000 0000 0000
000003f0: 0000 0000 0000 0000 0000 0000 0000 0000

action_model._discrete_distribution.branches.0.weight f4 [3, 256]
0.0011613633 -0.002795941 -0.0017859632 -0.00047043987 -0.009448866 0.008340593 -0.004705153 -0.001724688
-0.008396768 -0.0057373075 -0.0023206833 -0.006735073 -0.013606 -0.0010673128 0.00026102047 0.007379662
0.010971364 0.006558689 0.0021245086 0.007569793 -0.00011298805 -0.0064599416 -0.0030768586 0.0060293404
0.003198316 0.00016194319 0.012010335 -0.0009660022 0.008174478 0.0051459316 0.004648487 -0.00016826252
0.015093026 0.0076245815 -0.003676891 0.0071172975 -0.0037405838 -0.0049641985 -0.006935333 -0.008515089
0.0022648934 0.00043573973 -0.008498636 -0.0014170904 0.0023407547 -0.004115802 0.0042104446 0.012144247
0.008922861 -0.0033826348 -0.0062483805 0.0029897399 0.007110815 -0.0003555829 -0.0077464217 0.010186396
0.01587179 -0.007762505 -0.0036272132 0.004097507 -0.0030853965 0.014347921 0.0020280173 0.008245467
0.008746864 -0.00010960463 0.004545718 -0.007069272 0.008519366 -0.0038634948 0.0016745524 0.005598423
-0.004479712 0.006092952 0.007372429 -0.005871178 -0.0020643398 0.008547746 0.0021625634 0.0024597466
-0.006098075 -0.0012124748 0.009410642 0.0042920285 -0.0029728725 0.00034803088 0.0007903414 -0.0039348374
0.0003055683 0.005133489 0.0006111408 -0.0019732697 0.0020388733 0.011801645 -0.0058000134 -0.007048187
0.007211879 -0.000535212 0.013523466 0.0059624845 0.0071782838 0.0076939412 -0.0033148506 -0.0060290676
0.0018857392 -0.0063196965 -0.0058703027 -0.0133196255 0.00564531 -0.011437146 0.0010715923 -0.0016300766
-0.0069449903 0.01275774 -0.0017416008 -0.006878382 0.009812596 -0.003791944 0.0050383597 -0.0018376394
0.0045220624 0.0004750051 0.005334779 -0.007648073 -0.0023425613 0.003727695 -0.002344746 0.003345446
-0.002535349 -0.012073594 -0.008449565 -0.008538433 -0.0049971268 -0.0028034379 -0.009506325 0.011610697
0.0013830083 0.013295638 -0.003640401 -0.008357159 0.0038497325 -0.00014199228 -0.00023260897 -0.003280849
-0.006381683 0.015230318 0.0128595205 0.0032822078 -0.0015045357 0.0027907507 -0.0026150837 0.0025797326
-0.006662637 0.011270909 -0.013953663 0.003542071 -0.0048162453 -0.0007551959 0.002895152 0.00449969
0.0031328504 0.0020997906 -0.006699297 -0.0010109205 0.0010741786 -0.0049872804 0.002345913 -0.010529844
0.00052509876 -0.0075182714 0.00029632016 -0.0051871235 -0.00045735753 -0.006549542 -0.01047703 -0.00060308364
-0.00800274 -0.00084488944 0.006835072 -0.004528927 0.007962325 0.00041785982 0.014668241 -0.0024486685
0.001748636 0.0053367405 0.0034992513 -0.003790936 -0.0030607472 -0.0023842047 0.0070375907 -0.006926571
0.0029790867 -0.0036572707 -0.005414739 -0.0025894556 0.005089371 0.0031273344 0.000543247 0.0027636706
-0.0066170306 -0.011452995 0.007663426 0.008432097 0.008833623 -0.0031820256 8.341699e-05 -0.004009679
0.0060670753 -0.0064002275 -0.0049636657 0.00084951625 -0.008978191 0.00095665845 0.00044238637 0.0023806521
-0.0010560207 -0.007884494 -0.0038981014 -0.005722782 -0.011740127 0.0017184437 -0.0041892934 0.0019368762
-0.00015619575 -0.0044386475 -0.0040118285 0.007303244 0.0047982903 0.011602025 -0.00983779 -0.013437176
-0.011471118 -0.0001623955 0.008512783 -0.010791881 0.008742597 0.0023122493 -0.008368564 -0.008724484
0.0008799137 9.486096e-05 0.004374144 0.0071913847 0.0037003679 -0.0015437057 0.0025182168 -0.011768136
0.005059581 0.0005828676 0.0003808923 -0.00077793485 0.007700187 0.00027899104 -0.005203165 -0.012103964
00000000: e338 983a 1b3c 37bb fb16 eaba 5fa5 f6b9
00000010: 6bcf 1abc fca6 083c af2d 9abb ed0e e2ba
00000020: 9992 09bc 0600 bcbb 9b16 18bb e3b1 dcbb
00000030: b3eb 5ebc 13e5 8bba 93d9 8839 17d1 f13b
00000040: 3cc1 333c 45ea d63b 573b 0b3b 070c f83b
00000050: fff3 ecb8 ebad d3bb 1fa5 49bb c691 c53b
00000060: d79a 513b 4bcf 2939 ffc6 443c 4f3b 7dba
00000070: 3fee 053c 349f a83b 5652 983b a06f 30b9
00000080: bd48 773c a0d7 f93b fff7 70bb 3838 e93b
00000090: 9524 75bb b7aa a2bb ca41 e3bb df82 0bbc
000000a0: 9b6e 143b ff73 e439 dd3d 0bbc aabd b9ba
000000b0: 5967 193b d9dd 86bb c5f7 893b aaf8 463c
000000c0: 3131 123c 32af 5dbb 37bf ccbb 83ef 433b
000000d0: d701 e93b 876d bab9 b2d5 fdbb d7e4 263c
000000e0: 8e05 823c 9d5c febb 8ab6 6dbb 6144 863b
000000f0: 5d34 4abb 8b13 6b3c 7ce8 043b ff17 073c
00000100: 024f 0f3c 8adb e5b8 3ff4 943b 5aa5 e7bb
00000110: d094 0b3c b032 7dbb a87c db3a fa72 b73b
00000120: 8cca 92bb 63a7 c73b 6b94 f13b 0363 c0bb
00000130: e049 07bb d80b 0c3c cbb9 0d3b b333 213b
00000140: 5cd2 c7bb e7eb 9eba 182f 1a3c 25a4 8c3b
00000150: 86d4 42bb ea77 b639 ea2e 4f3a cfef 80bb
00000160: af34 a039 d436 a83b f734 203a f951 01bb
00000170: 9e9e 053b b05b 413c 0a0e bebb 7af4 e6bb
00000180: a051 ec3b 784d 0cba 8791 5d3c f260 c33b
00000190: cf37 eb3b 751d fc3b f73d 59bb 7c8f c5bb
000001a0: e82a f73a 7515 cfbb ab5b c0bb 8f3a 5abc
000001b0: 4bfc b83b de62 3bbc ac74 8c3a 4ba8 d5ba
000001c0: cd92 e3bb d705 513c 6d46 e4ba 0d64 e1bb
000001d0: 03c5 203c 4382 78bb d318 a53b f2dc f0ba
000001e0: cf2d 943b 1b0a f939 5fcf ae3b b09c fabb
000001f0: a885 19bb 584c 743b 4faa 19bb 453f 5b3b
00000200: 1928 26bb 53d0 45bc 0b70 0abc c9e4 0bbc
00000210: f0be a3bb e2b9 37bb 6bc0 1bbc cb3a 3e3c
00000220: 0f46 b53a f3d5 593c cb93 6ebb 77ec 08bc
00000230: cb4b 7c3b c3e3 14b9 7fe8 73b9 8303 57bb
00000240: 701d d1bb 9588 793c bdb0 523c 4f1a 573b
00000250: d733 c5ba 07e5 363b d361 2bbb bb10 293b
00000260: 4052 dabb 9ea9 383c e89d 64bc 1722 683b
00000270: 98d1 9dbb 57f8 45ba 97bc 3d3b 2372 933b
00000280: 8250 4d3b a49c 093b c785 dbbb dd80 84ba
00000290: 74cb 8c3a 576c a3bb e4bd 193b 5e85 2cbc
000002a0: c8a6 093a d55b f6bb 6b5b 9b39 bff8 a9bb
000002b0: 7dc9 efb9 8a9d d6bb d9a7 2bbc 4218 1eba
000002c0: ed1d 03bc 927b 5dba bdf8 df3b 6567 94bb
000002d0: 6974 023c 3214 db39 1053 703c d779 20bb
000002e0: 7d32 e53a d3df ae3b b253 653b 5a71 78bb
000002f0: d196 48bb 5140 1cbb 979b e63b 4af8 e2bb
00000300: c83c 433b d2ae 6fbb 1f6e b1bb dbb3 29bb
00000310: bdc4 a63b f7f3 4c3b b068 0e3a b31e 353b
00000320: add3 d8bb 58a5 3bbc 7a1d fb3b c726 0a3c
00000330: e6ba 103c 8889 50bb 28f0 ae38 a063 83bb
00000340: 51ce c63b 00b9 d1bb 3fa6 a2bb 12b2 5e3a
00000350: 4319 13bc 43c8 7a3a 18f0 e739 b704 1c3b
00000360: 2d6a 8aba f72d 01bc 4a77 7fbb 2d86 bbbb
00000370: a959 40bc 673d e13a 5746 89bb c8de fd3a
00000380: 7ac8 23b9 1372 91bb a875 83bb 0d50 ef3b
00000390: fa3a 9d3b 6b16 3e3c af2e 21bc 9a27 5cbc
000003a0: 5bf1 3bbc b648 2ab9 3379 0b3c 6ed0 30bc
000003b0: 1c3d 0f3c 1b89 173b 4d1c 09bc 23f1 0ebc
000003c0: 02aa 663a 17f0 c638 fb54 8f3b b5a5 eb3b
000003d0: df81 723b 2b56 caba ab08 253b 24cf 40bc
000003e0: d7ca a53b 95cb 183a 80b2 c739 53ee 4bba
000003f0: da51 fc3b 8b45 9239 507f aabb b44f 46bc

action_model._discrete_distribution.branches.0.bias f4 [3]
0.0 0.0 0.0
00000000: 0000 0000 0000 0000 0000 0000

action_model._discrete_distribution.branches.1.weight f4 [2, 256]
-0.008383225 0.006635411 -0.0008570292 0.0018669786 0.0030205024 -0.005307818 -0.00031208852 -0.005847229
-0.0018886498 0.0032021478 -0.0068709366 -0.012064796 0.008538383 -0.0045964266 0.0023826708 0.001715757
-0.0033716254 0.0028042255 -0.009018937 0.0042779385 -0.013689955 0.003642022 -0.0036679443 -0.0025855727
-0.0008614058 0.0076987455 -0.0022932342 0.0006896215 -0.0029761074 0.0009160183 0.013418599 -0.013151735
0.008774794 -0.0037934717 0.00011677518 -0.0043522567 0.0052896994 -0.009617796 -0.0012777923 0.0018705085
0.00083760853 0.012654686 -0.004351488 0.004717743 0.01434455 0.0064958218 -0.0020136707 -0.017242495
-0.011223745 -0.004444451 0.0061339047 -0.0048855995 0.009973995 0.0033389986 0.007255533 -0.008952592
-0.007214308 0.0073680184 0.0065083033 -0.005604233 0.002451549 -0.00097139116 -0.0025646768 0.0043250998
-0.0015413722 0.012758969 -0.0016044086 -0.0044675614 0.00040652827 -0.0048039407 -0.0043970156 -0.0016715849
0.010164323 0.0017993838 -0.012779434 -0.0052277595 0.0071674488 0.006650667 0.0033165265 -0.00021810718
-0.00452207 0.0076009105 -0.0013945888 -0.004907296 0.0017201295 0.010509726 0.009800592 0.0029556283
0.0020150824 -0.0010958352 0.003038028 0.008981891 -0.0044141617 0.0030366983 -0.0010520852 -0.009002327
0.004234312 -1.6861377e-05 -0.010641521 -0.0019205146 0.0014852722 0.0112387715 -0.0007167184 -0.0045088595
0.0058521456 0.011600027 0.004105007 0.0012781637 -0.004636586 -0.0019715803 0.00037025387 -0.009185888
-0.0018318727 -0.013813927 0.00419317 0.00022683629 0.0076748054 0.009479341 0.005231641 0.0065360935
0.0023548354 0.008940996 0.012021151 -0.018119257 -0.01637055 -0.0032629457 -0.0039923154 0.0045043123
-0.003243912 0.010996224 0.0051531005 0.0037225261 0.004329597 0.0058441833 0.005232969 0.0044917515
-0.0014920266 -0.006962915 -0.0018018045 0.00041465234 -0.0040032235 -0.0082202945 0.0055748797 0.0028783816
0.00048927445 -0.0036317073 -0.0037236323 0.0008370696 0.009702991 0.004961898 0.009980128 -0.003713587
-0.005443957 0.011227985 -0.0071881735 0.008227116 -0.0057584103 -0.00096393627 0.0016219901 -0.000117073236
-0.010811838 -0.01602328 0.0060063056 -0.0025684359 0.006388911 0.0020945815 0.0019137975 -0.012776193
0.0073542343 0.010523123 -0.00038844338 -0.00595526 -0.0022816656 0.009307767 0.009795784 4.6872206e-05
-0.0048282216 -0.007851763 0.009297919 0.0008804011 -0.016218163 0.002826844 -0.008490118 -0.0035425804
0.0006880548 -0.013471487 -0.0019002411 -0.010080415 -0.009140047 0.004959167 -0.009824487 -0.0074813343
0.0071739005 0.0045362883 -0.002573704 -0.008540153 -0.00091905566 -0.009293515 -0.0019408958 0.00020321009
0.0012269852 0.0027928238 0.0008319402 0.0009519867 0.006231671 -0.0036766976 0.0044317837 -0.00966782
-0.0066778907 -0.0031573449 -0.010647213 0.0057298797 -0.0109283 -0.005326735 -0.0024876744 -0.0077706957
0.004903995 0.0013397142 0.0011598277 0.006782215 -0.0039254385 0.010278127 0.0006870543 0.0068480344
-0.0050342116 -0.008211377 0.010540679 -0.0046080095 -0.006179041 -0.0023317977 0.0015678405 -0.0026663952
-0.008056701 0.0043178606 0.0049991296 -0.010278962 0.0037811708 -0.00033512013 -0.0061472766 0.006417171
-0.00064627005 0.0047100205 0.0038364083 -0.00045982018 -0.0051502776 -0.006477309 0.0017647058 -0.0040890826
-0.0012718175 0.0057893735 -0.009112868 -0.0044224258 -0.004005471 0.0018516006 -0.0020476864 0.005440493
00000000: cb59 09bc dd6d d93b 42aa 60ba 68b5 f43a
00000010: 9ff3 453b 34ed adbb d09f a3b9 1d9a bfbb
00000020: 928c f7ba 20db 513b 9825 e1bb 6cab 45bc
00000030: 93e4 0b3c 9f9d 96bb 9526 1c3b 40e3 e03a
00000040: 7df6 5cbb 19c7 373b 2ac4 13bc f32d 8c3b
00000050: d54b 60bc fdae 6e3b e561 70bb b672 29bb
00000060: f7cf 61ba c245 fc3b 164a 16bb b7c7 343a
00000070: cc0a 43bb f320 703a afd9 5b3c 607a 57bc
00000080: 27c4 0f3c e59b 78bb 33e5 f438 609d 8ebb
00000090: 3755 ad3b f693 1dbc 987b a7ba da2b f53a
000000a0: f592 5b3a 9a55 4f3c ed96 8ebb 4c97 9a3b
000000b0: 6705 6b3c e7da d43b caf7 03bb 2240 8dbc
000000c0: cce3 37bc c2a2 91bb ecfe c83b 6117 a0bb
000000d0: f869 233c 1ad3 5a3b d2bf ed3b e4ad 12bc
000000e0: 0066 ecbb 6b6f f13b 9b43 d53b b7a3 b7bb
000000f0: 2baa 203b f5a4 7eba 2314 28bb 91b9 8d3b
00000100: de07 caba ff0a 513c 054b d2ba 9f64 92bb
00000110: 4d23 d539 606a 9dbb d714 90bb 1519 dbba
00000120: 4388 263c 4dd9 eb3a d560 51bc a04d abbb
00000130: ebdc ea3b d7ed d93b 155a 593b b3b3 64b9
00000140: df2d 94bb 0f11 f93b a3ca b6ba 62cd a0bb
00000150: f875 e13a fc30 2c3c aa92 203c 37b3 413b
00000160: 790f 043b 21a2 8fba a719 473b c828 133c
00000170: aca4 90bb 5803 473b 1fe6 89ba 7f7e 13bc
00000180: fcbf 8a3b 8871 8db7 c659 2ebc c7b9 fbba
00000190: 77ad c23a d322 383c 28e2 3bba 0ebf 93bb
000001a0: 5bc3 bf3b 0a0e 3e3c 4b83 863b 0f88 a73a
000001b0: 81ee 97bb a135 01bb a21e c239 6880 16bc
000001c0: 731b f0ba cf53 62bc dc66 893b e7da 6d39
000001d0: ef7c fb3b 3d4f 1b3c 2f6e ab3b ba2c d63b
000001e0: 9553 1a3b 417d 123c 5df4 443c d66e 94bc
000001f0: 881b 86bc 25d7 55bb f8d1 82bb e998 933b
00000200: d097 54bb 8229 343c 57db a83b a0f5 733b
00000210: 4bdf 8d3b 9080 bf3b 5379 ab3b 8b2f 933b
00000220: 1b90 c3ba 2a29 e4bb 872a ecba b265 d939
00000230: 792d 83bb 6aae 06bc 7bad b63b 3ba3 3c3b
00000240: a742 003a f001 6ebb 2f08 74bb ca6e 5b3a
00000250: 4bf9 1e3c 6b97 a23b b183 233c a75f 73bb
00000260: 3963 b2bb 95f5 373c c58a ebbb 07cb 063c
00000270: 0cb1 bcbb abb0 7cba f598 d43a 3785 f5b8
00000280: 2324 31bc 4143 83bc 8bd0 c43b 3453 28bb
00000290: 125a d13b 3f45 093b 63d8 fa3a 3d53 51bc
000002a0: cafb f03b 2d69 2c3c fda7 cbb9 5724 c3bb
000002b0: ff87 15bb 9b7f 183c 7f7e 203c a698 4438
000002c0: 0f36 9ebb aea4 00bc 4d56 183c b8ca 663a
000002d0: f4db 84bc 9342 393b 231a 0bbc a32a 68bb
000002e0: 935e 343a 83b7 5cbc 8311 f9ba 5328 25bc
000002f0: 23c0 15bc 8280 a23b e3f6 20bc fb25 f5bb
00000300: 0a13 eb3b 25a5 943b 97ab 28bb ffeb 0bbc
00000310: c8ec 70ba d443 18bc a865 feba cb14 5539
00000320: cbd2 a03a cf07 373b 9016 5a3a bf8e 793a
00000330: 0c33 cc3b c0f4 70bb 7f38 913b c765 1ebc
00000340: 35d2 dabb 75eb 4ebb a671 2ebc b7c1 bb3b
00000350: 9d0c 33bc e48b aebb 4008 23bb 52a1 febb
00000360: b1b1 a03b 5999 af3a 5c05 983a 583d de3b
00000370: f7a0 80bb 9765 283c 6f1b 343a 7a65 e03b
00000380: 07f6 a4bb 0389 06bc d0b2 2c3c c9fe 96bb
00000390: 8e79 cabb 13d1 18bb ff7f cd3a b0be 2ebb
000003a0: 4100 04bc d77c 8d3b bdcf a33b 1769 28bc
000003b0: 85cd 773b 10b3 afb9 186f c9bb 2247 d23b
000003c0: 736a 29ba 8456 9a3b 406c 7b3b 0514 f1b9
000003d0: a9c3 a8bb 9b3f d4bb b34d e73a b6fd 85bb
000003e0: 1db3 a6ba c9b4 bd3b 244e 15bc ffe9 90bb
000003f0: 5340 83bb 68b1 f23a 7a32 06bb 2a46 b23b

action_model._discrete_distribution.branches.1.bias f4 [2]
0.0 0.0
00000000: 0000 0000 0000 0000

action_model._discrete_distribution.branches.2.weight f4 [2, 256]
0.0021681325 0.004064489 -0.0096913325 -0.009507624 0.002897522 0.0017751625 -0.0064546354 -0.0006159313
0.01181909 0.0025421458 -0.0018388917 0.0078549925 -0.00035205664 -0.007451755 -0.0057929223 0.0017823434
-0.00712462 -0.0025633338 0.0041552545 0.017302027 0.005877973 0.002327225 0.007578013 0.014673824
-0.008069888 -0.0009998804 0.011172217 0.00915905 -0.0072987624 -0.014190449 0.0041915174 0.0019777399
-0.0075892517 -0.000846163 -0.0058367113 -0.0063293427 0.010165356 -0.00018171684 -0.0013296355 -0.008667078
0.00046987832 -0.007269771 -0.008882493 0.006895209 0.0010975825 0.0016140252 0.007278662 0.005803897
-0.010385668 0.00518211 0.004309507 -0.004516649 0.0015719262 0.0030284766 -0.0035002157 -0.00815091
-0.007876145 0.0060292035 -0.0036524348 0.012504416 -0.0136599485 0.012535969 0.0041347104 -0.00014931944
-0.001809801 -0.0038184214 0.000845321 0.0016319907 0.006376318 -0.00865619 0.008709199 0.010568815
0.0044740066 -0.0009926948 0.0027205776 0.00044828784 -0.003273895 -0.0033226074 0.00545912 0.0117842555
-0.003094948 0.013286063 0.0069253393 -0.002908361 0.007780575 -0.0023746674 -0.0047945157 -0.0018678531
0.011719273 0.0068815495 -0.0039402326 -0.0028391047 -0.0021442436 0.0016115553 -0.0024318744 0.0006583586
-0.0018190714 0.0068486654 -0.015788015 0.0026237818 -0.00084671006 -0.0009291529 -0.017010177 -0.0011375919
-0.017382596 0.009540368 -0.0023718576 0.0066271843 -0.008625862 -0.003921341 -0.00724032 0.010586231
0.0024483101 -0.008182442 -0.0018646403 -0.0035089124 0.004674543 0.0020506845 0.002609079 0.0037701302
0.0012392595 -0.007890302 -0.0031431967 0.0043089404 0.007149516 -0.010118435 0.0022385807 -0.009125517
0.001946581 0.017421555 0.0062818266 0.0022466693 0.013466181 -0.009570207 0.0013185196 -0.012347071
-0.0059380103 0.014696431 0.018934714 0.0016382274 0.0026383696 -0.0006654212 0.010735012 0.0012551037
-0.0048455223 -0.010967897 -0.008560381 0.005679694 0.003779697 -0.006149496 0.008835208 -0.0028526576
0.009407268 -0.006527867 0.0057255207 0.010188383 0.0052688597 -0.010432529 0.00021887208 0.008217589
-0.0048167775 -0.009432568 0.009323373 0.004324245 -0.0018857891 -0.011623784 -0.0020313049 0.010173672
0.0029519142 0.0032096144 0.0014920742 -2.295939e-05 -0.0031408218 -0.0005672061 0.0020772389 0.0033429258
0.00018293817 0.008703417 0.01367645 -0.004949095 -0.0019201003 0.0037742816 -0.0049747815 -0.0023165466
-0.009833243 0.0068272427 0.00057879504 0.007406027 -0.0072362022 -0.0023022415 -0.00011710004 0.007729068
0.0021105867 -0.000411877 0.005580749 0.00029931543 0.0016240145 0.0018461948 0.0037204567 -0.0051408825
-0.008475876 0.003056366 0.011741316 0.002418859 0.0014729779 0.013282514 0.0017821171 -0.0025249368
-0.007745977 -0.0011236673 -0.009009922 0.009342703 -0.0040024235 -0.006590131 -0.003181163 -0.01153605
-0.0026321681 0.0032553615 0.001878302 0.007846706 0.0043749535 -0.010581082 0.00689749 -0.00029899058
-0.003104985 -0.0027632718 0.0048911483 0.008336364 0.012942897 -0.005381539 0.0010740183 0.0014841629
-0.012311192 -0.012974692 0.0018367611 0.0030983477 -0.00024933254 0.0030193857 0.0074670906 0.0020024048
0.0021634456 0.002971782 0.008396879 -0.004740492 -0.00043809856 -0.0016096206 0.006461666 0.0012643414
-0.004613304 0.0007085756 0.0014515972 -0.0075414996 0.00127793 -0.01792868 0.0018874378 -0.010342381
00000000: 3a17 0e3b 682f 853b 65c8 1ebc dec5 1bbc
00000010: 5ae4 3d3b 92ac e83a 6881 d3bb 7376 21ba
00000020: dba4 413c 219a 263b f706 f1ba 3ab2 003c
00000030: 3e94 b8b9 da2d f4bb 8ed2 bdbb 859d e93a
00000040: a575 e9bb 9bfd 27bb cd28 883b fbbc 8d3c
00000050: 039c c03b 5b84 183b fb50 f83b 7b6a 703c
00000060: 9037 04bc 6b0e 83ba ad0b 373c d70f 163c
00000070: 752a efbb 0f7f 68bc ff58 893b f89c 013b
00000080: 42af f8bb 0ad1 5dba e241 bfbb 6066 cfbb
00000090: 988c 263c 3e8b 3eb9 2a47 aeba 5c00 0ebc
000000a0: 005a f639 4237 eebb e087 11bc 35f1 e13b
000000b0: c2dc 8f3a b38d d33a d881 ee3b 9e2e be3b
000000c0: a628 2abc b0ce a93b c436 8d3b 6600 94bb
000000d0: 1709 ce3a 6879 463b e063 65bb 658b 05bc
000000e0: f20a 01bc a090 c53b b05d 6fbb 52df 4c3c
000000f0: facd 5fbc aa63 4d3c 777c 873b a292 1cb9
00000100: d836 edba 7b3e 7abb 8898 5d3a 85e8 d53a
00000110: 6ff0 d03b b1d2 0dbc 07b1 0e3c d328 2d3c
00000120: b09a 923b 4f1d 82ba b84b 323b 2d08 eb39
00000130: d88e 56bb 1ac0 59bb 6be2 b23b c012 413c
00000140: 9cd4 4abb caad 593c f5ed e23b 339a 3ebb
00000150: 32f4 fe3b 4fa0 1bbb 501b 9dbb c0d2 f4ba
00000160: 3202 403c 9f7e e13b 111d 81bb 4610 3abb
00000170: 7086 0cbb d33a d33a 1560 1fbb b395 2c3a
00000180: e86d eeba c56a e03b de55 81bc c1f3 2b3b
00000190: c0f5 5dba 6592 73ba ed58 8bbc 401b 95ba
000001a0: f265 8ebc 344f 1c3c 2b71 1bbb da28 d93b
000001b0: 7d53 0dbc 987e 80bb 3540 edbb df71 2d3c
000001c0: d473 203b a60f 06bc f266 f4ba c8f5 65bb
000001d0: e92c 993b c764 063b 15fd 2a3b 4a14 773b
000001e0: a66e a23a 5346 01bc 17fe 4dbb 0332 8d3b
000001f0: 7d46 ea3b cbc7 25bc 27b5 123b 3183 15bc
00000200: 6b24 ff3a a6b7 8e3c c8d7 cd3b db3c 133b
00000210: 42a1 5c3c 5ccc 1cbc 2dd2 ac3a 5f4b 4abc
00000220: a493 c2bb 4dc9 703c f91c 9b3c cab9 d63a
00000230: 7fe8 2c3b a96f 2eba e7e1 2f3c 4b82 a43a
00000240: 30c7 9ebb b2b2 33bc d740 0cbc ba1c ba3b
00000250: cbb4 773b b681 c9bb 8cc1 103c a7f3 3abb
00000260: f120 1a3c b8e7 d5bb 269d bb3b 2ded 263c
00000270: 66a6 ac3b 33ed 2abc 0781 6539 11a3 063c
00000280: 0fd6 9dbb 0f8b 1abc 10c1 183c 65b2 8d3b
00000290: 952c f7ba af71 3ebc a41f 05bb 79af 263c
000002a0: e774 413b 6558 523b b491 c33a ea98 c0b7
000002b0: 3fd6 4dbb 8fb0 14ba 4922 083b fd14 5b3b
000002c0: 17d3 3f39 c798 0e3c 3013 603c 052c a2bb
000002d0: e0ab fbba f059 773b 7e03 a3bb 34d1 17bb
000002e0: 9c1b 21bc 10b7 df3b 47ba 173a 42ae f23b
000002f0: aa1d edbb 34e1 16bb 9b93 f5b8 1f44 fd3b
00000300: c551 0a3b 32f1 d7b9 b7de b63b 70ed 9c39
00000310: e2dc d43a 05fc f13a e8d2 733b d974 a8bb
00000320: 67de 0abc 504d 483b a65e 403c b885 1e3b
00000330: f010 c13a e79e 593c ed95 e93a 6979 25bb
00000340: f7d1 fdbb 0548 93ba 5a9e 13bc 2312 193c
00000350: c326 83bb 07f2 d7bb 0f7b 50bb b301 3dbc
00000360: 7480 2cbb e757 553b 5b31 f63a 788f 003c
00000370: c55b 8f3b 465c 2dbc 5704 e23b d6c1 9cb9
00000380: 017d 4bbb 0218 35bb ed45 a03b 3f95 083c
00000390: 720e 543c 9f57 b0bb 13c6 8c3a 3e88 c23a
000003a0: e2b4 49bc cd93 54bc 7abf f03a a60d 4b3b
000003b0: d9b8 82b9 e3e0 453b 7fae f43b c73a 033b
000003c0: 98c8 0d3b 3bc2 423b 1093 093c 2156 9bbb
000003d0: 98b0 e5b9 e8f9 d2ba 62bc d33b 42b8 a53a
000003e0: 332b 97bb b4bf 393a 8543 be3a af1e f7bb
000003f0: 3780 a73a 2bdf 92bc e763 f73a 1773 29bc

action_model._discrete_distribution.branches.2.bias f4 [2]
0.0 0.0
00000000: 0000 0000 0000 0000

action_model._discrete_distribution.branches.3.weight f4 [2, 256]
-0.010351825 0.00031454104 0.003055034 -0.013948226 0.009329151 -0.0024440098 0.003629459 0.0007826131
-0.0045878044 -0.00084933004 -0.0075982674 0.0049564643 0.0037597504 0.0015806549 -0.00034404482 0.009213385
0.00220293 -0.013482779 -0.002688512 0.0026676548 0.008894487 0.006620887 0.0006474602 -0.010036825
-0.0052278745 -0.0053116893 0.0062205927 -0.003577007 -0.0040709283 0.0014768497 -0.00775499 -0.010573815
0.001976474 0.0015613586 0.0073174383 0.001153837 0.0036108892 -0.006655536 -0.007962935 -0.010146092
0.0025538756 -0.0007472861 0.0009498509 -0.00657545 0.0031368134 -0.001080132 0.0023353947 -0.015372209
2.6026273e-05 0.010446893 -0.005533603 0.003185371 -0.0052372613 0.0016247341 -0.0076164226 0.005000483
0.007013356 -0.010373014 0.0060336064 0.007427083 0.0016837682 0.0013103139 0.002151163 -0.00015671605
-0.0066614994 -0.0021370423 -0.0042808964 0.0006339028 0.006348186 0.01278757 0.005057573 -0.007864057
-0.0038736311 -0.0008754204 -0.002719335 -0.0044979188 -0.0031875751 0.00033234284 -0.005324951 -0.0024237537
-0.006668334 0.003913679 -0.007012243 0.0089254435 0.0021501742 -0.0037106432 -0.005255662 0.00050121424
-0.0034336818 0.010753794 -0.004155438 -0.012986391 0.0020231921 -0.0061930697 -0.005733418 -0.0009115226
0.004018757 -0.00031498855 0.008330055 -0.002953545 0.0011945458 0.005482121 -0.0048585264 0.0055167773
0.013702037 0.0038952024 0.00014802492 0.0031526447 0.0039711683 0.0052621416 0.0051858756 0.008889811
-0.0038392951 -0.004462007 0.0064249793 -0.0030580303 0.0011892513 -0.0066088843 -0.009534905 -0.0039521395
-0.008410097 0.004864506 0.0050966404 -0.0027549695 -0.0038900084 0.001953956 -0.006226684 0.011182769
-0.014372135 -0.0038001474 0.0020637668 0.0025720615 -0.0067343074 0.0049365996 -0.0037659758 -0.0035119154
-0.004068561 -0.0031180582 0.0025372447 -0.013549544 -0.0003179028 -0.0039607245 0.0007122427 0.008935173
-0.008420697 -0.005847865 0.007224341 -0.00080183 0.0029130394 0.008893794 0.0057148607 0.00093730836
-0.003973314 -0.0025888034 0.0042926488 0.0072349655 0.000490779 -0.00062071637 0.0075185024 0.0025524462
0.0007206038 -0.0013941488 0.0031539777 3.2302174e-05 -0.005059169 0.00861495 -0.0075420216 -0.0007033417
0.008004065 -0.007331894 -0.001396139 0.00019602725 0.01082996 0.0142273 0.0011115252 -0.0010698574
0.0014859017 0.001334032 0.0027784305 0.0037722865 -0.010588503 0.0046885363 0.0022394352 -0.0062316796
0.008390049 0.004167063 0.0011625879 0.0026955067 0.012261252 5.9534883e-05 -0.0028262744 -0.0025393346
-0.009646581 -0.010137761 0.010474123 0.008382872 0.0053394553 0.0060605793 0.0036743262 -0.00079371233
-0.0031655848 0.005637194 -0.0020780375 0.004501115 0.0031226657 -0.00857388 -0.0034905558 2.2409882e-05
0.0051369458 0.004795506 -0.0004216417 0.011117122 -0.006419122 0.014356144 -0.010911462 0.0053178263
0.0039459723 -0.006905082 -0.00057630666 -0.012522955 -0.0083437 -0.004452384 -0.0023949682 -0.003747126
0.011924564 0.007835441 -0.005896163 -0.011657624 -0.014022407 -0.01282495 0.0055134185 -0.009146352
0.003276982 -0.0074439156 -0.0064605596 0.0010675931 -0.0014640123 -0.0035583165 -0.0012198932 0.0040507526
-0.007001288 -0.0021202492 0.0016120281 0.0008817107 -0.0049755448 -0.00843155 0.0026356194 0.0015854331
-0.0020100453 -0.0044974377 0.0020037598 0.002381226 -0.008258679 -0.0041665323 -0.0012341181 -0.0063102455
00000000: b39a 29bc fce8 a439 f736 483b 1a87 64bc
00000010: 4cd9 183c ae2b 20bb 38dc 6d3b 4728 4d3a
00000020: 4b55 96bb 93a5 5eba e3fa f8bb d669 a23b
00000030: 2566 763b fa2d cf3a ea60 b4b9 bdf3 163c
00000040: 085f 103b e0e6 5cbc bf31 30bb d2d3 2e3b
00000050: 2fba 113c 07f4 d83b 52ba 293a 7f71 24bc
00000060: 974e abbb ae0d aebb 1dd6 cb3b 386c 6abb
00000070: 6c65 85bb da92 c13a 921d febb cb3d 2dbc
00000080: bb87 013b 80a6 cc3a 1fc7 ef3b 583c 973a
00000090: aba4 6c3b af16 dabb f876 02bc cb3b 26bc
000000a0: ec5e 273b 85e5 43ba 6aff 783a df76 d7bb
000000b0: ff92 4d3b 3793 8dba 6c0d 193b b8db 7bbc
000000c0: ff52 da37 7229 2b3c 3a53 b5bb a8c1 503b
000000d0: 559d abbb 08f5 d43a 2f93 f9bb 17db a33b
000000e0: 4bd0 e53b 93f3 29bc 8fb5 c53b e35e f33b
000000f0: e3b1 dc3a d7be ab3a 87fa 0c3b 2554 24b9
00000100: b548 dabb 9f0d 0cbb c346 8cbb 7f2c 263a
00000110: 7204 d03b f582 513c ffb9 a53b 3fd8 00bc
00000120: bfdc 7dbb 787c 65ba df36 32bb 4763 93bb
00000130: a3e6 50bb 4d3e ae39 ed7c aebb d7d7 1ebb
00000140: 0a82 dabb 523e 803b f5c6 e5bb 063c 123c
00000150: f0e9 0c3b 432e 73bb b037 acbb eb63 033a
00000160: 9f07 61bb ae30 303c 572a 88bb dfc4 54bc
00000170: 8897 043b 3cef cabb 65df bbbb 3ff3 6eba
00000180: c7af 833b 0c25 a5b9 c87a 083c 4390 41bb
00000190: 4e92 9c3a 5da3 b33b 4634 9fbb 15c6 b43b
000001a0: 827e 603c a746 7f3b 2337 1b39 9a9c 4e3b
000001b0: 9320 823b 0b6e ac3b 47ee a93b 92a6 113c
000001c0: af9c 7bbb 0736 92bb a288 d23b 3c69 48bb
000001d0: a7e0 9b3a 578f d8bb 4a38 1cbc f380 81bb
000001e0: 81ca 09bc 6f66 9f3b b801 a73b b88c 34bb
000001f0: 83ef 7ebb f10d 003b 3609 ccbb ef37 373c
00000200: 1a79 6bbc e50b 79bb 4340 073b 0890 283b
00000210: 77ab dcbb 33c3 a13b 97ce 76bb 2a28 66bb
00000220: 9051 85bb 5658 4cbb e747 263b e8fe 5dbc
00000230: 31ac a6b9 f7c8 81bb ccb5 3a3a d564 123c
00000240: f7f6 09bc 729f bfbb 2aba ec3b e731 52ba
00000250: b1e8 3e3b 47b7 113c ba43 bb3b b3b5 753a
00000260: 9332 82bb eaa8 29bb 59a9 8c3b 4a13 ed3b
00000270: 9fa7 003a 92b7 22ba c55d f63b f146 273b
00000280: e7e6 3c3a dfbb b6ba f7b2 4e3b 327c 0738
00000290: 63c7 a5bb b825 0d3c 1023 f7bb 7660 38ba
000002a0: 7b23 033c 6240 f0bb a7fe b6ba aa8c 4d39
000002b0: 2570 313c 9f19 693c 99b0 913a 753a 8cba
000002c0: 96c2 c23a b0da ae3a 5416 363b 7738 773b
000002d0: 677b 2dbc 4ba2 993b 7dc3 123b 1e33 ccbb
000002e0: 6b76 093c dc8b 883b fa61 983a 19a7 303b
000002f0: 6be3 483c 18b5 7938 0439 39bb f76a 26bb
00000300: b10c 1ebc da18 26bc a89b 2b3c 5058 093c
00000310: 99f6 ae3b d397 c63b f7cc 703b 2211 50ba
00000320: b375 4fbb 36b8 b83b af2f 08bb 177e 933b
00000330: a3a5 4c3b 7679 0cbc cfc1 64bb dbfc bb37
00000340: d353 a83b 9f23 9d3b ca0f ddb9 9724 363c
00000350: 8057 d2bb 0836 6b3c fdc5 32bc 2941 ae3b
00000360: 374d 813b 0744 e2bb 4913 17ba 152d 4dbc
00000370: 04b4 08bc 4ee5 91bb e6f4 1cbb 5892 75bb
00000380: 3f5f 433c 3960 003c 9a34 c1bb 9eff 3ebc
00000390: 3dbe 65bc bd1f 52bc e8a9 b43b 95da 15bc
000003a0: a3c2 563b 17ec f3bb 1ab3 d3bb 7bee 8b3a
000003b0: 1ae4 bfba a532 69bb d3e4 9fba 2dbc 843b
000003c0: 0f6b e5bb e1f3 0abb b04a d33a 9a22 673a
000003d0: e509 a3bb 7c24 0abc 5bba 2c3b 4fce cf3a
000003e0: f7ba 03bb 3e5f 93bb 8351 033b 580e 1c3b
000003f0: 694f 07bc 6887 88bb 22c2 a1ba 2dc6 cebb

action_model._discrete_distribution.branches.3.bias f4 [2]
0.0 0.0
00000000: 0000 0000 0000 0000
