MLagents/results/hb_01/Mario/Mario-468.pt (torch, 696567 bytes, 23 tensors)

network_body.vector_processors.0.normalizer.running_mean f4 [69]
000000 00 00 00 00 00 00 00 00 47 74 7f 3f 47 74 7f 3f
       0.0 0.0 0.997868 0.997868
000010 3d 56 da 3d 00 00 00 00 00 00 00 00 00 00 00 00
       0.1066098 0.0 0.0 0.0
000020 3d 56 da 3d 00 00 00 00 00 00 00 00 00 00 00 00
       0.1066098 0.0 0.0 0.0
000030 5b f8 d5 3d 51 bc 0b 3b 00 00 00 00 00 00 00 00
       0.10447761 0.0021321962 0.0 0.0
000040 5b f8 d5 3d 51 bc 0b 3b 00 00 00 00 00 00 00 00
       0.10447761 0.0021321962 0.0 0.0
000050 5b f8 d5 3d 51 bc 0b 3b 00 00 00 00 00 00 00 00
       0.10447761 0.0021321962 0.0 0.0
000060 5b f8 d5 3d 51 bc 0b 3b 00 00 00 00 00 00 00 00
       0.10447761 0.0021321962 0.0 0.0
000070 79 9a d1 3d 51 bc 0b 3b 00 00 00 00 00 00 00 00
       0.102345414 0.0021321962 0.0 0.0
000080 79 9a d1 3d 51 bc 0b 3b 00 00 00 00 00 00 00 00
       0.102345414 0.0021321962 0.0 0.0
000090 65 ab ae 3d 51 bc 8b 3b 00 00 00 00 00 00 00 00
       0.08528785 0.0042643924 0.0 0.0
0000a0 ee 22 c0 3d 51 bc 8b 3b 00 00 00 00 00 00 00 00
       0.09381662 0.0042643924 0.0 0.0
0000b0 65 ab ae 3d 65 ab 2e 3c 00 00 00 00 00 00 00 00
       0.08528785 0.010660981 0.0 0.0
0000c0 2a 67 b7 3d 7a 9a d1 3b 00 00 00 00 00 00 00 00
       0.08955224 0.006396589 0.0 0.0
0000d0 79 9a d1 3d 8e 89 74 3c 00 00 00 00 00 00 00 00
       0.102345414 0.014925374 0.0 0.0
0000e0 ef 22 c0 3d 51 bc 0b 3c 00 00 00 00 00 00 00 00
       0.09381663 0.008528785 0.0 0.0
0000f0 47 74 7f 3f 00 00 00 00 00 00 00 00 0b 59 30 3e
       0.997868 0.0 0.0 0.17221467
000100 43 aa cf 3e 00 00 00 00 8a 72 7f bf 8e 83 9d 3b
       0.40559587 0.0 -0.9978415 0.0048069423
000110 00 00 00 00
       0.0

network_body.vector_processors.0.normalizer.running_variance f4 [69]
000000 00 00 80 3f 00 00 80 3f 58 b7 ff 3f 58 b7 ff 3f
       1.0 1.0 1.9977827 1.9977827
000010 94 ad 36 42 00 00 80 3f 00 00 80 3f 00 00 80 3f
       45.66951 1.0 1.0 1.0
000020 94 ad 36 42 00 00 80 3f 00 00 80 3f 00 00 80 3f
       45.66951 1.0 1.0 1.0
000030 bb 85 33 42 22 ba ff 3f 00 00 80 3f 00 00 80 3f
       44.880596 1.9978678 1.0 1.0
000040 bb 85 33 42 22 ba ff 3f 00 00 80 3f 00 00 80 3f
       44.880596 1.9978678 1.0 1.0
000050 bb 85 33 42 22 ba ff 3f 00 00 80 3f 00 00 80 3f
       44.880596 1.9978678 1.0 1.0
000060 bb 85 33 42 22 ba ff 3f 00 00 80 3f 00 00 80 3f
       44.880596 1.9978678 1.0 1.0
000070 85 59 30 42 22 ba ff 3f 00 00 80 3f 00 00 80 3f
       44.08742 1.9978678 1.0 1.0
000080 85 59 30 42 22 ba ff 3f 00 00 80 3f 00 00 80 3f
       44.08742 1.9978678 1.0 1.0
000090 9c 5a 16 42 44 74 3f 40 00 00 80 3f 00 00 80 3f
       37.588486 2.9914713 1.0 1.0
0000a0 00 7d 23 42 44 74 3f 40 00 00 80 3f 00 00 80 3f
       40.87207 2.9914713 1.0 1.0
0000b0 9b 5a 16 42 53 4b be 40 00 00 80 3f 00 00 80 3f
       37.58848 5.946695 1.0 1.0
0000c0 89 f4 1c 42 98 c5 7e 40 00 00 80 3f 00 00 80 3f
       39.238804 3.9808102 1.0 1.0
0000d0 83 59 30 42 1f a8 fc 40 00 00 80 3f 00 00 80 3f
       44.087414 7.8955226 1.0 1.0
0000e0 00 7d 23 42 88 e8 9e 40 00 00 80 3f 00 00 80 3f
       40.87207 4.965885 1.0 1.0
0000f0 58 b7 ff 3f 00 00 80 3f 00 00 80 3f 34 98 68 43
       1.9977827 1.0 1.0 232.59454
000100 78 57 12 43 00 00 80 3f 64 b8 ff 3f 7e c5 81 3f
       146.34167 1.0 1.9978147 1.0138395
000110 00 00 80 3f
       1.0

network_body.linear_encoder.seq_layers.0.weight f4 [256, 69]
000000 0c 81 cb bc 68 62 8f 3d cd 40 e9 bd d6 9c 98 3d
       -0.024841808 0.070011914 -0.11389313 0.07451789
000010 8e 8c 0b be f8 7d b7 3b 0a 9e 15 3e e2 eb 24 be
       -0.13627836 0.0055997334 0.14611068 -0.16105607
000020 77 64 13 3e 55 b2 01 be 3b f5 d1 bd 8b 2a 17 be
       0.14393793 -0.12665685 -0.10251852 -0.14762323
000030 28 c2 06 3d f1 fd fb 3d 38 eb 9c be dd 79 3d bd
       0.032900006 0.12304295 -0.30648208 -0.046258796
000040 0d b2 98 bd 38 43 07 3e 75 60 bb 3c 05 df 07 3e
       -0.074558355 0.13209236 0.022873143 0.13268669
000050 2c f0 10 3e 6d f8 25 bd 72 14 97 bd 43 ec c1 bd
       0.14154118 -0.04052012 -0.073769465 -0.094688915
000060 16 8a 7b be 26 4a 75 3e 2c 7d 6a bc 05 c6 c2 3b
       -0.24564394 0.23954067 -0.01431207 0.005944016
000070 65 a4 62 3d 6c 3d 1f 3b 53 69 5a be 19 b2 b8 3d
       0.05533256 0.0024298085 -0.2132924 0.090183444
000080 d7 89 a5 3d 23 84 5f be 1d c0 0e 3c ad 0b 12 bc
       0.080829315 -0.2182775 0.008712796 -0.008913917
000090 ff b7 19 3e a6 fa 27 be 77 c2 11 3d 1a 79 83 3e
       0.15011595 -0.16404209 0.035585847 0.2567833
0000a0 48 45 c0 bd 83 9d a6 bd fd fd 23 be 51 7e 8c be
       -0.09388214 -0.08135512 -0.16014858 -0.27440122
0000b0 f9 0c 3e 3e fa a2 4f bd 53 18 b2 3d 92 ad 7a 3b
       0.18559636 -0.050692536 0.08696046 0.0038250429
0000c0 7b b4 5b bd d9 5d 06 3d 94 8f 28 3d dc 99 89 bc
       -0.053638916 0.032804344 0.04115255 -0.016796999
0000d0 97 89 95 3d 33 5d 16 3d 36 d8 1d 3d 5a 8a 2c 3e
       0.07301634 0.036709975 0.038536273 0.16849652
0000e0 a5 61 f4 3d 28 d3 d6 bd 7f 72 27 3c 00 4e ca bd
       0.11932687 -0.104894936 0.010220169 -0.098781586
0000f0 98 cc 2b 3c 90 00 37 3e 46 f2 0f bd 89 ed 57 3e
       0.010485791 0.17871308 -0.03514316 0.21086706
000100 30 a2 8a 3b 8e 2e 42 3d a5 3b 10 3e 17 53 c7 3d
       0.00423076 0.04740768 0.14085253 0.09732645
000110 16 e8 62 3d 78 fb fd bd 08 aa d3 3d bf 2d 24 be
       0.055397116 -0.124014795 0.10335165 -0.16033076
000120 65 75 25 3e a0 9f 42 bd 4f 18 bd bd d5 c9 cc 3d
       0.16158064 -0.04751551 -0.09233152 0.09999434
000130 68 45 b8 bd 5a 08 2e 3d ee 7e b7 3d f7 a1 39 3d
       -0.08997613 0.042488433 0.08959757 0.045320477
000140 25 d5 80 bd 45 f2 9c 3b 2b 5d 95 3d b1 d9 69 3d
       -0.06290654 0.004789623 0.07293161 0.057092372
000150 e8 d5 83 3d 5a 6a c3 3d e3 8f ba bd 59 65 90 3d
       0.06437284 0.09541769 -0.091094755 0.070505805
000160 80 70 3e 3d fc 4b 5d 3d d4 25 27 bc 51 bb fc 3d
       0.046494007 0.054027542 -0.01020189 0.12340415
000170 3a 65 aa 3d c8 1c 72 3d a7 52 d7 3c f8 2a e5 bd
       0.08320089 0.05910948 0.026284529 -0.11189836
000180 f9 16 8e be 9e b3 20 3e 85 ca 78 3d 68 e3 af bd
       -0.27751902 0.15693519 0.060740013 -0.08588296
000190 ad a3 a9 bd 4a 73 1d 3e 9c eb 0a be 05 9f 1a 3e
       -0.08283172 0.1537601 -0.1356644 0.15099724
0001a0 aa e5 97 bd ea 14 8b bc f5 d0 3a 3e 63 f8 ab 3d
       -0.07416852 -0.016977746 0.18243773 0.083969854
0001b0 04 e3 8a bd 66 f2 a1 3c 8f 53 8a 3e b5 8f 75 bd
       -0.06781581 0.019768905 0.27016875 -0.059951503
0001c0 c6 60 94 3e 7d e3 cb bd 91 e0 cb 3c 52 65 79 bb
       0.28980082 -0.09955499 0.024887355 -0.0038054776
0001d0 09 e3 93 3b 0b 30 0e 3e 29 3a cc 3d 9b 73 28 3d
       0.0045131487 0.13885514 0.09972031 0.041125875
0001e0 2b 3f 32 3e 22 b3 03 3e b7 4d ba bd b6 cd 35 3e
       0.17406909 0.12861302 -0.09096854 0.17754254
0001f0 0c cd 0d 3d d1 06 88 bb 12 0d a9 3d 3c 3a aa 3e
       0.034619376 -0.004151203 0.08254446 0.33247554
000200 66 c2 38 3e 4d 59 94 bd 7c ab 0d be 5b 5c 28 3d
       0.18042907 -0.07243595 -0.13834947 0.041103702
000210 1c 26 e0 bd 02 3d 35 3d ac 72 ef bb c3 c6 68 bd
       -0.10944769 0.044247635 -0.007307371 -0.05683018
000220 7d 09 93 bd d4 ab e7 3d 11 bd 47 3e 34 51 13 bd
       -0.07179544 0.113120705 0.19505717 -0.035966113
000230 39 f3 08 3e 90 01 01 bd 7c e2 9c 3d e8 56 c1 bd
       0.13374032 -0.03149563 0.07660386 -0.09440404
000240 5f e4 b6 3c e5 71 b3 bd ff 87 88 bd 8c ad fc bd
       0.022325693 -0.08761958 -0.06666564 -0.12337789
000250 0e 66 be bb 12 36 fc bd 05 c8 05 be f6 c9 b9 bd
       -0.0058105057 -0.123150006 -0.13064583 -0.09071724
000260 a0 0f 21 3c c0 4d 5f be 7d 0a 71 3d 2b e7 e8 bd
       0.009830385 -0.21807003 0.058847893 -0.11372217
000270 fa 19 0e bd d6 59 26 3e 79 c4 f8 bc 50 e5 9e 3c
       -0.034692742 0.16245207 -0.030367123 0.019396454
000280 4d 10 8e bd 10 af dc bd c7 f2 e7 3d 80 84 40 bd
       -0.06936703 -0.10775578 0.11325603 -0.04700136
000290 72 c0 f0 3d 77 b6 49 3c 55 bf a5 bd 04 a7 00 bd
       0.11755456 0.012311569 -0.08093134 -0.03140928
0002a0 bc 7e 5c 3d a3 8d 78 bd da 67 c6 3c d9 7c d8 bd
       0.0538318 -0.06068195 0.024219442 -0.10570688
0002b0 de 78 8f bd 2d 46 85 bd 34 81 37 39 f9 e3 b5 3d
       -0.070054755 -0.065075256 0.00017500372 0.08881373
0002c0 5a 82 20 3e 33 68 0d 3e 58 05 a0 3d 17 1a bd bd
       0.15674725 0.1380928 0.07813519 -0.09233492
0002d0 9b b2 26 bc 76 7e b6 3d 66 27 b3 bc 8c 70 c4 3d
       -0.010174419 0.08910839 -0.021869373 0.09591779
0002e0 43 05 b2 bd ca 9d 6c 3e fc f7 d7 bd b5 41 bd 3c
       -0.0869241 0.23107067 -0.10545346 0.02310262
0002f0 fb 91 31 3e 46 d7 9f 3c bb 31 09 3e db 31 28 3e
       0.17340843 0.01951183 0.13397877 0.16425268
000300 1b a8 17 be 5a 80 d7 bd 83 26 ce bd 37 e9 b3 bc
       -0.14810221 -0.10522528 -0.10065939 -0.021961791
000310 90 e9 d4 bd a0 86 4f 3d f7 96 1e bd 55 2f eb bd
       -0.10396111 0.050665498 -0.03871819 -0.11483637
000320 8d a3 11 be c3 d9 0b be a9 80 60 3c 34 b9 0f 3d
       -0.14222546 -0.13657288 0.01370255 0.035088733
000330 47 af 04 3d 60 27 0b be 27 74 a9 3c 21 f9 45 bc
       0.03239372 -0.13589239 0.020685269 -0.012083323
000340 aa 5e 80 bd 20 c2 a3 3d b1 db 36 3d 04 17 52 3e
       -0.06268056 0.07996011 0.044643108 0.20516592
000350 ba 58 5d be c2 d7 7a be f2 ba 1e 3e 51 e8 01 be
       -0.21615878 -0.24496368 0.15501001 -0.12686278
000360 7a 84 43 3b 7b 12 6b 3e 1e d6 85 3e f1 2d 6f be
       0.00298336 0.22956268 0.2613992 -0.23357369
000370 8d a1 5b 3d 8f 79 55 3d f4 89 1b be d3 e1 4b 3e
       0.053620864 0.05211788 -0.15189344 0.19910364
000380 58 40 0f be 40 21 c1 bd 74 ee 22 3c 95 54 9a 3e
       -0.13989389 -0.0943017 0.009944547 0.30142656
000390 3f e4 85 3d 29 ea 53 3b d8 52 be 3d e6 67 03 be
       0.06537675 0.0032335615 0.09293145 -0.12832603
0003a0 15 72 1c 3e 70 5a 9f 3d d3 65 0c be 60 39 17 3e
       0.15277894 0.077809215 -0.13710718 0.1476798
0003b0 60 ea 4e 3d ef ca 93 3d 04 86 56 be 37 fd 24 3e
       0.050516486 0.07216441 -0.2094956 0.16112219
0003c0 97 80 9c be 40 9e 62 3d 8b b4 ba 3c d6 e2 3d bd
       -0.30566856 0.0553267 0.022791168 -0.046358906
0003d0 30 86 f3 bd cc db 7a 3d c4 be 2d 3d 24 8d 9b ba
       -0.118908286 0.06124477 0.042418256 -0.0011867625
0003e0 49 35 d2 3b 8f fc 05 bc f7 01 dd 3d dc 0a 1a be
       0.0064150435 -0.00817789 0.107913904 -0.15043205
0003f0 51 9d b3 bd a2 c5 fd 3d 2f f4 3b bd 9e e1 71 3d
       -0.0877024 0.12391211 -0.04588717 0.059053056

network_body.linear_encoder.seq_layers.0.bias f4 [256]
000000 00 00 00 00 00 00 00 00 00 00 00 00 00 00 00 00
       0.0 0.0 0.0 0.0
000010 00 00 00 00 00 00 00 00 00 00 00 00 00 00 00 00
       0.0 0.0 0.0 0.0
000020 00 00 00 00 00 00 00 00 00 00 00 00 00 00 00 00
       0.0 0.0 0.0 0.0
000030 00 00 00 00 00 00 00 00 00 00 00 00 00 00 00 00
       0.0 0.0 0.0 0.0
000040 00 00 00 00 00 00 00 00 00 00 00 00 00 00 00 00
       0.0 0.0 0.0 0.0
000050 00 00 00 00 00 00 00 00 00 00 00 00 00 00 00 00
       0.0 0.0 0.0 0.0
000060 00 00 00 00 00 00 00 00 00 00 00 00 00 00 00 00
       0.0 0.0 0.0 0.0
000070 00 00 00 00 00 00 00 00 00 00 00 00 00 00 00 00
       0.0 0.0 0.0 0.0
000080 00 00 00 00 00 00 00 00 00 00 00 00 00 00 00 00
       0.0 0.0 0.0 0.0
000090 00 00 00 00 00 00 00 00 00 00 00 00 00 00 00 00
       0.0 0.0 0.0 0.0
0000a0 00 00 00 00 00 00 00 00 00 00 00 00 00 00 00 00
       0.0 0.0 0.0 0.0
0000b0 00 00 00 00 00 00 00 00 00 00 00 00 00 00 00 00
       0.0 0.0 0.0 0.0
0000c0 00 00 00 00 00 00 00 00 00 00 00 00 00 00 00 00
       0.0 0.0 0.0 0.0
0000d0 00 00 00 00 00 00 00 00 00 00 00 00 00 00 00 00
       0.0 0.0 0.0 0.0
0000e0 00 00 00 00 00 00 00 00 00 00 00 00 00 00 00 00
       0.0 0.0 0.0 0.0
0000f0 00 00 00 00 00 00 00 00 00 00 00 00 00 00 00 00
       0.0 0.0 0.0 0.0
000100 00 00 00 00 00 00 00 00 00 00 00 00 00 00 00 00
       0.0 0.0 0.0 0.0
000110 00 00 00 00 00 00 00 00 00 00 00 00 00 00 00 00
       0.0 0.0 0.0 0.0
000120 00 00 00 00 00 00 00 00 00 00 00 00 00 00 00 00
       0.0 0.0 0.0 0.0
000130 00 00 00 00 00 00 00 00 00 00 00 00 00 00 00 00
       0.0 0.0 0.0 0.0
000140 00 00 00 00 00 00 00 00 00 00 00 00 00 00 00 00
       0.0 0.0 0.0 0.0
000150 00 00 00 00 00 00 00 00 00 00 00 00 00 00 00 00
       0.0 0.0 0.0 0.0
000160 00 00 00 00 00 00 00 00 00 00 00 00 00 00 00 00
       0.0 0.0 0.0 0.0
000170 00 00 00 00 00 00 00 00 00 00 00 00 00 00 00 00
       0.0 0.0 0.0 0.0
000180 00 00 00 00 00 00 00 00 00 00 00 00 00 00 00 00
       0.0 0.0 0.0 0.0
000190 00 00 00 00 00 00 00 00 00 00 00 00 00 00 00 00
       0.0 0.0 0.0 0.0
0001a0 00 00 00 00 00 00 00 00 00 00 00 00 00 00 00 00
       0.0 0.0 0.0 0.0
0001b0 00 00 00 00 00 00 00 00 00 00 00 00 00 00 00 00
       0.0 0.0 0.0 0.0
0001c0 00 00 00 00 00 00 00 00 00 00 00 00 00 00 00 00
       0.0 0.0 0.0 0.0
0001d0 00 00 00 00 00 00 00 00 00 00 00 00 00 00 00 00
       0.0 0.0 0.0 0.0
0001e0 00 00 00 00 00 00 00 00 00 00 00 00 00 00 00 00
       0.0 0.0 0.0 0.0
0001f0 00 00 00 00 00 00 00 00 00 00 00 00 00 00 00 00
       0.0 0.0 0.0 0.0
000200 00 00 00 00 00 00 00 00 00 00 00 00 00 00 00 00
       0.0 0.0 0.0 0.0
000210 00 00 00 00 00 00 00 00 00 00 00 00 00 00 00 00
       0.0 0.0 0.0 0.0
000220 00 00 00 00 00 00 00 00 00 00 00 00 00 00 00 00
       0.0 0.0 0.0 0.0
000230 00 00 00 00 00 00 00 00 00 00 00 00 00 00 00 00
       0.0 0.0 0.0 0.0
000240 00 00 00 00 00 00 00 00 00 00 00 00 00 00 00 00
       0.0 0.0 0.0 0.0
000250 00 00 00 00 00 00 00 00 00 00 00 00 00 00 00 00
       0.0 0.0 0.0 0.0
000260 00 00 00 00 00 00 00 00 00 00 00 00 00 00 00 00
       0.0 0.0 0.0 0.0
000270 00 00 00 00 00 00 00 00 00 00 00 00 00 00 00 00
       0.0 0.0 0.0 0.0
000280 00 00 00 00 00 00 00 00 00 00 00 00 00 00 00 00
       0.0 0.0 0.0 0.0
000290 00 00 00 00 00 00 00 00 00 00 00 00 00 00 00 00
       0.0 0.0 0.0 0.0
0002a0 00 00 00 00 00 00 00 00 00 00 00 00 00 00 00 00
       0.0 0.0 0.0 0.0
0002b0 00 00 00 00 00 00 00 00 00 00 00 00 00 00 00 00
       0.0 0.0 0.0 0.0
0002c0 00 00 00 00 00 00 00 00 00 00 00 00 00 00 00 00
       0.0 0.0 0.0 0.0
0002d0 00 00 00 00 00 00 00 00 00 00 00 00 00 00 00 00
       0.0 0.0 0.0 0.0
0002e0 00 00 00 00 00 00 00 00 00 00 00 00 00 00 00 00
       0.0 0.0 0.0 0.0
0002f0 00 00 00 00 00 00 00 00 00 00 00 00 00 00 00 00
       0.0 0.0 0.0 0.0
000300 00 00 00 00 00 00 00 00 00 00 00 00 00 00 00 00
       0.0 0.0 0.0 0.0
000310 00 00 00 00 00 00 00 00 00 00 00 00 00 00 00 00
       0.0 0.0 0.0 0.0
000320 00 00 00 00 00 00 00 00 00 00 00 00 00 00 00 00
       0.0 0.0 0.0 0.0
000330 00 00 00 00 00 00 00 00 00 00 00 00 00 00 00 00
       0.0 0.0 0.0 0.0
000340 00 00 00 00 00 00 00 00 00 00 00 00 00 00 00 00
       0.0 0.0 0.0 0.0
000350 00 00 00 00 00 00 00 00 00 00 00 00 00 00 00 00
       0.0 0.0 0.0 0.0
000360 00 00 00 00 00 00 00 00 00 00 00 00 00 00 00 00
       0.0 0.0 0.0 0.0
000370 00 00 00 00 00 00 00 00 00 00 00 00 00 00 00 00
       0.0 0.0 0.0 0.0
000380 00 00 00 00 00 00 00 00 00 00 00 00 00 00 00 00
       0.0 0.0 0.0 0.0
000390 00 00 00 00 00 00 00 00 00 00 00 00 00 00 00 00
       0.0 0.0 0.0 0.0
0003a0 00 00 00 00 00 00 00 00 00 00 00 00 00 00 00 00
       0.0 0.0 0.0 0.0
0003b0 00 00 00 00 00 00 00 00 00 00 00 00 00 00 00 00
       0.0 0.0 0.0 0.0
0003c0 00 00 00 00 00 00 00 00 00 00 00 00 00 00 00 00
       0.0 0.0 0.0 0.0
0003d0 00 00 00 00 00 00 00 00 00 00 00 00 00 00 00 00
       0.0 0.0 0.0 0.0
0003e0 00 00 00 00 00 00 00 00 00 00 00 00 00 00 00 00
       0.0 0.0 0.0 0.0
0003f0 00 00 00 00 00 00 00 00 00 00 00 00 00 00 00 00
       0.0 0.0 0.0 0.0

network_body.linear_encoder.seq_layers.2.weight f4 [256, 256]
000000 09 50 93 3b 4d bd a8 bc cd 20 11 bc 87 33 93 bd
       0.004495625 -0.020598078 -0.008857918 -0.071875624
000010 e4 e0 15 bd 8a 59 ff bc fa 9e d5 3c ec 9a 5a bd
       -0.036591426 -0.031170625 0.026076782 -0.0533704
000020 ce a2 a6 bd 8c b1 83 bb 7a 1c f0 bc 0f 6e 16 bb
       -0.08136521 -0.004018968 -0.029310454 -0.0022953784
000030 c2 c9 09 3d 4d 87 94 bd 96 6a 40 bc e5 45 60 bc
       0.033639677 -0.07252369 -0.011744162 -0.013688539
000040 36 f0 42 3d 18 a9 e8 3c f2 5b 5e 3c 30 57 2d bd
       0.047592364 0.028400943 0.013571726 -0.042319477
000050 57 3e 06 be 0a 33 c0 bd 46 ad 2b 3d bd 01 2a bd
       -0.13109718 -0.09384735 0.041913293 -0.041505564
000060 59 54 17 3d dc 95 a7 bc 3e d7 62 bc 78 20 fd bc
       0.036945675 -0.0204572 -0.013845263 -0.030899271
000070 4d 26 1d 3d 37 b7 9e 3d 05 b1 0f 3d 77 ad 15 3b
       0.038366605 0.07749789 0.03508093 0.0022838989
000080 ec 34 8a bd 4f a8 68 3c 06 36 e4 bc 61 8d 8b 3d
       -0.06748375 0.014200284 -0.027857792 0.06814075
000090 f5 6a 30 39 35 3b 71 bd 45 ea 67 bc 16 ba ad 3c
       0.00016824513 -0.058894355 -0.014154975 0.021206897
0000a0 68 af a6 3d 92 e7 c5 3c b6 ca a6 bc 11 9a a0 3d
       0.08138925 0.024158273 -0.020360332 0.07841886
0000b0 77 60 59 3d 7c 71 38 3b dd 3c 45 bd 2b ea db bb
       0.05307051 0.0028143814 -0.048153747 -0.0067112646
0000c0 f3 89 0a bc 4f 4a 4d bd 09 ae a9 bc a9 4b 95 bd
       -0.008455741 -0.050119694 -0.02071287 -0.07289822
0000d0 d2 94 b5 bd af 1a 92 bd b1 1d 28 3d d9 b5 ab bb
       -0.08866276 -0.07133996 0.04104394 -0.005240184
0000e0 fe 8c 45 bc 04 e3 ef bc 74 80 8b 3d 21 4c 3a 3d
       -0.012057541 -0.029283054 0.0681161 0.04548276
0000f0 d5 24 9f 3c d2 56 93 3d f8 58 26 bc 64 18 26 be
       0.019426743 0.07194294 -0.010153048 -0.16220242
000100 99 90 92 bb b0 9c 8e 3c 85 08 ee bc db 58 0c 3e
       -0.004472804 0.017408699 -0.029056797 0.1370577
000110 27 3c 86 bc 0a f3 21 bd 2e c6 99 bd b7 9e 40 3d
       -0.016386105 -0.03953842 -0.07508503 0.047026362
000120 f5 22 cb 3d 5a 62 7c bd 72 bc 7a bd 15 47 d6 3c
       0.09918777 -0.061617233 -0.06121487 0.026156941
000130 a2 da 16 bd 48 85 ae bd fb 69 7f bd 7f bf f9 3b
       -0.0368296 -0.08521515 -0.06235693 0.007621705
000140 99 93 17 bd 31 a7 ba bd 5c 60 3e bc 4b af d0 bc
       -0.037005994 -0.091139205 -0.011619654 -0.025474211
000150 65 f8 97 3b 9c 35 6a bd 34 87 ca bc 09 e1 82 3d
       0.004637765 -0.057180032 -0.024722673 0.06390578
000160 79 60 f2 3b 10 c7 84 3d 4f b7 c2 3d 9a 0c 3c 3d
       0.0073967543 0.06483281 0.095076196 0.045910455
000170 5a 07 9d bc 4c b6 05 3e d2 89 a4 bd 19 ad f2 bc
       -0.019168545 0.13057822 -0.080341 -0.029623555
000180 6c b3 fb bc 2f 12 a6 bc 88 89 0d 3e d9 1f a1 3c
       -0.030725203 -0.020272342 0.13821995 0.019668506
000190 0c 55 c5 3d 6e 5e 6f bd cb 74 9e 3d a7 17 11 3e
       0.09635362 -0.058439665 0.0773712 0.14169179
0001a0 05 c7 00 be 0f 50 6c bd d0 b2 6d 3d dd a0 6d 3d
       -0.1257592 -0.057693537 0.058031857 0.05801474
0001b0 73 65 77 bc d9 5b 2f 3d fb ae 47 3d df 60 db bd
       -0.015099871 0.042812202 0.04875086 -0.10711836
0001c0 73 ee 09 bd cf 3e 8b bc 13 ad 7e bd 9f eb 4e bd
       -0.03367467 -0.016997723 -0.062176775 -0.050517675
0001d0 b8 94 13 be b9 e0 04 3e 8f 6e ad 3c 7e 0a ba bd
       -0.144122 0.1297635 0.021170883 -0.090840325
0001e0 c0 bb c2 3c a5 66 13 3d 3f 8e a5 bb ea 62 cc bd
       0.023771167 0.03598656 -0.0050523574 -0.09979804
0001f0 3c 8a 72 3b 79 c1 2f bb 63 8e 2e 3d 68 96 52 bd
       0.0037008664 -0.00268182 0.04261626 -0.05141297
000200 cd b0 35 3d 26 79 55 bd 94 d1 57 bc 50 83 15 bd
       0.044358063 -0.05211749 -0.013172526 -0.036502182
000210 11 93 e8 3d a3 65 99 bc 00 b1 f9 bb 5b e0 89 bd
       0.11356176 -0.018725222 -0.007619977 -0.067322455
000220 72 34 5e bd bb 59 d5 bd c1 fa 9f 3d 5b 5a a8 3c
       -0.054249234 -0.10417505 0.078114994 0.020550897
000230 69 75 80 3d 1d d3 08 3d 49 2c 61 3d 8a 88 a9 3d
       0.06272394 0.03340446 0.054973874 0.08277996
000240 ab 0a 04 3d 0e 23 10 3d 23 aa b4 3d a5 31 ff 3c
       0.032236736 0.03518968 0.088215135 0.031151602
000250 a7 37 87 3d b3 26 ea bd ff d4 83 bd dc 9a a7 3d
       0.06602412 -0.114331625 -0.0643711 0.08183834
000260 a6 f4 10 bd f3 4a 34 3d 60 5a 26 be 17 d7 07 3b
       -0.035389565 0.04401679 -0.16245413 0.0020727569
000270 c7 0b be 3d b6 ec 8b bd bc 05 92 bd d5 ee 07 be
       0.0927959 -0.068322584 -0.0713 -0.13274701
000280 f1 de e6 3d 31 a7 6c bc ce c0 c9 bc 97 55 c2 3c
       0.112729914 -0.014444158 -0.02462807 0.023722453
000290 8c db 24 bd e3 54 8d bd b3 f2 81 bb 7a a3 c1 3c
       -0.04024844 -0.069009565 -0.0039656996 0.023637522
0002a0 70 f2 27 b9 f4 90 c7 bd 9d b0 b3 3d 08 20 21 bd
       -0.00016016676 -0.097444445 0.08773921 -0.039337188
0002b0 68 e3 72 bb 74 2d e6 3c 89 6b 21 3d d9 55 f0 bc
       -0.0037061814 0.028097846 0.039409194 -0.02933781
0002c0 33 0d 81 3c fe 38 b0 3d 9d 75 87 bd 29 d3 dc bb
       0.015753364 0.086046204 -0.0661423 -0.0067390394
0002d0 fd 04 01 be 08 98 05 bd df 76 96 bd 4f 0a 3c 3d
       -0.12599559 -0.03261569 -0.073468916 0.04590827
0002e0 96 4a 66 bd 3b 2f 0e bd f7 b1 c7 bd 16 f1 18 be
       -0.056223474 -0.03471301 -0.09750741 -0.14935717
0002f0 fc e0 a2 3c dd c5 dd bd a4 7e 16 bd 9a a2 65 3d
       0.019882672 -0.10828755 -0.036741868 0.056063272
000300 f5 c6 23 3d ee b4 96 bb e5 ff 89 3d 98 55 a5 3d
       0.039984662 -0.004599205 0.06738261 0.08072966
000310 ec 04 1d bd b6 a9 fd bd 08 65 0d 3d 0b 79 02 bc
       -0.038334772 -0.123858854 0.03452018 -0.007963429
000320 67 20 fe bd fa a0 bc 3c 76 d3 ee bc 8b 4e 96 bb
       -0.12408524 0.023025978 -0.029153567 -0.004587
000330 c5 03 37 3d b9 44 22 3d 9f 93 b7 bd 5d 06 2a bd
       0.04468133 0.03961632 -0.08963703 -0.041509975
000340 95 fd a5 3d 30 ca 8b 3d ae a9 cb 3d 66 5f 2a 3c
       0.081050076 0.068256736 0.09944473 0.010398721
000350 2e 43 39 be 83 6d 23 3c 2e 27 3d 3d f2 1c 0c 3d
       -0.18092033 0.00997484 0.046179943 0.034207292
000360 4a f3 ec 3d 3f 67 ec bc 36 56 ab bd 8e 45 f1 ba
       0.11569841 -0.028857825 -0.08366053 -0.001840757
000370 70 1a e7 bb 1b f3 a5 bc 92 33 3f 3d 7a 29 c6 bd
       -0.007052712 -0.020257523 0.04668004 -0.0967588
000380 0a e7 fb bb c9 66 3b bb 51 4f fd bd e3 4d d9 3c
       -0.007687454 -0.00285952 -0.12368644 0.026526397
000390 81 ee 33 3d 93 22 36 b9 ed 02 82 3d 71 e2 9b bc
       0.043928627 -0.00017369752 0.06348214 -0.019028874
0003a0 9b 88 09 be 0b 68 25 bd b7 44 4f 3d 23 13 b3 3c
       -0.13431017 -0.040382426 0.05060264 0.021859711
0003b0 16 20 c1 3c 62 a3 2f bd da 8c 25 3d 70 46 db bc
       0.02357487 -0.042880423 0.04041753 -0.026766986
0003c0 a3 92 43 bc d6 2b 0f bc 8a 8b 5b bc d7 0b 77 bd
       -0.011936816 -0.008738479 -0.013399968 -0.060314026
0003d0 b7 80 a8 bd 60 f8 4d 3c 25 bd b0 bd 83 ac b2 bd
       -0.082276754 0.012571424 -0.086298265 -0.0872431
0003e0 79 63 68 bc ec 01 5b 39 d0 dc cb bd d5 a1 93 bc
       -0.014183872 0.00020886183 -0.09954226 -0.018021503
0003f0 7f 2b 5e 3c 46 77 9e bd 4f dd be b8 a4 33 16 3d
       0.013560175 -0.07737593 -9.101128e-05 0.036670342

network_body.linear_encoder.seq_layers.2.bias f4 [256]
000000 00 00 00 00 00 00 00 00 00 00 00 00 00 00 00 00
       0.0 0.0 0.0 0.0
000010 00 00 00 00 00 00 00 00 00 00 00 00 00 00 00 00
       0.0 0.0 0.0 0.0
000020 00 00 00 00 00 00 00 00 00 00 00 00 00 00 00 00
       0.0 0.0 0.0 0.0
000030 00 00 00 00 00 00 00 00 00 00 00 00 00 00 00 00
       0.0 0.0 0.0 0.0
000040 00 00 00 00 00 00 00 00 00 00 00 00 00 00 00 00
       0.0 0.0 0.0 0.0
000050 00 00 00 00 00 00 00 00 00 00 00 00 00 00 00 00
       0.0 0.0 0.0 0.0
000060 00 00 00 00 00 00 00 00 00 00 00 00 00 00 00 00
       0.0 0.0 0.0 0.0
000070 00 00 00 00 00 00 00 00 00 00 00 00 00 00 00 00
       0.0 0.0 0.0 0.0
000080 00 00 00 00 00 00 00 00 00 00 00 00 00 00 00 00
       0.0 0.0 0.0 0.0
000090 00 00 00 00 00 00 00 00 00 00 00 00 00 00 00 00
       0.0 0.0 0.0 0.0
0000a0 00 00 00 00 00 00 00 00 00 00 00 00 00 00 00 00
       0.0 0.0 0.0 0.0
0000b0 00 00 00 00 00 00 00 00 00 00 00 00 00 00 00 00
       0.0 0.0 0.0 0.0
0000c0 00 00 00 00 00 00 00 00 00 00 00 00 00 00 00 00
       0.0 0.0 0.0 0.0
0000d0 00 00 00 00 00 00 00 00 00 00 00 00 00 00 00 00
       0.0 0.0 0.0 0.0
0000e0 00 00 00 00 00 00 00 00 00 00 00 00 00 00 00 00
       0.0 0.0 0.0 0.0
0000f0 00 00 00 00 00 00 00 00 00 00 00 00 00 00 00 00
       0.0 0.0 0.0 0.0
000100 00 00 00 00 00 00 00 00 00 00 00 00 00 00 00 00
       0.0 0.0 0.0 0.0
000110 00 00 00 00 00 00 00 00 00 00 00 00 00 00 00 00
       0.0 0.0 0.0 0.0
000120 00 00 00 00 00 00 00 00 00 00 00 00 00 00 00 00
       0.0 0.0 0.0 0.0
000130 00 00 00 00 00 00 00 00 00 00 00 00 00 00 00 00
       0.0 0.0 0.0 0.0
000140 00 00 00 00 00 00 00 00 00 00 00 00 00 00 00 00
       0.0 0.0 0.0 0.0
000150 00 00 00 00 00 00 00 00 00 00 00 00 00 00 00 00
       0.0 0.0 0.0 0.0
000160 00 00 00 00 00 00 00 00 00 00 00 00 00 00 00 00
       0.0 0.0 0.0 0.0
000170 00 00 00 00 00 00 00 00 00 00 00 00 00 00 00 00
       0.0 0.0 0.0 0.0
000180 00 00 00 00 00 00 00 00 00 00 00 00 00 00 00 00
       0.0 0.0 0.0 0.0
000190 00 00 00 00 00 00 00 00 00 00 00 00 00 00 00 00
       0.0 0.0 0.0 0.0
0001a0 00 00 00 00 00 00 00 00 00 00 00 00 00 00 00 00
       0.0 0.0 0.0 0.0
0001b0 00 00 00 00 00 00 00 00 00 00 00 00 00 00 00 00
       0.0 0.0 0.0 0.0
0001c0 00 00 00 00 00 00 00 00 00 00 00 00 00 00 00 00
       0.0 0.0 0.0 0.0
0001d0 00 00 00 00 00 00 00 00 00 00 00 00 00 00 00 00
       0.0 0.0 0.0 0.0
0001e0 00 00 00 00 00 00 00 00 00 00 00 00 00 00 00 00
       0.0 0.0 0.0 0.0
0001f0 00 00 00 00 00 00 00 00 00 00 00 00 00 00 00 00
       0.0 0.0 0.0 0.0
000200 00 00 00 00 00 00 00 00 00 00 00 00 00 00 00 00
       0.0 0.0 0.0 0.0
000210 00 00 00 00 00 00 00 00 00 00 00 00 00 00 00 00
       0.0 0.0 0.0 0.0
000220 00 00 00 00 00 00 00 00 00 00 00 00 00 00 00 00
       0.0 0.0 0.0 0.0
000230 00 00 00 00 00 00 00 00 00 00 00 00 00 00 00 00
       0.0 0.0 0.0 0.0
000240 00 00 00 00 00 00 00 00 00 00 00 00 00 00 00 00
       0.0 0.0 0.0 0.0
000250 00 00 00 00 00 00 00 00 00 00 00 00 00 00 00 00
       0.0 0.0 0.0 0.0
000260 00 00 00 00 00 00 00 00 00 00 00 00 00 00 00 00
       0.0 0.0 0.0 0.0
000270 00 00 00 00 00 00 00 00 00 00 00 00 00 00 00 00
       0.0 0.0 0.0 0.0
000280 00 00 00 00 00 00 00 00 00 00 00 00 00 00 00 00
       0.0 0.0 0.0 0.0
000290 00 00 00 00 00 00 00 00 00 00 00 00 00 00 00 00
       0.0 0.0 0.0 0.0
0002a0 00 00 00 00 00 00 00 00 00 00 00 00 00 00 00 00
       0.0 0.0 0.0 0.0
0002b0 00 00 00 00 00 00 00 00 00 00 00 00 00 00 00 00
       0.0 0.0 0.0 0.0
0002c0 00 00 00 00 00 00 00 00 00 00 00 00 00 00 00 00
       0.0 0.0 0.0 0.0
0002d0 00 00 00 00 00 00 00 00 00 00 00 00 00 00 00 00
       0.0 0.0 0.0 0.0
0002e0 00 00 00 00 00 00 00 00 00 00 00 00 00 00 00 00
       0.0 0.0 0.0 0.0
0002f0 00 00 00 00 00 00 00 00 00 00 00 00 00 00 00 00
       0.0 0.0 0.0 0.0
000300 00 00 00 00 00 00 00 00 00 00 00 00 00 00 00 00
       0.0 0.0 0.0 0.0
000310 00 00 00 00 00 00 00 00 00 00 00 00 00 00 00 00
       0.0 0.0 0.0 0.0
000320 00 00 00 00 00 00 00 00 00 00 00 00 00 00 00 00
       0.0 0.0 0.0 0.0
000330 00 00 00 00 00 00 00 00 00 00 00 00 00 00 00 00
       0.0 0.0 0.0 0.0
000340 00 00 00 00 00 00 00 00 00 00 00 00 00 00 00 00
       0.0 0.0 0.0 0.0
000350 00 00 00 00 00 00 00 00 00 00 00 00 00 00 00 00
       0.0 0.0 0.0 0.0
000360 00 00 00 00 00 00 00 00 00 00 00 00 00 00 00 00
       0.0 0.0 0.0 0.0
000370 00 00 00 00 00 00 00 00 00 00 00 00 00 00 00 00
       0.0 0.0 0.0 0.0
000380 00 00 00 00 00 00 00 00 00 00 00 00 00 00 00 00
       0.0 0.0 0.0 0.0
000390 00 00 00 00 00 00 00 00 00 00 00 00 00 00 00 00
       0.0 0.0 0.0 0.0
0003a0 00 00 00 00 00 00 00 00 00 00 00 00 00 00 00 00
       0.0 0.0 0.0 0.0
0003b0 00 00 00 00 00 00 00 00 00 00 00 00 00 00 00 00
       0.0 0.0 0.0 0.0
0003c0 00 00 00 00 00 00 00 00 00 00 00 00 00 00 00 00
       0.0 0.0 0.0 0.0
0003d0 00 00 00 00 00 00 00 00 00 00 00 00 00 00 00 00
       0.0 0.0 0.0 0.0
0003e0 00 00 00 00 00 00 00 00 00 00 00 00 00 00 00 00
       0.0 0.0 0.0 0.0
0003f0 00 00 00 00 00 00 00 00 00 00 00 00 00 00 00 00
       0.0 0.0 0.0 0.0

action_model._discrete_distribution.branches.0.weight f4 [3, 256]
000000 67 70 ff ba c3 ab 9d 3a 15 91 e1 3a ff 78 e2 3b
       -0.0019488455 0.0012029338 0.0017209376 0.0069113965
000010 63 a9 1c 3c 7a e7 a3 3b 5f 15 f0 39 23 7a 39 bb
       0.009561869 0.0050019594 0.0004579229 -0.002830156
000020 a7 55 66 3b 3f f5 f2 ba a7 ff aa 3b db 7c 4f b7
       0.0035146268 -0.0018536224 0.0052184644 -1.2367232e-05
000030 bb d7 8a 3a 37 75 1f 3a d9 44 1a ba 3e a5 be bb
       0.0010592857 0.0006082835 -0.0005884893 -0.0058180382
000040 03 22 75 bc 4c 78 23 bc 63 0a c5 3a 7b 59 da 3b
       -0.014961722 -0.0099774115 0.0015033003 0.006663499
000050 48 43 f0 bb 2b 63 7d b8 53 75 77 bb 9f 56 4c 3c
       -0.0073322393 -6.0412258e-05 -0.003775914 0.012471824
000060 26 e8 3e 3b 47 4e c9 bb 60 1c d4 ba 0f fc 6d bc
       0.002913007 -0.0061433646 -0.0016182773 -0.0145254275
000070 dd 1d 3c bb dd f4 28 3a f2 e2 22 3c d4 fd 10 3c
       -0.0028704323 0.0006445179 0.009941803 0.00884958
000080 07 39 5b 3c bc ba 06 3c 43 f4 7e 3a ad e9 97 ba
       0.013380296 0.008223232 0.0009725729 -0.0011590027
000090 2b b2 71 ba 22 81 6b 3b eb 8d c5 bb 47 15 a7 3a
       -0.00092199695 0.0035935123 -0.006028881 0.001274743
0000a0 df 64 8f 3b 29 36 05 bb ba 9c d3 3b 2f 6a 3b ba
       0.0043760384 -0.0020326471 0.0064578922 -0.00071493065
0000b0 5f 51 12 39 58 bf 4c 3b 4b f7 2d 3b 4b bd a0 3c
       0.00013953958 0.003124198 0.0026545103 0.019621512
0000c0 38 ac 63 3c f7 da 12 3c 0b 08 f7 3b 04 88 24 bc
       0.013896041 0.008963338 0.0075388006 -0.010042194
0000d0 ea 71 e3 bb 99 c8 29 bb 07 92 83 bb 87 50 7a 3a
       -0.00694107 -0.002590692 -0.0040152106 0.00095487427
0000e0 62 80 91 bb cb 8b a1 3a 82 ac 93 bb f3 6a fc 3b
       -0.0044403533 0.0012324987 -0.0045066485 0.007703179
0000f0 1b 80 3c 3b 71 a6 1d 3c 7f 3f 08 3b 7b 0b bf 3b
       0.002876288 0.009622202 0.00207898 0.005830226
000100 88 b5 59 bb db 99 fe bb 93 e1 cc bb 85 4f cb 3b
       -0.0033219773 -0.007769806 -0.0062524765 0.006204548
000110 cd 5c 63 bb 12 98 50 3a db da d6 bb 32 3e 66 bb
       -0.0034692765 0.00079572306 -0.0065568513 -0.0035132286
000120 40 22 34 bb 2b 66 6a 3b 9f 00 a3 3a 10 ef f6 bb
       -0.0027486235 0.0035766463 0.0012436098 -0.0075358227
000130 be 34 1e 3b ff ae 69 bb b3 f4 39 3a e4 97 3b 3a
       0.0024140324 -0.0035657284 0.0007093653 0.00071561174
000140 5f 40 78 ba 5c 6b a7 b9 74 07 94 bb 0a 0d 76 3b
       -0.0009470041 -0.0003193271 -0.00451749 0.0037544393
000150 6a a6 07 3c 47 7b 58 3a fb 59 15 bc 43 2d c7 bb
       0.008279422 0.0008258116 -0.009115691 -0.0060783937
000160 53 18 11 3b 41 ed 8f 3b bf 0d 04 bc d6 32 c7 ba
       0.0022139743 0.0043922965 -0.008059918 -0.0015197645
000170 ba fc 1a bb 4b 5a 6b 3b 8a 76 c5 bb ad 52 cd 3a
       -0.0023649172 0.0035911973 -0.006026094 0.0015664898
000180 bc b6 89 3b 1d f6 4f 3b 9c e4 26 3c 85 cf e2 3b
       0.004202692 0.0031732388 0.010186341 0.006921711
000190 d3 17 b3 bb 33 5e 50 3b 28 b7 ff 3b 52 9d 45 bb
       -0.0054654866 0.0031794428 0.0078038163 -0.0030153585
0001a0 f8 b3 63 b8 58 0f 9a bb 37 0f 81 3b db ac df ba
       -5.4288626e-05 -0.004701536 0.0039385813 -0.0017065065
0001b0 97 97 90 bb 67 81 60 3b 1c 70 26 bb 5a fa ea ba
       -0.004412602 0.0034256817 -0.0025396412 -0.0017927394
0001c0 ea bb 59 3c 28 6c f7 ba ab 8d e9 bb fd 09 c3 ba
       0.013289431 -0.0018876838 -0.007127484 -0.0014880296
0001d0 20 63 f6 3b cc 9f a9 3b 6a a6 76 ba 54 d9 33 3b
       0.007519141 0.00517652 -0.0009408953 0.002744277
0001e0 40 4e f6 bb bb 17 e3 bb b7 d1 bb 3b 72 07 ed 3a
       -0.0075166523 -0.006930319 0.005731787 0.0018083884
0001f0 3f bc 3a 3c 63 dc 06 bb c6 29 21 bc 34 63 9f ba
       0.01139742 -0.0020578138 -0.00983662 -0.0012160302
000200 31 14 8f 3b 8b 71 1e bb d5 38 ca 3b 60 8b 93 ba
       0.0043664207 -0.0024176564 0.0061713257 -0.0011256747
000210 78 cf cd 36 f7 c8 17 3b af 7a 28 bb 4f a4 eb 3a
       6.1336286e-06 0.0023160556 -0.002570789 0.0017978045
000220 c0 2b 66 bb 5b 97 40 bb be 34 89 3b 77 03 91 3a
       -0.0035121292 -0.002938709 0.0041871956 0.0011063655
000230 17 ec 40 3c bb e7 fa ba 83 22 2c bb 52 5c 06 3c
       0.011775038 -0.0019142547 -0.0026265688 0.008200722
000240 23 95 00 3b ef 8a aa bb 7f dd 15 bb 17 7a 5a 3b
       0.0019620142 -0.0052045505 -0.0022867618 0.0033336931
000250 0a e3 64 b9 de 11 28 3c db 51 21 3a 02 dd 1a 3b
       -0.00021828353 0.010258166 0.000615386 0.0023630266
000260 07 d4 86 bb 09 9b 3c 3b 7a a4 4a 39 fe 85 1e 3c
       -0.004114631 0.0028778932 0.00019325493 0.009675501
000270 bc ac 00 3b 2b 78 3c bb b7 12 2e b9 97 27 19 bc
       0.0019634208 -0.002875815 -0.00016600905 -0.009347818
000280 b8 a5 76 bb 76 f9 8c 3b 70 16 5d 3c 59 3f 3b b9
       -0.0037635397 0.004302199 0.013494119 -0.00017857309
000290 39 45 af ba 7f 85 39 bc 83 4a 13 3a ff e2 9b ba
       -0.001337207 -0.011323332 0.0005618708 -0.0011893212
0002a0 6e 1a 81 3b 17 1a 8b 3b 91 e1 36 bb cd 73 df bb
       0.0039399182 0.0042450535 -0.0027905444 -0.0068192245
0002b0 c3 e8 ae 3a 38 d7 14 3a 0d ce a3 bb aa 63 3b 3b
       0.0013344515 0.0005677822 -0.0049989284 0.002859334
0002c0 7d 8a 65 bb e2 d3 b7 3a 81 dd 8b bc 67 b3 ad 3b
       -0.0035025172 0.0014024938 -0.017073395 0.0053009274
0002d0 55 ef 69 bb 0f 6e bc 3b 4b ac ab bb 17 bd 46 bc
       -0.0035695632 0.0057504247 -0.005239045 -0.0121300435
0002e0 e8 87 74 bb 1b 2a 17 3c 97 6b b6 bb 6e fb 24 3c
       -0.0037312452 0.009226347 -0.005567025 0.010069711
0002f0 7c a4 c9 39 f3 8a 75 3c bf 38 9f bb 39 91 99 3b
       0.00038460258 0.014986741 -0.0048590596 0.0046865013
000300 77 2c 4b 3b 8d 44 e1 3b 1b ff d9 bb ef 7d bd 3b
       0.0031001845 0.006874627 -0.0066527254 0.0057828347
000310 ef d9 d3 3a 36 b6 9c 3b 07 d1 1c bb 18 40 73 3b
       0.0016162972 0.0047824634 -0.00239283 0.003711706
000320 36 14 a6 bb 83 19 d8 3b bf 91 9b bb 5b ba 00 bb
       -0.0050683273 0.006594838 -0.004747599 -0.0019642327
000330 4a 71 c3 3a bf a2 5c bc 77 0d d7 3b e2 73 f2 3b
       0.0014911082 -0.013466536 0.0065628844 0.007399068
000340 44 5f b8 ba 2f 79 39 3b c8 9a 0a bc 8b 82 a5 bb
       -0.0014066477 0.002830099 -0.008459754 -0.0050509623
000350 a2 15 23 bb 0a b8 f9 ba 47 61 b0 3b 77 e4 39 ba
       -0.002488472 -0.001905204 0.00538269 -0.0007091234
000360 97 ae 33 3a 58 2a 91 3c dd e6 e8 bb e5 ff 22 bb
       0.0006854324 0.017720386 -0.007107599 -0.0024871763
000370 cd 95 48 bc db 39 85 3b 33 d4 05 3b ea 1e d4 ba
       -0.012242747 0.004065735 0.002042067 -0.001618353
000380 fa 5a 5e 3a 28 5d 22 3b 0b 16 92 3a c2 94 12 3c
       0.00084821845 0.0024774764 0.0011145485 0.008946599
000390 83 e1 c9 3b 0c d5 13 bc 90 08 5b bb 2b a6 6e bb
       0.0061609163 -0.009022962 -0.0033421852 -0.0036414962
0003a0 c3 58 8e b8 cd 9b c1 3a b2 ba a0 3b 52 b4 3b bb
       -6.787621e-05 0.0014771164 0.0049050683 -0.0028641415
0003b0 e3 d9 0c bc 3b 28 c2 b9 6b e6 ea bb 14 8a 33 bc
       -0.00859687 -0.00037032538 -0.0071685812 -0.010958213
0003c0 1b c4 ca 3b 5c a2 ba 3b f7 e7 42 3b fd 3f bd 3b
       0.0061879284 0.0056956243 0.0029740313 0.0057754503
0003d0 d7 dc 59 3b 62 ca 2e bc fa f7 6f 3b 30 43 2f 3c
       0.0033243203 -0.010668369 0.0036616311 0.010697171
0003e0 f1 2b 80 ba 1d ff d1 3b 8f 28 df bb e3 94 0f bb
       -0.000977872 0.0064085857 -0.006810255 -0.0021908812
0003f0 26 45 85 bc 8f 64 02 3c 00 95 b2 3b 4f a0 3b 3a
       -0.016268324 0.007958545 0.005449891 0.0007157372

action_model._discrete_distribution.branches.0.bias f4 [3]
000000 00 00 00 00 00 00 00 00 00 00 00 00
       0.0 0.0 0.0

action_model._discrete_distribution.branches.1.weight f4 [2, 256]
000000 67 5f 26 bc dd 2f 52 3b 3a 21 10 3c 00 ea 3d bb
       -0.010154582 0.0032071986 0.008796984 -0.0028978586
000010 eb fe eb 3b 1a 75 98 3b a9 c6 90 b8 bd 13 6d bb
       0.0072020194 0.0046526315 -6.9034584e-05 -0.0036175095
000020 77 ed be bb 55 ad bc bb 09 0b c2 bb 83 dc ed bb
       -0.005826648 -0.0057579675 -0.0059217256 -0.007258953
000030 d4 55 10 3b b1 c2 86 bb 87 9f 3a b9 fa 68 70 bb
       0.0022023814 -0.0041125645 -0.00017797771 -0.0036683665
000040 ff 34 10 bb 39 e9 30 bc 85 1d e9 3b cb 6e 11 3b
       -0.0022004244 -0.010797792 0.0071141147 0.0022191282
000050 1b 87 4a 3b 48 0a 97 ba f9 23 1a 3c 3f 72 94 3b
       0.0030903283 -0.001152345 0.009407991 0.0045302208
000060 e6 a0 90 b9 2a 85 9b bb 09 b2 a1 3b 90 de 6e ba
       -0.000275857 -0.004746099 0.0049345535 -0.0009112144
000070 ce 14 34 bc 45 d4 52 3b 07 66 1a 3c 93 e4 bf b8
       -0.010991288 0.003216998 0.009423739 -9.150165e-05
000080 67 66 ac bb 27 5c cc bb fb 71 1c 3b b5 6b 57 bc
       -0.0052612307 -0.0062365714 0.0023871649 -0.013148238
000090 f7 ea 95 3b 3b 55 5f bc 10 6a 27 3b c4 77 29 bb
       0.004575129 -0.01363116 0.0025545396 -0.002585874
0000a0 23 99 ef bb 98 ec 5e 3b 8b 6a 20 bc c3 3a 35 3c
       -0.0073119565 0.0034015533 -0.009791027 0.011061373
0000b0 3b ac 12 3c 4b fd a7 3b e2 ad 6e bb 4f b6 73 bc
       0.008952196 0.0051266304 -0.003641956 -0.014875009
0000c0 cd 9c e5 bb 53 08 32 3c 48 59 4c 39 27 cd 43 3c
       -0.0070072175 0.010866242 0.00019488216 0.011950768
0000d0 77 6c 47 3b a0 75 f0 38 97 e9 e9 bb 33 53 66 bb
       0.003042964 0.00011466001 -0.007138442 -0.0035144805
0000e0 2d e2 fc bb ef c3 c4 bb e8 2e 51 bb 38 4a 2e 3c
       -0.007717392 -0.0060048024 -0.0031918827 0.010637812
0000f0 a3 97 e5 ba 87 01 d0 3b 4d b2 e3 3a 9f 32 05 bc
       -0.0017516505 0.0063478383 0.0017371863 -0.008129745
000100 bd 67 1a bc 95 af 2b bb a5 d1 5a bc e7 cd 83 bb
       -0.009424147 -0.0026197184 -0.013355647 -0.004022348
000110 1b f0 3f 3c 9b 83 9f 3b 26 15 c8 3b 93 97 0f bb
       0.01171496 0.0048679835 0.0061060367 -0.0021910414
000120 f5 5f 83 bb 47 d2 be bb 9d 32 f1 3b 47 ac 6a 3c
       -0.0040092417 -0.005823407 0.00736077 0.014323301
000130 d3 50 1d 3c 5e 52 a5 3b f2 23 ee 3b b0 07 4d 3c
       0.0096017895 0.0050452193 0.0072674686 0.01251404
000140 9f af f1 bb a0 16 0b ba 4f d2 89 3b 6e 82 83 bb
       -0.007375672 -0.00053058006 0.004205979 -0.004013351
000150 c1 4b 01 bc 6f 6a 63 bb 66 79 cb b9 a0 15 83 3b
       -0.007891596 -0.003470089 -0.00038809626 0.0040003806
000160 6a e8 a5 3a 9e 69 bd b9 88 e6 06 3c 82 eb eb b9
       0.0012657766 -0.0003612758 0.008233674 -0.0004499816
000170 ef de a8 bb 6e 9f c5 b9 55 32 36 3c e8 6d e9 3a
       -0.005153529 -0.00037693552 0.0111203985 0.0017809244
000180 38 f9 f5 3b bd ef 86 b8 70 30 58 3c a3 27 7b bb
       0.007506516 -6.434273e-05 0.013195142 -0.0038323186
000190 57 bb a3 bb cd 29 d3 bb e9 4c 1b bc 57 eb db ba
       -0.004996698 -0.006444192 -0.009478786 -0.0016778511
0001a0 67 f4 19 3b 6d 1f d4 3b fa 66 0b bb cf 6c b8 bb
       0.0023491622 0.006473473 -0.0021271096 -0.0056282054
0001b0 0a 36 e2 ba 68 27 2f bc 47 1d 0f b9 a4 c6 21 3c
       -0.0017258537 -0.0106905475 -0.0001364845 0.00987402
0001c0 f2 97 cc 3b 33 a1 d1 bb 68 e0 6b bb 1f 57 1b 3c
       0.006243699 -0.0063973903 -0.003599191 0.0094812205
0001d0 44 cd 88 ba c5 e9 3a 3b 1e c3 90 3b 60 5f a8 bb
       -0.001043715 0.0028520685 0.004417791 -0.0051383227
0001e0 c0 9a 7f 3b bf 8d 6d 3b 0c 7d b0 3b fb 25 fe ba
       0.003900215 0.0036247817 0.0053860005 -0.0019389981
0001f0 f8 a4 57 bb 58 c6 04 bc 53 8f 62 37 98 45 7d bb
       -0.0032904726 -0.008103929 1.350402e-05 -0.0038646217
000200 15 65 2f bc 98 75 fe bb 05 a3 6b 3b a7 a9 49 bb
       -0.010705252 -0.007765483 0.0035955322 -0.0030771287
000210 d4 be 0a bc c3 22 4e 3b fb 00 31 3b bd 04 a8 3b
       -0.0084683485 0.0031453825 0.002700864 0.005127518
000220 cb 1c ad bb f7 12 56 3b 32 02 85 bb 00 d5 06 3b
       -0.0052829734 0.0032665113 -0.0040590996 0.0020573735
000230 b5 11 c1 3b dc 6f 4c 3a be af 36 3b 89 84 28 bc
       0.0058920034 0.0007798651 0.0027875747 -0.010285505
000240 a7 66 96 bb 03 03 25 3c 33 bc 20 bb a7 d3 20 3c
       -0.004589874 0.010071519 -0.0024526238 0.009816087
000250 59 38 41 3b e0 b0 18 3a 28 0a da bb 87 8e 02 3b
       0.0029483049 0.0005824696 -0.0066540428 0.0019921379
000260 fa ed 91 3b 88 46 4d 3b df 1e 1d 3c e9 c9 9d 3a
       0.004453418 0.0031322557 0.00958988 0.0012038323
000270 05 82 ee ba 8f ad 38 3b 38 14 2f bb 3a 84 d8 bb
       -0.0018196708 0.002817962 -0.0026714932 -0.0066075595
000280 13 a9 35 bb 1e 43 ac bb 40 7b da bb 58 f2 a2 bb
       -0.0027719184 -0.0052570244 -0.0066675246 -0.0049727373
000290 5b 63 88 3b 12 4e 0c 3c 46 0e 30 bb 9f aa 67 3a
       0.0041622347 0.008563535 -0.0026863976 0.0008837375
0002a0 cd ac 53 bc 8e 8e c4 3b 2b 5c e4 3b 6b ba c4 3b
       -0.012919617 0.005998439 0.006968995 0.006003668
0002b0 b4 a9 40 bb 04 0f ab 3a 63 a4 53 ba 83 63 f9 3b
       -0.0029398026 0.001305074 -0.0008073507 0.0076107397
0002c0 5f 3a 39 bb d6 10 c8 bb 70 ae fc 3b ed 23 69 3b
       -0.0028263552 -0.0061055226 0.0077112243 0.0035574392
0002d0 47 f9 46 3b cf 2b 13 bc cb 95 0c 3b 8c dc 3d 3b
       0.0030360983 -0.008982613 0.0021451588 0.0028970568
0002e0 fe 61 ac 3b 12 c8 3d bc 06 3a b4 bb aa cc 3f 3b
       0.005260705 -0.011583345 -0.005500081 0.0029266276
0002f0 87 bd f4 bb 9b 2a 75 3b 23 08 04 3c 73 e1 b3 3b
       -0.0074688825 0.0037409428 0.008058581 0.005489522
000300 bb e7 ee bb 6b 70 3f bc 43 29 20 ba c2 67 d2 3b
       -0.007290808 -0.011684517 -0.0006109664 0.0064210603
000310 2c 36 07 3c 0d 55 6e 3a da 31 03 bc df 46 f1 3b
       0.008252662 0.0009091653 -0.008007491 0.007363185
000320 7b 7c 98 3b 2f 83 e6 3b cf be b9 3b 2a e1 f3 ba
       0.004653511 0.0070346813 0.005668498 -0.0018606533
000330 2e e0 15 bb b3 a9 b5 3a eb b1 70 ba 4b 8a dc 3a
       -0.0022869217 0.0013859778 -0.0009181785 0.0016825882
000340 38 e6 30 b9 43 0f 3c 3b ef 4a 02 3c 62 2d 77 3c
       -0.00016870431 0.002869562 0.007952436 0.015086504
000350 82 45 a6 b8 bb c9 bd 3b 0c 1f 1e bb 29 cf 08 bc
       -7.928444e-05 0.0057918704 -0.0024127392 -0.008350172
000360 9f df d0 3b 6c 1e a1 bb 42 31 e0 3b cb 1b dc 3b
       0.006374314 -0.0049169566 0.0068418095 0.0067171804
000370 e5 71 ed bb a0 b0 11 bc 8f 16 fa bb 5c 01 9b 3a
       -0.0072462433 -0.008892208 -0.0076320837 0.0011825967
000380 3b 12 dd bb 1d 8c d3 3a 9c a0 ae 3b 53 79 eb ba
       -0.006746558 0.001613978 0.0053292047 -0.0017965235
000390 81 4d 99 3c d3 8b 44 3c ab 66 1d bc 5e c2 36 3b
       0.018713715 0.011996227 -0.0096069975 0.0027886848
0003a0 dc 04 24 bc a4 a5 32 3b 5f 01 1e 3b 7a e8 58 bc
       -0.010010924 0.0027259374 0.0024109704 -0.0132390205
0003b0 48 17 ef bb 08 41 f8 ba 2d 99 39 bb 21 b4 19 3c
       -0.0072964765 -0.0018940279 -0.002832006 0.009381325
0003c0 1f cf 9c 3b 97 62 35 3b 1a 7f 91 3b 60 04 8f 3b
       0.004785433 0.0027677172 0.0044402005 0.004364535
0003d0 64 44 a6 ba 43 ca da bb 61 30 b1 bb 48 8e d0 ba
       -0.0012685177 -0.0066769435 -0.0054073785 -0.0015911544
0003e0 f5 fc b3 b8 ff 6d 27 bc f6 96 02 bc 2a 7b 74 ba
       -8.582502e-05 -0.010219096 -0.007970562 -0.0009326214
0003f0 a3 64 92 bb a2 1a 90 3a a7 eb 9e 3b 5f e5 60 ba
       -0.0044675632 0.0010994265 0.0048498693 -0.0008579101

action_model._discrete_distribution.branches.1.bias f4 [2]
000000 00 00 00 00 00 00 00 00
       0.0 0.0

action_model._discrete_distribution.branches.2.weight f4 [2, 256]
000000 82 8b 91 bb 08 de 66 3b d8 a0 df ba 46 4f 8f 3b
       -0.0044416795 0.0035227556 -0.0017061485 0.004373464
000010 f5 24 fd 3a 33 85 01 bc 80 f3 dc ba 42 9d 2a 3b
       0.0019313382 -0.007905292 -0.0016857237 0.0026033674
000020 a1 54 9d b9 2b 84 af bb af a3 8c 3a c0 8f 74 3b
       -0.00030008427 -0.005356332 0.0010729934 0.0037317127
000030 1a a5 65 b9 17 4a af 3b 58 48 95 3b b8 d2 18 3c
       -0.00021900647 0.0053494084 0.004555743 0.009327583
000040 65 91 1e bb 24 0a 1d ba 1a b0 d6 b9 f8 b5 13 3b
       -0.0024195549 -0.0005990586 -0.00040948467 0.0022538882
000050 b2 e4 25 bc 9a 1d 4c 3b aa dd 86 3b a9 22 1b 3b
       -0.010125326 0.0031145574 0.00411578 0.0023671782
000060 03 6a 57 3b 6e 4a c7 3b 4c 25 9b ba 68 2c c0 bb
       0.0032869584 0.0060818708 -0.0011836677 -0.0058646686
000070 67 a5 51 3a 72 99 f1 bb e7 fc 32 3b 42 3f d5 3b
       0.0007997364 -0.0073730284 0.0027311386 0.006507785
000080 6a 6f c4 39 a6 0a 47 bc af e7 d6 3b 15 b6 71 bb
       0.00037467043 -0.012148535 0.0065583806 -0.003688221
000090 c0 09 62 3b 01 3d 17 3b 92 ee df 3b 66 dd 2e bb
       0.0034490675 0.0023077133 0.0068338597 -0.0026682257
0000a0 70 88 64 3b 73 b1 13 bc b0 9e 6f ba 97 68 19 bb
       0.0034871362 -0.009014475 -0.0009140773 -0.0023408288
0000b0 fc 61 1c bb eb 66 6f bc a8 3a cc ba 8f 7d 8c bb
       -0.0023862114 -0.01461194 -0.0015581446 -0.0042874287
0000c0 f4 ba 09 3c 14 f0 bf bb 47 57 a4 ba 25 77 6f ba
       0.0084063895 -0.005857477 -0.0012538218 -0.00091348804
0000d0 ba 5d 0f bc bf 63 ef bb ea 93 9f 3b 33 db ca ba
       -0.0087503735 -0.007305592 0.0048699277 -0.0015476703
0000e0 b6 61 ba 3b e8 98 fd ba ac 19 3a bc a0 5f dc bb
       0.0056879176 -0.0019347938 -0.01135866 -0.0067252666
0000f0 7a 7b 66 3b 6d 11 3b 3b dc 90 2c 3b 14 72 c4 3a
       0.0035168813 0.0028544322 0.002633146 0.0014987611
000100 a3 5c 34 bc 5b ef 95 bb 55 89 a0 3b e4 2a 32 3b
       -0.011008414 -0.0045756525 0.0048991838 0.002718621
000110 f0 1a 2a bb 83 05 3c 3b 80 a7 59 3c 6c 83 06 ba
       -0.0025955997 0.0028689809 0.013284564 -0.0005131278
000120 db f7 53 3b 19 22 93 bb 28 fa 31 3c 03 41 46 bc
       0.0032343778 -0.0044901487 0.010862865 -0.012100461
000130 30 1b 33 bc 83 2b a9 3a 0b 55 26 ba c8 6c 76 3b
       -0.010931775 0.0012906644 -0.000634507 0.003760146
000140 d7 a6 dc 3a ef 80 21 bc 75 bb f9 3b 2f 9e bb bb
       0.001683439 -0.0098574 0.0076212236 -0.005725644
000150 07 5f ee bb b7 26 aa 3b 0b 13 a6 bb ae e6 03 3c
       -0.0072745117 0.0051926035 -0.005068188 0.008050604
000160 ec 5b 4a bb df 9d 13 3b 7b ae 89 3a dd 23 6b ba
       -0.0030877544 0.0022524518 0.001050427 -0.00089698826
000170 f0 2e f2 3b 3c 95 0a 3c f7 e5 98 bb 0d 13 93 bb
       0.0073908493 0.008458432 -0.004666086 -0.004488355
000180 ed 20 5f 3a d2 9c 7a ba ab 3d 04 3a cc e5 02 bc
       0.0008511681 -0.0009560111 0.00050445896 -0.007989358
000190 9b da d5 bb 07 af ef ba 52 1e d4 3b 4b a9 b9 bb
       -0.006526304 -0.0018286415 0.006473341 -0.0056659332
0001a0 73 fc 0f ba d8 4c 7c 3b ff a0 72 bc 30 3e 08 bc
       -0.0005492635 0.003849795 -0.014808892 -0.008315608
0001b0 a3 b2 4a 3b ca a8 2c 3b fe 95 80 3c d5 b7 4e 3b
       0.003092923 0.0026345723 0.015696522 0.0031542678
0001c0 b0 35 d2 bb b4 9b 0c bb f2 02 4b 3c a8 b8 5a 3c
       -0.0064150915 -0.002145511 0.012390839 0.01334969
0001d0 79 c9 c0 3b b7 e0 84 bb 2b ce 11 3c 58 48 64 3b
       0.0058833924 -0.0040551084 0.008899252 0.003483316
0001e0 ed ad 7c 3c 3b 39 b9 3b 9b 83 c6 bb 7a 82 56 3a
       0.0154223265 0.0056525744 -0.006058169 0.00081828947
0001f0 a0 bb c1 bb 3d 1c 5c 3b e5 44 82 b9 8b 31 c9 bb
       -0.005912259 0.0033586167 -0.00024846863 -0.006139939
000200 53 63 88 bb e8 83 7f bb 9f 29 c6 3b 30 2b 02 3b
       -0.004162231 -0.0038988534 0.006047442 0.0019862168
000210 d5 d5 b3 ba 12 07 73 3b 9b 9b 47 bb b7 b5 5f bb
       -0.0013720343 0.0037083072 -0.0030457738 -0.003413541
000220 bb 81 2b 3c ba 5c bf 3b f0 06 85 bb be 9c 92 3b
       0.010467942 0.0058399113 -0.004059665 0.0044742515
000230 55 98 cd 3b 7b 7a 65 bb d2 97 6e bb fa ae 61 ba
       0.006274263 -0.003501563 -0.003640641 -0.00086091424
000240 d4 b7 27 bb d4 12 15 3c f5 b9 43 bc 23 74 0c bc
       -0.0025591748 0.009098727 -0.011946191 -0.008572611
000250 1d 8e 78 bc bf 70 e9 bb d3 27 98 b9 cf b2 f3 3b
       -0.015170601 -0.007124036 -0.0002902137 0.007437087
000260 71 b5 8f 3b df c4 22 bc c9 bc 86 ba d5 1e de ba
       0.004385643 -0.009934633 -0.0010279651 -0.0016946445
000270 da df 61 3b 25 60 75 bb 28 63 25 3a c0 ab da 3b
       0.0034465701 -0.003744134 0.0006309026 0.006673306
000280 e0 5f fc bb df 3a 26 3b c4 0b 07 bc b6 1c 89 bb
       -0.007701859 0.002536468 -0.008242551 -0.004184331
000290 5c b1 31 bb 22 21 23 bb 4d 84 57 ba 8b 4b 89 bb
       -0.002711377 -0.0024891575 -0.00082213135 -0.0041899136
0002a0 81 d8 35 bc 63 99 76 3a ac 00 11 bb 73 8b 09 3b
       -0.011098982 0.00094070117 -0.0022125645 0.002098766
0002b0 cb 8d b4 3b 36 0e 05 3c ff 54 ad 3b a9 0c 07 3c
       0.005510067 0.008121064 0.0052896733 0.0082427645
0002c0 1a 23 1c 3b fb 29 db 3a 53 07 07 3c bf 98 36 bb
       0.0023824633 0.0016720885 0.008241492 -0.002786204
0002d0 16 42 83 bb 55 8c 61 39 05 49 f1 3a f7 11 1c bb
       -0.004005681 0.0002150995 0.0018408602 -0.0023814419
0002e0 e9 00 c4 3b c1 80 9b bb ff 03 11 3b 26 3a 89 ba
       0.005981554 -0.0047455733 0.0022127626 -0.00104696
0002f0 73 bb bb bb 70 ec 5d ba 18 26 d6 3b 64 15 bd 3b
       -0.005729133 -0.0008465713 0.006535303 0.005770372
000300 2d b7 3d bb f4 09 97 3b 7a 5d b4 ba cc df c3 b9
       -0.0028948293 0.004609341 -0.0013760768 -0.0003736004
000310 ab 18 89 bb 09 ff 43 bb 6d 3c 9d 3b 97 42 9e bb
       -0.004183849 -0.0029906651 0.004798463 -0.0048297155
000320 65 76 4c 3b f1 07 34 b9 6f 9e 9c ba ae f7 02 bc
       0.0031198498 -0.00017169096 -0.0011949072 -0.007993622
000330 bb b0 bc 3b f6 6e b5 bb 1c 10 c8 b8 46 9a 19 3b
       0.0057583726 -0.005536909 -9.539744e-05 0.0023437901
000340 1c b4 18 3c 17 be cd ba 33 53 0f ba 10 a3 e6 3a
       0.009320285 -0.001569691 -0.0005467415 0.0017596204
000350 42 15 21 bc 12 ad 03 ba 3c 45 82 bb 63 f1 cd ba
       -0.009831728 -0.0005023043 -0.0039755385 -0.0015712198
000360 4b 7e c5 3b 81 ed 88 39 bb 96 1f bc c3 43 19 3b
       0.006027018 0.00026116896 -0.009740527 0.0023386336
000370 4a 26 df 3b be c1 90 bb 75 5c 05 bb 53 75 2f bb
       0.0068099843 -0.004417627 -0.0020349298 -0.0026772812
000380 b9 fa 02 bc 35 ef 2b bb 10 12 f9 3b a9 4d 20 bc
       -0.007994347 -0.0026235108 0.00760103 -0.009784141
000390 f7 80 af bb 74 38 a9 3b f3 d2 dd bb 08 df dc bb
       -0.00535595 0.0051642004 -0.006769532 -0.0067404546
0003a0 47 cb d0 bb ca 44 aa 3b 42 2c ce ba 5b f9 e8 b9
       -0.006371889 0.0051961886 -0.0015729743 -0.00044436273
0003b0 5c 70 14 3b 83 e8 57 bb ad e4 19 39 a5 0b 86 bb
       0.002264998 -0.0032944984 0.00014676405 -0.0040907436
0003c0 5d 34 5e bb 6d 51 1c ba 67 25 38 b9 98 6e 58 bb
       -0.0033905723 -0.0005963061 -0.00017561541 -0.0033024903
0003d0 0b 5a aa bb 0d 3b ad 3b 7f 7a 62 3b ce 2b b0 3b
       -0.0051987222 0.0052865804 0.0034557877 0.0053763157
0003e0 9d 83 d8 3a aa 4e 7e bc a9 0b a6 bb a0 9a 72 b9
       0.0016518716 -0.015521685 -0.005067308 -0.00023136521
0003f0 ca db a9 ba f8 0a 9c ba 2a 40 0e 3c 27 5b 20 bb
       -0.0012959179 -0.0011905124 0.00868229 -0.0024468394

action_model._discrete_distribution.branches.2.bias f4 [2]
000000 00 00 00 00 00 00 00 00
       0.0 0.0
