MLagents/results/hb_10/Mario/Mario-15003.onnx (onnx, 383492 bytes, 16 tensors)

124 f4 [99]
0	0x3c05c1c8	0.008163877
1	0x3c05c1c8	0.008163877
2	0x3c05c1c8	0.008163877
3	0x3c05c1c8	0.008163877
4	0x3c3d280f	0.011545195
5	0x3c3d280f	0.011545195
6	0x3ea80925	0.32819477
7	0x3c85bf38	0.016326532
8	0x3e1048ad	0.14090224
9	0x3c05c1c8	0.008163877
10	0x3c05c1c8	0.008163877
11	0x3c05c1c8	0.008163877
12	0x3ea80925	0.32819477
13	0x3c85bf38	0.016326532
14	0x3e1048ad	0.14090224
15	0x3c05c1c8	0.008163877
16	0x3c05c1c8	0.008163877
17	0x3c05c1c8	0.008163877
18	0x3ebef564	0.37296593
19	0x3cd36e65	0.025809476
20	0x3e6ae61e	0.22939345
21	0x3c05c1c8	0.008163877
22	0x3c05c1c8	0.008163877
23	0x3c05c1c8	0.008163877
24	0x3ec09e50	0.37620783
25	0x3cf10b76	0.02942441
26	0x3e644dfd	0.22295375
27	0x3c05c1c8	0.008163877
28	0x3c05c1c8	0.008163877
29	0x3c05c1c8	0.008163877
30	0x3eddff54	0.43358862
31	0x3d09cde8	0.033643633
32	0x3ec1a0d6	0.3781802
33	0x3c05c1c8	0.008163877
34	0x3c05c1c8	0.008163877
35	0x3c05c1c8	0.008163877
36	0x3ee2b425	0.44278064
37	0x3d017406	0.03160479
38	0x3ebc43d2	0.36770493
39	0x3c05c1c8	0.008163877
40	0x3c05c1c8	0.008163877
41	0x3c05c1c8	0.008163877
42	0x3eeb5ec3	0.45970735
43	0x3d69b527	0.057057526
44	0x3ec4b311	0.38417867
45	0x3c05c1c8	0.008163877
46	0x3c05c1c8	0.008163877
47	0x3c05c1c8	0.008163877
48	0x3eee4c1c	0.46542442
49	0x3d754d08	0.059887916
50	0x3ec52735	0.38506475
51	0x3c05c1c8	0.008163877
52	0x3c05c1c8	0.008163877
53	0x3c05c1c8	0.008163877
54	0x3ef7d03b	0.48401055
55	0x3d9e267d	0.07722185
56	0x3ea5548e	0.32291073
57	0x3c05c1c8	0.008163877
58	0x3c05c1c8	0.008163877
59	0x3c05c1c8	0.008163877
60	0x3ef9c236	0.48780984
61	0x3da5d1c8	0.08096653
62	0x3e9f2a95	0.31087175
63	0x3c05c1c8	0.008163877
64	0x3c05c1c8	0.008163877
65	0x3c05c1c8	0.008163877
66	0x3ef4a4db	0.47782025
67	0x3d9b81ff	0.07593154
68	0x3edaca56	0.42732495
69	0x3c05c1c8	0.008163877
70	0x3c05c1c8	0.008163877
71	0x3c05c1c8	0.008163877
72	0x3ef416d2	0.4767366
73	0x3da84bd3	0.08217587
74	0x3ed6454e	0.4184975
75	0x3c05c1c8	0.008163877
76	0x3c05c1c8	0.008163877
77	0x3c05c1c8	0.008163877
78	0x3efd0a5e	0.49421972
79	0x3db96c5c	0.09053871
80	0x3eca3e84	0.3950082
81	0x3c05c1c8	0.008163877
82	0x3c05c1c8	0.008163877
83	0x3c05c1c8	0.008163877
84	0x3efd5b9c	0.49483955
85	0x3db66ebd	0.089078404
86	0x3ec518b9	0.38495424
87	0x3c05c1c8	0.008163877
88	0x3c05c1c8	0.008163877
89	0x3c05c1c8	0.008163877
90	0x3c3d280f	0.011545195
91	0x3c05c1c8	0.008163877
92	0x3c05c1c8	0.008163877
93	0x3ed8699e	0.4226808
94	0x3e872fb0	0.2640357
95	0x3c05c1c8	0.008163877
96	0x3c3d272a	0.011544982
97	0x3c2d8f94	0.010593314
98	0x3c05c1c8	0.008163877

action_model._discrete_distribution.branches.0.bias f4 [3]
0	0x3ad95a83	0.0016582761
1	0x3c136476	0.00899612
2	0xbc28b73d	-0.010297594

action_model._discrete_distribution.branches.0.weight f4 [3, 256]
0	0x3b640900	0.0034795403
1	0xbc9c6af5	-0.01909397
2	0x3be18b4d	0.006883061
3	0xbb92d7eb	-0.004481306
4	0xbbbd913e	-0.0057851365
5	0xbb494ce3	-0.0030715994
6	0xbb097aaa	-0.0020977654
7	0xbc85c42b	-0.016328892
8	0xbc00bfef	-0.007858261
9	0xbc56fe29	-0.01312212
10	0x3c8e18b8	0.017345771
11	0xbc0da9f9	-0.008646482
12	0xbb1baba2	-0.0023753424
13	0x3c5032be	0.01270741
14	0x3c59035c	0.01324543
15	0xba05be8a	-0.000510194
16	0xbc2a6a20	-0.010401279
17	0xbc45b904	-0.012068037
18	0xba7a59ce	-0.0009550125
19	0xba6e6c70	-0.0009095138
20	0x3bd02119	0.006351602
21	0x3bcbf75d	0.0062245564
22	0x3b8b858e	0.0042578643
23	0x3b73be89	0.0037192425
24	0x391d4dc3	0.00015001655
25	0x3be0a0ec	0.006855121
26	0x3bb0a6cc	0.0053909775
27	0xbb84923c	-0.004045753
28	0x3b9db699	0.004813027
29	0x3bdea6a4	0.0067947675
30	0x3bc54b18	0.0060209148
31	0xbbc5c58a	-0.0060355114
32	0x3c60e04b	0.013725351
33	0x3b94cdd6	0.004541139
34	0x3b4ea913	0.0031533882
35	0xba32efcf	-0.00068258954
36	0xbaf88465	-0.0018960355
37	0xbad58061	-0.001628887
38	0x3b88c694	0.004174063
39	0xbb154805	-0.0022778523
40	0x3c054f9e	0.008136658
41	0xbc011162	-0.00787768
42	0x3c821bf5	0.015882472
43	0x3a1ca130	0.00059749465
44	0x3b9b02fa	0.0047305794
45	0x3a0d5ed7	0.00053928554
46	0x398e9ad6	0.00027199712
47	0xbc913294	-0.017724313
48	0x3ae6fc45	0.001762279
49	0x3ba859eb	0.005137672
50	0x3b9c4dc7	0.004770014
51	0xbb460ae2	-0.003021889
52	0xbc1c17b3	-0.009527135
53	0xbb516c0e	-0.0031955275
54	0xbb825909	-0.003977899
55	0xbc63c2dc	-0.013901439
56	0xbbe4cc7a	-0.0069823833
57	0xbc11f337	-0.008908085
58	0xbc01568e	-0.007894171
59	0xbb6baca6	-0.003596106
60	0x3bc7a59d	0.0060927407
61	0xba3e2239	-0.00072530244
62	0xbc7a4224	-0.015274558
63	0x3b68c4d3	0.0035517707
64	0xbc223142	-0.009899439
65	0x3c916330	0.017747492
66	0xbb9d9c10	-0.004809864
67	0x3c183846	0.00929076
68	0xbb452e34	-0.0030087354
69	0x3b3d206c	0.0028858436
70	0x3b0000e8	0.001953179
71	0x3ac16aac	0.0014756522
72	0xbb8da8d8	-0.0043231063
73	0x3a8c01bd	0.001068167
74	0x3b785c2c	0.0037896736
75	0x3aece60d	0.0018073932
76	0xbad4d0ce	-0.0016236545
77	0x3bb23713	0.0054386943
78	0x3c013d28	0.007888116
79	0xbbff7930	-0.007796429
80	0x3b00c3f7	0.0019648054
81	0x3abfdaf3	0.0014637396
82	0xbb8ef73c	-0.0043629687
83	0xbbd8cd64	-0.0066162813
84	0xbbf07ea7	-0.007339317
85	0xbbda2692	-0.00665743
86	0xbc20924c	-0.009800505
87	0x3add4255	0.001688073
88	0x3b54b19d	0.0032454499
89	0xbc0c38eb	-0.008558492
90	0x3b49440a	0.003071072
91	0x3a948d94	0.0011333697
92	0xbb8f1d26	-0.0043674884
93	0xbc4aa21c	-0.012367751
94	0x3c506a05	0.0127205895
95	0x37a03e10	1.9102386e-05
96	0xbbcd8ccd	-0.0062728883
97	0xbbdab3aa	-0.0066742497
98	0xbc2927c2	-0.01032442
99	0x3b0df1e4	0.002165907
100	0x3ba43d4b	0.0050121895
101	0x3c150eaa	0.0090977345
102	0x3c6323f0	0.013863549
103	0xbb37a135	-0.002801967
104	0xbb78f7d1	-0.0037989507
105	0xba6a434a	-0.00089364185
106	0x3c4ed61f	0.012624293
107	0xbc4534de	-0.01203653
108	0x3c0229ad	0.007944507
109	0x3b880356	0.0041507883
110	0xbc189087	-0.009311802
111	0xbc4a0620	-0.012330562
112	0x3bbbd069	0.0057316315
113	0xbbed798a	-0.0072471546
114	0xbbbdb001	-0.0057888036
115	0x3c19f804	0.00939751
116	0xbac1d052	-0.0014786816
117	0xbbf01619	-0.007326853
118	0xbc70a2fc	-0.014687296
119	0x3bc34b92	0.0059599364
120	0xbc0d09b4	-0.00860827
121	0xbbe6647d	-0.007031022
122	0xbc972760	-0.018451393
123	0x3c1031d9	0.008800947
124	0xbb3cf72a	-0.0028833845
125	0xbc6f0ef5	-0.014590968
126	0x3c7e241f	0.015511542
127	0xb9b6478a	-0.00034767046
128	0xbadaa0ef	-0.0016680042
129	0x3a9ce011	0.0011968632
130	0x3c531903	0.012884381
131	0x3a8046d4	0.0009786733
132	0xbc3ceb97	-0.011530778
133	0x3c716c84	0.014735345
134	0xbc048515	-0.00808837
135	0x3b6c7b7c	0.0036084345
136	0x3c65b0cc	0.014019202
137	0xbc0a0e21	-0.00842622
138	0x3b63040f	0.003463987
139	0x3bd2612d	0.0064202757
140	0xbc0b8b92	-0.008517163
141	0x3af69e45	0.0018815479
142	0xbbbff823	-0.0058584376
143	0xba7c73b5	-0.0009630279
144	0x3c44ef64	0.012019966
145	0x3bb2edd7	0.0054604816
146	0x3c1b2903	0.009470227
147	0xbb4669a0	-0.003027536
148	0xbc131673	-0.00897752
149	0xb9810351	-0.00024607268
150	0xbb7cd8b8	-0.0038581323
151	0xbb994ac1	-0.004678101
152	0xbc18f97e	-0.009336827
153	0xbba32938	-0.004979279
154	0xbc96e6a2	-0.018420521
155	0x3bc3b1ee	0.0059721386
156	0xbc79902d	-0.015232128
157	0x3c21e6d2	0.009881692
158	0x3b6063e5	0.003423923
159	0xbb42b579	-0.0029710217
160	0x3bbf4c07	0.0058379206
161	0xbad4c9d6	-0.0016234468
162	0x3b325a6c	0.002721454
163	0xbc8aa757	-0.016925497
164	0x3aedb057	0.0018134218
165	0xbbb7ede5	-0.005613076
166	0x3b5b0172	0.003341761
167	0xbb35277c	-0.0027641943
168	0xbbb24895	-0.0054407814
169	0xbb90a9d6	-0.0044147773
170	0xbbc33d9a	-0.005958271
171	0xbc181878	-0.009283178
172	0xbbcce915	-0.0062533715
173	0xbb99bdc2	-0.0046918103
174	0x3c963e0c	0.018340133
175	0x3b07e154	0.0020733671
176	0xbbaedeba	-0.0053366097
177	0x3c646062	0.013938995
178	0x3c19e576	0.009393087
179	0x3c10813c	0.008819874
180	0xbc839c7e	-0.016065832
181	0x399ddbd9	0.00030109173
182	0x3b48b447	0.0030625032
183	0xbc7c0670	-0.015382394
184	0x3c1a7be2	0.00942895
185	0x3c85feda	0.016356874
186	0xbc248b38	-0.010042958
187	0xba8e7cbc	-0.0010870914
188	0x3ad04e29	0.0015892434
189	0xbbd11f85	-0.0063819312
190	0x3c23c37a	0.009995336
191	0xbaa0c515	-0.0012265766
192	0x3b8bcb47	0.004266176
193	0xbc2a3c43	-0.010390344
194	0x3c56928c	0.013096463
195	0x3ad52085	0.0016260302
196	0xbb377131	-0.0027991051
197	0xbbb62b74	-0.0055593792
198	0xbb410ce1	-0.002945714
199	0xbbe13095	-0.0068722465
200	0xbc3bbda3	-0.011458787
201	0xbc16b800	-0.009199142
202	0x3c0dbb5d	0.008650628
203	0x3b3b8ee8	0.0028619114
204	0xbbe708ca	-0.0070506083
205	0xbbc0ff49	-0.0058898074
206	0xbb986e19	-0.0046517965
207	0x3c433715	0.011914988
208	0xbb2b6ede	-0.0026158611
209	0xbc0b035d	-0.008484689
210	0x3be72a4f	0.007054604
211	0x3b8176ac	0.0039509144
212	0xbb7beff2	-0.003844258
213	0xbc463c01	-0.012099267
214	0x3be1e481	0.006893695
215	0xbb904295	-0.0044024684
216	0x3a801c96	0.0009774144
217	0x3b90d335	0.004419709
218	0xbc0fec13	-0.008784312
219	0x3b243d41	0.0025060924
220	0xbc23a28e	-0.0099874865
221	0xbc6e84be	-0.014558015
222	0xbb595c99	-0.0033166765
223	0xbbdea34c	-0.006794369
224	0x3b4999b8	0.003076179
225	0xbc256f30	-0.01009731
226	0x3c04b721	0.008100302
227	0xbb842a11	-0.004033335
228	0xbc218487	-0.009858257
229	0x3b5bbac3	0.0033528067
230	0x3bfb8b2a	0.0076765018
231	0xbba6e102	-0.005092741
232	0x3c5076a1	0.012723596
233	0xba2c8902	-0.0006581695
234	0x3b004a5f	0.0019575579
235	0xbbf5d3f9	-0.0075020758
236	0xbacb91cf	-0.0015531125
237	0xbb3267cb	-0.002722251
238	0xbabc9455	-0.0014387468
239	0xbc28812c	-0.010284703
240	0xbbaa2905	-0.005192878
241	0xbb813e3a	-0.0039441856
242	0xba856ccc	-0.0010179519
243	0xbc463d4c	-0.012099575
244	0xbaa61107	-0.001266987
245	0x3992a3bc	0.00027969282
246	0xbbbf0de7	-0.0058305147
247	0x3bb80394	0.005615661
248	0x3aa4daea	0.0012577449
249	0x3c24a8c5	0.010050003
250	0x3a0e42ce	0.0005426825
251	0xbb7b719a	-0.0038367272
252	0x3c2aa643	0.010415616
253	0x3afd6011	0.0019330998
254	0xbaf3d26a	-0.0018602137
255	0xbc1cb08b	-0.0095635755

action_model._discrete_distribution.branches.1.bias f4 [2]
0	0x3bc19c40	0.005908519
1	0xbbc19c44	-0.005908521

action_model._discrete_distribution.branches.1.weight f4 [2, 256]
0	0x3bf0a2b7	0.007343616
1	0x38ee8ef0	0.000113753485
2	0x3c47766c	0.01217423
3	0xbb0f21be	-0.002184018
4	0x3b999e13	0.0046880334
5	0x3c0dff48	0.008666821
6	0x3c79f972	0.015257226
7	0x3c83de44	0.016097195
8	0xbb44fc9c	-0.0030057793
9	0xbc2cab6e	-0.010538919
10	0x3b64fd54	0.0034941034
11	0x3c9384b7	0.01800762
12	0x3baa4023	0.005195634
13	0x3b4d39a6	0.0031314879
14	0x3c3cecb1	0.011531041
15	0xbcb245f4	-0.021761872
16	0xbbd9c53f	-0.006645828
17	0x3c674ddc	0.014117684
18	0x3c034aee	0.00801347
19	0xba707640	-0.0009172894
20	0x3c044a12	0.0080743
21	0x3b5175d1	0.0031961093
22	0xbb6ac7b9	-0.003582461
23	0x3c5361cf	0.012901737
24	0x3ab3f569	0.0013729754
25	0x3bd19bd0	0.006396748
26	0xba92669c	-0.0011169496
27	0xbb880013	-0.0041503995
28	0x3b80e8f9	0.0039340225
29	0x3ba97f87	0.005172673
30	0x3c10dfd0	0.008842424
31	0x399c315d	0.00029791417
32	0xbbd1d879	-0.0064039794
33	0xbc0e97a3	-0.008703145
34	0x3a7bbea2	0.00096032966
35	0x3bcff71f	0.006346598
36	0x3bff62be	0.0077937534
37	0xbb64d753	-0.0034918382
38	0xbbbde3ce	-0.0057949787
39	0x3c12e825	0.00896648
40	0xbbd4e4f3	-0.0064970194
41	0x3caf9eec	0.021438085
42	0x3cad5d7c	0.02116274
43	0x3c4a6b14	0.012354631
44	0x3c85b102	0.016319755
45	0xbb544298	-0.0032388326
46	0x3993830d	0.00028135665
47	0xbb82bfa6	-0.0039901314
48	0xbbc1128e	-0.0058921045
49	0x3b2decca	0.0026538842
50	0x3b52c5a3	0.0032161258
51	0xbb17a293	-0.0023137673
52	0x3c8b6962	0.017018024
53	0xbc1d763e	-0.009610711
54	0xbbeeee06	-0.007291558
55	0x3a85c2ae	0.0010205114
56	0x3b12275a	0.0022301287
57	0x3b84f29a	0.0040572407
58	0xba29f3f6	-0.00064831914
59	0x3caf2e1c	0.021384291
60	0xbbe8ce6a	-0.0071046846
61	0x3cd3a61b	0.025836041
62	0xbbc26064	-0.005931901
63	0xbab8c334	-0.0014096261
64	0xbb5f6bb1	-0.0034091289
65	0xb8fb2a4c	-0.00011976491
66	0xbbdf916a	-0.0068227546
67	0x3ba133d7	0.00491951
68	0xbb6f6971	-0.0036531354
69	0x3c350520	0.011048585
70	0x3beec6e7	0.0072868946
71	0xbc2705ed	-0.010194284
72	0xbaa871c7	-0.0012851291
73	0xbb45fb05	-0.0030209434
74	0xbb3e125d	-0.0029002645
75	0xbc6ee204	-0.0145802535
76	0x3bd5daa2	0.006526307
77	0x3b988561	0.004654572
78	0x3bbd18d0	0.00577078
79	0x3b7dcf91	0.0038728456
80	0xbab18176	-0.0013542611
81	0xbbce4963	-0.0062953695
82	0x38da536e	0.0001041059
83	0x3a7a18ee	0.0009540458
84	0x3c3f5fb9	0.011680537
85	0xbc3c86c1	-0.011506737
86	0x3b5fc026	0.003414163
87	0x3b78473f	0.0037884263
88	0xbc13c933	-0.009020138
89	0x3ca19b15	0.01972727
90	0x3990d8da	0.00027627387
91	0x3cb3e88c	0.021961473
92	0xbb74212f	-0.0037251224
93	0x3c9e7422	0.019342486
94	0xbc5808d6	-0.0131857
95	0xbb1c6528	-0.0023864005
96	0xbb675b66	-0.003530228
97	0x3cb686b0	0.02228102
98	0xbb45d007	-0.0030183808
99	0xbaaf9855	-0.0013396839
100	0x3c3457df	0.011007278
101	0x3b806a54	0.0039189253
102	0x3b773d8b	0.0037725891
103	0x3af61874	0.0018775598
104	0x3c00d04b	0.007862161
105	0xbb2a0b87	-0.0025946812
106	0xbb8b0e7c	-0.00424367
107	0xbbee4c1d	-0.007272257
108	0xba4b6965	-0.00077595405
109	0xbb7ff828	-0.0039057825
110	0xbb8d9c69	-0.004321624
111	0xbbafc484	-0.0053640027
112	0xbc8023bd	-0.015642041
113	0x3b53bba3	0.0032307885
114	0x3c6e6d07	0.014552361
115	0xbac53b86	-0.0015047647
116	0x3a8967e4	0.0010483232
117	0xbbae1cf1	-0.0053135087
118	0x3c111e4f	0.008857324
119	0x3a76f3d0	0.0009420486
120	0xbab558d2	-0.0013835675
121	0x3af8b7f1	0.0018975717
122	0xba4b3fe4	-0.0007753356
123	0xbbb94007	-0.0056533846
124	0xba87e573	-0.0010368064
125	0x3bb1885c	0.0054178666
126	0xbc17adb2	-0.009257721
127	0x3a877d8c	0.0010337099
128	0x394281aa	0.00018549585
129	0x3c09d021	0.008411438
130	0xbc516245	-0.012779777
131	0x3bf5ed17	0.00750507
132	0x3c27abb6	0.01023381
133	0xbc19b0bb	-0.009380515
134	0x3c9fcbc0	0.019506335
135	0x3c111cc2	0.008856954
136	0xbac7a8a2	-0.0015232752
137	0xbbb17c45	-0.0054164254
138	0x3a4cf1bf	0.00078180054
139	0xbbb01636	-0.0053737415
140	0x3c6c592a	0.014425555
141	0x3b272e12	0.0025509638
142	0x3bd9d3ab	0.0066475472
143	0xbbc566b9	-0.0060242084
144	0xb9809de9	-0.00024531715
145	0xbb6deba4	-0.0036303783
146	0x3ad06869	0.0015900257
147	0x3b8cf7dd	0.0043020085
148	0x3a7460be	0.0009322277
149	0x3cb9b44f	0.022668986
150	0x3c109be4	0.00882623
151	0x3bca7d80	0.0061795115
152	0xbc3508c6	-0.011049455
153	0x3c312310	0.010811582
154	0x3bf30f89	0.0074176234
155	0xbc055d83	-0.008139971
156	0x3b62a704	0.0034584412
157	0xbc48e74b	-0.012262176
158	0x38ffac44	0.000121914345
159	0xbab91c27	-0.001412277
160	0x3b0c02d6	0.0021363995
161	0x39e5b9f2	0.00043816824
162	0x3b58a2ef	0.00330561
163	0x3c628a88	0.013826974
164	0x3bc73b74	0.0060800854
165	0x3aa0e37e	0.0012274829
166	0x3ad3cd27	0.0016159163
167	0x3c57648d	0.013146532
168	0x3b86dbb6	0.004115547
169	0xba1bb603	-0.00059399026
170	0xba2a4443	-0.0006495157
171	0x3baec477	0.005333479
172	0xbc81c05c	-0.015838794
173	0xbbc23ba7	-0.0059275213
174	0x3c5bbc06	0.0134115275
175	0xbb6e0c79	-0.0036323352
176	0xba24ffc6	-0.0006294217
177	0xbc3c7e11	-0.011504666
178	0x3bd1face	0.006408072
179	0xbc5f17be	-0.0136165
180	0x3bd3475c	0.0064477157
181	0xbc7ae99f	-0.015314489
182	0x3c37d682	0.011220576
183	0x3bb47340	0.005506903
184	0x3bb820d9	0.00561915
185	0x3b851718	0.004061591
186	0x3c8b1ec9	0.016982453
187	0x3bae8a6e	0.0053265607
188	0xba73c92a	-0.000929969
189	0x3bd9ff2c	0.0066527333
190	0xbb6fe275	-0.0036603485
191	0xbb6ca8e1	-0.0036111402
192	0xbc29e11a	-0.01036861
193	0x3c13f0da	0.009029591
194	0x3af17546	0.0018421791
195	0x3b7b9a1b	0.0038391415
196	0x3c029e76	0.00797235
197	0xbc07fc2c	-0.008299869
198	0xbbc44d56	-0.0059906645
199	0xbba911e9	-0.0051596058
200	0x3c2d5c28	0.010581054
201	0x3b53717c	0.0032263687
202	0xbc6e3032	-0.014537858
203	0xbadb43e5	-0.0016728608
204	0xb9d380ff	-0.00040341166
205	0x3c0f671c	0.008752611
206	0x3a8aeb41	0.0010598676
207	0x3bde42a7	0.006782848
208	0x3c593aa7	0.013258613
209	0xb9f8a116	-0.00047422264
210	0x3c80aba3	0.015706843
211	0xbc7d620f	-0.0154652735
212	0xbbd5738f	-0.00651402
213	0xbb096bf3	-0.0020968884
214	0xbbaeb481	-0.0053315763
215	0x3c106d1d	0.008815077
216	0x3be227f5	0.006901736
217	0xba9a9ccd	-0.0011795998
218	0x3c8040f8	0.01565598
219	0xbc877aef	-0.016538111
220	0x3c57a9c3	0.013163033
221	0xbc2c2352	-0.010506468
222	0xbc1ca83f	-0.009561597
223	0x3c6889ab	0.014192979
224	0xbbe22f38	-0.0069026016
225	0xbb2439a1	-0.0025058764
226	0xbc5789c6	-0.013155406
227	0x3b74ee2f	0.0037373414
228	0xbb2dd3ec	-0.002652402
229	0x3c8903c3	0.016725427
230	0xbac816b4	-0.0015265555
231	0x3b401e1a	0.0029314817
232	0xbbaf740c	-0.00535441
233	0x3c42d3a9	0.011891284
234	0x3bcdc932	0.006280088
235	0xbc2bded8	-0.010490142
236	0x39e0f34b	0.00042905877
237	0xbb5af163	-0.0033408038
238	0x3c13844f	0.009003713
239	0xbacdbea0	-0.001569707
240	0xbbd2f9be	-0.006438463
241	0xbb87f0e8	-0.0041485913
242	0x3c754d46	0.014972037
243	0xbc3d46de	-0.011552541
244	0x3a17593b	0.0005773489
245	0xbb7343a2	-0.003711917
246	0x3bb11874	0.0054045264
247	0x3bd3a125	0.006458419
248	0x3b638fee	0.003472324
249	0xbbf61d63	-0.0075108274
250	0x3a88af25	0.0010428174
251	0x3c135756	0.0089929905
252	0xbb81a4ba	-0.0039564045
253	0xbb2e29e4	-0.0026575262
254	0x3ab266b3	0.0013610929
255	0x3c23593b	0.009970005

action_model._discrete_distribution.branches.2.bias f4 [2]
0	0x3b02d4b9	0.0019963218
1	0xbb02d4b4	-0.0019963207

action_model._discrete_distribution.branches.2.weight f4 [2, 256]
0	0x3c5a0d3c	0.013308819
1	0x3c106f64	0.00881562
2	0xbb9a7033	-0.004713082
3	0x3b008ac4	0.001961396
4	0x3c7cf253	0.015438634
5	0xbbc84b3c	-0.0061124843
6	0xbaa873b9	-0.0012851871
7	0xbbd77b35	-0.0065759667
8	0xbb5c1f92	-0.0033588153
9	0xbc5a3732	-0.013318824
10	0xbc0cea56	-0.008600792
11	0x39cfe6b8	0.00039654016
12	0x3bfde59b	0.0077483184
13	0x3b9bc794	0.004754016
14	0x3c873c34	0.0165082
15	0x3b7a107a	0.0038156793
16	0x3b1e584e	0.002416152
17	0x3a5baadc	0.0008379647
18	0xbc095763	-0.008382651
19	0xbc7a9baa	-0.015295902
20	0x3c69e94c	0.014276814
21	0x3b676d9f	0.0035313142
22	0xbbf998a1	-0.0076170717
23	0x3c5388cf	0.012911036
24	0x3c06be24	0.008224044
25	0xbae2bee5	-0.0017299323
26	0xbbb75044	-0.005594285
27	0xbaa42a8c	-0.0012524887
28	0x3c07219a	0.008247757
29	0xbb283ab5	-0.0025669758
30	0xbc53aa4d	-0.012919021
31	0xbb3ea9a7	-0.002909282
32	0xbb8e80f4	-0.0043488685
33	0x3c0c22dd	0.008553234
34	0x3b8351fc	0.004007576
35	0xbc557dee	-0.013030512
36	0x3b9631da	0.0045835795
37	0x3ad43055	0.001618872
38	0xbbcfb905	-0.0063391947
39	0x3bbd275b	0.005772514
40	0xbb4a1f87	-0.0030841546
41	0xbab7fe35	-0.0014037552
42	0x3bfd7d6e	0.0077358996
43	0x3a90d976	0.0011051137
44	0x3be115e0	0.006869063
45	0xbb96c1ab	-0.0046007237
46	0x3c5b87d9	0.013399088
47	0xbb9d0390	-0.0047916844
48	0xbb8d522a	-0.0043127732
49	0x3c2f6971	0.0107062915
50	0x3ab6e667	0.0013954163
51	0xbbecd501	-0.0072275405
52	0xbc01b596	-0.007916829
53	0xbbff58fa	-0.0077925893
54	0xbb76f88f	-0.0037684774
55	0xbc68ed73	-0.014216769
56	0x3c29bbb8	0.010359697
57	0xbb5de05c	-0.0033855652
58	0xba1554b0	-0.00056965183
59	0xbae16cd8	-0.0017198576
60	0x3b5dd247	0.003384726
61	0x3b28fb43	0.002578453
62	0x3b0a1d3a	0.002107455
63	0x3c53fe39	0.012939029
64	0x3aea6196	0.0017881866
65	0xbbb449eb	-0.005501976
66	0x3ca165a7	0.019701792
67	0x3c48cc25	0.012255703
68	0x3c985bc5	0.018598447
69	0xbbd479e1	-0.0064842557
70	0xbc2b1d78	-0.010444038
71	0x3b8e0bfe	0.0043349257
72	0xbc78ece0	-0.015193194
73	0xba2e1588	-0.00066407816
74	0x3c0bba58	0.0085283145
75	0xbbe4a7fc	-0.006978033
76	0x3bba332a	0.0056823688
77	0x3b7acfb9	0.0038270785
78	0xb9916ba7	-0.00027736762
79	0x3bd5f0a5	0.006528931
80	0xbb4cb810	-0.003123764
81	0x3bac1afc	0.00525224
82	0x3b6c340a	0.003604176
83	0xbc847891	-0.016170772
84	0xbb602f85	-0.0034208011
85	0xbb7b09ea	-0.003830547
86	0x3bf5b4a4	0.0074983407
87	0xba0bd55f	-0.0005334224
88	0x3b718a03	0.0036855943
89	0x39a96885	0.00032312065
90	0x3adffba4	0.0017088545
91	0x3b944cb5	0.0045257458
92	0x39124e64	0.00013952848
93	0x3b808f5a	0.003923339
94	0xba4234ff	-0.000740841
95	0xbc1f0d80	-0.0097078085
96	0xbc110a45	-0.008852546
97	0xbc488fac	-0.012241285
98	0x3c044979	0.008074158
99	0xbc2bcdb2	-0.010486053
100	0x3c764932	0.0150321
101	0x3c38b294	0.011273045
102	0xbc0bbd0c	-0.008528959
103	0x3c4d6987	0.012537367
104	0xbbb9bb38	-0.00566807
105	0xbb7a908a	-0.0038233125
106	0x3bd5aae6	0.006520617
107	0x3c0e56fc	0.008687731
108	0x3be043c1	0.0068440144
109	0xbc6941f4	-0.014236916
110	0xbc443927	-0.011976517
111	0x3c0d5e69	0.008628466
112	0x3b0d2c5d	0.0021541335
113	0xbc66cf6f	-0.014087542
114	0x3ca10048	0.019653454
115	0x3bf2578b	0.00739569
116	0x3ab6b300	0.0013938844
117	0xba82c0dd	-0.0009975691
118	0x37a6e548	1.989551e-05
119	0x3b1b8bae	0.0023734379
120	0xbc28f844	-0.010313097
121	0x3b154351	0.002277572
122	0xbbad7564	-0.005293535
123	0xbb6f3aee	-0.003650363
124	0xbc0121d8	-0.007881604
125	0x3b05f0c2	0.0020437692
126	0xbc026efb	-0.00796103
127	0xbc55d026	-0.013050115
128	0xbbff660f	-0.0077941488
129	0xbc964f58	-0.01834838
130	0x3bfb05d8	0.0076606087
131	0xb9c602c6	-0.0003776757
132	0xbc1aeb62	-0.009455534
133	0x39db22d0	0.00041796872
134	0x389652c3	7.167973e-05
135	0xbb31d378	-0.0027134102
136	0xbb3db9b7	-0.0028949806
137	0x3ad05b82	0.0015896412
138	0xbbd39c63	-0.0064578517
139	0x3ab353b8	0.0013681566
140	0x3b2a9ee7	0.0026034655
141	0xbc1e8a0e	-0.0096764695
142	0xbc445076	-0.011982074
143	0x3c12e0e3	0.00896475
144	0x3c17f3e2	0.009274455
145	0x3c571904	0.013128523
146	0x3b87eadf	0.004147872
147	0xbb3c8bea	-0.0028769919
148	0xbb372f4d	-0.0027951777
149	0xbb3c20f7	-0.0028706172
150	0x3b3fd72b	0.0029272537
151	0xbbcf339a	-0.00632329
152	0xbb2a21d4	-0.0025960105
153	0xbc354196	-0.011063
154	0xbb6231a9	-0.0034514463
155	0xbc0ddeec	-0.008659106
156	0xbc6d43d7	-0.014481506
157	0x3c51376d	0.012769562
158	0xbb445909	-0.0029960296
159	0xbbc3eedf	-0.0059794034
160	0xbc2202a3	-0.009888324
161	0xbbb991ab	-0.005663117
162	0x3be14dc9	0.006875728
163	0x3c21f7c9	0.009885737
164	0xbc55f362	-0.013058515
165	0x3a9debb2	0.0012048392
166	0xbc4297c3	-0.011877003
167	0xbb2f1111	-0.0026713053
168	0x3c24c034	0.01005559
169	0xbc123608	-0.008924015
170	0xbc2f9506	-0.010716682
171	0x3a07504e	0.00051618076
172	0xbad9a7ca	-0.0016605791
173	0x3a0aaf16	0.0005290372
174	0xbb33e1ef	-0.00274479
175	0x3b4c73a6	0.0031196862
176	0xba1c24d0	-0.0005956413
177	0x3c1b71c6	0.009487575
178	0x3a72997c	0.00092544383
179	0x3c240631	0.010011242
180	0xbbdfe796	-0.006833027
181	0x3a680016	0.00088501105
182	0xbbf9ab1b	-0.0076192743
183	0x3c3114ec	0.010808211
184	0x3b6e02ef	0.0036317667
185	0x3c9ab17e	0.018883463
186	0x3b1ef582	0.002425522
187	0xbbe297d7	-0.0069150734
188	0xbb5e4c1c	-0.0033919876
189	0xba769c9a	-0.0009407491
190	0xbbe147d2	-0.0068750167
191	0xbb5f5b19	-0.0034081398
192	0x3c064bf2	0.008196818
193	0xbbd3feab	-0.006469568
194	0x3bf62aef	0.0075124423
195	0xbc02350e	-0.00794722
196	0x3bdbbd13	0.006705889
197	0xb8d43717	-0.00010119209
198	0xbbb4fbcf	-0.005523182
199	0xbc294406	-0.010331159
200	0xbc93898d	-0.018009925
201	0x3b208714	0.0024494575
202	0x3bcaf7f7	0.0061941105
203	0x3bab9481	0.005236209
204	0x3ace2b70	0.0015729498
205	0xbbeb90ae	-0.007188878
206	0xbc45a94a	-0.012064287
207	0xbc14a98e	-0.009073628
208	0xbc46b7ef	-0.012128814
209	0x3c7bbf57	0.015365443
210	0x3c18004e	0.009277416
211	0xbbeaa6a0	-0.0071609765
212	0xbc3fcd4d	-0.011706662
213	0x3be572c3	0.007002206
214	0x3b54e899	0.0032487272
215	0xbc609681	-0.013707758
216	0x3c77592b	0.015096943
217	0xbc883860	-0.016628444
218	0x3c8c7a4c	0.01714816
219	0x3927982d	0.00015983051
220	0xb9dd0476	-0.00042155728
221	0xbc06df74	-0.008231986
222	0xbb58b223	-0.0033065162
223	0xbb1528d8	-0.002275994
224	0x3ca58b07	0.020207895
225	0x3c6f257e	0.014596341
226	0x3c3f3aab	0.011671702
227	0x3c0f0954	0.008730251
228	0x3c0bf959	0.008543336
229	0xbbd7d603	-0.0065867915
230	0xbbae1edd	-0.005313738
231	0xbc43c787	-0.0119494265
232	0x3b843eee	0.004035822
233	0xbc0e57c7	-0.00868792
234	0xbc47dbb5	-0.012198378
235	0xbbcaa20b	-0.006183868
236	0xbbe7890d	-0.0070658983
237	0x3bd5336c	0.006506374
238	0xbc0410be	-0.008060632
239	0x3bf9b1f9	0.007620093
240	0x3c226dd5	0.009913881
241	0x3c07d77a	0.00829112
242	0x3c14df20	0.0090864
243	0x3c216436	0.009850552
244	0xbc6cd23d	-0.014454422
245	0xbb9768a4	-0.0046206284
246	0x3c2a6704	0.010400537
247	0x3c69c0d0	0.0142671615
248	0x3b8dd187	0.004327956
249	0x3c5eae8f	0.013591423
250	0xbc1b0569	-0.009461739
251	0xbb482d94	-0.0030544745
252	0x3ba8c8c0	0.0051508844
253	0x3af2a580	0.0018512458
254	0xbc200c44	-0.009768549
255	0xbc543cad	-0.012953919

action_model._discrete_distribution.branches.3.bias f4 [2]
0	0xbc28f069	-0.0103112245
1	0x3c28f067	0.010311223

action_model._discrete_distribution.branches.3.weight f4 [2, 256]
0	0x3bbf5675	0.005839164
1	0xbc1b23a2	-0.009468945
2	0x3c0794a5	0.008275186
3	0x3a0f6390	0.0005469853
4	0xbaddb47b	-0.0016914749
5	0x3b57d417	0.0032932812
6	0xba33f93f	-0.00068654487
7	0xbb11af9c	-0.0022229915
8	0xbc417075	-0.011806597
9	0x3b14e28b	0.0022718038
10	0x3c2c0630	0.010499522
11	0xbb0f02da	-0.0021821768
12	0x3c22a248	0.009926386
13	0xbb4f5b15	-0.0031639982
14	0x3c0ca923	0.008585247
15	0xba32183f	-0.0006793774
16	0x3b58d05a	0.0033083172
17	0x3c0220ac	0.00794236
18	0xbb428b78	-0.002968518
19	0x3a796762	0.00095140014
20	0x3bdb4283	0.0066912784
21	0x3bbb547b	0.005716858
22	0x3ca5bca5	0.020231554
23	0xbc125ef7	-0.008933774
24	0x3be7edad	0.0070778937
25	0x3a983c4b	0.0011614648
26	0x3c2c42d3	0.010513979
27	0x3c83766e	0.016047683
28	0x3b5ebde4	0.0033987695
29	0x3ac52e44	0.0015043695
30	0xbbe9bd0c	-0.007133132
31	0xbb273ec0	-0.002551958
32	0xbc15d68b	-0.009145389
33	0xbc041c9b	-0.008063461
34	0x3c00b5e6	0.007855868
35	0xbb0594f6	-0.0020382977
36	0x3aeb0751	0.0017931258
37	0x3b8ed255	0.0043585696
38	0x3ac30a0f	0.0014880317
39	0xbc399b0a	-0.011328468
40	0x3a4cbd71	0.00078102114
41	0x3c01416c	0.007889133
42	0x3c8993fa	0.016794194
43	0xb80bd9bc	-3.3342963e-05
44	0x3bc6b3a0	0.0060638934
45	0x3c0d9849	0.008642265
46	0xbb10b7eb	-0.002208228
47	0xbaa5d346	-0.0012651465
48	0xb9c40a54	-0.00037391728
49	0x3c219777	0.009862772
50	0x3b8e524d	0.004343307
51	0xb9c63ae3	-0.00037809377
52	0xbc0d5fd8	-0.008628808
53	0x3c82eee4	0.015983053
54	0x3b52477f	0.0032086072
55	0xbc8c71ab	-0.017144045
56	0xbafd0851	-0.0019304847
57	0xbaff9006	-0.0019497878
58	0x3bcad5bb	0.0061900294
59	0xbbb09c64	-0.005389737
60	0x3bd4f67e	0.0064991107
61	0x3c2f513c	0.01070052
62	0xbb9c9cd3	-0.004779437
63	0xbc7aa25b	-0.015297498
64	0x3beb5b5f	0.007182523
65	0xbb985266	-0.0046484945
66	0xbc4ba067	-0.01242838
67	0x3af55cd2	0.0018719679
68	0x3b2237de	0.0024752538
69	0x3c38dd2c	0.0112832
70	0xbb9a2d30	-0.004705094
71	0x3c204374	0.009781707
72	0x3b79f334	0.0038139345
73	0xbc0a48e0	-0.008440226
74	0x371fe1d8	9.529722e-06
75	0x3b79bc4f	0.0038106625
76	0xbb46b253	-0.0030318692
77	0x3c4f6644	0.012658659
78	0xb7ca910a	-2.4147816e-05
79	0x3b35db97	0.0027749294
80	0x3bb211db	0.0054342574
81	0xbc0f896c	-0.008760791
82	0x3c0dd979	0.008657807
83	0xbadf09a0	-0.0017016418
84	0xbcd4d5ca	-0.025980849
85	0x3c0e0768	0.008668758
86	0xbb4953fb	-0.0030720222
87	0xbb86d022	-0.004114167
88	0xbad85b83	-0.0016506765
89	0x3bf9e8bf	0.0076266224
90	0x3aa83231	0.0012832341
91	0x3b88d9e6	0.004176366
92	0xbae02291	-0.0017100145
93	0x3c2c891c	0.010530736
94	0x3b675cbd	0.003530308
95	0xbb1bf2bf	-0.002379581
96	0x3cc13afb	0.023587694
97	0x3cb5fdb2	0.022215698
98	0xbb5945f7	-0.0033153275
99	0xbc76350f	-0.015027299
100	0x3c55bd91	0.013045684
101	0x3bc02d55	0.005864779
102	0x39cbac49	0.0003884754
103	0xbaea49f0	-0.0017874818
104	0xbb1956a8	-0.0023397598
105	0xbc19ef2b	-0.009395401
106	0xbb2c3c04	-0.002628089
107	0xbc56bf0f	-0.013107075
108	0xbb1dac9b	-0.002405918
109	0x3c18c6de	0.009324757
110	0xbc44c030	-0.012008712
111	0xbc0a08dc	-0.008424964
112	0x3c176ead	0.009242696
113	0x3b3ae73c	0.0028519174
114	0xba130afc	-0.0005609242
115	0x3ae51af2	0.0017479344
116	0x3b4f7f16	0.0031661442
117	0x3c1d1fe3	0.009590122
118	0xb9cf78bc	-0.0003957207
119	0x3bc0ce47	0.005883965
120	0xbb971be7	-0.0046114805
121	0x3bb173c4	0.0054154117
122	0xbb94d34d	-0.0045417906
123	0x3c3b9b0d	0.011450541
124	0xbaf1c97e	-0.001844689
125	0x3bd30eb9	0.006440964
126	0xbb917c14	-0.00443984
127	0xba8e7043	-0.0010867197
128	0xbb1c9a37	-0.002389563
129	0xbc53523f	-0.012898027
130	0x3b070d3e	0.0020607258
131	0x3c7ed2a4	0.01555315
132	0xbc93f88e	-0.018062856
133	0xbb59a098	-0.0033207294
134	0xbc1fb6bc	-0.009748157
135	0xbc3753aa	-0.011189381
136	0x3c03a891	0.008035795
137	0xbc7aa351	-0.015297727
138	0xbbfd1b04	-0.007724168
139	0x3c1e9ae9	0.009680488
140	0xbad56d2d	-0.0016283147
141	0x3bb1452f	0.0054098587
142	0x3ca2ed6b	0.0198886
143	0xbb22eb65	-0.0024859544
144	0xbb081bdd	-0.002076856
145	0xbbc97c31	-0.006148838
146	0xbafbb347	-0.0019203209
147	0xbcaaa950	-0.020832688
148	0x3be59c6c	0.0070071723
149	0xbbd91bd5	-0.0066256323
150	0x3bb122c6	0.0054057566
151	0x3a923a40	0.0011156276
152	0xbba1ea23	-0.0049412414
153	0xbc1c9e62	-0.009559246
154	0xbb901a9e	-0.0043977043
155	0x3b85124a	0.004061018
156	0x3c26aaf7	0.010172597
157	0x3b7b02a6	0.003830114
158	0x3ca74cfe	0.020422455
159	0x3bc896fd	0.006121515
160	0xbbd71874	-0.0065641943
161	0xbb1dfda3	-0.0024107478
162	0xbbce3de9	-0.0062940014
163	0x3bbaf4c8	0.0057054497
164	0x39c7a716	0.00038080727
165	0x3c11d334	0.008900452
166	0x3b445dce	0.0029963139
167	0x3b8113a5	0.0039391094
168	0xbc826e51	-0.015921744
169	0xbab14a6a	-0.0013526205
170	0xbb5f4d6e	-0.0034073251
171	0x3b373aa1	0.002795853
172	0x3c6283d5	0.0138253765
173	0xbb73443d	-0.003711953
174	0xbc4d35d4	-0.012525041
175	0xb8ee7aac	-0.00011371574
176	0xbc8dac4c	-0.017294072
177	0xbaec8f71	-0.001804812
178	0xbad8279a	-0.0016491294
179	0x3b021873	0.0019850999
180	0xbc2df28c	-0.01061691
181	0xbc310890	-0.010805264
182	0x3b5bcf5e	0.0033540349
183	0xba01ab9b	-0.00049465307
184	0x3bcb4d8d	0.006204313
185	0xbb71e40b	-0.0036909606
186	0xbc04b0e8	-0.008098818
187	0x3b17450f	0.0023081934
188	0x3a8a8f65	0.0010571299
189	0xb9deee37	-0.00042520624
190	0x3b68a56b	0.0035498987
191	0x3a32c23a	0.0006819103
192	0x3b88ed7e	0.004178702
193	0x3b0b8752	0.0021290374
194	0x3c45cd93	0.0120729385
195	0x3b30f026	0.0026998608
196	0x3c55cae3	0.01304886
197	0x3bcb7698	0.006209206
198	0x3b3b5828	0.002858648
199	0xbcc39bd3	-0.023878014
200	0xbb6a68dc	-0.0035768067
201	0xbc04070d	-0.008058322
202	0xbb3a7478	-0.0028450768
203	0xb9950137	-0.000284204
204	0xbb87b60c	-0.0041415747
205	0xbbb9f185	-0.0056745433
206	0x3bbc10a9	0.0057392907
207	0xbc0dc59e	-0.008653073
208	0x3b26c89f	0.002544917
209	0x3c0c8859	0.00857743
210	0xbc0d9a80	-0.008642793
211	0x3c19b595	0.009381671
212	0xbb22285c	-0.0024743294
213	0xba425592	-0.00074132637
214	0x3c90a0d1	0.017654808
215	0x3b2edf22	0.002668329
216	0xbc1ddebb	-0.009635623
217	0xbc27fcb4	-0.01025312
218	0xbb2c52da	-0.00262945
219	0x3be04c95	0.006845067
220	0xba8f5bf7	-0.0010937442
221	0xbbf01c64	-0.007327603
222	0xb8677907	-5.5187407e-05
223	0xbc1e865a	-0.009675587
224	0xbbe46c2c	-0.006970903
225	0x3b1912d2	0.0023357165
226	0x3bdec51f	0.006798401
227	0xbb902a6b	-0.004399588
228	0x3bbbe841	0.005734474
229	0x3b8bb458	0.004263442
230	0x388ca86f	6.7070934e-05
231	0x3b0662af	0.0020505597
232	0xba191279	-0.00058392395
233	0x38f0bed4	0.00011479636
234	0xbc2f6ede	-0.010707585
235	0x3ba10db6	0.0049149645
236	0x3c9394fd	0.01801538
237	0xbb97c2a0	-0.0046313554
238	0xbc959340	-0.01825869
239	0xbbe748b4	-0.0070582274
240	0x3ba23c1a	0.0049510123
241	0x3b923baa	0.004462679
242	0xba0bdfdb	-0.0005335786
243	0xbb90b337	-0.0044158953
244	0x3b65e375	0.0035078202
245	0xbcd6e7b2	-0.026233528
246	0xbbb2b208	-0.005453352
247	0xbb76136f	-0.0037548204
248	0xbb298e12	-0.0025872034
249	0xbb640135	-0.0034790759
250	0xbc6f8181	-0.0146182785
251	0xbb594f9c	-0.0033159023
252	0xbad042e5	-0.0015889077
253	0x3bbe612e	0.0058099246
254	0xbbb88f88	-0.0056323446
255	0xba23d321	-0.0006249417

action_model._discrete_distribution.branches.4.bias f4 [2]
0	0x3b9c565a	0.004771036
1	0xbb9c565a	-0.004771036

action_model._discrete_distribution.branches.4.weight f4 [2, 256]
0	0xbb751529	-0.0037396646
1	0x3b38154f	0.0028088873
2	0x3ae51764	0.0017478284
3	0xbbad2a70	-0.0052846
4	0xbb7a4a84	-0.0038191387
5	0xbc0a135c	-0.008427467
6	0xb9402fd9	-0.00018328372
7	0x3b0af3e3	0.0021202497
8	0xbb75fb0f	-0.0037533676
9	0x3ac28186	0.0014839626
10	0x3a553af9	0.0008134093
11	0x3c38c5b2	0.011277603
12	0xbb1e8631	-0.002418887
13	0xbb4376a9	-0.0029825366
14	0xbca795d7	-0.020457191
15	0x3c073d0d	0.008254302
16	0xbba98596	-0.0051733954
17	0xbc0fd66a	-0.008779148
18	0xbc2fb740	-0.010724843
19	0xbb6fc992	-0.003658865
20	0xbb5ff1ab	-0.0034171145
21	0x3c2020cc	0.009773444
22	0x3b4f257a	0.003160803
23	0x3c86e8a5	0.016468355
24	0x3bc5f8dc	0.0060416292
25	0xbc9d3a6d	-0.019192899
26	0xba045868	-0.0005048574
27	0xbbea7086	-0.007154527
28	0x3abf694d	0.0014603526
29	0xbc1c1e12	-0.009528654
30	0x3c237bed	0.009978277
31	0x3c9c152f	0.01905307
32	0x3bc4af01	0.0060023074
33	0x3b6f0efc	0.0036477437
34	0xbaccfc4b	-0.0015639154
35	0x3c33b827	0.010969198
36	0xbb5ca241	-0.0033666047
37	0xbb820879	-0.003968295
38	0x3c41a3c9	0.011818835
39	0x3ad0966a	0.0015913968
40	0x3c2c1ec2	0.01050538
41	0x3cac773a	0.021052945
42	0xbc1f7e6a	-0.009734729
43	0xbbe4eb42	-0.0069860527
44	0xbc0805a9	-0.008302131
45	0x3c77e588	0.015130408
46	0x3b8d65da	0.00431512
47	0x3b36d97a	0.0027900622
48	0xbc301506	-0.0107472
49	0x3c901d4d	0.017592097
50	0xbc9d29bc	-0.01918494
51	0xbc735ca7	-0.014853633
52	0x3a639acc	0.00086824293
53	0x3c125266	0.008930778
54	0x39880d7e	0.00025949994
55	0xba928134	-0.0011177422
56	0x3b23e625	0.0025009003
57	0xbb45f268	-0.00302043
58	0xbc51d22f	-0.012806459
59	0x3927f329	0.00016016945
60	0x3b11ec3c	0.002226605
61	0xbbfd3648	-0.007727418
62	0x3c3b77b4	0.011442114
63	0x3b251462	0.002518915
64	0xbbfea4cd	-0.0077711106
65	0x39a495bc	0.00031392078
66	0x3a80be24	0.0009822291
67	0xbc353e50	-0.01106222
68	0xbc6c9dd2	-0.014441924
69	0x3a57a209	0.0008225744
70	0x3bc1f8a7	0.0059195342
71	0x3c0599e2	0.008154364
72	0x3b3055b2	0.0026906547
73	0x3ba3ac7b	0.0049949265
74	0x3b170783	0.0023045249
75	0xba38be84	-0.0007047432
76	0x3afebd7c	0.0019435133
77	0xbbd3cf48	-0.006463919
78	0x3c4e58bc	0.012594398
79	0x3b8464b9	0.0040403274
80	0xbc5dd744	-0.013540093
81	0x3c84a930	0.016193956
82	0xbbc28d9b	-0.005937291
83	0xbc85ac33	-0.016317463
84	0x3c79e8d4	0.015253264
85	0xbc1fe428	-0.0097589865
86	0xbbcc638a	-0.006237452
87	0x3a83d9e6	0.0010059446
88	0xbcae4886	-0.021274816
89	0xbb865e50	-0.0041005984
90	0xbbb29727	-0.0054501477
91	0xbc0686be	-0.008210836
92	0xbb8ae0a4	-0.004238205
93	0x3aa6c883	0.0012724552
94	0xbc1729fc	-0.009226318
95	0xbbb86120	-0.0056268126
96	0x3b7a5e16	0.0038203052
97	0xbc017142	-0.007900538
98	0x3bc2323d	0.005926399
99	0x3bfbf366	0.0076889275
100	0xbc487d29	-0.012236872
101	0xbca8d5a1	-0.020609679
102	0x3c393be3	0.011305782
103	0x3b3b29ec	0.0028558923
104	0x3a2a3ffa	0.00064945186
105	0x3c415950	0.011801079
106	0xbc654c31	-0.013995216
107	0x3c453e62	0.012038799
108	0x3b7343e3	0.003711932
109	0x3c0023c8	0.007821031
110	0x3c13fea4	0.009032879
111	0x3c6e7e63	0.0145565
112	0xbb462503	-0.0030234463
113	0x3ba8e888	0.005154673
114	0x3c4390b6	0.011936357
115	0x3a15a119	0.00057079043
116	0x3b648391	0.0034868459
117	0x3bddbd9a	0.006766987
118	0xbc8988a1	-0.016788783
119	0xbc13fc3d	-0.009032306
120	0x3b8645ac	0.004097661
121	0x3c096810	0.008386627
122	0x3b729af4	0.0037018629
123	0xbc097543	-0.008389774
124	0xba7fe192	-0.00097610906
125	0xbc3dbbd5	-0.011580427
126	0x389a0fa4	7.3462055e-05
127	0x3caebc89	0.021330135
128	0xbbee30a4	-0.007268982
129	0xbb835866	-0.0040083406
130	0x3c60f59c	0.013730433
131	0xbaa55750	-0.0012614522
132	0xbc0a9ad7	-0.008459768
133	0xbbaff2dd	-0.0053695277
134	0x3bd9b072	0.0066433484
135	0x3aee88f8	0.0018198779
136	0x3bb26457	0.0054440903
137	0xbc05c4a9	-0.008164563
138	0x3bfb6ea7	0.007673103
139	0xbc0b47a4	-0.008500967
140	0x3a8a7ed6	0.0010566365
141	0xbc197cec	-0.009368163
142	0xbabd2e89	-0.0014433424
143	0xbbb2f0c1	-0.005460829
144	0xbbbeea2e	-0.0058262562
145	0x3a443a7e	0.00074855227
146	0x3ba4758c	0.0050188955
147	0xbb108880	-0.0022054017
148	0xbc8486e6	-0.016177606
149	0x3c12aecd	0.008952809
150	0xbc59fc73	-0.0133048175
151	0x3bc1944c	0.005907571
152	0xbb08e209	-0.002088668
153	0x3aacaad5	0.001317347
154	0xbb93d6a3	-0.0045116707
155	0x3bc6b0e5	0.006063568
156	0x3b8cf9d8	0.0043022446
157	0x3b23832a	0.0024950006
158	0xbb9361eb	-0.0044977567
159	0x3af530f1	0.0018706602
160	0xbba5f7d4	-0.005064944
161	0xbc4ff258	-0.012692057
162	0xba792185	-0.0009503591
163	0x3b88484d	0.0041590095
164	0x3c15861c	0.009126212
165	0xbc98b127	-0.01863916
166	0x3b96eb99	0.004605722
167	0x3c37a7ae	0.011209412
168	0x3ba5f9fb	0.0050652004
169	0x39cd3ad4	0.00039144477
170	0xbc082b5e	-0.008311121
171	0x3c393dca	0.011306236
172	0x3c333ac7	0.010939307
173	0x3c83f5cf	0.016108422
174	0x3ba19d81	0.004932106
175	0xb908899c	-0.00013021234
176	0xbb21c98b	-0.002468678
177	0xbc8124f7	-0.015764697
178	0x3a6beaf4	0.00089995493
179	0xbc0adda9	-0.008475699
180	0x3bf3ab22	0.007436172
181	0xbb2b408b	-0.0026131
182	0xbbc791b8	-0.006090369
183	0xbc17e855	-0.009271701
184	0x3be33038	0.0069332384
185	0xba52b4b6	-0.0008037792
186	0xbb7bbff9	-0.0038413985
187	0xbc472703	-0.012155297
188	0xbc025be4	-0.007956479
189	0xbaa6153a	-0.0012671121
190	0x3bbd1bdd	0.005771144
191	0xbbbd21ed	-0.0057718665
192	0xbb70ad13	-0.0036724254
193	0xbb8d9ad5	-0.004321436
194	0xbbb1c285	-0.0054248
195	0x3c0a7cb3	0.008452582
196	0x3b2f2b00	0.002672851
197	0xbb899dde	-0.0041997274
198	0xbbfeb0d8	-0.0077725463
199	0xbb88d102	-0.0041753063
200	0x3c670138	0.014099412
201	0x3be7ee29	0.0070779514
202	0xbc1e0446	-0.009644574
203	0x3a1c7b74	0.00059693237
204	0x3b743e6a	0.0037268647
205	0x3b873eba	0.0041273506
206	0xbc25f041	-0.010128082
207	0x3bb1d45a	0.0054269256
208	0xbba44dc4	-0.005014153
209	0xbc52cc4a	-0.012866089
210	0xbaa4e40d	-0.0012580171
211	0x3b8e90c9	0.004350756
212	0x3be56de1	0.007001624
213	0xbbcaf920	-0.006194249
214	0x3c4d95b7	0.012547902
215	0x3a82845a	0.0009957657
216	0xbb91e57f	-0.004452407
217	0x3bc676bf	0.006056636
218	0xba2fe634	-0.0006710023
219	0x3ac86ca8	0.0015291171
220	0xbc0de300	-0.008660078
221	0xbb132540	-0.0022452623
222	0x3bfea6c1	0.0077713435
223	0xbb25ce2b	-0.0025299888
224	0xbc33ff71	-0.010986195
225	0x3a9c02c3	0.0011902679
226	0x3ae98c96	0.0017818387
227	0xb9c4677a	-0.0003746113
228	0x3b84670b	0.004040604
229	0xbc09182c	-0.008367579
230	0x3c17fd0f	0.009276642
231	0xbc2a26b8	-0.010385208
232	0xbc3cc0f3	-0.011520612
233	0x3c640da3	0.013919267
234	0x3b961a97	0.0045808065
235	0x3be16384	0.0068783183
236	0xbc414d3d	-0.0117982
237	0xbbe1a5b2	-0.0068862075
238	0xbc4fb582	-0.012677552
239	0x3c60a1d6	0.01371046
240	0x3b11ee1a	0.0022267164
241	0xbbbf64d9	-0.0058408794
242	0xbb8622a5	-0.0040934854
243	0xbbcdd536	-0.0062815202
244	0x3c3d484b	0.0115528805
245	0xbc1fbaf7	-0.009749166
246	0xbba43c2f	-0.0050120573
247	0xba46d01f	-0.0007584113
248	0x3c094f88	0.008380778
249	0xbb82b995	-0.0039894083
250	0x3a9f9fb7	0.0012178336
251	0xbc3b5ad6	-0.011435231
252	0xbb6836fa	-0.003543316
253	0x3bb362b3	0.0054744123
254	0x3c9775db	0.018488815
255	0x3c205802	0.009786608

network_body.linear_encoder.seq_layers.0.bias f4 [256]
0	0xbb0309b0	-0.0019994788
1	0xb766f048	-1.3765013e-05
2	0xbbb00b44	-0.0053724367
3	0xbb96d9a7	-0.004603583
4	0x3bb9b600	0.005667448
5	0xbc2f8c37	-0.010714582
6	0x3beff8d1	0.0073233624
7	0x3be6a78b	0.0070390156
8	0xbb12f1e6	-0.0022422015
9	0x3c153f9b	0.009109403
10	0x3caf35de	0.02138799
11	0xbc0eac17	-0.008708022
12	0xbbd54962	-0.006508992
13	0xbc4fd837	-0.012685827
14	0x3ba0bd97	0.0049054134
15	0xbc37ac40	-0.011210501
16	0xbb7b1358	-0.003831109
17	0xbc281161	-0.01025805
18	0xbbeda66c	-0.007252505
19	0xbc2ff3ad	-0.010739249
20	0xbb9eec21	-0.004849926
21	0xbc459e64	-0.012061689
22	0xbba13303	-0.004919411
23	0xbc2d7bc4	-0.01058859
24	0xbc68a14c	-0.014198612
25	0xbb3fdbba	-0.0029275254
26	0xbc4bffd3	-0.01245113
27	0xbc07f406	-0.008297926
28	0xbc5c8d4d	-0.013461423
29	0x3c3dbf20	0.011581212
30	0x3c2ac62d	0.010423225
31	0xbbf2ec09	-0.0074133915
32	0xbc384eda	-0.011249268
33	0x3bbdea5e	0.005795761
34	0xbbde856a	-0.0067908065
35	0x3ab9b053	0.0014166929
36	0xbb9d4b4f	-0.0048002372
37	0xbc5d70ab	-0.013515632
38	0x3b8059b4	0.0039169434
39	0xbc1bb960	-0.009504646
40	0xbb376e35	-0.0027989272
41	0x3bb708f9	0.0055857864
42	0xbc83931a	-0.016061354
43	0xb989f812	-0.00026315503
44	0x3b4a6b42	0.0030886685
45	0x3b3499a5	0.00275574
46	0xbb86db82	-0.004115523
47	0xbc3e66fd	-0.011621234
48	0x37eb7a78	2.8071212e-05
49	0xbc27f0ac	-0.010250252
50	0x3b011485	0.0019696068
51	0xbbc4d2ca	-0.0060065733
52	0x3c1ef27e	0.009701369
53	0x3c1cf636	0.009580186
54	0xbb53cc9c	-0.0032318002
55	0x3a2ba6d7	0.00065479934
56	0x3c2f9973	0.0107177375
57	0x3bddd7dd	0.0067701177
58	0x3c64eec1	0.013972939
59	0x3c135296	0.008991858
60	0x394cb924	0.00019523926
61	0x3bc3109b	0.0059529073
62	0xbc02ef2f	-0.007991596
63	0xbb24d8d8	-0.0025153663
64	0xbc480bd8	-0.012209855
65	0x3c64297f	0.013925909
66	0xbc84626e	-0.016160216
67	0x3bd38e5f	0.006456181
68	0xbc4658d9	-0.012106144
69	0x3bb038e5	0.005377876
70	0x3bcd4338	0.0062641166
71	0xbb208743	-0.0024494685
72	0xbbfeb28b	-0.007772749
73	0x38bd79ce	9.03491e-05
74	0xbb1969f9	-0.0023409112
75	0x3b161c37	0.0022905
76	0xbbb53038	-0.0055294298
77	0x3b5eb5bc	0.0033982834
78	0xbbade27d	-0.0053065405
79	0xbbd71443	-0.0065636947
80	0xbc9211bf	-0.017830728
81	0x3c3d530d	0.011555445
82	0xbbeeec7a	-0.007291374
83	0xbb5a5512	-0.0033314866
84	0x3ba2d0d0	0.00496874
85	0xbc627059	-0.013820731
86	0x3cd0b9c4	0.025479205
87	0xbb538ad6	-0.0032278798
88	0x395080f6	0.00019884467
89	0xbb25e3d3	-0.0025312796
90	0x3cc42e8d	0.023947978
91	0xbc397b8c	-0.01132096
92	0x3c1a8ee9	0.0094334865
93	0x3c8f0032	0.017456148
94	0xbb818397	-0.0039524543
95	0x3c793f56	0.015212854
96	0x3c1f2389	0.009713062
97	0xbb09d749	-0.002103286
98	0x3ba54b78	0.005044397
99	0xbaa7f31f	-0.0012813545
100	0xbbe5c2ff	-0.0070117707
101	0xbb8fcf53	-0.0043887286
102	0x3abbbcd1	0.001432324
103	0xbc1911c4	-0.009342615
104	0x3bec4aa4	0.0072110463
105	0x39392b5d	0.00017659129
106	0x3c10732f	0.008816524
107	0xbbf89f3c	-0.0075873416
108	0xbb0da4b9	-0.0021613075
109	0xbc2750f7	-0.010212175
110	0x3ad69ae4	0.0016373065
111	0x3c1b9a33	0.009497213
112	0x3c8dc474	0.01730559
113	0x3ba9187d	0.00516039
114	0xbc75ce42	-0.015002789
115	0xba9de186	-0.0012045361
116	0xbb987be7	-0.004653442
117	0x3b5107fa	0.0031895624
118	0xbb855e61	-0.0040700887
119	0x3c208ca5	0.009799157
120	0xbbb807fc	-0.005616186
121	0xbb8e831b	-0.004349125
122	0x3aefe949	0.0018303777
123	0x3b4a10ac	0.003083269
124	0x3b53af8c	0.003230068
125	0x3bd803f8	0.00659227
126	0xbb129b43	-0.0022370375
127	0xbae7921a	-0.0017667443
128	0x3aa6235b	0.0012675332
129	0x3befad01	0.007314325
130	0xbc28bbac	-0.010298651
131	0xbb8ec1fe	-0.0043566218
132	0x3c72ea18	0.01482632
133	0xba9a27df	-0.001176115
134	0x3c82463b	0.01590263
135	0xbc319b1c	-0.010840204
136	0x3adf54b7	0.0017038797
137	0x3ba86b5b	0.005139751
138	0xbbbbdf0e	-0.0057333773
139	0x3c817c8f	0.015806464
140	0x3b35d36f	0.0027744432
141	0x3a60ca8d	0.00085751043
142	0x3a0c86c0	0.00053606555
143	0xbbae29ea	-0.005315055
144	0x3b912658	0.0044296198
145	0xbaee58f5	-0.001818447
146	0xbb187e19	-0.002326852
147	0xbb7c97fc	-0.0038542738
148	0xbb7f3fe9	-0.0038948006
149	0xba3d2070	-0.00072146114
150	0x3c8352d3	0.016030705
151	0x3b13d6e3	0.0022558502
152	0x3c005082	0.007831695
153	0xbbf55d74	-0.007487947
154	0x3b8d768a	0.0043171095
155	0xbbcf1185	-0.006319227
156	0x3bb5e230	0.0055506453
157	0x3b0abcdb	0.0021169696
158	0x3bec7e58	0.00721721
159	0x3c571dbc	0.013129648
160	0xbc18dfbd	-0.009330687
161	0x3b0273ae	0.0019905376
162	0x3b7b46e8	0.0038341824
163	0xbae4d488	-0.0017458359
164	0x39e38cc1	0.00043401684
165	0x3c548955	0.012972196
166	0xbb5c99c0	-0.0033660978
167	0x3bf4dfdc	0.007472975
168	0x3b79c0fc	0.0038109412
169	0xbc36db2f	-0.011160656
170	0x3cc54b6a	0.024083812
171	0xbc1434ea	-0.009045819
172	0xbc62b0b5	-0.013836076
173	0x3c6196e6	0.013768887
174	0xbc5d8fa8	-0.01352302
175	0xbc2b57f0	-0.010457978
176	0x3b5d0e88	0.0033730585
177	0x3cd027af	0.025409548
178	0xbbf0debe	-0.0073507717
179	0x3bdf966e	0.0068233525
180	0x3b56ca10	0.0032774247
181	0x3c52dbfc	0.012869831
182	0x3a253fb6	0.0006303744
183	0x3b8b6663	0.004254149
184	0xbc5e84e7	-0.013581491
185	0x3c92eb51	0.017934473
186	0x3b4cb6c9	0.0031236878
187	0x3c128873	0.008943665
188	0xbb6ed70c	-0.0036444096
189	0x3b6bcc8d	0.0035980076
190	0x3b29c493	0.002590452
191	0x3c2662a6	0.010155356
192	0x3b9fac8c	0.004872864
193	0xb9b7eb4b	-0.00035079787
194	0x3b53ef06	0.0032338514
195	0x391657a4	0.00014337763
196	0x3c20955d	0.009801236
197	0xbb352413	-0.002763991
198	0x3c753905	0.014967208
199	0xbc9b8870	-0.018985957
200	0xbbb44fac	-0.0055026617
201	0xbb98ac3b	-0.0046592033
202	0x3c91e960	0.017811477
203	0xbbfe73b1	-0.0077652563
204	0x3c9acc0c	0.018896125
205	0x3be43bbf	0.00696513
206	0xbc32f2cb	-0.010922144
207	0x3b5911d8	0.0033122208
208	0x3c0a9f0d	0.008460772
209	0x3bcc490c	0.006234294
210	0xbbf2a443	-0.0074048354
211	0x3c121e3e	0.008918343
212	0x3b24ef6f	0.0025167128
213	0xbb72425e	-0.0036965827
214	0x3c2f8cc0	0.01071471
215	0xbc42b66c	-0.011884313
216	0x3ba431a8	0.0050108023
217	0x3c2dda2e	0.0106111
218	0x3c17b3d7	0.009259186
219	0x3a88d19a	0.0010438443
220	0xba253986	-0.0006302822
221	0xbbe2fddf	-0.0069272364
222	0x3a34392c	0.00068749744
223	0xbba94bfc	-0.0051665287
224	0x3a81874b	0.0009882239
225	0xbbd8f412	-0.0066208923
226	0xb9f14edc	-0.00046025857
227	0x3b9880bf	0.0046540196
228	0xbc5f37ed	-0.013624174
229	0xbbddc3ee	-0.0067677414
230	0x3cd8f7c6	0.026485335
231	0xbb8435b1	-0.004034721
232	0x3c75b532	0.014996814
233	0xbba1de4d	-0.0049398304
234	0x3c1ef1bf	0.009701191
235	0xbc1a6950	-0.0094245225
236	0xbb4848c4	-0.003056095
237	0x3ae9f832	0.0017850457
238	0x3b0f22d2	0.0021840823
239	0x3bef42a8	0.007301647
240	0xbc047d33	-0.00808649
241	0x3c030192	0.00799598
242	0xbbe1f567	-0.0068957093
243	0x3c4b1126	0.012394225
244	0x3c231c55	0.009955485
245	0x3b2dc541	0.0026515278
246	0x3c0ae23f	0.008476793
247	0xbb528145	-0.0032120508
248	0x3b1d6408	0.0024015922
249	0x3b23a2d7	0.0024968886
250	0x3bf23509	0.007391576
251	0x39348a9c	0.00017217774
252	0xb97dab1f	-0.00024191708
253	0xbc0f826a	-0.0087591205
254	0x3c43a2b8	0.011940651
255	0xb9ed48bc	-0.00045258354
