MLagents/results/hb_13/Mario.onnx (onnx, 377673 bytes, 12 tensors)

92 f4 [99]
0.004033143 0.004033143 0.004033143 0.004033143 0.0057037096 0.0057037096 0.3288784 0.019754745
0.15508814 0.004033143 0.004033143 0.004033143 0.32891563 0.019754745 0.15508814 0.004033143
0.004033143 0.004033143 0.3707217 0.04468568 0.27179697 0.004033143 0.004033143 0.004033143
0.38042644 0.045046784 0.270537 0.004033143 0.004033143 0.004033143 0.42632246 0.051581334
0.41256243 0.004033143 0.004033143 0.004033143 0.45142514 0.05608739 0.40674597 0.004033143
0.004033143 0.004033143 0.43590155 0.07858306 0.42573276 0.004033143 0.004033143 0.004033143
0.44655567 0.08682672 0.4287296 0.004033143 0.004033143 0.004033143 0.45587236 0.11021098
0.3871364 0.004033143 0.004033143 0.004033143 0.46720093 0.11527139 0.38305473 0.004033143
0.004033143 0.004033143 0.45787597 0.11107124 0.4424334 0.004033143 0.004033143 0.004033143
0.4563035 0.12600105 0.45620146 0.004033143 0.004033143 0.004033143 0.48045218 0.124428906
0.41647932 0.004033143 0.004033143 0.004033143 0.48978868 0.13868271 0.40997553 0.004033143
0.004033143 0.004033143 0.0057037096 0.004033143 0.004033143 0.47845018 0.30407003 0.004033143
0.0057043633 0.008727779 0.004033143
00000000: 7528 843b 7528 843b 7528 843b 7528 843b
00000010: 2fe6 ba3b 2fe6 ba3b c062 a83e b4d4 a13c
00000020: 6dcf 1e3e 7528 843b 7528 843b 7528 843b
00000030: a167 a83e b4d4 a13c 6dcf 1e3e 7528 843b
00000040: 7528 843b 7528 843b 3ccf bd3e 5508 373d
00000050: f928 8b3e 7528 843b 7528 843b 7528 843b
00000060: 41c7 c23e fa82 383d d383 8a3e 7528 843b
00000070: 7528 843b 7528 843b f046 da3e f346 533d
00000080: 623b d33e 7528 843b 7528 843b 7528 843b
00000090: 3221 e73e e4bb 653d 0241 d03e 7528 843b
000000a0: 7528 843b 7528 843b 7d2e df3e 28f0 a03d
000000b0: a5f9 d93e 7528 843b 7528 843b 7528 843b
000000c0: f2a2 e43e 35d2 b13d 7282 db3e 7528 843b
000000d0: 7528 843b 7528 843b 1a68 e93e 4bb6 e13d
000000e0: be36 c63e 7528 843b 7528 843b 7528 843b
000000f0: f634 ef3e 6813 ec3d c01f c43e 7528 843b
00000100: 7528 843b 7528 843b b86e ea3e 5179 e33d
00000110: a186 e23e 7528 843b 7528 843b 7528 843b
00000120: 9da0 e93e 6b06 013e 3d93 e93e 7528 843b
00000130: 7528 843b 7528 843b d4fd f53e 95d4 fe3d
00000140: c73c d53e 7528 843b 7528 843b 7528 843b
00000150: 95c5 fa3e d702 0e3e 50e8 d13e 7528 843b
00000160: 7528 843b 7528 843b 2fe6 ba3b 7528 843b
00000170: 7528 843b 6cf7 f43e 11af 9b3e 7528 843b
00000180: abeb ba3b f5fe 0e3c 7528 843b

action_model._discrete_distribution.branches.0.bias f4 [3]
0.0066399677 -0.009150404 0.003254066
00000000: 1694 d93b 93eb 15bc 2b42 553b

action_model._discrete_distribution.branches.0.weight f4 [3, 256]
-0.0008366723 0.035477642 0.0057968246 0.018142167 -0.0055083474 0.02122612 -0.0040304083 -0.020827517
-0.019390197 -0.019720325 -0.00012174437 -0.0011301633 -0.0149945235 0.024567546 0.010942393 -0.0070531894
-0.0018372671 0.0024641817 -0.01660498 0.0030651942 -0.025062252 -0.0026542742 -0.001680544 0.01511783
0.014283376 -0.003700127 -0.0134263905 -0.018260935 -0.024700947 0.008301904 -0.008614101 0.00930428
0.011909793 0.006231867 -0.014200616 0.01672757 0.0050750296 0.009468739 -0.007908926 0.017010449
0.0150080705 0.006623102 0.004494889 -0.010161534 0.009758299 0.012965 -0.008962849 0.013294752
-0.0001294482 0.004631354 0.015486163 -0.0007256815 -0.00059532543 -0.0013020451 -0.0031887926 0.012463398
-0.0022446804 0.00066012755 0.0061553856 -0.015866544 0.003154496 -0.0077954805 0.0055646095 0.010033691
-0.002906663 -0.017462388 -0.018524745 0.005988875 -0.003664823 0.017639022 -0.010099816 0.00052901043
-0.011027972 -0.013741616 0.0019345222 -0.0019832703 0.0156192435 0.015591282 0.024448147 -8.4102285e-06
-0.002887129 0.026604503 -0.00032519473 0.015475374 -0.015920585 0.008457809 -0.012064091 0.0025737116
-0.01083039 -0.004015854 -0.019210491 0.019150466 0.0046361345 -0.0008847863 -0.023463702 0.0004736782
-0.020627046 0.0017526534 0.009539263 0.0078008766 -0.013926381 -0.008270669 -0.0042466344 -0.0029399076
0.015957944 -0.0065061715 0.006243916 0.018868752 -0.010106017 -0.010210162 0.028562196 0.013939038
-0.007494045 0.02391769 0.0060655912 -0.020304939 0.017130442 0.005855982 0.012077777 -0.005221062
0.005753989 -0.0026441857 0.0054367436 0.00885282 -0.011093722 -0.0033714536 0.025438616 -0.016935775
-0.006212451 -0.01579926 -0.0043002362 0.016621482 -0.0058261836 0.02292248 0.008745242 0.005183385
-0.007059538 0.00028841707 0.00061114307 -0.015432705 0.004148666 -0.0069407322 -0.0025003622 0.010171689
-0.0036089434 0.012164071 0.042981 0.014305794 0.010247074 0.0032600833 0.024637885 0.013072781
0.020838186 -0.009083447 0.006445603 0.0101935305 0.017935306 -0.009872409 0.005419542 -0.017219033
-0.008732635 -0.021106796 0.005562905 0.008799082 -0.007305215 -0.016993223 -0.0030812665 -0.0048987195
-0.0026345984 0.007158008 -0.019267624 0.0057494147 0.011716623 -0.02000166 0.013656842 -0.020971943
-0.00091093336 0.006706697 0.0007832834 -0.024705255 0.009942164 -0.007938006 0.00035158402 -0.016209655
0.015777126 0.0007984645 0.0031261723 0.00591036 -0.014384171 -0.0037084299 -0.0031088477 0.021667397
0.029542584 0.011045832 -0.02258923 0.009434099 -0.01182064 0.019627983 0.01387271 0.003547226
0.025866335 8.739347e-05 -0.003814424 -0.01730457 0.0028843887 0.010876635 0.010824804 0.019382397
0.0041688518 0.003682638 -0.005314932 0.010545294 -0.009236074 -0.008013872 0.018774092 -0.014366245
0.0019314466 -0.013183596 -0.0080187 -0.0047463034 -0.013116655 -0.0014836985 0.01440717 -0.016902544
-0.016958077 0.023652835 0.0006522031 -0.0096717505 0.000497362 0.023395699 -0.036922872 -0.0011613655
0.0204534 0.024864074 -0.0065422407 0.012866729 0.0019179619 0.0023629603 0.00062891305 0.0134253455
-0.015662987 -0.018796794 -8.098657e-05 0.012481512 0.017880686 -0.0024036884 0.012250829 0.003859617
-0.014516054 0.014996148 0.0077568507 -0.008587534 -0.01224282 -0.018368943 -0.01388816 -0.017218435
00000000: 2154 5bba 0151 113d 4af3 bd3b e29e 943c
00000010: 5e7f b4bb 66e2 ad3c 8411 84bb 789e aabc
00000020: 31d8 9ebc 858c a1bc 0351 ffb8 fd21 94ba
00000030: 97ab 75bc e141 c93c b947 333c 711e e7bb
00000040: 74d0 f0ba 1c7e 213b 2b07 88bc 6de1 483b
00000050: 5a4f cdbc 55f3 2dbb b345 dcba c6b0 773c
00000060: d204 6a3c d47d 72bb 5dfa 5bbc f597 95bc
00000070: a459 cabc b604 083c 2922 0dbc fb70 183c
00000080: 4b21 433c b034 cc3b b3a9 68bc 4208 893c
00000090: 6f4c a63b c522 1b3c 7194 01bc 7f59 8b3c
000000a0: 69e4 753c 9b06 d93b dd49 933b 907c 26bc
000000b0: 46e1 1f3c 276b 543c ead8 12bc 3bd2 593c
000000c0: 7dbc 07b9 9dc2 973b adb9 7d3c a93b 3eba
000000d0: 9d0f 1cba 62a9 aaba 10fb 50bb 4833 4c3c
000000e0: 7d1b 13bb 690c 2d3a 1eb3 c93b 8efa 81bc
000000f0: a9bb 4e3b 3b71 ffbb 5457 b63b 5a64 243c
00000100: b77d 3ebb 480d 8fbc 35c1 97bc 533e c43b
00000110: 872d 70bb b67f 903c b379 25bc 4aad 0a3a
00000120: abae 34bc 8424 61bc cb8f fd3a c1f9 01bb
00000130: dbe7 7f3c 9472 7f3c 7b47 c83c a819 0db7
00000140: fd35 3dbb b0f1 d93c e67e aab9 6c8c 7d3c
00000150: e36b 82bc 9f92 0a3c 77a8 45bc b7ab 283b
00000160: f371 31bc 6d97 83bb 525f 9dbc 70e1 9c3c
00000170: b7ea 973b 01f1 67ba f336 c0bc 0358 f839
00000180: 0dfa a8bc 4ab9 e53a 924a 1c3c 7f9e ff3b
00000190: 7a2b 64bc b381 07bc 5a27 8bbb 77ab 40bb
000001a0: 3cba 823c b931 d5bb c499 cc3b a492 9a3c
000001b0: b593 25bc 8648 27bc 44fb e93c 9060 643c
000001c0: 9b90 f5bb 08ef c33c dec1 c63b 8b56 a6bc
000001d0: 2455 8c3c 8ae3 bf3b dee1 453c 7115 abbb
000001e0: f58b bc3b 134a 2dbb b626 b23b 6b0b 113c
000001f0: 71c2 35bc 9bf3 5cbb a564 d03c e5bc 8abc
00000200: d191 cbbb 736d 81bc ffe8 8cbb c629 883c
00000210: 92e9 bebb edc7 bb3c 3448 0f3c 63d9 a93b
00000220: b253 e7bb af36 9739 1e35 203a 75d9 7cbc
00000230: 88f1 873b 156f e3bb 1edd 23bb 28a7 263c
00000240: 0684 6cbb d04b 473c d80c 303d d962 6a3c
00000250: 58e3 273c 1fa7 553b 64d5 c93c 382f 563c
00000260: d8b4 aa3c bdd2 14bc a335 d33b c402 273c
00000270: 10ed 923c e2bf 21bc 6a96 b13b ee0e 8dbc
00000280: 5313 0fbc 29e8 acbc 0849 b63b 062a 103c
00000290: 9660 efbb 5f35 8bbc 13ef 49bb 7085 a0bb
000002a0: 3aa9 2cbb b98d ea3b 23d7 9dbc 9665 bc3b
000002b0: 14f7 3f3c 85da a3bc f2c0 5f3c 5acd abbc
000002c0: b4cb 6eba dac3 db3b 4255 4d3a ad62 cabc
000002d0: 75e4 223c 690e 02bc cf54 b839 1cca 84bc
000002e0: 083f 813c 0c50 513a 78e0 4c3b b1ab c13b
000002f0: 96ab 6bbc 2109 73bb cfbd 4bbb d37f b13c
00000300: 4a03 f23c 94f9 343c 0d0d b9bc 7b91 1a3c
00000310: 5cab 41bc ddca a03c 5d4a 633c 9478 683b
00000320: a3e5 d33c 0347 b738 6afb 79bb 50c2 8dbc
00000330: 0308 3d3b ea33 323c 855a 313c d5c7 9e3c
00000340: dd9a 883b 6a58 713b e228 aebb 2bc6 2c3c
00000350: e752 17bc 9e4c 03bc 20cc 993c 6660 6bbc
00000360: 9828 fd3a 0200 58bc de60 03bc e186 9bbb
00000370: 3de7 56bc a978 c2ba 0d0c 6c3c 3477 8abc
00000380: aaeb 8abc 97c3 c13c 9cf8 2a3a 4376 1ebc
00000390: 6661 023a 56a8 bf3c 703c 17bd f638 98ba
000003a0: e48d a73c beaf cb3c 4b60 d6bb f9ce 523c
000003b0: 1f64 fb3a e5db 1a3b a4dd 243a fbf5 5b3c
000003c0: aa4f 80bc bcfb 99bc 55d7 a9b8 417f 4c3c
000003d0: 847a 923c 3387 1dbb b3b7 483c a1f1 7c3b
000003e0: bed4 6dbc 67b2 753c 2e2d fe3b bab2 0cbc
000003f0: 1c96 48bc 777a 96bc 2a8b 63bc ad0d 8dbc

action_model._discrete_distribution.branches.1.bias f4 [2]
-0.009936771 0.009936773
00000000: d7cd 22bc d9cd 223c

action_model._discrete_distribution.branches.1.weight f4 [2, 256]
0.015178166 0.008608335 0.006138647 0.013924604 -0.0035368013 0.008915425 0.0052619386 -0.008852957
0.0077660764 0.012047683 0.0020527153 -0.009633364 0.00183964 0.0017332853 -0.022898903 -0.00079779886
-0.023097577 0.0026250118 -0.00594714 0.019335251 0.004878692 0.0011347043 0.008502425 0.009118866
-0.021066157 -0.011101543 0.004343475 0.0033283064 0.009973089 0.038920328 0.015242385 0.008779982
0.013105798 -0.0066917865 0.001265866 -0.026667887 -0.014268753 -0.030262481 -0.039545238 -0.0369681
-0.011622697 0.011595248 0.004614773 -0.020962682 0.004615165 -0.006230225 -0.0103114555 -0.010373476
0.0009390785 0.011508343 -0.016355375 -0.006614987 -0.018107077 -0.014288624 0.012271377 0.008095296
-0.0021017054 0.003941189 0.00039102897 -0.0053726705 -0.012505788 -0.016763069 0.009961515 0.004131639
0.013229848 -0.0028149593 0.010493543 -0.020547839 -0.01247469 0.0061384514 -0.001364919 -0.011258362
-0.025263432 -0.004314711 0.023743508 -0.03651375 -0.018002748 -0.0077776886 -0.031314798 0.0024450077
0.0020998272 -0.015336468 -0.022724677 -0.026746811 -0.00053491635 0.004974265 -0.0043935287 -0.004237484
-0.009004949 0.008108268 -0.0103497105 0.0032640544 -0.0149601735 0.003704283 0.008702268 0.0019157709
0.0076878876 -0.029140696 0.009462596 0.006252468 -0.0042189956 0.0064379135 -0.008154938 0.004679232
-0.005357041 0.005420442 0.029463848 -0.0071982923 0.022051297 0.012654945 0.0009294935 -0.009805971
-0.0075506726 -0.0062518343 0.0031076889 -0.0017673332 0.012193708 -0.009259552 -0.020698411 -0.0016341367
-0.019939503 -0.021542102 0.02082139 -0.0077385707 0.004318186 0.016760614 0.025979798 0.0030863956
-0.0037158253 0.012791281 0.0003305262 0.0048334566 -0.002677241 0.0057829246 -0.0018877437 0.011109142
0.024409013 -0.004409805 0.014871063 -0.012453877 0.007863898 -0.016310936 -0.003969187 -0.011506351
-0.045802128 -0.011340293 0.015837133 0.0009687278 0.010787269 0.0057932306 -0.010155217 -0.028447546
-0.012233212 0.0077060265 -0.010401989 -0.0034878806 -0.0051547773 -0.026819596 -0.013647683 -0.008942008
0.011097371 -0.012785087 -0.01013775 0.0016256879 0.009780292 -0.013172157 -0.030168662 0.009784297
0.004409807 0.012156243 0.009625548 -0.022244727 -0.012489254 0.023364041 -0.0033864975 -0.011053857
-0.0075121964 0.0035335298 -0.0068158237 0.010974109 -0.0015839632 -0.0034624417 -0.016976768 -0.0059736334
-0.01430629 0.0062473123 -0.006094059 -0.02938215 0.010194453 -0.0018329822 -0.014480703 -0.0044463812
0.00020196896 0.0034683675 -0.010510648 0.009630743 0.0068304767 0.0070671383 -0.012679077 -0.0051217997
0.0001497689 -0.0005377926 0.0023630033 -0.010431487 -0.0042314217 0.0064092404 -0.028344711 -0.012266897
0.0071279416 -0.007431346 0.0075684274 -0.014707535 0.0067715477 -0.004833319 -0.01671104 -0.006499631
0.009089922 -0.0062854094 -0.014072159 0.009893916 -0.0046925633 -0.0045635668 -0.0076122163 -0.018266516
0.017970717 -0.009073485 0.013394308 0.008932223 -0.02136995 -0.010725398 -0.02347601 0.01073538
0.03363579 -0.012215711 0.0026768097 0.0065949173 0.008757341 0.016544849 0.024238484 -0.0042886646
0.009398375 -0.010723251 0.008296776 -0.0016789903 -0.0012225637 -0.016008226 -0.025857566 -0.0011181975
0.007508805 0.011665478 -0.0030025411 0.0140229175 -0.009373647 0.007800896 -0.0100286305 -0.009928489
00000000: d8ad 783c f909 0d3c b426 c93b 0624 643c
00000010: aec9 67bb 0112 123c 576c ac3b fe0b 11bc
00000020: 927a fe3b a563 453c d986 063b 42d5 1dbc
00000030: 1320 f13a 672f e33a 7b96 bbbc 6023 51ba
00000040: 2137 bdbc 6408 2c3b 3ae0 c2bb f664 9e3c
00000050: 6fdd 9f3b 5cba 943a c14d 0b3c 4c67 153c
00000060: ef92 acbc 3fe3 35bc b653 8e3b b71f 5a3b
00000070: 2b66 233c ec6a 1f3d 32bb 793c ead9 0f3c
00000080: b3b9 563c c646 dbbb 6aeb a53a 9d76 dabc
00000090: 7dc7 69bc 06e9 f7bc 30fa 21bd dd6b 17bd
000000a0: 206d 3ebc fff9 3d3c 8637 973b eeb9 abbc
000000b0: cf3a 973b ea26 ccbb 61f1 28bc 83f5 29bc
000000c0: 7e2c 763a 7d8d 3c3c b5fb 85bc 88c2 d8bb
000000d0: 4b55 94bc d51a 6abc e30d 493c 22a2 043c
000000e0: c4bc 09bb 1725 813b 0503 cd39 3a0d b0bb
000000f0: 14e5 4cbc b452 89bc 9f35 233c b362 873b
00000100: 01c2 583c 2e7b 38bb 1ced 2b3c f153 a8bc
00000110: a462 4cbc 1025 c93b 15e7 b2ba fe74 38bc
00000120: 42f5 cebc 6b62 8dbb bf81 c23c 718f 15bd
00000130: 807a 93bc fbdb febb f243 00bd 6c3c 203b
00000140: 419d 093b cf45 7bbc 1a29 babc 211c dbbc
00000150: a139 0cba 29ff a23b 97f7 8fbb 98da 8abb
00000160: 7e89 13bc 8ad8 043c d591 29bc bfe9 553b
00000170: 841b 75bc 8ec3 723b f593 0e3c 9b1a fb3a
00000180: adea fb3b 78b8 eebc 0109 1b3c 81e1 cc3b
00000190: 803f 8abb 22f5 d23b 4a9c 05bc 3e54 993b
000001a0: 1e8a afbb f79d b13b 2b5e f13c a7df ebbb
000001b0: eca4 b43c b056 4f3c 41a9 733a 39a9 20bc
000001c0: a26b f7bb 30dc ccbb 5eaa 4b3b dda5 e7ba
000001d0: 1ec8 473c 60b5 17bc b78f a9bc 8730 d6ba
000001e0: 2b58 a3bc 1079 b0bc 9f91 aa3c d693 fdbb
000001f0: 927f 8d3b 8e4d 893c 96d3 d43c 2045 4a3b
00000200: 3485 73bb 8592 513c 7a4a ad39 f961 9e3b
00000210: a774 2fbb b07e bd3b 2b6e f7ba 1e03 363c
00000220: 69f5 c73c 2080 90bb c2a5 733c 590b 4cbc
00000230: 94d7 003c 839e 85bc f40f 82bb 2285 3cbc
00000240: 039b 3bbd a3cc 39bc e0bc 813c 39f2 7d3a
00000250: 16bd 303c 24d5 bd3b 1162 26bc d40a e9bc
00000260: cf6d 48bc d682 fc3b 1b6d 2abc ed94 64bb
00000270: 68e9 a8bb c5b4 dbbc 889a 5fbc 8081 12bc
00000280: bfd1 353c 8b78 51bc ce18 26bc 0915 d53a
00000290: 853d 203c 08d0 57bc 4524 f7bc 514e 203c
000002a0: 2480 903b fb2a 473c 79b4 1d3c 933a b6bc
000002b0: ba9f 4cbc f265 bf3c 00f0 5dbb 3d1b 35bc
000002c0: df28 f6bb cb92 673b 4657 dfbb c0cc 333c
000002d0: fc9c cfba 22ea 62bb dd12 8bbc 78be c3bb
000002e0: ee64 6abc 41b6 cc3b acb0 c7bb d6b2 f0bc
000002f0: a306 273c ad40 f0ba 7840 6dbc f3b2 91bb
00000300: a1c7 5339 8d4d 633b da34 2cbc 44ca 1d3c
00000310: 31d2 df3b 7493 e73b e7bb 4fbc c5d4 a7bb
00000320: 480b 1d39 a7fa 0cba 9edc 1a3b d4e8 2abc
00000330: bda7 8abb 9b04 d23b 2b33 e8bc 18fb 48bc
00000340: 8291 e93b a682 f3bb 9200 f83b dff7 70bc
00000350: dce3 dd3b d260 9ebb 97e5 88bc dbfa d4bb
00000360: e5ed 143c d6f5 cdbb ea8e 66bc 171a 223c
00000370: 13c4 99bb f989 95bb e66f f9bb a9a3 95bc
00000380: 5337 933c f4a8 14bc cd73 5b3c 7558 123c
00000390: 0910 afbc 94b9 2fbc c350 c0bc 73e3 2f3c
000003a0: afc5 093d 6824 48bc 6a6d 2f3b 2d1a d83b
000003b0: f37a 0f3c 1089 873c c98f c63c ed87 8cbb
000003c0: a4fb 193c 93b0 2fbc 33ef 073c 9111 dcba
000003d0: 6e3e a0ba af23 83bc 3fd3 d3bc 7b90 92ba
000003e0: 6c0c f63b 9020 3f3c 48c6 44bb 61c0 653c
000003f0: ed93 19bc a99e ff3b 204f 24bc 1aab 22bc

action_model._discrete_distribution.branches.2.bias f4 [2]
-0.010274017 0.010274013
00000000: 5a54 28bc 5554 283c

action_model._discrete_distribution.branches.2.weight f4 [2, 256]
-0.023840602 0.003562792 0.011084961 -0.028483752 0.010947414 0.027846064 -0.019685501 0.00964727
0.0034201927 0.007266772 -0.0016223919 0.011955687 -0.007943532 0.015677461 -0.018365033 -0.01897458
-0.003488353 0.00069413555 -0.005478685 0.00020978623 0.006067302 -0.0069811135 -0.029035829 -0.029706175
-0.014093212 -0.0040729125 -0.0015635251 -0.014941755 -0.017728524 -0.00954997 -0.010017816 0.008093198
0.02156198 0.012969086 0.010429818 0.020830205 0.0056350455 0.011067706 -0.008796257 -0.010312713
0.005725497 0.00042016467 -0.021922894 -0.009657419 -0.015492244 -0.00017223206 -0.010013663 -0.013660003
-0.009507631 0.017058719 -0.007969578 0.006583414 -0.01215772 0.040603474 0.00011756789 -0.0049668225
0.017161751 -0.005526862 -0.005595746 0.010155781 -0.004245524 -0.013632727 0.015962876 -4.018733e-05
-0.01593506 -0.013824211 -0.035116088 -0.007148722 -0.0007765963 -0.010564925 -0.0025979844 0.012899015
-0.021369936 0.010995741 8.393441e-05 -0.013190293 0.0062719714 0.0036121188 0.00092344935 0.016057007
0.012576941 0.0076361746 0.02721243 -0.0024054786 0.018861113 0.0004078817 -0.016367247 0.0019816197
-0.009598468 -0.030325001 0.0050399876 0.018631447 -0.0017929375 0.007865208 0.00012840526 -0.0063941097
-0.014018585 -0.004308586 -0.01690381 -0.012888628 -0.002363496 0.019060066 -0.006871124 -0.010926844
-0.0062019387 -0.0018520296 0.0045972285 0.013134501 0.0049253763 -0.007958662 -0.016271658 -0.0095998105
-0.015131987 0.007646839 0.0064744605 0.022901803 0.014104623 0.0052412124 0.023775477 0.01970372
-0.0069543268 -0.0075621773 -0.00023557732 -0.0032335368 -0.008072626 -0.012854768 -0.01538554 -0.008969752
-0.0018898513 -0.034081195 0.017088233 -0.008223495 -0.007407899 0.008896854 0.00703386 -0.0023525627
0.0016467392 -0.005846317 -0.0030252556 0.006836006 -0.001997075 0.012278883 -0.0017140416 0.014582558
-0.00035929005 -0.014985196 -0.01557347 -0.024357885 -0.006022566 -0.01973671 0.0012944713 -0.009643011
0.012434456 -0.004764194 0.0057139057 -0.0011313355 0.009261672 0.015129088 0.0015193343 -0.008053187
-0.003428737 -0.01721206 0.015160196 -0.005643863 -0.015552363 0.0077899946 -0.024865864 0.008299018
0.00446511 -0.009876098 -0.017766975 -0.0078061176 0.021305604 -0.015849497 0.013834099 -0.0072386125
0.025457812 0.0048471456 -0.00569485 0.004694764 -0.0042050574 0.0070955935 0.020913903 -0.018480085
0.01548572 -0.018843127 -0.006264305 -0.013522816 -0.00861805 0.0032482278 0.03265786 0.0030253471
-0.035066113 -0.0011612654 -0.019547032 -0.0077699637 0.011219526 0.014290401 -0.016439723 -0.013418767
0.016741822 -0.0007281173 0.0043267054 -0.01540487 0.034727454 -0.0038200617 -0.017257681 0.007730082
-0.0055194274 -0.011939656 -0.010970462 0.013652029 -0.016919168 -0.012915788 0.023937449 0.0043276837
0.018736769 0.007370039 0.008596872 0.011861316 -0.04653734 -0.020986827 -0.026690183 -0.023329094
-0.021508867 -0.009360519 -0.0153535195 0.0011322624 -0.01205865 0.010615495 -0.012070147 0.014078307
-0.0179017 0.018014053 0.013555179 -0.010758493 0.029687285 -0.0024006793 -0.02051817 -0.0013479769
-0.014547387 -0.03296766 -0.0057006916 -0.014779195 -0.00079570094 0.0044786287 0.0014284003 -0.008181032
-0.00474756 0.01989749 -0.005073912 -0.008919179 0.0044663562 -0.01862939 -0.02855969 0.028825521
00000000: 5e4d c3bc bb7d 693b b29d 353c c256 e9bc
00000010: c85c 333c 6e1d e43c 7d43 a1bc 950f 1e3c
00000020: 5025 603b 1a1e ee3b 70a6 d4ba c9e1 433c
00000030: 9725 02bc 056e 803c 4472 96bc 9470 9bbc
00000040: da9c 64bb a6f6 353a 8a86 b3bb 10fa 5b39
00000050: 38d0 c63b d3c1 e4bb 8cdc edbc 5d5a f3bc
00000060: 37e7 66bc 1176 85bb 32ef ccba 43ce 74bc
00000070: 693b 91bc 7a77 1cbc c421 24bc 5599 043c
00000080: c0a2 b03c 4a7c 543c d4e1 2a3c 1ba4 aa3c
00000090: 30a6 b83b 5355 353c 2d1e 10bc a7f6 28bc
000000a0: f39c bb3b 8c49 dc39 a497 b3bc 273a 1ebc
000000b0: 2ed3 7dbc 3199 34b9 5910 24bc 35ce 5fbc
000000c0: e5c5 1bbc babe 8b3c d592 02bc aeb9 d73b
000000d0: 2c31 47bc d44f 263d c88e f638 bac0 a2bb
000000e0: cd96 8c3c ae1a b5bb 855c b7bb 6f64 263c
000000f0: 091e 8bbb cd5b 5fbc 94c4 823c d18e 28b8
00000100: 3e8a 82bc f27e 62bc e3d5 0fbd d43f eabb
00000110: 7f94 4bba 8218 2dbc f242 2abb 6456 533c
00000120: 0110 afbc 7b27 343c f105 b038 191c 58bc
00000130: 1c85 cd3b 4cb9 6c3b a313 723a fc89 833c
00000140: 840f 4e3c e038 fa3b 9aec de3c 3ca5 1dbb
00000150: 9f82 9a3c f4d8 d539 9b14 86bc 10de 013b
00000160: e542 1dbc 236c f8bc 7b26 a53b faa0 983c
00000170: 0001 ebba 13dd 003c 86a4 0639 ae85 d1bb
00000180: 35ae 65bc 0a2f 8dbb dc79 8abc d32a 53bc
00000190: e2e4 1abb db23 9c3c 2a27 e1bb 8106 33bc
000001a0: a239 cbbb cdbf f2ba 59a4 963b 1732 573c
000001b0: 0d65 a13b 0c65 02bc 244c 85bc 8648 1dbc
000001c0: 27ec 77bc 5692 fa3b b627 d43b 909c bb3c
000001d0: 1417 673c 7abe ab3b cac4 c23c b269 a13c
000001e0: 1fe1 e3bb 24cc f7bb 4e05 77b9 bfe9 53bb
000001f0: 0c43 04bc ce9c 52bc a213 7cbc def5 12bc
00000200: e3b4 f7ba b998 0bbd 9ffc 8b3c d7bb 06bc
00000210: f6bd f2bb 1cc4 113c 4b7c e63b 742d 1abb
00000220: 66d7 d73a 7692 bfbb 5e43 46bb 9300 e03b
00000230: 5ce1 02bb 5e2d 493c b1a9 e0ba aeeb 6e3c
00000240: 185f bcb9 7884 75bc de27 7fbc 308a c7bc
00000250: f258 c5bb e1ae a1bc 40ab a93a b8fd 1dbc
00000260: e3b9 4b3c f51c 9cbb b73b bb3b 5249 94ba
00000270: 45be 173c ffdf 773c 6624 c73a 84f1 03bc
00000280: a9b4 60bb 4e00 8dbc 7962 783c 28f0 b8bb
00000290: 57cf 7ebc 3643 ff3b 7fb3 cbbc 9bf8 073c
000002a0: 0f50 923b 5bcf 21bc 0c8c 91bc 76ca ffbb
000002b0: 1789 ae3c ced6 81bc 6ba8 623c e231 edbb
000002c0: e78c d03c ced4 9e3b dd9b babb 89d6 993b
000002d0: 94ca 89bb 2782 e83b a253 ab3c 8c63 97bc
000002e0: d1b7 7d3c e75c 9abc cd44 cdbb cd8e 5dbc
000002f0: b932 0dbc 38e0 543b 40c4 053d e744 463b
00000300: 7ca1 0fbd 9a35 98ba 1921 a0bc 2e9b febb
00000310: 1ad2 373c 4922 6a3c 99ac 86bc 63da 5bbc
00000320: 2526 893c 20df 3eba 09c7 8d3b b564 7cbc
00000330: 603e 0e3d 005a 7abb fb5f 8dbc a14c fd3b
00000340: 50dc b4bb 8c9e 43bc 74bd 33bc c3ac 5f3c
00000350: 119a 8abc be9c 53bc 7818 c43c 3ecf 8d3b
00000360: da7d 993c 5e80 f13b e5d9 0c3c f755 423c
00000370: f09d 3ebd 91ec abbc 5fa5 dabc a81c bfbc
00000380: 5d33 b0bc dd5c 19bc 548d 7bbc 6c68 943a
00000390: a591 45bc 9dec 2d3c dec1 45bc b3a8 663c
000003a0: 96a6 92bc 3592 933c 8b16 5e3c 6444 30bc
000003b0: c032 f33c b754 1dbb b915 a8bc 99ae b0ba
000003c0: 2a58 6ebc 1909 07bd decc babb 7024 72bc
000003d0: 9696 50ba 76c1 923b 2939 bb3a bc09 06bc
000003e0: 6b91 9bbb 1000 a33c 0f43 a6bb c021 12bc
000003f0: 835a 923b aa9c 98bc 03f6 e9bc 8023 ec3c

network_body.linear_encoder.seq_layers.0.bias f4 [256]
-0.0027348793 -0.006969011 0.012685266 -0.009035331 -0.019514123 -0.01676276 -0.005527103 -0.019405322
-0.016439524 0.01047708 0.008712973 -0.022407852 -0.0010023125 0.007843168 0.010423856 0.018994031
-0.0121766785 0.0076312176 0.015761627 -0.007806792 -0.0032569636 -0.010906851 0.009307016 -0.0026768227
0.007258852 0.017795082 0.009462974 -0.019890819 0.011688955 -0.017085118 0.016808823 -0.0013864556
0.014059683 -0.0153113445 -0.024222689 -0.01083542 0.011677688 0.0020294841 0.00041527144 0.008510208
-0.011184283 -0.006419212 0.0028727225 0.0012292988 0.006194799 0.01175186 -0.0034010971 -0.009622102
0.01550078 0.028172746 -0.0089595225 0.0078095533 -0.007710819 -0.014564765 -0.005149014 -0.008311339
0.021412842 0.006161271 0.018256178 0.012660013 0.004999295 -0.0043577333 -0.005190759 -0.017121073
-0.011820971 0.00046667882 0.018153055 -0.009323934 -0.0014016735 0.0011391593 0.026715316 -0.0022887858
0.017002592 -0.0030150707 -0.008954779 -0.0025431407 -0.002595158 0.017445244 0.014262872 -0.008451012
-0.016147109 0.014674506 0.008264358 -0.01640138 -0.007410638 -0.0049868748 0.010960866 -0.00046376287
0.0035677154 0.0053021414 0.009307024 -0.0153185 -0.016583567 -0.0072907116 0.008587749 -0.012174413
-0.00038132642 -0.020632945 0.018213077 -0.012672439 0.0182682 -0.007720045 0.0034605658 -0.01313897
-0.018421572 0.03974625 -0.02375156 -0.007898004 -0.009448998 0.017884172 0.013091205 0.024567734
-0.0060472474 0.010183763 0.014895537 0.017752398 -0.012245452 -0.021916252 -0.0010055734 -0.011588152
0.0017031187 0.011169119 0.017271025 -0.009622938 0.014241373 -0.0078123044 -0.02677789 -0.0111773675
-0.004450309 0.021534188 -0.01407123 0.007455349 0.010586226 -0.0072821397 -0.004074357 -0.00061825744
-0.004054489 -0.00010461589 0.008737365 0.012771545 0.015668003 -0.0072802347 0.0011169612 -0.009286269
0.02742091 0.00051935983 -0.009465304 0.0055399435 -0.016740603 -0.011596112 0.02535863 0.0023616946
0.007710181 -0.010430321 0.007712823 -0.015213377 0.017616138 0.009321285 -0.004630629 0.0066364473
-0.008086754 0.0011806136 0.025539784 0.0019506491 -0.021426296 0.0013004439 0.032794826 -0.012524081
0.00834303 -0.0028697923 0.022635605 0.008958031 0.006126093 0.0037585176 0.014687153 0.015752355
0.00961915 0.020014979 -0.0072948295 -0.013000066 -0.0012499844 -0.008230812 -0.013709799 0.0108658075
0.012456684 0.011730793 -0.00046379544 -0.011885219 0.002574676 0.011965968 -0.008695387 -0.014175721
0.011152796 -0.011055576 -0.005394484 -0.012002825 -0.011122452 0.011765281 0.008205432 -0.016340036
0.022038206 -0.020709468 -0.009289883 0.016212387 -0.012387357 0.010885061 0.0011822094 0.0027559565
0.012515818 -0.006567557 0.005533779 0.019922202 0.009072707 0.01445049 0.0037540179 0.003743168
0.008039873 0.012977159 0.0014619462 0.0012184684 -0.0078024054 -0.009234574 0.0073263757 0.0003578368
-0.013387991 0.0017193503 -0.0038018734 9.798033e-05 0.011422365 -0.012608641 0.0045569246 -0.012513767
0.0059627593 -0.0031189066 -0.017226767 -0.01631545 -0.0041980767 0.008589084 -0.01005946 -0.022673303
0.011413253 -0.008774646 -0.007328539 0.0006023869 0.020404093 -0.001445777 -0.0045764376 -0.00034554375
0.0054072007 -0.0004436256 -0.0067737964 0.00092012266 0.0151800765 -0.0058175125 0.011635986 0.0072676684
00000000: a93b 33bb 4d5c e4bb ddd5 4f3c ed08 14bc
00000010: 15dc 9fbc 0e52 89bc b31c b5bb e9f7 9ebc
00000020: 2eac 86bc 0fa8 2b3c dcc0 0e3c ac90 b7bc
00000030: 0760 83ba a280 003c d2c8 2a3c 5f99 9b3c
00000040: b180 47bc 4b0f fa3b 871e 813c 1ed0 ffbb
00000050: c872 55bb a6b2 32bc 747c 183c a26d 2fbb
00000060: aadb ed3b fec6 913c 970a 1b3c 12f2 a2bc
00000070: 0883 3f3c 17f6 8bbc a8b2 893c bbb9 b5ba
00000080: 965a 663c 6fdc 7abc a96e c6bc 0c87 31bc
00000090: c653 3f3c 1801 053b cab8 d939 666e 0b3c
000000a0: 483e 37bc 4158 d2bb 4944 3c3b 6c20 a13a
000000b0: befd ca3b e08a 403c f1e4 5ebb 05a6 1dbc
000000c0: fcf6 7d3c 88ca e63c f6ca 12bc 48e7 ff3b
000000d0: 0aab fcbb 0da1 6ebc 0fb9 a8bb 482c 08bc
000000e0: fc69 af3c 7de4 c93b fb8d 953c f16b 4f3c
000000f0: 20d1 a33b 51cb 8ebb 3e17 aabb 7e41 8cbc
00000100: bfac 41bc 92ac f439 b7b5 943c 6ac3 18bc
00000110: 5cb8 b7ba d84f 953a 14da da3c 74ff 15bb
00000120: 0549 8b3c 7e98 45bb 11b7 12bc d2aa 26bb
00000130: 8713 2abb 54e9 8e3c d2ae 693c 1d76 0abc
00000140: f146 84bc 576d 703c 3b67 073c 305c 86bc
00000150: f0d4 f2bb f068 a3bb 3495 333c 3325 f3b9
00000160: 55d0 693b 96bd ad3b 7d7c 183c 72fa 7abc
00000170: 43da 87bc ece6 eebb a1b3 0c3c 3077 47bc
00000180: c4ec c7b9 6c06 a9bc 9733 953c 10a0 4fbc
00000190: 31a7 953c 6ef8 fcbb a9ca 623b d644 57bc
000001a0: d6e8 96bc f7cc 223d a292 c2bc a166 01bc
000001b0: f8cf 1abc d481 923c 7e7c 563c 4642 c93c
000001c0: fd27 c6bb ccd9 263c 690c 743c 7a6d 913c
000001d0: 26a1 48bc b689 b3bc 72cd 83ba 3bdc 3dbc
000001e0: 2e3b df3a aefe 363c f77b 8d3c 87a9 1dbc
000001f0: a654 693c 5cfe ffbb 4e5d dbbc 4721 37bc
00000200: e6d3 91bb 7768 b03c 048b 66bc 004c f43b
00000210: da71 2d3c 049f eebb 2f82 85bb 8e12 22ba
00000220: 85db 84bb 3a65 dbb8 2a27 0f3c be3f 513c
00000230: 2f5a 803c 098f eebb 0067 923a 6f25 18bc
00000240: d1a1 e03c a625 083a 5d14 1bbc 6a88 b53b
00000250: 9723 89bc 9efd 3dbc e7bc cf3c a9c6 1a3b
00000260: b0a5 fc3b f0e3 2abc d9bb fc3b 8741 79bc
00000270: b84f 903c 4eb8 183c 88bc 97bb 8e76 d93b
00000280: 4e7e 04bc d2be 9a3a cf38 d13c ecac ff3a
00000290: 3386 afbc a873 aa3a de53 063d ce31 4dbc
000002a0: 34b1 083c 2013 3cbb 4e6e b93c b5c4 123c
000002b0: 65bd c83b 7651 763b 62a2 703c 150b 813c
000002c0: a499 1d3c 74f6 a33c 7709 efbb 3bfe 54bc
000002d0: 84d6 a3ba 87da 06bc 119f 60bc 8006 323c
000002e0: 1f17 4c3c 8332 403c 9229 f3b9 39ba 42bc
000002f0: e5bb 283b e80c 443c 1977 0ebc 4941 68bc
00000300: 38ba 363c 7222 35bc 36c4 b0bb 7fa7 44bc
00000310: f23a 36bc 2ac3 403c 1470 063c 8adb 85bc
00000320: 7889 b43c e7a6 a9bc 9834 18bc d7cf 843c
00000330: 57f4 4abc 4157 323c 5df4 9a3a 479d 343b
00000340: 250f 4d3c a934 d7bb b454 b53b e333 a33c
00000350: b1a5 143c bfc1 6c3c f805 763b f04f 753b
00000360: acb9 033c 269e 543c c69e bf3a 04b5 9f3a
00000370: 52ab ffbb 9c4c 17bc 1812 f03b 0b9c bb39
00000380: 4e59 5bbc d35b e13a da28 79bb ca7a cd38
00000390: df24 3b3c 7994 4ebc 4152 953b 8b06 4dbc
000003a0: 4063 c33b 9266 4cbb 261f 8dbc fba7 85bc
000003b0: 0590 89bb 3bb9 0c3c 6fd0 24bc 5dbd b9bc
000003c0: a7fe 3a3c 88c3 0fbc 3e24 f0bb 80e9 1d3a
000003d0: 7c26 a73c 3a80 bdba f1f5 95bb 192a b5b9
000003e0: e32e b13b 6c96 e8b9 b9f6 ddbb 6334 713a
000003f0: dbb5 783c d5a0 bebb dda4 3e3c 9f25 ee3b

network_body.linear_encoder.seq_layers.0.weight f4 [256, 99]
0.04376879 0.08070747 0.03071576 0.03815063 -0.1292119 0.029649997 0.006060891 -0.04885354
0.018944224 -0.07763835 -0.041577 -0.07167081 -0.19049804 -0.04930529 -0.27611667 0.20220207
-0.01764938 0.080757275 0.023351977 -0.013389731 -0.14439121 0.08099261 0.122411504 -0.0058128117
-0.022987735 -0.0986145 0.07485687 0.13963103 -0.20537353 -0.008910581 0.15426436 0.09417935
0.004478419 -0.062774196 0.106934115 -0.054984674 0.116766915 -0.019811645 0.16448858 0.06057789
0.16881621 0.009532221 -0.040574428 0.05629714 -0.1337323 -0.011832411 0.07425943 0.039780367
0.13553351 0.06357207 0.18783788 -0.15210657 -0.12000146 0.04980867 0.02521182 0.06581216
0.08542185 -0.14816402 0.08898426 0.047205154 -0.022475513 -0.009203571 -0.09148036 -0.056289114
-0.022987938 0.018758848 -0.038811382 0.104264736 0.060826123 0.110432945 0.097775444 -0.1515699
-0.10832507 -0.120903805 0.008865135 0.03858632 0.12847747 0.07022223 -0.05370745 -0.13988471
-0.059271384 -0.10251383 -0.04223769 -0.18975484 -0.110696904 -0.077913634 0.1241593 0.026008781
-0.059253592 -0.06331698 0.24177 0.021183979 -0.08732882 -0.088372014 -0.016760228 0.07000779
0.09037967 0.065052204 0.008028545 -0.031615965 0.04958772 -0.02622273 0.07791692 -0.076525725
-0.29825756 0.13602872 -0.06549294 -0.16722344 0.16576737 0.008922861 -0.058347985 -0.024219727
-0.009526645 0.0806086 0.17026658 -0.0431628 -0.035837114 0.086277 -0.05004299 0.058254845
-0.08790897 -0.0027598857 -0.21052578 0.09340193 0.16483887 0.06794162 -0.008189948 0.15702383
-0.043907683 0.14522344 -0.1114977 0.021262972 0.033041663 -0.015408397 0.043350182 0.123427436
0.13010928 0.04072383 -0.16801965 0.018284053 0.13975835 -0.063819624 -0.22430259 -0.107150465
0.121797934 0.012019067 -0.03723096 0.2618152 -0.023296747 -0.014403394 -0.055283867 -0.09005254
-0.06280345 -0.080637924 0.11029434 -0.034626756 0.14921205 0.015589291 0.027827447 0.20924659
0.11489696 -0.15970457 0.05031101 0.09794884 -0.110158645 -0.08865099 0.07881781 -0.058605872
0.046572223 0.054657646 0.08775063 -0.059221923 0.05950128 -0.0037079868 -0.11566714 0.123310216
-0.019584846 -0.09082545 0.014195608 -0.06548333 -0.09249178 0.1712808 -0.070628 -0.15746538
0.026553528 -0.16625471 0.099468134 -0.0695074 0.014335234 -0.0121001275 0.019587627 0.063023716
0.065617755 0.060720947 -0.18758297 0.024420777 0.0547899 -0.0980324 -0.114326015 0.13596798
0.011766523 0.054747857 -0.090343066 0.10007625 -0.15458666 -0.02755622 -0.1291729 0.08695996
-0.104681835 0.11572682 0.19787204 -0.04244632 0.13539584 0.07954323 0.048481505 -0.06372491
0.15887056 -0.1281939 -0.109441206 0.004237123 0.066972196 -0.165493 0.06699451 -0.08346531
-0.024268461 -0.013219942 0.053464442 0.009804687 0.08009912 -0.07516816 -0.19044635 -0.052437373
0.12933289 0.04728871 0.066582575 0.06626195 -0.12001355 0.15612644 0.20573476 -0.0658936
-0.13665213 -0.010053127 0.013103258 -0.055673998 -0.17835887 -0.049993735 0.09167156 -0.14879297
-0.022945635 -0.07160918 -0.09484667 0.07372545 0.061381564 0.18240587 0.034012914 0.07627797
00000000: e746 333d f549 a53d 9e9f fb3c d643 1c3d
00000010: 2050 04be 8de4 f23c 709a c63b a61a 48bd
00000020: eb30 9b3c db00 9fbd a54c 2abd 25c8 92bd
00000030: eb11 43be 58f4 49bd 2a5f 8dbe 0f0e 4f3e
00000040: 6f95 90bc 1264 a53d a54c bf3c 9a60 5bbc
00000050: 4adb 13be 74df a53d e2b2 fa3d 6679 bebb
00000060: c650 bcbc 66f6 c9bd 8f4e 993d 70fb 0e3e
00000070: 704d 52be affd 11bc 7af7 1d3e 1ae1 c03d
00000080: b4bf 923b c28f 80bd 4600 db3d 9c37 61bd
00000090: 7e23 ef3d 084c a2bc b26f 283e 8620 783d
000000a0: 28de 2c3e 082d 1c3c 5f31 26bd d497 663d
000000b0: 1ff1 08be bbdc 41bc 5415 983d bdf0 223d
000000c0: 4cc9 0a3e 1332 823d 9358 403e d3c1 1bbe
000000d0: 53c3 f5bd 2d04 4c3d 0589 ce3c 87c8 863d
000000e0: a7f1 ae3d 4fb8 17be 613d b63d 315a 413d
000000f0: 911e b8bc 93ca 16bc 0e5a bbbd 6a8f 66bd
00000100: 3351 bcbc 28ac 993c aff8 1ebd c088 d53d
00000110: d024 793d ab2a e23d 7e3e c83d 2435 1bbe
00000120: 89d9 ddbd 6a9c f7bd 123f 113c b00c 1e3d
00000130: 998f 033e acd0 8f3d 58fc 5bbd f03d 0fbe
00000140: 8dc6 72bd c5f2 d1bd 6e01 2dbd 184f 42be
00000150: 0fb5 e2bd 2f91 9fbd 3b47 fe3d 5e10 d53c
00000160: e5b3 72bd 55ac 81bd 8e92 773e 068a ad3c
00000170: 74d9 b2bd 63fc b4bd bf4c 89bc 3f60 8f3d
00000180: fa18 b93d 173a 853d 298a 033c be7f 01bd
00000190: 7e1c 4b3d 0dd1 d6bc e892 9f3d 85b9 9cbd
000001a0: 37b5 98be 1d4b 0b3e 2a21 86bd 9f3c 2bbe
000001b0: ecbe 293e 3131 123c 4cfe 6ebd 7368 c6bc
000001c0: a515 1cbc 1f16 a53d 5d5a 2e3e 7acb 30bd
000001d0: f0c9 12bd ffb1 b03d e1f9 4cbd a29c 6e3d
000001e0: 9e09 b4bd 33df 34bb 1294 57be 8349 bf3d
000001f0: 85cb 283e fa24 8b3d 222f 06bc dbca 203e
00000200: 8bd8 33bd 74b5 143e e858 e4bd af2f ae3c
00000210: b256 073d 8073 7cbc f68f 313d 86c7 fc3d
00000220: 5e3b 053e 08ce 263d 580d 2cbe 70c8 953c
00000230: d01c 0f3e ddb3 82bd 94af 65be b471 dbbd
00000240: 3271 f93d 9feb 443c 7e7f 18bd a40c 863e
00000250: d2d8 bebc 37fc 6bbc 5671 62bd 776d b8bd
00000260: 189f 80bd 7f25 a5bd 00e2 e13d c9d4 0dbd
00000270: 0bcb 183e 3a6a 7f3c 63f6 e33c bd44 563e
00000280: 194f eb3d 9889 23be eb12 4e3d 6799 c83d
00000290: db9a e1bd a68e b5bd 3b6b a13d b60c 70bd
000002a0: 84c2 3e3d b2e0 5f3d 9ab6 b33d b092 72bd
000002b0: 9db7 733d b201 73bb e5e2 ecbd 118a fc3d
000002c0: 6670 a0bc b202 babd b294 683c 201c 86bd
000002d0: 556c bdbd 3c64 2f3e 6aa5 90bd 9b3e 21be
000002e0: c986 d93c ad3e 2abe f3b5 cb3d e559 8ebd
000002f0: 54de 6a3c 9d3f 46bc 3b76 a03c 9412 813d
00000300: 9a62 863d 87b6 783d c015 40be 150e c83c
00000310: 606b 603d 36c5 c8bd c223 eabd 313b 0b3e
00000320: 60c8 403c 4a3f 603d c905 b9bd c7f4 cc3d
00000330: f74b 1ebe 95bd e1bc e745 04be 1018 b23d
00000340: 6e63 d6bd 2f02 ed3d f89e 4a3e 31dc 2dbd
00000350: 35a5 0a3e 90e7 a23d 8b94 463d 3582 82bd
00000360: f7ae 223e 4345 03be b622 e0bd 90d7 8a3b
00000370: b828 893d ff76 29be 6b34 893d dcef aabd
00000380: a7ce c6bc 7598 58bc 88fd 5a3d d7a3 203c
00000390: 020b a43d c4f1 99bd 5e04 43be 92c8 56bd
000003a0: d76f 043e ceb1 413d 725c 883d 58b4 873d
000003b0: aac9 f5bd 9cdf 1f3e 22ac 523e 39f3 86bd
000003c0: 89ee 0bbe dfb5 24bc 0caf 563c 6b0a 64bd
000003d0: b5a3 36be 3bc6 4cbd 4dbe bb3d 2f5d 18be
000003e0: 7cf8 bbbc d5a7 92bd f93e c2bd 5efd 963d
000003f0: 3c6b 7b3d 9bc8 3a3e 2051 0b3d a037 9c3d

network_body.linear_encoder.seq_layers.2.bias f4 [256]
0.0017213535 0.011802584 -0.0047367234 0.0074046967 -0.018117025 -0.007950243 0.014430785 -0.011092381
-0.012098767 -0.0016827479 0.0068716835 -0.009835409 0.0028887275 -0.0013182107 0.0142173 0.0005417839
0.0151364 -0.01891432 0.0058478885 -0.016627321 -1.5146681e-05 -0.009828914 0.0024648663 0.0015982285
0.015116497 0.0014440193 -0.012617726 0.0123298215 0.0021907808 -0.0045938464 -0.018539112 -0.011486203
-0.012328915 -0.0065186126 0.0021969392 0.012329688 0.01010913 0.01610986 0.017655062 0.016145652
0.00025848125 -0.01145948 -0.0097070765 0.020758212 0.0006906468 0.010407697 0.0033719977 0.011477308
0.0031396626 -0.013512741 0.008239373 -0.007524819 0.011820562 0.0045879786 -0.011359348 0.010312844
0.0017008537 -0.01790151 0.0049789203 -0.0023339002 0.0006142631 -0.004348589 -0.013269948 -0.009538701
-0.018094923 -0.013098648 0.010736198 0.0037713586 0.0032325618 -0.00085972156 -0.0006588401 -0.007709881
0.013855529 -0.0103342 0.0024715676 0.016386844 0.008031393 0.0041769305 0.03184071 -0.015528955
-0.003712595 0.008408266 0.0013007615 0.012125961 0.008352712 -0.0043599596 0.0021431905 0.0012298104
-0.009577767 0.0032947282 0.0051379693 -0.005768672 0.015783867 -0.010685353 -0.013441352 -0.0006888167
-0.0066243047 0.02328892 -0.010612223 0.004266761 -0.016812436 -0.016695004 -0.0003585098 -0.005671698
-0.0017502989 -0.008533909 0.011324523 -0.0038028758 -0.0007803241 -0.011594493 0.0010624458 0.0090969615
-0.0027590236 -0.008055856 -0.009029714 0.002177824 -0.009028366 -0.004320799 0.002333158 -0.007404128
0.013734926 -0.004743132 -0.009355392 0.008612678 -0.015447168 -0.00042046316 -0.010175492 0.014700894
0.0026489005 0.0065643056 0.007606175 0.010646074 -0.011835041 -0.0069215004 0.005947255 -0.0070196153
-0.017219095 0.00029564396 -0.016848378 0.0053615104 -0.0136199575 0.014011454 -0.011552126 -0.008150669
0.031064758 0.004305672 0.01662025 0.008247341 -0.0057777083 -0.0010034302 0.0068349466 0.014831733
0.0025588942 -0.019076934 0.009869451 0.0024842692 -0.009353153 0.010379975 0.012897638 -0.008140165
0.0031386155 0.012901912 -0.006719698 -0.0096055195 -0.0050657643 0.0053279935 0.017211273 -0.013564274
0.018975932 0.004172405 -0.010034467 0.00424617 -0.004369797 -0.00092908286 -0.013130733 0.0016776461
0.0059565394 -0.01218549 -0.00087418355 0.00074387476 0.0009713554 -0.0079052495 0.00585819 -0.015312149
0.00469429 0.0071012564 -0.010743769 0.013183831 -0.017807458 -0.011368882 0.010108217 0.010858283
0.014673642 -0.017023649 0.0049317125 -0.006819095 0.013047081 -0.009680324 0.005237343 -0.007288974
0.0013605047 -0.0046786848 -0.0059849415 0.002121088 -0.0020793756 -0.0025164152 0.01081645 0.0044322894
0.0072770063 0.0034181175 -0.0028181234 0.004132423 0.011515323 -0.0016536495 0.009794849 -0.001677483
-0.0121982945 -0.006336384 -0.01161395 -0.016856015 0.008749952 0.020558683 0.014735562 0.015544666
-0.007058914 0.010986127 -0.0025465484 -0.021348007 0.011390756 0.0016988048 0.020977804 -0.0033361611
0.0070546772 0.009407631 -0.018915733 -0.015809353 -0.014071478 -0.021030374 -0.0095549775 0.0056155203
-0.010549057 0.02801356 0.0017712822 0.009688869 -0.0142723955 -0.005107641 0.022218546 0.0029018025
-0.011828674 -0.00030451905 -0.0035723106 -0.00862075 -0.012726645 0.0073248018 0.018482633 0.0061973613
00000000: 0a9f e13a a05f 413c 8436 9bbb 19a3 f23b
00000010: 286a 94bc bc41 02bc 196f 6c3c d1bc 35bc
00000020: e839 46bc a68f dcba dc2b e13b b224 21bc
00000030: ce50 3d3b d0c7 acba aeef 683c 8106 0e3a
00000040: aafe 773c 34f2 9abc a59f bf3b 0536 88bc
00000050: 801e 7eb7 7409 21bc 9889 213b a67b d13a
00000060: 2fab 773c 3f45 bd3a 94ba 4ebc 0503 4a3c
00000070: 3493 0f3b fa87 96bb 56df 97bc a130 3cbc
00000080: 38ff 49bc 169a d5bb 86fa 0f3b 7602 4a3c
00000090: c4a0 253c d3f8 833c 59a1 903c e343 843c
000000a0: c484 8739 8bc0 3bbc 6e0a 1fbc 200d aa3c
000000b0: 860c 353a 0c85 2a3c bcfc 5c3b 520b 3c3c
000000c0: ccc2 4d3b 8b64 5dbc 6ffe 063c c292 f6bb
000000d0: 08ab 413c c156 963b 8f1c 3abc 34f7 283c
000000e0: 2eef de3a 30a6 92bc 3626 a33b 59f4 18bb
000000f0: 8006 213a 9c7e 8ebb 326a 59bc 3648 1cbc
00000100: ce3b 94bc b69b 56bc e1e6 2f3c e628 773b
00000110: 63d9 533b f05e 61ba 03b6 2cba 2ba3 fcbb
00000120: 4d02 633c c750 29bc 06fa 213b b43d 863c
00000130: 1b96 033c a2de 883b 686b 023d 286d 7ebc
00000140: 024f 73bb d3c2 093c 507e aa3a f7ab 463c
00000150: d0d9 083c fedd 8ebb c574 0c3b 9731 a13a
00000160: 11ec 1cbc 5eec 573b 695c a83b 2107 bdbb
00000170: 2b4d 813c 9e11 2fbc 1e39 5cbc b591 34ba
00000180: b210 d9bb 68c8 be3c e4de 2dbc 2fd0 8b3b
00000190: 3cba 89bc f6c3 88bc 5ff6 bbb9 a7d9 b9bb
000001a0: 496a e5ba cfd1 0bbc 7e8a 393c ab39 79bb
000001b0: aa8e 4cba d4f6 3dbc c441 8b3a 6c0b 153c
000001c0: bcd0 34bb b6fc 03bc 5ef1 13bc d3b9 0e3b
000001d0: b6eb 13bc 7d95 8dbb e5e7 183b 549e f2bb
000001e0: 7408 613c 466c 9bbb 5c47 19bc 311c 0d3c
000001f0: 1e16 7dbc 9c71 dcb9 1bb7 26bc 05dc 703c
00000200: 2d99 2d3b 6319 d73b 383d f93b df6c 2e3c
00000210: c3e7 41bc c1cd e2bb 31e1 c23b cd04 e6bb
00000220: 0f0f 8dbc a900 9b39 9c05 8abc 9caf af3b
00000230: 3e26 5fbc 4c90 653c 2145 3dbc 628a 05bc
00000240: 857b fe3c 9816 8d3b 3127 883c db1f 073c
00000250: ee52 bdbb 8885 83ba b0f7 df3b cc00 733c
00000260: 1fb3 273b 3b47 9cbc 7ab3 213c 1fcf 223b
00000270: f83d 19bc c510 2a3c 9d50 533c 545e 05bc
00000280: 3bb1 4d3b 8b62 533c ea30 dcbb 7860 1dbc
00000290: b6fe a5bb 7396 ae3b a8fe 8c3c b03c 5ebc
000002a0: 6a73 9b3c acb8 883b 9b67 24bc 7523 8b3b
000002b0: 8430 8fbb b28d 73ba 4922 57bc 76e4 db3a
000002c0: 132f c33b a6a5 47bc 7729 65ba 9700 433a
000002d0: 8fa2 7e3a 0585 01bc 0ff6 bf3b cfdf 7abc
000002e0: 8fd2 993b a8b1 e83b a206 30bc ff00 583c
000002f0: f2e0 91bc 8c44 3abc ef9c 253c f1e6 313c
00000300: b769 703c 2e75 8bbc 349a a13b b772 dfbb
00000310: 6dc3 553c 399a 1ebc 049e ab3b 58d8 eebb
00000320: f652 b23a a74f 99bb 541d c4bb f401 0b3b
00000330: 2246 08bb 71ea 24bb 7b37 313c bd3c 913b
00000340: f473 ee3b 7f02 603b 44b0 38bb 4769 873b
00000350: c4aa 3c3c 45bf d8ba 937a 203c fdde dbba
00000360: 5bdb 47bc 71a1 cfbb 7048 3ebc a015 8abc
00000370: f55b 0f3c af6a a83c 6d6d 713c 0eaf 7e3c
00000380: 764e e7bb 28ff 333c fee3 26bb 04e2 aebc
00000390: 4ba0 3a3c 6eaa de3a a5d9 ab3c 7fa3 5abb
000003a0: ec2a e73b 7722 1a3c 2bf5 9abc 9e82 81bc
000003b0: 0e8c 66bc e447 acbc 7b8c 1cbc 6602 b83b
000003c0: f4d5 2cbc b27c e53c 5e2a e83a 10be 1e3c
000003d0: c4d6 69bc 005e a7bb ab03 b63c 2b2c 3e3b
000003e0: 0ecd 41bc dba7 9fb9 6d1d 6abb 0c3e 0dbc
000003f0: 6b83 50bc e404 f03b e468 973c 3c13 cb3b

network_body.linear_encoder.seq_layers.2.weight f4 [256, 256]
-0.04085688 0.044543453 0.06346795 -0.06381721 -0.011275987 0.046479996 0.0013086136 0.0471179
-0.087935634 -0.040468123 -0.04151003 0.058265414 -0.06838643 0.09876619 0.044405688 -0.06738482
0.0034837094 -0.025216581 0.10869695 -0.056918938 -0.0012158316 -0.040687624 -0.045731645 0.07426035
-0.029448817 0.11708961 -0.020741941 -0.0013831396 -0.017483158 -0.06281302 0.024522884 -0.007326146
0.06851798 0.09269382 0.0043478054 0.030783817 0.010097447 0.023463689 -0.03174609 -0.092691585
0.008671803 -0.07438874 0.015547527 0.012765927 -0.069571435 -0.0493277 -0.008041713 -0.029894928
0.057468347 -0.123431526 0.08410641 0.06950927 0.032092057 0.0716688 -0.08496874 0.000556722
0.017278787 -0.008287074 -0.0029806127 -0.070415735 0.025300933 -0.05697563 -0.063929126 -0.05884323
-0.039693855 -0.19972824 -0.020024162 -0.07611339 0.053433105 -0.0155677255 -0.009416722 0.10981712
-0.012744956 0.0831609 0.016323725 -0.17247735 -0.108035214 -0.08675399 -0.06891675 0.08790693
0.06536673 0.08962473 -0.10399767 0.022417232 0.033092923 -0.095992595 -0.12515627 -0.013132486
-0.028672816 -0.13998862 -0.06536746 -0.06937176 -0.09416418 0.09785526 0.018142102 0.04836351
-0.05960191 0.03290704 -0.1749329 0.08492403 0.061951503 0.023351887 -0.023762329 0.051352873
-0.061793704 0.0047805514 -0.06195796 0.015254317 -0.08625831 0.06019395 -0.05306482 0.0084155835
0.086819045 0.027132753 0.0328045 0.016442025 -0.040522773 -0.01199967 0.02086631 0.17864089
-0.111496694 -0.0050966106 0.05563786 0.11344355 -0.13897797 0.051992293 -0.015824234 0.05682418
0.005920465 -0.05907223 0.011668354 -0.016357053 -0.02318022 -0.032880135 -0.06795592 0.03581816
0.059022352 0.12405488 -0.0053868648 -0.016773267 0.01048235 -0.05890056 -0.01060496 -0.049737763
0.17288432 -0.08471809 0.015888268 0.05014031 -0.040781926 -0.048104897 -0.079471976 -0.037025344
0.03188594 0.039506327 0.012543668 0.022997418 -0.102142535 0.032023184 0.06403925 0.023396753
-0.09650529 0.031585008 0.049018763 -0.12447161 -0.06827694 0.09676775 0.0017056809 0.0412533
-0.054516602 -0.03135877 -0.08341932 0.044126045 -0.053247917 0.011440069 -0.15708692 -0.07659214
0.04989463 -0.06957998 0.01449983 -0.07076146 -0.06540694 -0.028684454 0.06609331 -0.016730694
-0.0575107 0.06719616 -0.02913962 0.12150796 -0.047491737 0.03784216 -0.04724342 -0.017859098
-0.13507505 0.14725642 0.0038647477 -0.035343055 0.040196378 0.094972946 0.07860347 0.14045316
-0.021852061 0.06183059 -0.056909904 0.013050882 -0.012572496 -0.10220663 0.15105167 -0.17417195
0.014510482 0.022419075 0.042436253 0.07904078 0.14081256 0.1174654 0.10122748 0.016439388
0.14990713 0.011128432 -0.032735772 -0.05880728 0.04010993 -0.069832936 0.008286762 -0.05459993
0.0018770732 0.017211476 -0.032703344 0.040273752 0.044995777 -0.02242084 -0.10800373 -0.026593285
-0.0029021746 -0.06210245 0.10698216 -0.039705116 -0.00078015495 0.03872912 0.04287065 -0.034988686
0.08655115 0.15542181 0.079715446 0.031382132 -0.12949944 -0.00068861677 -0.0686005 0.08021497
0.06244067 0.011050203 0.04819984 0.0997153 -0.06492498 0.022542782 -0.04976852 -0.05644414
00000000: 8b59 27bd 3273 363d 7cfb 813d 99b2 82bd
00000010: ebbe 38bc cf61 3e3d c985 ab3a b3fe 403d
00000020: 9917 b4bd e7c1 25bd 6c06 2abd b7a7 6e3d
00000030: 2f0e 8cbd ee45 ca3d bde2 353d 0d01 8abd
00000040: f24e 643b 0193 cebc 829c de3d d523 69bd
00000050: 8a5c 9fba 11a8 26bd 1b51 3bbd cf15 983d
00000060: a53e f1bc adcc ef3d 01eb a9bc 774a b5ba
00000070: d738 8fbc 1da4 80bd 37e4 c83c 2b10 f0bb
00000080: 2853 8c3d 42d6 bd3d 0978 8e3b 582e fc3c
00000090: c36f 253c ec36 c03c 3008 02bd 16d5 bdbd
000000a0: 2e14 0e3c 2059 98bd 0ebb 7e3c 2e28 513c
000000b0: 787b 8ebd d80b 4abd 64c1 03bc 35e6 f4bc
000000c0: ee63 6b3d abc9 fcbd fb3f ac3d e05a 8e3d
000000d0: f672 033d 18c7 923d 1704 aebd fbf0 113a
000000e0: 3e8c 8d3c 82c6 07bc 6256 43bb 2036 90bd
000000f0: e743 cf3c 475f 69bd 46ed 82bd 9905 71bd
00000100: 0696 22bd 8f85 4cbe b609 a4bc 56e1 9bbd
00000110: acdc 5a3d c60f 7fbc 9848 1abc cce7 e03d
00000120: 38d0 50bc 4350 aa3d 55b9 853c e79d 30be
00000130: 9141 ddbd 13ac b1bd 3a24 8dbd 8c08 b43d
00000140: fede 853d 2c8d b73d bbfc d4bd 58a4 b73c
00000150: 728c 073d c497 c4bd f728 00be a329 57bc
00000160: 41e3 eabc 2d59 0fbe 60df 85bd c812 8ebd
00000170: 26d9 c0bd 5768 c83d bf9e 943c d118 463d
00000180: 2221 74bd 88c9 063d 9c21 33be a6ec ad3d
00000190: dcc0 7d3d 754c bf3c 37a9 c2bc 6457 523d
000001a0: 651b 7dbd 2ca6 9c3b a1c7 7dbd 3eed 793c
000001b0: 32a8 b0bd ee8d 763d 7f5a 59bd 84e1 093c
000001c0: 2fce b13d 8245 de3c 035e 063d 6db1 863c
000001d0: 35fb 25bd 449a 44bc d3ef aa3c a3ed 363e
000001e0: 6158 e4bd 7801 a7bb 86e4 633d 1855 e83d
000001f0: 3e50 0ebe dff5 543d d3a1 81bc 79c0 683d
00000200: 7600 c23b b9f5 71bd a02c 3f3c 3aff 85bc
00000210: 72e4 bdbc 52ad 06bd 792c 8bbd 10b6 123d
00000220: 6cc1 713d 7c10 fe3d 4c84 b0bb 1768 89bc
00000230: 2abe 2b3c b741 71bd 6dc0 2dbc d3b9 4bbd
00000240: 9608 313e ae80 adbd 1d28 823c ed5f 4d3d
00000250: f30a 27bd a409 45bd 34c2 a2bd e3a7 17bd
00000260: d59a 023d 63d1 213d f583 4d3c 1565 bc3c
00000270: 1b30 d1bd be2a 033d 0327 833d 8caa bf3c
00000280: 91a4 c5bd 485f 013d e6c7 483d f9ea febd
00000290: c8d4 8bbd 2c2e c63d 2791 df3a 38f9 283d
000002a0: cd4c 5fbd 0e72 00bd c0d7 aabd 83bd 343d
000002b0: 7d1a 5abd 216f 3b3c 65db 20be 57dc 9cbd
000002c0: 505e 4c3d f37f 8ebd b290 6d3c 62eb 90bd
000002d0: 13f4 85bd a9fb eabc ee5b 873d cf0e 89bc
000002e0: 5790 6bbd 249e 893d 36b6 eebc 2ad9 f83d
000002f0: b286 42bd 6100 1b3d 5182 41bd 3e4d 92bc
00000300: 1d51 0abe 63ca 163e b547 7d3b e1c3 10bd
00000310: f5a4 243d 2d81 c23d dbfa a03d f4d2 0f3e
00000320: 1803 b3bc 1342 7d3d 5c1a 69bd 5ed3 553c
00000330: dffc 4dbc b651 d1bd 4aad 1a3e 225a 32be
00000340: 5fbd 6d3c 35a8 b73c a3d1 2d3d 22e0 a13d
00000350: 2b31 103e b391 f03d 5a50 cf3d e5ab 863c
00000360: 4181 193e 0754 363c f215 06bd e7df 70bd
00000370: 4f4a 243d 9204 8fbd 33c5 073c 2da4 5fbd
00000380: 2008 f63a 15ff 8c3c f1f3 05bd 17f6 243d
00000390: 7e4d 383d e9ab b7bc 0f31 ddbd 29da d9bc
000003a0: 6932 3ebb 235f 7ebd 7619 db3d d5a1 22bd
000003b0: 5083 4cba 6da2 1e3d 2299 2f3d 4c50 0fbd
000003c0: bb41 b13d e526 1f3e da41 a33d 8d8a 003d
000003d0: 809b 04be 4a84 34ba 6b7e 8cbd bf47 a43d
000003e0: cac1 7f3d e90b 353c 326d 453d 8937 cc3d
000003f0: 63f7 84bd a4ab b83c 13da 4bbd f831 67bd

network_body.vector_processors.0.normalizer.running_mean f4 [99]
0.0 0.0 0.0 0.0 0.9999838 0.9999838 0.12336322 0.0003741237
0.024643358 0.0 0.0 0.0 0.123395756 0.0003741237 0.024643358 0.0
0.0 0.0 0.16446799 0.0019844824 0.08030646 0.0 0.0 0.0
0.1755128 0.0020170147 0.07949312 0.0 0.0 0.0 0.23872346 0.0026513983
0.21749598 0.0 0.0 0.0 0.28498468 0.0031393855 0.20918392 0.0
0.0 0.0 0.25503853 0.00619744 0.23776373 0.0 0.0 0.0
0.27504602 0.007580071 0.24269238 0.0 0.0 0.0 0.2945818 0.012281016
0.18354832 0.0 0.0 0.0 0.32184395 0.013452183 0.17861965 0.0
0.0 0.0 0.29908746 0.012476212 0.267043 0.0 0.0 0.0
0.29554138 0.01611985 0.29531375 0.0 0.0 0.0 0.36150107 0.01571319
0.223303 0.0 0.0 0.0 0.39938506 0.019600831 0.21375477 0.0
0.0 0.0 0.9999838 0.0 0.0 0.80573606 0.17155935 0.0
-0.9999259 0.0074686566 0.0
00000000: 0000 0000 0000 0000 0000 0000 0000 0000
00000010: f0fe 7f3f f0fe 7f3f dba5 fc3d 0826 c439
00000020: dee0 c93c 0000 0000 0000 0000 0000 0000
00000030: eab6 fc3d 0826 c439 dee0 c93c 0000 0000
00000040: 0000 0000 0000 0000 4c6a 283e 170e 023b
00000050: b777 a43d 0000 0000 0000 0000 0000 0000
00000060: a1b9 333e e42f 043b 4acd a23d 0000 0000
00000070: 0000 0000 0000 0000 ec73 743e 15c3 2d3b
00000080: 44b7 5e3e 0000 0000 0000 0000 0000 0000
00000090: 83e9 913e 26be 4d3b 4f34 563e 0000 0000
000000a0: 0000 0000 0000 0000 6994 823e e513 cb3b
000000b0: 5678 733e 0000 0000 0000 0000 0000 0000
000000c0: d5d2 8c3e 3f62 f83b 5a84 783e 0000 0000
000000d0: 0000 0000 0000 0000 6dd3 963e 5136 493c
000000e0: 17f4 3b3e 0000 0000 0000 0000 0000 0000
000000f0: bbc8 a43e 8c66 5c3c 12e8 363e 0000 0000
00000100: 0000 0000 0000 0000 fe21 993e 0769 4c3c
00000110: dcb9 883e 0000 0000 0000 0000 0000 0000
00000120: 3351 973e c70d 843c 5d33 973e 0000 0000
00000130: 0000 0000 0000 0000 ab16 b93e f3b8 803c
00000140: 8ba9 643e 0000 0000 0000 0000 0000 0000
00000150: 337c cc3e ec91 a03c 88e2 5a3e 0000 0000
00000160: 0000 0000 0000 0000 f0fe 7f3f 0000 0000
00000170: 0000 0000 b844 4e3f 41ad 2f3e 0000 0000
00000180: 25fb 7fbf a2bb f43b 0000 0000
