MLagents/results/hb_06/Mario.onnx (onnx, 352528 bytes, 16 tensors)

122 f4 [69]
0	0x3c9ac95f	0.01889485
1	0x3c9ac95f	0.01889485
2	0x3cdae221	0.026719155
3	0x3cdae221	0.026719155
4	0x3ead6e85	0.33873382
5	0x3c9ac95f	0.01889485
6	0x3c9ac95f	0.01889485
7	0x3c9ac95f	0.01889485
8	0x3ead6e85	0.33873382
9	0x3c9ac95f	0.01889485
10	0x3c9ac95f	0.01889485
11	0x3c9ac95f	0.01889485
12	0x3ead6e85	0.33873382
13	0x3d060469	0.03271905
14	0x3c9ac95f	0.01889485
15	0x3c9ac95f	0.01889485
16	0x3ead6e85	0.33873382
17	0x3d060469	0.03271905
18	0x3c9ac95f	0.01889485
19	0x3c9ac95f	0.01889485
20	0x3eb0f12a	0.34558994
21	0x3d060469	0.03271905
22	0x3c9ac95f	0.01889485
23	0x3c9ac95f	0.01889485
24	0x3eb0f12a	0.34558994
25	0x3d060469	0.03271905
26	0x3c9ac95f	0.01889485
27	0x3c9ac95f	0.01889485
28	0x3eb245a9	0.3481877
29	0x3d060469	0.03271905
30	0x3c9ac95f	0.01889485
31	0x3c9ac95f	0.01889485
32	0x3eb21552	0.3478189
33	0x3d060469	0.03271905
34	0x3c9ac95f	0.01889485
35	0x3c9ac95f	0.01889485
36	0x3ec5abdf	0.3860769
37	0x3d5aa96f	0.05338424
38	0x3c9ac95f	0.01889485
39	0x3c9ac95f	0.01889485
40	0x3ec6459a	0.38724977
41	0x3d5aa96f	0.05338424
42	0x3c9ac95f	0.01889485
43	0x3c9ac95f	0.01889485
44	0x3ecc0928	0.39850736
45	0x3d746290	0.05966431
46	0x3c9ac95f	0.01889485
47	0x3c9ac95f	0.01889485
48	0x3eccb9fa	0.3998564
49	0x3d67e290	0.05661255
50	0x3c9ac95f	0.01889485
51	0x3c9ac95f	0.01889485
52	0x3ecc96be	0.39958757
53	0x3d74628d	0.059664298
54	0x3c9ac95f	0.01889485
55	0x3c9ac95f	0.01889485
56	0x3eccb9fb	0.39985642
57	0x3d802243	0.06256535
58	0x3c9ac95f	0.01889485
59	0x3c9ac95f	0.01889485
60	0x3cdae221	0.026719155
61	0x3c9ac95f	0.01889485
62	0x3c9ac95f	0.01889485
63	0x3f4ff220	0.8122883
64	0x3ee18afd	0.44051352
65	0x3c9ac95f	0.01889485
66	0x3cdae0fd	0.02671861
67	0x3ca27701	0.019832136
68	0x3c9ac95f	0.01889485

action_model._discrete_distribution.branches.0.bias f4 [3]
0	0x00000000	0.0
1	0x00000000	0.0
2	0x00000000	0.0

action_model._discrete_distribution.branches.0.weight f4 [3, 256]
0	0x3b5cd537	0.0033696422
1	0xbb2b6024	-0.0026149834
2	0xbbd6af7f	-0.0065516825
3	0x3b175d97	0.0023096555
4	0xbc1eb942	-0.009687724
5	0xbbc9cd7f	-0.0061585302
6	0x3b48cae4	0.003063851
7	0xbb3e8bfe	-0.002907514
8	0x3ae3873b	0.0017359027
9	0xbb8bc9b6	-0.004265989
10	0x3ab588ed	0.0013850011
11	0xbb463cb5	-0.0030248587
12	0xbb227743	-0.0024790324
13	0xbba69f92	-0.00508494
14	0xb85cb3d8	-5.261958e-05
15	0xbbd583ed	-0.006515971
16	0x3ad8d91d	0.0016544197
17	0xbbf5901f	-0.007493987
18	0xb8d701f7	-0.00010252365
19	0x3a6e87bb	0.0009099205
20	0xbc28b4fa	-0.010297054
21	0xbb9784bd	-0.004623978
22	0x3c1f4720	0.009721547
23	0xbc066f4f	-0.008205249
24	0xbb10d02f	-0.0022096743
25	0xb9cb0954	-0.00038726127
26	0x3b57e47b	0.0032942581
27	0x3b0ada2b	0.0021187167
28	0xbbe37455	-0.006941358
29	0xbbe2f54f	-0.0069262157
30	0xbc4122c5	-0.011788075
31	0xbb146eef	-0.002264913
32	0xbb680d27	-0.003540823
33	0xbb02e882	-0.0019975011
34	0x3ac4229a	0.0014963925
35	0xba1daf0c	-0.0006015159
36	0xbc259067	-0.010105229
37	0x38e4288f	0.00010879442
38	0x3af64608	0.0018789181
39	0x3b909403	0.0044121756
40	0x3b39efa8	0.0028371606
41	0x3c1905c6	0.009339755
42	0xbb706eb5	-0.003668708
43	0xbb38d581	-0.002820343
44	0xbb19a597	-0.0023444647
45	0x3ba19fe7	0.004932392
46	0x3bb71982	0.0055877576
47	0x3ac1f6ec	0.001479832
48	0xbc50fa98	-0.012755059
49	0x3b6f8a9b	0.003655112
50	0x3bb393fc	0.0054802876
51	0xbbeb404a	-0.0071792947
52	0xbc3186fa	-0.010835404
53	0xbc46db93	-0.0121373115
54	0xbbe9fc9f	-0.0071407105
55	0xba17aa7b	-0.00057855964
56	0xba0f7240	-0.00054720417
57	0xbb46621e	-0.0030270885
58	0xbb9967b8	-0.0046815537
59	0xba8e109d	-0.0010838691
60	0x3c25c72f	0.01011829
61	0xbb152646	-0.0022758408
62	0xba83d81e	-0.0010058915
63	0xbc14be8f	-0.009078636
64	0x3bdafb57	0.006682794
65	0xbac8720f	-0.0015292781
66	0xbc05e107	-0.0081713265
67	0x3bc4a424	0.0060010124
68	0x3b9de2ce	0.004818297
69	0x3bfc8642	0.0077064345
70	0xbb12a5ba	-0.0022376613
71	0x3c1a9a2d	0.009436172
72	0x3b81191b	0.0039397604
73	0x3c5838f0	0.013197169
74	0xbb69282b	-0.003557692
75	0xba3561c2	-0.0006919169
76	0x3c192d1d	0.009349135
77	0x3afb8dff	0.0019192098
78	0x3bc17829	0.005904217
79	0xb91cabb3	-0.00014941282
80	0xbba104b3	-0.0049138903
81	0x3bd6196d	0.0065337927
82	0x3bfa19b5	0.007632459
83	0xba867b2f	-0.00102601
84	0xbbacf98a	-0.005278771
85	0x3ac1280b	0.0014736665
86	0xba8308d6	-0.000999714
87	0x3badd477	0.005304869
88	0x3bee0c20	0.007264629
89	0xbb66d445	-0.0035221737
90	0xbb62ed62	-0.0034626354
91	0xbb5992a8	-0.0033198986
92	0x3c029637	0.007970384
93	0xbb200ba3	-0.0024420999
94	0x3bc3536f	0.005960874
95	0xbc5c7565	-0.013455723
96	0xbc437f41	-0.011932195
97	0xbc30d063	-0.010791871
98	0xbb855fbb	-0.00407025
99	0x3b42c2df	0.0029718203
100	0x39cdf648	0.0003928414
101	0xbb6be30f	-0.0035993492
102	0xbbd3b54f	-0.0064608227
103	0x3bfde4f2	0.0077482397
104	0xbbcc403d	-0.0062332437
105	0xbbd04443	-0.0063557937
106	0xbb82ad9b	-0.0039879805
107	0xbbe385cf	-0.0069434415
108	0xbab28246	-0.0013619147
109	0x3a93a69a	0.0011264861
110	0x3b8068d4	0.0039187465
111	0xbc1c5cd3	-0.009543615
112	0xbb33b69c	-0.0027422076
113	0x3b5a496d	0.0033307925
114	0x3c3bf428	0.011471786
115	0x3c26030d	0.010132563
116	0x3b997933	0.0046836375
117	0x3b2fbc5e	0.0026815156
118	0x3b8dd05e	0.004327818
119	0x3bdee18d	0.00680179
120	0xbb962819	-0.0045824167
121	0x3b6edf32	0.0036448953
122	0x3befed3a	0.007321981
123	0x3b10475f	0.0022015197
124	0x3c15a324	0.009133134
125	0xb95a3778	-0.00020810764
126	0x3b845bfe	0.0040392866
127	0xb8c34f3b	-9.3130824e-05
128	0xbc4bfa71	-0.012449847
129	0x3af3282d	0.0018551402
130	0x3bb33082	0.005468429
131	0xbb52cc5a	-0.003216526
132	0x39248f63	0.00015693675
133	0xbb3ce9c7	-0.0028825866
134	0x3a3dff17	0.0007247789
135	0xbbce3b3a	-0.0062936815
136	0xbb1dc15d	-0.0024071552
137	0x3b99de6c	0.004695704
138	0x3b0a4f36	0.0021104342
139	0x3b036cfb	0.002005397
140	0xbb347330	-0.0027534477
141	0xbbb351e9	-0.005472411
142	0x3b748f97	0.0037317032
143	0xbb325656	-0.0027212105
144	0x3c476f5b	0.012172545
145	0x3a8ad575	0.001059218
146	0xbb267f27	-0.0025405379
147	0xbba194df	-0.004931077
148	0xbba2fe3b	-0.0049741543
149	0xbc1998f9	-0.00937485
150	0xbb835320	-0.004007712
151	0xbbcccca5	-0.0062499815
152	0xbbb53a37	-0.0055306214
153	0x3b81aac9	0.0039571268
154	0xb9c99e5b	-0.00038455692
155	0xbba4a18a	-0.00502414
156	0x3a50355f	0.0007942523
157	0xbbb07947	-0.005385551
158	0xbc337ddd	-0.010955301
159	0xbbccb123	-0.0062467023
160	0xbb95d7f3	-0.0045728623
161	0x3b27fc3b	0.0025632519
162	0xbbe74898	-0.0070582144
163	0xbb68ebbb	-0.0035540897
164	0xb94b1ecc	-0.00019371061
165	0x3c654613	0.013993758
166	0xbbe44ce2	-0.006967173
167	0xbb138869	-0.0022511727
168	0x3c02519c	0.0079540275
169	0x3c1cb7d0	0.009565309
170	0x3bc04700	0.005867839
171	0xbbaba653	-0.0052383333
172	0x3994f473	0.0002841089
173	0xbc26125d	-0.010136214
174	0x3a0b4963	0.00053133647
175	0x3b55ad02	0.0032604341
176	0xbb981447	-0.004641089
177	0x3bb91d5f	0.0056492533
178	0xbb5d45a3	-0.003376343
179	0x3b6f491f	0.003651209
180	0xbb01fc1f	-0.0019834114
181	0xbb2cd363	-0.0026371113
182	0x3b9944cd	0.004677391
183	0xba3bc2b1	-0.0007162495
184	0xbc22faaf	-0.009947463
185	0x3bdd6de3	0.0067574843
186	0x3add9623	0.0016905706
187	0xbb45d13e	-0.0030184533
188	0x3bc3d1ec	0.0059759524
189	0xbc92c820	-0.017917693
190	0xbbb3ab3b	-0.0054830587
191	0xbaafab05	-0.0013402408
192	0x3a950f70	0.0011372399
193	0xbbb8abf8	-0.0056357346
194	0x3b3e3d2b	0.0029028158
195	0xba11bc2c	-0.0005559351
196	0xb97e278d	-0.00024238061
197	0x3bc8471b	0.006111992
198	0x3c2c772a	0.010526458
199	0x39eb0453	0.00044825915
200	0x3c337e73	0.010955441
201	0x3b5ef3eb	0.0034019898
202	0xbc3c06a7	-0.011476195
203	0x3b6e55aa	0.0036366978
204	0xba902e4b	-0.0011000125
205	0xbb34607f	-0.0027523336
206	0xbaab977f	-0.0013091414
207	0xbb3bfa8b	-0.002868327
208	0xbaf224e8	-0.0018474134
209	0xba1f7358	-0.0006082556
210	0x3bb59c24	0.005542295
211	0xbbd46f23	-0.006482975
212	0xbab5ac0b	-0.0013860477
213	0x3b5d0b4b	0.0033728655
214	0x3b363fae	0.0027808952
215	0x3bb34b4d	0.005471623
216	0xbb97047d	-0.0046086893
217	0xbbd526ea	-0.006504883
218	0xbba7c03b	-0.005119351
219	0x3b6ef88b	0.003646406
220	0xbbb81c49	-0.005618606
221	0x3b4a4c63	0.0030868284
222	0xbb8a4577	-0.0042197066
223	0xbb09e7ce	-0.0021042707
224	0x3b03fe00	0.002014041
225	0xbc263cdb	-0.010146345
226	0xbbbd1117	-0.0057698595
227	0xba3db489	-0.00072366797
228	0xb9fe1182	-0.000484597
229	0xbbfa8448	-0.0076451637
230	0x3a83a301	0.0010043086
231	0x3b17c955	0.0023160775
232	0xbba4c254	-0.0050280485
233	0x3c2ace94	0.010425229
234	0x3b38a077	0.0028171816
235	0xbbd25838	-0.006419208
236	0x3ab7196f	0.0013969372
237	0xbb91a6ab	-0.004444917
238	0x3aa57724	0.0012624008
239	0xbc0d0fd9	-0.008609735
240	0xbc5d2b67	-0.013499117
241	0x3b63b4d2	0.0034745228
242	0xbc07c1f7	-0.008285991
243	0xbbba9f87	-0.0056952867
244	0x3c0e91bd	0.008701739
245	0x3b1f7f1f	0.0024337245
246	0xbbdf49dd	-0.006814225
247	0x3ba84a91	0.005135842
248	0x3c420bbb	0.011843617
249	0xbadce393	-0.001685249
250	0x3c52651a	0.012841487
251	0xba242b19	-0.00062625256
252	0x3ba85c04	0.0051379222
253	0xbb39b589	-0.0028336963
254	0x3ba41c1c	0.0050082337
255	0xbabb7a9a	-0.0014303506

action_model._discrete_distribution.branches.1.bias f4 [2]
0	0x00000000	0.0
1	0x00000000	0.0

action_model._discrete_distribution.branches.1.weight f4 [2, 256]
0	0xbba5066b	-0.0050361655
1	0xbb4b4e83	-0.0031022138
2	0xbb8953fb	-0.0041909195
3	0xbb8abc36	-0.0042338623
4	0xbbd5c7d3	-0.006524065
5	0xbb65220a	-0.0034962916
6	0x3b13f18b	0.002257439
7	0x3b55c46a	0.0032618293
8	0xbbaf2275	-0.005344684
9	0xbbdacc15	-0.0066771605
10	0xbb753845	-0.0037417572
11	0x3b357a09	0.0027691147
12	0xbb51dcc8	-0.0032022465
13	0x3884d6fa	6.334293e-05
14	0xbc52f665	-0.012876128
15	0x3c4c00c5	0.012451355
16	0xbbedd3db	-0.007257921
17	0x3b74d9f5	0.0037361358
18	0x3beea74f	0.0072831283
19	0xbb338bc6	-0.0027396544
20	0x3b15770d	0.0022806555
21	0x3b14c17b	0.002269833
22	0x3a3dbfbc	0.00072383485
23	0xba26dbf3	-0.00063651724
24	0x3b7ca43d	0.0038550042
25	0x3c78b4f2	0.0151798595
26	0xbb84d7ef	-0.0040540616
27	0xbc137d46	-0.0090020355
28	0x3badcc22	0.0053038755
29	0x3c3bee04	0.011470322
30	0x3bae5364	0.0053199995
31	0xbbf3718f	-0.0074293087
32	0xbb9f417d	-0.0048601017
33	0x3c26f720	0.010190755
34	0x3c308251	0.010773257
35	0xbb4c095b	-0.0031133506
36	0xbba37763	-0.0049885972
37	0x3b8bd760	0.004267618
38	0xbb991008	-0.0046711005
39	0xb8a6759b	-7.9374026e-05
40	0xbc32b0ab	-0.010906379
41	0xbc2b262b	-0.010446112
42	0x3ba2d6e0	0.0049694628
43	0x3bed1967	0.007235694
44	0x3bb80d76	0.005616839
45	0x3bee049d	0.0072637335
46	0x3bba28c1	0.005681128
47	0xb9f13e30	-0.00046013435
48	0x3b0f3fe7	0.0021858157
49	0x3b0c1a97	0.0021378153
50	0xbaad2cf3	-0.0013212248
51	0xbbc52828	-0.00601675
52	0x3b3b00e0	0.0028534457
53	0xba61ae70	-0.0008609062
54	0xbb15adf6	-0.0022839285
55	0x3bfe6385	0.0077633285
56	0x3b82c81c	0.00399114
57	0xb9e6b9f7	-0.00044007573
58	0x3a7e42c0	0.00096992776
59	0xbbf06c5b	-0.0073371357
60	0x3a4e5350	0.0007870691
61	0x3c2d5dc7	0.01058144
62	0x39c3edd3	0.0003737049
63	0xbb8b123f	-0.0042441185
64	0x3b45a2f7	0.003015695
65	0x3c46a60d	0.0121245505
66	0xbbb167b7	-0.005413975
67	0x3b8b9a3a	0.0042603286
68	0x3b76c802	0.0037655835
69	0xba17cff1	-0.00057911786
70	0xbc3afc5c	-0.011412706
71	0x3ae125f2	0.0017177446
72	0xb8f58eb8	-0.00011709094
73	0xbc4b4cc1	-0.012408436
74	0x3ad5f638	0.0016323989
75	0x3b3a6c66	0.0028445958
76	0xb9628117	-0.00021601129
77	0xbba3053e	-0.00497499
78	0xbbf10038	-0.0073547624
79	0xbc08d9da	-0.008352721
80	0x3a677fcf	0.00088309956
81	0xbaa516bc	-0.0012595276
82	0xbbfaa7b0	-0.0076493844
83	0xba0d74a3	-0.00053961034
84	0x39f57ce8	0.00046823104
85	0x3c4901e2	0.012268515
86	0x3b9e47c7	0.004830334
87	0xbc203521	-0.009778292
88	0x39468633	0.00018932745
89	0x3b105511	0.002202336
90	0x3b3fc7c7	0.0029263364
91	0x3c101b7a	0.008795613
92	0xbc36da84	-0.011160497
93	0x3bce82a0	0.006302193
94	0x3b93b369	0.0045074713
95	0x3bcc00b7	0.006225671
96	0x3c2aecef	0.010432466
97	0xba99c37f	-0.0011731236
98	0x3c1cbcf7	0.009566537
99	0x3b07a269	0.002069617
100	0x3b968dfd	0.004594563
101	0xbc181ded	-0.009284479
102	0xbbf562d3	-0.0074885874
103	0x3b6fff3b	0.0036620635
104	0xbc38670b	-0.011255036
105	0xba7b1287	-0.0009577651
106	0x3beec722	0.007286922
107	0xbb94c40b	-0.0045399717
108	0xba952c70	-0.0011381041
109	0xbac81f9e	-0.0015268212
110	0xba6d2c95	-0.0009047476
111	0xbc197cde	-0.00936815
112	0x39916f92	0.00027739682
113	0xbbc2c77f	-0.005944192
114	0x3a5f6cd7	0.00085229933
115	0x3bd16cd8	0.006391149
116	0xbb91a2e2	-0.004444466
117	0x3a581898	0.0008243411
118	0x3bad1813	0.005282411
119	0x390949f8	0.00013092894
120	0x3b8f78ff	0.0043784375
121	0x3b9f9b5c	0.004870815
122	0x3bfb9970	0.0076782033
123	0x3b44c043	0.0030021823
124	0x38a2b1bb	7.757867e-05
125	0xbbecc47a	-0.0072255703
126	0x3ba038fe	0.0048896065
127	0xbae1a14b	-0.0017214207
128	0xbc060885	-0.008180742
129	0xbbc2336f	-0.0059265415
130	0xb957081b	-0.00020507017
131	0x3c3d21b6	0.011543682
132	0xbc23684f	-0.0099736
133	0xbc827198	-0.015923306
134	0x3c38c239	0.011276775
135	0xbbd2fc68	-0.0064387806
136	0x3be6c5ad	0.0070426078
137	0xbb400f1e	-0.0029305886
138	0xbb24d3ab	-0.0025150578
139	0x3a370248	0.0006981236
140	0xbc2551e8	-0.010090329
141	0x3bbc88cc	0.005753612
142	0x3bc960b3	0.0061455606
143	0x3b058b0f	0.0020377075
144	0x3c3d5d27	0.011557854
145	0x3a6cf578	0.0009039263
146	0xb9a423ee	-0.00031307287
147	0x39932497	0.00028065286
148	0xbc4b297b	-0.012400026
149	0xbb2b0bd8	-0.0026099589
150	0xbb30d9cd	-0.0026985288
151	0xbb34bf88	-0.0027579982
152	0xbbb8255f	-0.0056196894
153	0xbb883dec	-0.0041577723
154	0xbb9b553b	-0.004740385
155	0x3a64feab	0.0008735458
156	0xbbf32453	-0.0074201017
157	0xb91e4824	-0.00015094929
158	0xb9c1d482	-0.0003697016
159	0x3b9b2dca	0.004735683
160	0xb99af6b3	-0.00029556974
161	0x3ba1202f	0.0049171667
162	0xba1e31c9	-0.000603464
163	0xbc176360	-0.009240001
164	0xbae190d7	-0.0017209303
165	0x3ba11bea	0.0049166577
166	0xbbda61df	-0.006664499
167	0x3b72b9dd	0.0037037053
168	0xbbd7e8a3	-0.0065890118
169	0xb8af7325	-8.3660976e-05
170	0x3c76c317	0.0150611615
171	0x3b8577ad	0.0040731044
172	0x39d92cd3	0.00041422862
173	0xbbba8c70	-0.005693011
174	0x3b26e6e3	0.002546721
175	0xbbc2931a	-0.005937946
176	0x3aee855d	0.0018197704
177	0xbb3b9cf2	-0.0028627482
178	0x3c1fdfc1	0.009757937
179	0x3ac0101f	0.0014653242
180	0xbae86248	-0.0017729485
181	0xbc45f56d	-0.01208244
182	0x3b3c20bd	0.0028706037
183	0x3a4b7543	0.0007761309
184	0x3a58855a	0.0008259617
185	0x3a61aac5	0.00086085155
186	0xbaecf6d7	-0.0018078935
187	0xbc0b94d7	-0.008519373
188	0x3a82070f	0.0009920317
189	0xbab4b034	-0.0013785423
190	0x3b4c8fa3	0.0031213544
191	0xbbc65eeb	-0.0060537956
192	0x3b08be05	0.0020865214
193	0x3ab3ce29	0.0013718057
194	0x3b5c9b93	0.0033662065
195	0x3bbb4986	0.005715552
196	0xbab37f90	-0.0013694633
197	0x3a9bde34	0.0011891783
198	0xbb789083	-0.0037927933
199	0xbb03ddfa	-0.0020121322
200	0xbb67be83	-0.0035361357
201	0xbc502800	-0.012704849
202	0x3b978dfb	0.0046250797
203	0xbacfee8a	-0.0015863937
204	0x3b587cd0	0.0033033378
205	0x3c5a0ffa	0.013309473
206	0xbab991f4	-0.0014157877
207	0xbaef3193	-0.0018249027
208	0xba403166	-0.00073315797
209	0xbb7b912d	-0.0038386092
210	0xba4041b1	-0.00073340075
211	0xbc0190ca	-0.007908056
212	0xbb84be5c	-0.004051013
213	0xbc0618db	-0.008184637
214	0xbb724c18	-0.0036971625
215	0xbb5d7195	-0.0033789624
216	0xbb9c30ff	-0.004766583
217	0x3bd51633	0.0065028905
218	0xbc307729	-0.0107705975
219	0x3c553262	0.0130125005
220	0x3b49bfbb	0.0030784446
221	0x3a8982af	0.0010491217
222	0xbad92cdf	-0.0016569159
223	0x3bb9939f	0.0056633498
224	0xb9971373	-0.00028815455
225	0xbc1efcce	-0.009703828
226	0x3bbdb21b	0.005789054
227	0x3b0e1d89	0.0021685085
228	0xbade3b87	-0.0016954996
229	0xbbaff0e5	-0.005369293
230	0xbafa9393	-0.0019117467
231	0x3b2c945e	0.002633355
232	0xbb382342	-0.0028097187
233	0x3ad29d72	0.0016068651
234	0xbb936cf1	-0.004499071
235	0xbaea685d	-0.0017883886
236	0x3c404a64	0.011736486
237	0x3b4627d7	0.0030236149
238	0xbc070803	-0.008241656
239	0xbc675e9d	-0.014121679
240	0xbbb07242	-0.0053847143
241	0xbba66e99	-0.0050791022
242	0xb993da43	-0.00028200643
243	0xbb97e3cd	-0.0046353103
244	0x3bcebfe5	0.0063094967
245	0x3ba98824	0.0051737
246	0xbb2d6f2e	-0.0026463973
247	0x3bd9eefa	0.0066508027
248	0x3ac529f9	0.0015042416
249	0x3c056079	0.008140677
250	0x3b217d06	0.002464117
251	0xbbd50485	-0.006500783
252	0xbc0f1ec1	-0.00873536
253	0x3c02ff63	0.007995459
254	0x3c92f3eb	0.017938575
255	0xbbedc228	-0.0072558112

action_model._discrete_distribution.branches.2.bias f4 [2]
0	0x00000000	0.0
1	0x00000000	0.0

action_model._discrete_distribution.branches.2.weight f4 [2, 256]
0	0xbc14927b	-0.009068127
1	0x3c063bae	0.00819294
2	0x3b8f5700	0.004374385
3	0x3c3fa44b	0.011696885
4	0x3bccc3a7	0.0062489095
5	0x3aa80b24	0.0012820703
6	0x3b2de28b	0.0026532735
7	0xba7b9d7f	-0.0009598359
8	0x3a7b3617	0.000958295
9	0x3ac3406c	0.0014896519
10	0x3be1cddd	0.006890996
11	0x3b1810fd	0.0023203485
12	0xbbf5a018	-0.0074958913
13	0xbafc38ca	-0.0019242999
14	0xbb56e420	-0.0032789782
15	0x3adc82a0	0.0016823597
16	0x3a9d17b8	0.0011985218
17	0x3a9c7455	0.0011936525
18	0xbbf8dcd2	-0.007594683
19	0x3a8c8dd6	0.0010723423
20	0xba94554c	-0.0011316924
21	0xbbaf755e	-0.0053545674
22	0xbb40b060	-0.0029402003
23	0x3b9c1fab	0.0047645173
24	0xbc2b2ec4	-0.0104481615
25	0x39a9d7e5	0.00032395046
26	0xbc0670b7	-0.008205584
27	0x3b02eb1f	0.001997657
28	0xbbdc2852	-0.0067186737
29	0x3b9c95c5	0.004778596
30	0x3bde50fa	0.0067845555
31	0x3b900353	0.0043949275
32	0xb87c8fa2	-6.021525e-05
33	0xbbebda4a	-0.007197653
34	0x3b5e3687	0.0033907013
35	0xbb4ed967	-0.0031562687
36	0xbbd4e020	-0.0064964443
37	0x3a13ad2c	0.00056334096
38	0xba585153	-0.00082518643
39	0x3b7806c5	0.0037845832
40	0x390a60df	0.00013196793
41	0x3bfb4392	0.007667967
42	0xbc037395	-0.008023162
43	0xbb8ac685	-0.004235091
44	0x3b558007	0.003257753
45	0xbad54b40	-0.0016273037
46	0xbb160da1	-0.0022896307
47	0x3b042263	0.0020162098
48	0x3b51c2dd	0.0032007017
49	0xba08bb67	-0.00052159134
50	0x3a57afab	0.00082277757
51	0xbadbf25b	-0.0016780602
52	0xbb8bb527	-0.0042635384
53	0x3b96621c	0.0045893323
54	0xbb9694d2	-0.0045953775
55	0xbb9bc07b	-0.00475317
56	0xbbda54f5	-0.0066629597
57	0x3b44c728	0.0030025933
58	0xbbe2735f	-0.006910726
59	0xbab5339a	-0.0013824583
60	0x3c160027	0.00915531
61	0x3ab8e703	0.0014106933
62	0xbb63d9c5	-0.0034767252
63	0x39ae26f7	0.00033216897
64	0xb8b057a2	-8.408657e-05
65	0xbb4e7133	-0.0031500577
66	0x3baecf2f	0.005334757
67	0x3b98900d	0.004655844
68	0xbb64585a	-0.00348427
69	0xbba2028b	-0.004944151
70	0xbb960877	-0.004578646
71	0xbc207cb4	-0.009795357
72	0xba1a3205	-0.0005882087
73	0xbb049f61	-0.0020236599
74	0x3ad41263	0.0016179796
75	0xbb9d357b	-0.004797635
76	0x3b0ee48a	0.00218037
77	0x3be0c682	0.0068596015
78	0x3c556abd	0.013025937
79	0xbc5f2ccb	-0.013621519
80	0x3b990ab7	0.0046704668
81	0xbb94161f	-0.0045192386
82	0xbc28627b	-0.010277386
83	0x3bf66ce5	0.0075203055
84	0xbba5889b	-0.005051685
85	0xbb0f51eb	-0.0021868895
86	0xbb4f7e4f	-0.003166098
87	0x39883b12	0.00025983952
88	0xbc0e0863	-0.008668992
89	0x3bb0c829	0.0053949547
90	0x3c0455e6	0.00807712
91	0x3b8a7bcf	0.004226185
92	0x3b775cb3	0.0037744462
93	0xbb0d2692	-0.0021537882
94	0x3be9f5a7	0.0071398797
95	0x3aba5891	0.0014217069
96	0x3b50cf23	0.0031861744
97	0x3b0851d7	0.0020800733
98	0xbbecdcd2	-0.0072284723
99	0xbbb62f71	-0.0055598547
100	0x3c0e6124	0.008690152
101	0xbb2b14b3	-0.0026104867
102	0xbb1fd6f7	-0.0024389604
103	0xbaa5edeb	-0.0012659406
104	0x3bd7be77	0.0065839845
105	0xbaf86953	-0.0018952288
106	0xbbc2268b	-0.005925005
107	0x3a1ef10f	0.0006063142
108	0xbc16846f	-0.009186848
109	0x3b3c3cd3	0.0028722777
110	0xb9b290cc	-0.00034058688
111	0xbb524db5	-0.0032089774
112	0x3c617207	0.013760096
113	0xbbed9e30	-0.0072515234
114	0xb91b41fd	-0.00014806534
115	0xbc135add	-0.008993831
116	0xb92e27d0	-0.00016608764
117	0x3b1cc11a	0.0023918808
118	0x3bf1c6f8	0.0073784553
119	0xba821362	-0.000992399
120	0x3b2dc08e	0.0026512477
121	0xbb9850c1	-0.0046482985
122	0xbb85a025	-0.0040779286
123	0x3b7b05c3	0.0038302995
124	0xbc90f459	-0.017694639
125	0xbbf7395f	-0.007544681
126	0x3bd18773	0.0063943206
127	0x3bf96560	0.007610962
128	0xba1af7cc	-0.00059115584
129	0x3bf864d8	0.007580381
130	0xbba6963b	-0.005083827
131	0xbc37c7fe	-0.011217115
132	0xbb592fe2	-0.0033140113
133	0xbb9cfc67	-0.004790831
134	0x3b48bc0b	0.003062966
135	0xbacdd4d7	-0.001570369
136	0xbc08435c	-0.008316841
137	0xbb889a3b	-0.0041687763
138	0xbc501ee2	-0.012702676
139	0xbb246e31	-0.0025090093
140	0xbc8311d5	-0.015999714
141	0x3adb9b32	0.0016754626
142	0x3ae2eeff	0.0017313658
143	0x3bed9733	0.0072506904
144	0xbbe71a6f	-0.0070527117
145	0x3bc199f3	0.0059082448
146	0x3ab2f291	0.0013652613
147	0xbbad622b	-0.0052912435
148	0xbbfeea95	-0.007779429
149	0x3c0c822f	0.00857596
150	0x3c408bcb	0.011752079
151	0x3c5a2850	0.013315275
152	0x3a1ed572	0.00060590275
153	0x3b0b44e3	0.0021250776
154	0x3b9af45f	0.0047288383
155	0xbc181600	-0.009282589
156	0x39cd2a8f	0.00039132356
157	0xbc6a2e9f	-0.014293342
158	0x39a26625	0.00030975151
159	0x3afd4ff5	0.0019326197
160	0xb9abb711	-0.00032752057
161	0xbc196253	-0.009361821
162	0xbb0399e3	-0.0020080737
163	0x3b980052	0.00463871
164	0x3a81e771	0.0009910894
165	0x3ba5bf60	0.005058214
166	0x3bd4efbd	0.0064983056
167	0xbb2d9ddf	-0.0026491804
168	0x3ac6d0b1	0.0015168396
169	0xb989a25b	-0.0002625164
170	0xbadb1ff5	-0.0016717898
171	0x3bcf4c85	0.0063262605
172	0x3a0e67d7	0.00054323435
173	0x3c509248	0.012730189
174	0x3bad489f	0.005288198
175	0x3c144174	0.009048808
176	0x3c0531b4	0.008129526
177	0x3b99fa51	0.0046990295
178	0x3b454cb7	0.003010554
179	0x3c06f45f	0.008236974
180	0x3bb6cfe7	0.005578983
181	0x3b8f375b	0.0043706126
182	0x3ba0b0ab	0.004903873
183	0xbb52c0a5	-0.0032158282
184	0xbb902f28	-0.0044001527
185	0x3b212873	0.002459076
186	0xbbce50ef	-0.006296269
187	0x3b1eafd7	0.0024213695
188	0xbbcdfccd	-0.0062862397
189	0x3b8de2a3	0.0043299957
190	0xbc2f59eb	-0.01070259
191	0xbb570553	-0.003280957
192	0xbc51fe10	-0.012816921
193	0xbb8f191a	-0.004367006
194	0xbba6b4b8	-0.0050874613
195	0x3c0ab562	0.008466097
196	0xbada4577	-0.0016652782
197	0xbb139eec	-0.0022525145
198	0xbb88abec	-0.0041708853
199	0x3c62f2b0	0.0138518065
200	0x3b12ef09	0.0022420308
201	0x3c1c7baf	0.009550973
202	0xbbe977eb	-0.007124891
203	0xbaa865fa	-0.0012847774
204	0xbb958e8b	-0.0045641116
205	0xb95365df	-0.00020160478
206	0xb98621f8	-0.0002558378
207	0x3b047992	0.0020214063
208	0xbab5431c	-0.0013829204
209	0xba840489	-0.0010072152
210	0xbc4c2501	-0.012459994
211	0x3befe532	0.0073210234
212	0x3bc72752	0.0060776854
213	0xbb54f0f2	-0.0032492247
214	0x3b9092eb	0.0044120452
215	0xba26e85a	-0.00063670205
216	0x3b3b85af	0.0028613617
217	0x3bc65b94	0.0060533974
218	0xbb4ad50c	-0.003094974
219	0xbb0f3e7b	-0.002185731
220	0x3c078a75	0.008272757
221	0xbcafbca4	-0.021452256
222	0x3c35c6e7	0.011094785
223	0xba610baa	-0.0008584807
224	0xbb26bab1	-0.0025440867
225	0xbc13c2ec	-0.009018641
226	0xba273044	-0.00063777366
227	0x3b52af05	0.0032147777
228	0xbbaa7927	-0.0052024308
229	0x3b5d41fd	0.0033761256
230	0x3b96be22	0.0046003023
231	0x3be89c5a	0.0070987167
232	0xbbc0a70c	-0.0058792885
233	0x3bde4ec8	0.006784294
234	0x3bcc469c	0.006234003
235	0xba321250	-0.000679289
236	0x3b17de48	0.0023173261
237	0xbb81031a	-0.0039371373
238	0x3ab33e08	0.0013675103
239	0xbc094c23	-0.008379969
240	0x3a49f89f	0.0007704589
241	0xbbc83e26	-0.0061109243
242	0xbbb12c13	-0.0054068654
243	0x3c0b10a1	0.008487851
244	0x3bb59aba	0.0055421265
245	0x3c0acf71	0.008472309
246	0xbbdb8a38	-0.0066998266
247	0x3c3c9e96	0.011512419
248	0x3c43027b	0.011902447
249	0x3bc85f53	0.006114879
250	0xbb4a368f	-0.0030855273
251	0xbb2023f6	-0.0024435497
252	0xbc696b9b	-0.014246847
253	0xbb575760	-0.0032858476
254	0x3b8635a7	0.0040957513
255	0x3b0e3fe4	0.0021705562

action_model._discrete_distribution.branches.3.bias f4 [2]
0	0x00000000	0.0
1	0x00000000	0.0

action_model._discrete_distribution.branches.3.weight f4 [2, 256]
0	0xbb023cbe	-0.001987263
1	0x3bddd840	0.006770164
2	0xbba0d6fb	-0.00490844
3	0x3b5f8560	0.0034106597
4	0xba9b3c63	-0.0011843558
5	0xbc2ee7da	-0.010675395
6	0xba0c3e31	-0.00053498434
7	0x3b1271d9	0.002234569
8	0xbb5f513d	-0.0034075521
9	0xba8150ca	-0.0009865996
10	0xbb6e84dd	-0.003639511
11	0xbc887d0f	-0.016661195
12	0x3b96b016	0.004598628
13	0x3b9c8954	0.004777113
14	0x3bef6b93	0.007306525
15	0xbaeda9ed	-0.0018132307
16	0xbbf86c07	-0.0075812372
17	0x3bfa3f60	0.0076369494
18	0x3b58deab	0.0033091705
19	0xba9b40dc	-0.0011844891
20	0x3ba01b57	0.0048860717
21	0x3b4a9e2f	0.0030917039
22	0xbbba0b0a	-0.0056775855
23	0xbbe32e8f	-0.0069330405
24	0xba39a63f	-0.00070819625
25	0xbbb1f477	-0.005430754
26	0x39c47237	0.0003746913
27	0x3b9c5e00	0.004771948
28	0x3bfc8858	0.007706683
29	0x3ad9e28b	0.0016623301
30	0x3b0840fc	0.0020790687
31	0x3b55883a	0.0032582418
32	0x3b268e2c	0.002541433
33	0x3bd3312f	0.006445072
34	0x3c29ba15	0.010359307
35	0x39fb4fe2	0.00047933968
36	0xbc809cfb	-0.015699854
37	0xbc0f92e8	-0.0087630525
38	0xbbba59ab	-0.005686959
39	0xbc42a9d2	-0.011881309
40	0x3c55751d	0.01302841
41	0xbbafe82c	-0.005368253
42	0x3b2cb128	0.002635071
43	0x3c13b225	0.009014641
44	0xbace323f	-0.0015731527
45	0xb959c305	-0.00020767383
46	0x3a507122	0.00079514284
47	0x3c138bcf	0.009005501
48	0x3c0632ba	0.008190805
49	0x3b848d4b	0.0040451637
50	0xbbc6a6f3	-0.0060623824
51	0x3be3d66f	0.0069530527
52	0x3b290fff	0.0025796888
53	0xbb00e922	-0.0019670208
54	0xbbc54293	-0.006019899
55	0x3b7fd83a	0.0039038793
56	0x3c533090	0.012889996
57	0x3a97341a	0.0011535913
58	0xbb8e2425	-0.004337805
59	0xbb156df6	-0.0022801138
60	0x3c1c9a60	0.00955829
61	0x3aeeda90	0.0018223096
62	0xba10483b	-0.0005503927
63	0xba5557ad	-0.000813837
64	0xbb50fbbb	-0.0031888324
65	0xbb877bba	-0.0041346224
66	0xbc0c29b2	-0.008554863
67	0xb9e88292	-0.0004434777
68	0x3bb695b8	0.005572047
69	0xba9d85b8	-0.0012018001
70	0x3b01c716	0.0019802502
71	0x383edc2a	4.5504574e-05
72	0x3a971210	0.0011525769
73	0x3b7a56e3	0.0038198761
74	0xb92dc6ab	-0.00016572575
75	0xba3f59f7	-0.00072994776
76	0x3c0e916d	0.008701664
77	0xbaa7806c	-0.0012779362
78	0xbb7dd0ad	-0.0038729117
79	0x3c1fa437	0.009743742
80	0x3a92a4a5	0.0011187984
81	0x3b95282b	0.0045519075
82	0x3c047b90	0.0080861
83	0xbbfc0782	-0.0076913247
84	0x3abbceb3	0.0014328569
85	0xbab2026b	-0.0013581043
86	0xbc1ceec2	-0.009578409
87	0xbb5802b3	-0.0032960593
88	0x3a4f5ebf	0.00079105416
89	0x3b5c3c5f	0.003360532
90	0x3bb118df	0.005404576
91	0xba2b2e60	-0.0006530043
92	0x3b29b96c	0.0025897874
93	0x3a2cc6ff	0.0006590932
94	0xbc043293	-0.008068698
95	0xbbcbd8f2	-0.0062209303
96	0x3b706553	0.0036681488
97	0xbb8e1d17	-0.004336964
98	0x3c2b57ce	0.010457946
99	0xbacacc4a	-0.001547226
100	0x3bbcbf4b	0.0057601086
101	0xba8d8bf2	-0.0010799153
102	0xbbb5dfd2	-0.005550363
103	0xbc1eff8d	-0.009704483
104	0xbb9a78ed	-0.0047141225
105	0x3c535d8d	0.012900722
106	0xbc125e38	-0.008933596
107	0xbbbee312	-0.0058254087
108	0x3c2a5bc7	0.010397858
109	0xbb27cfc7	-0.0025606023
110	0xba8135ec	-0.0009857989
111	0x3a86d637	0.001028723
112	0xbb97440b	-0.0046162657
113	0x3bad25e8	0.00528406
114	0x3b87f6af	0.00414928
115	0x3b2de4d8	0.0026534107
116	0xbbb3306f	-0.00546842
117	0x3a3a216a	0.0007100316
118	0x3b7c7c0a	0.0038526081
119	0x3bfd05a3	0.007721619
120	0x3b435087	0.0029802637
121	0x3ba2f6df	0.004973277
122	0xbb3b2154	-0.00285538
123	0x3c0cb88a	0.008588919
124	0xbbf0de7a	-0.00735074
125	0x3ab4f87f	0.0013806968
126	0xbb032133	-0.0020008802
127	0x3bd2045a	0.00640921
128	0x3b576da3	0.0032871745
129	0x3b683d13	0.0035436794
130	0xbbbe908c	-0.005815571
131	0xbb530d8b	-0.0032204117
132	0x3b628e42	0.0034569656
133	0x3c2043fe	0.009781836
134	0xbbad759b	-0.0052935607
135	0x3a32a741	0.0006815084
136	0x3b36d53e	0.0027898098
137	0x3c382602	0.0112395305
138	0xbbb329bc	-0.0054676216
139	0x3b67c847	0.0035367177
140	0x3c1c1421	0.0095262835
141	0xbb81e60a	-0.0039641904
142	0xbc0f53bb	-0.00874799
143	0xba32d082	-0.0006821231
144	0x3c1291d3	0.0089459
145	0xba40a328	-0.0007348531
146	0xbb3b12c7	-0.0028545128
147	0xbc1296a3	-0.008947047
148	0x3b92eb5a	0.0044836225
149	0x3b61a902	0.0034433012
150	0x3b4395b3	0.0029843866
151	0xbbefedb5	-0.007322038
152	0x38b92f8c	8.830344e-05
153	0xbc37d2b3	-0.011219668
154	0x3ab798bf	0.0014007314
155	0xbb1cee72	-0.0023945835
156	0x39ddb800	0.00042289495
157	0xbbc7727a	-0.0060866447
158	0xbb9f1544	-0.00485483
159	0xbb4072ec	-0.0029365374
160	0x39a1bdf2	0.00030849833
161	0xbb7dec2b	-0.0038745503
162	0x3b65a343	0.0035039939
163	0xbc797987	-0.015226728
164	0xbaafdddf	-0.0013417563
165	0x3b474309	0.0030404946
166	0x3bdacaf7	0.0066770273
167	0x3ae10423	0.001716737
168	0xbb2dad6f	-0.002650108
169	0xbb483ab0	-0.0030552559
170	0x3c147a36	0.0090623405
171	0xbc0c031f	-0.008545666
172	0x3be227eb	0.0069017312
173	0x3be965da	0.0071227374
174	0x3b5d2cc3	0.0033748604
175	0xbbfb8e13	-0.0076768487
176	0x3a858977	0.0010188062
177	0x3bca1e87	0.00616819
178	0xba03c33f	-0.00050263474
179	0xbc575120	-0.0131419
180	0xbb3d9dca	-0.002893316
181	0x39faa8ad	0.0004780939
182	0xbb9591ab	-0.004564484
183	0x3aaef3ab	0.0013347765
184	0xbb0a5723	-0.0021109066
185	0xbbfd92bb	-0.007738439
186	0xbc033f6b	-0.0080107255
187	0x3b16adfd	0.0022991889
188	0xbb8e96ff	-0.004351496
189	0xbc55a095	-0.013038774
190	0xbb4613ef	-0.0030224284
191	0xbbd77d3f	-0.00657621
192	0x3bc622aa	0.0060466127
193	0xbb4d2415	-0.0031302024
194	0xbbe6afab	-0.007039984
195	0xba84bef0	-0.0010127705
196	0xbb161003	-0.0022897727
197	0x3bb5d1f3	0.0055487095
198	0x3c17da81	0.009268404
199	0x3afb5098	0.0019173799
200	0xbb06100f	-0.002045635
201	0xbbf4ba00	-0.007468462
202	0xb6c45a0e	-5.851739e-06
203	0xbba7af84	-0.0051173586
204	0xbb1986ed	-0.002342637
205	0x3a2ab997	0.00065126404
206	0xba1e89a2	-0.00060477306
207	0x3c083ac1	0.008314789
208	0xbac091d7	-0.0014691901
209	0x3bb746ba	0.005593148
210	0x38c01fc6	9.161192e-05
211	0x3c023779	0.007947796
212	0xbb563382	-0.003268451
213	0xbc2349c7	-0.00996632
214	0xbc19f38f	-0.009396448
215	0xbb05c7d8	-0.0020413306
216	0x3c9af6db	0.018916538
217	0x3c0fee53	0.008784848
218	0xbbb2dbcb	-0.0054583303
219	0x3b98ff98	0.004669141
220	0xbb1e3bc7	-0.0024144517
221	0xbbb2b163	-0.005453275
222	0x3c144563	0.009049746
223	0x3b90cd19	0.004418981
224	0x3a63394f	0.00086679024
225	0x3c408313	0.0117500005
226	0x3a1e88af	0.0006047589
227	0xbbbebf8e	-0.005821175
228	0x3bcc69fc	0.0062382203
229	0x3b8a607b	0.004222927
230	0x3b09a961	0.0021005499
231	0xbb282ad3	-0.002566029
232	0x3bbba8e2	0.0057269195
233	0x3c32b82c	0.010908168
234	0x3a1c06ff	0.000595197
235	0xbc87e47b	-0.01658844
236	0x3ac0f228	0.0014720606
237	0xbbc3557c	-0.0059611183
238	0x3ba5c3f7	0.005058761
239	0x3b6d0d42	0.0036171232
240	0x3bc84fd0	0.00611303
241	0xbad46c6a	-0.0016206626
242	0x3a023552	0.0004967052
243	0xbb0af487	-0.0021202879
244	0xbb9b9486	-0.00474793
245	0x3bff1a6f	0.0077851336
246	0x3afb40ab	0.0019169053
247	0x3ab94bb7	0.0014136945
248	0x3c3650a8	0.011127628
249	0x3b743bcd	0.003726709
250	0xba1ec08d	-0.0006055914
251	0xbb8937c0	-0.004187554
252	0xbb4e3030	-0.0031461827
253	0xbc4022ef	-0.011727079
254	0xbbac2b1f	-0.005254164
255	0x3b3b3a7f	0.0028568802

action_model._discrete_distribution.branches.4.bias f4 [2]
0	0x00000000	0.0
1	0x00000000	0.0

action_model._discrete_distribution.branches.4.weight f4 [2, 256]
0	0xbaee12b5	-0.0018163534
1	0xbbef1bc3	-0.0072970106
2	0x39d327ba	0.00040274655
3	0xbb91fe43	-0.004455359
4	0x3b69443d	0.0035593652
5	0x3bfec8af	0.007775388
6	0x3c70a7eb	0.014688472
7	0xbacbd955	-0.0015552441
8	0xb999a028	-0.0002930176
9	0xbae561d0	-0.0017500464
10	0xbc0d5a37	-0.008627466
11	0xbc17d53c	-0.009267148
12	0xbbb11303	-0.0054038777
13	0xbbd86bf2	-0.006604665
14	0x3b0ad933	0.002118659
15	0x3a67db63	0.0008844642
16	0x3a3c1f89	0.000717633
17	0x3af2fdea	0.0018538807
18	0x3ab58063	0.0013847466
19	0x3b14ec4b	0.002272385
20	0xbabe0abf	-0.0014499052
21	0x3b5a575a	0.0033316226
22	0x3b829314	0.0039848182
23	0x3bb797cb	0.005602812
24	0xbae9db55	-0.0017841855
25	0xbb0743df	-0.002063982
26	0xb90e0031	-0.00013542247
27	0xbbccd2d2	-0.0062507177
28	0xbc21fd7a	-0.009887094
29	0xbc4c0ba8	-0.012453951
30	0x3c12947b	0.008946533
31	0x3ba405a3	0.0050055548
32	0xba0f50cb	-0.0005467056
33	0xbc14f036	-0.009090474
34	0xbb693692	-0.0035585505
35	0xbb129c95	-0.0022371162
36	0x3bc07d83	0.005874337
37	0x3b6c686f	0.003607299
38	0x3ab6cbf1	0.0013946277
39	0x3c642e0b	0.013926993
40	0xbb9f1eb1	-0.0048559536
41	0xbc5a8a28	-0.013338603
42	0x3be68dfa	0.007035968
43	0xbafb19ff	-0.0019157528
44	0xba4b03fb	-0.00077444286
45	0xbbaf68d3	-0.005353072
46	0x3c3fe9f6	0.0117134955
47	0xba0990cb	-0.0005247711
48	0x3b6c6e17	0.003607636
49	0x3ac918fb	0.0015342528
50	0xbb18f85a	-0.0023341388
51	0x3c46006b	0.012085061
52	0xbc04e343	-0.008110824
53	0x399cb951	0.0002989271
54	0xbb3e8e7e	-0.0029076631
55	0xbab1b1e8	-0.0013557049
56	0xbc39dcac	-0.011344116
57	0x3bbc9f0f	0.005756266
58	0x3ae56973	0.001750274
59	0x3b2c7aad	0.0026318238
60	0x3bb2218f	0.0054361294
61	0xbbc9ba46	-0.0061562387
62	0xbb055242	-0.002034322
63	0x3bfa377b	0.0076360083
64	0xbbf31ef7	-0.007419463
65	0x3a81399c	0.0009859088
66	0xbba0dca9	-0.0049091172
67	0xbc14009c	-0.009033348
68	0x3c072f83	0.008251074
69	0x3c831c40	0.016004682
70	0xba0ba832	-0.0005327492
71	0xba8ae747	-0.001059749
72	0x38df9795	0.00010661703
73	0xbb9283bf	-0.0044712718
74	0xba070f94	-0.00051521626
75	0xba88c916	-0.0010435905
76	0x3b2bb3d3	0.0026199713
77	0xbb9b434f	-0.0047382484
78	0x3c4927cb	0.012277554
79	0x3bb6079f	0.0055551077
80	0xbafef640	-0.001945205
81	0x3baded2c	0.005307814
82	0xb952cb2d	-0.0002010285
83	0xbb2764ba	-0.0025542215
84	0x3b88908f	0.0041676234
85	0x3b867dfd	0.0041043744
86	0x3babce12	0.0052430714
87	0x3bbe4b15	0.0058072903
88	0x3c1326d6	0.008981427
89	0xbb890476	-0.00418144
90	0x3badf443	0.0053086593
91	0xbc27ad0d	-0.01023413
92	0x3c37e4a7	0.011223949
93	0xb944f857	-0.0001878453
94	0x3ada4bed	0.0016654708
95	0x3c61b54b	0.013776134
96	0xbbfe64cb	-0.0077634803
97	0xbbb80f30	-0.005617045
98	0x3c133050	0.008983687
99	0x3bc148c0	0.005898565
100	0x3ac15789	0.0014750819
101	0x3bb98fd6	0.0056628985
102	0x3b033f2b	0.0020026665
103	0x3c1b0ce3	0.009463522
104	0x3b89532e	0.004190824
105	0xbb6cdfb0	-0.003614407
106	0xbbb4daae	-0.0055192327
107	0x3c3d7b67	0.011565066
108	0xbb2fb6f8	-0.0026811939
109	0x3b179436	0.0023129112
110	0xbc02b79a	-0.007978344
111	0xbbe940ed	-0.0071183355
112	0xba3cb947	-0.00071992393
113	0xbbccb8b3	-0.006247604
114	0x3ace9ad0	0.001576269
115	0xbc20ce7b	-0.009814854
116	0xbb346dbe	-0.0027531232
117	0x3ab1805e	0.0013542285
118	0xbb33359f	-0.0027345193
119	0x3b99b0ec	0.00469028
120	0xbb4f3563	-0.0031617514
121	0x3ac8a3af	0.001530757
122	0xbbb7bd73	-0.005607301
123	0x3b6d3868	0.003619695
124	0xbc237c4e	-0.009978367
125	0x3c18213c	0.009285267
126	0x3c07b317	0.008282444
127	0xb7c31774	-2.3256733e-05
128	0xbb89325b	-0.004186911
129	0x3c2a820f	0.010406985
130	0x3b8aa41e	0.00423099
131	0x3b94c3d2	0.004539945
132	0x3c0e5a0b	0.00868846
133	0xb8c229bb	-9.258414e-05
134	0x39fc5c1a	0.00048133807
135	0x3aa05245	0.001223155
136	0xb88d85b2	-6.7483066e-05
137	0x3c128d2f	0.008944794
138	0xbc07a917	-0.00828006
139	0x3bb6cd09	0.0055786413
140	0xb99459c1	-0.00028295632
141	0xbbe7765f	-0.0070636715
142	0xbb922a0a	-0.004460578
143	0xbc15534b	-0.009114097
144	0xbbf2b0d8	-0.0074063353
145	0xbabe93c4	-0.0014539887
146	0x3b96a5c1	0.004597396
147	0x3c0a3f61	0.008437962
148	0xbac57707	-0.001506538
149	0xbc07a893	-0.008279937
150	0xbaad3264	-0.001321387
151	0x3a86f96f	0.0010297726
152	0xbb349014	-0.0027551698
153	0xbba9cf37	-0.0051821726
154	0xbc44ccff	-0.0120117655
155	0x3b992bff	0.004674434
156	0x3b83e1e5	0.0040247315
157	0x38eaa97d	0.00011189559
158	0x3c153759	0.009107434
159	0x3b5667b3	0.0032715618
160	0x3a7c2652	0.0009618747
161	0xbb8add89	-0.004237835
162	0xbbd559df	-0.0065109576
163	0xbb3873c1	-0.0028145167
164	0x3b8b3b5b	0.004249019
165	0x3c106901	0.008814097
166	0x3c4acf2d	0.012378496
167	0xbaf46f88	-0.0018648962
168	0x3cac503a	0.021034349
169	0x3c15a76f	0.009134158
170	0xbbee9018	-0.007280361
171	0xbb32fc58	-0.0027311053
172	0x3b0e40d5	0.0021706123
173	0xb9943ef0	-0.00028275652
174	0xbc692257	-0.014229379
175	0xbc12237f	-0.008919596
176	0xbb7a7e87	-0.0038222389
177	0xbab2fe4c	-0.0013656109
178	0xbb33b9a6	-0.0027423888
179	0x3c2acfc1	0.010425509
180	0x3a961abf	0.0011452063
181	0x3c055b30	0.008139417
182	0x3c577f12	0.0131528545
183	0x3ba2b5b9	0.0049655107
184	0xbba3a63f	-0.0049941833
185	0x3bb8d20d	0.0056402744
186	0x3912a928	0.0001398666
187	0xbb994112	-0.0046769464
188	0xbc481187	-0.01221121
189	0xbb679155	-0.0035334427
190	0xba5f6450	-0.00085217226
191	0x3c1f1272	0.009708988
192	0x3b28a13f	0.0025730876
193	0xbb9f0dc0	-0.004853934
194	0x3922fe70	0.0001554431
195	0x3ab7fa61	0.0014036411
196	0xbbd8896f	-0.0066081802
197	0xbbe24bc5	-0.006906005
198	0x3a3b0bc3	0.00071352365
199	0x3bf9cedd	0.007623537
200	0xbb494f3d	-0.0030717396
201	0x3bfe0f3d	0.0077532814
202	0xbbce0bd7	-0.0062880325
203	0x3b5f4e00	0.0034073591
204	0x3b107df6	0.0022047735
205	0xbb9ca375	-0.004780228
206	0x3b117318	0.0022193845
207	0x3b3dbb6e	0.0028950828
208	0x3c3c60a3	0.011497649
209	0x3c814df3	0.01578424
210	0xbb91c222	-0.0044481913
211	0x3b25b8f6	0.0025287247
212	0x3b48f37e	0.003066271
213	0xbc679f7d	-0.014137146
214	0xbafea2bd	-0.0019427162
215	0x3a100d43	0.000549514
216	0x3b272484	0.0025503943
217	0xbb90388b	-0.0044012717
218	0xbb2b04bf	-0.0026095358
219	0x3b95fb9b	0.004577113
220	0xbc1051c5	-0.008808558
221	0x3b0679bb	0.0020519334
222	0x3b9b7e14	0.0047452543
223	0x3c014dc4	0.007892076
224	0xb9e6ba35	-0.00044007754
225	0x3b35df84	0.0027751634
226	0xbb95124b	-0.0045493
227	0xbbd24ba2	-0.0064177075
228	0xbb2fcaf8	-0.002682386
229	0x3c78fdf5	0.015197267
230	0xbb5fcd52	-0.003414948
231	0xbbdb97c8	-0.0067014433
232	0xbbad6f1f	-0.0052927877
233	0x3c2aa5a9	0.010415473
234	0x3b80be04	0.0039289016
235	0x3a6407e5	0.0008698686
236	0x3c125a60	0.00893268
237	0xbc21dcbb	-0.009879286
238	0xb874d0bd	-5.8368536e-05
239	0xbb9a7219	-0.0047133085
240	0xbb346c32	-0.002753031
241	0x3b9e687d	0.0048342333
242	0x3bd08262	0.006363199
243	0x3a93df28	0.0011281716
244	0xb9b72cd5	-0.00034937882
245	0x3aeb6a7f	0.0017960815
246	0xbb49b39e	-0.0030777226
247	0x3b96bda3	0.004600243
248	0x3887dadf	6.4780696e-05
249	0x3bc92554	0.006138483
250	0xba57c708	-0.0008231257
251	0x3c1b755b	0.009488429
252	0x3c0335d2	0.008008437
253	0x3b21d75f	0.0024695022
254	0x3b243fed	0.0025062517
255	0x3c8eaf1d	0.017417485

network_body.linear_encoder.seq_layers.0.bias f4 [256]
0	0x00000000	0.0
1	0x00000000	0.0
2	0x00000000	0.0
3	0x00000000	0.0
4	0x00000000	0.0
5	0x00000000	0.0
6	0x00000000	0.0
7	0x00000000	0.0
8	0x00000000	0.0
9	0x00000000	0.0
10	0x00000000	0.0
11	0x00000000	0.0
12	0x00000000	0.0
13	0x00000000	0.0
14	0x00000000	0.0
15	0x00000000	0.0
16	0x00000000	0.0
17	0x00000000	0.0
18	0x00000000	0.0
19	0x00000000	0.0
20	0x00000000	0.0
21	0x00000000	0.0
22	0x00000000	0.0
23	0x00000000	0.0
24	0x00000000	0.0
25	0x00000000	0.0
26	0x00000000	0.0
27	0x00000000	0.0
28	0x00000000	0.0
29	0x00000000	0.0
30	0x00000000	0.0
31	0x00000000	0.0
32	0x00000000	0.0
33	0x00000000	0.0
34	0x00000000	0.0
35	0x00000000	0.0
36	0x00000000	0.0
37	0x00000000	0.0
38	0x00000000	0.0
39	0x00000000	0.0
40	0x00000000	0.0
41	0x00000000	0.0
42	0x00000000	0.0
43	0x00000000	0.0
44	0x00000000	0.0
45	0x00000000	0.0
46	0x00000000	0.0
47	0x00000000	0.0
48	0x00000000	0.0
49	0x00000000	0.0
50	0x00000000	0.0
51	0x00000000	0.0
52	0x00000000	0.0
53	0x00000000	0.0
54	0x00000000	0.0
55	0x00000000	0.0
56	0x00000000	0.0
57	0x00000000	0.0
58	0x00000000	0.0
59	0x00000000	0.0
60	0x00000000	0.0
61	0x00000000	0.0
62	0x00000000	0.0
63	0x00000000	0.0
64	0x00000000	0.0
65	0x00000000	0.0
66	0x00000000	0.0
67	0x00000000	0.0
68	0x00000000	0.0
69	0x00000000	0.0
70	0x00000000	0.0
71	0x00000000	0.0
72	0x00000000	0.0
73	0x00000000	0.0
74	0x00000000	0.0
75	0x00000000	0.0
76	0x00000000	0.0
77	0x00000000	0.0
78	0x00000000	0.0
79	0x00000000	0.0
80	0x00000000	0.0
81	0x00000000	0.0
82	0x00000000	0.0
83	0x00000000	0.0
84	0x00000000	0.0
85	0x00000000	0.0
86	0x00000000	0.0
87	0x00000000	0.0
88	0x00000000	0.0
89	0x00000000	0.0
90	0x00000000	0.0
91	0x00000000	0.0
92	0x00000000	0.0
93	0x00000000	0.0
94	0x00000000	0.0
95	0x00000000	0.0
96	0x00000000	0.0
97	0x00000000	0.0
98	0x00000000	0.0
99	0x00000000	0.0
100	0x00000000	0.0
101	0x00000000	0.0
102	0x00000000	0.0
103	0x00000000	0.0
104	0x00000000	0.0
105	0x00000000	0.0
106	0x00000000	0.0
107	0x00000000	0.0
108	0x00000000	0.0
109	0x00000000	0.0
110	0x00000000	0.0
111	0x00000000	0.0
112	0x00000000	0.0
113	0x00000000	0.0
114	0x00000000	0.0
115	0x00000000	0.0
116	0x00000000	0.0
117	0x00000000	0.0
118	0x00000000	0.0
119	0x00000000	0.0
120	0x00000000	0.0
121	0x00000000	0.0
122	0x00000000	0.0
123	0x00000000	0.0
124	0x00000000	0.0
125	0x00000000	0.0
126	0x00000000	0.0
127	0x00000000	0.0
128	0x00000000	0.0
129	0x00000000	0.0
130	0x00000000	0.0
131	0x00000000	0.0
132	0x00000000	0.0
133	0x00000000	0.0
134	0x00000000	0.0
135	0x00000000	0.0
136	0x00000000	0.0
137	0x00000000	0.0
138	0x00000000	0.0
139	0x00000000	0.0
140	0x00000000	0.0
141	0x00000000	0.0
142	0x00000000	0.0
143	0x00000000	0.0
144	0x00000000	0.0
145	0x00000000	0.0
146	0x00000000	0.0
147	0x00000000	0.0
148	0x00000000	0.0
149	0x00000000	0.0
150	0x00000000	0.0
151	0x00000000	0.0
152	0x00000000	0.0
153	0x00000000	0.0
154	0x00000000	0.0
155	0x00000000	0.0
156	0x00000000	0.0
157	0x00000000	0.0
158	0x00000000	0.0
159	0x00000000	0.0
160	0x00000000	0.0
161	0x00000000	0.0
162	0x00000000	0.0
163	0x00000000	0.0
164	0x00000000	0.0
165	0x00000000	0.0
166	0x00000000	0.0
167	0x00000000	0.0
168	0x00000000	0.0
169	0x00000000	0.0
170	0x00000000	0.0
171	0x00000000	0.0
172	0x00000000	0.0
173	0x00000000	0.0
174	0x00000000	0.0
175	0x00000000	0.0
176	0x00000000	0.0
177	0x00000000	0.0
178	0x00000000	0.0
179	0x00000000	0.0
180	0x00000000	0.0
181	0x00000000	0.0
182	0x00000000	0.0
183	0x00000000	0.0
184	0x00000000	0.0
185	0x00000000	0.0
186	0x00000000	0.0
187	0x00000000	0.0
188	0x00000000	0.0
189	0x00000000	0.0
190	0x00000000	0.0
191	0x00000000	0.0
192	0x00000000	0.0
193	0x00000000	0.0
194	0x00000000	0.0
195	0x00000000	0.0
196	0x00000000	0.0
197	0x00000000	0.0
198	0x00000000	0.0
199	0x00000000	0.0
200	0x00000000	0.0
201	0x00000000	0.0
202	0x00000000	0.0
203	0x00000000	0.0
204	0x00000000	0.0
205	0x00000000	0.0
206	0x00000000	0.0
207	0x00000000	0.0
208	0x00000000	0.0
209	0x00000000	0.0
210	0x00000000	0.0
211	0x00000000	0.0
212	0x00000000	0.0
213	0x00000000	0.0
214	0x00000000	0.0
215	0x00000000	0.0
216	0x00000000	0.0
217	0x00000000	0.0
218	0x00000000	0.0
219	0x00000000	0.0
220	0x00000000	0.0
221	0x00000000	0.0
222	0x00000000	0.0
223	0x00000000	0.0
224	0x00000000	0.0
225	0x00000000	0.0
226	0x00000000	0.0
227	0x00000000	0.0
228	0x00000000	0.0
229	0x00000000	0.0
230	0x00000000	0.0
231	0x00000000	0.0
232	0x00000000	0.0
233	0x00000000	0.0
234	0x00000000	0.0
235	0x00000000	0.0
236	0x00000000	0.0
237	0x00000000	0.0
238	0x00000000	0.0
239	0x00000000	0.0
240	0x00000000	0.0
241	0x00000000	0.0
242	0x00000000	0.0
243	0x00000000	0.0
244	0x00000000	0.0
245	0x00000000	0.0
246	0x00000000	0.0
247	0x00000000	0.0
248	0x00000000	0.0
249	0x00000000	0.0
250	0x00000000	0.0
251	0x00000000	0.0
252	0x00000000	0.0
253	0x00000000	0.0
254	0x00000000	0.0
255	0x00000000	0.0

network_body.linear_encoder.seq_layers.0.weight f4 [256, 69]
0	0xbbc12154	-0.0058938656
1	0x3d151865	0.036400218
2	0x3e6eb08f	0.2330954
3	0xbd5125bd	-0.05106138
4	0x3e19bcd5	0.1501344
5	0x3dc9c638	0.0985226
6	0x3e2ac124	0.1667524
7	0x3d9e73c2	0.07736923
8	0xbc1558b2	-0.009115385
9	0x3d677a8e	0.05651336
10	0xbd982e79	-0.07430739
11	0x3dd04049	0.101685114
12	0x3e4fdc70	0.20298934
13	0xbc7ca4f6	-0.015420189
14	0x3ddfc074	0.109253794
15	0x3e5df094	0.21673805
16	0xbddf2766	-0.108961865
17	0xbde5e081	-0.11224461
18	0x3e0ee03e	0.13952729
19	0xbd0bf312	-0.034167357
20	0x3d6c2dc6	0.05766084
21	0x3e0fb1cd	0.1403267
22	0xbdfbac50	-0.122887254
23	0xbe799b49	-0.24375643
24	0xb7ac0590	-2.0506588e-05
25	0xbe07829f	-0.13233422
26	0xbdf4b182	-0.119479194
27	0x3ce13822	0.027492587
28	0x3bf8c533	0.0075918674
29	0xbd92c0b3	-0.07165661
30	0xbd8d13cd	-0.06888542
31	0x3e3715bb	0.17879383
32	0xbd138183	-0.036012184
33	0x3e94d22b	0.29066595
34	0xba4f1cd3	-0.00079007185
35	0x3d8da478	0.069161355
36	0xbdb4051b	-0.08790036
37	0x3d3ae17d	0.0456252
38	0xbe426f8e	-0.18987867
39	0xbd0cee31	-0.034406845
40	0xbe380db4	-0.17973977
41	0x3d578893	0.05262048
42	0x3dd77b66	0.10521583
43	0x3e22de6f	0.15905164
44	0xbd570da3	-0.05250324
45	0xbd5e2c4c	-0.054241464
46	0x3c3c26c3	0.011483851
47	0x3d37f24b	0.044908803
48	0xbe7427ee	-0.23843357
49	0xbe403cba	-0.18773165
50	0xbcc893a7	-0.024484469
51	0xbc9c8a47	-0.019108905
52	0x3e415b9c	0.18882602
53	0x3e686f6e	0.22698757
54	0x3e128676	0.14309105
55	0x3c37897f	0.011202215
56	0xbe2c754b	-0.16841619
57	0xbdfec627	-0.12440138
58	0xbd518bb9	-0.05115864
59	0x3ca2144c	0.019785069
60	0xbc4978c7	-0.012296862
61	0xbdaea22b	-0.08527025
62	0xbce72b3b	-0.028218856
63	0x3da6e94f	0.08149969
64	0xbc5c96bb	-0.013463671
65	0x3e8384dc	0.256873
66	0x3d0800e3	0.03320397
67	0xbe499c3b	-0.19688503
68	0x3d9f379f	0.07774281
69	0xbca9a04f	-0.020706324
70	0xbd6f3521	-0.058400277
71	0x3de55cb7	0.111993246
72	0x3d779840	0.06044793
73	0xbe8906f7	-0.26763126
74	0xbdbfe067	-0.09368973
75	0x3db8ca99	0.090230174
76	0x3d8228fd	0.06355474
77	0x3de11ff8	0.10992426
78	0xbcccb4ef	-0.02498862
79	0xbd8febc4	-0.070273906
80	0xbc24eeba	-0.0100666825
81	0xbd6d8f9b	-0.05799828
82	0x3d365bab	0.044521015
83	0x3e454315	0.19263871
84	0x3cc682fd	0.024232382
85	0x3d840d9f	0.064479105
86	0x3c7091d6	0.0146832075
87	0x3b1140db	0.00221639
88	0x3d8fe3b6	0.07025854
89	0xbe0d13de	-0.1377711
90	0xba093d85	-0.00052353024
91	0x3d91dea9	0.07122547
92	0x3d65f177	0.056138482
93	0x3d8acb50	0.0677706
94	0x3d38555e	0.045003287
95	0x3d1ae6f1	0.0378179
96	0x3ec0fa7d	0.37691107
97	0x3d239d1d	0.039944757
98	0xbcf53890	-0.029934198
99	0xbcb4fc34	-0.022092916
100	0xbce16b31	-0.027516933
101	0xbdd53d01	-0.10412026
102	0x3d056dd6	0.03257545
103	0xbe91a2ca	-0.2844451
104	0x3c8d9ca9	0.017286615
105	0xbdedfd64	-0.11620596
106	0x3c78b4e2	0.015179845
107	0xbd254c06	-0.040355705
108	0xbd13b6c4	-0.03606297
109	0xbb021d59	-0.0019853918
110	0x3df684a4	0.12037018
111	0x3d8897e7	0.06669598
112	0xbe03c916	-0.12869677
113	0xbe1b3a94	-0.15159065
114	0xbe25ff5f	-0.16210698
115	0xbe217718	-0.15768087
116	0xbdf10b17	-0.11769693
117	0x3e1b0494	0.15138465
118	0xbdf679f3	-0.12034979
119	0xbe157493	-0.14595251
120	0xbd1a62d6	-0.037691914
121	0x3e191c3f	0.14952181
122	0x3d819b27	0.06328421
123	0xbd9ba9df	-0.0760076
124	0xbc857f53	-0.016296064
125	0xbdf3e615	-0.11909119
126	0xbd30b760	-0.04314363
127	0xbd83e8d1	-0.064408906
128	0x3d0c425d	0.034242976
129	0xbbf74042	-0.007545502
130	0x3d245160	0.040116668
131	0x3e7a5e4d	0.24450035
132	0x3e65d37b	0.22443955
133	0x3e8d891a	0.27643663
134	0x3e38780a	0.18014541
135	0x3dffc5da	0.12488909
136	0x3c784063	0.01515207
137	0xbe049c16	-0.12950167
138	0xbd427026	-0.047470234
139	0x3e0be001	0.1365967
140	0x3df28bac	0.118430465
141	0xbd499551	-0.049214665
142	0x3d8a76e0	0.06760955
143	0xbe2dfb45	-0.16990383
144	0xbda586ce	-0.080823526
145	0xbcc7063f	-0.02429497
146	0x3bd516fd	0.0065029846
147	0xbde235a8	-0.1104539
148	0x3e3855de	0.18001506
149	0x3d431df3	0.047635984
150	0xbc493672	-0.012281047
151	0xbe03c9ca	-0.12869945
152	0x3e33d835	0.17562945
153	0x3d0d8f0c	0.03456025
154	0x3e120f88	0.14263737
155	0x3d0ab8b5	0.033867557
156	0xbe64782d	-0.22311468
157	0xbe09d034	-0.1345833
158	0x3de334d5	0.11094061
159	0x3d59bc51	0.05315811
160	0x3e0c7bcf	0.13719104
161	0x3d6f6485	0.058445472
162	0xbd5971bd	-0.053086985
163	0x3e37d44b	0.17952077
164	0xbd96dbaf	-0.0736612
165	0xbc0f624f	-0.008751466
166	0xbe5bcbc0	-0.21464443
167	0x3d8afca2	0.06786467
168	0x3e180288	0.14844716
169	0xbd4cf1fb	-0.050035458
170	0x3e4fd5bd	0.20296378
171	0xbbadc5b5	-0.0053031095
172	0xbdffaf36	-0.12484591
173	0xbe403830	-0.18771434
174	0x3e122402	0.14271548
175	0x3c2a90e6	0.010410523
176	0xbc8a334c	-0.016870163
177	0x3d18113b	0.037125807
178	0x3cf495b5	0.029856542
179	0x3b675fcf	0.003530491
180	0x3e6a2b6e	0.2286813
181	0x3e0209bc	0.12699026
182	0xbd35783d	-0.04430412
183	0xbd512d3c	-0.05106853
184	0xbded1a3b	-0.11577269
185	0x3cc4705d	0.02397936
186	0x3cd6225f	0.026139436
187	0xbd958126	-0.07300024
188	0x3dfc55e2	0.12321068
189	0xba91f5d2	-0.0011135882
190	0xbe025517	-0.12727772
191	0xbd1c2ca6	-0.038128518
192	0xbd5ef018	-0.05442819
193	0x3e2981a8	0.16553366
194	0x3d105c9f	0.03524458
195	0xbca8f4f8	-0.020624623
196	0x3e06ce8a	0.13164726
197	0xbe03030d	-0.12794133
198	0x3d874760	0.066054106
199	0xbe045545	-0.12923153
200	0x3d4b8ece	0.049696736
201	0xbd48d306	-0.049029373
202	0x3e8b957c	0.27262485
203	0x3c2a487b	0.010393257
204	0xbca865b5	-0.02055631
205	0xbcc685d0	-0.024233729
206	0xbe524678	-0.20534694
207	0x3e16d120	0.14728212
208	0xbd92b682	-0.07163717
209	0x3de52aee	0.11189829
210	0xbe7063b5	-0.23475535
211	0xbe497fe3	-0.19677691
212	0x3d890c54	0.066918045
213	0x3e22572a	0.15853563
214	0x3d1b0b3b	0.037852507
215	0x3da73833	0.08165016
216	0xbe45a825	-0.19302423
217	0xbdaf4528	-0.085581124
218	0x3d462394	0.048373774
219	0xbd82f7d9	-0.063949294
220	0x3dfc91f7	0.12332528
221	0x3e41e7d3	0.1893609
222	0x3df10045	0.117676295
223	0xbde6cd5e	-0.112696394
224	0xbba342dc	-0.0049823355
225	0xbd8b2cbe	-0.06795643
226	0xbd5e1731	-0.054221336
227	0x3e1581e8	0.14600337
228	0xbe3b7f09	-0.18310179
229	0x3da489d6	0.080341026
230	0xbdf1df95	-0.11810223
231	0x3dee9292	0.1164905
232	0x3e052c72	0.13005236
233	0xbe169d33	-0.14708404
234	0xbe7f390f	-0.2492411
235	0x3e6f4d47	0.23369323
236	0xbdc19ee1	-0.09454132
237	0xbc75b9d3	-0.014997917
238	0x3e942cd0	0.2894044
239	0x3ce22da8	0.027609661
240	0xbd247cd6	-0.040158115
241	0x3dcf58b8	0.10124344
242	0xbcd2e81c	-0.025745444
243	0xbdc79109	-0.0974446
244	0xbe7b7801	-0.24557497
245	0xbd2fa04e	-0.042877488
246	0x3e21e027	0.15808164
247	0x3cafd2d2	0.021462832
248	0x3bc36c31	0.005963825
249	0xbb19303a	-0.0023374693
250	0x3d409862	0.047020324
251	0x3e083c3a	0.13304225
252	0xbe0dfb7d	-0.13865466
253	0xbc875496	-0.016519826
254	0x3a7467ed	0.00093233475
255	0x3e08f944	0.13376337
