MLagents/results/hb_17/Mario/Mario-7435.onnx (onnx, 377673 bytes, 12 tensors)

92 f4 [99]
000000 a0 ff 3d 3c a0 ff 3d 3c a0 ff 3d 3c a0 ff 3d 3c
       0.01159659 0.01159659 0.01159659 0.01159659
000010 05 58 86 3c 05 58 86 3c 41 eb a4 3e 3e 4b 06 3d
       0.016399393 0.016399393 0.32210734 0.0327866
000020 83 a4 b2 3d a0 ff 3d 3c a0 ff 3d 3c a0 ff 3d 3c
       0.08722784 0.01159659 0.01159659 0.01159659
000030 2e 00 a5 3e 3e 4b 06 3d 83 a4 b2 3d a0 ff 3d 3c
       0.322267 0.0327866 0.08722784 0.01159659
000040 a0 ff 3d 3c a0 ff 3d 3c 58 fe ca 3e c9 a5 43 3d
       0.01159659 0.01159659 0.39647174 0.047765527
000050 97 66 8a 3e a0 ff 3d 3c a0 ff 3d 3c a0 ff 3d 3c
       0.27031395 0.01159659 0.01159659 0.01159659
000060 e2 5d d4 3e b5 2a 54 3d fc 31 7a 3e a0 ff 3d 3c
       0.41477877 0.05179854 0.2443313 0.01159659
000070 a0 ff 3d 3c a0 ff 3d 3c 3e 1a e4 3e 16 7e 5e 3d
       0.01159659 0.01159659 0.4455127 0.054319464
000080 c0 a0 d2 3e a0 ff 3d 3c a0 ff 3d 3c a0 ff 3d 3c
       0.41138268 0.01159659 0.01159659 0.01159659
000090 47 9c e8 3e 8e d2 95 3d 8c 3e c8 3e a0 ff 3d 3c
       0.4543173 0.07315551 0.3911022 0.01159659
0000a0 a0 ff 3d 3c a0 ff 3d 3c e7 44 f6 3e 84 a4 b2 3d
       0.01159659 0.01159659 0.48099443 0.08722785
0000b0 16 0f d5 3e a0 ff 3d 3c a0 ff 3d 3c a0 ff 3d 3c
       0.41613072 0.01159659 0.01159659 0.01159659
0000c0 80 c7 fa 3e 7f f2 c9 3d 79 69 c6 3e a0 ff 3d 3c
       0.4898033 0.098607056 0.38752344 0.01159659
0000d0 a0 ff 3d 3c a0 ff 3d 3c a1 ca fe 3e 5d 39 e7 3d
       0.01159659 0.01159659 0.4976397 0.11290238
0000e0 65 f0 bb 3e a0 ff 3d 3c a0 ff 3d 3c a0 ff 3d 3c
       0.36706844 0.01159659 0.01159659 0.01159659
0000f0 88 7e ff 3e e5 be fc 3d 30 b2 b7 3e a0 ff 3d 3c
       0.49901223 0.12341098 0.35878134 0.01159659
000100 a0 ff 3d 3c a0 ff 3d 3c 65 d9 ff 3e 46 08 e6 3d
       0.01159659 0.01159659 0.49970546 0.11232047
000110 bb 9f d7 3e a0 ff 3d 3c a0 ff 3d 3c a0 ff 3d 3c
       0.42114052 0.01159659 0.01159659 0.01159659
000120 67 d9 ff 3e 75 9c 0d 3e d8 31 d8 3e a0 ff 3d 3c
       0.49970552 0.13829215 0.42225528 0.01159659
000130 a0 ff 3d 3c a0 ff 3d 3c c6 fb ff 3e 72 7a f9 3d
       0.01159659 0.01159659 0.49996775 0.12181558
000140 9f 75 d4 3e a0 ff 3d 3c a0 ff 3d 3c a0 ff 3d 3c
       0.41495988 0.01159659 0.01159659 0.01159659
000150 da 5c ff 3e 0d c6 12 3e e6 0b cb 3e a0 ff 3d 3c
       0.49875528 0.14333363 0.39657515 0.01159659
000160 a0 ff 3d 3c a0 ff 3d 3c 05 58 86 3c a0 ff 3d 3c
       0.01159659 0.01159659 0.016399393 0.01159659
000170 a0 ff 3d 3c cb b5 45 3e ae cb 2f 3e a0 ff 3d 3c
       0.01159659 0.1930763 0.17167541 0.01159659
000180 b8 57 86 3c 34 85 73 3c a0 ff 3d 3c
       0.01639925 0.014863301 0.01159659

action_model._discrete_distribution.branches.0.bias f4 [3]
000000 00 00 00 00 00 00 00 00 00 00 00 00
       0.0 0.0 0.0

action_model._discrete_distribution.branches.0.weight f4 [3, 256]
000000 86 5a 48 bb cb c0 cc bb 33 52 dc bb 2e 9e 9c 3b
       -0.0030571534 -0.0062485687 -0.006723666 0.0047795987
000010 3d b5 0b bc 9f 6f f3 bb 83 41 c9 3a 50 ef d1 bb
       -0.008527097 -0.0074290778 0.0015354607 -0.006406702
000020 03 c1 bf 3b 58 ba 2a bb b0 12 4a 3c da 18 22 3c
       0.005851866 -0.002605101 0.012333557 0.00989362
000030 32 c7 4d 3c 53 9d 0e 39 7a ce a6 39 4d b0 d9 bb
       0.012559699 0.00013600783 0.00031815824 -0.006643331
000040 6b e2 6f 3c 44 e3 31 bc 58 57 05 3c af d1 f5 3a
       0.014641385 -0.010857407 0.0081385 0.0018754507
000050 54 ec 96 3b fb 81 1f 3a 60 6f 6d ba 1b 2f 53 ba
       0.004605809 0.0006084737 -0.00090574287 -0.00080560305
000060 68 52 75 3c f0 c4 ec 3b 61 08 cb 3b b0 49 ca bb
       0.01497326 0.007225625 0.006196067 -0.006173335
000070 ab 71 34 bb c7 0d b5 bb 5f 5f 09 3c 70 a3 d6 3a
       -0.0027533572 -0.005525324 0.008384555 0.0016375612
000080 3c 91 93 3b 3f 23 8d 3b df 8c 00 3b 56 1d 02 bc
       0.0045033973 0.00430718 0.0019615216 -0.007941565
000090 56 11 c7 3b 02 64 b2 3b 17 8d 86 3a 3e f7 34 3c
       0.0060750647 0.0054440508 0.0010265437 0.011045275
0000a0 f5 ba dd 38 2c a4 82 38 1b 26 64 3b 7c 61 ba bb
       0.00010572925 6.2294625e-05 0.0034812752 -0.0056878906
0000b0 e7 02 60 bc 5d 30 fa bb 52 b3 8b bb de 6f af bb
       -0.013672567 -0.00763516 -0.00426332 -0.005353912
0000c0 7a 4e d7 b8 0b 5b be 3b 85 c8 e4 bb 10 73 f9 3a
       -0.00010266616 0.005809193 -0.0069819116 0.0019031484
0000d0 e7 f0 26 3c aa 29 87 39 a9 10 31 ba 03 75 a2 3a
       0.0101892715 0.0002578025 -0.0006754497 0.0012394491
0000e0 cb 89 b1 3b d0 d3 4e bc 81 cc 03 3c f0 43 76 3a
       0.0054180375 -0.012623742 0.008044363 0.0009394279
0000f0 bd c6 3a b9 aa 44 2c 3c 3a 2d 71 3b 5b 36 84 3b
       -0.00017812378 0.010514418 0.0036800639 0.0040348
000100 ff 3c 3c 3c 55 25 d6 3a 5b 36 2e 3c bf 94 69 bc
       0.011489152 0.001633803 0.010633077 -0.014256655
000110 f0 4b fe 3b df 3e a4 3a 97 6b 8e 3c fc a6 42 3b
       0.0077605173 0.0012530944 0.017385287 0.0029701581
000120 d7 b4 07 bb 8e 65 4a bc 67 93 11 bb 8f 13 26 3b
       -0.0020707154 -0.012353314 -0.0022213103 0.0025341248
000130 83 59 ff 3b 13 51 37 bb 4e 7c 2b bc 87 d8 46 ba
       0.007792653 -0.0027971908 -0.010466648 -0.00075853657
000140 bf 94 31 3c b9 59 05 bb 4f 02 a7 ba 12 d8 7c bb
       0.0108386865 -0.0020347668 -0.0012741777 -0.0038580936
000150 4b a1 c1 3b 93 58 45 bc 77 aa 05 bc 57 38 f7 3b
       0.00590912 -0.0120450435 -0.008158318 0.007544558
000160 50 40 cd 3b 6f fd 4e bb 6d 5f 6c 3c 1a 06 d2 ba
       0.00626377 -0.0031584164 0.014427048 -0.0016023547
000170 08 db 38 bb 22 75 7b 3b 5b 27 d4 ba 63 fc 4f bb
       -0.0028206725 0.0038369377 -0.0016186045 -0.0031736128
000180 c1 6e ae 3b da b8 f1 3b 62 d3 69 bc a6 84 3d 3b
       0.0053232615 0.0073767724 -0.014271589 0.0028918176
000190 18 81 b8 bb f7 a8 87 3b 42 4b 36 bb e0 6c 82 3b
       -0.0056306235 0.004140015 -0.0027815853 0.003980264
0001a0 d7 63 f2 3a db 29 a9 3b 30 13 e7 3a bc e0 a1 3b
       0.0018492889 0.0051624603 0.001762962 0.0049401205
0001b0 a8 29 2b 3b 8b 5d f7 3b 5f 76 12 ba c6 34 8f ba
       0.0026117358 0.007548993 -0.00055870967 -0.0010925762
0001c0 d5 7c 41 3b cb d8 4a 3b c7 d3 18 bc bb dd 86 ba
       0.0029523869 0.0030951973 -0.009327835 -0.001028947
0001d0 6b a1 ab ba 60 9a b3 3b c3 23 34 bc 13 8c f4 bb
       -0.0013094371 0.0054810494 -0.010994854 -0.007462987
0001e0 1c f2 21 3b b5 65 ac bb 10 a9 6f 3b c7 22 97 3b
       0.0024710959 -0.005261148 0.0036569275 0.0046123
0001f0 5b 72 92 bb 7f 2f 9c 3b e0 ab f1 3b bf fd 8f 3b
       -0.0044691986 0.004766404 0.0073752254 0.0043942626
000200 16 97 42 3c da 9a f6 3b ab 30 ba 3a e7 54 65 bb
       0.011876842 0.007525784 0.0014205178 -0.0034993233
000210 f8 d2 74 3b ae f2 18 bb 6b a5 84 bc fc 0b a3 bb
       0.0037357192 -0.0023338008 -0.016192159 -0.004975794
000220 ab 46 21 bc 11 da a8 3b ef 99 c7 bb a0 1f 2b bb
       -0.009843509 0.0051529487 -0.0060913484 -0.002611138
000230 78 5a 64 3c 4d 6b 07 bc 1b 41 20 ba 03 f5 0a bb
       0.013937585 -0.008265329 -0.0006113217 -0.0021203167
000240 90 85 12 3c 15 fc 93 bb cd b3 f8 ba d4 65 0f 3c
       0.008942977 -0.0045161345 -0.0018974483 0.008752305
000250 80 23 23 3c 5c b7 2c bb c7 2c b2 3b a9 d5 c6 3b
       0.009957194 -0.0026354408 0.005437467 0.0060679507
000260 98 4d 4d bb c2 b6 df ba 1f c0 a9 3b 84 56 bd b9
       -0.0031326767 -0.0017068016 0.0051803733 -0.00036113348
000270 72 ee 05 bc 85 3e 55 bc 8f 08 13 bc da 08 d7 bb
       -0.008174526 -0.013015394 -0.0089742085 -0.0065623345
000280 37 9c 43 ba 2b 3d 82 3b 3f 68 b7 bb c5 75 e9 bb
       -0.00074619375 0.003974577 -0.005597144 -0.007124635
000290 fd dd e4 ba 2f 9e 69 3b d9 9b 8e bb 4d 53 4d 3c
       -0.0017461177 0.0035647263 -0.0043520746 0.0125320675
0002a0 e6 c3 0f bb c5 43 80 3c 7b 9e ff bb de 8a b9 bb
       -0.0021936833 0.015657315 -0.0078008748 -0.005662306
0002b0 54 20 49 ba 43 4f e2 ba 30 a4 dd ba 83 e5 7d 3b
       -0.0007672359 -0.0017266053 -0.0016909894 0.0038741536
0002c0 bd 28 49 bb a9 29 bb 3b d8 dd d1 39 c2 7b 5a bb
       -0.0030694448 0.0057117534 0.00040028873 -0.0033337926
0002d0 df d3 51 38 73 c2 97 b9 93 5a 9d 39 4d 09 06 bc
       5.0026803e-05 -0.0002894584 0.00030012857 -0.008180928
0002e0 32 f0 20 bc 28 07 34 3c f2 a1 54 bb e9 02 42 3b
       -0.009822892 0.010988034 -0.003244516 0.0029603785
0002f0 e5 14 ea 3b 74 48 85 3b 67 28 b6 3b 28 7d 76 39
       0.007143604 0.004067475 0.0055590156 0.00023507013
000300 3f 7b 3d ba d6 d7 be bb cb 45 9c 3a c8 81 83 bb
       -0.0007228143 -0.0058240695 0.0011922655 -0.004013274
000310 d6 84 9e bb bf 69 51 3b 63 61 31 bc 90 16 02 3c
       -0.0048376126 0.0031953899 -0.010826441 0.00793995
000320 73 0d 82 bb c5 41 5e bb 6e 80 8b 3b d4 c9 4b 3b
       -0.0039688884 -0.0033913713 0.0042572534 0.003109564
000330 22 54 49 bb 83 17 b6 3b bc 01 05 3b ff 11 8c 3b
       -0.0030720313 0.005557002 0.0020295223 0.0042746062
000340 0f 97 fd bb 51 06 4a bc 33 ed 1c 3a 35 a8 d8 3b
       -0.007738955 -0.0123306075 0.0005986273 0.0066118487
000350 00 e8 9d ba 1f 41 1f bc 59 dc bd bb 95 fd 78 bc
       -0.0012047291 -0.009720116 -0.0057940898 -0.015197177
000360 cb 84 43 3b 73 29 62 3b fb af 25 bb b9 76 36 3c
       0.002983379 0.003450957 -0.0025281894 0.011136704
000370 ea 00 2e 3c e8 ad d9 bb a0 d4 80 bc f2 b4 ea bb
       0.010620335 -0.0066430457 -0.015726388 -0.0071626836
000380 4b bf cc 3a 44 74 c1 bb 1a d2 34 bb 02 1b a3 3b
       0.0015620975 -0.0059037525 -0.002759105 0.004977585
000390 c3 6a 55 bb 8e ab 4c bb 7d 2b ab bb 93 b9 6b ba
       -0.0032564856 -0.0031230184 -0.00522369 -0.0008992191
0003a0 9f 55 e0 bb 37 e5 e1 b9 ba fc 30 bb 3b 24 b7 3b
       -0.0068461443 -0.00043086123 -0.0027006106 0.005589036
0003b0 33 cc e9 3a 60 35 aa bb 7d 0a e1 3b d5 6c 08 3c
       0.0017837345 -0.005194351 0.0068677054 0.008326729
0003c0 75 c8 36 ba 33 ed 2b 3a 25 cb c6 ba eb e4 35 bc
       -0.00069726194 0.0006558478 -0.0015166743 -0.011101942
0003d0 cb a8 61 3a 49 48 09 bb e3 f6 b0 3b 5e 29 b9 ba
       0.0008608221 -0.0020947626 0.005400525 -0.0014126708
0003e0 43 29 41 bb 36 23 86 3b 89 4e b8 3b 6f e6 8c ba
       -0.0029474057 0.004093553 0.0056245965 -0.0010749827
0003f0 25 18 d2 3b 67 af b4 bb bb b1 80 3b d8 0d d2 3b
       0.0064115697 -0.0055140737 0.003927437 0.0064103417

action_model._discrete_distribution.branches.1.bias f4 [2]
000000 00 00 00 00 00 00 00 00
       0.0 0.0

action_model._discrete_distribution.branches.1.weight f4 [2, 256]
000000 bb d4 94 3b 3f e4 29 bb 5f ba 8d 3b a7 76 4c 3c
       0.004541961 -0.0025923399 0.0043251957 0.012479461
000010 96 71 2e bb ff 5f 43 3c f2 a5 04 b9 1a 96 87 3b
       -0.0026617995 0.011924743 -0.0001265032 0.0041377665
000020 4f 91 1f 3b 85 9f 17 bc 9f 4e 51 3c 28 2c fb 39
       0.0024348085 -0.009254341 0.012775092 0.0004790735
000030 25 78 5f 3b 92 0c a6 3b 9a 30 d7 bb b4 2c 10 bc
       0.0034098711 0.0050674165 -0.006567073 -0.008799721
000040 3f c8 1d 3c 18 55 f9 3b 1b 3e 65 bb d8 cf c7 3a
       0.009630262 0.007609021 -0.0034979645 0.0015244437
000050 b6 3f 8d bb 33 73 4e 3a 2b 06 ca 3a 9e 11 cc 3a
       -0.0043105735 0.00078754424 0.0015413215 0.0015569215
000060 51 43 0c 3c 5a 98 8f 3b 0d e0 4a 3c 5c 79 16 bb
       0.008560971 0.0043821754 0.012382519 -0.002296052
000070 6d 6a 11 bb 54 c7 13 bb 70 ee 63 ba 72 fb 58 3c
       -0.002218868 -0.0022549229 -0.0008694893 0.013243543
000080 d2 2e 7f ba 0d 66 06 bc 5b 91 85 3b 19 6d cc 3b
       -0.0009734455 -0.008203042 0.0040761656 0.0062385914
000090 fe a9 04 bc 51 ac 2b bb c7 30 97 b9 7d 70 5c 3b
       -0.00809717 -0.0026195238 -0.00028837306 0.0033636384
0000a0 af d8 24 bb a8 cf d5 b9 05 52 b7 b9 61 06 47 bb
       -0.0025153568 -0.00040781242 -0.0003496559 -0.0030368792
0000b0 c2 a3 f6 3b 1b dd 6b 3b 37 a3 b2 bb 59 51 9f bb
       0.0075268457 0.0035989943 -0.0054515856 -0.0048619923
0000c0 57 22 ad bb bf 2b 0f bc 88 75 37 bb 57 07 d6 ba
       -0.0052836346 -0.008738457 -0.0027993638 -0.0016329092
0000d0 dd c9 4b 3c 97 7a 90 ba d7 c8 5c bb 0a 76 d6 3a
       0.012438265 -0.0011022863 -0.0033689046 0.0016362083
0000e0 90 d8 69 bb 4e 68 9c bb f0 61 26 3b 14 81 b4 bb
       -0.003568206 -0.0047731763 0.0025387965 -0.0055085514
0000f0 fa 25 18 bc 9b 58 09 3c 5f 49 0a bb fd e6 4b 3c
       -0.009286398 0.008382942 -0.0021100861 0.012445209
000100 6e 99 8c bb 35 db 33 bc 06 7f 9b bb c3 34 11 3c
       -0.004290751 -0.010977556 -0.004745367 0.008862677
000110 7f b2 01 bb f5 72 00 3b 2b 8c 74 3b a6 e4 3b 3c
       -0.001979023 0.001959977 0.0037314992 0.011468088
000120 47 93 5f bb 77 5d 4c 3b 6e 53 2e ba d3 14 06 3c
       -0.0034114884 0.003118364 -0.0006650005 0.008183676
000130 88 98 f0 3b ff 4a 0c bc 19 37 39 bc 7f 9b 2a bb
       0.007342402 -0.008562802 -0.01130464 -0.0026032624
000140 81 38 9b bc 33 0d 8c 3b 1a bc ab 3b 2b 22 8f bb
       -0.018947842 0.0042740344 0.0052409293 -0.004368087
000150 13 d2 1a bb 2a 17 dd 3b f3 58 82 3b 96 36 99 b9
       -0.002362375 0.006747146 0.0039778887 -0.00029223104
000160 03 29 0f ba ee 35 25 3c 8a 2b 55 3b 1b 94 bf bb
       -0.00054611283 0.010083659 0.0032527172 -0.005846513
000170 bb f1 4e 39 5d 97 ee ba 67 ae 28 bb 9b bd fb ba
       0.00019735743 -0.0018203069 -0.0025738718 -0.0019206287
000180 8b b2 b4 3b d2 a0 c1 bb 6f 26 2c bb d0 5f f0 bb
       0.005514448 -0.005909064 -0.0026268025 -0.0073356405
000190 7e fe 10 bc 58 10 59 bc 73 94 07 bc 07 c0 b5 3b
       -0.008849738 -0.013248526 -0.008275139 0.005546573
0001a0 ed e0 c7 3a 17 e7 1a 3c 9e 32 b6 bb 3b 7b 88 3a
       0.0015249528 0.00945451 -0.0055602333 0.0010412702
0001b0 5e 34 26 3c e7 ef 08 bc 0a 55 71 bb 2b ec 39 bb
       0.010144321 -0.008357978 -0.003682437 -0.0028369527
0001c0 8d 1b 24 3c c2 92 da b9 84 c0 16 bc 92 b2 53 bc
       0.010016334 -0.00041689543 -0.009201173 -0.012920992
0001d0 a4 39 ca b9 52 33 5e 3c d1 9b c8 bb 7a 3f a4 bc
       -0.00038571388 0.01356204 -0.0061220904 -0.0200498
0001e0 6f f5 9d bb b7 4d 7f 3a 75 b0 db 3a 17 c8 2d ba
       -0.0048205177 0.00097390584 0.0016760962 -0.0006629242
0001f0 b6 de cb 3b a8 21 cc 3a c9 c8 a7 39 80 f8 0f bc
       0.0062216176 0.0015573995 0.0003200232 -0.008787274
000200 f8 3f 52 bb 8e 01 b9 3b fb 9f ee bb c1 93 08 3c
       -0.0032081585 0.0056459373 -0.0072822548 0.0083360085
000210 b5 5d fc 3b 80 c9 17 bb bb 5c d5 bb bb 35 65 ba
       0.0077016004 -0.0023160875 -0.0065112985 -0.0008743663
000220 03 94 4c 3c f0 ed 97 bb c2 72 81 b9 80 e6 df 3a
       0.012486461 -0.0046365187 -0.000246903 0.0017082244
000230 23 2c 20 bc cd 3b 4f 3b cd d7 e8 3b b5 31 55 bc
       -0.009776148 0.0031621337 0.0071058036 -0.013012339
000240 5e 63 c4 b9 59 18 92 bb ed b9 19 3b dd 04 f3 ba
       -0.00037458068 -0.004458469 0.0023456768 -0.0018540878
000250 f5 d3 a3 3b 1d 71 8e ba 47 44 8f b9 e8 36 c3 3a
       0.0049996325 -0.0010867451 -0.00027325956 0.0014893683
000260 43 1b 2b bc 7f eb 9c 3b c2 01 44 bb 84 83 12 3a
       -0.010443511 0.0047888155 -0.0029908274 0.00055890554
000270 da 9a b2 3b 32 1b e0 3b dd 6d 57 3c 50 16 8e bb
       0.0054505887 0.0068391794 0.013148752 -0.004336156
000280 87 ee 19 3c 03 08 ba 3b cb fe 82 bb 10 ca 17 3b
       0.009395248 0.0056772246 -0.003997659 0.002316121
000290 a1 5a 09 bb 7c 64 a8 3c 14 49 b9 bb a5 b3 3f 3b
       -0.002095856 0.020555727 -0.0056544635 0.0029251364
0002a0 fb a7 a0 bb 03 c4 22 3c 33 ee 2d 3c 86 10 27 3a
       -0.0049028373 0.009934428 0.010615873 0.00063730066
0002b0 33 81 f2 bb 0b ac 5d bb 67 f4 98 bb d3 07 b0 bb
       -0.0074006557 -0.003382447 -0.004667807 -0.0053720265
0002c0 70 5b 23 3b fc 04 08 bc 23 eb 26 3b 75 84 92 3b
       0.0024926327 -0.00830197 0.0025469742 0.0044713565
0002d0 b7 f8 89 3b 50 dc f4 3b e1 ea 02 3a 22 e3 72 bc
       0.0042105573 0.0074725524 0.0004994106 -0.0148246605
0002e0 fb 29 6d 3b c4 b4 8b 3b 57 a7 76 bb 56 1a 30 3b
       0.0036188352 0.0042634923 -0.0037636363 0.0026871166
0002f0 57 a9 59 bc e8 5b 92 ba e3 5b 36 bb 1b 5f 01 bb
       -0.013285003 -0.0011166306 -0.0027825765 -0.0019740525
000300 b5 ee 17 bc 50 f6 39 bc c4 08 c6 bb 05 ad 65 bb
       -0.009273221 -0.011350229 -0.0060435254 -0.0035045755
000310 a8 81 32 bc fb 18 6e 3b 79 1d 1c 3c 9d 01 42 3b
       -0.01089517 0.0036330807 0.009528511 0.0029603012
000320 42 00 35 3b 93 f3 f0 3b 42 9e 4c 3b ad ec e0 ba
       0.0027618562 0.007353255 0.0031222259 -0.0017160379
000330 e6 67 45 bc c5 85 53 3b 33 6c 3a 3c 72 eb dd 3b
       -0.012048697 0.0032275778 0.011378336 0.006772452
000340 d7 f5 57 bc 72 04 f3 3b 1a 5f 26 bc 7b 5f 20 3b
       -0.013181171 0.0074163014 -0.01015451 0.0024470973
000350 3f cf 01 bb 92 39 70 3b d5 a9 7e bb ef 1f 94 3a
       -0.0019807366 0.0036655408 -0.0038858552 0.0011301021
000360 72 aa a0 3a 0f eb 7c 39 7a ff 5f 3b 99 d2 b2 3a
       0.0012257828 0.00024120159 0.0034179376 0.0013643085
000370 1e 2d 34 3a 25 c8 e3 3b 68 ac fa bb 53 5a bd bb
       0.0006873178 0.0069513493 -0.007649947 -0.0057785898
000380 08 87 b3 3b 84 4c 12 3c bd cd bf ba 83 08 da bb
       0.0054787435 0.008929376 -0.0014633458 -0.0066538467
000390 5a c0 b7 3a 7b 1c bc 3b 83 36 0f bc bd 46 58 3b
       0.0014019117 0.0057407 -0.008741024 0.0033001148
0003a0 bf c0 0b 3a 6b 2c 63 bc 59 b1 3e 3c 1e 7a 1b 3b
       0.00053311506 -0.013865571 0.011638963 0.002372391
0003b0 c7 31 23 bc c8 73 59 3b 6b 2f 3a 3b 05 59 45 bb
       -0.009960598 0.0033180583 0.002840961 -0.0030112874
0003c0 0d 3b a9 bb c2 83 7b bb 17 c6 8c 3a c7 90 f6 3b
       -0.00516451 -0.0038378094 0.0010740188 0.007524583
0003d0 1f 3c 3c bb 1d eb 16 3c 77 6b e5 bb 20 8f 67 bb
       -0.0028722358 0.009211329 -0.007001336 -0.0035333112
0003e0 fd 59 12 3b c7 40 cd bb 87 8c 2f ba 1c 88 9c bb
       0.002233147 -0.0062638256 -0.00066966604 -0.0047769677
0003f0 c3 9c 00 bb 82 4b 29 bb 2c c7 b1 3b 2d 13 31 3c
       -0.0019624687 -0.002583236 0.0054253545 0.0108077945

action_model._discrete_distribution.branches.2.bias f4 [2]
000000 00 00 00 00 00 00 00 00
       0.0 0.0

action_model._discrete_distribution.branches.2.weight f4 [2, 256]
000000 ed 91 e5 3a a7 3d 26 3b 05 4c ce bb fb 68 d6 3b
       0.0017514803 0.0025366338 -0.0062956833 0.0065432764
000010 6a 72 2a 3b a4 1b 17 3b 6a e5 dc 3b bf 60 74 bb
       0.0026008138 0.0023057247 0.0067412155 -0.003728911
000020 32 60 06 bc d7 ee 17 bc 93 47 f2 3b ad a3 e8 3a
       -0.008201646 -0.009273252 0.007393786 0.0017748974
000030 ab 16 bd 39 9f 4a ff ba 45 43 55 bb a0 8a 52 3a
       0.00036065778 -0.0019477195 -0.0032541316 0.0008031521
000040 76 c0 3f bc e7 c4 65 3a 48 e7 fe 3b 00 12 d7 39
       -0.011703601 0.00087649975 0.0077790357 0.00041021407
000050 25 13 c2 3b 83 f8 27 bb f3 54 e5 ba ca 31 07 3b
       0.0059226924 -0.0025630302 -0.001749663 0.0020629042
000060 35 d8 5e b9 13 ba 90 3a a2 d4 97 3b 67 13 8d 3a
       -0.00021252113 0.0011041783 0.004633502 0.0010763229
000070 57 11 24 3c d5 a8 c4 3b 40 e2 09 38 c4 0c 38 bc
       0.0100139 0.0060015717 3.2874057e-05 -0.011233512
000080 23 1b df 3b 8f 3d 22 3b 52 38 3b 3a 18 69 e8 3b
       0.006808655 0.002475593 0.0007141876 0.0070926063
000090 4f 8a cf bb 49 cc 34 ba 47 4d 51 bb ea 16 ff b9
       -0.0063336263 -0.0006896896 -0.003193693 -0.00048654462
0000a0 02 da d1 ba 6f 54 77 3b fd 84 d8 bb 92 c1 ef 3b
       -0.0016010406 0.0037739535 -0.0066076503 0.0073167766
0000b0 3f 25 c8 ba 64 dd 12 bc 8d 65 f8 3b a9 bc b9 bb
       -0.0015269889 -0.008963916 0.007580465 -0.005668242
0000c0 a5 ce 89 ba 77 cc 08 3b 4e 1a b9 bb 62 bc b9 b9
       -0.0010513855 0.0020873824 -0.0056488877 -0.00035426306
0000d0 85 bb 37 38 d0 73 37 3b f6 d2 05 3c 79 64 90 bb
       4.380524e-05 0.0027992614 0.008167973 -0.0044065085
0000e0 5a 01 81 3b 7e fd 2d bb 45 db 01 bb 39 73 0e 3b
       0.0039369287 -0.0026548798 -0.0019814533 0.0021736159
0000f0 b3 25 07 3c 2c 36 a2 bb 13 a6 b2 bb d6 5c 9d bb
       0.008248734 -0.0049503054 -0.0054519265 -0.0048023267
000100 5d 9d 4a b7 59 b8 a0 3b 25 09 5f 3b 4d de 67 bc
       -1.2076777e-05 0.0049047885 0.003403255 -0.014152122
000110 b2 94 af ba 8b b2 70 ba 29 a3 04 bc 1b 6b c0 3b
       -0.0013395755 -0.00091818784 -0.008095541 0.005872143
000120 c3 31 5e 3b da fa ee 3a da 42 c3 bb 7b 50 13 bb
       0.0033904172 0.0018232719 -0.005958897 -0.002247839
000130 e8 49 89 bb f5 f3 d5 ba 1e 84 32 bc 9f 96 e0 3a
       -0.0041897185 -0.0016323315 -0.010895757 0.0017134732
000140 4a f3 5c bc f0 40 a9 3b 19 ca 32 bb 2a 06 93 bb
       -0.013485739 0.005165212 -0.0027281104 -0.004486819
000150 c2 bb a4 3b eb 89 da 3a 1b 8e 88 b9 d5 11 21 bc
       0.0050272653 0.0016673183 -0.00026045818 -0.009830912
000160 50 a5 fb 3a 96 7d 8e 3a d8 48 56 ba 2b ec 17 bc
       0.0019199047 0.0010871168 -0.0008174307 -0.009272615
000170 18 fe 90 bb bf e2 71 3c 80 be 19 3b cb 77 22 3c
       -0.0044248216 0.014763533 0.0023459494 0.009916256
000180 3d 8e 75 bb 03 d7 82 bb 33 0f 9c 3a ac 11 38 3b
       -0.0037468814 -0.0039929166 0.0011906385 0.0028086705
000190 b1 12 0b 3c 62 4c 06 bc f7 1e 1e bc 1d d6 76 3b
       0.008488343 -0.008196922 -0.009650937 0.0037664243
0001a0 36 90 b4 38 36 12 3f bb c7 ef 3f bc 42 31 ea bb
       8.60993e-05 -0.0029155142 -0.011714882 -0.0071469853
0001b0 5b 66 8d ba e8 55 eb bb 94 ba b4 3a d7 77 02 3c
       -0.0010787951 -0.0071818717 0.0013788515 0.007963142
0001c0 b2 e4 f8 3a 74 0b c0 bb 44 28 97 38 76 a9 2d b9
       0.0018989055 -0.0058607403 7.207741e-05 -0.00016561695
0001d0 b9 7d 06 3c 4c 55 c0 3a af 6b b5 b8 25 3f 05 bc
       0.008208686 0.0014673858 -8.65081e-05 -0.008132731
0001e0 3f b1 ff bb 05 08 d6 3b 50 1d 89 3b eb 40 13 3b
       -0.007803112 0.0065317177 0.0041844025 0.0022469114
0001f0 8d 59 40 bb 9f 95 05 3b ed 8a 2d 37 7b 74 4b bb
       -0.0029350251 0.002038337 1.034395e-05 -0.003104477
000200 f6 f5 1e bc 2f c3 73 3b 5f 4a 8a 3a 87 99 11 bc
       -0.009702196 0.0037195196 0.0010550729 -0.008886701
000210 9a 29 f7 ba 95 b7 0e bc 95 11 47 bb 55 02 b1 bb
       -0.0018857003 -0.008710762 -0.003037547 -0.0054018893
000220 bd 6e 91 3b bf 2f 6a 3b 93 0b c6 3b cb 4c 87 bb
       0.00443825 0.0035734025 0.00604386 -0.0041290275
000230 b1 26 c3 3a 87 25 a8 bb e2 e8 61 3b df 2f 3d bb
       0.001488885 -0.0051314267 0.0034471084 -0.0028867645
000240 83 62 82 ba ac 87 b2 3b 83 34 8a 3a 56 64 0e 3b
       -0.0009947572 0.0054483023 0.0010544214 0.0021727285
000250 f4 e4 aa 3b 56 43 a4 3b 35 cb f4 3b f2 4d 58 bc
       0.0052152816 0.00501291 0.007470513 -0.013202177
000260 db cc f8 3a 73 23 e8 3b 9b c6 ef bb c6 08 21 3c
       0.001898195 0.007084304 -0.007317377 0.009828752
000270 78 f5 ee 3b af ca 8c 3b c0 90 dd ba ca f8 b5 bb
       0.0072924457 0.0042966227 -0.0016904101 -0.0055533396
000280 f2 b8 c3 3a a9 d1 39 bc c7 95 9e 3b b7 fb 92 3b
       0.0014932437 -0.011341491 0.004839632 0.004485573
000290 4d 13 cc ba 85 a7 4f bb 75 ae 86 ba fe 15 8b 3b
       -0.0015569717 -0.0031685543 -0.0010275381 0.004244565
0002a0 6f 37 30 bc 03 bf 25 3b da b5 ae 3b b2 82 57 3c
       -0.010755404 0.0025290854 0.005331737 0.013153719
0002b0 ae 8d 98 bb fb d7 0c bb c6 0b 8c 3b 3f a7 f7 ba
       -0.0046555614 -0.002149104 0.0042738644 -0.0018894448
0002c0 0c e2 0c bc aa 5b ad 3a 7c 81 8b bb 12 c8 58 bb
       -0.008598816 0.001322617 -0.004257379 -0.0033078236
0002d0 52 49 11 bc 72 e1 ce ba 1e 8d 9c 3b 26 b6 06 3b
       -0.008867579 -0.0015783741 0.0047775647 0.0020555346
0002e0 a8 82 ca 3b 95 97 64 3b e1 80 4c bc 61 00 17 3c
       0.006180126 0.003488039 -0.012481899 0.009216399
0002f0 ef 94 72 bb db 62 d6 bb 4d 04 d6 bb b1 62 0f 3a
       -0.003701504 -0.006542546 -0.0065312744 0.0005469723
000300 35 54 8d 3b 77 0a 9c 3a 0f dc 10 bc b5 53 1c 39
       0.004313017 0.0011904974 -0.008841529 0.00014908503
000310 9e 52 9f 39 89 59 4a 3b cd 94 0d bc 73 c8 53 3b
       0.00030388398 0.003087612 -0.008641434 0.0032315522
000320 a7 80 45 bb 27 5f 8a bc 43 d5 4f bb 02 8a 2d bc
       -0.0030136497 -0.016891075 -0.0031712807 -0.010591986
000330 53 dd 71 3b 6b 75 4a bc a9 47 40 bb c9 df a4 bb
       0.00369056 -0.012357096 -0.0029339588 -0.00503156
000340 f5 fa 4f 3b 3b eb bd bb f9 4a 36 3c 95 5c db bb
       0.0031735275 -0.005795864 0.011126273 -0.0066943862
000350 dc 8d 4c bc f3 93 79 3b 6d 33 5f 3b 17 fd 9d bb
       -0.012484994 0.003808257 0.0034057752 -0.0048214304
000360 01 8c 3d bb 93 7a 2e bc c0 79 10 bc f2 96 8d 3b
       -0.002892256 -0.010649341 -0.00881809 0.0043209726
000370 12 56 99 3b d7 31 d7 b7 ca d2 ab bb 03 f4 78 bc
       0.00467945 -2.5653206e-05 -0.005243634 -0.015194896
000380 6b 33 3a bb a3 a6 23 bc 77 fe 6e bb c9 b4 b1 ba
       -0.0028411995 -0.00998846 -0.003646759 -0.0013557906
000390 fa 93 bc bb 88 85 7a 3c 27 99 6e bb 04 af 2f bb
       -0.005754945 0.015290625 -0.0036407204 -0.0026807198
0003a0 7a d8 76 bc 2d d6 01 3b 5f 92 7d bb cc bc c3 b9
       -0.0150662605 0.0019811497 -0.003869198 -0.00037333963
0003b0 fa 23 52 bc a0 0e 23 3b 44 bf 1e bc 24 e4 2f bb
       -0.01282596 0.0024880543 -0.009689156 -0.0026838863
0003c0 62 d8 6e bc ba 5d 33 bc 08 ce b4 bb af 40 ee 3b
       -0.014577957 -0.010947639 -0.005517725 0.0072708945
0003d0 db 13 f2 bb 23 97 a6 3b c8 a7 2b 39 43 00 1e 3a
       -0.007387621 0.005083935 0.00016370334 0.00060272607
0003e0 91 bd 0d 3a 23 5c cd ba 45 ce e7 bb 2e 80 82 bb
       0.0005406971 -0.0015667718 -0.00707415 -0.0039825654
0003f0 12 69 ca 3a 57 0d c6 bb d3 40 94 ba 4c 40 32 3a
       0.001544269 -0.0060440707 -0.0011310823 0.0006799742

network_body.linear_encoder.seq_layers.0.bias f4 [256]
000000 00 00 00 00 00 00 00 00 00 00 00 00 00 00 00 00
       0.0 0.0 0.0 0.0
000010 00 00 00 00 00 00 00 00 00 00 00 00 00 00 00 00
       0.0 0.0 0.0 0.0
000020 00 00 00 00 00 00 00 00 00 00 00 00 00 00 00 00
       0.0 0.0 0.0 0.0
000030 00 00 00 00 00 00 00 00 00 00 00 00 00 00 00 00
       0.0 0.0 0.0 0.0
000040 00 00 00 00 00 00 00 00 00 00 00 00 00 00 00 00
       0.0 0.0 0.0 0.0
000050 00 00 00 00 00 00 00 00 00 00 00 00 00 00 00 00
       0.0 0.0 0.0 0.0
000060 00 00 00 00 00 00 00 00 00 00 00 00 00 00 00 00
       0.0 0.0 0.0 0.0
000070 00 00 00 00 00 00 00 00 00 00 00 00 00 00 00 00
       0.0 0.0 0.0 0.0
000080 00 00 00 00 00 00 00 00 00 00 00 00 00 00 00 00
       0.0 0.0 0.0 0.0
000090 00 00 00 00 00 00 00 00 00 00 00 00 00 00 00 00
       0.0 0.0 0.0 0.0
0000a0 00 00 00 00 00 00 00 00 00 00 00 00 00 00 00 00
       0.0 0.0 0.0 0.0
0000b0 00 00 00 00 00 00 00 00 00 00 00 00 00 00 00 00
       0.0 0.0 0.0 0.0
0000c0 00 00 00 00 00 00 00 00 00 00 00 00 00 00 00 00
       0.0 0.0 0.0 0.0
0000d0 00 00 00 00 00 00 00 00 00 00 00 00 00 00 00 00
       0.0 0.0 0.0 0.0
0000e0 00 00 00 00 00 00 00 00 00 00 00 00 00 00 00 00
       0.0 0.0 0.0 0.0
0000f0 00 00 00 00 00 00 00 00 00 00 00 00 00 00 00 00
       0.0 0.0 0.0 0.0
000100 00 00 00 00 00 00 00 00 00 00 00 00 00 00 00 00
       0.0 0.0 0.0 0.0
000110 00 00 00 00 00 00 00 00 00 00 00 00 00 00 00 00
       0.0 0.0 0.0 0.0
000120 00 00 00 00 00 00 00 00 00 00 00 00 00 00 00 00
       0.0 0.0 0.0 0.0
000130 00 00 00 00 00 00 00 00 00 00 00 00 00 00 00 00
       0.0 0.0 0.0 0.0
000140 00 00 00 00 00 00 00 00 00 00 00 00 00 00 00 00
       0.0 0.0 0.0 0.0
000150 00 00 00 00 00 00 00 00 00 00 00 00 00 00 00 00
       0.0 0.0 0.0 0.0
000160 00 00 00 00 00 00 00 00 00 00 00 00 00 00 00 00
       0.0 0.0 0.0 0.0
000170 00 00 00 00 00 00 00 00 00 00 00 00 00 00 00 00
       0.0 0.0 0.0 0.0
000180 00 00 00 00 00 00 00 00 00 00 00 00 00 00 00 00
       0.0 0.0 0.0 0.0
000190 00 00 00 00 00 00 00 00 00 00 00 00 00 00 00 00
       0.0 0.0 0.0 0.0
0001a0 00 00 00 00 00 00 00 00 00 00 00 00 00 00 00 00
       0.0 0.0 0.0 0.0
0001b0 00 00 00 00 00 00 00 00 00 00 00 00 00 00 00 00
       0.0 0.0 0.0 0.0
0001c0 00 00 00 00 00 00 00 00 00 00 00 00 00 00 00 00
       0.0 0.0 0.0 0.0
0001d0 00 00 00 00 00 00 00 00 00 00 00 00 00 00 00 00
       0.0 0.0 0.0 0.0
0001e0 00 00 00 00 00 00 00 00 00 00 00 00 00 00 00 00
       0.0 0.0 0.0 0.0
0001f0 00 00 00 00 00 00 00 00 00 00 00 00 00 00 00 00
       0.0 0.0 0.0 0.0
000200 00 00 00 00 00 00 00 00 00 00 00 00 00 00 00 00
       0.0 0.0 0.0 0.0
000210 00 00 00 00 00 00 00 00 00 00 00 00 00 00 00 00
       0.0 0.0 0.0 0.0
000220 00 00 00 00 00 00 00 00 00 00 00 00 00 00 00 00
       0.0 0.0 0.0 0.0
000230 00 00 00 00 00 00 00 00 00 00 00 00 00 00 00 00
       0.0 0.0 0.0 0.0
000240 00 00 00 00 00 00 00 00 00 00 00 00 00 00 00 00
       0.0 0.0 0.0 0.0
000250 00 00 00 00 00 00 00 00 00 00 00 00 00 00 00 00
       0.0 0.0 0.0 0.0
000260 00 00 00 00 00 00 00 00 00 00 00 00 00 00 00 00
       0.0 0.0 0.0 0.0
000270 00 00 00 00 00 00 00 00 00 00 00 00 00 00 00 00
       0.0 0.0 0.0 0.0
000280 00 00 00 00 00 00 00 00 00 00 00 00 00 00 00 00
       0.0 0.0 0.0 0.0
000290 00 00 00 00 00 00 00 00 00 00 00 00 00 00 00 00
       0.0 0.0 0.0 0.0
0002a0 00 00 00 00 00 00 00 00 00 00 00 00 00 00 00 00
       0.0 0.0 0.0 0.0
0002b0 00 00 00 00 00 00 00 00 00 00 00 00 00 00 00 00
       0.0 0.0 0.0 0.0
0002c0 00 00 00 00 00 00 00 00 00 00 00 00 00 00 00 00
       0.0 0.0 0.0 0.0
0002d0 00 00 00 00 00 00 00 00 00 00 00 00 00 00 00 00
       0.0 0.0 0.0 0.0
0002e0 00 00 00 00 00 00 00 00 00 00 00 00 00 00 00 00
       0.0 0.0 0.0 0.0
0002f0 00 00 00 00 00 00 00 00 00 00 00 00 00 00 00 00
       0.0 0.0 0.0 0.0
000300 00 00 00 00 00 00 00 00 00 00 00 00 00 00 00 00
       0.0 0.0 0.0 0.0
000310 00 00 00 00 00 00 00 00 00 00 00 00 00 00 00 00
       0.0 0.0 0.0 0.0
000320 00 00 00 00 00 00 00 00 00 00 00 00 00 00 00 00
       0.0 0.0 0.0 0.0
000330 00 00 00 00 00 00 00 00 00 00 00 00 00 00 00 00
       0.0 0.0 0.0 0.0
000340 00 00 00 00 00 00 00 00 00 00 00 00 00 00 00 00
       0.0 0.0 0.0 0.0
000350 00 00 00 00 00 00 00 00 00 00 00 00 00 00 00 00
       0.0 0.0 0.0 0.0
000360 00 00 00 00 00 00 00 00 00 00 00 00 00 00 00 00
       0.0 0.0 0.0 0.0
000370 00 00 00 00 00 00 00 00 00 00 00 00 00 00 00 00
       0.0 0.0 0.0 0.0
000380 00 00 00 00 00 00 00 00 00 00 00 00 00 00 00 00
       0.0 0.0 0.0 0.0
000390 00 00 00 00 00 00 00 00 00 00 00 00 00 00 00 00
       0.0 0.0 0.0 0.0
0003a0 00 00 00 00 00 00 00 00 00 00 00 00 00 00 00 00
       0.0 0.0 0.0 0.0
0003b0 00 00 00 00 00 00 00 00 00 00 00 00 00 00 00 00
       0.0 0.0 0.0 0.0
0003c0 00 00 00 00 00 00 00 00 00 00 00 00 00 00 00 00
       0.0 0.0 0.0 0.0
0003d0 00 00 00 00 00 00 00 00 00 00 00 00 00 00 00 00
       0.0 0.0 0.0 0.0
0003e0 00 00 00 00 00 00 00 00 00 00 00 00 00 00 00 00
       0.0 0.0 0.0 0.0
0003f0 00 00 00 00 00 00 00 00 00 00 00 00 00 00 00 00
       0.0 0.0 0.0 0.0

network_body.linear_encoder.seq_layers.0.weight f4 [256, 99]
000000 61 e0 ca 3b 73 09 99 3d cd ec fc 3d 71 96 02 3e
       0.006191299 0.074725054 0.12349854 0.12752701
000010 09 5e e6 bd 21 4d 58 bc 49 02 1d bc 0d 2c a0 bd
       -0.112484045 -0.013201983 -0.009583064 -0.07820902
000020 bc 4f 10 bc 79 19 ac bd 78 2f e2 bd d4 3b fa bd
       -0.008808073 -0.08403296 -0.1104421 -0.122184426
000030 9b b0 31 be c7 48 10 3e 25 4e 5e be 15 f6 91 bd
       -0.17352526 0.14090262 -0.21709497 -0.071270145
000040 36 04 38 3d 29 4b c1 bd a4 fe 7c bc cc a8 7d 3d
       0.04492589 -0.09438164 -0.01544157 0.061928555
000050 d4 1f 2b bd 37 16 48 3d c1 32 a3 bd a9 6e 1c 3d
       -0.0417784 0.04884931 -0.07968665 0.03819147
000060 47 b4 35 be 6c 9a 08 bd e5 14 13 be 83 21 5b 3d
       -0.17744552 -0.033350393 -0.1436344 0.053498756
000070 7f 82 7e 3d e5 ad 24 be 9e 2a a9 3c fb 8c 75 bd
       0.06213617 -0.1608196 0.020650204 -0.059948903
000080 15 80 29 be 09 05 19 3e f8 d2 83 bd 3d de 16 be
       -0.16552766 0.14943327 -0.064367235 -0.14733215
000090 4d 8a 3f 3d 19 73 21 bd 50 fe 94 3d 88 83 14 3e
       0.046762753 -0.039416406 0.07275069 0.145033
0000a0 3f eb de 3d 3c 03 f9 3d 28 9f e1 bd 2b 47 96 bd
       0.108847134 0.1215882 -0.11016685 -0.07337793
0000b0 b2 6c 85 3d fb 02 19 3e cb 39 4b bd 2b 73 48 bd
       0.065148726 0.14942543 -0.049615663 -0.048937958
0000c0 00 8e 20 3e 09 05 68 3e 72 c2 12 3e ef 61 44 bd
       0.15679169 0.22658171 0.14331988 -0.04794496
0000d0 5e e6 f6 bc 59 85 13 bd 95 7d b3 bd 80 11 a0 bd
       -0.030139145 -0.036015842 -0.08764187 -0.07815838
0000e0 68 f8 1f 3e ff a6 7a 39 14 9f 15 be 9d 3c 14 3d
       0.15622103 0.00023904069 -0.14611465 0.036190618
0000f0 b6 6f 83 bc 71 08 41 bd 62 61 90 bd 3e ef bc 3d
       -0.016044479 -0.04712719 -0.07049824 0.09225319
000100 31 d5 33 3d c6 aa 87 3d 90 4f 9f 3d df 69 9e bd
       0.043904487 0.06624369 0.07778847 -0.07735037
000110 63 9b 54 3e b5 e4 7b 3d c5 a8 0e 3c d8 14 0e bd
       0.207624 0.06149741 0.00870723 -0.034687847
000120 ab 6f 06 3d 1a fd 48 be 5a 18 b1 bd 24 98 74 3e
       0.03282134 -0.196278 -0.08647223 0.23886162
000130 59 ba 0e bd 80 f9 01 3e 26 11 10 3e 1a 1e 3d bb
       -0.034845684 0.12692833 0.14069042 -0.0028857053
000140 e5 04 27 bd 86 26 27 be 8e 78 69 bd d2 00 0e bd
       -0.040776152 -0.1632329 -0.056999736 -0.03466875
000150 3f 18 8d bd 24 f7 e7 3d f8 e4 28 be ea 04 87 3e
       -0.0688939 0.11326435 -0.16493595 0.26370937
000160 04 d7 4a bd d6 39 af bd d0 75 02 be 81 3d c9 3b
       -0.04952146 -0.08555953 -0.12740254 0.006141365
000170 54 56 28 be 2b dc bc bd 95 e5 a9 3d 84 67 6a bd
       -0.16439182 -0.09221681 0.082957424 -0.057227626
000180 40 94 ca 3d 35 17 48 3c 1e 06 1f 3e ee 19 f5 bd
       0.09891558 0.012212564 0.15529677 -0.11967836
000190 2b b2 33 3e b9 fd e6 3c 27 eb 19 be 1f cc d5 bc
       0.17548434 0.028197156 -0.1503111 -0.02609831
0001a0 05 e1 2e be b9 88 1e 3c dd 01 5d 3d 11 a2 8e 3d
       -0.17078026 0.009676152 0.053956855 0.069645055
0001b0 70 f6 20 bd 96 23 95 3d d3 06 79 3d 21 38 2c 3c
       -0.03929752 0.07282178 0.060797524 0.010511429
0001c0 d3 32 2e be 85 99 48 3e 8f 8e 37 3e 07 35 b4 3d
       -0.17011575 0.19589813 0.17925476 0.08799177
0001d0 38 ab 95 3d b9 55 89 3d b8 6f 8a 3d e0 13 0d be
       0.07308048 0.067058034 0.0675959 -0.13777113
0001e0 c7 f7 fe bd 39 dc 42 bd bf 29 16 3d a6 36 c4 3d
       -0.124496035 -0.047573302 0.036660906 0.09580736
0001f0 8a 52 6f 3d 80 28 a5 3d 3f ad ab 3c b0 49 a8 3d
       0.058428325 0.080643654 0.020956634 0.0821718
000200 77 74 26 bd 1c 6f f3 3d d0 73 cc bc be 13 2f 3d
       -0.040638413 0.11886427 -0.024957567 0.042743437
000210 ae 67 01 be f7 b5 c3 bc 5f 9a 13 3c 26 d4 b9 3d
       -0.12637207 -0.023890479 0.009008973 0.09073667
000220 0e ec d0 3d 85 59 7a 3d 14 a8 97 bb 89 b5 b5 3d
       0.10201274 0.06112053 -0.004628191 0.08872516
000230 fb d1 38 be bc 11 15 3d 53 9d f2 bc 7d c6 f1 bd
       -0.18048851 0.036393866 -0.029616034 -0.11805437
000240 6d 4c 77 3d 44 ab a0 bc 06 66 55 bc be cc 5b bd
       0.06037562 -0.019612916 -0.013024813 -0.053662054
000250 65 0f 11 be f0 c0 72 3e 62 a1 4c bd 12 31 a7 bd
       -0.14166029 0.23706412 -0.049958594 -0.08163656
000260 63 81 56 3d de 4a a7 3d 99 ed e6 bd b1 a4 1a be
       0.052369487 0.08168577 -0.11275787 -0.15101887
000270 33 64 a4 3d db b5 87 3c 61 ce 2d 3d 90 8f c1 3c
       0.08026924 0.016566208 0.042433146 0.023628026
000280 29 0b e4 3c 44 1e 05 bc 74 17 28 be d0 99 06 3e
       0.027837353 -0.008124892 -0.16415197 0.13144612
000290 bb 90 8e 3d 31 63 9d 3d 83 36 82 bd 04 0c 36 bc
       0.06961199 0.07684935 -0.063580535 -0.011111263
0002a0 04 40 63 3d 10 e4 e2 3d a5 4a a1 bd 5a b8 a2 3d
       0.055480972 0.11078656 -0.078755654 0.079453185
0002b0 18 21 8d bd 98 9e 19 3e c7 62 45 bd b4 6d 6d bd
       -0.06891078 0.15001905 -0.048189905 -0.05796595
0002c0 e3 15 23 be d7 fe 2a 3d 8c 0b 15 be 8c ec 89 bc
       -0.15926318 0.04174694 -0.14555186 -0.016836427
0002d0 3d 46 81 3d e9 56 a6 bd 8a d8 17 3e 04 5c 43 be
       0.06312225 -0.081220455 0.14828697 -0.1907807
0002e0 db 9b e5 bd 82 84 aa bd d2 93 36 3d 0a 7a 07 38
       -0.11211368 -0.08326055 0.044574566 3.2300166e-05
0002f0 27 67 75 bd 77 07 77 3c ac 15 9d 3c 44 d2 3b bd
       -0.059912827 0.015077463 0.019175373 -0.04585482
000300 0d 23 48 bd ca 4d 2e bd c5 b1 00 be 61 76 71 3d
       -0.048861552 -0.042554654 -0.12567814 0.058950786
000310 2b 72 be bc 70 c1 c2 3d 15 60 25 3e 17 c1 d7 3d
       -0.023247799 0.095095515 0.16149934 0.10534876
000320 06 95 20 be 2f 3a 5e 3e 5a 68 92 3d 83 6e ea 3c
       -0.15681848 0.21701883 0.0714881 0.02861715
000330 45 f0 11 3e 09 8e 65 3d 22 8c d8 bd 26 2f ef 3d
       0.14251812 0.05604366 -0.10573603 0.11678915
000340 82 02 8e bd 29 ac ce 3d 8c 78 cf bd d7 0e 30 bd
       -0.06934072 0.10091431 -0.10130414 -0.042982902
000350 bd 2c b5 bd fe a6 db 3d 91 a6 1e 3e b7 17 61 bb
       -0.08846424 0.107252106 0.15493228 -0.003434641
000360 56 50 51 be ee c2 ee 3d 04 42 78 3d 59 a0 93 bb
       -0.20440802 0.11658274 0.060609832 -0.004505199
000370 9b 9a 2f bd 44 0b 73 bd f7 51 4e 3c cd e0 27 bd
       -0.042872053 -0.059336916 0.012592784 -0.04098587
000380 7f 4d b4 3d 7c 63 c5 bd de a2 5d 3d be e4 06 3e
       0.08803844 -0.09638116 0.0541104 0.13173196
000390 a5 7a 7a 3d d4 f4 cc 3d 6d 1f 87 bd 8b da 23 bd
       0.06115212 0.10007635 -0.06597791 -0.04000334
0003a0 d4 82 1a 3e f7 4a 21 3c a3 e0 64 bd 65 a7 a1 3d
       0.1508897 0.009844533 -0.055878293 0.07893256
0003b0 cf 87 bd 3c a2 ed 2b 3d cf 26 11 be 00 83 b4 3d
       0.023136048 0.04197467 -0.1417496 0.08814049
0003c0 7a aa 84 3e 48 d3 85 bc e9 db 5a 3e f0 5d ae bd
       0.25911313 -0.016336098 0.21372952 -0.08514011
0003d0 59 e6 c9 3d dd bb 97 3d e1 a4 b7 3d 58 b4 c7 bd
       0.098583885 0.07408879 0.08966995 -0.09751195
0003e0 cb 1c 87 3d ad 43 cf 3d 36 57 15 3e ad 03 af 3d
       0.06597289 0.1012033 0.1458405 0.08545623
0003f0 8d b5 67 bd 7f 84 ac 3d a2 c9 fe 3d f3 61 7c 3d
       -0.056569625 0.08423709 0.12440802 0.06161685

network_body.linear_encoder.seq_layers.2.bias f4 [256]
000000 00 00 00 00 00 00 00 00 00 00 00 00 00 00 00 00
       0.0 0.0 0.0 0.0
000010 00 00 00 00 00 00 00 00 00 00 00 00 00 00 00 00
       0.0 0.0 0.0 0.0
000020 00 00 00 00 00 00 00 00 00 00 00 00 00 00 00 00
       0.0 0.0 0.0 0.0
000030 00 00 00 00 00 00 00 00 00 00 00 00 00 00 00 00
       0.0 0.0 0.0 0.0
000040 00 00 00 00 00 00 00 00 00 00 00 00 00 00 00 00
       0.0 0.0 0.0 0.0
000050 00 00 00 00 00 00 00 00 00 00 00 00 00 00 00 00
       0.0 0.0 0.0 0.0
000060 00 00 00 00 00 00 00 00 00 00 00 00 00 00 00 00
       0.0 0.0 0.0 0.0
000070 00 00 00 00 00 00 00 00 00 00 00 00 00 00 00 00
       0.0 0.0 0.0 0.0
000080 00 00 00 00 00 00 00 00 00 00 00 00 00 00 00 00
       0.0 0.0 0.0 0.0
000090 00 00 00 00 00 00 00 00 00 00 00 00 00 00 00 00
       0.0 0.0 0.0 0.0
0000a0 00 00 00 00 00 00 00 00 00 00 00 00 00 00 00 00
       0.0 0.0 0.0 0.0
0000b0 00 00 00 00 00 00 00 00 00 00 00 00 00 00 00 00
       0.0 0.0 0.0 0.0
0000c0 00 00 00 00 00 00 00 00 00 00 00 00 00 00 00 00
       0.0 0.0 0.0 0.0
0000d0 00 00 00 00 00 00 00 00 00 00 00 00 00 00 00 00
       0.0 0.0 0.0 0.0
0000e0 00 00 00 00 00 00 00 00 00 00 00 00 00 00 00 00
       0.0 0.0 0.0 0.0
0000f0 00 00 00 00 00 00 00 00 00 00 00 00 00 00 00 00
       0.0 0.0 0.0 0.0
000100 00 00 00 00 00 00 00 00 00 00 00 00 00 00 00 00
       0.0 0.0 0.0 0.0
000110 00 00 00 00 00 00 00 00 00 00 00 00 00 00 00 00
       0.0 0.0 0.0 0.0
000120 00 00 00 00 00 00 00 00 00 00 00 00 00 00 00 00
       0.0 0.0 0.0 0.0
000130 00 00 00 00 00 00 00 00 00 00 00 00 00 00 00 00
       0.0 0.0 0.0 0.0
000140 00 00 00 00 00 00 00 00 00 00 00 00 00 00 00 00
       0.0 0.0 0.0 0.0
000150 00 00 00 00 00 00 00 00 00 00 00 00 00 00 00 00
       0.0 0.0 0.0 0.0
000160 00 00 00 00 00 00 00 00 00 00 00 00 00 00 00 00
       0.0 0.0 0.0 0.0
000170 00 00 00 00 00 00 00 00 00 00 00 00 00 00 00 00
       0.0 0.0 0.0 0.0
000180 00 00 00 00 00 00 00 00 00 00 00 00 00 00 00 00
       0.0 0.0 0.0 0.0
000190 00 00 00 00 00 00 00 00 00 00 00 00 00 00 00 00
       0.0 0.0 0.0 0.0
0001a0 00 00 00 00 00 00 00 00 00 00 00 00 00 00 00 00
       0.0 0.0 0.0 0.0
0001b0 00 00 00 00 00 00 00 00 00 00 00 00 00 00 00 00
       0.0 0.0 0.0 0.0
0001c0 00 00 00 00 00 00 00 00 00 00 00 00 00 00 00 00
       0.0 0.0 0.0 0.0
0001d0 00 00 00 00 00 00 00 00 00 00 00 00 00 00 00 00
       0.0 0.0 0.0 0.0
0001e0 00 00 00 00 00 00 00 00 00 00 00 00 00 00 00 00
       0.0 0.0 0.0 0.0
0001f0 00 00 00 00 00 00 00 00 00 00 00 00 00 00 00 00
       0.0 0.0 0.0 0.0
000200 00 00 00 00 00 00 00 00 00 00 00 00 00 00 00 00
       0.0 0.0 0.0 0.0
000210 00 00 00 00 00 00 00 00 00 00 00 00 00 00 00 00
       0.0 0.0 0.0 0.0
000220 00 00 00 00 00 00 00 00 00 00 00 00 00 00 00 00
       0.0 0.0 0.0 0.0
000230 00 00 00 00 00 00 00 00 00 00 00 00 00 00 00 00
       0.0 0.0 0.0 0.0
000240 00 00 00 00 00 00 00 00 00 00 00 00 00 00 00 00
       0.0 0.0 0.0 0.0
000250 00 00 00 00 00 00 00 00 00 00 00 00 00 00 00 00
       0.0 0.0 0.0 0.0
000260 00 00 00 00 00 00 00 00 00 00 00 00 00 00 00 00
       0.0 0.0 0.0 0.0
000270 00 00 00 00 00 00 00 00 00 00 00 00 00 00 00 00
       0.0 0.0 0.0 0.0
000280 00 00 00 00 00 00 00 00 00 00 00 00 00 00 00 00
       0.0 0.0 0.0 0.0
000290 00 00 00 00 00 00 00 00 00 00 00 00 00 00 00 00
       0.0 0.0 0.0 0.0
0002a0 00 00 00 00 00 00 00 00 00 00 00 00 00 00 00 00
       0.0 0.0 0.0 0.0
0002b0 00 00 00 00 00 00 00 00 00 00 00 00 00 00 00 00
       0.0 0.0 0.0 0.0
0002c0 00 00 00 00 00 00 00 00 00 00 00 00 00 00 00 00
       0.0 0.0 0.0 0.0
0002d0 00 00 00 00 00 00 00 00 00 00 00 00 00 00 00 00
       0.0 0.0 0.0 0.0
0002e0 00 00 00 00 00 00 00 00 00 00 00 00 00 00 00 00
       0.0 0.0 0.0 0.0
0002f0 00 00 00 00 00 00 00 00 00 00 00 00 00 00 00 00
       0.0 0.0 0.0 0.0
000300 00 00 00 00 00 00 00 00 00 00 00 00 00 00 00 00
       0.0 0.0 0.0 0.0
000310 00 00 00 00 00 00 00 00 00 00 00 00 00 00 00 00
       0.0 0.0 0.0 0.0
000320 00 00 00 00 00 00 00 00 00 00 00 00 00 00 00 00
       0.0 0.0 0.0 0.0
000330 00 00 00 00 00 00 00 00 00 00 00 00 00 00 00 00
       0.0 0.0 0.0 0.0
000340 00 00 00 00 00 00 00 00 00 00 00 00 00 00 00 00
       0.0 0.0 0.0 0.0
000350 00 00 00 00 00 00 00 00 00 00 00 00 00 00 00 00
       0.0 0.0 0.0 0.0
000360 00 00 00 00 00 00 00 00 00 00 00 00 00 00 00 00
       0.0 0.0 0.0 0.0
000370 00 00 00 00 00 00 00 00 00 00 00 00 00 00 00 00
       0.0 0.0 0.0 0.0
000380 00 00 00 00 00 00 00 00 00 00 00 00 00 00 00 00
       0.0 0.0 0.0 0.0
000390 00 00 00 00 00 00 00 00 00 00 00 00 00 00 00 00
       0.0 0.0 0.0 0.0
0003a0 00 00 00 00 00 00 00 00 00 00 00 00 00 00 00 00
       0.0 0.0 0.0 0.0
0003b0 00 00 00 00 00 00 00 00 00 00 00 00 00 00 00 00
       0.0 0.0 0.0 0.0
0003c0 00 00 00 00 00 00 00 00 00 00 00 00 00 00 00 00
       0.0 0.0 0.0 0.0
0003d0 00 00 00 00 00 00 00 00 00 00 00 00 00 00 00 00
       0.0 0.0 0.0 0.0
0003e0 00 00 00 00 00 00 00 00 00 00 00 00 00 00 00 00
       0.0 0.0 0.0 0.0
0003f0 00 00 00 00 00 00 00 00 00 00 00 00 00 00 00 00
       0.0 0.0 0.0 0.0

network_body.linear_encoder.seq_layers.2.weight f4 [256, 256]
000000 a2 ec 1a 3d ae 4c 30 3d 05 8e 9c 3d 33 a4 8f 3c
       0.037823327 0.043041877 0.076442756 0.017534351
000010 c8 de c4 bd 71 fb 49 bc 9a 11 a6 3d df 5a cc bd
       -0.09612805 -0.012328015 0.08108826 -0.0997827
000020 30 57 b1 bd 35 4b 2a bd a1 b2 c6 bd 24 6c 8c 3c
       -0.08659208 -0.04157563 -0.097020395 0.01714141
000030 a8 2a 1d 3c 48 bc 7a 3d 92 9e 0a 3d c6 1d 57 bd
       0.00959269 0.061214715 0.03384263 -0.05251863
000040 6f d5 46 3c 80 f2 97 3d 02 ad e7 bb 84 00 3f 3c
       0.0121358475 0.074193 -0.0070701847 0.011657838
000050 38 6f 2a bc ef 9b a4 3c 46 37 a4 bb 40 d4 30 3d
       -0.010402493 0.020093886 -0.005011472 0.043171167
000060 16 30 0e 3e 0b 25 e4 bd fd e5 f2 3b b1 af 0e bd
       0.13885531 -0.11139878 0.0074126706 -0.03483552
000070 76 a6 1c bd 13 c0 a7 3d 4d db 23 bc d3 59 84 bd
       -0.038244687 0.08190932 -0.010001016 -0.06462445
000080 7c 27 e5 3c 13 63 af 3d 42 4a 65 3d a5 0b 57 3d
       0.02797293 0.08563819 0.05597902 0.05250134
000090 c4 25 52 3d c6 c7 b8 3d 78 45 16 bd b8 82 d9 3c
       0.051305547 0.09022479 -0.036687344 0.02655159
0000a0 ab 69 70 3c 24 64 6b bd cf 4d c4 3c d5 7d 3d 3d
       0.014673631 -0.05746855 0.023962883 0.04626258
0000b0 9a e9 b8 bb 7d d2 a2 3d 16 00 83 3d 30 87 95 bd
       -0.005643082 0.07950304 0.06396501 -0.073011756
0000c0 68 66 a5 3c 82 13 3d bd b2 97 8e bc ab 6f 81 bd
       0.020190433 -0.046161182 -0.017406318 -0.06320127
0000d0 a3 a0 ac 3d 90 6b da bb 75 85 da bb 7c 5d ee bd
       0.084290765 -0.0066656545 -0.0066687413 -0.116389245
0000e0 d1 f7 9e 3c 25 2c df 3b 9d 1a 17 bd ae 48 00 3d
       0.019405277 0.0068106824 -0.036890615 0.031319313
0000f0 f0 5a 8f 3d 22 ca 4d bd 38 b9 42 3d b4 a2 90 bd
       0.06999767 -0.050241597 0.04753992 -0.07062283
000100 26 a8 d7 3d 20 ae a5 bc 3c 26 95 bd f3 cb cd bc
       0.10530119 -0.02022463 -0.07282683 -0.025121665
000110 65 fe c2 bd ea dc 23 3d 6b fb 51 bc 86 f2 73 bd
       -0.09521178 0.040005602 -0.01281629 -0.05955746
000120 67 67 08 3e 9d e2 53 bd f9 2d 86 bd ad 02 d1 3d
       0.13320695 -0.051729787 -0.06551737 0.102055885
000130 c2 dd fe bc b3 21 06 3e 1a e3 8f bd 41 12 84 3d
       -0.031111602 0.13098793 -0.07025738 0.06448794
000140 79 b9 7b 3c 83 5c 89 bd ec 25 c0 3d 9b e1 45 3d
       0.015364044 -0.06707098 0.09382233 0.048310857
000150 24 66 ae 3d 5a 29 f9 3c c9 2c 09 bd 59 47 b0 3d
       0.085155755 0.030415226 -0.033489976 0.086073585
000160 1d 0c 03 3d 41 08 c8 bd 6c 0f af 3d 93 09 0d bc
       0.031993974 -0.09767199 0.08547863 -0.00860824
000170 bd 5e 12 bb bd 91 2b bc a1 e7 cc bd 66 9a 68 bd
       -0.00223343 -0.010471758 -0.10005117 -0.05678787
000180 52 cd a0 ba 3e 8f a2 bc e1 73 f8 3d 1a 4b d7 bc
       -0.0012268221 -0.019843694 0.12131477 -0.026280928
000190 62 b1 97 3c c2 52 b4 3b 92 63 28 3d ae e2 ba 3d
       0.0185172 0.0055030296 0.041110583 0.09125267
0001a0 71 c2 72 3d 63 b9 2f 3d c1 94 47 bd ed 32 af 3b
       0.059267465 0.042901408 -0.048725847 0.005346647
0001b0 34 77 9d bc 06 fc 90 bb 60 19 ab 3c 86 b9 d7 bd
       -0.01922188 -0.004424575 0.020886123 -0.10533433
0001c0 a0 1e da bb de c8 4f 3d 0b 93 00 3e 52 31 b1 3c
       -0.006656483 0.05072867 0.12556092 0.021629963
0001d0 65 2e 95 3d c5 c2 c4 3d e4 c4 85 3d 45 df b8 bc
       0.0728424 0.09607462 0.065316945 -0.0225674
0001e0 1c e3 08 3d 27 eb d3 3d db 81 c8 bd 25 c7 23 3d
       0.033419713 0.10347586 -0.09790393 0.03998484
0001f0 f5 f9 0c bc 3d a7 1a bd cc 40 10 3d 58 93 86 3d
       -0.008604516 -0.037757147 0.035218045 0.06571072
000200 97 98 76 3d ce aa 4a 3d 87 a9 11 3d eb 38 97 3d
       0.060204115 0.0494793 0.035562064 0.07383903
000210 70 d5 a7 3c 90 c2 29 3d 0e 92 92 bc 08 ad 81 bd
       0.020487517 0.041445315 -0.01789191 -0.06331831
000220 dd 6c 81 3d e2 cf d0 3c 4f 84 89 3d 69 aa 2d be
       0.06319592 0.025489751 0.06714689 -0.16959538
000230 26 c8 d5 3c 30 77 b0 3c aa 8f 61 bd 4d 1f fd bc
       0.026096415 0.021541208 -0.05506865 -0.030898714
000240 30 20 9a 3d fc 11 5d 3d 6c cf 2a bd c7 48 39 3e
       0.075256705 0.05397223 -0.04170172 0.18094169
000250 0c fc 3a 3d 6e f8 8d bd 50 be 7e bd ea d7 90 3c
       0.045650527 -0.0693215 -0.062193215 0.01768108
000260 93 5c 26 bd ed 10 e5 bd 98 45 5c 3d 27 a7 22 bd
       -0.04061563 -0.11184869 0.053777307 -0.03971019
000270 3e 2d eb 3d bb 96 44 3d 24 7d a2 3c 49 f3 83 3d
       0.11483239 0.04799531 0.019835062 0.06442887
000280 63 11 b7 bb b5 49 59 bd 5d 25 44 bc 24 56 90 bb
       -0.0055867895 -0.053048808 -0.011971799 -0.0044048
000290 f7 9d 1b bd 74 73 a0 bb 17 c0 bb bd 04 24 9e 3b
       -0.037992444 -0.0048965756 -0.091674976 0.0048260707
0002a0 c8 34 eb 3d 3f 1b b1 bd 6e bc c4 3d 29 99 53 3a
       0.114846766 -0.08647775 0.096062526 0.0008071834
0002b0 08 70 45 3e d4 8a 1b bd 39 45 5e bd ad 47 8b 3d
       0.19281018 -0.037974194 -0.054265235 0.068007804
0002c0 ef 19 90 3a 10 5c 4e bd ff 65 fc ba c2 d4 59 3d
       0.0010994057 -0.050380766 -0.0019256471 0.053181417
0002d0 9e 14 f8 3d 8d d6 90 3c bf 42 a6 3d 96 45 ed 3c
       0.121133074 0.01768043 0.081181996 0.028963845
0002e0 c9 c6 6c 3c 0e 24 99 3d 94 ca 8a 3d 50 5a 1e bd
       0.014451691 0.0747758 0.0677692 -0.038660347
0002f0 fd 76 c6 3b 40 34 78 ba 58 fd ad 3c 37 47 a9 bc
       0.006056665 -0.0009468235 0.021238968 -0.02066384
000300 e7 74 99 3a 46 92 07 be 08 c2 cf bd 25 d1 16 bc
       0.0011707813 -0.13239393 -0.101444304 -0.009205137
000310 80 59 18 bd 4c bb a9 3c f6 1e 90 3c d3 c6 19 3d
       -0.03719473 0.020719193 0.017592888 0.03754313
000320 69 da 9b bb 8e 3e 21 3d dc 2b d3 bb e0 21 41 3d
       -0.004756261 0.039366297 -0.0064444374 0.047151446
000330 6c 9e 33 3e 23 f2 1e 3d 72 6d 0a 3c cf 12 91 3d
       0.17540902 0.03880514 0.008448945 0.070836656
000340 2d 21 46 bd a4 cc b0 bc ee c0 ee 3d ac 84 d9 3d
       -0.048371483 -0.021581955 0.11657892 0.10621008
000350 2b db 13 bb af 0e 99 bd 7a 6d ec bc d9 f6 a6 bd
       -0.0022561054 -0.07473504 -0.028860796 -0.08152551
000360 5d e7 37 3d f7 53 7f 3a f4 98 a2 3d 96 c4 50 3d
       0.04489838 0.000973999 0.0793933 0.05096873
000370 6b 69 7f 3d 9f ab c8 3c 26 e1 91 bc 5a 58 41 bd
       0.062356394 0.024495898 -0.017807554 -0.0472034
000380 8d 4b 93 bc 30 43 d2 ba e3 ca 80 bd 71 a4 00 be
       -0.017980361 -0.0016041752 -0.062886976 -0.1256273
000390 23 7d 8e bd b9 67 0f 3b eb cc 20 3c 2b 98 a6 3d
       -0.06957462 0.0021881892 0.009814481 0.081344925
0003a0 15 0f 89 3d c3 62 0c be 5b 00 18 3d c6 64 b2 3d
       0.0669233 -0.1370955 0.037109714 0.08710627
0003b0 53 fc c9 bc f1 05 d5 bc 9f 5b f7 3c 74 3a 97 bc
       -0.02465645 -0.02600381 0.030195056 -0.01846049
0003c0 f4 70 bc 3c 27 ca c0 3c b0 5d ab bd cf 8e 8c 3d
       0.023003079 0.023533894 -0.08367479 0.06863176
0003d0 59 9a 30 bc b3 3a ab bd 51 9b 9b 3c 3b fc ca 3b
       -0.010778987 -0.08360805 0.01899496 0.006194619
0003e0 48 2c f0 3d 90 48 83 3d 4f 37 18 bd f0 3d 74 bd
       0.11727196 0.064103246 -0.03716212 -0.05962938
0003f0 2d 9e 84 bd 41 3a 98 3c d8 35 5c bd 7b c9 8d bd
       -0.06475482 0.018582465 -0.053762287 -0.06923195
