MLagents/results/hb_17/Mario/Mario-69966.onnx (onnx, 377673 bytes, 12 tensors)

92 f4 [99]
0.003780536 0.003780536 0.003780536 0.003780536 0.0053464295 0.0053464295 0.3177254 0.029993989
0.15084638 0.003780536 0.003780536 0.003780536 0.31776017 0.029993989 0.15084638 0.003780536
0.003780536 0.003780536 0.3774947 0.050936572 0.31097227 0.003780536 0.003780536 0.003780536
0.40169728 0.052854072 0.28383705 0.003780536 0.003780536 0.003780536 0.42584822 0.05748868
0.42771527 0.003780536 0.003780536 0.003780536 0.4471981 0.06882493 0.39827743 0.003780536
0.003780536 0.003780536 0.47013944 0.09205478 0.41812935 0.003780536 0.003780536 0.003780536
0.48380518 0.1041942 0.39139324 0.003780536 0.003780536 0.003780536 0.4766079 0.11816772
0.4115526 0.003780536 0.003780536 0.003780536 0.48823008 0.13277642 0.38350144 0.003780536
0.003780536 0.003780536 0.48130065 0.12528534 0.45739403 0.003780536 0.003780536 0.003780536
0.48782855 0.15179163 0.4441746 0.003780536 0.003780536 0.003780536 0.4898956 0.13964185
0.45523 0.003780536 0.003780536 0.003780536 0.49567416 0.16736524 0.43691212 0.003780536
0.003780536 0.003780536 0.0053464295 0.003780536 0.003780536 0.29850432 0.15100868 0.003780536
0.005347372 0.009137465 0.003780536
00000000: dec2 773b dec2 773b dec2 773b dec2 773b
00000010: 1a31 af3b 1a31 af3b e7ac a23e f4b5 f53c
00000020: 7977 1a3e dec2 773b dec2 773b dec2 773b
00000030: 76b1 a23e f4b5 f53c 7977 1a3e dec2 773b
00000040: dec2 773b dec2 773b fc46 c13e dea2 503d
00000050: c237 9f3e dec2 773b dec2 773b dec2 773b
00000060: 44ab cd3e 837d 583d 1753 913e dec2 773b
00000070: dec2 773b dec2 773b c708 da3e 4079 6b3d
00000080: 7ffd da3e dec2 773b dec2 773b dec2 773b
00000090: 26f7 e43e 16f4 8c3d 05eb cb3e dec2 773b
000000a0: dec2 773b dec2 773b 1eb6 f03e 3787 bc3d
000000b0: 0d15 d63e dec2 773b dec2 773b dec2 773b
000000c0: 50b5 f73e c563 d53d b264 c83e dec2 773b
000000d0: dec2 773b dec2 773b f305 f43e eb01 f23d
000000e0: 06b7 d23e dec2 773b dec2 773b dec2 773b
000000f0: 4bf9 f93e 8bf6 073e 4d5a c43e dec2 773b
00000100: dec2 773b dec2 773b 0a6d f63e cd4a 003e
00000110: 8d2f ea3e dec2 773b dec2 773b dec2 773b
00000120: aac4 f93e 446f 1b3e da6a e33e dec2 773b
00000130: dec2 773b dec2 773b 99d3 fa3e 46fe 0e3e
00000140: e813 e93e dec2 773b dec2 773b dec2 773b
00000150: 01c9 fd3e cb61 2b3e f2b2 df3e dec2 773b
00000160: dec2 773b dec2 773b 1a31 af3b dec2 773b
00000170: dec2 773b 8fd5 983e 05a2 1a3e dec2 773b
00000180: 0239 af3b 4eb5 153c dec2 773b

action_model._discrete_distribution.branches.0.bias f4 [3]
-0.0015650853 -0.0023151075 0.0028989417
00000000: 8c23 cdba 0fb9 17bb 2cfc 3d3b

action_model._discrete_distribution.branches.0.weight f4 [3, 256]
0.00017629718 0.0031440384 -0.010188456 0.01740884 -0.032532696 -0.01540413 -0.0019072385 -0.020130372
0.009896815 0.007224241 0.0040873387 0.011041235 0.015015679 0.0026372885 -0.006436524 -0.005550184
0.016655494 -0.02097447 0.028493565 -0.0069335746 0.00015058891 0.010759695 -0.0012522764 -0.011476444
-0.002537257 0.01195646 0.0027478782 -0.0039520715 -0.008591806 -0.016157499 0.028189534 0.0059586065
0.011844637 0.010191321 0.0021775577 -0.010251317 0.027151212 0.011685032 0.00032704597 0.0062887687
-0.011412453 -0.00605422 0.003807086 -0.013089067 -0.033031996 -0.0013235545 -0.0012768472 -0.0022693188
-0.0039983694 0.0005402068 0.007852205 -0.025252761 0.020489665 0.007879856 0.01123684 0.0071004676
-0.0036698875 -0.020517977 -0.00079886406 -0.010683938 -0.009090767 0.015367152 1.233554e-05 0.012931926
0.026372463 0.01807503 0.009938091 -0.03661273 0.0032514213 -0.0042431923 0.01606329 0.00062495016
-0.001883313 -0.022653779 -0.007121667 0.013846741 0.017156076 -0.0026513964 -0.013903252 0.008332483
0.019220272 -0.007100599 0.0033209804 -0.029752389 0.0023759445 -0.008697139 -0.016491413 0.013534524
0.013651586 0.00559493 0.016194701 -0.011859487 -0.0029973509 -0.015289978 -0.017505782 -0.023172392
-0.0017273702 0.002085176 -0.009126087 0.019701824 -0.015308334 0.0027077324 0.002373585 0.016717797
0.0079343775 0.02387829 0.005679744 0.014659366 0.021721205 0.026282638 0.00023093085 0.009315792
0.016681837 0.010992922 -0.025406254 0.0019474813 -0.0043165167 0.02808244 -0.016750902 0.005977987
-0.0056875153 0.0073968847 0.00742751 0.0043081967 -0.008033848 0.011035124 -0.0018532095 0.017477911
0.02042586 0.0055944696 0.010584245 -0.027240293 0.00088346837 -0.001039253 -0.0045033963 -0.008439935
-0.0014253997 0.0074119074 0.024392903 -0.0073879706 0.01710356 -0.0005000342 -0.0047984314 -0.024188055
0.021102063 -0.026310619 -0.01783903 0.010591072 -0.016688408 -0.022247288 0.0005242386 -0.0007836909
0.003514201 -0.012417068 0.006188287 -0.016725276 0.009029201 -0.01421414 -0.011925058 0.0067892936
-0.009032947 -0.005070775 -0.025600685 -0.024032645 -0.0049056793 -0.0066117113 -0.022512184 0.01694493
0.007390942 -0.0132335145 -0.0021583093 -0.0009268016 0.012009735 -0.0050347038 -0.0016591963 0.013763243
0.0025735432 0.040642302 0.027740672 -0.03179902 0.020669675 -0.009066052 -0.01551951 0.0046112193
-0.014551162 0.019380298 0.011069395 -0.01614489 0.036218975 0.017212287 0.011681202 0.019277347
-0.012070937 0.00024699303 0.013883705 -0.015800862 -0.0032610586 -0.0005825928 -0.0050608637 0.027144695
-0.012059881 0.0033829021 0.0065507195 0.010598171 -0.0112979105 0.007986352 -0.0041933814 -0.0045701624
-0.008322594 -0.022868276 0.023321586 0.019038748 -0.010243755 -0.025659863 -0.017058866 -0.022782631
0.0057226187 0.017988477 -0.00892417 0.008769302 0.011904208 0.010710413 -0.016833156 -0.0017837174
0.001132315 -0.008928661 0.0036727595 0.021405738 -0.0068198736 -0.011649592 -0.008126174 0.01317669
-0.0063770856 0.0049607027 0.012935773 0.0009575811 -0.012413244 -0.015463143 0.01003547 0.006780733
0.0014401749 -0.005047467 -0.019583847 -0.02472534 0.01024101 0.010063982 0.0151985185 0.0039960565
-1.3263418e-05 0.006489721 0.018466812 0.02025127 0.0077156927 -0.014016578 0.020246916 0.016547674
00000000: 6adc 3839 360c 4e3b 7bed 26bc fc9c 8e3c
00000010: 0141 05bd 9b61 7cbc 4efc f9ba 73e8 a4bc
00000020: 4026 223c 53b9 ec3b 15ef 853b 4ce6 343c
00000030: 5304 763c 5cd6 2c3b 7ae9 d2bb 51de b5bb
00000040: 1a71 883c a7d2 abbc 566b e93c 0a33 e3bb
00000050: 67e7 1d39 6f49 303c 6c23 a4ba b207 3cbc
00000060: 1c48 26bb 07e5 433c bf15 343b 6180 81bb
00000070: a5c4 0cbc bb5c 84bc bded e63c 6a40 c33b
00000080: 0210 423c 80f9 263c 5bb5 0e3b 24f5 27bc
00000090: 386c de3c 9472 3f3c 5e77 ab39 0412 ce3b
000000a0: 4cfb 3abc 7a62 c6bb 4e80 793b 8773 56bc
000000b0: 8f4c 07bd 1f7b adba e25b a7ba dab8 14bb
000000c0: c104 83bb aa9c 0d3a 89a6 003c e1de cebc
000000d0: f1d9 a73c 831a 013c b91a 383c 0aab e83b
000000e0: 7f82 70bb 5115 a8bc dc6a 51ba af0b 2fbc
000000f0: 71f1 14bc 82c6 7b3c bef4 4e37 6ee0 533c
00000100: 100b d83c 1612 943c 60d3 223c 3bf7 15bd
00000110: cc15 553b 7a0a 8bbb 2997 833c b2d3 233a
00000120: 7fd9 f6ba 6b94 b9bc df5c e9bb 71dd 623c
00000130: e68a 8c3c 0dc3 2dbb 77ca 63bc f784 083c
00000140: d573 9d3c 24ac e8bb cea4 593b 48bb f3bc
00000150: bcb5 1b3b 727e 0ebc 0019 87bc e8bf 5d3c
00000160: e7aa 5f3c ad55 b73b c0aa 843c 4b4e 42bc
00000170: 346f 44bb d182 7abc 4968 8fbc 07d4 bdbc
00000180: ed68 e2ba 73a7 083b 9585 15bc b865 a13c
00000190: cecf 7abc 3674 313b 268e 1b3b c3f3 883c
000001a0: 31ff 013c 679c c33c 251d ba3b d62d 703c
000001b0: abf0 b13c b04e d73c 0726 7239 43a1 183c
000001c0: 59a8 883c a81b 343c c720 d0bc a142 ff3a
000001d0: 9171 8dbb 250d e63c 3039 89bc fde2 c33b
000001e0: 565e babb 9161 f23b 7862 f33b c62b 8d3b
000001f0: 67a0 03bc aacc 343c 64e7 f2ba d62d 8f3c
00000200: 2254 a73c d051 b73b 8b69 2d3c 0927 dfbc
00000210: 8f98 673a 8b37 88ba 3a91 93bb a747 0abc
00000220: 7ad4 baba 96df f23b a0d3 c73c ca16 f2bb
00000230: c41c 8c3c ba14 03ba 293c 9dbb 0726 c6bc
00000240: 3cde ac3c 5e89 d7bc 2823 92bc 2d86 2d3c
00000250: 21b6 88bc f23f b6bc 0f6d 093a 9b70 4dba
00000260: 824e 663b f570 4bbc 1dc7 ca3b 7203 89bc
00000270: 37ef 133c 6de2 68bc 5261 43bc b978 de3b
00000280: edfe 13bc be28 a6bb 87b8 d1bc 1ce0 c4bc
00000290: d2bf a0bb 0ea7 d8bb 796b b8bc 18d0 8a3c
000002a0: b72f f23b 62d1 58bc 6c72 0dbb 9af4 72ba
000002b0: 7bc4 443c 28fa a4bb 6479 d9ba 3a7f 613c
000002c0: e4a8 283b 8b78 263d 6840 e33c b03f 02bd
000002d0: 7353 a93c c789 14bc 8b45 7ebc b619 973b
000002e0: ff67 6ebc 6ec3 9e3c 685c 353c 4a42 84bc
000002f0: 595a 143d c800 8d3c 8362 3f3c 87eb 9d3c
00000300: 2ec5 45bc d87e 8139 7b78 633c cf70 81bc
00000310: 7cb7 55bb 24b9 18ba 9ad5 a5bb 8d5e de3c
00000320: cf96 45bc aeb3 5d3b 6ba7 d63b f3a3 2d3c
00000330: df1a 39bc 30d9 023c a268 89bb 4dc1 95bb
00000340: 7d5b 08bc 4056 bbbc e90c bf3c 26f7 9b3c
00000350: 6cd5 27bc a234 d2bc 09bf 8bbc a4a2 babc
00000360: ce84 bb3b 925c 933c af36 12bc 1ead 0f3c
00000370: de09 433c ba7a 2f3c b0e5 89bc a0cb e9ba
00000380: 306a 943a 8549 12bc aeb2 703b 165b af3c
00000390: 3f79 dfbb eedd 3ebc a523 05bc 0be3 573c
000003a0: dff6 d0bb 648d a23b 90f0 533c 2e06 7b3a
000003b0: eb60 4bbc 1f59 7dbc d06b 243c e930 de3b
000003c0: 40c4 bc3a 3965 a5bb 4e6e a0bc cc8c cabc
000003d0: e9c9 273c 66e3 243c 3503 793c 5af1 823b
000003e0: f285 5eb7 baa7 d43b b647 973c fee5 a53c
000003f0: ecd3 fc3b caa5 65bc dcdc a53c fd8e 873c

action_model._discrete_distribution.branches.1.bias f4 [2]
-0.009546252 0.009546254
00000000: e267 1cbc e467 1c3c

action_model._discrete_distribution.branches.1.weight f4 [2, 256]
0.0030424367 -0.0072617633 0.0055804686 0.014479431 -0.013819396 0.013967338 0.0018824865 -0.0008822962
0.012920931 -0.0072317827 0.034375973 -0.0011477534 -0.014108829 0.005988768 -0.017715102 -0.023222359
0.017412517 0.023886107 0.0018191369 0.012780615 -0.012797545 0.021425067 0.0074099307 0.0023831374
0.019369427 -0.0001483913 0.026286582 0.0047963783 -0.01848049 -0.0045090774 0.0054567647 0.009053194
0.00018646849 -0.017075775 0.005349555 0.008805078 -0.002375025 0.0037826821 0.0154127665 0.016629785
0.0040923483 -0.01278968 -0.007934478 -0.019920416 0.039569646 -0.002395118 -0.010135428 -0.012627392
-0.021150747 -0.016836349 -0.005887407 0.0023442993 0.026981331 -0.008837174 -0.00524336 0.00834385
0.0042888215 -0.022063073 -0.010799554 -0.00096673856 -0.020649819 0.010118676 -0.01005192 0.04361242
-0.0040622735 -0.01890996 0.021354886 -0.007302738 -0.010697816 -0.004647079 -0.0054518594 0.0026167743
-0.0020572757 -0.0083010625 0.021236705 0.039804064 -0.0032555321 0.009188905 -0.018589923 -0.015813675
-0.01290166 0.001410146 0.0041836295 0.0018947695 -0.0072438153 0.019440887 -0.0073411223 0.02586087
-0.0033060089 0.009227061 -0.0094309645 -0.0065865978 0.0040466334 -0.0015984696 -0.008777262 0.0050404686
-0.0011260497 0.0001979245 -0.008728641 -0.023715468 0.0034808517 -0.008055624 -0.023304496 0.017453365
-0.0053773774 -0.008094432 -0.013851294 -0.0013100179 0.0075531146 -0.0056332913 0.014322925 0.0058882376
0.007244203 0.007983258 -0.014029079 -0.0060693705 0.0074107433 0.023932753 -0.0053302473 -0.023489483
0.00012011577 -0.014382275 -0.0039846315 -0.0031002318 0.009559699 -0.012404604 -0.0059092687 -0.028919507
-0.0143465875 0.007981352 -0.00013025844 -0.013206395 0.015501725 0.01702077 -0.01331994 0.010357128
0.027034355 -0.006833537 0.0023420122 0.002534178 -0.0046104146 -0.011969697 -0.017435763 0.002671107
-0.00091033743 0.0022886675 0.0234101 -0.0026160653 0.008427387 -0.0076992307 0.008979436 0.019078512
-0.00666936 0.013045541 -3.2742097e-05 0.0011389742 0.0011884567 -0.021523895 0.016005846 0.0033486695
0.01022014 0.013761602 -0.01489388 0.006879785 -0.008801993 0.029814567 -0.007322618 0.016359719
-0.019050196 -0.007511178 0.0054797423 0.0049732574 -0.008146936 -0.02085036 0.004435228 0.013071137
0.0174395 0.016878063 -0.0028363557 -0.0035380053 0.005256368 0.019819299 -0.009946691 -0.0043460005
0.014509931 -0.008951151 0.0003263035 -0.01133581 -0.021226661 0.0050403923 0.0063542253 -0.0075616394
-0.013263679 -0.012975693 -0.026092477 0.027407106 -0.012464249 0.00882844 0.023531113 0.016330138
-0.0069304835 0.024101008 0.007880836 0.0017957739 -0.011271362 -0.0042679757 -0.003766168 0.0030220675
-0.0035271184 -0.005918451 -0.011613532 0.0035642858 -0.018673401 0.011612775 -0.0025652237 0.025030272
-0.0071556414 -0.019327043 0.024455138 -0.008052718 -0.00974936 -0.008936564 -0.021522382 -0.010345717
0.002040428 0.018293835 0.016510606 -0.005824954 -0.011607234 0.00042478138 -0.019606372 0.0057903375
-0.0024936693 -0.0052924408 0.025611354 0.0065733436 -0.014232925 -0.0010958025 0.02891468 -0.003934003
0.009637551 -0.014363618 0.0037101277 -0.0015345106 0.0046091494 -0.00023145314 -0.011803497 0.011393817
-0.011954452 0.011304958 0.011365874 -0.028940422 -0.015010962 -0.013974271 -0.0061473357 0.012606196
00000000: 9e63 473b 16f4 edbb 5ddc b63b 233b 6d3c
00000010: bf6a 62bc 43d7 643c c4bd f63a e549 67ba
00000020: 50b2 533c 97f8 ecbb d2cd 0c3d 3770 96ba
00000030: b828 67bc 6d3d c43b 431f 91bc d13c bebc
00000040: b2a4 8e3c ccac c33c 1b70 ee3a c965 513c
00000050: cbac 51bc 9f83 af3c 01cf f23b 692e 1c3b
00000060: a2ac 9e3c 7c99 1bb9 f556 d73c f02a 9d3b
00000070: 6664 97bc e2c0 93bb a9ce b23b d953 143c
00000080: c186 4339 7fe2 8bbc 524b af3b 2d43 103c
00000090: 4fa6 1bbb e0e6 773b d485 7c3c 303b 883c
000000a0: 1b19 863b ce8b 51bc 9dff 01bc 2430 a3bc
000000b0: c813 223d 69f7 1cbb 110f 26bc 1fe3 4ebc
000000c0: 5544 adbc 62ec 89bc 26eb c0bb d1a2 193b
000000d0: f407 dd3c cbc9 10bc 7ed0 abbb a5b4 083c
000000e0: 3e89 8c3b 9ebd b4bc 9df0 30bc ba6c 7dba
000000f0: cf29 a9bc cec8 253c cfb0 24bc f0a2 323d
00000100: d21c 85bb 0fe9 9abc 71f0 ae3c ce4b efbb
00000110: e445 2fbc 8646 98bb 83a5 b2bb 307e 2b3b
00000120: 5cd3 06bb 2e01 08bc 99f8 ad3c 9609 233d
00000130: c45a 55bb 108d 163c e549 98bc ae8b 81bc
00000140: 7c61 53bc a6d4 b83a d416 893b ea59 f83a
00000150: 875d edbb 7f42 9f3c cc8d f0bb 2dda d33c
00000160: a0a9 58bb 192d 173c 5584 1abc 63d4 d7bb
00000170: 9f99 843b bd83 d1ba 81ce 0fbc 842a a53b
00000180: f597 93ba f489 4f39 9302 0fbc f146 c2bc
00000190: 001f 643b bcfb 03bc 12e9 bebc 5cfa 8e3c
000001a0: b634 b0bb 829e 04bc 8af0 62bc e8b4 abba
000001b0: 1e80 f73b 7997 b8bb b4aa 6a3c 1ef2 c03b
000001c0: c760 ed3b 36cc 023c 39da 65bc 92e1 c6bb
000001d0: d2d5 f23b 9f0e c43c 5ba9 aebb 046d c0bc
000001e0: aae6 fb38 a2a3 6bbc 8391 82bb 422d 4bbb
000001f0: 49a0 1c3c ae3c 4bbc 8aa2 c1bb 9ae8 ecbc
00000200: f30d 6bbc 37c4 023c fc95 08b9 a35f 58bc
00000210: f2fa 7d3c 246f 8b3c e13b 5abc f2b0 293c
00000220: 2777 dd3c ddeb dfbb 727c 193b 7414 263b
00000230: f612 97bb 8c1c 44bc 72d5 8ebc bd0d 2f3b
00000240: b6a3 6eba 78fd 153b 8ac6 bf3c 4b72 2bbb
00000250: 0613 0a3c d449 fcbb 7c1e 133c 8a4a 9c3c
00000260: a68a dabb f7bc 553c 8f54 09b8 a249 953a
00000270: fdc5 9b3a e152 b0bc b11e 833c 5a75 5b3b
00000280: 6072 273c 5878 613c 7605 74bc d26f e13b
00000290: 3c36 10bc ae3d f43c 92f2 efbb d104 863c
000002a0: 280f 9cbc 5420 f6bb 698f b33b b5f6 a23b
000002b0: ba7a 05bc 60ce aabc 6455 913b 5228 563c
000002c0: 48dd 8e3c dd43 8a3c 27e2 39bb e1dd 67bb
000002d0: 9c3d ac3b 155c a23c 72f7 22bc e568 8ebb
000002e0: 10bb 6d3c d9a7 12bc b713 ab39 d5b9 39bc
000002f0: 89e3 adbc e029 a53b 1b37 d03b a1c7 f7bb
00000300: e74f 59bc 0098 54bc e4bf d5bc de84 e03c
00000310: d936 4cbc 29a5 103c 52c4 c03c c8c6 853c
00000320: 1c19 e3bb 7a6f c53c 9f1e 013c 2c60 eb3a
00000330: 85ab 38bc 60da 8bbb d0d1 76bb e10d 463b
00000340: 3a27 67bb 91ef c1bb af46 3ebc cb96 693b
00000350: f6f8 98bc 8243 3e3c 501d 28bb 490c cd3c
00000360: df79 eabb bf53 9ebc 2456 c83c 8cef 03bc
00000370: c8bb 1fbc ab6a 12bc b54f b0bc 1581 29bc
00000380: b4b8 053b f4dc 953c 4041 873c 41df bebb
00000390: 452c 3ebc 31b5 de39 8b9d a0bc dfbc bd3b
000003a0: d46c 23bb 366c adbb e7ce d13c 3465 d73b
000003b0: 3731 69bc 08a1 8fba 7bde ec3c cfe8 80bb
000003c0: d2e6 1d3c 6155 6bbc 9d25 733b a221 c9ba
000003d0: 5908 973b 3bb2 72b9 7463 41bc 22ad 3a3c
000003e0: 9bdc 43bc 6e38 393c ee37 3a3c 7714 edbc
000003f0: 8af0 75bc 57f4 64bc 976f c9bb 388a 4e3c

action_model._discrete_distribution.branches.2.bias f4 [2]
0.01168659 -0.0116865905
00000000: 1c79 3f3c 1d79 3fbc

action_model._discrete_distribution.branches.2.weight f4 [2, 256]
0.00196245 0.005171412 0.013621392 0.026601778 0.020827191 0.000819185 -0.005473054 0.001548878
-0.020677669 -0.008258261 0.011190405 -0.002755585 -0.012293326 0.011806294 -0.020910945 -0.010113169
-0.022614757 0.0063790306 0.0025121113 -0.010344271 0.032370552 0.008735396 0.008515077 -0.00019668539
0.008021489 0.003017783 -0.00029706548 0.013624424 0.021512393 0.011601854 -0.017713577 -0.0108669335
0.01130614 0.0021222075 -0.019294227 0.016632894 -0.0003133872 -0.006406907 0.008516252 0.018279506
-0.003667418 0.026853165 0.004851091 0.021492666 0.01804664 -0.006146537 0.020434098 -0.0036777318
-0.004805313 0.023536328 -0.011353564 0.006446082 0.0024431697 0.0021308234 0.010476775 -0.0036929003
0.006692516 0.018960567 0.024296118 0.020948503 0.017712649 -0.01931953 0.003323573 0.014407686
-0.012198465 0.011590467 0.00117526 -0.021772655 0.015306664 0.0033901213 -0.0041750018 0.004720216
0.010190021 0.006868327 0.0022401188 -0.004277291 -0.0065703695 -0.005596548 -0.008133039 0.0023383186
-0.01277684 0.00039798595 0.008655924 -0.00691826 0.028558549 0.009992378 -0.007658775 -0.02377249
0.013019341 0.016211785 -0.02124989 0.01851541 -0.003772114 0.04677162 -0.0073832446 0.024802396
-0.014092747 -0.018984713 0.010985026 0.01786874 0.019461526 0.002752265 -0.02223349 -0.0052442593
0.014124195 -0.0071971146 -0.008272913 0.0078592645 0.0037525909 -0.0007566819 0.0024965543 0.013309677
0.020086922 -0.016894657 0.0053056264 0.016699 0.016925927 0.010760641 -0.022487026 -0.019456126
-0.000825927 0.0029547529 0.005208688 -0.004498783 0.015931673 -0.011489733 0.00839819 0.003061583
-0.016473206 -0.0053238287 0.0026842759 -0.014264616 -0.0008108694 -0.010524095 0.014129141 0.001030417
-0.018686285 -0.0018195484 0.005068896 -0.0016052463 0.004302795 -0.023459867 0.0032991436 0.008500325
-0.009867392 0.017571088 -0.0035407578 0.009494602 0.02899186 -0.013619471 0.010220841 0.00022171551
-0.0011036274 0.007680401 -0.0052591395 0.011214329 0.030256791 0.008311689 -0.016215125 -0.004665273
0.0010377165 -0.025976982 0.0015290736 -0.0022889993 -0.0034765636 -0.0079948185 -0.00261203 -0.0030178253
-0.029436594 -0.0042703263 0.0024780382 0.034598004 -0.0035426538 0.006214512 -0.0023794512 0.0025569496
-0.027366707 -0.012796597 -0.015912773 0.007800129 -0.0041427747 0.00791021 0.013309593 -0.0046947175
0.019276867 0.008012157 -0.020912265 0.009906305 0.012504601 -0.015056423 -0.018478192 0.021204362
0.024435135 0.0019846687 -0.012115359 0.018829241 0.008159265 -0.0036224273 -0.012774424 0.006905274
0.0038916464 -0.01829812 -0.0018430003 -0.0075863097 -0.0054381494 -0.014689773 0.002746259 0.0061902646
-0.0071014795 -0.010284479 0.021143097 -0.009195531 -0.008428864 0.02457835 -0.008378229 -0.01380006
-0.015302057 -0.008918185 -0.013572565 0.004897789 0.005652059 -0.0022214078 -0.008703909 -0.023440577
0.009502009 0.006347209 0.0006649479 -0.006062971 -0.024714766 0.015205793 -0.008742478 -0.0016654755
-0.000115369156 -0.00811547 -0.021252662 -0.003164427 -0.016258772 0.0052768043 -0.017397758 -0.005692664
-0.023795169 -0.008325711 -0.017310413 0.020505521 0.00804281 0.0011718784 -0.020129604 0.0029899394
0.0060927696 0.020579405 -0.01818329 0.01588382 -0.0070240186 -0.007936163 -0.013640154 0.009313217
00000000: 739c 003b f374 a93b 422c 5f3c f9eb d93c
00000010: c99d aa3c 93be 563a 4e57 b3bb b903 cb3a
00000020: 3764 a9bc a84d 07bc f657 373c 0b97 34bb
00000030: f269 49bc 306f 413c 6e4d abbc b5b1 25bc
00000040: 9542 b9bc 3007 d13b 3ca2 243b 047b 29bc
00000050: fc96 043d e81e 0f3c d282 0b3c 553d 4eb9
00000060: 906c 033c ffc5 453b 74bf 9bb9 fa38 5f3c
00000070: c23a b03c b415 3e3c 101c 91bc 390b 32bc
00000080: 633d 393c bc14 0b3b ed0e 9ebc b541 883c
00000090: 1e4e a4b9 08f1 d1bb c087 0b3c e7be 953c
000000a0: 1059 70bb 2bfb db3c e7f5 9e3b 6311 b03c
000000b0: 8cd6 933c e468 c9bb 6965 a73c 1a06 71bb
000000c0: e375 9dbb 42cf c03c 4d04 3abc a839 d33b
000000d0: 961d 203b 49a5 0b3b c7a6 2b3c 9604 72bb
000000e0: e54c db3b 3153 9b3c a708 c73c 329c ab3c
000000f0: 1e1a 913c fe43 9ebc 4dd0 593b 370e 6c3c
00000100: 12dc 47bc f1e5 3d3c 2f0b 9a3a 915c b2bc
00000110: cdc8 7a3c cc2c 5e3b 74ce 88bb 0bac 9a3b
00000120: 0cf4 263c b40f e13b f5ce 123b 8428 8cbb
00000130: 414c d7bb 3f63 b7bb 7040 05bc 7a3e 193b
00000140: f355 51bc c5a8 d039 94d1 0d3c 92b2 e2bb
00000150: 9ef3 e93c 12b7 233c 76f6 fabb 86be c2bc
00000160: 134f 553c 94ce 843c 4014 aebc a1ad 973c
00000170: 9235 77bb 9993 3f3d 25ef f1bb 652e cb3c
00000180: 44e5 66bc d485 9bbc 8afa 333c 7761 923c
00000190: c76d 9f3c 585f 343b 0223 b6bc 09d8 abbb
000001a0: 2b69 673c c6d5 ebbb 1d8b 07bc 25c4 003c
000001b0: 07ee 753b 105c 46ba 3b9d 233b d510 5a3c
000001c0: 548d a43c aa66 8abc d2da ad3b 57cc 883c
000001d0: 3ea8 8a3c 664d 303c b636 b8bc 7462 9fbc
000001e0: 0683 58ba 87a4 413b a4ad aa3b 876a 93bb
000001f0: 2483 823c 6f3f 3cbc 9098 093c d7a4 483b
00000200: d1f2 86bc 8373 aebb adea 2f3b 23b6 69bc
00000210: 8690 54ba 416d 2cbc ea7d 673c 0f0f 873a
00000220: fb13 99bc ea7d eeba fb18 a63b 2167 d2ba
00000230: 76fe 8c3b e82e c0bc 7236 583b f244 0b3c
00000240: d7aa 21bc 3ef1 8f3c 0f0c 68bb 3f8f 1b3c
00000250: 5680 ed3c 3424 5fbc 5075 273c 4e7c 6839
00000260: 97a7 90ba e0ab fb3b dc54 acbb 4ebc 373c
00000270: 17dd f73c c02d 083c 95d5 84bc 25df 98bb
00000280: fd03 883a aecd d4bc 326b c83a 0903 16bb
00000290: 0fd7 63bb b3fc 02bc 972e 2bbb b5c6 45bb
000002a0: 0325 f1bc 18ee 8bbb 9566 223b a3b6 0d3d
000002b0: de2b 68bb 1ba3 cb3b 91f0 1bbb 7f92 273b
000002c0: 2530 e0bc d1a8 51bc 815b 82bc 3998 ff3b
000002d0: 1dc0 87bb d399 013c 7b10 5a3c 25d6 99bb
000002e0: 85ea 9d3c 6c45 033c 3350 abbc 0e4e 223c
000002f0: 19e0 4c3c 37af 76bc 945f 97bc c5b4 ad3c
00000300: 312c c83c 3711 023b 807f 46bc c83f 9a3c
00000310: 70ae 053c 3f66 6dbb d14b 51bc a345 e23b
00000320: fe0a 7f3b f0e5 95bc d490 f1ba 9496 f8bb
00000330: 8132 b2bb 60ad 70bc 95fa 333b b4d7 ca3b
00000340: 87b3 e8bb 3b80 28bc 4a34 ad3c daa8 16bc
00000350: 3819 0abc 8958 c93c d744 09bc a619 62bc
00000360: 7bb5 7abc 941d 12bc 775f 5ebc a27d a03b
00000370: e834 b93b 0a95 11bb d79a 0ebc 7406 c0bc
00000380: 50ae 1b3c 40fc cf3b e64f 2e3a e3ab c6bb
00000390: 9f76 cabc b821 793c 9c3c 0fbc 164c daba
000003a0: 58f2 f1b8 c0f6 04bc 101a aebc 4662 4fbb
000003b0: 1e31 85bc 0be9 ac3b be85 8ebc 8789 babb
000003c0: 16ee c2bc 9068 08bc 91ce 8dbc 32fb a73c
000003d0: fdc5 033c b799 993a d7e6 a4bc dcf2 433b
000003e0: dba5 c73b 2496 a83c 1ff5 94bc c91e 823c
000003f0: bd29 e6bb ae06 02bc f47a 5fbc 7796 183c

network_body.linear_encoder.seq_layers.0.bias f4 [256]
0.007975095 0.009274336 -0.013627405 0.01596019 0.013881199 0.01741173 0.00030931697 0.015915835
0.005390803 0.0035469085 0.006053803 0.0020630534 -0.0027991761 0.007066847 -0.001647726 0.0122695025
-0.013175605 -0.01994971 -0.010761227 -0.0028407944 -0.010337159 0.012007837 -0.002153247 -0.0038079692
-0.00526276 -0.011499746 -0.0017504419 0.015052255 0.0029514749 -0.016110469 0.009471733 0.0041026226
0.007090337 -0.0016351468 0.016558226 -0.005428445 0.0141816605 -0.006823687 -0.009727646 0.001465301
0.0019516023 0.023627449 -0.00937643 0.002459277 -0.011344796 0.014272894 0.0071151713 0.009183831
-0.010656087 -0.009137947 0.0036326677 -0.0098019615 -0.016126717 0.0012061661 -0.004626618 0.020138301
0.018531997 -0.012494294 -0.017235555 -0.0045279777 -0.008943434 -0.002194975 0.019056633 -0.013612986
0.0027932448 -0.008705488 0.005451996 -0.0019295878 0.009361418 0.0032569775 -0.002438318 0.0031913142
0.021596277 0.007510381 -0.0073584295 -0.011956926 0.009255927 -0.019321559 0.00953243 -0.030970238
0.004583511 0.002799204 0.008894128 0.0011086203 0.014465375 0.01029121 0.0075680395 -0.0069244355
-0.012953735 -0.008432727 0.009112326 0.0023136982 0.0024804363 -0.00744177 0.009798701 0.006997525
0.0006927545 0.018165378 -0.019499289 0.012058933 0.008510376 -0.0059831976 7.6026816e-05 -0.0018769348
0.02083431 0.009627608 0.009444222 -0.018270217 0.016220637 -0.011904504 -0.00915376 0.0013517136
0.009150816 -0.0223975 -0.0059314193 -0.019821854 -0.0070893816 0.019973595 0.012467889 0.012285917
-0.0035175309 -0.00939793 -0.0038677983 0.00040363718 0.005211803 -0.018962353 -0.0128361955 0.013798032
0.015891802 0.0036519729 -0.008006699 -0.012244636 0.0126488805 -0.003976864 0.008873189 -0.007911351
0.031794604 -0.015683051 -0.0017248291 0.007892443 0.017246008 -0.008346286 -0.017460756 0.012874709
0.0077673476 0.0029302782 0.0075044176 -8.4326115e-05 0.015029973 0.022412762 -0.009203145 0.00096647645
0.02329852 -0.005116749 -0.00059674756 0.020021891 0.021839784 0.01695937 -0.009636596 0.010589174
-0.0064758146 -0.0043053767 -0.012846776 0.008797713 0.015001415 0.013990575 -0.0060896594 0.009378623
0.0032186084 -0.006991684 -0.017976096 0.023732446 0.013533125 0.0011248563 0.003800093 0.0062539577
-0.009006974 -0.004977725 -0.0132458415 0.009840531 0.0066494932 0.013468234 0.016645746 0.024963923
0.012892512 0.0010541611 0.0029289217 -0.006732013 -0.0023155245 -5.867968e-05 -0.021820966 0.024850616
0.006754653 0.0063235452 0.011014787 0.020759735 0.008019003 -0.0031897933 -0.002069597 0.0030240878
-0.012975062 -0.0076645426 0.009384953 0.023023263 -0.0021976999 0.0063185715 -0.016749028 0.02161319
-0.0067570675 -0.00397667 9.98981e-06 0.00045974943 -0.002375377 0.0010720637 -0.01996799 0.0027982227
0.001874803 0.0009941577 0.011012592 0.0026712236 0.0055805054 -0.013003834 0.013862474 -0.0061245593
8.158084e-05 -0.0046300376 -0.011052884 -0.0030899479 -0.0025240039 -0.002574531 -0.0010905953 0.017189233
-0.01746703 0.0046610883 0.015856525 0.016136283 0.005527651 -0.0018478383 0.007267244 -0.008958096
0.00757849 -0.002012916 0.019236574 0.025025649 0.018097917 -0.015306586 -0.012252071 -0.009357204
0.0009489211 -0.0031255009 -0.012315239 0.008697444 -0.0009611533 0.024522755 0.00069809443 -0.015549275
00000000: f9a9 023c 62f3 173c 7b45 5fbc f2be 823c
00000010: f86d 633c 0ba3 8e3c d22b a239 ed61 823c
00000020: 55a5 b03b 4073 683b fb5e c63b 4b34 073b
00000030: 6272 37bb 0291 e73b 83f8 d7ba 0606 493c
00000040: 7ede 57bc 936d a3bc dc4f 30bc 9f2c 3abb
00000050: 305d 29bc 85bc 443c 7d1d 0dbb 1f8f 79bb
00000060: 3b73 acbb 6e69 3cbc 156f e5ba bc9d 763c
00000070: 886d 413b 1afa 83bc 542f 1b3c 4b6f 863b
00000080: 0f56 e83b 6c52 d6ba 1ea5 873c 19e1 b1bb
00000090: 325a 683c 3c99 dfbb b460 1fbc 580f c03a
000000a0: e8cc ff3a 5a8e c13c 999f 19bc d22b 213b
000000b0: 86df 39bc dbd8 693c 6226 e93b c777 163c
000000c0: de96 2ebc 54b7 15bc 0d12 6e3b 6898 20bc
000000d0: 2d1c 84bc 3818 9e3a e39a 97bb 14f9 a43c
000000e0: 6ad0 973c deb4 4cbc 9431 8dbc 6e5f 94bb
000000f0: 7b87 12bc 92d9 0fbb a81c 9c3c 0009 5fbc
00000100: df0e 373b 77a1 0ebc a8a6 b23b 39ea fcba
00000110: a260 193c 0473 553b 30cc 1fbb 5e25 513b
00000120: adea b03c a419 f63b fb1e f1bb fce6 43bc
00000130: 2ca6 173c 3f48 9ebc e92d 1c3c 4cb5 fdbc
00000140: 4731 963b da72 373b adb8 113c 204f 913a
00000150: 2e00 6d3c 779c 283c 51fd f73b 60e6 e2bb
00000160: e73b 54bc 6c29 0abc de4b 153c 6aa1 173b
00000170: d18e 223b 17da f3bb bb8a 203c 7f4b e53b
00000180: f899 353a 8fcf 943c f9bc 9fbc d592 453c
00000190: 1b6f 0b3c b30e c4bb 9670 9f38 7b03 f6ba
000001a0: b7ac aa3c 1dbd 1d3c f0bb 1a3c 6cab 95bc
000001b0: 24e1 843c 1c0b 43bc a7f9 15bc fb2b b13a
000001c0: 4eed 153c f67a b7bc 5a5c c2bb 7161 a2bc
000001d0: 0b4e e8bb aa9f a33c 1e46 4c3c df4a 493c
000001e0: 6086 66bb c7f9 19bc e37a 7dbb 449f d339
000001f0: c6c7 aa3b f056 9bbc e84e 52bc 2411 623c
00000200: 862f 823c f055 6f3b 882e 03bc ba9d 48bc
00000210: 403d 4f3c 5a50 82bb da60 113c 9c9e 01bc
00000220: 0f3b 023d be79 80bc a913 e2ba 4e4f 013c
00000230: 8047 8d3c dcbe 08bc dc09 8fbc 72f0 523c
00000240: 3c85 fe3b e909 403b 9ee7 f53b 3dd8 b0b8
00000250: 4740 763c f89a b73c cac8 16bc 235b 7d3a
00000260: 8adc be3c 67aa a7bb 0d6f 1cba f304 a43c
00000270: 59e9 b23c 60ee 8a3c d0e2 1dbc 377e 2d3c
00000280: 1233 d4bb 1e14 8dbb 497b 52bc 4824 103c
00000290: 7fc8 753c ba38 653c c48b c7bb cca8 193c
000002a0: 4aef 523b 7f1a e5bb 9b42 93bc 8c6a c23c
000002b0: 0aba 5d3c ea6f 933a fb0a 793b 00ee cc3b
000002c0: fd91 13bc 2f1c a3bb 1605 59bc 2e3a 213c
000002d0: fee3 d93b dea9 5c3c a95c 883c 2481 cc3c
000002e0: 1d3b 533c c72b 8a3a 27f3 3f3b 3898 dcbb
000002f0: 0ec0 17bb d41e 76b8 e2c1 b2bc 8593 cb3c
00000300: 2356 dd3b be35 cf3b 5d77 343c 5210 aa3c
00000310: 2362 033c da0b 51bb 13a2 07bb c62f 463b
00000320: 5b95 54bc d826 fbbb 59c3 193c 489b bc3c
00000330: 4907 10bb 050c cf3b 4235 89bc 250e b13c
00000340: 646a ddbb ba4e 82bb e899 2737 860a f139
00000350: 37ac 1bbb 7d84 8c3a e993 a3bc 6362 373b
00000360: f3bb f53a 664e 823a 296e 343c b20f 2f3b
00000370: acdc b63b 080e 55bc 6e1f 633c 87b0 c8bb
00000380: 6116 ab38 92b7 97bb 2817 35bc b980 4abb
00000390: c269 25bb 76b9 28bb 4ef2 8eba 6fd0 8c3c
000003a0: 0417 8fbc 0bbc 983b 8be5 813c 3d30 843c
000003b0: 4c21 b53b 2a33 f2ba 1022 ee3b fac4 12bc
000003c0: fb54 f83b 20eb 03bb 0596 9d3c 9702 cd3c
000003d0: 1542 943c 7ac8 7abc e9bc 48bc f54e 19bc
000003e0: 04c1 783a 34d5 4cbb dbc5 49bc b97f 0e3c
000003f0: e8f5 7bba f2e3 c83c 5300 373a 63c2 7ebc

network_body.linear_encoder.seq_layers.0.weight f4 [256, 99]
0.006191299 0.074725054 0.12349854 0.12752701 -0.10500718 -0.005725055 0.0011352216 -0.09536387
-0.007330595 -0.08403296 -0.1104421 -0.122184426 -0.16283068 0.123748116 -0.21561754 -0.071270145
0.04492589 -0.09438164 0.0012313814 0.038965307 -0.022099718 0.04884931 -0.07968665 0.03819147
-0.16079473 -0.05410869 -0.13234854 0.053498756 0.06213617 -0.1608196 0.020610768 -0.048377294
-0.14904362 0.14943327 -0.064367235 -0.14733215 0.041264594 -0.073707476 0.07822947 0.145033
0.108847134 0.1215882 -0.1030549 -0.1015382 0.056567706 0.14942543 -0.049615663 -0.048937958
0.15438206 0.22980508 0.13138986 -0.04794496 -0.030139145 -0.036015842 -0.0906916 -0.094356656
0.16337344 0.00023904069 -0.14611465 0.036190618 -0.014604578 -0.049275372 -0.08189298 0.09225319
0.043904487 0.06624369 0.062067773 -0.07902358 0.24169008 0.06149741 0.00870723 -0.034687847
0.05635787 -0.19881812 -0.09516122 0.23886162 -0.034845684 0.12692833 0.15526171 -0.0086910315
-0.026098786 -0.1632329 -0.056999736 -0.03466875 -0.044747513 0.10875949 -0.16951 0.26370937
-0.04952146 -0.08555953 -0.11992579 0.006141365 -0.16439182 -0.06823907 0.06642912 -0.057227626
0.09336738 0.025445763 0.15529677 -0.11967836 0.17548434 0.028197156 -0.1503111 -0.018305112
-0.16298681 0.02636949 0.030873738 0.06944034 -0.03929752 0.07282178 0.060797524 0.026808202
-0.19319879 0.19569324 0.17925476 0.08799177 0.07308048 0.07574787 0.09578428 -0.13330038
-0.124496035 -0.047573302 0.036660906 0.08988496 0.08800503 0.07872657 0.020956634 0.0821718
-0.040638413 0.11892403 0.003405761 0.056124695 -0.12637207 -0.023890479 0.009008973 0.13481206
0.14464538 0.03471316 -0.004628191 0.08872516 -0.18048851 0.04670512 0.009905429 -0.13882539
0.06037562 -0.019612916 -0.013024813 -0.05086181 -0.09566548 0.23040983 -0.049958594 -0.08163656
0.052369487 0.08399493 -0.11052178 -0.14627004 0.08026924 0.016566208 0.042433146 0.07351225
0.045166913 -0.054594174 -0.16415197 0.13144612 0.06961199 0.08098602 -0.051865503 -0.019245103
0.055480972 0.11078656 -0.078755654 0.114510104 -0.053995103 0.10676797 -0.048189905 -0.05796595
-0.15926318 0.03983275 -0.15068768 -0.011789579 0.06312225 -0.081220455 0.14828697 -0.18294251
-0.08785053 -0.11767196 0.044574566 3.2300166e-05 -0.059912827 0.022870656 0.019175373 -0.04585482
-0.061831493 -0.057232678 -0.12567814 0.03950203 -0.056187887 0.095095515 0.16149934 0.10534876
-0.15681848 0.21701883 0.060713865 0.017842928 0.1461144 0.052607004 -0.1171186 0.11678915
-0.06934072 0.10091431 -0.09764829 -0.046419557 -0.099846795 0.107252106 0.15493228 -0.003434641
-0.20239119 0.13398318 0.04535604 -0.004505199 -0.042872053 -0.059336916 0.019120874 -0.042460892
0.10474872 -0.09638116 0.0541104 0.13173196 0.0767344 0.07579032 -0.07683114 -0.04000334
0.1508897 0.009844533 -0.05435405 0.077738546 0.019256925 0.04197467 -0.1417496 0.08814049
0.2687458 -0.03196285 0.20162097 -0.08514011 0.098583885 0.07408879 0.09961531 -0.13149545
0.06289906 0.1012033 0.1458405 0.08545623 -0.04892427 0.08197912 0.13048498 0.06161685
00000000: 61e0 ca3b 7309 993d cdec fc3d 7196 023e
00000010: 010e d7bd 3e99 bbbb b7cb 943a 224e c3bd
00000020: 7d35 f0bb 7919 acbd 782f e2bd d43b fabd
00000030: 16bd 26be a76f fd3d d8ca 5cbe 15f6 91bd
00000040: 3604 383d 294b c1bd 4e66 a13a 169a 1f3d
00000050: 780a b5bc 3716 483d c132 a3bd a96e 1c3d
00000060: 60a7 24be 13a1 5dbd 6086 07be 8321 5b3d
00000070: 7f82 7e3d e5ad 24be ead7 a83c 4527 46bd
00000080: e49e 18be 0905 193e f8d2 83bd 3dde 16be
00000090: 1005 293d f2f3 96bd c636 a03d 8883 143e
000000a0: 3feb de3d 3c03 f93d 730e d3bd 43f3 cfbd
000000b0: 8ab3 673d fb02 193e cb39 4bbd 2b73 48bd
000000c0: 5516 1e3e 0652 6b3e 108b 063e ef61 44bd
000000d0: 5ee6 f6bc 5985 13bd 85bc b9bd 103e c1bd
000000e0: 5e4b 273e ffa6 7a39 149f 15be 9d3c 143d
000000f0: 0a48 6fbc f9d4 49bd 82b7 a7bd 3eef bc3d
00000100: 31d5 333d c6aa 873d c73a 7e3d 1dd7 a1bd
00000110: 9b7d 773e b5e4 7b3d c5a8 0e3c d814 0ebd
00000120: 83d7 663d fa96 4bbe e3e3 c2bd 2498 743e
00000130: 59ba 0ebd 80f9 013e edfc 1e3e d464 0ebc
00000140: 1fcd d5bc 8626 27be 8e78 69bd d200 0ebd
00000150: 2b49 37bd 4cbd de3d 0894 2dbe ea04 873e
00000160: 04d7 4abd d639 afbd a79b f5bd 813d c93b
00000170: 5456 28be edc0 8bbd fe0b 883d 8467 6abd
00000180: 6637 bf3d a273 d03c 1e06 1f3e ee19 f5bd
00000190: 2bb2 333e b9fd e63c 27eb 19be 9af4 95bc
000001a0: 04e6 26be d404 d83c ecea fc3c bd36 8e3d
000001b0: 70f6 20bd 9623 953d d306 793d e09c db3c
000001c0: e7d5 45be cf63 483e 8f8e 373e 0735 b43d
000001d0: 38ab 953d b321 9b3d 8c2a c43d e57f 08be
000001e0: c7f7 febd 39dc 42bd bf29 163d 9b15 b83d
000001f0: fb3b b43d 653b a13d 3fad ab3c b049 a83d
00000200: 7774 26bd 718e f33d 3033 5f3b 02e3 653d
00000210: ae67 01be f7b5 c3bc 5f9a 133c 2c0c 0a3e
00000220: eb1d 143e 632f 0e3d 14a8 97bb 89b5 b53d
00000230: fbd1 38be de4d 3f3d 614a 223c 3e28 0ebe
00000240: 6d4c 773d 44ab a0bc 0666 55bc 7954 50bd
00000250: 43ec c3bd 8ef0 6b3e 62a1 4cbd 1231 a7bd
00000260: 6381 563d 8905 ac3d 3e59 e2bd d0c7 15be
00000270: 3364 a43d dbb5 873c 61ce 2d3d 978d 963d
00000280: f100 393d 249e 5fbd 7417 28be d099 063e
00000290: bb90 8e3d 00dc a53d ec70 54bd e8a7 9dbc
000002a0: 0440 633d 10e4 e23d a54a a1bd 4684 ea3d
000002b0: f829 5dbd 2aa9 da3d c762 45bd b46d 6dbd
000002c0: e315 23be aa27 233d df4d 1abe 1429 41bc
000002d0: 3d46 813d e956 a6bd 8ad8 173e 4855 3bbe
000002e0: fbea b3bd fffd f0bd d293 363d 0a7a 0738
000002f0: 2767 75bd 3e5b bb3c ac15 9d3c 44d2 3bbd
00000300: 0543 7dbd d06c 6abd c5b1 00be e1cc 213d
00000310: 4525 66bd 70c1 c23d 1560 253e 17c1 d73d
00000320: 0695 20be 2f3a 5e3e 1aaf 783d 552b 923c
00000330: 039f 153e 717a 573d e0db efbd 262f ef3d
00000340: 8202 8ebd 29ac ce3d d4fb c7bd 6f22 3ebd
00000350: 7a7c ccbd fea6 db3d 91a6 1e3e b717 61bb
00000360: a33f 4fbe e332 093e 41c7 393d 59a0 93bb
00000370: 9b9a 2fbd 440b 73bd 61a3 9c3c 79eb 2dbd
00000380: 7f86 d63d 7c63 c5bd dea2 5d3d bee4 063e
00000390: ed26 9d3d f537 9b3d a559 9dbd 8bda 23bd
000003a0: d482 1a3e f74a 213c 5aa2 5ebd 6335 9f3d
000003b0: b3c0 9d3c a2ed 2b3d cf26 11be 0083 b43d
000003c0: 0d99 893e 7aeb 02bd ba75 4e3e f05d aebd
000003d0: 59e6 c93d ddbb 973d 1d03 cc3d bea6 06be
000003e0: 39d1 803d ad43 cf3d 3657 153e ad03 af3d
000003f0: d164 48bd abe4 a73d db9d 053e f361 7c3d

network_body.linear_encoder.seq_layers.2.bias f4 [256]
0.0073906197 -0.004291801 0.018164037 0.009183234 0.014982163 -0.0061348276 -0.0067889723 0.004457431
-0.0073810406 -0.004932002 -0.0135905035 -0.003595943 0.0017620337 0.012028142 0.0152550265 0.004819018
-0.015996823 -0.011993505 -0.0047890907 -0.0020891796 0.025857242 -0.012084297 -0.0040774522 -0.010619903
0.001017331 -0.0107667055 -0.011139523 0.003001152 0.018635018 0.022515157 0.0042934828 -0.012952564
0.01044376 -0.012033993 -0.004591943 -8.05521e-05 -0.009586201 -0.0070936233 -0.007924334 0.011851633
0.012573607 0.02074054 0.0062427097 0.01262587 0.0026589076 -0.015331945 0.015746899 -0.01210582
-0.0046521486 0.019003427 -0.01090669 0.0024444163 -0.009634471 -0.0210172 0.0088548185 0.0014712097
0.0040154126 0.024221642 0.018844381 0.008628975 -0.003592349 -0.010000076 0.002064931 4.4414774e-06
-0.0053686537 0.017845502 -0.001583111 -0.0074763056 0.014422499 -0.0021823964 -0.0062984615 0.0043854476
0.01265235 0.0018345083 -0.00038522415 -0.0015354559 -0.0058320323 -0.013725939 -0.00043946388 0.0008258242
-0.008383331 -0.0016704391 0.008387056 -0.0089424895 0.015470711 0.0029084648 0.008292476 -0.021386448
0.008707713 -0.007454698 -0.0045136665 0.011624054 -0.0024995168 0.0136365965 0.012096197 0.013825499
-0.0134203825 -0.0025647685 0.0071867513 0.018161166 0.004846957 0.012161325 0.0003079979 -0.008616993
0.006865929 -0.0030775757 0.0008528833 0.003989335 -0.0054090046 -0.0010795093 -0.011578243 -0.00055965636
0.014973894 -0.012422194 0.015491947 0.014313024 -0.0036873678 -0.002986402 -0.008787297 0.0073704435
0.00074243423 0.0025256665 -0.011782759 -0.0064472426 0.012560705 0.007148944 -0.013601694 0.009425761
0.0029960366 -0.014009382 -0.0028688817 0.0020453408 -0.0038622688 -0.0085259145 0.014399017 -0.010790174
-0.023649165 0.0016906747 -0.0034392527 -0.005257407 -0.0068303063 -0.006691899 0.015367594 -0.0025310875
-0.0068039107 -0.0049609905 -0.0075367405 -0.005709795 0.015121708 0.005105998 -0.0031846159 -0.0012653035
-0.010343794 0.012777273 -0.010610386 0.005924584 0.0159738 0.0057246434 -0.01734167 -0.020227196
-0.014857921 -0.013364478 0.020933758 0.009136902 -0.0023269209 -0.008499238 0.0017084599 0.0031538333
0.0125936065 -0.003402895 -0.0032629448 0.015334903 -0.0033660335 0.01799801 -0.01647023 0.0050067757
-0.01100176 0.0010151204 -0.010206245 0.007964802 0.00017697533 0.006518784 0.021020016 0.0028818506
-0.007200399 0.002825584 -0.01888749 0.0026704723 0.012864501 -0.015394899 -0.013665548 0.01314959
0.014374411 0.001827838 0.009217759 0.016852226 -0.008974021 -0.010103731 -0.00478532 0.005309672
0.0025245568 -0.014256987 -0.009704785 -0.017896308 0.0007911868 -0.010752428 -0.008368956 0.009740224
-0.0042620157 3.5414138e-05 0.0098163495 -0.010457823 0.010760775 0.007881236 0.0014410748 -0.017492644
-0.015738608 0.017569248 -0.011689479 0.0023740726 -0.0121261 0.006728885 0.0014700518 -0.0027629766
0.005947406 -0.0022353216 0.00019235021 -0.008510156 -0.012236784 0.007655346 0.0006483423 -0.00065124215
0.009467627 -0.008932507 -0.015765369 -0.010123141 0.0016750589 0.0101442095 -0.007551834 -0.0060894857
-0.016098693 -0.0008473065 -0.008584384 0.010744445 -0.009409928 -0.011131253 -0.0030717447 0.00592162
0.013763176 0.0028649587 -0.00802226 0.013727529 0.011433833 -0.009143816 2.2531834e-05 -0.0054095895
00000000: 032d f23b 3ca2 8cbb bfcc 943c 4675 163c
00000010: bf77 753c aa06 c9bb 0776 debb a40f 923b
00000020: a8dc f1bb a29c a1bb b4aa 5ebc eaa9 6bbb
00000030: 0af4 e63a af11 453c 38f0 793c dae8 9d3b
00000040: c50b 83bc 6880 44bc ceed 9cbb 9eea 08bb
00000050: 91d2 d33c 37fd 45bc 269c 85bb 1aff 2dbc
00000060: f757 853a d666 30bc 8c82 36bc faae 443b
00000070: 77a8 983c b571 b83c 58b0 8c3b fe36 54bc
00000080: 4e1c 2b3c 3a2a 45bc 0378 96bb 14ee a8b8
00000090: 710f 1dbc a071 e8bb 11d5 01bc 5a2d 423c
000000a0: 8801 4e3c 11e8 a93c a58f cc3b bddc 4e3c
000000b0: 1141 2e3b d732 7bbc a4ff 803c 7d57 46bc
000000c0: 0d71 98bb 13ad 9b3c f9b1 32bc 8032 203b
000000d0: e6d9 1dbc 432c acbc cd13 113c 9bd5 c03a
000000e0: b993 833b 776c c63c 885f 9a3c 8b60 0d3c
000000f0: 9d6d 6bbb 5cd7 23bc cb53 073b 0008 9536
00000100: 88eb afbb bb30 923c 6480 cfba ccfb f4bb
00000110: 584c 6c3c 8906 0fbb 5363 cebb cdb3 8f3b
00000120: cd4b 4f3c e273 f03a e9f7 c9b9 5a41 c9ba
00000130: a21a bfbb c3e2 60bc d867 e6b9 207c 583a
00000140: 3d5a 09bc a3f2 daba dd69 093c 8583 12bc
00000150: dd78 7d3c f19b 3e3b 2add 073c a232 afbc
00000160: ccaa 0e3c 8a46 f4bb 61e7 93bb d172 3e3c
00000170: efce 23bb 086c 5f3c 212f 463c 5984 623c
00000180: 2ae1 5bbc ad15 28bb d77e eb3b bac6 943c
00000190: 39d3 9e3b 4b40 473c c77a a139 4a2e 0dbc
000001a0: 96fb e03b 27b1 49bb 0894 5f3a f8b8 823b
000001b0: 053e b1bb 527e 8dba acb2 3dbc e7b5 12ba
000001c0: 1055 753c 7586 4bbc efd1 7d3c 2c81 6a3c
000001d0: c4a7 71bb 83b7 43bb 98f8 0fbc c383 f13b
000001e0: eb9f 423a a785 253b 790c 41bc 6443 d3bb
000001f0: 6acb 4d3c b041 ea3b a4d9 5ebc 826e 1a3c
00000200: 2759 443b 9b87 65bc d903 3cbb 200b 063b
00000210: 1e1e 7dbb 47b0 0bbc dbe9 6b3c 45c9 30bc
00000220: e5bb c1bc a199 dd3a 1665 61bb 5446 acbb
00000230: c3d0 dfbb b847 dbbb 5cc8 7b3c 9ae0 25bb
00000240: 57f3 debb ce8f a2bb c3f6 f6bb 3b19 bbbb
00000250: 0ac1 773c 3750 a73b fdb4 50bb 8ad8 a5ba
00000260: 0479 29bc c457 513c 2fd7 2dbc 0323 c23b
00000270: 7ddb 823c ca95 bb3b 1e10 8ebc 81b3 a5bc
00000280: a36e 73bc aff6 5abc 467d ab3c f2b2 153c
00000290: 417f 18bb 6340 0bbc 67ee df3a 8bb0 4e3b
000002a0: 6a55 4e3c 1b03 5fbb 21d7 55bb 3f3f 7b3c
000002b0: ac98 5cbb 9070 933c 93ec 86bc e10f a43b
000002c0: ba40 34bc ca0d 853a 1838 27bc cd7e 023c
000002d0: 7492 3939 869b d53b 2b32 ac3c 6edd 3c3b
000002e0: 53f1 ebbb 6f2d 393b f0b9 9abc 1703 2f3b
000002f0: a1c5 523c e33a 7cbc 76e5 5fbc 6171 573c
00000300: a682 6b3c 1194 ef3a 1506 173c ae0d 8a3c
00000310: c607 13bc 1f8a 25bc 2cce 9cbb c2fc ad3b
00000320: 0973 253b 2396 69bc d200 1fbc 479b 92bc
00000330: a667 4f3a f42a 30bc f21d 09bc 7695 1f3c
00000340: 61a8 8bbb a489 1438 c1d4 203c 4a57 2bbc
00000350: f64d 303c 4d20 013c 72e2 bc3a bc4c 8fbc
00000360: 41ee 80bc 62ed 8f3c 3b85 3fbc 5496 1b3b
00000370: 8dac 46bc fb7d dc3b c1ae c03a 0e13 35bb
00000380: 75e2 c23b 797e 12bb 9eb1 4939 2e6e 0bbc
00000390: cb7c 48bc b2d9 fa3b 84f5 293a 1fb8 2aba
000003a0: 1b1e 1b3c a659 12bc 6026 81bc 88db 25bc
000003b0: a68d db3a e633 263c 6075 f7bb 4f8a c7bb
000003c0: 68e1 83bc c71d 5eba 84a5 0cbc 7809 303c
000003d0: 192c 1abc dc5f 36bc 534f 49bb 260a c23b
000003e0: f27e 613c 08c2 3b3b cc6f 03bc 6ee9 603c
000003f0: f954 3b3c f2cf 15bc bf02 bd37 ed42 b1bb

network_body.linear_encoder.seq_layers.2.weight f4 [256, 256]
0.050393127 0.061563525 0.091549724 0.05266771 -0.079622746 -0.03082109 0.084009394 -0.09472622
-0.069181606 -0.054207966 -0.085204594 0.017730346 0.0068346164 0.049167745 0.016609982 -0.05423719
0.015905788 0.06836063 -0.022402698 3.779384e-05 -0.005872617 0.03148319 -0.01754826 0.03931693
0.11523108 -0.11691241 0.0144675085 -0.0495096 -0.03448898 0.08153094 -0.003079755 -0.055570826
0.0218109 0.08648665 0.056039736 0.037662037 0.06241672 0.093305804 -0.043332413 0.002890849
0.005062318 -0.06417365 -0.002578947 0.040926404 -0.018671542 0.07195357 0.04929802 -0.06592691
0.004853135 -0.047042057 -0.019232234 -0.073370956 0.066584095 -0.019022629 -0.002972442 -0.12848249
0.04257833 -0.0066576926 -0.042312898 0.03018957 0.06789162 -0.04552896 0.067015626 -0.08239631
0.09130082 -0.027296266 -0.07232672 -0.041355137 -0.09991671 0.044905853 -0.025676906 -0.05180364
0.13763818 -0.058839917 -0.07094189 0.0861782 -0.02360398 0.13666655 -0.0507929 0.03681104
0.017545227 -0.06107597 0.09768689 0.03492844 0.08728191 0.042240072 -0.017639006 0.06757011
0.034214586 -0.101983175 0.08182668 -0.01548902 0.0039933054 2.2182721e-06 -0.106001794 -0.0647793
-0.009098012 -0.027867142 0.12610716 -0.009521786 0.013604251 0.007895737 0.03859424 0.09664286
0.064937524 0.047217324 -0.053909004 -0.009369393 -0.010420002 -0.018176315 0.017190605 -0.105568804
-0.010874166 0.042987913 0.1397219 0.0054604355 0.08586695 0.097331755 0.07269149 -0.021980956
0.0242132 0.094581366 -0.105683334 0.04156559 -0.00591592 -0.03530796 0.02190915 0.07088158
0.060611136 0.0440676 0.017502023 0.066180214 0.025826948 0.031332973 -0.046930715 -0.05499117
0.0804649 0.013224442 0.06299602 -0.17867388 0.03771925 0.009287779 -0.066562764 -0.025045397
0.07460306 0.0466025 -0.03346948 0.16752912 0.03740507 -0.04935191 -0.06682308 0.008922466
-0.03410423 -0.11139986 0.05385509 -0.015950534 0.12568593 0.048825055 0.01788836 0.066700466
-0.010010298 -0.06074104 -0.010813763 -0.0092333285 -0.023360405 0.00784115 -0.09842968 0.027113667
0.12558834 -0.09452346 0.091871865 0.011831001 0.20888793 -0.051012363 -0.06528721 0.072136864
-0.0069956323 -0.057911746 -0.010655461 0.057842568 0.11986271 0.05107779 0.09187114 0.03801462
0.020888094 0.0876163 0.07865838 -0.055091593 0.0052877115 0.010904104 0.0146534955 -0.012398177
0.008646063 -0.12527658 -0.105126604 -0.008736155 -0.020729976 0.031513523 0.01830535 0.048758842
-0.024975795 0.03806047 0.012876009 0.06412483 0.16140553 0.035020784 -0.010383947 0.06479957
-0.055200916 -0.019326098 0.105415665 0.10820716 0.0059827277 -0.08291944 -0.039399285 -0.08555257
0.035300862 0.007895882 0.081192076 0.03815359 0.05636288 0.035336133 -0.016677732 -0.057567783
0.009409856 0.010093145 -0.06666184 -0.13585678 -0.05381599 -0.0011533841 0.03228971 0.07622451
0.06713666 -0.13682349 0.016224006 0.09122773 -0.03167744 -0.03647965 0.046200924 -0.015958652
0.016851608 0.025463823 -0.066441745 0.07494926 -0.0074839387 -0.09733214 -0.009076563 -5.2682357e-05
0.121275656 0.0639602 -0.04212045 -0.055679474 -0.051204517 0.044027522 -0.039096516 -0.08134137
00000000: 0669 4e3d 092a 7c3d 6c7e bb3d 19ba 573d
00000010: 4011 a3bd 837c fcbc 1e0d ac3d d2ff c1bd
00000020: 16af 8dbd 2c09 5ebd bf7f aebd 3b3f 913c
00000030: ebf4 df3b 1e64 493d a811 883c d127 5ebd
00000040: db4c 823c a800 8c3d dd85 b7bc d484 1e38
00000050: 156f c0bb 84f4 003d 5ec1 8fbc ca0a 213d
00000060: 46fe eb3d c66f efbd 2109 6d3c 94ca 4abd
00000070: 5144 0dbd b2f9 a63d b7d5 49bb 3c9e 63bd
00000080: c6ac b23c ea1f b13d ec89 653d 8243 1a3d
00000090: ada8 7f3d 1d17 bf3d 547d 31bd 6674 3d3b
000000a0: cde1 a53b 7a6d 83bd 8d03 29bb 72a2 273d
000000b0: 10f5 98bc 655c 933d b8ec 493d b004 87bd
000000c0: 0c07 9f3b 2caf 40bd eb8c 9dbc 8343 96bd
000000d0: 3e5d 883d 58d5 9bbc 4dcd 42bb ea90 03be
000000e0: 9d66 2e3d c628 dabb 4a50 2dbd 1e50 f73c
000000f0: c30a 8b3d 937c 3abd 7d3f 893d 66bf a8bd
00000100: edfb ba3d 6b9c dfbc 0820 94bd 0164 29bd
00000110: 22a1 ccbd 33ef 373d 6058 d2bc 0e30 54bd
00000120: 06f1 0c3e 2002 71bd fb49 91bd 327e b03d
00000130: 225d c1bc 51f2 0b3e 370c 50bd 2cc7 163d
00000140: 02bb 8f3c cc2a 7abd 1010 c83d 2011 0f3d
00000150: dcc0 b23d ed03 2d3d ad7f 90bc 3362 8a3d
00000160: 9824 0c3d 8edc d0bd bf94 a73d a9c5 7dbc
00000170: 46da 823b a0dd 1436 7817 d9bd 02ab 84bd
00000180: d40f 15bc a249 e4bc 3c22 013e 4401 1cbc
00000190: 5de4 5e3c 1f5d 013c fe14 1e3d b1ec c53d
000001a0: f7fd 843d f466 413d b0cf 5cbd 1582 19bc
000001b0: a8b8 2abc 7fe6 94bc 50d3 8c3c 7534 d8bd
000001c0: 8f29 32bc 1814 303d 4213 0f3e 74ed b23b
000001d0: 03db af3d df55 c73d 47df 943d 6811 b4bc
000001e0: c35a c63c e0b3 c13d 8170 d8bd ae40 2a3d
000001f0: 55da c1bb 149f 10bd d17a b33c 5d2a 913d
00000200: 6243 783d 3a80 343d 6760 8f3c 7e89 873d
00000210: 0993 d33c 0157 003d 6c3a 40bd 6c3e 61bd
00000220: c8ca a43d 54ab 583c 0f04 813d 49f6 36be
00000230: 807f 1a3d c52b 183c 0f52 88bd 012c cdbc
00000240: 7dc9 983d 43e2 3e3d 4b17 09bd c18c 2b3e
00000250: 0f36 193d 3a25 4abd 8ada 88bd 892f 123c
00000260: e1b0 0bbd 9c25 e4bd 2897 5c3d b2aa 82bc
00000270: d0b3 003e c8fc 473d 9c8a 923c 419a 883d
00000280: 3c02 24bc 99cb 78bd 362c 31bc 6347 17bc
00000290: 525e bfbc 2b78 003c 8095 c9bd 7b1d de3c
000002a0: 3b9a 003e 8495 c1bd 5127 bc3d d1d6 413c
000002b0: b8e6 553e 57f2 50bd 4db5 85bd 7ebc 933d
000002c0: 9e3b e5bb de34 6dbd 3e94 2ebc 54ec 6c3d
000002d0: 957a f53d f236 513d f026 bc3d 38b5 1b3d
000002e0: 821d ab3c 2d70 b33d a517 a13d b9a7 61bd
000002f0: 8a44 ad3b 21a7 323c 3715 703c b921 4bbc
00000300: 37a8 0d3c 8148 00be 9e4c d7bd 1722 0fbc
00000310: e9d1 a9bc 5314 013d 1af5 953c 5ab7 473d
00000320: 0a9a ccbc 4ce5 1b3d e5f5 523c e153 833d
00000330: 7e47 253e f471 0f3d 6e21 2abc a3b5 843d
00000340: 5b1a 62bd c451 9ebc 2be4 d73d b79b dd3d
00000350: c20a c43b abd1 a9bd 2561 21bd 3036 afbd
00000360: a397 103d bb5d 013c 0848 a63d f046 1c3d
00000370: c3dc 663d 9fbc 103d bd9f 88bc 32cc 6bbd
00000380: cc2b 1a3c b85d 253c 0186 88bd 0a1e 0bbe
00000390: 286e 5cbd 262d 97ba 3742 043d 991b 9c3d
000003a0: f27e 893d 751b 0cbe 35e8 843c 9bd5 ba3d
000003b0: 34c0 01bd af6b 15bd 2e3d 3d3d b8bb 82bc
000003c0: 620c 8a3c 8299 d03c 9c12 88bd ff7e 993d
000003d0: d43b f5bb 1356 c7bd ddb5 14bc 40f7 5cb8
000003e0: 5f5f f83d 91fd 823d 7e86 2cbd 2910 64bd
000003f0: d4bb 51bd 3456 343d ab23 20bd 4e96 a6bd

network_body.vector_processors.0.normalizer.running_mean f4 [99]
0.0 0.0 0.0 0.0 0.99998575 0.99998575 0.113910854 0.000886132
0.023282403 0.0 0.0 0.0 0.11393943 0.000886132 0.023282403 0.0
0.0 0.0 0.17210974 0.0025869338 0.10845115 0.0 0.0 0.0
0.20225255 0.0027870284 0.088355936 0.0 0.0 0.0 0.23795506 0.0033015567
0.2410136 0.0 0.0 0.0 0.2763303 0.0047450936 0.19769321 0.0
0.0 0.0 0.3297554 0.008532593 0.22580642 0.0 0.0 0.0
0.3737192 0.01096231 0.18883185 0.0 0.0 0.0 0.34880736 0.014149531
0.21603037 0.0 0.0 0.0 0.39208478 0.017937029 0.17915593 0.0
0.0 0.0 0.36448613 0.015936086 0.2979976 0.0 0.0 0.0
0.390284 0.023582544 0.2703846 0.0 0.0 0.0 0.3999172 0.019880801
0.2931668 0.0 0.0 0.0 0.43426186 0.028827872 0.2568497 0.0
0.0 0.0 0.99998575 0.0 0.0 0.9405294 0.05924842 0.0
-0.99992454 0.007279916 0.0
00000000: 0000 0000 0000 0000 0000 0000 0000 0000
00000010: 11ff 7f3f 11ff 7f3f 184a e93d 504b 683a
00000020: bdba be3c 0000 0000 0000 0000 0000 0000
00000030: 1359 e93d 504b 683a bdba be3c 0000 0000
00000040: 0000 0000 0000 0000 893d 303e 8c89 293b
00000050: a31b de3d 0000 0000 0000 0000 0000 0000
00000060: 4b1b 4f3e 94a6 363b f5f3 b43d 0000 0000
00000070: 0000 0000 0000 0000 7eaa 733e ee5e 583b
00000080: 45cc 763e 0000 0000 0000 0000 0000 0000
00000090: 2a7b 8d3e bb7c 9b3b 1770 4a3e 0000 0000
000000a0: 0000 0000 0000 0000 b3d5 a83e 4acc 0b3c
000000b0: cc39 673e 0000 0000 0000 0000 0000 0000
000000c0: 1f58 bf3e 439b 333c 235d 413e 0000 0000
000000d0: 0000 0000 0000 0000 e196 b23e 6fd3 673c
000000e0: 1137 5d3e 0000 0000 0000 0000 0000 0000
000000f0: 56bf c83e adf0 923c a774 373e 0000 0000
00000100: 0000 0000 0000 0000 ed9d ba3e 658c 823c
00000110: 2493 983e 0000 0000 0000 0000 0000 0000
00000120: 4ed3 c73e 2e30 c13c da6f 8a3e 0000 0000
00000130: 0000 0000 0000 0000 f2c1 cc3e 10dd a23c
00000140: f519 963e 0000 0000 0000 0000 0000 0000
00000150: 9257 de3e 6e28 ec3c ce81 833e 0000 0000
00000160: 0000 0000 0000 0000 11ff 7f3f 0000 0000
00000170: 0000 0000 89c6 703f 79ae 723d 0000 0000
00000180: 0efb 7fbf 5d8c ee3b 0000 0000
