MLagents/results/hb_00/Mario/Mario-0.onnx (onnx, 352528 bytes, 16 tensors)

122 f4 [69]
1.0 1.0 1.0 1.0 1.0 1.0 1.0 1.0
1.0 1.0 1.0 1.0 1.0 1.0 1.0 1.0
1.0 1.0 1.0 1.0 1.0 1.0 1.0 1.0
1.0 1.0 1.0 1.0 1.0 1.0 1.0 1.0
1.0 1.0 1.0 1.0 1.0 1.0 1.0 1.0
1.0 1.0 1.0 1.0 1.0 1.0 1.0 1.0
1.0 1.0 1.0 1.0 1.0 1.0 1.0 1.0
1.0 1.0 1.0 1.0 1.0 1.0 1.0 1.0
1.0 1.0 1.0 1.0 1.0
00000000: 0000 803f 0000 803f 0000 803f 0000 803f
00000010: 0000 803f 0000 803f 0000 803f 0000 803f
00000020: 0000 803f 0000 803f 0000 803f 0000 803f
00000030: 0000 803f 0000 803f 0000 803f 0000 803f
00000040: 0000 803f 0000 803f 0000 803f 0000 803f
00000050: 0000 803f 0000 803f 0000 803f 0000 803f
00000060: 0000 803f 0000 803f 0000 803f 0000 803f
00000070: 0000 803f 0000 803f 0000 803f 0000 803f
00000080: 0000 803f 0000 803f 0000 803f 0000 803f
00000090: 0000 803f 0000 803f 0000 803f 0000 803f
000000a0: 0000 803f 0000 803f 0000 803f 0000 803f
000000b0: 0000 803f 0000 803f 0000 803f 0000 803f
000000c0: 0000 803f 0000 803f 0000 803f 0000 803f
000000d0: 0000 803f 0000 803f 0000 803f 0000 803f
000000e0: 0000 803f 0000 803f 0000 803f 0000 803f
000000f0: 0000 803f 0000 803f 0000 803f 0000 803f
00000100: 0000 803f 0000 803f 0000 803f 0000 803f
00000110: 0000 803f

action_model._discrete_distribution.branches.0.bias f4 [3]
0.0 0.0 0.0
00000000: 0000 0000 0000 0000 0000 0000

action_model._discrete_distribution.branches.0.weight f4 [3, 256]
-0.0014075594 -0.0016141834 -0.0018535212 0.010804143 -0.004121956 0.0010140651 -0.005102284 0.0015489039
0.0059502637 -0.001167548 -0.0040934915 0.00788285 0.0057255104 0.0037296829 -0.003186566 0.0062232674
0.0024715886 -0.00189423 0.006080292 -0.006108174 0.0024211744 0.0015560503 0.0017102925 0.0032691255
0.0033044715 -0.00027311032 -6.342073e-05 -0.007053282 -0.0023532948 0.00014568835 0.0038537958 0.0066743637
0.003780497 -0.015845332 -0.0033330445 0.0074991146 0.0012323702 0.0024687012 -0.0037762665 0.010950946
-0.0010568906 0.006078413 0.0032234683 0.00027244037 -0.006291326 -0.0011087515 0.0026956121 0.009078093
-0.005225537 -0.007973557 -0.0045942897 0.0054108715 -0.009411894 0.0031168605 0.0026048406 -0.0021612588
-0.0001110848 -0.008224728 -0.0081301285 0.0015715538 0.0019353671 0.0061946847 0.008447475 0.00649609
-0.01794402 -0.006674672 -0.003705858 0.0018069862 0.0043450855 -0.010763802 0.000982242 -0.0016423566
0.0030765047 -0.003683138 -0.003104172 0.011367731 0.0014004124 0.009573002 0.017523583 -0.006935771
0.0030256861 -0.008528771 -0.0020133099 0.009278472 0.0047788047 0.0017584257 6.120779e-05 0.004946303
0.011608022 0.009403916 -0.008049774 -0.0007439877 -0.005933886 -0.0045290957 -0.004655587 0.0056027556
-0.0023056404 0.0051737013 0.014096908 0.012031655 0.006593658 0.009565375 0.00093436654 -0.007301084
0.0062130215 -0.0052433293 -0.0062589156 -0.0059727463 -0.013059245 0.0018308066 0.0040946193 0.010907413
-0.0041422416 -0.009464136 0.010728718 0.002300307 0.017577212 -0.0022876835 -0.0035575393 -0.009390085
-0.0037015546 0.003186939 0.005331431 0.0070045516 -0.0010343216 -0.0067769163 -0.0020678935 0.003756302
0.0018469141 0.00212713 0.0018491239 0.00084751984 0.0033186716 -0.017659964 0.003555578 -0.009614093
0.0016121188 0.008208007 -0.002219878 0.0070628994 -0.007999784 -0.010964732 -0.0089513045 -0.001684206
-0.010558547 0.008844721 0.003233644 -0.007559453 0.0036408573 -0.00928847 0.005400036 -0.0023495257
-0.008851905 -0.013857285 -0.0013298043 -0.0066758716 -0.0053436705 -0.013312395 -0.0039039429 0.002467835
0.0035844964 0.0018423175 -0.007931185 0.015977677 0.0053788004 0.0026351386 0.00018312993 0.003996394
0.0052597765 0.0019190522 -0.0030769974 -0.004710554 0.0046224506 0.0025981467 -0.0076672942 0.005746736
-0.007734563 -0.00172463 -0.0033008184 -0.0018288849 -0.0071700164 -9.6705444e-05 -0.0014087571 -5.881851e-05
0.0044489815 -0.0072248825 -0.00862625 0.005575717 -0.00680842 -0.00039898566 -0.009504098 0.005013983
0.0064601335 0.002067778 -0.007797689 -0.008777684 -0.012499682 -0.0053716116 -0.00760275 -0.0016030039
-0.008013415 0.003177518 0.009652348 -0.016125841 0.0033001048 0.010352584 -0.0042493124 0.0026244153
0.010744029 -0.004987471 0.0056435163 0.0127737615 0.0018396784 0.016044216 -0.003668649 2.7908352e-05
0.0051230676 -0.01108163 0.012890391 -0.013380582 -0.0046251537 -0.0009755694 -0.0019692546 -0.0091635585
0.0016527398 -0.003897601 -0.0008350227 0.0014413678 -0.009748513 -0.0011259014 -0.0017962301 0.009930927
-0.0014610592 -0.0013614049 0.012475124 0.0039272117 0.001730334 0.009429803 -0.00010478077 -0.00048432895
0.0045310427 -0.0005501254 0.0051535363 0.008424222 0.015852313 0.0035336704 -0.0008391167 0.008098062
0.00048195897 0.0055304095 0.0072953324 -0.00037650752 0.00067357306 -0.014102309 -0.015173838 -0.008263058
00000000: db7d b8ba 0293 d3ba daf1 f2ba dc03 313c
00000010: 7911 87bb 61ea 843a 0f31 a7bb 9704 cb3a
00000020: 6efa c23b 6908 99ba b222 86bb 1227 013c
00000030: 109d bb3b b26d 743b b5d5 50bb 8dec cb3b
00000040: 60fa 213b d047 f8ba 303d c73b 1427 c8bb
00000050: 91ac 1e3b 62f4 cb3a e52b e03a d33e 563b
00000060: d58f 583b 3f30 8fb9 bf00 85b8 381f e7bb
00000070: bc39 1abb ebc3 1839 f78f 7c3b 9fb4 da3b
00000080: 37c2 773b 12ce 81bc 356f 5abb 22bb f53b
00000090: 7b87 a13a efc9 213b 3d7b 77bb 996b 333c
000000a0: 5d87 8aba 6d2d c73b d340 533b 54d6 8e39
000000b0: 7827 cebb 8753 91ba dea8 303b 48bc 143c
000000c0: fb3a abbb 86a3 02bc b28b 96bb ae4d b13b
000000d0: 5834 1abc 3e44 4c3b f9b5 2a3b e8a3 0dbb
000000e0: 33f6 e8b8 02c1 06bc 3b34 05bc 98fc cd3a
000000f0: 25ac fd3a c8fc ca3b 4767 0a3c 27dd d43b
00000100: 56ff 92bc 35b7 dabb fbdd 72bb 65d8 ec3a
00000110: 3861 8e3b a85a 30bc 93be 803a 5844 d7ba
00000120: 2f9f 493b cd60 71bb 5d6f 4bbb b83f 3a3c
00000130: 0b8e b73a 15d8 1c3c 9e8d 8f3c 7745 e3bb
00000140: 974a 463b 42bc 0bbc bcf1 03bb bb04 183c
00000150: 8597 9c3b fa7a e63a af5c 8038 9914 a23b
00000160: 932f 3e3c e212 1a3c 33e3 03bc 2b08 43ba
00000170: 0b71 c2bb cf68 94bb e58d 98bb 5297 b73b
00000180: 3a1a 17bb 2788 a93b b8f6 663c 6b20 453c
00000190: 9d0f d83b 17b8 1c3c 47f0 743a ef3d efbb
000001a0: 9a96 cb3b 3cd0 abbb 9717 cdbb 07b7 c3bb
000001b0: 72f6 55bc adf7 ef3a 282c 863b 02b5 323c
000001c0: a4bb 87bb 770f 1bbc 81c7 2f3c bfc0 163b
000001d0: 16fe 8f3c f6ec 15bb 9b25 69bb dfd8 19bc
000001e0: c895 72bb f7db 503b 49b3 ae3b 7086 e53b
000001f0: 1392 87ba e510 debb 7f85 07bb 4a2c 763b
00000200: 2714 f23a 5267 0b3b 4d5e f23a 182c 5e3a
00000210: 127e 593b a1ab 90bc b304 693b 6e84 1dbc
00000220: bb4d d33a e07a 063c 5f7b 11bb e56f e73b
00000230: 8711 03bc 6ba5 33bc 7ea8 12bc 93c0 dcba
00000240: c2fd 2cbc 73e9 103c 8beb 533b 4ab5 f7bb
00000250: 739b 6e3b ab2e 18bc c9f2 b03b 80fa 19bb
00000260: 9507 11bc aa09 63bc d44c aeba 45c1 dabb
00000270: f519 afbb 3b1c 5abc 4bd9 7fbb 67bb 213b
00000280: dfe9 6a3b eb79 f13a cdf1 01bc 9ee3 823c
00000290: a640 b03b 4ab2 2c3b 9106 4039 2ff4 823b
000002a0: 345a ac3b b588 fb3a 73a7 49bb fe5a 9abb
000002b0: ed77 973b ab45 2a3b ed3d fbbb 1e4f bc3b
000002c0: 3872 fdbb fb0c e2ba 8b52 58bb 32b7 efba
000002d0: 75f2 eabb 57ce cab8 0ba6 b8ba e5b3 76b8
000002e0: c3c8 913b b5be ecbb 1d55 0dbc 81b4 b63b
000002f0: 2b19 dfbb f32e d1b9 14b7 1bbc 574c a43b
00000300: 87af d33b 8f83 073b c283 ffbb 46d0 0fbc
00000310: 77cb 4cbc 5804 b0bb 7d20 f9bb e31b d2ba
00000320: b34a 03bc e83d 503b e224 1e3c 571a 84bc
00000330: 9246 583b e29d 293c d13d 8bbb 62fe 2b3b
00000340: b907 303c f06d a3bb 3fed b83b 0a49 513c
00000350: 5d21 f13a 296f 833c b76d 70bb bb1c ea37
00000360: 68df a73b ba8f 35bc 3832 533c 3b3a 5bbc
00000370: 9a8e 97bb 5bbd 7fba 9c0e 01bb c022 16bc
00000380: bfa0 d83a e56e 7fbb 6de5 5aba 47ec bc3a
00000390: 3ab8 1fbc fb92 93ba 7b6f ebba 54b5 223c
000003a0: 0381 bfba 2b71 b2ba 7664 4c3c d7af 803b
000003b0: 60cc e23a 767f 1a3c bfbd dbb8 88ed fdb9
000003c0: 2479 943b 4a36 10ba ffde a83b bf05 0a3c
000003d0: b6dc 813c 2795 673b 2bf8 5bba bcad 043c
000003e0: 70af fc39 7038 b53b af0d ef3b fc65 c5b9
000003f0: b992 303a 5f0d 67bc b09b 78bc c761 07bc

action_model._discrete_distribution.branches.1.bias f4 [2]
0.0 0.0
00000000: 0000 0000 0000 0000

action_model._discrete_distribution.branches.1.weight f4 [2, 256]
-0.010665154 0.0035411322 -0.002430733 0.0014464222 0.010466135 0.0069881342 0.0053602117 -0.00068513746
0.0044512395 0.0031616227 -0.010154693 0.0063412758 -0.005185979 -0.001805177 -0.006342333 0.009676898
0.0052898796 0.0011919864 0.0037188379 -0.0062989863 0.0020777928 -0.0025463612 -0.0004677814 -0.008781941
-0.004726111 0.007334031 -0.0045865355 -0.0009956982 -0.0008456297 0.009566891 0.008756251 -0.0105017815
-0.0069315233 -0.0074964077 0.0036487894 -0.0036593077 0.0019787306 -0.002698764 0.003710578 0.0019812009
0.0016758338 -0.005756612 0.0003616911 -0.004957741 -0.004178272 0.0057227886 -0.00078087224 -0.0027001454
-0.0051966268 0.007833877 -0.0024765634 0.0033884991 -0.004721225 -0.0004226008 -0.003335163 0.005860969
-0.0028915792 0.005625566 0.0026396816 -0.0026027008 -0.0063335868 0.017644374 0.0025595147 0.009122456
0.008468885 -0.003874264 -0.0020555519 -0.009261039 0.0016632829 -0.00058592827 -0.0078199105 0.0023479757
-0.008942729 0.012530195 0.005430773 -0.0003828193 0.002921472 -0.016320355 -0.006920175 0.002440565
0.0054702503 -0.002198656 0.0026357907 -0.00080107665 -0.006680991 -0.00020822107 0.0049021197 0.0032478757
-0.0021902758 0.00456867 -0.0048015746 -0.0026050925 -0.0020662455 0.004174849 -0.003623603 0.0035646427
0.0008251262 -0.0075354427 0.013344541 -0.0010586665 0.006417379 -0.00034168112 -0.007429052 0.003440878
0.0005597283 0.005565725 0.006571361 0.008510056 0.0034041402 -0.013315496 -0.007023845 -0.00028717905
-0.004578261 -0.009877778 0.0006655485 0.0014101638 0.011720079 0.0018790215 0.0040524635 0.0045142937
-0.0013614962 0.0017154191 -0.0077874935 0.0013644656 -0.0018081226 -0.0006964189 -0.011900898 -0.009194787
0.004138823 0.0020632364 0.006062483 0.0052653993 0.007517905 0.0016875524 -0.0011857854 -0.008632654
-0.010206117 -0.0052577704 -0.009051739 0.008631606 -0.00051446434 -0.017477518 -0.0069958563 0.009602503
4.461749e-05 0.0045245416 -0.0024798908 0.008202773 -0.0023883926 -0.0113716265 -0.0035333491 0.0020775746
-0.008201291 -0.0031960835 -0.0052043926 -0.0066546756 -0.0041959616 0.005440761 -0.0038049542 0.0010602947
-0.005364831 -0.0049884603 0.00040081242 -0.0010548714 0.0010086645 -0.005378313 0.0024495136 0.005440712
0.0024500238 0.007032716 -0.0037788094 -0.009766148 0.0035113764 0.0077655353 0.008017383 0.014094439
-0.014930832 -0.003421013 -0.0047431993 0.010662318 0.0054662903 -0.003338163 0.008446212 0.0019870414
-0.0010777991 0.0013716621 -0.0030987351 0.00789533 -0.0076391697 0.0017516756 0.004883028 -0.0014605235
-0.00046071896 0.0030522614 0.0023347335 0.006037241 0.012428819 0.0062408065 -0.0040940647 0.009748682
-0.000837022 0.0028291428 -0.0019464281 0.0025813782 0.0047838683 -0.0037961311 -0.0051020035 -0.0017471269
-0.0051562795 0.0077346945 0.002986656 0.002891656 -0.005557521 -0.010483418 -0.0025883932 -0.0053936173
-0.0028490496 -0.0040019797 -0.0036445172 -0.00092467864 0.0065604816 0.009321596 0.0017204684 0.01054397
-0.018423172 -0.0012240589 -0.0081596635 0.0023237166 -0.0006339929 0.00082398887 0.0021974032 0.007189346
-0.0044414303 -0.0064219967 -0.0020279302 -0.007124626 0.00050922687 0.0035166827 0.0024834692 -0.0018544227
0.009754672 -0.00460042 0.012192523 0.0024048316 -0.0025677986 0.0018124819 -0.0020827383 -0.003151587
0.019169006 0.0049458994 0.0062043094 -0.0052077845 0.0039484487 0.0002883804 0.011207521 0.0010331677
00000000: e6bc 2ebc 5712 683b ef4c 1fbb e095 bd3a
00000010: 277a 2b3c b8fc e43b b7a4 af3b cc9a 33ba
00000020: b4db 913b 3a33 4f3b df5f 26bc 7aca cf3b
00000030: 25ef a9bb b09b ecba 58d3 cfbb da8b 1e3c
00000040: ba56 ad3b 6d3c 9c3a bfb7 733b ba67 cebb
00000050: 942b 083b dae0 26bb 8f40 f5b9 21e2 0fbc
00000060: 7edd 9abb 5052 f03b a64a 96bb 1682 82ba
00000070: 40ad 5dba 73be 1c3c 6176 0f3c aa0f 2cbc
00000080: d521 e3bb 6da4 f5bb 8720 6f3b ffd0 6fbb
00000090: 97ad 013b bfdd 30bb 2b2d 733b 09d7 013b
000000a0: a7a7 db3a f6a1 bcbb 5ca1 bd39 8c74 a2bb
000000b0: e3e9 88bb 3b86 bb3b 73b3 4cba ecf4 30bb
000000c0: 7748 aabb a959 003c d74d 22bb 9511 5e3b
000000d0: 81b4 9abb 8590 ddb9 c092 5abb 5f0d c03b
000000e0: a680 3dbb ab56 b83b 82fe 2c3b 1392 2abb
000000f0: fa89 cfbb ef8a 903c 88bd 273b 5b76 153c
00000100: 14c1 0a3c 5de7 7dbb 70b6 06bb 9dbb 17bc
00000110: 8302 da3a fb98 19ba 151f 00bc 7fe0 193b
00000120: 8684 12bc 724b 4d3c a0f4 b13b 23b5 c8b9
00000130: 2b76 3f3b 44b2 85bc a3c2 e2bb e3f1 1f3b
00000140: c93f b33b 5417 10bb 3bbd 2c3b 58ff 51ba
00000150: 37ec dabb eb55 5ab9 f6a1 a03b 50da 543b
00000160: bb8a 0fbb c8b4 953b 8756 9dbb 33ba 2abb
00000170: d969 07bb 2ccd 883b f879 6dbb c89c 693b
00000180: 484d 583a e0eb f6bb 10a3 5a3c f4c2 8aba
00000190: e048 d23b aa23 b3b9 686f f3bb 5a80 613b
000001a0: bbba 123a af60 b63b 9254 d73b c36d 0b3c
000001b0: ff17 5f3b 3d29 5abc 4828 e6bb 8590 96b9
000001c0: 3d05 96bb 67d6 21bc 3478 2e3a 3fd5 b83a
000001d0: 9305 403c 8049 f63a 87ca 843b a4ec 933b
000001e0: 3b74 b2ba ead7 e03a 3b2e ffbb ded7 b23a
000001f0: 87fe ecba e28f 36ba fcfb 42bc bba5 16bc
00000200: f79e 873b 5d37 073b cba7 c63b 5f89 ac3b
00000210: c258 f63b dd30 dd3a 5b6c 9bba fa6f 0dbc
00000220: 8f37 27bc 6049 acbb bf4d 14bc 946b 0d3c
00000230: 1edd 06ba 032d 8fbc 7f3d e5bb d153 1d3c
00000240: aa23 3b38 9b42 943b aa85 22bb ec64 063c
00000250: 9486 1cbb 0f50 3abc c38f 67bb eb27 083b
00000260: b55e 06bc 6275 51bb 9c89 aabb 770f dabb
00000270: 477e 89bb 6948 b23b 8a5c 79bb 96f9 8a3a
00000280: 77cb afbb 3d76 a3bb 2224 d239 9c43 8aba
00000290: 2a35 843a 8f3c b0bb 0588 203b 0048 b23b
000002a0: 9490 203b b372 e63b e7a5 77bb 3202 20bc
000002b0: 1f1f 663b 0876 fe3b 575b 033c 5dec 663c
000002c0: 73a0 74bc 1333 60bb d76c 9bbb 01b1 2e3c
000002d0: 911e b33b 15c5 5abb fb61 0a3c 0639 023b
000002e0: f044 8dba 58c9 b33a 2614 4bbb 6a5b 013c
000002f0: 0052 fabb 7b98 e53a cf01 a03b 096f bfba
00000300: a78c f1b9 7308 483b 5402 193b 0cd4 c53b
00000310: 3fa2 4b3c ae7f cc3b 8127 86bb f0b8 1f3c
00000320: 986b 5bba 2469 393b 4a1f ffba 572c 293b
00000330: ffc1 9c3b 83c8 78bb b52e a7bb daff e4ba
00000340: 02f6 a8bb 5273 fd3b c6bb 433b f081 3d3b
00000350: dd1b b6bb a4c2 2bbc 08a2 29bb f1bc b0bb
00000360: 1fb7 3abb 0a23 83bb dad8 6ebb 2266 72ba
00000370: 4ff9 d63b 9bb9 183c 5781 e13a 9ec0 2c3c
00000380: 31ec 96bc 9a70 a0ba 1cb0 05bc 7f49 183b
00000390: 8b32 26ba f500 583a 4f02 103b 9b94 eb3b
000003a0: 6b89 91bb 9d6f d2bb 06e7 04bb b275 e9bb
000003b0: a37d 053a 2578 663b b3c1 223b 1a10 f3ba
000003c0: 0fd2 1f3c 1fbf 96bb 26c3 473c 619a 1d3b
000003d0: 8348 28bb cd90 ed3a 8d7e 08bb db8a 4ebb
000003e0: 5208 9d3c 3611 a23b 854d cb3b 10a6 aabb
000003f0: fd61 813b c331 9739 c09f 373c 5b6b 873a

action_model._discrete_distribution.branches.2.bias f4 [2]
0.0 0.0
00000000: 0000 0000 0000 0000

action_model._discrete_distribution.branches.2.weight f4 [2, 256]
0.008786957 0.014792156 -0.0022844276 0.009815775 0.009703595 0.007917 7.571433e-05 0.014913941
-0.0043149 0.0031247118 -0.003699407 -0.00892281 0.0052810125 0.0016053172 0.006715233 0.0017409865
-0.0045197965 -0.002944409 0.006099654 0.010853763 0.0012454003 -0.016765816 0.0038028925 0.0032072978
0.0060638576 0.0048152287 0.006855648 -7.0985974e-05 0.0012229703 0.0021020605 0.012102916 -0.014830741
0.002088078 0.0061814743 0.0053106765 0.0029714655 -0.008200223 -0.00088668737 0.00847243 0.00571206
0.0024947128 -0.00087410345 -0.00715046 0.0007864476 -0.0017849541 -0.0012437501 -0.0018589277 0.013914587
-0.0050552688 -0.0017578077 -0.0037019532 -0.0018637072 0.009451831 0.01578322 0.0005390189 -0.0051884707
-0.0058751716 0.0035293554 -0.011969908 -0.00010476627 -0.004719039 0.0006865671 0.00591925 -3.5347835e-05
-7.883369e-05 0.002274744 0.0037740169 -0.00073215086 -0.00608385 0.0032588784 -0.0034050208 -0.0060168533
-0.0008387325 -0.0026145154 -0.0048830993 -0.007895405 0.0071687005 0.0007170446 -0.0076593384 -0.0066082175
-0.005479447 -0.0011124366 0.0060888794 -0.0044883196 0.0053134854 -0.007472176 0.0071312897 0.012175775
-0.00034312895 -0.0010192528 -0.007057763 0.0074576386 -0.0022850756 -0.0131933885 0.002161938 -0.00093653577
0.0010052064 -0.0057827956 0.0061082286 -0.00032220504 -0.0017947172 -0.00446283 0.0032500685 -0.008931483
-0.004007475 0.015716365 -0.0050470424 0.005653852 0.002422881 0.012286808 0.0014624287 -0.00398574
0.003673215 -0.0013819457 0.00092025567 0.0034168202 0.0013901617 -0.007915682 -0.00015595024 0.001003019
-0.002283815 0.00059275137 0.006466324 0.002964765 -0.0029064137 -0.0007101766 0.00042250985 0.0051868283
0.0051625394 0.0073893457 0.0014398954 0.0022100562 -0.006731556 0.00038590777 -0.003962851 0.005320641
0.00028563672 0.005085994 0.0069094384 -0.009261281 0.0007439632 -0.01382859 -0.0026654932 -0.0049313908
-0.0022990461 0.0050633885 0.012502751 0.006894976 0.006572529 0.001460411 0.008601914 0.0073844693
0.0033943725 0.009252993 0.005701583 0.007423752 0.007817168 0.0035729315 0.0021348826 -0.0059926724
0.00069947634 -0.0029751663 -0.005608783 0.010080121 0.0065550106 0.004422383 -0.005217101 -0.00400823
0.0063585574 0.004652483 -0.0033137358 -0.011979657 0.00024789825 0.0076368833 -0.009092048 0.004404048
0.009920502 0.006279046 0.006654793 0.0025963974 0.014643046 -0.0020354982 0.00045631043 -0.0037562035
0.00048199645 0.0024602667 -0.000630884 -0.0023969854 -0.0013071484 0.010027486 0.0063568437 -0.00224283
-0.0038865674 -0.004312111 -0.005504419 0.0070994026 -0.013463992 -0.0055388594 0.015836803 0.0060869637
-0.0078541115 -0.006410175 0.002431005 -0.0037475142 0.0019980848 0.0007291154 0.013943575 -0.0002610608
0.0067606503 -0.00062919775 0.011656976 -0.0031303235 0.0005716154 -0.0004785469 -0.008657561 -0.007707126
-0.012526633 0.003324352 0.0022331155 0.0026079507 -0.0006370449 -0.001794495 -0.0069519742 0.0023999927
-0.0010267736 0.0019673947 -0.0043676854 0.00462455 0.0056851385 0.0010634119 -0.0097436 0.0015454064
0.0077440115 0.0038438756 0.009347351 0.003448106 -0.0021397907 0.004794603 -0.007159199 -0.010465144
0.007808172 -2.2219463e-06 -0.010165659 0.0008436255 0.010487988 0.0001792932 0.0034356152 0.004754219
-0.006142329 0.0018698176 0.004745165 -0.004076668 0.007462026 -0.0013518463 -0.0013483071 -0.0036371858
00000000: 2bf7 0f3c cd5a 723c 56b6 15bb 58d2 203c
00000010: d4fb 1e3c 4eb6 013c d2c8 9e38 9a59 743c
00000020: 0164 8dbb f7c7 4c3b c071 72bb fa30 12bc
00000030: 580c ad3b 8269 d23a 750b dc3b d031 e43a
00000040: cd1a 94bb fcf6 40bb 9bdf c73b fbd3 313c
00000050: b33c a33a 7758 89bc f339 793b 8731 523b
00000060: 53b3 c63b 11c9 9d3b 58a5 e03b 4ede 94b8
00000070: 134c a03a b9c2 093b 4f4b 463c a3fc 72bc
00000080: 23d8 083b f78d ca3b 2f05 ae3b ebbc 423b
00000090: 3a5a 06bc 9570 68ba f2cf 0a3c 3b2c bb3b
000000a0: 567e 233b 1724 65ba 684e eabb 9b29 4e3a
000000b0: 1ff5 e9ba 5405 a3ba 43a7 f3ba 02fa 633c
000000c0: aba6 a5bb 3d66 e6ba 789c 72bb a347 f4ba
000000d0: dadb 1a3c d04b 813c f24c 0d3a 0c04 aabb
000000e0: 8384 c0bb c24c 673b 6f1d 44bc f7b5 dbb8
000000f0: 2ba2 9abb bdfa 333a 45f6 c13b 7342 14b8
00000100: 8453 a5b8 df13 153b 7f55 773b d0ed 3fba
00000110: 085b c7bb e892 553b c526 5fbb 0629 c5bb
00000120: 63de 5bba 4a58 2bbb 6802 a0bb bb5b 01bc
00000130: 6be7 ea3b 0cf8 3b3a 30fb fabb bf89 d8bb
00000140: ef8c b3bb 2ecf 91ba 3985 c73b c112 93bb
00000150: bf1c ae3b 28d9 f4bb 98ad e93b e77c 473c
00000160: fde5 b3b9 7398 85ba cf44 e7bb 355f f43b
00000170: 35c1 15bb 1529 58bc 4daf 0d3b da81 75ba
00000180: 21c1 833a 9b7d bdbb 8927 c83b a1ed a8b9
00000190: b73c ebba ee3c 92bb 1aff 543b 5b55 12bc
000001a0: 2351 83bb 9bbf 803c a961 a5bb f343 b93b
000001b0: 33c9 1e3b 9c4e 493c f7ae bf3a cf9a 82bb
000001c0: 52ba 703b 6722 b5ba 503d 713a bbec 5f3b
000001d0: 1636 b63a c7b0 01bc 9386 23b9 bc77 833a
000001e0: 0fac 15bb df62 1b3a 75e3 d33b 814c 423b
000001f0: 8879 3ebb 252b 3aba 5084 dd39 45f6 a93b
00000200: 852a a93b 5322 f23b dfba bc3a 97d6 103b
00000210: 6294 dcbb aa53 ca39 ceda 81bb c658 ae3b
00000220: 83c1 9539 69a8 a63b 9268 e23b a1bc 17bc
00000230: 8606 433a 4f91 62bc 8eaf 2ebb 8197 a1bb
00000240: 98ab 16bb c8ea a53b 57d8 4c3c 40ef e13b
00000250: 5f5e d73b 436b bf3a 0bef 0c3c 6bf9 f13b
00000260: 1f74 5e3b de99 173c 58d4 ba3b f242 f33b
00000270: 9413 003c d827 6a3b 63e9 0b3b 2e5e c4bb
00000280: 105d 373a 02fb 42bb e2c9 b7bb 1827 253c
00000290: 6acb d63b a3e9 903b 37f4 aabb 7857 83bb
000002a0: 725b d03b db73 983b 432b 59bb 5346 44bc
000002b0: 57f8 8139 d23e fa3b d0f6 14bc d54f 903b
000002c0: 9a89 223c 75c0 cd3b 7310 da3b 5228 2a3b
000002d0: 63e9 6f3c fe65 05bb f33c ef39 a32a 76bb
000002e0: 78b4 fc39 6d3c 213b e961 25ba be16 1dbb
000002f0: 9f54 abba 534a 243c 124d d03b 72fc 12bb
00000300: c8b5 7ebb 9c4c 8dbb 6a5e b4bb 1ba2 e83b
00000310: 1398 5cbc 527f b5bb 2fbc 813c 2775 c73b
00000320: 88ae 00bc 720c d2bb 7f51 1f3b db98 75bb
00000330: 4df2 023b 1b22 3f3a 9873 643c fdde 88b9
00000340: 7288 dd3b bff0 24ba e7fc 3e3c 1d26 4dbb
00000350: 76d8 153a 7ae5 fab9 71d8 0dbc 0f8c fcbb
00000360: 823c 4dbc 5fdd 593b 7659 123b 27ea 2a3b
00000370: 5cff 26ba 4335 ebba 63cd e3bb 3249 1d3b
00000380: ce94 86ba 68ef 003b cd1e 8fbb 8a89 973b
00000390: 664a ba3b 2f62 8b3a 9fa3 1fbc 3c8f ca3a
000003a0: 7ac1 fd3b 88e9 7b3b a225 193c 9ff9 613b
000003b0: bb3b 0cbb 0c1c 9d3b b797 eabb ff75 2bbc
000003c0: b2db ff3b bf1c 15b6 dd8d 26bc c026 5d3a
000003d0: cfd5 2b3c a700 3c39 0f28 613b 48c9 9b3b
000003e0: 9745 c9bb ab14 f53a 547d 9b3b 9295 85bb
000003f0: 0384 f43b 6f30 b1ba aeb9 b0ba da5d 6ebb

action_model._discrete_distribution.branches.3.bias f4 [2]
0.0 0.0
00000000: 0000 0000 0000 0000

action_model._discrete_distribution.branches.3.weight f4 [2, 256]
-0.004127337 -0.0025428915 0.0077428506 -0.007964566 -0.0034465007 0.00024141712 -0.004459781 0.0014012762
-0.009106464 0.0010031956 -0.008925514 -0.00010908226 0.003874362 0.008016125 0.017488645 -0.0061997413
-0.00016399134 0.004356953 0.0022104285 -0.014358501 -0.0031255246 -0.0074867057 0.0065796725 0.0043654023
0.008078866 0.020111242 -0.006018655 -0.0029027425 0.010318411 0.0042109936 0.00056236534 0.0043482925
0.002131228 -0.0075108423 -0.0028183765 -0.0030812963 -0.00938012 -0.0063523003 0.0001458832 -0.0003384586
-0.0003553078 0.0077726515 0.006569277 0.0016051598 -0.0024693075 0.0071524936 -0.007682127 0.006207416
0.0010072229 0.00067157974 0.0027289381 -0.008609314 0.00934865 -0.0016595068 0.015025343 -0.00077018444
0.0057939887 -0.010805002 0.0009873612 0.0070528737 -0.0018150579 -0.009085831 -0.0034078532 0.009910532
-0.00015038364 0.0026975048 0.002107727 0.00293665 0.0036462792 0.0027618709 -0.001985983 -0.00076778413
0.0010732071 -0.010125219 -0.014522947 -0.0022012012 0.012910798 0.0050116507 -0.001638476 -0.02068293
0.013195376 -0.0111344 0.00045459508 -0.01707427 0.009309894 0.002622861 -0.0032496916 -0.001792313
-0.0103726 -0.0024435946 0.004238619 -0.01342952 0.0011188377 0.009527379 0.0036008444 -0.01335594
0.0037168066 -0.001581725 0.0044490043 -0.001136057 0.0020984875 0.009072562 0.005046602 -0.0036187537
-0.009709733 -0.004090223 -0.0020355287 0.0034000613 0.0005119547 0.00488748 0.0056166607 0.010996999
-0.002591606 -0.0035906867 -0.0092421835 -0.0064657503 -0.015996618 0.001418734 -0.00043931996 0.008852257
0.0021418955 0.0048193363 -0.0072729657 -0.0025471754 -0.005697012 0.0037770302 0.0002612403 -0.0022368005
0.0052408567 -0.00965746 -0.007936223 0.007802279 -0.007875531 0.00069034024 -0.002184532 -0.004497178
-0.007673199 -0.003293777 0.0037568882 -0.0011746286 -0.0065683774 -0.0129542425 0.0011333872 0.003522006
-0.00698724 -0.004140661 -0.002185084 -0.005985652 -0.0035422016 -0.007787256 -0.002222982 -0.007335167
0.003189959 -0.006932323 0.003983175 -0.01017196 -0.007227128 -0.0057612644 0.002411701 -0.008365591
-0.0011490665 0.0037250395 -0.004137294 0.0021948998 -0.007391266 -0.0031222303 -0.004528656 -0.0009931041
-0.0062900917 0.0028002663 0.0079135 -0.00638531 0.0015238205 -0.008194529 -0.0033081628 0.0054285615
0.007457461 -0.0028515058 -9.776034e-05 -0.011581401 -0.002366411 -0.008477518 0.0032438182 -0.0001805313
0.0028858758 -0.00011334294 0.0024171472 0.0014598643 0.008609396 0.00068074703 -0.0017295567 -0.008653291
-0.0001436446 0.006832503 0.0019285901 0.0011458463 0.001803263 0.0008033556 0.004541087 0.005841913
0.0075295246 0.012450053 -0.0069202418 -0.0065569812 0.004176902 -0.0001477624 0.006777223 0.0015717121
0.0043290737 0.00073770614 -0.0023921032 -0.00301393 -0.007811314 -0.0021454769 0.010677076 0.0007062582
-0.0014168164 -0.008125405 0.013032744 -0.0016559436 -0.00707734 -0.00035173047 0.00079038274 0.0069908905
-0.0073782164 0.007459465 0.0032318619 0.0051793274 0.0054174433 -0.012959123 -0.008983706 -0.005130962
-0.002547504 -3.5230547e-05 -0.0034627006 -0.0052204696 -0.0071815043 -0.0057701296 0.010882433 -0.0045973654
-0.009067665 -0.0049751685 -0.003373351 0.008396207 -0.008777354 -0.0031195597 0.007535943 0.01941696
-0.012769925 0.0055892086 0.0004458976 -0.010068173 0.008430336 0.00018333997 0.006231276 0.0096698245
00000000: 9d3e 87bb a4a6 26bb bdb7 fd3b d07d 02bc
00000010: b0de 61bb ea24 7d39 5b23 92bb 07ab b73a
00000020: 4733 15bc a97d 833a 523c 12bc 18c3 e4b8
00000030: 02e9 7d3b 1156 033c 5944 8f3c 3327 cbbb
00000040: 17f5 2bb9 c5c4 8e3b d6dc 103b eb3f 6bbc
00000050: 9ad5 4cbb 0a53 f5bb 4b9a d73b a60b 8f3b
00000060: 385d 043c 55c0 a43c 2338 c5bb f03b 3ebb
00000070: 8d0e 293c 60fc 893b b36b 133a 1f7c 8e3b
00000080: 13ac 0b3b 831d f6bb 83b4 38bb 93ef 49bb
00000090: 13af 19bc f526 d0bb 39f8 1839 2573 b1b9
000000a0: 9b48 bab9 bab1 fe3b 1743 d73b 3a64 d23a
000000b0: 1bd4 21bb 775f ea3b 5aba fbbb 9467 cb3b
000000c0: cb04 843a f40c 303a fcd7 323b 150e 0dbc
000000d0: 152b 193c cf83 d9ba db2c 763c 34e6 49ba
000000e0: 80db bd3b 7707 31bc 586a 813a cb1b e73b
000000f0: 3de7 edba bddc 14bc 4a56 5fbb c95f 223c
00000100: 4db0 1db9 9fc8 303b cb21 0a3b d074 403b
00000110: 6af6 6e3b 8100 353b 4427 02bb 1f45 49ba
00000120: dbaa 8c3a 3fe4 25bc a8f1 6dbc 0742 10bb
00000130: d087 533c c638 a43b 22c2 d6ba 3f6f a9bc
00000140: 6b31 583c 0f6d 36bc b856 ee39 57df 8bbc
00000150: 8788 183c 4ee4 2b3b c7f8 54bb 0bec eaba
00000160: d6f1 29bc b724 20bb 1de4 8a3b 7d07 5cbc
00000170: f7a5 923a b918 1c3c 25fc 6b3b dfd2 5abc
00000180: ab95 733b e251 cfba f4c8 913b bfe7 94ba
00000190: c786 093b 15a5 143c f75d a53b 9d28 6dbb
000001a0: 9215 1fbc 4707 86bb 8166 05bb 90d3 5e3b
000001b0: b334 063a 2727 a03b f70b b83b c22c 343c
000001c0: efd7 29bb ba51 6bbb 876c 17bc a5de d3bb
000001d0: 570b 83bc d0f4 b93a 8754 e6b9 0f09 113c
000001e0: 0b5f 0c3b 86eb 9d3b 0f52 eebb 83ee 26bb
000001f0: 00ae babb 0d88 773b 14f7 8839 4997 12bb
00000200: 7ebb ab3b 533a 1ebc ef06 02bc 43aa ff3b
00000210: 5f08 01bc f3f7 343a 5d2a 0fbb 105d 93bb
00000220: 756f fbbb 68dc 57bb 2036 763b fff5 99ba
00000230: 8b3b d7bb 083e 54bc 2a8e 943a 75d1 663b
00000240: 38f5 e4bb 62ae 87bb a033 0fbb 4a23 c4bb
00000250: 4824 68bb 3d2c ffbb 73af 11bb d75b f0bb
00000260: a20e 513b 8a28 e3bb 4b85 823b 4ba8 26bc
00000270: 8bd1 ecbb fdc8 bcbb a10d 1e3b d50f 09bc
00000280: 469c 96ba cb1f 743b 2392 87bb 4fd8 0f3b
00000290: 6f32 f2bb 559e 4cbb 1f65 94bb 0b2b 82ba
000002a0: 1d1d cebb ac84 373b a0a7 013c dd3b d1bb
000002b0: eeba c73a 5942 06bc c3cd 58bb 13e2 b13b
000002c0: b85d f43b 54e0 3abb af04 cdb8 ebbf 3dbc
000002d0: ca15 1bbb 4ae5 0abc 3d96 543b 004d 3db9
000002e0: f620 3d3b 87b2 edb8 0069 1e3b eb58 bf3a
000002f0: 6d0e 0d3c 2974 323a 4bb2 e2ba 88c6 0dbc
00000300: 4e9f 16b9 30e3 df3b bfc8 fc3a 3930 963a
00000310: 775b ec3a 4898 523a 66cd 943b 856d bf3b
00000320: 3bba f63b 4ffb 4b3c 32c3 e2bb f2db d6bb
00000330: 65de 883b abf0 1ab9 7813 de3b e801 ce3a
00000340: e7da 8d3b 9f62 413a d5c4 1cbb 5b85 45bb
00000350: 0df6 ffbb 219b 0cbb e7ee 2e3c 2f24 393a
00000360: 78b4 b9ba 6b20 05bc 4a87 553c 3f0c d9ba
00000370: 08e9 e7bb 7768 b8b9 b031 4f3a d713 e53b
00000380: f7c4 f1bb 876e f43b a5cd 533b 59b7 a93b
00000390: cf84 b13b 8052 54bc 6530 13bc a121 a8bb
000003a0: 06f4 26bb 83c4 13b8 7aee 62bb 7910 abbb
000003b0: d352 ebbb 5b13 bdbb 3b4c 323c 7fa5 96bb
000003c0: 8b90 14bc bd06 a3bb 7013 5dbb 3f90 093c
000003d0: e4ce 0fbc 8771 4cbb 12f0 f63b 5110 9f3c
000003e0: f338 51bc ae25 b73b 5dc7 e939 faf4 24bc
000003f0: 641f 0a3c f33e 4039 bb2f cc3b 2f6e 1e3c

action_model._discrete_distribution.branches.4.bias f4 [2]
0.0 0.0
00000000: 0000 0000 0000 0000

action_model._discrete_distribution.branches.4.weight f4 [2, 256]
-0.009045462 -1.4013555e-05 -0.0046113473 0.0057826987 -0.004748412 0.0023576205 -0.0020380036 -0.0037412194
0.0059016324 0.0031728873 0.002545658 7.66428e-06 0.012039954 0.006515328 0.012898904 0.0016574044
0.0002035201 0.002573561 -0.011087177 0.012705668 -0.004686863 -0.0041946284 0.0047138934 -0.0074744495
0.0012744929 -0.0008093918 -0.0021362992 0.007529461 0.0032601485 0.0031579472 -0.001677621 -0.005253009
-0.010912451 0.008003964 -0.015817767 -0.0027713126 0.0028457127 -0.001080932 -0.0074507943 -0.0024072216
-0.0014444106 0.007071423 0.009355165 0.0061008288 -0.0020935682 -0.0011882677 -0.0014313452 -0.00018050376
0.013363074 0.009788134 -0.0017775542 -0.0035136738 -0.0033216488 -0.0031120516 0.0023858934 0.012948488
-0.013332044 -0.0015177026 0.0028125057 0.0034976713 -0.012407237 -0.0017476302 -0.001985358 -0.0049808207
0.0035247232 0.0024819346 -0.0032466769 0.0001489692 -0.00020859405 0.0005454487 0.00070950465 0.0036913496
-0.003932288 -0.0063313576 0.0060927146 0.0012051725 -0.006493188 0.010926935 -0.0069646537 0.009214754
0.0023734232 0.0047842143 -0.00812049 -0.0042327237 -0.0028505728 0.005100911 -0.008483971 0.0027939517
-0.0021688405 0.0055550947 -0.007503792 -0.0041837725 0.0056224675 -0.00460223 0.00631451 -0.001263072
0.0015721213 0.001414318 -0.013559344 0.007681042 -0.0023877255 0.005888443 0.011523139 -0.0024270874
0.0041815895 -0.0055889417 -0.0029919287 -0.0013373892 0.006105091 -0.010872766 -0.0046942118 -6.825295e-05
-0.006379397 0.0016914554 -0.0054411953 0.00023037987 -0.012079775 0.002603945 0.002817215 0.0025528294
0.0021722054 -0.006025227 0.0017185798 -0.0065866257 0.0081298705 0.0038097973 0.0013912861 -0.00294759
0.0028278418 0.0032437593 -0.0005301758 0.002205802 -0.010758781 -0.010475793 -0.0025589503 0.0059333285
0.009707325 0.0017117125 0.009397239 -0.0034425126 0.004180049 0.003985589 -0.0002973539 -0.010735883
-0.001855234 0.006286674 0.0010038008 0.007867022 0.0030512516 -0.0012905508 -0.008154118 0.0056256033
0.007932618 0.0019908994 -0.0047552423 0.0076873074 -0.006874641 -0.01096409 -0.0030065852 0.0064776167
0.0055392343 -0.008703492 0.008223564 0.00232741 0.0004971687 -0.006242848 -0.003896024 -0.009242671
-0.0009883785 -0.0004896528 0.012463542 -0.014289777 -0.0053381897 0.0054827943 -0.005132691 0.0016864127
-0.006214977 0.007585674 -0.0016237552 -0.004758177 -0.0046606516 0.0053817076 -0.0018484427 0.0023572622
-0.0069582835 0.0046939016 -0.007221659 -0.0024805616 -0.010208867 0.0010202222 -0.008242165 0.00058904325
0.0021904341 -0.0003903644 -0.002838144 0.0040964074 0.0079456335 -0.0023311814 0.005551319 0.00426241
0.00283088 0.002272749 -0.010794044 0.003514709 0.0028433285 -0.0012369307 -0.002063211 -0.0074587255
0.006231751 0.0037493836 -0.005123067 -0.005993813 -0.0006036968 0.0047933897 0.0038190193 0.004386668
-0.004515046 -0.0016196723 0.003478266 -0.00022671511 -0.004113599 -0.007889529 -0.0066919285 -0.002382941
0.0035373678 -0.008734267 -0.0059560123 0.006224421 0.0053699627 -0.0010096357 -0.014023043 0.00791436
-0.0055970293 0.0029029937 0.002686782 0.0039727883 0.01029242 -0.0006139839 -0.0023449082 0.00153985
0.0056335595 0.00023692897 -0.0034872224 -0.0065643373 0.009031982 -0.002614677 -0.008297567 0.00096102024
-0.008138186 -0.004997274 0.00016754455 0.0090732565 0.009294792 -0.009555139 -0.002531341 0.00490794
00000000: 6b33 14bc c31b 6bb7 c91a 97bb cb7c bd3b
00000010: 9198 9bbb 4f82 1a3b 0790 05bb 3f2f 75bb
00000020: 7b62 c13b 37f0 4f3b 0ed5 263b d595 0037
00000030: 3a43 453c 887e d53b ed55 533c 433d d93a
00000040: 0368 5539 30a9 283b fea6 35bc 6f2b 503c
00000050: 4294 99bb 1873 89bb 0177 9a3b 3aec f4bb
00000060: e30c a73a 5d2d 54ba 2701 0cbb b2b9 f63b
00000070: 37a8 553b 90f5 4e3b 9fe3 dbba 6f21 acbb
00000080: 23ca 32bc 0f23 033c 4394 81bc e99e 35bb
00000090: 237f 3a3b 0fae 8dba cb25 f4bb 7ac2 1dbb
000000a0: 6152 bdba 65b7 e73b 6846 193c 76e9 c73b
000000b0: 3f34 09bb a6bf 9bba fa9b bbba 9c45 3db9
000000c0: cbf0 5a3c 695e 203c d2fc e8ba aa45 66bb
000000d0: 05b0 59bb 90f3 4bbb a65c 1c3b e525 543c
000000e0: a56e 5abc a6ed c6ba 0452 383b 3039 653b
000000f0: b947 4bbc bd10 e5ba c81c 02bb 2736 a3bb
00000100: 0bff 663b f4a7 223b 33c6 54bb 9d34 1c39
00000110: 0aba 5ab9 71fc 0e3a 0dfe 393a 92ea 713b
00000120: 6cda 80bb 4777 cfbb 65a5 c73b e1f6 9d3a
00000130: cfc4 d4bb e306 333c c037 e4bb 7bf9 163c
00000140: 6f8b 1b3b e6c4 9c3b ce0b 05bc a9b2 8abb
00000150: add0 3abb 8b25 a73b 5a00 0bbc bb1a 373b
00000160: 1b23 0ebb 8307 b63b 5fe2 f5bb 0718 89bb
00000170: ad3c b83b 4ece 96bb f3e9 ce3b aa8d a5ba
00000180: a30f ce3a a360 b93a 0328 5ebc 40b1 fb3b
00000190: 637b 1cbb d7f3 c03b 8ccb 3c3c c50f 1fbb
000001a0: b705 893b 7123 b7bb 3c14 44bb 564b afba
000001b0: 370d c83b b023 32bc e7d1 99bb 0623 8fb8
000001c0: 430a d1bb d3b3 dd3a 0e4c b2bb 2092 7139
000001d0: 40ea 45bc f3a6 2a3b 06a1 383b 5f4d 273b
000001e0: 8f5b 0e3b 446f c5bb f841 e13a 9fd4 d7bb
000001f0: 2633 053c cbad 793b d15b b63a 5b2c 41bb
00000200: 5053 393b 4095 543b 7ffb 0aba 378f 103b
00000210: 9945 30bc a9a2 2bbc 10b4 27bb 5e6c c23b
00000220: 790b 1f3c 8a5b e03a e1f6 193c c79b 61bb
00000230: cbf8 883b 8b99 823b 2ae6 9bb9 8fe5 2fbc
00000240: 532b f3ba 7200 ce3b f791 833a afe4 003c
00000250: 82f7 473b b327 a9ba da98 05bc fb56 b83b
00000260: d0f7 013c c079 023b ddd1 9bbb cfe5 fb3b
00000270: ab44 e1bb baa2 33bc 210a 45bb 3042 d43b
00000280: 7782 b53b 1799 0ebc 21bc 063c 7687 183b
00000290: 6d54 023a ce90 ccbb 7054 7fbb 926e 17bc
000002a0: 7b8c 81ba 0b5c 00ba e233 4c3c ab1f 6abc
000002b0: fbeb aebb 03a9 b33b 2230 a8bb 9f0a dd3a
000002c0: 01a7 cbbb 3f91 f83b 2fd4 d4ba 7bea 9bbb
000002d0: 61b8 98bb 0959 b03b 7247 f2ba 4c7c 1a3b
000002e0: 5002 e4bb 4dcf 993b aba3 ecbb eb90 22bb
000002f0: 1743 27bc fab8 853a 250a 07bc 066a 1a3a
00000300: 638d 0f3b d3a9 ccb9 2800 3abb 283b 863b
00000310: 672e 023c bcc6 18bb d7e7 b53b b0ab 8b3b
00000320: 4986 393b 67f2 143b 80d9 30bc 0857 663b
00000330: 2357 3a3b 8220 a2ba f036 07bb 5368 f4bb
00000340: b733 cc3b 38b8 753b 67df a7bb bf67 c4bb
00000350: 6841 1eba de11 9d3b 8348 7a3b 0abe 8f3b
00000360: f3f2 93bb 2f4b d4ba 9ff3 633b 60ba 6db9
00000370: 5fcb 86bb 1543 01bc f747 dbbb 1e2b 1cbb
00000380: 2fd3 673b 2c1a 0fbc a72a c3bb 3af6 cb3b
00000390: 83f6 af3b c155 84ba e8c0 65bc 3bab 013c
000003a0: 4967 b7bb 2740 3e3b b914 303b 2a2e 823b
000003b0: 8aa1 283c c3f3 20ba 08ad 19bb cbd4 c93a
000003c0: b999 b83b 2370 7839 e289 64bb a719 d7bb
000003d0: e1fa 133c 005b 2bbb 85f2 07bc faec 7b3a
000003e0: 0756 05bc 2cc0 a3bb e6ae 2f39 ffa7 143c
000003f0: 2f49 183c 288d 1cbc dbe4 25bb c9d2 a03b

network_body.linear_encoder.seq_layers.0.bias f4 [256]
0.0 0.0 0.0 0.0 0.0 0.0 0.0 0.0
0.0 0.0 0.0 0.0 0.0 0.0 0.0 0.0
0.0 0.0 0.0 0.0 0.0 0.0 0.0 0.0
0.0 0.0 0.0 0.0 0.0 0.0 0.0 0.0
0.0 0.0 0.0 0.0 0.0 0.0 0.0 0.0
0.0 0.0 0.0 0.0 0.0 0.0 0.0 0.0
0.0 0.0 0.0 0.0 0.0 0.0 0.0 0.0
0.0 0.0 0.0 0.0 0.0 0.0 0.0 0.0
0.0 0.0 0.0 0.0 0.0 0.0 0.0 0.0
0.0 0.0 0.0 0.0 0.0 0.0 0.0 0.0
0.0 0.0 0.0 0.0 0.0 0.0 0.0 0.0
0.0 0.0 0.0 0.0 0.0 0.0 0.0 0.0
0.0 0.0 0.0 0.0 0.0 0.0 0.0 0.0
0.0 0.0 0.0 0.0 0.0 0.0 0.0 0.0
0.0 0.0 0.0 0.0 0.0 0.0 0.0 0.0
0.0 0.0 0.0 0.0 0.0 0.0 0.0 0.0
0.0 0.0 0.0 0.0 0.0 0.0 0.0 0.0
0.0 0.0 0.0 0.0 0.0 0.0 0.0 0.0
0.0 0.0 0.0 0.0 0.0 0.0 0.0 0.0
0.0 0.0 0.0 0.0 0.0 0.0 0.0 0.0
0.0 0.0 0.0 0.0 0.0 0.0 0.0 0.0
0.0 0.0 0.0 0.0 0.0 0.0 0.0 0.0
0.0 0.0 0.0 0.0 0.0 0.0 0.0 0.0
0.0 0.0 0.0 0.0 0.0 0.0 0.0 0.0
0.0 0.0 0.0 0.0 0.0 0.0 0.0 0.0
0.0 0.0 0.0 0.0 0.0 0.0 0.0 0.0
0.0 0.0 0.0 0.0 0.0 0.0 0.0 0.0
0.0 0.0 0.0 0.0 0.0 0.0 0.0 0.0
0.0 0.0 0.0 0.0 0.0 0.0 0.0 0.0
0.0 0.0 0.0 0.0 0.0 0.0 0.0 0.0
0.0 0.0 0.0 0.0 0.0 0.0 0.0 0.0
0.0 0.0 0.0 0.0 0.0 0.0 0.0 0.0
00000000: 0000 0000 0000 0000 0000 0000 0000 0000
00000010: 0000 0000 0000 0000 0000 0000 0000 0000
00000020: 0000 0000 0000 0000 0000 0000 0000 0000
00000030: 0000 0000 0000 0000 0000 0000 0000 0000
00000040: 0000 0000 0000 0000 0000 0000 0000 0000
00000050: 0000 0000 0000 0000 0000 0000 0000 0000
00000060: 0000 0000 0000 0000 0000 0000 0000 0000
00000070: 0000 0000 0000 0000 0000 0000 0000 0000
00000080: 0000 0000 0000 0000 0000 0000 0000 0000
00000090: 0000 0000 0000 0000 0000 0000 0000 0000
000000a0: 0000 0000 0000 0000 0000 0000 0000 0000
000000b0: 0000 0000 0000 0000 0000 0000 0000 0000
000000c0: 0000 0000 0000 0000 0000 0000 0000 0000
000000d0: 0000 0000 0000 0000 0000 0000 0000 0000
000000e0: 0000 0000 0000 0000 0000 0000 0000 0000
000000f0: 0000 0000 0000 0000 0000 0000 0000 0000
00000100: 0000 0000 0000 0000 0000 0000 0000 0000
00000110: 0000 0000 0000 0000 0000 0000 0000 0000
00000120: 0000 0000 0000 0000 0000 0000 0000 0000
00000130: 0000 0000 0000 0000 0000 0000 0000 0000
00000140: 0000 0000 0000 0000 0000 0000 0000 0000
00000150: 0000 0000 0000 0000 0000 0000 0000 0000
00000160: 0000 0000 0000 0000 0000 0000 0000 0000
00000170: 0000 0000 0000 0000 0000 0000 0000 0000
00000180: 0000 0000 0000 0000 0000 0000 0000 0000
00000190: 0000 0000 0000 0000 0000 0000 0000 0000
000001a0: 0000 0000 0000 0000 0000 0000 0000 0000
000001b0: 0000 0000 0000 0000 0000 0000 0000 0000
000001c0: 0000 0000 0000 0000 0000 0000 0000 0000
000001d0: 0000 0000 0000 0000 0000 0000 0000 0000
000001e0: 0000 0000 0000 0000 0000 0000 0000 0000
000001f0: 0000 0000 0000 0000 0000 0000 0000 0000
00000200: 0000 0000 0000 0000 0000 0000 0000 0000
00000210: 0000 0000 0000 0000 0000 0000 0000 0000
00000220: 0000 0000 0000 0000 0000 0000 0000 0000
00000230: 0000 0000 0000 0000 0000 0000 0000 0000
00000240: 0000 0000 0000 0000 0000 0000 0000 0000
00000250: 0000 0000 0000 0000 0000 0000 0000 0000
00000260: 0000 0000 0000 0000 0000 0000 0000 0000
00000270: 0000 0000 0000 0000 0000 0000 0000 0000
00000280: 0000 0000 0000 0000 0000 0000 0000 0000
00000290: 0000 0000 0000 0000 0000 0000 0000 0000
000002a0: 0000 0000 0000 0000 0000 0000 0000 0000
000002b0: 0000 0000 0000 0000 0000 0000 0000 0000
000002c0: 0000 0000 0000 0000 0000 0000 0000 0000
000002d0: 0000 0000 0000 0000 0000 0000 0000 0000
000002e0: 0000 0000 0000 0000 0000 0000 0000 0000
000002f0: 0000 0000 0000 0000 0000 0000 0000 0000
00000300: 0000 0000 0000 0000 0000 0000 0000 0000
00000310: 0000 0000 0000 0000 0000 0000 0000 0000
00000320: 0000 0000 0000 0000 0000 0000 0000 0000
00000330: 0000 0000 0000 0000 0000 0000 0000 0000
00000340: 0000 0000 0000 0000 0000 0000 0000 0000
00000350: 0000 0000 0000 0000 0000 0000 0000 0000
00000360: 0000 0000 0000 0000 0000 0000 0000 0000
00000370: 0000 0000 0000 0000 0000 0000 0000 0000
00000380: 0000 0000 0000 0000 0000 0000 0000 0000
00000390: 0000 0000 0000 0000 0000 0000 0000 0000
000003a0: 0000 0000 0000 0000 0000 0000 0000 0000
000003b0: 0000 0000 0000 0000 0000 0000 0000 0000
000003c0: 0000 0000 0000 0000 0000 0000 0000 0000
000003d0: 0000 0000 0000 0000 0000 0000 0000 0000
000003e0: 0000 0000 0000 0000 0000 0000 0000 0000
000003f0: 0000 0000 0000 0000 0000 0000 0000 0000

network_body.linear_encoder.seq_layers.0.weight f4 [256, 69]
-0.19846256 0.18204886 -0.21275169 -0.1132063 -0.049238175 0.12546669 -0.22591242 -0.02256838
-0.20038456 -0.31315857 0.07018485 0.15628657 -0.05768933 -0.19053115 -0.38243502 0.012930616
-0.19974147 0.05821496 0.03965409 -0.075783394 -0.29329354 0.015283154 -0.04853578 -0.021613905
-0.04639393 0.031571787 -0.1332536 0.09608037 0.077661656 -0.09087035 -0.1270803 -0.03246846
0.14784886 -0.032581866 0.035608932 0.002952234 -0.0054001804 0.000700579 -0.088790886 0.07467726
0.15693569 0.0752797 0.09496896 0.20378107 -0.10785345 0.18907201 0.0016872691 0.1459615
0.015823742 -0.31016067 -0.16017352 -0.005270362 -0.012364909 0.048873916 -0.102413364 -0.20539561
-0.11558344 -0.046405524 0.050415173 0.25096607 -0.00074498774 0.02350225 0.32468346 0.039854687
0.0871549 0.057030432 -0.19559605 0.13528055 -0.13298263 0.03632322 -0.01687113 -0.13102424
-0.038233012 -0.19614354 0.15286325 -0.040080704 0.26422998 -0.027090438 -0.12346578 0.007114722
0.023943288 -0.023978494 -0.20137005 0.2167579 0.08690664 0.06939142 0.027622173 -0.037863962
-0.113363236 0.044453833 -0.06433649 -0.011082162 -0.18374193 0.21061452 0.1659961 0.07713079
0.1268385 -0.05477246 0.14601061 0.14103459 -0.030183546 -0.14403468 -0.13967617 -0.15452859
-0.10609278 -0.04849435 -0.041542504 0.2551746 -0.0862216 -0.15317386 -0.05847802 -0.06605575
0.045317344 -0.037468385 -0.05617255 0.059193835 0.077533916 -0.20635341 -0.309286 0.13391864
0.08108526 0.018673327 0.004508865 0.05152957 0.078531764 0.18992208 -0.035079867 0.057525083
0.13842377 -0.022259234 -0.010299994 0.002313249 -0.06690848 0.2529486 -0.11715298 0.07026839
-0.087642014 -0.1745053 -0.08991786 0.1183188 -0.016325079 0.052861724 -0.023200715 0.07527352
0.018241888 0.1042878 0.23422267 0.15038848 -0.0022955763 0.032941036 -0.07940829 0.060420357
0.011931829 -0.12864594 -0.025976986 -0.05293498 -0.18662277 -0.023630349 0.053641442 -0.1385506
-0.034966644 -0.10626275 0.2791007 -0.01895898 -0.0018168022 0.02426606 -0.068748385 0.018923318
0.14709003 -0.08015515 0.0682496 -0.043628264 0.052234262 0.077474065 -0.13156328 -0.08283196
0.03151722 0.06263538 -0.029163355 0.005071658 0.040405832 -0.08812354 -0.1681921 0.059158236
0.11471061 -0.022760233 0.19297644 0.192131 0.0497137 0.063153215 0.2181165 0.006266925
0.037316382 -0.015397879 -0.07350293 -0.17612572 0.026528504 -0.0037932456 0.047368303 0.11215219
0.14450693 -0.07358699 0.03568223 -0.07478199 -0.025281824 0.15248734 0.07777482 0.05030969
0.037050188 -0.013692991 -0.08526934 0.17022474 0.0340254 0.03482755 0.052923873 0.28831053
0.07734 0.10452956 0.16143447 0.015373301 0.112446345 -0.16533506 -0.06494149 0.01950728
0.101339154 -0.10964121 -0.02553765 0.14080447 -0.029577026 -0.14565723 -0.010606089 0.043140177
-0.112532206 -0.019438896 0.06562693 0.13097358 -0.161613 0.18059656 0.091879465 0.10386718
-0.09813742 0.11620221 -0.016148532 -0.1457604 -0.22771174 0.10603863 -0.16012856 -0.07350183
-0.03303052 -0.10836309 -0.14609334 -0.14584672 -0.07795757 0.085357405 0.123113185 -0.20977174
00000000: c539 4bbe 046b 3a3e 94db 59be b4d8 e7bd
00000010: f8ad 49bd 577a 003e 9655 67be 53e1 b8bc
00000020: 9c31 4dbe 5256 a0be 13bd 8f3d 9609 203e
00000030: a64b 6cbd 991a 43be 86ce c3be efda 533c
00000040: 0789 4cbe cf72 6e3d 546c 223d 5334 9bbd
00000050: 922a 96be 3266 7a3c 74cd 46bd a50f b1bc
00000060: 9007 3ebd 6b51 013d a273 08be c9c5 c43d
00000070: 130d 9f3d 3c1a babd 5721 02be a6fd 04bd
00000080: b165 173e 9074 05bd acda 113d 447a 413b
00000090: fff3 b0bb 10a7 373a ffd7 b5bd 64f0 983d
000000a0: c0b3 203e 3e2c 9a3d 167f c23d fcab 503e
000000b0: 45e2 dcbd 189c 413e 5b27 dd3a ee76 153e
000000c0: cba0 813c 61cd 9ebe 8704 24be 00b3 acbb
000000d0: 3096 4abc 0430 483d 19be d1bd 3a53 52be
000000e0: 03b7 ecbd b813 3ebd 2480 4e3d a07e 803e
000000f0: 484b 43ba ca87 c03c e93c a63e ab3e 233d
00000100: 457e b23d be98 693d 554a 48be fc86 0a3e
00000110: 992c 08be a8c7 143d 5335 8abc 382b 06be
00000120: 389a 1cbd dad9 48be 2f88 1c3e aa2b 24bd
00000130: 2749 873e c4ec ddbc a0db fcbd 9d22 e93b
00000140: b724 c43c 8c6e c4bc f333 4ebe c8f5 5d3e
00000150: 1cfc b13d 171d 8e3d e547 e23c 3e17 1bbd
00000160: fc2a e8bd 3915 363d dac2 83bd f591 35bc
00000170: d826 3cbe 55ab 573e e2fa 293e bff6 9d3d
00000180: f4e1 013e 1659 60bd ce83 153e 5f6b 103e
00000190: 7c43 f7bc d47d 13be 4507 0fbe be3c 1ebe
000001a0: 2c47 d9bd 03a2 46bd 7928 2abd 3fa6 823e
000001b0: f394 b0bd 9cd9 1cbe a686 6fbd 3d48 87bd
000001c0: ae9e 393d 7378 19bd 3015 66bd 3c75 723d
000001d0: 1aca 9e3d 4f4e 53be bc5a 9ebe f821 093e
000001e0: 0710 a63d cef8 983c 1abf 933b ac10 533d
000001f0: 43d5 a03d ef7a 423e e8af 0fbd 6c9f 6b3d
00000200: f6be 0d3e ff58 b6bc 4ec1 28bc e199 173b
00000210: 5007 89bd 7b82 813e e7ed efbd e0e8 8f3d
00000220: a87d b3bd 84b1 32be db26 b8bd 2151 f23d
00000230: 2cbc 85bc 8985 583d 6d0f bebc 0129 9a3d
00000240: 0370 953c d894 d53d 11d8 6f3e 70ff 193e
00000250: 6171 16bb 2eed 063d d0a0 a2bd 567b 773d
00000260: b87d 433c c3bb 03be b0cd d4bc 59d2 58bd
00000270: 0a1a 3fbe 6f94 c1bc 21b7 5b3d 35e0 0dbe
00000280: 2f39 0fbd 49a0 d9bd 49e6 8e3e dd4f 9bbc
00000290: c421 eeba 9ec9 c63c f4cb 8cbd 1305 9b3c
000002a0: c59e 163e 6228 a4bd 72c6 8b3d 8db3 32bd
000002b0: 98f3 553d b9aa 9e3d 86b8 06be cda3 a9bd
000002c0: 3318 013d fa46 803d fde7 eebc 2730 a63b
000002d0: 9680 253d 1d7a b4bd 8d3a 2cbe e84f 723d
000002e0: 65ed ea3d ab73 babc 9e9b 453e fdbd 443e
000002f0: 98a0 4b3d 7956 813d ef59 5f3e c75a cd3b
00000300: 10d9 183d 6347 7cbc b488 96bd 4d5a 34be
00000310: 4e52 d93c 1a98 78bb 4405 423d 0cb0 e53d
00000320: a0f9 133e c7b4 96bd 8827 123d 4d27 99bd
00000330: d41b cfbc a425 1c3e 6848 9f3d 8911 4e3d
00000340: f0c1 173d 9158 60bc b1a1 aebd 654f 2e3e
00000350: 385e 0b3d 55a7 0e3d b4c6 583d 709d 933e
00000360: 6f64 9e3d 9813 d63d 144f 253e 4ce0 7b3c
00000370: 454a e63d 984d 29be 0b00 85bd bbcd 9f3c
00000380: e78a cf3d 928b e0bd 5534 d1bc 0c2f 103e
00000390: 854b f2bc 2b27 15be 29c5 2dbc c1b3 303d
000003a0: 4977 e6bd 523e 9fbc 6967 863d f01d 063e
000003b0: e17d 25be 4eee 383e 4d2b bc3d 51b8 d43d
000003c0: 46fc c8bd 6dfb ed3d ed49 84bc 3742 15be
000003d0: 442d 69be c82a d93d bef8 23be 2188 96bd
000003e0: 034b 07bd 78ed ddbd 7e99 15be d858 15be
000003f0: 38a8 9fbd ddcf ae3d c422 fc3d 67ce 56be

network_body.linear_encoder.seq_layers.2.bias f4 [256]
0.0 0.0 0.0 0.0 0.0 0.0 0.0 0.0
0.0 0.0 0.0 0.0 0.0 0.0 0.0 0.0
0.0 0.0 0.0 0.0 0.0 0.0 0.0 0.0
0.0 0.0 0.0 0.0 0.0 0.0 0.0 0.0
0.0 0.0 0.0 0.0 0.0 0.0 0.0 0.0
0.0 0.0 0.0 0.0 0.0 0.0 0.0 0.0
0.0 0.0 0.0 0.0 0.0 0.0 0.0 0.0
0.0 0.0 0.0 0.0 0.0 0.0 0.0 0.0
0.0 0.0 0.0 0.0 0.0 0.0 0.0 0.0
0.0 0.0 0.0 0.0 0.0 0.0 0.0 0.0
0.0 0.0 0.0 0.0 0.0 0.0 0.0 0.0
0.0 0.0 0.0 0.0 0.0 0.0 0.0 0.0
0.0 0.0 0.0 0.0 0.0 0.0 0.0 0.0
0.0 0.0 0.0 0.0 0.0 0.0 0.0 0.0
0.0 0.0 0.0 0.0 0.0 0.0 0.0 0.0
0.0 0.0 0.0 0.0 0.0 0.0 0.0 0.0
0.0 0.0 0.0 0.0 0.0 0.0 0.0 0.0
0.0 0.0 0.0 0.0 0.0 0.0 0.0 0.0
0.0 0.0 0.0 0.0 0.0 0.0 0.0 0.0
0.0 0.0 0.0 0.0 0.0 0.0 0.0 0.0
0.0 0.0 0.0 0.0 0.0 0.0 0.0 0.0
0.0 0.0 0.0 0.0 0.0 0.0 0.0 0.0
0.0 0.0 0.0 0.0 0.0 0.0 0.0 0.0
0.0 0.0 0.0 0.0 0.0 0.0 0.0 0.0
0.0 0.0 0.0 0.0 0.0 0.0 0.0 0.0
0.0 0.0 0.0 0.0 0.0 0.0 0.0 0.0
0.0 0.0 0.0 0.0 0.0 0.0 0.0 0.0
0.0 0.0 0.0 0.0 0.0 0.0 0.0 0.0
0.0 0.0 0.0 0.0 0.0 0.0 0.0 0.0
0.0 0.0 0.0 0.0 0.0 0.0 0.0 0.0
0.0 0.0 0.0 0.0 0.0 0.0 0.0 0.0
0.0 0.0 0.0 0.0 0.0 0.0 0.0 0.0
00000000: 0000 0000 0000 0000 0000 0000 0000 0000
00000010: 0000 0000 0000 0000 0000 0000 0000 0000
00000020: 0000 0000 0000 0000 0000 0000 0000 0000
00000030: 0000 0000 0000 0000 0000 0000 0000 0000
00000040: 0000 0000 0000 0000 0000 0000 0000 0000
00000050: 0000 0000 0000 0000 0000 0000 0000 0000
00000060: 0000 0000 0000 0000 0000 0000 0000 0000
00000070: 0000 0000 0000 0000 0000 0000 0000 0000
00000080: 0000 0000 0000 0000 0000 0000 0000 0000
00000090: 0000 0000 0000 0000 0000 0000 0000 0000
000000a0: 0000 0000 0000 0000 0000 0000 0000 0000
000000b0: 0000 0000 0000 0000 0000 0000 0000 0000
000000c0: 0000 0000 0000 0000 0000 0000 0000 0000
000000d0: 0000 0000 0000 0000 0000 0000 0000 0000
000000e0: 0000 0000 0000 0000 0000 0000 0000 0000
000000f0: 0000 0000 0000 0000 0000 0000 0000 0000
00000100: 0000 0000 0000 0000 0000 0000 0000 0000
00000110: 0000 0000 0000 0000 0000 0000 0000 0000
00000120: 0000 0000 0000 0000 0000 0000 0000 0000
00000130: 0000 0000 0000 0000 0000 0000 0000 0000
00000140: 0000 0000 0000 0000 0000 0000 0000 0000
00000150: 0000 0000 0000 0000 0000 0000 0000 0000
00000160: 0000 0000 0000 0000 0000 0000 0000 0000
00000170: 0000 0000 0000 0000 0000 0000 0000 0000
00000180: 0000 0000 0000 0000 0000 0000 0000 0000
00000190: 0000 0000 0000 0000 0000 0000 0000 0000
000001a0: 0000 0000 0000 0000 0000 0000 0000 0000
000001b0: 0000 0000 0000 0000 0000 0000 0000 0000
000001c0: 0000 0000 0000 0000 0000 0000 0000 0000
000001d0: 0000 0000 0000 0000 0000 0000 0000 0000
000001e0: 0000 0000 0000 0000 0000 0000 0000 0000
000001f0: 0000 0000 0000 0000 0000 0000 0000 0000
00000200: 0000 0000 0000 0000 0000 0000 0000 0000
00000210: 0000 0000 0000 0000 0000 0000 0000 0000
00000220: 0000 0000 0000 0000 0000 0000 0000 0000
00000230: 0000 0000 0000 0000 0000 0000 0000 0000
00000240: 0000 0000 0000 0000 0000 0000 0000 0000
00000250: 0000 0000 0000 0000 0000 0000 0000 0000
00000260: 0000 0000 0000 0000 0000 0000 0000 0000
00000270: 0000 0000 0000 0000 0000 0000 0000 0000
00000280: 0000 0000 0000 0000 0000 0000 0000 0000
00000290: 0000 0000 0000 0000 0000 0000 0000 0000
000002a0: 0000 0000 0000 0000 0000 0000 0000 0000
000002b0: 0000 0000 0000 0000 0000 0000 0000 0000
000002c0: 0000 0000 0000 0000 0000 0000 0000 0000
000002d0: 0000 0000 0000 0000 0000 0000 0000 0000
000002e0: 0000 0000 0000 0000 0000 0000 0000 0000
000002f0: 0000 0000 0000 0000 0000 0000 0000 0000
00000300: 0000 0000 0000 0000 0000 0000 0000 0000
00000310: 0000 0000 0000 0000 0000 0000 0000 0000
00000320: 0000 0000 0000 0000 0000 0000 0000 0000
00000330: 0000 0000 0000 0000 0000 0000 0000 0000
00000340: 0000 0000 0000 0000 0000 0000 0000 0000
00000350: 0000 0000 0000 0000 0000 0000 0000 0000
00000360: 0000 0000 0000 0000 0000 0000 0000 0000
00000370: 0000 0000 0000 0000 0000 0000 0000 0000
00000380: 0000 0000 0000 0000 0000 0000 0000 0000
00000390: 0000 0000 0000 0000 0000 0000 0000 0000
000003a0: 0000 0000 0000 0000 0000 0000 0000 0000
000003b0: 0000 0000 0000 0000 0000 0000 0000 0000
000003c0: 0000 0000 0000 0000 0000 0000 0000 0000
000003d0: 0000 0000 0000 0000 0000 0000 0000 0000
000003e0: 0000 0000 0000 0000 0000 0000 0000 0000
000003f0: 0000 0000 0000 0000 0000 0000 0000 0000
