MLagents/results/hb_00/Mario/Mario-0.pt (torch, 696567 bytes, 23 tensors)

network_body.vector_processors.0.normalizer.running_mean f4 [69]
000000 00 00 00 00 00 00 00 00 00 00 00 00 00 00 00 00
       0.0 0.0 0.0 0.0
000010 00 00 00 00 00 00 00 00 00 00 00 00 00 00 00 00
       0.0 0.0 0.0 0.0
000020 00 00 00 00 00 00 00 00 00 00 00 00 00 00 00 00
       0.0 0.0 0.0 0.0
000030 00 00 00 00 00 00 00 00 00 00 00 00 00 00 00 00
       0.0 0.0 0.0 0.0
000040 00 00 00 00 00 00 00 00 00 00 00 00 00 00 00 00
       0.0 0.0 0.0 0.0
000050 00 00 00 00 00 00 00 00 00 00 00 00 00 00 00 00
       0.0 0.0 0.0 0.0
000060 00 00 00 00 00 00 00 00 00 00 00 00 00 00 00 00
       0.0 0.0 0.0 0.0
000070 00 00 00 00 00 00 00 00 00 00 00 00 00 00 00 00
       0.0 0.0 0.0 0.0
000080 00 00 00 00 00 00 00 00 00 00 00 00 00 00 00 00
       0.0 0.0 0.0 0.0
000090 00 00 00 00 00 00 00 00 00 00 00 00 00 00 00 00
       0.0 0.0 0.0 0.0
0000a0 00 00 00 00 00 00 00 00 00 00 00 00 00 00 00 00
       0.0 0.0 0.0 0.0
0000b0 00 00 00 00 00 00 00 00 00 00 00 00 00 00 00 00
       0.0 0.0 0.0 0.0
0000c0 00 00 00 00 00 00 00 00 00 00 00 00 00 00 00 00
       0.0 0.0 0.0 0.0
0000d0 00 00 00 00 00 00 00 00 00 00 00 00 00 00 00 00
       0.0 0.0 0.0 0.0
0000e0 00 00 00 00 00 00 00 00 00 00 00 00 00 00 00 00
       0.0 0.0 0.0 0.0
0000f0 00 00 00 00 00 00 00 00 00 00 00 00 00 00 00 00
       0.0 0.0 0.0 0.0
000100 00 00 00 00 00 00 00 00 00 00 00 00 00 00 00 00
       0.0 0.0 0.0 0.0
000110 00 00 00 00
       0.0

network_body.vector_processors.0.normalizer.running_variance f4 [69]
000000 00 00 80 3f 00 00 80 3f 00 00 80 3f 00 00 80 3f
       1.0 1.0 1.0 1.0
000010 00 00 80 3f 00 00 80 3f 00 00 80 3f 00 00 80 3f
       1.0 1.0 1.0 1.0
000020 00 00 80 3f 00 00 80 3f 00 00 80 3f 00 00 80 3f
       1.0 1.0 1.0 1.0
000030 00 00 80 3f 00 00 80 3f 00 00 80 3f 00 00 80 3f
       1.0 1.0 1.0 1.0
000040 00 00 80 3f 00 00 80 3f 00 00 80 3f 00 00 80 3f
       1.0 1.0 1.0 1.0
000050 00 00 80 3f 00 00 80 3f 00 00 80 3f 00 00 80 3f
       1.0 1.0 1.0 1.0
000060 00 00 80 3f 00 00 80 3f 00 00 80 3f 00 00 80 3f
       1.0 1.0 1.0 1.0
000070 00 00 80 3f 00 00 80 3f 00 00 80 3f 00 00 80 3f
       1.0 1.0 1.0 1.0
000080 00 00 80 3f 00 00 80 3f 00 00 80 3f 00 00 80 3f
       1.0 1.0 1.0 1.0
000090 00 00 80 3f 00 00 80 3f 00 00 80 3f 00 00 80 3f
       1.0 1.0 1.0 1.0
0000a0 00 00 80 3f 00 00 80 3f 00 00 80 3f 00 00 80 3f
       1.0 1.0 1.0 1.0
0000b0 00 00 80 3f 00 00 80 3f 00 00 80 3f 00 00 80 3f
       1.0 1.0 1.0 1.0
0000c0 00 00 80 3f 00 00 80 3f 00 00 80 3f 00 00 80 3f
       1.0 1.0 1.0 1.0
0000d0 00 00 80 3f 00 00 80 3f 00 00 80 3f 00 00 80 3f
       1.0 1.0 1.0 1.0
0000e0 00 00 80 3f 00 00 80 3f 00 00 80 3f 00 00 80 3f
       1.0 1.0 1.0 1.0
0000f0 00 00 80 3f 00 00 80 3f 00 00 80 3f 00 00 80 3f
       1.0 1.0 1.0 1.0
000100 00 00 80 3f 00 00 80 3f 00 00 80 3f 00 00 80 3f
       1.0 1.0 1.0 1.0
000110 00 00 80 3f
       1.0

network_body.linear_encoder.seq_layers.0.weight f4 [256, 69]
000000 c5 39 4b be 04 6b 3a 3e 94 db 59 be b4 d8 e7 bd
       -0.19846256 0.18204886 -0.21275169 -0.1132063
000010 f8 ad 49 bd 57 7a 00 3e 96 55 67 be 53 e1 b8 bc
       -0.049238175 0.12546669 -0.22591242 -0.02256838
000020 9c 31 4d be 52 56 a0 be 13 bd 8f 3d 96 09 20 3e
       -0.20038456 -0.31315857 0.07018485 0.15628657
000030 a6 4b 6c bd 99 1a 43 be 86 ce c3 be ef da 53 3c
       -0.05768933 -0.19053115 -0.38243502 0.012930616
000040 07 89 4c be cf 72 6e 3d 54 6c 22 3d 53 34 9b bd
       -0.19974147 0.05821496 0.03965409 -0.075783394
000050 92 2a 96 be 32 66 7a 3c 74 cd 46 bd a5 0f b1 bc
       -0.29329354 0.015283154 -0.04853578 -0.021613905
000060 90 07 3e bd 6b 51 01 3d a2 73 08 be c9 c5 c4 3d
       -0.04639393 0.031571787 -0.1332536 0.09608037
000070 13 0d 9f 3d 3c 1a ba bd 57 21 02 be a6 fd 04 bd
       0.077661656 -0.09087035 -0.1270803 -0.03246846
000080 b1 65 17 3e 90 74 05 bd ac da 11 3d 44 7a 41 3b
       0.14784886 -0.032581866 0.035608932 0.002952234
000090 ff f3 b0 bb 10 a7 37 3a ff d7 b5 bd 64 f0 98 3d
       -0.0054001804 0.000700579 -0.088790886 0.07467726
0000a0 c0 b3 20 3e 3e 2c 9a 3d 16 7f c2 3d fc ab 50 3e
       0.15693569 0.0752797 0.09496896 0.20378107
0000b0 45 e2 dc bd 18 9c 41 3e 5b 27 dd 3a ee 76 15 3e
       -0.10785345 0.18907201 0.0016872691 0.1459615
0000c0 cb a0 81 3c 61 cd 9e be 87 04 24 be 00 b3 ac bb
       0.015823742 -0.31016067 -0.16017352 -0.005270362
0000d0 30 96 4a bc 04 30 48 3d 19 be d1 bd 3a 53 52 be
       -0.012364909 0.048873916 -0.102413364 -0.20539561
0000e0 03 b7 ec bd b8 13 3e bd 24 80 4e 3d a0 7e 80 3e
       -0.11558344 -0.046405524 0.050415173 0.25096607
0000f0 48 4b 43 ba ca 87 c0 3c e9 3c a6 3e ab 3e 23 3d
       -0.00074498774 0.02350225 0.32468346 0.039854687
000100 45 7e b2 3d be 98 69 3d 55 4a 48 be fc 86 0a 3e
       0.0871549 0.057030432 -0.19559605 0.13528055
000110 99 2c 08 be a8 c7 14 3d 53 35 8a bc 38 2b 06 be
       -0.13298263 0.03632322 -0.01687113 -0.13102424
000120 38 9a 1c bd da d9 48 be 2f 88 1c 3e aa 2b 24 bd
       -0.038233012 -0.19614354 0.15286325 -0.040080704
000130 27 49 87 3e c4 ec dd bc a0 db fc bd 9d 22 e9 3b
       0.26422998 -0.027090438 -0.12346578 0.007114722
000140 b7 24 c4 3c 8c 6e c4 bc f3 33 4e be c8 f5 5d 3e
       0.023943288 -0.023978494 -0.20137005 0.2167579
000150 1c fc b1 3d 17 1d 8e 3d e5 47 e2 3c 3e 17 1b bd
       0.08690664 0.06939142 0.027622173 -0.037863962
000160 fc 2a e8 bd 39 15 36 3d da c2 83 bd f5 91 35 bc
       -0.113363236 0.044453833 -0.06433649 -0.011082162
000170 d8 26 3c be 55 ab 57 3e e2 fa 29 3e bf f6 9d 3d
       -0.18374193 0.21061452 0.1659961 0.07713079
000180 f4 e1 01 3e 16 59 60 bd ce 83 15 3e 5f 6b 10 3e
       0.1268385 -0.05477246 0.14601061 0.14103459
000190 7c 43 f7 bc d4 7d 13 be 45 07 0f be be 3c 1e be
       -0.030183546 -0.14403468 -0.13967617 -0.15452859
0001a0 2c 47 d9 bd 03 a2 46 bd 79 28 2a bd 3f a6 82 3e
       -0.10609278 -0.04849435 -0.041542504 0.2551746
0001b0 f3 94 b0 bd 9c d9 1c be a6 86 6f bd 3d 48 87 bd
       -0.0862216 -0.15317386 -0.05847802 -0.06605575
0001c0 ae 9e 39 3d 73 78 19 bd 30 15 66 bd 3c 75 72 3d
       0.045317344 -0.037468385 -0.05617255 0.059193835
0001d0 1a ca 9e 3d 4f 4e 53 be bc 5a 9e be f8 21 09 3e
       0.077533916 -0.20635341 -0.309286 0.13391864
0001e0 07 10 a6 3d ce f8 98 3c 1a bf 93 3b ac 10 53 3d
       0.08108526 0.018673327 0.004508865 0.05152957
0001f0 43 d5 a0 3d ef 7a 42 3e e8 af 0f bd 6c 9f 6b 3d
       0.078531764 0.18992208 -0.035079867 0.057525083
000200 f6 be 0d 3e ff 58 b6 bc 4e c1 28 bc e1 99 17 3b
       0.13842377 -0.022259234 -0.010299994 0.002313249
000210 50 07 89 bd 7b 82 81 3e e7 ed ef bd e0 e8 8f 3d
       -0.06690848 0.2529486 -0.11715298 0.07026839
000220 a8 7d b3 bd 84 b1 32 be db 26 b8 bd 21 51 f2 3d
       -0.087642014 -0.1745053 -0.08991786 0.1183188
000230 2c bc 85 bc 89 85 58 3d 6d 0f be bc 01 29 9a 3d
       -0.016325079 0.052861724 -0.023200715 0.07527352
000240 03 70 95 3c d8 94 d5 3d 11 d8 6f 3e 70 ff 19 3e
       0.018241888 0.1042878 0.23422267 0.15038848
000250 61 71 16 bb 2e ed 06 3d d0 a0 a2 bd 56 7b 77 3d
       -0.0022955763 0.032941036 -0.07940829 0.060420357
000260 b8 7d 43 3c c3 bb 03 be b0 cd d4 bc 59 d2 58 bd
       0.011931829 -0.12864594 -0.025976986 -0.05293498
000270 0a 1a 3f be 6f 94 c1 bc 21 b7 5b 3d 35 e0 0d be
       -0.18662277 -0.023630349 0.053641442 -0.1385506
000280 2f 39 0f bd 49 a0 d9 bd 49 e6 8e 3e dd 4f 9b bc
       -0.034966644 -0.10626275 0.2791007 -0.01895898
000290 c4 21 ee ba 9e c9 c6 3c f4 cb 8c bd 13 05 9b 3c
       -0.0018168022 0.02426606 -0.068748385 0.018923318
0002a0 c5 9e 16 3e 62 28 a4 bd 72 c6 8b 3d 8d b3 32 bd
       0.14709003 -0.08015515 0.0682496 -0.043628264
0002b0 98 f3 55 3d b9 aa 9e 3d 86 b8 06 be cd a3 a9 bd
       0.052234262 0.077474065 -0.13156328 -0.08283196
0002c0 33 18 01 3d fa 46 80 3d fd e7 ee bc 27 30 a6 3b
       0.03151722 0.06263538 -0.029163355 0.005071658
0002d0 96 80 25 3d 1d 7a b4 bd 8d 3a 2c be e8 4f 72 3d
       0.040405832 -0.08812354 -0.1681921 0.059158236
0002e0 65 ed ea 3d ab 73 ba bc 9e 9b 45 3e fd bd 44 3e
       0.11471061 -0.022760233 0.19297644 0.192131
0002f0 98 a0 4b 3d 79 56 81 3d ef 59 5f 3e c7 5a cd 3b
       0.0497137 0.063153215 0.2181165 0.006266925
000300 10 d9 18 3d 63 47 7c bc b4 88 96 bd 4d 5a 34 be
       0.037316382 -0.015397879 -0.07350293 -0.17612572
000310 4e 52 d9 3c 1a 98 78 bb 44 05 42 3d 0c b0 e5 3d
       0.026528504 -0.0037932456 0.047368303 0.11215219
000320 a0 f9 13 3e c7 b4 96 bd 88 27 12 3d 4d 27 99 bd
       0.14450693 -0.07358699 0.03568223 -0.07478199
000330 d4 1b cf bc a4 25 1c 3e 68 48 9f 3d 89 11 4e 3d
       -0.025281824 0.15248734 0.07777482 0.05030969
000340 f0 c1 17 3d 91 58 60 bc b1 a1 ae bd 65 4f 2e 3e
       0.037050188 -0.013692991 -0.08526934 0.17022474
000350 38 5e 0b 3d 55 a7 0e 3d b4 c6 58 3d 70 9d 93 3e
       0.0340254 0.03482755 0.052923873 0.28831053
000360 6f 64 9e 3d 98 13 d6 3d 14 4f 25 3e 4c e0 7b 3c
       0.07734 0.10452956 0.16143447 0.015373301
000370 45 4a e6 3d 98 4d 29 be 0b 00 85 bd bb cd 9f 3c
       0.112446345 -0.16533506 -0.06494149 0.01950728
000380 e7 8a cf 3d 92 8b e0 bd 55 34 d1 bc 0c 2f 10 3e
       0.101339154 -0.10964121 -0.02553765 0.14080447
000390 85 4b f2 bc 2b 27 15 be 29 c5 2d bc c1 b3 30 3d
       -0.029577026 -0.14565723 -0.010606089 0.043140177
0003a0 49 77 e6 bd 52 3e 9f bc 69 67 86 3d f0 1d 06 3e
       -0.112532206 -0.019438896 0.06562693 0.13097358
0003b0 e1 7d 25 be 4e ee 38 3e 4d 2b bc 3d 51 b8 d4 3d
       -0.161613 0.18059656 0.091879465 0.10386718
0003c0 46 fc c8 bd 6d fb ed 3d ed 49 84 bc 37 42 15 be
       -0.09813742 0.11620221 -0.016148532 -0.1457604
0003d0 44 2d 69 be c8 2a d9 3d be f8 23 be 21 88 96 bd
       -0.22771174 0.10603863 -0.16012856 -0.07350183
0003e0 03 4b 07 bd 78 ed dd bd 7e 99 15 be d8 58 15 be
       -0.03303052 -0.10836309 -0.14609334 -0.14584672
0003f0 38 a8 9f bd dd cf ae 3d c4 22 fc 3d 67 ce 56 be
       -0.07795757 0.085357405 0.123113185 -0.20977174

network_body.linear_encoder.seq_layers.0.bias f4 [256]
000000 00 00 00 00 00 00 00 00 00 00 00 00 00 00 00 00
       0.0 0.0 0.0 0.0
000010 00 00 00 00 00 00 00 00 00 00 00 00 00 00 00 00
       0.0 0.0 0.0 0.0
000020 00 00 00 00 00 00 00 00 00 00 00 00 00 00 00 00
       0.0 0.0 0.0 0.0
000030 00 00 00 00 00 00 00 00 00 00 00 00 00 00 00 00
       0.0 0.0 0.0 0.0
000040 00 00 00 00 00 00 00 00 00 00 00 00 00 00 00 00
       0.0 0.0 0.0 0.0
000050 00 00 00 00 00 00 00 00 00 00 00 00 00 00 00 00
       0.0 0.0 0.0 0.0
000060 00 00 00 00 00 00 00 00 00 00 00 00 00 00 00 00
       0.0 0.0 0.0 0.0
000070 00 00 00 00 00 00 00 00 00 00 00 00 00 00 00 00
       0.0 0.0 0.0 0.0
000080 00 00 00 00 00 00 00 00 00 00 00 00 00 00 00 00
       0.0 0.0 0.0 0.0
000090 00 00 00 00 00 00 00 00 00 00 00 00 00 00 00 00
       0.0 0.0 0.0 0.0
0000a0 00 00 00 00 00 00 00 00 00 00 00 00 00 00 00 00
       0.0 0.0 0.0 0.0
0000b0 00 00 00 00 00 00 00 00 00 00 00 00 00 00 00 00
       0.0 0.0 0.0 0.0
0000c0 00 00 00 00 00 00 00 00 00 00 00 00 00 00 00 00
       0.0 0.0 0.0 0.0
0000d0 00 00 00 00 00 00 00 00 00 00 00 00 00 00 00 00
       0.0 0.0 0.0 0.0
0000e0 00 00 00 00 00 00 00 00 00 00 00 00 00 00 00 00
       0.0 0.0 0.0 0.0
0000f0 00 00 00 00 00 00 00 00 00 00 00 00 00 00 00 00
       0.0 0.0 0.0 0.0
000100 00 00 00 00 00 00 00 00 00 00 00 00 00 00 00 00
       0.0 0.0 0.0 0.0
000110 00 00 00 00 00 00 00 00 00 00 00 00 00 00 00 00
       0.0 0.0 0.0 0.0
000120 00 00 00 00 00 00 00 00 00 00 00 00 00 00 00 00
       0.0 0.0 0.0 0.0
000130 00 00 00 00 00 00 00 00 00 00 00 00 00 00 00 00
       0.0 0.0 0.0 0.0
000140 00 00 00 00 00 00 00 00 00 00 00 00 00 00 00 00
       0.0 0.0 0.0 0.0
000150 00 00 00 00 00 00 00 00 00 00 00 00 00 00 00 00
       0.0 0.0 0.0 0.0
000160 00 00 00 00 00 00 00 00 00 00 00 00 00 00 00 00
       0.0 0.0 0.0 0.0
000170 00 00 00 00 00 00 00 00 00 00 00 00 00 00 00 00
       0.0 0.0 0.0 0.0
000180 00 00 00 00 00 00 00 00 00 00 00 00 00 00 00 00
       0.0 0.0 0.0 0.0
000190 00 00 00 00 00 00 00 00 00 00 00 00 00 00 00 00
       0.0 0.0 0.0 0.0
0001a0 00 00 00 00 00 00 00 00 00 00 00 00 00 00 00 00
       0.0 0.0 0.0 0.0
0001b0 00 00 00 00 00 00 00 00 00 00 00 00 00 00 00 00
       0.0 0.0 0.0 0.0
0001c0 00 00 00 00 00 00 00 00 00 00 00 00 00 00 00 00
       0.0 0.0 0.0 0.0
0001d0 00 00 00 00 00 00 00 00 00 00 00 00 00 00 00 00
       0.0 0.0 0.0 0.0
0001e0 00 00 00 00 00 00 00 00 00 00 00 00 00 00 00 00
       0.0 0.0 0.0 0.0
0001f0 00 00 00 00 00 00 00 00 00 00 00 00 00 00 00 00
       0.0 0.0 0.0 0.0
000200 00 00 00 00 00 00 00 00 00 00 00 00 00 00 00 00
       0.0 0.0 0.0 0.0
000210 00 00 00 00 00 00 00 00 00 00 00 00 00 00 00 00
       0.0 0.0 0.0 0.0
000220 00 00 00 00 00 00 00 00 00 00 00 00 00 00 00 00
       0.0 0.0 0.0 0.0
000230 00 00 00 00 00 00 00 00 00 00 00 00 00 00 00 00
       0.0 0.0 0.0 0.0
000240 00 00 00 00 00 00 00 00 00 00 00 00 00 00 00 00
       0.0 0.0 0.0 0.0
000250 00 00 00 00 00 00 00 00 00 00 00 00 00 00 00 00
       0.0 0.0 0.0 0.0
000260 00 00 00 00 00 00 00 00 00 00 00 00 00 00 00 00
       0.0 0.0 0.0 0.0
000270 00 00 00 00 00 00 00 00 00 00 00 00 00 00 00 00
       0.0 0.0 0.0 0.0
000280 00 00 00 00 00 00 00 00 00 00 00 00 00 00 00 00
       0.0 0.0 0.0 0.0
000290 00 00 00 00 00 00 00 00 00 00 00 00 00 00 00 00
       0.0 0.0 0.0 0.0
0002a0 00 00 00 00 00 00 00 00 00 00 00 00 00 00 00 00
       0.0 0.0 0.0 0.0
0002b0 00 00 00 00 00 00 00 00 00 00 00 00 00 00 00 00
       0.0 0.0 0.0 0.0
0002c0 00 00 00 00 00 00 00 00 00 00 00 00 00 00 00 00
       0.0 0.0 0.0 0.0
0002d0 00 00 00 00 00 00 00 00 00 00 00 00 00 00 00 00
       0.0 0.0 0.0 0.0
0002e0 00 00 00 00 00 00 00 00 00 00 00 00 00 00 00 00
       0.0 0.0 0.0 0.0
0002f0 00 00 00 00 00 00 00 00 00 00 00 00 00 00 00 00
       0.0 0.0 0.0 0.0
000300 00 00 00 00 00 00 00 00 00 00 00 00 00 00 00 00
       0.0 0.0 0.0 0.0
000310 00 00 00 00 00 00 00 00 00 00 00 00 00 00 00 00
       0.0 0.0 0.0 0.0
000320 00 00 00 00 00 00 00 00 00 00 00 00 00 00 00 00
       0.0 0.0 0.0 0.0
000330 00 00 00 00 00 00 00 00 00 00 00 00 00 00 00 00
       0.0 0.0 0.0 0.0
000340 00 00 00 00 00 00 00 00 00 00 00 00 00 00 00 00
       0.0 0.0 0.0 0.0
000350 00 00 00 00 00 00 00 00 00 00 00 00 00 00 00 00
       0.0 0.0 0.0 0.0
000360 00 00 00 00 00 00 00 00 00 00 00 00 00 00 00 00
       0.0 0.0 0.0 0.0
000370 00 00 00 00 00 00 00 00 00 00 00 00 00 00 00 00
       0.0 0.0 0.0 0.0
000380 00 00 00 00 00 00 00 00 00 00 00 00 00 00 00 00
       0.0 0.0 0.0 0.0
000390 00 00 00 00 00 00 00 00 00 00 00 00 00 00 00 00
       0.0 0.0 0.0 0.0
0003a0 00 00 00 00 00 00 00 00 00 00 00 00 00 00 00 00
       0.0 0.0 0.0 0.0
0003b0 00 00 00 00 00 00 00 00 00 00 00 00 00 00 00 00
       0.0 0.0 0.0 0.0
0003c0 00 00 00 00 00 00 00 00 00 00 00 00 00 00 00 00
       0.0 0.0 0.0 0.0
0003d0 00 00 00 00 00 00 00 00 00 00 00 00 00 00 00 00
       0.0 0.0 0.0 0.0
0003e0 00 00 00 00 00 00 00 00 00 00 00 00 00 00 00 00
       0.0 0.0 0.0 0.0
0003f0 00 00 00 00 00 00 00 00 00 00 00 00 00 00 00 00
       0.0 0.0 0.0 0.0

network_body.linear_encoder.seq_layers.2.weight f4 [256, 256]
000000 45 ea 57 3d 9e 78 ee 3d 9b 45 94 3d ad ae fa bc
       0.05271365 0.116441 0.07239839 -0.03060087
000010 cb 22 50 3d c9 df 1a be 28 07 26 3e f4 f0 81 3d
       0.05081443 -0.1512443 0.16213667 0.06344786
000020 68 ea ef bc 7d ce 7b bd 8b 3b 30 3c f7 01 54 bb
       -0.029286578 -0.06147622 0.010756384 -0.0032349804
000030 fc 2e 68 bd ed 66 c7 3d bb 44 86 3c 85 ce fc 3c
       -0.056685433 0.097364284 0.016390195 0.030860195
000040 bf 8b 8d bd 3b 22 2b bd 9c 0b 0e 3e 3f a0 d8 bc
       -0.0691142 -0.04178069 0.13871616 -0.026443599
000050 40 df 38 3d f2 73 13 bd ac 54 87 3d 24 6c a7 3c
       0.045134783 -0.035999246 0.06607947 0.020437308
000060 ca a6 a6 bc d3 bb d0 bd d3 46 e5 3d d1 85 31 3c
       -0.020343203 -0.101920746 0.11195149 0.010835127
000070 5a 5e 96 bd b2 29 89 bd 58 ee 15 3d bc fb b3 bc
       -0.07342215 -0.06697406 0.036604255 -0.021970622
000080 f7 3a 86 bd df a3 fb bd 86 1a 80 3d ea 1e e3 bc
       -0.065542154 -0.12287115 0.06255059 -0.027724702
000090 5c 4c 63 bd 0b 99 41 3d 5c c1 4d bd 4c 10 cf ba
       -0.055492744 0.047265094 -0.05023323 -0.0015797704
0000a0 7d a5 97 3d 46 25 9c bc b6 cf c5 3d d6 6b 51 3d
       0.07404611 -0.019060742 0.09658758 0.05112823
0000b0 af 6f cd 3c 88 f4 4c bd 6e fb 8c 3c f3 0f 23 3d
       0.025077669 -0.05003789 0.017209735 0.039810132
0000c0 7d d9 5b bd 65 45 75 bc af 2f a6 bc a7 1d 33 3b
       -0.05367421 -0.014970158 -0.02028641 0.0027330907
0000d0 61 59 b9 bc fc 32 a3 bd ca ac 5f bd 0a 2b ae bd
       -0.022625627 -0.07968709 -0.054608144 -0.08504303
0000e0 52 5f 3a ba 4c d1 00 bd 4c cf 5c bd 8a bf 82 39
       -0.0007109541 -0.0314496 -0.05390863 0.0002493824
0000f0 fe ad 6a bd 3d 61 dc bc 16 d2 90 bb 96 61 73 bc
       -0.057294838 -0.026901836 -0.0044195754 -0.014854809
000100 c0 c1 82 3d b0 56 c5 3d e4 14 a8 3d 71 03 e3 3d
       0.06384611 0.09635675 0.082071096 0.11084641
000110 12 40 d8 3d fc 68 6e 3d 5b 18 23 bd 13 67 bd 3d
       0.105590954 0.05820559 -0.03981815 0.092481755
000120 c0 0d c1 bd 96 c4 5c bd aa 21 f1 bc 2f cf 2b 3d
       -0.09426451 -0.053898416 -0.029434998 0.041945633
000130 cf b1 16 3d a7 ac d2 bc 69 c7 cc 3d c0 8b 70 bb
       0.036790665 -0.025717093 0.09998972 -0.0036704391
000140 91 4d 39 3e d4 de 29 3d ce a0 eb 3d 2d 8a cd bc
       0.18095995 0.04147227 0.115052804 -0.025090301
000150 7a 5f c6 bc a8 98 87 3d c4 c5 53 3d 01 84 26 3d
       -0.024215449 0.06620914 0.051702276 0.040653232
000160 a4 52 cb 3d 82 60 6d 3d 3a 0c 0e bc 37 f3 12 3d
       0.09927872 0.057953365 -0.008669907 0.03587648
000170 56 6e 0a 3d 79 d9 e7 bd a0 30 57 bd cd d8 7f 3d
       0.03379663 -0.113207765 -0.052536607 0.062462617
000180 48 cf 88 bb 28 b1 24 3d ae f4 99 3b d2 e4 25 bd
       -0.0041751005 0.040208012 0.0046983575 -0.040501423
000190 68 27 ce bd d7 13 01 3d 5a d1 0b 3c 07 80 08 be
       -0.1006611 0.03151306 0.0085338 -0.13330089
0001a0 0a 3d 83 3d d7 91 a0 3d f8 11 18 3d 8d 64 ea 3c
       0.06408127 0.07840317 0.03712651 0.0286124
0001b0 02 cc 1d 3b c2 a7 14 3c ac 3c 61 bc 49 36 96 bc
       0.0024077897 0.0090732 -0.013747375 -0.018336432
0001c0 63 0a 1a bd a9 56 0e 3e 2a e0 d7 3d a2 b3 d6 3d
       -0.03760756 0.13900246 0.10540803 0.10483481
0001d0 f8 37 b1 3d 6a 87 d0 bd c6 80 8a bb 66 9c be 39
       0.08653253 -0.10182078 -0.004226777 0.0003635615
0001e0 a3 82 31 3d af aa 06 be 1b fd e1 3c 61 c5 1b bc
       0.043337476 -0.13151048 0.02758651 -0.009507508
0001f0 1a e1 53 3c b6 ec 06 3e 9d e9 e0 3c b7 3b 1b bb
       0.012932086 0.13176236 0.027455145 -0.0023686716
000200 f6 65 9b bd 1e 17 39 bd 2a 25 01 3b 2d 79 6f bd
       -0.07587807 -0.045188062 0.001970599 -0.05846517
000210 a3 c6 1b be 66 f6 98 3c bb 0a a3 3d a4 37 c8 bd
       -0.15212493 0.01867218 0.07961031 -0.097762376
000220 99 12 f8 3b 3f 3c 11 3e fa 5f 2e bd 7d 56 46 3b
       0.0075705764 0.14183138 -0.042572 0.0030263953
000230 c3 16 cd 3d 24 4d 4d 3c 3d b3 d8 bb 71 f4 e0 3c
       0.10014107 0.012530599 -0.0066131637 0.027460309
000240 b2 ab 86 3c 24 9b aa bd 89 ae 65 bd 18 48 c4 bd
       0.016439293 -0.08330372 -0.056074653 -0.09584063
000250 f1 0b 2c 3d f7 43 c6 3d 41 30 1f bb bf e3 cb ba
       0.042003576 0.09680932 -0.0024290236 -0.0015555545
000260 d1 8e c1 3c 5f 97 d1 bc 19 31 bb 3d 0a 73 b5 3d
       0.02362767 -0.025584875 0.09140224 0.088598326
000270 ab 16 69 3d ed 7b ac 3d 2b d1 ec 3d 70 9a 14 bd
       0.056906383 0.084220745 0.11563333 -0.036280096
000280 71 70 bf 3d 3c 66 1b 3d fb 33 67 3c 79 33 09 3d
       0.09347618 0.037939295 0.014111514 0.033496354
000290 20 6c 5d bc 71 56 6e 3d 49 fd 47 3d 9c b2 45 3d
       -0.013514549 0.058187906 0.048825536 0.04826604
0002a0 11 f1 16 3d 9f 3b 6d bd 68 b0 2e bd 55 f9 af 3c
       0.036850993 -0.057918187 -0.042648703 0.021481195
0002b0 d3 18 1e 3c 3d f8 6c bd 23 a1 b6 bd 7a 96 1d 3c
       0.009649473 -0.057853926 -0.08917453 0.009618396
0002c0 0e 0a 9f bd 8e 7c d5 3c d2 cc e0 3c 01 d4 18 bc
       -0.0776559 0.026060369 0.027441416 -0.009327889
0002d0 fc c9 12 3d da 50 c4 bd 46 91 11 3d 7b 13 64 3b
       0.03583716 -0.09585734 0.035538934 0.003480165
0002e0 84 1e 00 3e ce ee ff bd e2 d5 4c bd f9 ad 84 3d
       0.12511641 -0.1249672 -0.050008662 0.06478495
0002f0 ae e9 a6 3d 6b 7b b8 3d 5d e1 80 bd 8c 1d c0 bc
       0.081500396 0.09007915 -0.06292985 -0.023451589
000300 46 46 5b 3d f6 13 cd 3c f5 0c 87 bd 8b f8 80 bc
       0.053533815 0.025033932 -0.06594268 -0.015743515
000310 ee 84 11 3d 42 68 0c 3c 96 68 aa 3d 7a 0c 9d bd
       0.035527162 0.008569779 0.083207294 -0.07668395
000320 2a 7b 87 bc 9e 39 82 bc ec 72 3a 3c 00 8e a4 3d
       -0.016538221 -0.015896615 0.011379939 0.08034897
000330 de 36 4c 3e 29 b7 a2 bd 35 a3 a1 bc de 55 7b bc
       0.19942805 -0.07945091 -0.019731143 -0.015340297
000340 5c ab 2e 3d 2d 96 76 bc 7f d7 93 bd 2f f6 37 3c
       0.04264389 -0.015050453 -0.07218837 0.011228128
000350 16 c1 eb bd 88 82 8c 3d 00 17 b1 bc e5 ea 70 bb
       -0.115114376 0.06860834 -0.021617413 -0.0036761102
000360 ad d9 5b 3b 12 bd c9 3c 1f 75 4a 3c 4b e8 34 bd
       0.0033546493 0.024626289 0.012357025 -0.044166844
000370 88 65 2e 3d 02 00 01 bd bd 14 e4 3c 68 4e 9e 39
       0.042577296 -0.031494148 0.02784192 0.00030194526
000380 26 ea 81 bc 14 6b 78 3c 85 02 ed bd bb 85 04 3e
       -0.015858721 0.015162248 -0.11572746 0.12941639
000390 c3 14 74 3c a7 15 87 3d 7f d1 77 3d 8f aa e2 3c
       0.014897528 0.06595927 0.060502525 0.02766922
0003a0 dc e9 8a bc 60 25 7c bd c5 ab 8a bc f7 e4 62 3c
       -0.016957216 -0.06155908 -0.01692761 0.013848535
0003b0 d9 a2 b6 3d f6 88 db 3d 01 46 b6 3d de 26 a8 bd
       0.089177795 0.107194826 0.08900071 -0.08210538
0003c0 83 4e b9 bd a9 b8 d9 3d e6 e5 ca bd 54 07 42 3e
       -0.09048178 0.10630924 -0.09907131 0.18948108
0003d0 7d 3c 6a bd fc 69 88 3c 24 37 17 3d 8b 0a 18 3c
       -0.057186592 0.0166521 0.03691782 0.009279857
0003e0 c5 d7 1f 3d 24 29 fa bc a6 2a f1 3b c7 41 0b be
       0.039024133 -0.030537196 0.0073598204 -0.13599311
0003f0 38 ac 07 be a3 73 1e bd 65 0f 16 3e a0 b6 bd 3c
       -0.1324929 -0.0386845 0.1465431 0.023158371

network_body.linear_encoder.seq_layers.2.bias f4 [256]
000000 00 00 00 00 00 00 00 00 00 00 00 00 00 00 00 00
       0.0 0.0 0.0 0.0
000010 00 00 00 00 00 00 00 00 00 00 00 00 00 00 00 00
       0.0 0.0 0.0 0.0
000020 00 00 00 00 00 00 00 00 00 00 00 00 00 00 00 00
       0.0 0.0 0.0 0.0
000030 00 00 00 00 00 00 00 00 00 00 00 00 00 00 00 00
       0.0 0.0 0.0 0.0
000040 00 00 00 00 00 00 00 00 00 00 00 00 00 00 00 00
       0.0 0.0 0.0 0.0
000050 00 00 00 00 00 00 00 00 00 00 00 00 00 00 00 00
       0.0 0.0 0.0 0.0
000060 00 00 00 00 00 00 00 00 00 00 00 00 00 00 00 00
       0.0 0.0 0.0 0.0
000070 00 00 00 00 00 00 00 00 00 00 00 00 00 00 00 00
       0.0 0.0 0.0 0.0
000080 00 00 00 00 00 00 00 00 00 00 00 00 00 00 00 00
       0.0 0.0 0.0 0.0
000090 00 00 00 00 00 00 00 00 00 00 00 00 00 00 00 00
       0.0 0.0 0.0 0.0
0000a0 00 00 00 00 00 00 00 00 00 00 00 00 00 00 00 00
       0.0 0.0 0.0 0.0
0000b0 00 00 00 00 00 00 00 00 00 00 00 00 00 00 00 00
       0.0 0.0 0.0 0.0
0000c0 00 00 00 00 00 00 00 00 00 00 00 00 00 00 00 00
       0.0 0.0 0.0 0.0
0000d0 00 00 00 00 00 00 00 00 00 00 00 00 00 00 00 00
       0.0 0.0 0.0 0.0
0000e0 00 00 00 00 00 00 00 00 00 00 00 00 00 00 00 00
       0.0 0.0 0.0 0.0
0000f0 00 00 00 00 00 00 00 00 00 00 00 00 00 00 00 00
       0.0 0.0 0.0 0.0
000100 00 00 00 00 00 00 00 00 00 00 00 00 00 00 00 00
       0.0 0.0 0.0 0.0
000110 00 00 00 00 00 00 00 00 00 00 00 00 00 00 00 00
       0.0 0.0 0.0 0.0
000120 00 00 00 00 00 00 00 00 00 00 00 00 00 00 00 00
       0.0 0.0 0.0 0.0
000130 00 00 00 00 00 00 00 00 00 00 00 00 00 00 00 00
       0.0 0.0 0.0 0.0
000140 00 00 00 00 00 00 00 00 00 00 00 00 00 00 00 00
       0.0 0.0 0.0 0.0
000150 00 00 00 00 00 00 00 00 00 00 00 00 00 00 00 00
       0.0 0.0 0.0 0.0
000160 00 00 00 00 00 00 00 00 00 00 00 00 00 00 00 00
       0.0 0.0 0.0 0.0
000170 00 00 00 00 00 00 00 00 00 00 00 00 00 00 00 00
       0.0 0.0 0.0 0.0
000180 00 00 00 00 00 00 00 00 00 00 00 00 00 00 00 00
       0.0 0.0 0.0 0.0
000190 00 00 00 00 00 00 00 00 00 00 00 00 00 00 00 00
       0.0 0.0 0.0 0.0
0001a0 00 00 00 00 00 00 00 00 00 00 00 00 00 00 00 00
       0.0 0.0 0.0 0.0
0001b0 00 00 00 00 00 00 00 00 00 00 00 00 00 00 00 00
       0.0 0.0 0.0 0.0
0001c0 00 00 00 00 00 00 00 00 00 00 00 00 00 00 00 00
       0.0 0.0 0.0 0.0
0001d0 00 00 00 00 00 00 00 00 00 00 00 00 00 00 00 00
       0.0 0.0 0.0 0.0
0001e0 00 00 00 00 00 00 00 00 00 00 00 00 00 00 00 00
       0.0 0.0 0.0 0.0
0001f0 00 00 00 00 00 00 00 00 00 00 00 00 00 00 00 00
       0.0 0.0 0.0 0.0
000200 00 00 00 00 00 00 00 00 00 00 00 00 00 00 00 00
       0.0 0.0 0.0 0.0
000210 00 00 00 00 00 00 00 00 00 00 00 00 00 00 00 00
       0.0 0.0 0.0 0.0
000220 00 00 00 00 00 00 00 00 00 00 00 00 00 00 00 00
       0.0 0.0 0.0 0.0
000230 00 00 00 00 00 00 00 00 00 00 00 00 00 00 00 00
       0.0 0.0 0.0 0.0
000240 00 00 00 00 00 00 00 00 00 00 00 00 00 00 00 00
       0.0 0.0 0.0 0.0
000250 00 00 00 00 00 00 00 00 00 00 00 00 00 00 00 00
       0.0 0.0 0.0 0.0
000260 00 00 00 00 00 00 00 00 00 00 00 00 00 00 00 00
       0.0 0.0 0.0 0.0
000270 00 00 00 00 00 00 00 00 00 00 00 00 00 00 00 00
       0.0 0.0 0.0 0.0
000280 00 00 00 00 00 00 00 00 00 00 00 00 00 00 00 00
       0.0 0.0 0.0 0.0
000290 00 00 00 00 00 00 00 00 00 00 00 00 00 00 00 00
       0.0 0.0 0.0 0.0
0002a0 00 00 00 00 00 00 00 00 00 00 00 00 00 00 00 00
       0.0 0.0 0.0 0.0
0002b0 00 00 00 00 00 00 00 00 00 00 00 00 00 00 00 00
       0.0 0.0 0.0 0.0
0002c0 00 00 00 00 00 00 00 00 00 00 00 00 00 00 00 00
       0.0 0.0 0.0 0.0
0002d0 00 00 00 00 00 00 00 00 00 00 00 00 00 00 00 00
       0.0 0.0 0.0 0.0
0002e0 00 00 00 00 00 00 00 00 00 00 00 00 00 00 00 00
       0.0 0.0 0.0 0.0
0002f0 00 00 00 00 00 00 00 00 00 00 00 00 00 00 00 00
       0.0 0.0 0.0 0.0
000300 00 00 00 00 00 00 00 00 00 00 00 00 00 00 00 00
       0.0 0.0 0.0 0.0
000310 00 00 00 00 00 00 00 00 00 00 00 00 00 00 00 00
       0.0 0.0 0.0 0.0
000320 00 00 00 00 00 00 00 00 00 00 00 00 00 00 00 00
       0.0 0.0 0.0 0.0
000330 00 00 00 00 00 00 00 00 00 00 00 00 00 00 00 00
       0.0 0.0 0.0 0.0
000340 00 00 00 00 00 00 00 00 00 00 00 00 00 00 00 00
       0.0 0.0 0.0 0.0
000350 00 00 00 00 00 00 00 00 00 00 00 00 00 00 00 00
       0.0 0.0 0.0 0.0
000360 00 00 00 00 00 00 00 00 00 00 00 00 00 00 00 00
       0.0 0.0 0.0 0.0
000370 00 00 00 00 00 00 00 00 00 00 00 00 00 00 00 00
       0.0 0.0 0.0 0.0
000380 00 00 00 00 00 00 00 00 00 00 00 00 00 00 00 00
       0.0 0.0 0.0 0.0
000390 00 00 00 00 00 00 00 00 00 00 00 00 00 00 00 00
       0.0 0.0 0.0 0.0
0003a0 00 00 00 00 00 00 00 00 00 00 00 00 00 00 00 00
       0.0 0.0 0.0 0.0
0003b0 00 00 00 00 00 00 00 00 00 00 00 00 00 00 00 00
       0.0 0.0 0.0 0.0
0003c0 00 00 00 00 00 00 00 00 00 00 00 00 00 00 00 00
       0.0 0.0 0.0 0.0
0003d0 00 00 00 00 00 00 00 00 00 00 00 00 00 00 00 00
       0.0 0.0 0.0 0.0
0003e0 00 00 00 00 00 00 00 00 00 00 00 00 00 00 00 00
       0.0 0.0 0.0 0.0
0003f0 00 00 00 00 00 00 00 00 00 00 00 00 00 00 00 00
       0.0 0.0 0.0 0.0

action_model._discrete_distribution.branches.0.weight f4 [3, 256]
000000 db 7d b8 ba 02 93 d3 ba da f1 f2 ba dc 03 31 3c
       -0.0014075594 -0.0016141834 -0.0018535212 0.010804143
000010 79 11 87 bb 61 ea 84 3a 0f 31 a7 bb 97 04 cb 3a
       -0.004121956 0.0010140651 -0.005102284 0.0015489039
000020 6e fa c2 3b 69 08 99 ba b2 22 86 bb 12 27 01 3c
       0.0059502637 -0.001167548 -0.0040934915 0.00788285
000030 10 9d bb 3b b2 6d 74 3b b5 d5 50 bb 8d ec cb 3b
       0.0057255104 0.0037296829 -0.003186566 0.0062232674
000040 60 fa 21 3b d0 47 f8 ba 30 3d c7 3b 14 27 c8 bb
       0.0024715886 -0.00189423 0.006080292 -0.006108174
000050 91 ac 1e 3b 62 f4 cb 3a e5 2b e0 3a d3 3e 56 3b
       0.0024211744 0.0015560503 0.0017102925 0.0032691255
000060 d5 8f 58 3b 3f 30 8f b9 bf 00 85 b8 38 1f e7 bb
       0.0033044715 -0.00027311032 -6.342073e-05 -0.007053282
000070 bc 39 1a bb eb c3 18 39 f7 8f 7c 3b 9f b4 da 3b
       -0.0023532948 0.00014568835 0.0038537958 0.0066743637
000080 37 c2 77 3b 12 ce 81 bc 35 6f 5a bb 22 bb f5 3b
       0.003780497 -0.015845332 -0.0033330445 0.0074991146
000090 7b 87 a1 3a ef c9 21 3b 3d 7b 77 bb 99 6b 33 3c
       0.0012323702 0.0024687012 -0.0037762665 0.010950946
0000a0 5d 87 8a ba 6d 2d c7 3b d3 40 53 3b 54 d6 8e 39
       -0.0010568906 0.006078413 0.0032234683 0.00027244037
0000b0 78 27 ce bb 87 53 91 ba de a8 30 3b 48 bc 14 3c
       -0.006291326 -0.0011087515 0.0026956121 0.009078093
0000c0 fb 3a ab bb 86 a3 02 bc b2 8b 96 bb ae 4d b1 3b
       -0.005225537 -0.007973557 -0.0045942897 0.0054108715
0000d0 58 34 1a bc 3e 44 4c 3b f9 b5 2a 3b e8 a3 0d bb
       -0.009411894 0.0031168605 0.0026048406 -0.0021612588
0000e0 33 f6 e8 b8 02 c1 06 bc 3b 34 05 bc 98 fc cd 3a
       -0.0001110848 -0.008224728 -0.0081301285 0.0015715538
0000f0 25 ac fd 3a c8 fc ca 3b 47 67 0a 3c 27 dd d4 3b
       0.0019353671 0.0061946847 0.008447475 0.00649609
000100 56 ff 92 bc 35 b7 da bb fb dd 72 bb 65 d8 ec 3a
       -0.01794402 -0.006674672 -0.003705858 0.0018069862
000110 38 61 8e 3b a8 5a 30 bc 93 be 80 3a 58 44 d7 ba
       0.0043450855 -0.010763802 0.000982242 -0.0016423566
000120 2f 9f 49 3b cd 60 71 bb 5d 6f 4b bb b8 3f 3a 3c
       0.0030765047 -0.003683138 -0.003104172 0.011367731
000130 0b 8e b7 3a 15 d8 1c 3c 9e 8d 8f 3c 77 45 e3 bb
       0.0014004124 0.009573002 0.017523583 -0.006935771
000140 97 4a 46 3b 42 bc 0b bc bc f1 03 bb bb 04 18 3c
       0.0030256861 -0.008528771 -0.0020133099 0.009278472
000150 85 97 9c 3b fa 7a e6 3a af 5c 80 38 99 14 a2 3b
       0.0047788047 0.0017584257 6.120779e-05 0.004946303
000160 93 2f 3e 3c e2 12 1a 3c 33 e3 03 bc 2b 08 43 ba
       0.011608022 0.009403916 -0.008049774 -0.0007439877
000170 0b 71 c2 bb cf 68 94 bb e5 8d 98 bb 52 97 b7 3b
       -0.005933886 -0.0045290957 -0.004655587 0.0056027556
000180 3a 1a 17 bb 27 88 a9 3b b8 f6 66 3c 6b 20 45 3c
       -0.0023056404 0.0051737013 0.014096908 0.012031655
000190 9d 0f d8 3b 17 b8 1c 3c 47 f0 74 3a ef 3d ef bb
       0.006593658 0.009565375 0.00093436654 -0.007301084
0001a0 9a 96 cb 3b 3c d0 ab bb 97 17 cd bb 07 b7 c3 bb
       0.0062130215 -0.0052433293 -0.0062589156 -0.0059727463
0001b0 72 f6 55 bc ad f7 ef 3a 28 2c 86 3b 02 b5 32 3c
       -0.013059245 0.0018308066 0.0040946193 0.010907413
0001c0 a4 bb 87 bb 77 0f 1b bc 81 c7 2f 3c bf c0 16 3b
       -0.0041422416 -0.009464136 0.010728718 0.002300307
0001d0 16 fe 8f 3c f6 ec 15 bb 9b 25 69 bb df d8 19 bc
       0.017577212 -0.0022876835 -0.0035575393 -0.009390085
0001e0 c8 95 72 bb f7 db 50 3b 49 b3 ae 3b 70 86 e5 3b
       -0.0037015546 0.003186939 0.005331431 0.0070045516
0001f0 13 92 87 ba e5 10 de bb 7f 85 07 bb 4a 2c 76 3b
       -0.0010343216 -0.0067769163 -0.0020678935 0.003756302
000200 27 14 f2 3a 52 67 0b 3b 4d 5e f2 3a 18 2c 5e 3a
       0.0018469141 0.00212713 0.0018491239 0.00084751984
000210 12 7e 59 3b a1 ab 90 bc b3 04 69 3b 6e 84 1d bc
       0.0033186716 -0.017659964 0.003555578 -0.009614093
000220 bb 4d d3 3a e0 7a 06 3c 5f 7b 11 bb e5 6f e7 3b
       0.0016121188 0.008208007 -0.002219878 0.0070628994
000230 87 11 03 bc 6b a5 33 bc 7e a8 12 bc 93 c0 dc ba
       -0.007999784 -0.010964732 -0.0089513045 -0.001684206
000240 c2 fd 2c bc 73 e9 10 3c 8b eb 53 3b 4a b5 f7 bb
       -0.010558547 0.008844721 0.003233644 -0.007559453
000250 73 9b 6e 3b ab 2e 18 bc c9 f2 b0 3b 80 fa 19 bb
       0.0036408573 -0.00928847 0.005400036 -0.0023495257
000260 95 07 11 bc aa 09 63 bc d4 4c ae ba 45 c1 da bb
       -0.008851905 -0.013857285 -0.0013298043 -0.0066758716
000270 f5 19 af bb 3b 1c 5a bc 4b d9 7f bb 67 bb 21 3b
       -0.0053436705 -0.013312395 -0.0039039429 0.002467835
000280 df e9 6a 3b eb 79 f1 3a cd f1 01 bc 9e e3 82 3c
       0.0035844964 0.0018423175 -0.007931185 0.015977677
000290 a6 40 b0 3b 4a b2 2c 3b 91 06 40 39 2f f4 82 3b
       0.0053788004 0.0026351386 0.00018312993 0.003996394
0002a0 34 5a ac 3b b5 88 fb 3a 73 a7 49 bb fe 5a 9a bb
       0.0052597765 0.0019190522 -0.0030769974 -0.004710554
0002b0 ed 77 97 3b ab 45 2a 3b ed 3d fb bb 1e 4f bc 3b
       0.0046224506 0.0025981467 -0.0076672942 0.005746736
0002c0 38 72 fd bb fb 0c e2 ba 8b 52 58 bb 32 b7 ef ba
       -0.007734563 -0.00172463 -0.0033008184 -0.0018288849
0002d0 75 f2 ea bb 57 ce ca b8 0b a6 b8 ba e5 b3 76 b8
       -0.0071700164 -9.6705444e-05 -0.0014087571 -5.881851e-05
0002e0 c3 c8 91 3b b5 be ec bb 1d 55 0d bc 81 b4 b6 3b
       0.0044489815 -0.0072248825 -0.00862625 0.005575717
0002f0 2b 19 df bb f3 2e d1 b9 14 b7 1b bc 57 4c a4 3b
       -0.00680842 -0.00039898566 -0.009504098 0.005013983
000300 87 af d3 3b 8f 83 07 3b c2 83 ff bb 46 d0 0f bc
       0.0064601335 0.002067778 -0.007797689 -0.008777684
000310 77 cb 4c bc 58 04 b0 bb 7d 20 f9 bb e3 1b d2 ba
       -0.012499682 -0.0053716116 -0.00760275 -0.0016030039
000320 b3 4a 03 bc e8 3d 50 3b e2 24 1e 3c 57 1a 84 bc
       -0.008013415 0.003177518 0.009652348 -0.016125841
000330 92 46 58 3b e2 9d 29 3c d1 3d 8b bb 62 fe 2b 3b
       0.0033001048 0.010352584 -0.0042493124 0.0026244153
000340 b9 07 30 3c f0 6d a3 bb 3f ed b8 3b 0a 49 51 3c
       0.010744029 -0.004987471 0.0056435163 0.0127737615
000350 5d 21 f1 3a 29 6f 83 3c b7 6d 70 bb bb 1c ea 37
       0.0018396784 0.016044216 -0.003668649 2.7908352e-05
000360 68 df a7 3b ba 8f 35 bc 38 32 53 3c 3b 3a 5b bc
       0.0051230676 -0.01108163 0.012890391 -0.013380582
000370 9a 8e 97 bb 5b bd 7f ba 9c 0e 01 bb c0 22 16 bc
       -0.0046251537 -0.0009755694 -0.0019692546 -0.0091635585
000380 bf a0 d8 3a e5 6e 7f bb 6d e5 5a ba 47 ec bc 3a
       0.0016527398 -0.003897601 -0.0008350227 0.0014413678
000390 3a b8 1f bc fb 92 93 ba 7b 6f eb ba 54 b5 22 3c
       -0.009748513 -0.0011259014 -0.0017962301 0.009930927
0003a0 03 81 bf ba 2b 71 b2 ba 76 64 4c 3c d7 af 80 3b
       -0.0014610592 -0.0013614049 0.012475124 0.0039272117
0003b0 60 cc e2 3a 76 7f 1a 3c bf bd db b8 88 ed fd b9
       0.001730334 0.009429803 -0.00010478077 -0.00048432895
0003c0 24 79 94 3b 4a 36 10 ba ff de a8 3b bf 05 0a 3c
       0.0045310427 -0.0005501254 0.0051535363 0.008424222
0003d0 b6 dc 81 3c 27 95 67 3b 2b f8 5b ba bc ad 04 3c
       0.015852313 0.0035336704 -0.0008391167 0.008098062
0003e0 70 af fc 39 70 38 b5 3b af 0d ef 3b fc 65 c5 b9
       0.00048195897 0.0055304095 0.0072953324 -0.00037650752
0003f0 b9 92 30 3a 5f 0d 67 bc b0 9b 78 bc c7 61 07 bc
       0.00067357306 -0.014102309 -0.015173838 -0.008263058

action_model._discrete_distribution.branches.0.bias f4 [3]
000000 00 00 00 00 00 00 00 00 00 00 00 00
       0.0 0.0 0.0

action_model._discrete_distribution.branches.1.weight f4 [2, 256]
000000 e6 bc 2e bc 57 12 68 3b ef 4c 1f bb e0 95 bd 3a
       -0.010665154 0.0035411322 -0.002430733 0.0014464222
000010 27 7a 2b 3c b8 fc e4 3b b7 a4 af 3b cc 9a 33 ba
       0.010466135 0.0069881342 0.0053602117 -0.00068513746
000020 b4 db 91 3b 3a 33 4f 3b df 5f 26 bc 7a ca cf 3b
       0.0044512395 0.0031616227 -0.010154693 0.0063412758
000030 25 ef a9 bb b0 9b ec ba 58 d3 cf bb da 8b 1e 3c
       -0.005185979 -0.001805177 -0.006342333 0.009676898
000040 ba 56 ad 3b 6d 3c 9c 3a bf b7 73 3b ba 67 ce bb
       0.0052898796 0.0011919864 0.0037188379 -0.0062989863
000050 94 2b 08 3b da e0 26 bb 8f 40 f5 b9 21 e2 0f bc
       0.0020777928 -0.0025463612 -0.0004677814 -0.008781941
000060 7e dd 9a bb 50 52 f0 3b a6 4a 96 bb 16 82 82 ba
       -0.004726111 0.007334031 -0.0045865355 -0.0009956982
000070 40 ad 5d ba 73 be 1c 3c 61 76 0f 3c aa 0f 2c bc
       -0.0008456297 0.009566891 0.008756251 -0.0105017815
000080 d5 21 e3 bb 6d a4 f5 bb 87 20 6f 3b ff d0 6f bb
       -0.0069315233 -0.0074964077 0.0036487894 -0.0036593077
000090 97 ad 01 3b bf dd 30 bb 2b 2d 73 3b 09 d7 01 3b
       0.0019787306 -0.002698764 0.003710578 0.0019812009
0000a0 a7 a7 db 3a f6 a1 bc bb 5c a1 bd 39 8c 74 a2 bb
       0.0016758338 -0.005756612 0.0003616911 -0.004957741
0000b0 e3 e9 88 bb 3b 86 bb 3b 73 b3 4c ba ec f4 30 bb
       -0.004178272 0.0057227886 -0.00078087224 -0.0027001454
0000c0 77 48 aa bb a9 59 00 3c d7 4d 22 bb 95 11 5e 3b
       -0.0051966268 0.007833877 -0.0024765634 0.0033884991
0000d0 81 b4 9a bb 85 90 dd b9 c0 92 5a bb 5f 0d c0 3b
       -0.004721225 -0.0004226008 -0.003335163 0.005860969
0000e0 a6 80 3d bb ab 56 b8 3b 82 fe 2c 3b 13 92 2a bb
       -0.0028915792 0.005625566 0.0026396816 -0.0026027008
0000f0 fa 89 cf bb ef 8a 90 3c 88 bd 27 3b 5b 76 15 3c
       -0.0063335868 0.017644374 0.0025595147 0.009122456
000100 14 c1 0a 3c 5d e7 7d bb 70 b6 06 bb 9d bb 17 bc
       0.008468885 -0.003874264 -0.0020555519 -0.009261039
000110 83 02 da 3a fb 98 19 ba 15 1f 00 bc 7f e0 19 3b
       0.0016632829 -0.00058592827 -0.0078199105 0.0023479757
000120 86 84 12 bc 72 4b 4d 3c a0 f4 b1 3b 23 b5 c8 b9
       -0.008942729 0.012530195 0.005430773 -0.0003828193
000130 2b 76 3f 3b 44 b2 85 bc a3 c2 e2 bb e3 f1 1f 3b
       0.002921472 -0.016320355 -0.006920175 0.002440565
000140 c9 3f b3 3b 54 17 10 bb 3b bd 2c 3b 58 ff 51 ba
       0.0054702503 -0.002198656 0.0026357907 -0.00080107665
000150 37 ec da bb eb 55 5a b9 f6 a1 a0 3b 50 da 54 3b
       -0.006680991 -0.00020822107 0.0049021197 0.0032478757
000160 bb 8a 0f bb c8 b4 95 3b 87 56 9d bb 33 ba 2a bb
       -0.0021902758 0.00456867 -0.0048015746 -0.0026050925
000170 d9 69 07 bb 2c cd 88 3b f8 79 6d bb c8 9c 69 3b
       -0.0020662455 0.004174849 -0.003623603 0.0035646427
000180 48 4d 58 3a e0 eb f6 bb 10 a3 5a 3c f4 c2 8a ba
       0.0008251262 -0.0075354427 0.013344541 -0.0010586665
000190 e0 48 d2 3b aa 23 b3 b9 68 6f f3 bb 5a 80 61 3b
       0.006417379 -0.00034168112 -0.007429052 0.003440878
0001a0 bb ba 12 3a af 60 b6 3b 92 54 d7 3b c3 6d 0b 3c
       0.0005597283 0.005565725 0.006571361 0.008510056
0001b0 ff 17 5f 3b 3d 29 5a bc 48 28 e6 bb 85 90 96 b9
       0.0034041402 -0.013315496 -0.007023845 -0.00028717905
0001c0 3d 05 96 bb 67 d6 21 bc 34 78 2e 3a 3f d5 b8 3a
       -0.004578261 -0.009877778 0.0006655485 0.0014101638
0001d0 93 05 40 3c 80 49 f6 3a 87 ca 84 3b a4 ec 93 3b
       0.011720079 0.0018790215 0.0040524635 0.0045142937
0001e0 3b 74 b2 ba ea d7 e0 3a 3b 2e ff bb de d7 b2 3a
       -0.0013614962 0.0017154191 -0.0077874935 0.0013644656
0001f0 87 fe ec ba e2 8f 36 ba fc fb 42 bc bb a5 16 bc
       -0.0018081226 -0.0006964189 -0.011900898 -0.009194787
000200 f7 9e 87 3b 5d 37 07 3b cb a7 c6 3b 5f 89 ac 3b
       0.004138823 0.0020632364 0.006062483 0.0052653993
000210 c2 58 f6 3b dd 30 dd 3a 5b 6c 9b ba fa 6f 0d bc
       0.007517905 0.0016875524 -0.0011857854 -0.008632654
000220 8f 37 27 bc 60 49 ac bb bf 4d 14 bc 94 6b 0d 3c
       -0.010206117 -0.0052577704 -0.009051739 0.008631606
000230 1e dd 06 ba 03 2d 8f bc 7f 3d e5 bb d1 53 1d 3c
       -0.00051446434 -0.017477518 -0.0069958563 0.009602503
000240 aa 23 3b 38 9b 42 94 3b aa 85 22 bb ec 64 06 3c
       4.461749e-05 0.0045245416 -0.0024798908 0.008202773
000250 94 86 1c bb 0f 50 3a bc c3 8f 67 bb eb 27 08 3b
       -0.0023883926 -0.0113716265 -0.0035333491 0.0020775746
000260 b5 5e 06 bc 62 75 51 bb 9c 89 aa bb 77 0f da bb
       -0.008201291 -0.0031960835 -0.0052043926 -0.0066546756
000270 47 7e 89 bb 69 48 b2 3b 8a 5c 79 bb 96 f9 8a 3a
       -0.0041959616 0.005440761 -0.0038049542 0.0010602947
000280 77 cb af bb 3d 76 a3 bb 22 24 d2 39 9c 43 8a ba
       -0.005364831 -0.0049884603 0.00040081242 -0.0010548714
000290 2a 35 84 3a 8f 3c b0 bb 05 88 20 3b 00 48 b2 3b
       0.0010086645 -0.005378313 0.0024495136 0.005440712
0002a0 94 90 20 3b b3 72 e6 3b e7 a5 77 bb 32 02 20 bc
       0.0024500238 0.007032716 -0.0037788094 -0.009766148
0002b0 1f 1f 66 3b 08 76 fe 3b 57 5b 03 3c 5d ec 66 3c
       0.0035113764 0.0077655353 0.008017383 0.014094439
0002c0 73 a0 74 bc 13 33 60 bb d7 6c 9b bb 01 b1 2e 3c
       -0.014930832 -0.003421013 -0.0047431993 0.010662318
0002d0 91 1e b3 3b 15 c5 5a bb fb 61 0a 3c 06 39 02 3b
       0.0054662903 -0.003338163 0.008446212 0.0019870414
0002e0 f0 44 8d ba 58 c9 b3 3a 26 14 4b bb 6a 5b 01 3c
       -0.0010777991 0.0013716621 -0.0030987351 0.00789533
0002f0 00 52 fa bb 7b 98 e5 3a cf 01 a0 3b 09 6f bf ba
       -0.0076391697 0.0017516756 0.004883028 -0.0014605235
000300 a7 8c f1 b9 73 08 48 3b 54 02 19 3b 0c d4 c5 3b
       -0.00046071896 0.0030522614 0.0023347335 0.006037241
000310 3f a2 4b 3c ae 7f cc 3b 81 27 86 bb f0 b8 1f 3c
       0.012428819 0.0062408065 -0.0040940647 0.009748682
000320 98 6b 5b ba 24 69 39 3b 4a 1f ff ba 57 2c 29 3b
       -0.000837022 0.0028291428 -0.0019464281 0.0025813782
000330 ff c1 9c 3b 83 c8 78 bb b5 2e a7 bb da ff e4 ba
       0.0047838683 -0.0037961311 -0.0051020035 -0.0017471269
000340 02 f6 a8 bb 52 73 fd 3b c6 bb 43 3b f0 81 3d 3b
       -0.0051562795 0.0077346945 0.002986656 0.002891656
000350 dd 1b b6 bb a4 c2 2b bc 08 a2 29 bb f1 bc b0 bb
       -0.005557521 -0.010483418 -0.0025883932 -0.0053936173
000360 1f b7 3a bb 0a 23 83 bb da d8 6e bb 22 66 72 ba
       -0.0028490496 -0.0040019797 -0.0036445172 -0.00092467864
000370 4f f9 d6 3b 9b b9 18 3c 57 81 e1 3a 9e c0 2c 3c
       0.0065604816 0.009321596 0.0017204684 0.01054397
000380 31 ec 96 bc 9a 70 a0 ba 1c b0 05 bc 7f 49 18 3b
       -0.018423172 -0.0012240589 -0.0081596635 0.0023237166
000390 8b 32 26 ba f5 00 58 3a 4f 02 10 3b 9b 94 eb 3b
       -0.0006339929 0.00082398887 0.0021974032 0.007189346
0003a0 6b 89 91 bb 9d 6f d2 bb 06 e7 04 bb b2 75 e9 bb
       -0.0044414303 -0.0064219967 -0.0020279302 -0.007124626
0003b0 a3 7d 05 3a 25 78 66 3b b3 c1 22 3b 1a 10 f3 ba
       0.00050922687 0.0035166827 0.0024834692 -0.0018544227
0003c0 0f d2 1f 3c 1f bf 96 bb 26 c3 47 3c 61 9a 1d 3b
       0.009754672 -0.00460042 0.012192523 0.0024048316
0003d0 83 48 28 bb cd 90 ed 3a 8d 7e 08 bb db 8a 4e bb
       -0.0025677986 0.0018124819 -0.0020827383 -0.003151587
0003e0 52 08 9d 3c 36 11 a2 3b 85 4d cb 3b 10 a6 aa bb
       0.019169006 0.0049458994 0.0062043094 -0.0052077845
0003f0 fd 61 81 3b c3 31 97 39 c0 9f 37 3c 5b 6b 87 3a
       0.0039484487 0.0002883804 0.011207521 0.0010331677

action_model._discrete_distribution.branches.1.bias f4 [2]
000000 00 00 00 00 00 00 00 00
       0.0 0.0

action_model._discrete_distribution.branches.2.weight f4 [2, 256]
000000 2b f7 0f 3c cd 5a 72 3c 56 b6 15 bb 58 d2 20 3c
       0.008786957 0.014792156 -0.0022844276 0.009815775
000010 d4 fb 1e 3c 4e b6 01 3c d2 c8 9e 38 9a 59 74 3c
       0.009703595 0.007917 7.571433e-05 0.014913941
000020 01 64 8d bb f7 c7 4c 3b c0 71 72 bb fa 30 12 bc
       -0.0043149 0.0031247118 -0.003699407 -0.00892281
000030 58 0c ad 3b 82 69 d2 3a 75 0b dc 3b d0 31 e4 3a
       0.0052810125 0.0016053172 0.006715233 0.0017409865
000040 cd 1a 94 bb fc f6 40 bb 9b df c7 3b fb d3 31 3c
       -0.0045197965 -0.002944409 0.006099654 0.010853763
000050 b3 3c a3 3a 77 58 89 bc f3 39 79 3b 87 31 52 3b
       0.0012454003 -0.016765816 0.0038028925 0.0032072978
000060 53 b3 c6 3b 11 c9 9d 3b 58 a5 e0 3b 4e de 94 b8
       0.0060638576 0.0048152287 0.006855648 -7.0985974e-05
000070 13 4c a0 3a b9 c2 09 3b 4f 4b 46 3c a3 fc 72 bc
       0.0012229703 0.0021020605 0.012102916 -0.014830741
000080 23 d8 08 3b f7 8d ca 3b 2f 05 ae 3b eb bc 42 3b
       0.002088078 0.0061814743 0.0053106765 0.0029714655
000090 3a 5a 06 bc 95 70 68 ba f2 cf 0a 3c 3b 2c bb 3b
       -0.008200223 -0.00088668737 0.00847243 0.00571206
0000a0 56 7e 23 3b 17 24 65 ba 68 4e ea bb 9b 29 4e 3a
       0.0024947128 -0.00087410345 -0.00715046 0.0007864476
0000b0 1f f5 e9 ba 54 05 a3 ba 43 a7 f3 ba 02 fa 63 3c
       -0.0017849541 -0.0012437501 -0.0018589277 0.013914587
0000c0 ab a6 a5 bb 3d 66 e6 ba 78 9c 72 bb a3 47 f4 ba
       -0.0050552688 -0.0017578077 -0.0037019532 -0.0018637072
0000d0 da db 1a 3c d0 4b 81 3c f2 4c 0d 3a 0c 04 aa bb
       0.009451831 0.01578322 0.0005390189 -0.0051884707
0000e0 83 84 c0 bb c2 4c 67 3b 6f 1d 44 bc f7 b5 db b8
       -0.0058751716 0.0035293554 -0.011969908 -0.00010476627
0000f0 2b a2 9a bb bd fa 33 3a 45 f6 c1 3b 73 42 14 b8
       -0.004719039 0.0006865671 0.00591925 -3.5347835e-05
000100 84 53 a5 b8 df 13 15 3b 7f 55 77 3b d0 ed 3f ba
       -7.883369e-05 0.002274744 0.0037740169 -0.00073215086
000110 08 5b c7 bb e8 92 55 3b c5 26 5f bb 06 29 c5 bb
       -0.00608385 0.0032588784 -0.0034050208 -0.0060168533
000120 63 de 5b ba 4a 58 2b bb 68 02 a0 bb bb 5b 01 bc
       -0.0008387325 -0.0026145154 -0.0048830993 -0.007895405
000130 6b e7 ea 3b 0c f8 3b 3a 30 fb fa bb bf 89 d8 bb
       0.0071687005 0.0007170446 -0.0076593384 -0.0066082175
000140 ef 8c b3 bb 2e cf 91 ba 39 85 c7 3b c1 12 93 bb
       -0.005479447 -0.0011124366 0.0060888794 -0.0044883196
000150 bf 1c ae 3b 28 d9 f4 bb 98 ad e9 3b e7 7c 47 3c
       0.0053134854 -0.007472176 0.0071312897 0.012175775
000160 fd e5 b3 b9 73 98 85 ba cf 44 e7 bb 35 5f f4 3b
       -0.00034312895 -0.0010192528 -0.007057763 0.0074576386
000170 35 c1 15 bb 15 29 58 bc 4d af 0d 3b da 81 75 ba
       -0.0022850756 -0.0131933885 0.002161938 -0.00093653577
000180 21 c1 83 3a 9b 7d bd bb 89 27 c8 3b a1 ed a8 b9
       0.0010052064 -0.0057827956 0.0061082286 -0.00032220504
000190 b7 3c eb ba ee 3c 92 bb 1a ff 54 3b 5b 55 12 bc
       -0.0017947172 -0.00446283 0.0032500685 -0.008931483
0001a0 23 51 83 bb 9b bf 80 3c a9 61 a5 bb f3 43 b9 3b
       -0.004007475 0.015716365 -0.0050470424 0.005653852
0001b0 33 c9 1e 3b 9c 4e 49 3c f7 ae bf 3a cf 9a 82 bb
       0.002422881 0.012286808 0.0014624287 -0.00398574
0001c0 52 ba 70 3b 67 22 b5 ba 50 3d 71 3a bb ec 5f 3b
       0.003673215 -0.0013819457 0.00092025567 0.0034168202
0001d0 16 36 b6 3a c7 b0 01 bc 93 86 23 b9 bc 77 83 3a
       0.0013901617 -0.007915682 -0.00015595024 0.001003019
0001e0 0f ac 15 bb df 62 1b 3a 75 e3 d3 3b 81 4c 42 3b
       -0.002283815 0.00059275137 0.006466324 0.002964765
0001f0 88 79 3e bb 25 2b 3a ba 50 84 dd 39 45 f6 a9 3b
       -0.0029064137 -0.0007101766 0.00042250985 0.0051868283
000200 85 2a a9 3b 53 22 f2 3b df ba bc 3a 97 d6 10 3b
       0.0051625394 0.0073893457 0.0014398954 0.0022100562
000210 62 94 dc bb aa 53 ca 39 ce da 81 bb c6 58 ae 3b
       -0.006731556 0.00038590777 -0.003962851 0.005320641
000220 83 c1 95 39 69 a8 a6 3b 92 68 e2 3b a1 bc 17 bc
       0.00028563672 0.005085994 0.0069094384 -0.009261281
000230 86 06 43 3a 4f 91 62 bc 8e af 2e bb 81 97 a1 bb
       0.0007439632 -0.01382859 -0.0026654932 -0.0049313908
000240 98 ab 16 bb c8 ea a5 3b 57 d8 4c 3c 40 ef e1 3b
       -0.0022990461 0.0050633885 0.012502751 0.006894976
000250 5f 5e d7 3b 43 6b bf 3a 0b ef 0c 3c 6b f9 f1 3b
       0.006572529 0.001460411 0.008601914 0.0073844693
000260 1f 74 5e 3b de 99 17 3c 58 d4 ba 3b f2 42 f3 3b
       0.0033943725 0.009252993 0.005701583 0.007423752
000270 94 13 00 3c d8 27 6a 3b 63 e9 0b 3b 2e 5e c4 bb
       0.007817168 0.0035729315 0.0021348826 -0.0059926724
000280 10 5d 37 3a 02 fb 42 bb e2 c9 b7 bb 18 27 25 3c
       0.00069947634 -0.0029751663 -0.005608783 0.010080121
000290 6a cb d6 3b a3 e9 90 3b 37 f4 aa bb 78 57 83 bb
       0.0065550106 0.004422383 -0.005217101 -0.00400823
0002a0 72 5b d0 3b db 73 98 3b 43 2b 59 bb 53 46 44 bc
       0.0063585574 0.004652483 -0.0033137358 -0.011979657
0002b0 57 f8 81 39 d2 3e fa 3b d0 f6 14 bc d5 4f 90 3b
       0.00024789825 0.0076368833 -0.009092048 0.004404048
0002c0 9a 89 22 3c 75 c0 cd 3b 73 10 da 3b 52 28 2a 3b
       0.009920502 0.006279046 0.006654793 0.0025963974
0002d0 63 e9 6f 3c fe 65 05 bb f3 3c ef 39 a3 2a 76 bb
       0.014643046 -0.0020354982 0.00045631043 -0.0037562035
0002e0 78 b4 fc 39 6d 3c 21 3b e9 61 25 ba be 16 1d bb
       0.00048199645 0.0024602667 -0.000630884 -0.0023969854
0002f0 9f 54 ab ba 53 4a 24 3c 12 4d d0 3b 72 fc 12 bb
       -0.0013071484 0.010027486 0.0063568437 -0.00224283
000300 c8 b5 7e bb 9c 4c 8d bb 6a 5e b4 bb 1b a2 e8 3b
       -0.0038865674 -0.004312111 -0.005504419 0.0070994026
000310 13 98 5c bc 52 7f b5 bb 2f bc 81 3c 27 75 c7 3b
       -0.013463992 -0.0055388594 0.015836803 0.0060869637
000320 88 ae 00 bc 72 0c d2 bb 7f 51 1f 3b db 98 75 bb
       -0.0078541115 -0.006410175 0.002431005 -0.0037475142
000330 4d f2 02 3b 1b 22 3f 3a 98 73 64 3c fd de 88 b9
       0.0019980848 0.0007291154 0.013943575 -0.0002610608
000340 72 88 dd 3b bf f0 24 ba e7 fc 3e 3c 1d 26 4d bb
       0.0067606503 -0.00062919775 0.011656976 -0.0031303235
000350 76 d8 15 3a 7a e5 fa b9 71 d8 0d bc 0f 8c fc bb
       0.0005716154 -0.0004785469 -0.008657561 -0.007707126
000360 82 3c 4d bc 5f dd 59 3b 76 59 12 3b 27 ea 2a 3b
       -0.012526633 0.003324352 0.0022331155 0.0026079507
000370 5c ff 26 ba 43 35 eb ba 63 cd e3 bb 32 49 1d 3b
       -0.0006370449 -0.001794495 -0.0069519742 0.0023999927
000380 ce 94 86 ba 68 ef 00 3b cd 1e 8f bb 8a 89 97 3b
       -0.0010267736 0.0019673947 -0.0043676854 0.00462455
000390 66 4a ba 3b 2f 62 8b 3a 9f a3 1f bc 3c 8f ca 3a
       0.0056851385 0.0010634119 -0.0097436 0.0015454064
0003a0 7a c1 fd 3b 88 e9 7b 3b a2 25 19 3c 9f f9 61 3b
       0.0077440115 0.0038438756 0.009347351 0.003448106
0003b0 bb 3b 0c bb 0c 1c 9d 3b b7 97 ea bb ff 75 2b bc
       -0.0021397907 0.004794603 -0.007159199 -0.010465144
0003c0 b2 db ff 3b bf 1c 15 b6 dd 8d 26 bc c0 26 5d 3a
       0.007808172 -2.2219463e-06 -0.010165659 0.0008436255
0003d0 cf d5 2b 3c a7 00 3c 39 0f 28 61 3b 48 c9 9b 3b
       0.010487988 0.0001792932 0.0034356152 0.004754219
0003e0 97 45 c9 bb ab 14 f5 3a 54 7d 9b 3b 92 95 85 bb
       -0.006142329 0.0018698176 0.004745165 -0.004076668
0003f0 03 84 f4 3b 6f 30 b1 ba ae b9 b0 ba da 5d 6e bb
       0.007462026 -0.0013518463 -0.0013483071 -0.0036371858

action_model._discrete_distribution.branches.2.bias f4 [2]
000000 00 00 00 00 00 00 00 00
       0.0 0.0
