MLagents/results/hb_08/Mario/Mario-499530.onnx (onnx, 352528 bytes, 16 tensors)

122 f4 [69]
000000 68 73 b9 3a 68 73 b9 3a e5 21 03 3b e5 21 03 3b
       0.0014148774 0.0014148774 0.0020009216 0.0020009216
000010 03 c2 af 3e 0b c1 28 3c 68 73 b9 3a 68 73 b9 3a
       0.34327707 0.010299931 0.0014148774 0.0014148774
000020 03 c2 af 3e 0b c1 28 3c 68 73 b9 3a 68 73 b9 3a
       0.34327707 0.010299931 0.0014148774 0.0014148774
000030 c0 f5 b1 3e fb 38 00 3d 68 73 b9 3a 68 73 b9 3a
       0.34757805 0.03130434 0.0014148774 0.0014148774
000040 ca ff b1 3e fb 38 00 3d 68 73 b9 3a 68 73 b9 3a
       0.34765464 0.03130434 0.0014148774 0.0014148774
000050 df a0 b8 3e 9f 05 43 3d 68 73 b9 3a 68 73 b9 3a
       0.36060235 0.047612783 0.0014148774 0.0014148774
000060 0d 2d b9 3e ab ef 42 3d 68 73 b9 3a 68 73 b9 3a
       0.36167184 0.047591846 0.0014148774 0.0014148774
000070 29 42 c0 3e 32 a8 6b 3d 68 73 b9 3a 68 73 b9 3a
       0.37550476 0.05753345 0.0014148774 0.0014148774
000080 56 77 c6 3e c9 6c 72 3d 68 73 b9 3a 68 73 b9 3a
       0.3876292 0.059185777 0.0014148774 0.0014148774
000090 fe 46 cc 3e 6d ba 73 3d 68 73 b9 3a 68 73 b9 3a
       0.39897913 0.05950396 0.0014148774 0.0014148774
0000a0 6d 48 d4 3e a6 c0 83 3d 68 73 b9 3a 68 73 b9 3a
       0.41461506 0.06433229 0.0014148774 0.0014148774
0000b0 cd 66 d7 3e 4a a4 82 3d 68 73 b9 3a 68 73 b9 3a
       0.42070618 0.06378992 0.0014148774 0.0014148774
0000c0 52 2a de 3e 40 86 8c 3d 68 73 b9 3a 68 73 b9 3a
       0.43391663 0.06861544 0.0014148774 0.0014148774
0000d0 8d dd d6 3e 03 ce 88 3d 68 73 b9 3a 68 73 b9 3a
       0.41965905 0.066799186 0.0014148774 0.0014148774
0000e0 b1 33 e0 3e 54 a9 95 3d 68 73 b9 3a 68 73 b9 3a
       0.43789437 0.073076874 0.0014148774 0.0014148774
0000f0 e5 21 03 3b 68 73 b9 3a 68 73 b9 3a ed d6 39 3e
       0.0020009216 0.0014148774 0.0014148774 0.18148394
000100 bf 20 19 3e 68 73 b9 3a 8f d2 03 3b a1 60 33 3c
       0.14953898 0.0014148774 0.0020114516 0.010948331
000110 68 73 b9 3a
       0.0014148774

action_model._discrete_distribution.branches.0.bias f4 [3]
000000 fb e3 de 3c 47 7f 3c bd 25 6e a6 3c
       0.027208319 -0.04601982 0.020316193

action_model._discrete_distribution.branches.0.weight f4 [3, 256]
000000 96 3e 53 3d e4 c8 07 3d 0a b8 a7 bc da b2 19 3d
       0.05157336 0.03315057 -0.020473499 0.03752408
000010 b6 a1 89 bc 88 44 42 3d 46 49 38 3c 88 43 b2 bc
       -0.016800743 0.047428638 0.0112479385 -0.021760717
000020 ae 5a 3a 3c d5 ca da 3c 3b 9b 02 3d f3 6c 12 3b
       0.011374159 0.026708046 0.03188632 0.002234277
000030 1a 10 ea bc e6 ff bb 3c 60 a8 c0 bc 26 7c 13 bd
       -0.028572131 0.02294917 -0.023517787 -0.03600707
000040 c6 53 86 bc 9d 2a bc 3b d5 c4 3f 3d f8 0a 13 bc
       -0.016397368 0.0057423846 0.046818573 -0.008974783
000050 6b dd 01 3d da 8e 71 3c cf 14 3c bd f7 d3 36 3d
       0.0317053 0.014743531 -0.045918282 0.04463574
000060 10 67 69 3d 22 da 7e 3b 79 4f c4 bc 05 c4 d0 bb
       0.056983054 0.0038887342 -0.023963677 -0.0063710236
000070 5f 70 26 bd a0 e5 16 bc 6f ea 91 bc d4 2b df 3b
       -0.04063451 -0.00921002 -0.017811982 0.0068106446
000080 d8 98 be bb fc 0d 0c 3d d3 e4 ee 3a 57 66 83 bc
       -0.0058165602 0.034193024 0.0018226154 -0.01604001
000090 62 99 41 3d 66 3a 00 3d 1c 69 4a bd c3 b3 46 bb
       0.047265418 0.031305693 -0.049416646 -0.0030319549
0000a0 10 1b 46 3c d6 c6 c1 3c 7d c1 9b 3d 5e 5a 33 3d
       0.012091413 0.023654383 0.07605264 0.043787353
0000b0 c2 fd 40 3d 2a cd 10 bc d8 bc b1 3d dc 03 6b bc
       0.047117002 -0.008837977 0.08678597 -0.014344182
0000c0 8f 9f 1a 3c fa 42 b0 3c 76 75 ae 3c ef 37 f1 bc
       0.009437456 0.021516312 0.021296244 -0.029445617
0000d0 88 36 c9 3a 3b 8e 77 bc 3b dc 35 bd 21 6f bb 3b
       0.0015351335 -0.015109594 -0.04439948 0.0057200347
0000e0 25 a7 db 3a c1 be aa 3c 32 95 b7 3c f8 a3 9f bc
       0.0016758187 0.020842912 0.022410009 -0.019487366
0000f0 16 c8 34 bc 9a ab eb b9 99 1c aa 3b 40 86 f3 bc
       -0.011034032 -0.00044950546 0.0051913974 -0.029727101
000100 30 f1 ed 3b 18 99 8c bc 41 81 f3 bb 22 af d8 bc
       0.007261418 -0.017162845 -0.0074311798 -0.026450697
000110 4f b1 79 3c 9b c9 f1 3b b3 15 ab 3a 2e 5e 14 3c
       0.015240028 0.0073787696 0.0013052732 0.009055657
000120 e9 47 32 3b 0b 9f af 3c 8c 55 d7 bc 6f 90 fe 3b
       0.0027203506 0.021438142 -0.02628591 0.0077686827
000130 d0 8f 24 bd 7e 9f ce bc 6b f1 90 bc 73 8a de ba
       -0.040176213 -0.025222536 -0.017693242 -0.0016978517
000140 de c6 23 bc 0a 7a 2d 3c d3 a7 af 3c ef 75 b6 3c
       -0.009996144 0.010588178 0.02144233 0.022273032
000150 a5 ef 91 3c 67 a5 75 3d 4c d7 8c bc 95 6d 38 3c
       0.017814467 0.059972193 -0.017192505 0.011256595
000160 bc 08 7f 3c 6d c7 41 bc 7e 16 90 bc f8 34 89 3b
       0.015566047 -0.011827332 -0.01758885 0.0041872226
000170 23 a2 81 bc 50 47 dc 3c 8f dd 5f 3c f7 ad d2 bc
       -0.015824383 0.026889473 0.0136636635 -0.025717719
000180 7e 6e 40 3c 8e b2 c7 3c c9 cc fa 3c 64 8f 07 3c
       0.011745093 0.024377134 0.030615227 0.008273933
000190 ef 29 89 3c 66 ac 3d bd 1b bc 8f 3d be 6a aa 3c
       0.016743628 -0.04630699 0.070183 0.020802852
0001a0 83 2a 1e bd 8b 41 16 bc 66 11 17 3d 42 d9 96 3c
       -0.03861476 -0.0091709 0.036881827 0.018414143
0001b0 13 e7 1b 3d d5 e7 86 bc 40 05 55 3c f7 73 84 3a
       0.038062166 -0.016467968 0.01300174 0.0010105361
0001c0 6c c7 1d 3d 36 bb 3f 3c ca c3 51 bb ed 6c a9 3c
       0.03852026 0.011702349 -0.0032007569 0.020681823
0001d0 ee a4 77 bc 92 2d cf 3a 73 5d 1a bd c3 c7 e7 3b
       -0.015115006 0.0015806428 -0.037686776 0.007073374
0001e0 8c cb db 3c db 00 04 bc 2b c5 95 3c 19 c6 be bb
       0.026830457 -0.008056845 0.018282494 -0.005821955
0001f0 12 cc 63 3c c3 28 0b 3b ce 7f 2f bb b8 a1 0f bd
       0.013903635 0.0021234013 -0.0026779058 -0.035066336
000200 7c c1 27 3c 22 55 1c 3d 1e 7c 50 3d ea 2e f0 3c
       0.010239001 0.038167126 0.050899617 0.029319245
000210 3b c9 31 3c 58 7b 98 ba e0 19 80 3c 67 3f de b9
       0.0108512 -0.0011633439 0.015637338 -0.00042390378
000220 63 1a 9a ba 3c c9 f0 3c 8d aa 69 3b fd 8b 69 3c
       -0.0011757131 0.029392831 0.0035654635 0.014254567
000230 2c 73 5b 3c 1b 56 05 3d 4c 1f a6 3c 94 30 89 3c
       0.013394158 0.03255282 0.020278595 0.016746797
000240 25 36 d4 3a be 5e 83 3c 48 23 81 3c c3 5f 36 3d
       0.0016190453 0.016036388 0.015763894 0.04452492
000250 4d 19 df bb 8c c1 57 bd 4b b9 f3 bc aa 7d 97 3c
       -0.006808436 -0.052674815 -0.02975144 0.018492538
000260 dd 35 8c 3c f6 1f 2f bc 85 50 44 3c 9c d3 2f 3d
       0.017115528 -0.010688772 0.011982088 0.042926416
000270 86 77 7e bc a6 77 f5 bc 11 93 e9 3b 9e b4 37 bd
       -0.015531426 -0.02996428 0.0071281274 -0.044849984
000280 e1 13 1a 3d 44 f9 5d bc cb 28 1c 3c 62 45 90 bc
       0.037616614 -0.013548199 0.00953121 -0.01761121
000290 45 4e f8 3a 72 48 a1 3c 83 45 38 3b d3 f5 06 bd
       0.0018944225 0.019687865 0.0028117604 -0.03294928
0002a0 90 4b 38 bd 77 2d a2 3c 07 0b cf bb 60 75 1c bc
       -0.044993937 0.01979707 -0.0063184532 -0.009549469
0002b0 1d 40 11 bd 00 4c 51 bd 26 62 94 3c 18 55 47 3d
       -0.035461534 -0.05109787 0.018113207 0.048665136
0002c0 44 3f 47 bd 97 d6 d6 3c 50 7d 35 b9 4e 7f 23 3c
       -0.04864432 0.026225371 -0.00017308188 0.009979082
0002d0 79 b5 86 bc b6 fb 58 3d 0b f0 91 3c a2 e3 ef bc
       -0.016443955 0.052974425 0.017814657 -0.029283348
0002e0 95 48 30 bd 3e 4f f1 3c 31 11 2e 3c 6f d8 1a bd
       -0.04303797 0.029456731 0.010624216 -0.037804063
0002f0 23 2d 91 3c 18 65 07 bc a8 bb 23 bd 8a 00 70 3c
       0.017721718 -0.008263849 -0.039973885 0.014648566
000300 38 bc b5 3b 9e 1f 14 3d 57 85 c0 3c d5 97 94 3d
       0.005546119 0.036162965 0.023501081 0.07255522
000310 da 67 2a 3d bb f1 f8 3c 96 76 88 bc a1 76 36 3d
       0.041602947 0.030388704 -0.016658109 0.044546727
000320 fc 68 5b 3b 46 e2 d3 3c 82 15 14 bc 00 77 52 3c
       0.0033479324 0.025864732 -0.009038331 0.012845755
000330 f9 91 44 3d 70 dd 77 3c 0e 5f 99 3c 7a 6e a3 bb
       0.047990773 0.015128478 0.018722083 -0.004987535
000340 25 29 ef 3b 64 4b d0 3c 4a b9 2f 3d 42 5c c4 bc
       0.007298606 0.025426574 0.042901315 -0.023969773
000350 42 5b b6 3b 20 a3 2f bc 4a 55 35 3d 13 d5 d6 3b
       0.005565078 -0.010720044 0.04427079 0.006556162
000360 4f 9f c6 bc a5 6d aa bc 8b 1e ed bc 5d 1b 85 3d
       -0.024245886 -0.020804236 -0.028945228 0.0649936
000370 06 ff 0a 3d b8 e4 8e bb 35 a9 23 bc 18 9d 47 3c
       0.033934616 -0.0043607615 -0.009989073 0.01218345
000380 16 2b 23 bc 28 ab 1d bb 5c 5d ac 3c e4 f8 bd 3c
       -0.009959003 -0.0024058316 0.021040611 0.02318997
000390 3d a5 4e 3c 2c 4c a5 bc 8c e6 04 3d e2 a2 06 3d
       0.012612638 -0.020177923 0.03244643 0.03287018
0003a0 90 af 66 3b 83 9f 8d 3d 40 d3 da 3c f6 45 58 3d
       0.0035199858 0.0691519 0.02671206 0.052801095
0003b0 ef f3 c8 3b 2d 67 e0 3b 54 f1 4f 3d e3 59 57 3c
       0.006132595 0.006848237 0.050767258 0.013143989
0003c0 92 11 5f 3b b6 88 0c 3d 70 5b 59 3d c3 21 32 3c
       0.0034037572 0.034310065 0.053065717 0.010872307
0003d0 e6 44 72 bc 87 82 23 bc 4b bd 91 3b 00 94 3f 3a
       -0.0147869345 -0.009979851 0.0044476143 0.00073081255
0003e0 54 96 0e 3d 9a b0 64 3c 9c e3 82 bc 43 c8 3a 3c
       0.034811333 0.013958121 -0.015977673 0.011400285
0003f0 3c de 45 3d 66 18 53 bb 0d a2 f6 3b 42 19 53 3d
       0.048307642 -0.0032210588 0.007526642 0.05153776

action_model._discrete_distribution.branches.1.bias f4 [2]
000000 ec a9 d3 3c f1 a9 d3 bc
       0.025837861 -0.02583787

action_model._discrete_distribution.branches.1.weight f4 [2, 256]
000000 f2 27 02 bd ce 13 b0 3b 49 43 1b bd cc 6d 62 3c
       -0.031776376 0.0053734547 -0.037905965 0.013820123
000010 a1 6e 9a 3c 2f 06 68 bc 37 36 c9 bc 44 6e b7 3c
       0.01885158 -0.0141616305 -0.024561984 0.022391446
000020 c6 87 85 bc fc ec 93 bc eb f7 16 3c 51 5a 0d 3d
       -0.016300093 -0.018057339 0.009214382 0.03450996
000030 8f df 9d bc 65 1f 14 bd bc f0 87 bc a1 6a 1f 3d
       -0.01927164 -0.036162753 -0.016594283 0.03892005
000040 da 75 86 bc 2c 4c f3 bb c8 03 a4 3c 2a 48 48 3b
       -0.016413618 -0.007424852 0.020021334 0.0030560591
000050 2e e8 11 3d cc 97 4a 3c 0c cf 98 bb 37 d7 fc bc
       0.035621814 0.012365293 -0.004663354 -0.030864341
000060 45 96 95 3c 83 99 06 bd 7f 48 ab bc c1 6f e2 3c
       0.01826013 -0.032861244 -0.020908592 0.027641179
000070 6a 03 86 3c 6f 08 8b bb 0f d1 d9 bb e4 03 8f 3c
       0.01635905 -0.0042429487 -0.006647236 0.01745791
000080 43 62 1c 3c 96 27 43 3c bd 2e 9f bc 05 49 6f bc
       0.009544912 0.0119112935 -0.019431466 -0.014604812
000090 cc 02 74 ba 4d cf 9a 3d f8 42 51 3c df a0 99 3c
       -0.0009308278 0.07559071 0.012772314 0.018753467
0000a0 37 68 a6 b9 5c 60 66 39 b3 b3 9c bb 6a 26 5f 3d
       -0.00031739633 0.00021970406 -0.004782164 0.054479994
0000b0 7f 36 a6 3d a1 36 44 bc 15 19 28 3d 64 c3 7c 3c
       0.08115863 -0.011975915 0.041039545 0.015427444
0000c0 84 e6 86 bc 15 60 66 3d 84 8f ab bc ce 36 4e 3b
       -0.01646734 0.056243975 -0.020942457 0.0031465772
0000d0 a5 9e a9 3c 67 aa 44 bc a6 7a 11 bc d3 84 18 bc
       0.02070553 -0.012003518 -0.008879339 -0.0093090115
0000e0 4d f8 8e bc 0c a5 62 bb 9e 46 34 bc 8f b6 7c 3c
       -0.017452383 -0.003458324 -0.011003165 0.015424385
0000f0 50 8f b4 bc 7d ad 9b bc 92 19 91 bb 85 d6 cc bc
       -0.022040993 -0.019003624 -0.004428097 -0.025004635
000100 32 75 6a bc 76 b8 62 3c 35 a3 73 bc f7 7e 91 bc
       -0.014310168 0.013837924 -0.014870455 -0.017760737
000110 b0 3a 64 bc 7c e7 74 bc 4c 27 c8 3b c0 64 e5 3c
       -0.013930008 -0.014947768 0.0061082 0.028002143
000120 9e 6f 6f bc f0 db c9 bc c2 52 75 bc db b9 bb bc
       -0.014614014 -0.024641007 -0.014973344 -0.022915771
000130 0d 3f fa 3b 1d 26 0b 3c 4e 5a 82 bc e7 fd f4 bc
       0.007636911 0.008492974 -0.015912201 -0.029906226
000140 a8 03 c9 3b 26 bd 8d bc ae f1 3d 3c 6e 83 27 3d
       0.006134469 -0.017302107 0.011593265 0.040896825
000150 80 2f 16 3c 21 c1 0b bd 28 30 eb bb 9a 86 03 3c
       0.009166598 -0.03411973 -0.0071773715 0.008027697
000160 7e 91 bd 3c 93 26 e4 bc 38 a2 01 bd 26 bd 67 3c
       0.023140665 -0.027850425 -0.031648844 0.014144218
000170 05 bc 47 bd ca 50 d7 3c b2 a8 32 bc 59 08 65 3d
       -0.048763294 0.02628364 -0.010904478 0.055916164
000180 8b 6b 1e 3d 74 47 4b 3d 5c 8e 2a 3d 72 ee a0 bb
       0.03867678 0.04962869 0.04163967 -0.0049112374
000190 f0 a9 ed 3b 6c 2d e2 3c 2e 84 22 3d be a5 50 bc
       0.007252924 0.02760955 0.039676838 -0.0127348285
0001a0 9a c9 f5 3b a1 e9 7d bc b3 80 1b 3c 5c fb a1 3b
       0.0075008394 -0.015497596 0.0094911335 0.0049432945
0001b0 b4 26 54 bc 82 02 60 bd 69 2c c3 3b e6 04 bc bc
       -0.012948681 -0.05468989 0.005956222 -0.022951555
0001c0 fe e6 25 3c a7 c9 18 bb 42 ab 6a 3a ab 7a b9 3c
       0.010125874 -0.0023313554 0.0008951911 0.0226415
0001d0 0d 13 57 bc bf 38 38 3a 67 90 c5 bb fe 59 86 3b
       -0.013127101 0.0007027499 -0.006029177 0.0041000834
0001e0 16 9c c1 3c 40 0d 8d bc 2c ff d1 bb 1d 21 34 3d
       0.023633998 -0.017218232 -0.0064085927 0.04397689
0001f0 49 b3 0b 3d 3c 79 61 3c 81 51 de bc d2 fc 31 3c
       0.034106527 0.013761815 -0.027138473 0.0108635
000200 b3 e7 b5 3c a6 7a bc bc 93 5d 0d bb d7 46 0b 3d
       0.02220521 -0.023007702 -0.0021570667 0.034003105
000210 c5 ba 1c bd c2 3b 3d 3d e5 50 1b bc 68 f9 7f bb
       -0.038264055 0.046199568 -0.009479736 -0.003905857
000220 ab 46 c0 bc a4 2f a1 3c cf 49 66 3a 34 0a f9 bb
       -0.023471197 0.019676037 0.0008784802 -0.0076000933
000230 6a ff e2 bc 3b f6 28 3d cc 0c ba 3b 5e 4f dd bc
       -0.027709682 0.04125045 0.005677795 -0.027015384
000240 37 37 80 3c 5d 81 c1 3c 79 58 20 3d 6d 44 15 3c
       0.015651328 0.023621256 0.039146874 0.009110552
000250 0f f2 39 3c 42 b1 07 bd 65 f3 cf 3c 8c e3 d9 bb
       0.011349215 -0.03312803 0.025384614 -0.00664944
000260 e5 31 5f 3d 54 58 09 bd 01 08 14 bd 66 67 00 bd
       0.054490943 -0.033531502 -0.036140446 -0.03134861
000270 01 f8 9e 3c e8 03 13 bc db 0f f9 3b 05 53 88 3c
       0.019405367 -0.008973099 0.007600767 0.01664115
000280 14 52 5f 3c 78 8f 8b bc 5a cd 12 bc 7c 81 98 3b
       0.013630409 -0.017036185 -0.008960092 0.0046541076
000290 8d 11 a1 3c 67 e3 9c 3d b0 f5 09 bc b6 f9 89 bd
       0.01966169 0.07660561 -0.008420393 -0.06737082
0002a0 91 f4 39 bd fd 96 25 3b 8e 4b 1d bd 00 d5 8d 3b
       -0.045399252 0.0025266998 -0.038402133 0.00432837
0002b0 05 1d af 3c a8 1a 79 3d d4 86 d6 bc ca 76 34 3d
       0.021376142 0.060816437 -0.026187338 0.0440586
0002c0 8e c3 a4 bc 42 8b 49 3d d0 06 22 3d ef 01 93 3a
       -0.020112779 0.049205072 0.03955728 0.0011215786
0002d0 64 73 62 bd eb 9d e1 3c e5 0f 52 3c a0 69 4c 3c
       -0.055285826 0.027541121 0.012821172 0.012476355
0002e0 0b 41 35 bc 31 23 5d 3a 55 11 5a 3c 9d fb ce 3c
       -0.011062871 0.0008435725 0.013309796 0.025266463
0002f0 2e ea ca 3c 36 e3 13 3d 20 06 17 3d d2 6d 8f bc
       0.024769869 0.036105357 0.036871076 -0.017508421
000300 ce 01 2f bd d4 20 c2 bc 4d a4 80 bc 17 9e 54 3d
       -0.04272633 -0.023697294 -0.015703345 0.05190858
000310 09 b0 61 3c 52 e0 28 bc c4 ac d8 3c e4 a8 5e bd
       0.01377488 -0.010307388 0.026449569 -0.054360285
000320 31 1c f7 bc 47 2e 03 3d c9 8d 2d 3c ca ba 83 3c
       -0.03016481 0.032026555 0.010592886 0.016080279
000330 e8 96 72 bc 4c 54 8f 3c 7c c0 83 3c b4 ab f2 3c
       -0.014806487 0.01749625 0.016082995 0.02962289
000340 21 9f d3 3c 96 cf b4 3c 48 62 24 bb ac a0 9f 3c
       0.025832715 0.022071641 -0.0025082994 0.019485794
000350 f6 da 10 3c 8b 99 11 3d 2a fe 9d bc 1f a9 89 bc
       0.008841267 0.03554682 -0.019286234 -0.016804276
000360 cd b5 f8 bc a7 d4 04 bd 29 79 11 bb 07 98 bd ba
       -0.030360127 -0.032429364 -0.0022197461 -0.0014464863
000370 af 34 f1 bc 5e d3 16 3d 33 7e dd 3c ae dc 86 bc
       -0.029444067 0.03682267 0.027037716 -0.01646265
000380 fc 0f e5 3c 43 80 19 3d c6 24 69 3c fb 24 1d bd
       0.027961724 0.037475836 0.014229959 -0.038365345
000390 b5 ba 78 bb 43 ed 11 3c a4 15 89 3c bf 48 47 3d
       -0.0037953083 0.008906665 0.016733952 0.04865336
0003a0 44 42 cb 38 7e 27 c4 bc 50 25 c3 3c ed bc 19 bc
       9.692137e-05 -0.023944613 0.023821503 -0.009383422
0003b0 ab e0 8c bc 15 21 c6 bc dc 53 18 3d 7f 16 3a bb
       -0.017196974 -0.024185697 0.03718935 -0.0028394756
0003c0 a7 23 6d 3b 43 a1 92 bc 3a 2f 7d 3b ff f2 b0 bc
       0.003618458 -0.017899161 0.0038632886 -0.021600245
0003d0 4f 59 67 bc c0 e0 19 3c f3 eb 15 3c 4b 1e 59 bc
       -0.014120414 0.0093919635 0.009150493 -0.013251851
0003e0 55 99 f1 bc 9c 0e 18 3b c7 04 68 bc c1 99 ea bc
       -0.02949206 0.0023202067 -0.014161295 -0.028637769
0003f0 b3 e9 1b bd 0b c5 c7 bc 31 bc db 3b ba 89 b3 3c
       -0.03806467 -0.02438595 0.006705784 0.02191626

action_model._discrete_distribution.branches.2.bias f4 [2]
000000 ba b8 90 bd bf b8 90 3d
       -0.07066484 0.070664875

action_model._discrete_distribution.branches.2.weight f4 [2, 256]
000000 b5 eb 5f bc 8d 1e f9 3b b8 80 b4 3c 81 ee a2 bc
       -0.013667037 0.007602519 0.022034034 -0.019889118
000010 fa 37 43 bd 94 74 1c bd 31 37 be 3c db 21 f3 3c
       -0.047660805 -0.038197115 0.023219677 0.02967923
000020 a3 4d b0 3c 96 28 01 bc f3 f1 ea 3b d6 ed 0e 3d
       0.021521395 -0.007883212 0.007169956 0.034894787
000030 ba d9 73 3c 39 3e a5 bc 47 83 88 bc 1a c2 17 3c
       0.014883453 -0.020171272 -0.01666416 0.009262586
000040 ad dd 79 3c aa 4d 06 3c 59 53 c9 bc 43 fb d3 bb
       0.0152506055 0.0081972275 -0.024575876 -0.0064691617
000050 3b 41 97 3c 03 9d a4 bc 44 e3 5e 3a 02 88 03 bd
       0.018463721 -0.0200944 0.0008502493 -0.03211213
000060 4d 4e 85 bc 18 a7 4b 3b 94 ab ea 3c 45 d1 1d 3d
       -0.016272688 0.0031074937 0.028646268 0.038529653
000070 27 d9 0e 3d 70 0e e0 3c 99 f6 37 bc 7c 48 29 3c
       0.03487506 0.027350634 -0.011228227 0.010332223
000080 fb c7 0f 3d bb 4b aa bb 3a 19 15 3c e2 e0 9e 3c
       0.035102826 -0.005197016 0.009100253 0.019394342
000090 ae 4c 07 3a 14 c2 7b bc 56 48 0b bb f6 8e 13 bb
       0.00051612675 -0.015366096 -0.0021252832 -0.0022515631
0000a0 32 70 3b 3d bd 57 ed bc 6f bf 5e bc dc 55 ad 3c
       0.045761295 -0.028972501 -0.013595446 0.021159105
0000b0 f5 4f fe bc 24 02 21 bd 9f 6a de bc 37 48 ee bc
       -0.031043986 -0.039308682 -0.02715045 -0.02908717
0000c0 3d 7f ac 3c 2a b5 5c bc 8c e2 76 3c b7 8b 0c b9
       0.021056766 -0.013470927 0.015068661 -0.00013403488
0000d0 36 88 fe bb f7 b5 48 3c 79 d9 c5 3b 4d c5 f9 bb
       -0.0077677025 0.012250415 0.0060378877 -0.007622397
0000e0 90 f7 17 bc 9b 94 07 3d 82 15 cf 3c 13 db 27 3d
       -0.009275332 0.033100706 0.02527881 0.04098041
0000f0 81 80 55 bc d7 b3 01 3d d7 e8 94 3c c4 13 dd 3c
       -0.013031126 0.03166565 0.018177433 0.026986964
000100 74 9e c1 3c e0 b6 5b 3d a2 c7 9c bb 15 8b 84 3d
       0.023635127 0.0536412 -0.0047845403 0.0647184
000110 4e 53 70 bb 9f b4 19 bb 8a 7a dc 3c a7 40 90 bb
       -0.0036670747 -0.0023453606 0.0269139 -0.0044022384
000120 1d 6b 75 3d 27 b0 38 bd f6 b7 07 bb 74 84 3d bc
       0.059916604 -0.045089867 -0.0020709014 -0.011567224
000130 83 d7 67 3d a1 23 1d 3d 92 2e e8 3b 39 65 4d bc
       0.056602012 0.038364056 0.0070856297 -0.01253634
000140 31 0a cf 3c 46 c8 09 bd 1d 03 89 3b f1 ea 8d 3b
       0.025273414 -0.03363826 0.0041812793 0.0043309857
000150 9c 32 69 bc 48 41 64 3c 86 88 b5 3b a1 17 a2 bc
       -0.014233258 0.01393158 0.0055399565 -0.019786658
000160 8a 21 f8 bc bc 0f 8a bc 93 11 df bc 77 a3 42 bd
       -0.03028943 -0.016853206 -0.02723006 -0.047519173
000170 5b 12 af b9 2d d4 6e bd 55 72 8b bc 3b ba 75 3d
       -0.00033392277 -0.058307815 -0.017022291 0.059992056
000180 af 48 00 3d ac 73 cd b9 95 7c da 3c fa c2 64 3b
       0.031319316 -0.0003918683 0.026670733 0.0034906254
000190 54 49 3e bb af 75 17 3d 0c 8b fa bc 5e d6 ee bc
       -0.0029035406 0.036977466 -0.03058388 -0.029154953
0001a0 2c 09 03 bd 08 c8 80 3c 96 76 24 bc 65 e5 75 bc
       -0.03199117 0.015720382 -0.010038039 -0.015008305
0001b0 fd b2 ef 3a 51 c4 bb 3c 6e e6 0d bb 1c 20 d3 3c
       0.0018287596 0.02292076 -0.002165224 0.025772147
0001c0 dc a2 e9 bc 23 b3 ff 3b 75 6b 9a bb 10 a6 7d 3d
       -0.02852004 0.007803337 -0.004712517 0.061925948
0001d0 5e 30 d2 3c 9d e4 9c bc 86 b1 91 3c 6f 48 48 3c
       0.025657829 -0.01915198 0.017784845 0.012224301
0001e0 55 51 ab 3b 64 e2 ed 3a 2d ca 0a bd b6 c0 14 3d
       0.0052282014 0.0018149135 -0.033884216 0.036316596
0001f0 24 c2 0d 3d 54 4c 05 bd a1 c7 75 3b 19 3b 84 bc
       0.034608975 -0.032543495 0.0037503021 -0.016141461
000200 fe 6c 01 bc 06 42 eb 3c 35 b9 2b bd 74 cb 23 bc
       -0.007899521 0.028718006 -0.041924674 -0.0099972375
000210 d3 1b 6a 3c 0a ce 2a 3d 9d e2 3a bc df a1 30 3d
       0.01428886 0.0417004 -0.011406568 0.043123122
000220 01 82 06 bd c1 64 2b bb 48 fd 94 3d 22 66 38 bb
       -0.032838825 -0.0026152583 0.07274872 -0.0028137048
000230 b5 92 e8 bb a2 94 0c 3d 49 10 85 bc ca 21 85 3c
       -0.007097567 0.034321435 -0.016243117 0.016251463
000240 30 25 4c bc b5 b4 de bc e8 fb 98 bb ef 00 dc bc
       -0.012460038 -0.027185777 -0.0046687014 -0.026855914
000250 41 b8 52 3b 38 cf bd bc 3f 18 28 bd 1d 02 20 bd
       0.003215328 -0.023170099 -0.041038748 -0.039064515
000260 74 9a c3 bb 26 12 93 3c 90 00 59 b9 19 29 71 bc
       -0.00596934 0.01795299 -0.00020694942 -0.014719271
000270 74 06 22 3c 9e 53 63 3d e4 c5 6c bd 3d 31 40 3b
       0.009889234 0.055499665 -0.05780591 0.0029326223
000280 29 5b de bb 84 02 25 3b 1e 1b a2 3c 20 7d 20 3c
       -0.0067857695 0.0025178501 0.019788321 0.009795457
000290 c3 26 22 3d db 92 44 bc 19 a6 ab bc 2f 94 26 bc
       0.039587747 -0.011997904 -0.020953225 -0.010167166
0002a0 59 2f 4a bc ab ae a8 bc b6 2b bf 3a bf 0d a3 3c
       -0.01234039 -0.0205911 0.001458517 0.019904016
0002b0 ca 29 38 3d ad 72 c3 3c 82 41 3b bd 65 5c 9c 3c
       0.04496173 0.023858393 -0.04571677 0.019087026
0002c0 1c 84 48 bc 6e f4 a5 bc 5d 3d 1d bd 2a 06 a8 bc
       -0.012238529 -0.020258155 -0.0383886 -0.020510752
0002d0 32 ed 89 bc 4b 00 e2 3c a1 95 61 3d b5 5f 90 bc
       -0.016836736 0.02758803 0.055074338 -0.017623762
0002e0 19 cf dc ba ec dd 40 3c 04 33 af bc 91 1b ad bc
       -0.0016846388 0.01177166 -0.02138663 -0.021131309
0002f0 c0 73 e0 bb 99 a7 d2 3b bb 13 0b 3d a4 8a 21 3c
       -0.006849736 0.0064286706 0.033954363 0.009859715
000300 e5 3d 35 3b 8d 4a 1b bd ad e9 0e 3d cf ae 36 3c
       0.00276553 -0.037912894 0.03489082 0.011150076
000310 ea cb 47 bc 83 42 18 bd 8a d7 5a bb 77 b5 4d bc
       -0.012194613 -0.037172806 -0.0033392631 -0.012555472
000320 92 0a dc bc ff dc de bc dc ee 7b 3b 36 ef d4 3b
       -0.026860509 -0.027204989 0.0038441932 0.0064982427
000330 5b fc 80 bd cf e8 dd 3c 22 bd 03 3d c4 51 06 3d
       -0.06298133 0.02708855 0.032162793 0.03279282
000340 d7 d9 31 bd 50 f1 a9 3c 5e aa 13 bd 2b 1a b1 3b
       -0.04342064 0.02074495 -0.036051147 0.005404731
000350 ac 73 01 ba d7 f4 0c bd e2 f3 cb 3b 6e 81 24 bd
       -0.0004938196 -0.034413185 0.0062241415 -0.040162496
000360 f1 39 fb 3c 27 4b 99 bd 74 f6 31 3c 36 b8 a8 bc
       0.030667277 -0.07485037 0.010861982 -0.020595651
000370 4a 80 b4 bc 09 b6 79 ba 53 a5 70 3c f8 f0 91 3c
       -0.02203383 -0.00095257215 0.014687854 0.017815098
000380 a6 6d 9c 3c 47 d6 2e 3d 77 a2 b7 3c e7 8d c9 bc
       0.019095253 0.04268482 0.022416336 -0.024603797
000390 63 2a 0e 3d 70 4e d3 bc 9b d8 4d bc 6f 8c 10 bd
       0.034708392 -0.025794238 -0.01256385 -0.035290178
0003a0 86 f2 46 3d 45 6a 0e bc 0b 52 05 3d c7 b8 05 bd
       0.048571132 -0.008692329 0.032548945 -0.03264692
0003b0 19 4f 2a bc e6 19 18 bd 25 e7 58 ba c2 71 a2 3c
       -0.010394835 -0.037134074 -0.00082741893 0.019829635
0003c0 ef 46 22 bd 59 5f a4 3b b5 0c 6a 3c 78 7c 2e 3d
       -0.03961843 0.005016249 0.014285256 0.04259917
0003d0 93 c0 09 bc 83 ea 98 bc 8f a4 25 bd df 16 0a 3c
       -0.00840773 -0.018666511 -0.04044014 0.008428304
0003e0 a5 f1 61 bc 5d c2 20 bd ae 4c 84 3d f8 32 aa 3b
       -0.013790523 -0.03924786 0.06459938 0.005194064
0003f0 9d cd b4 bc e9 f0 d0 bc 8a a7 88 bc 6c f9 35 bc
       -0.0220707 -0.0255055 -0.016681451 -0.01110683

action_model._discrete_distribution.branches.3.bias f4 [2]
000000 44 a8 31 bc 43 a8 31 3c
       -0.01084334 0.010843339

action_model._discrete_distribution.branches.3.weight f4 [2, 256]
000000 e0 9e 4a bc 24 04 f3 ba 30 9a c1 bc e3 17 0f 3b
       -0.01236698 -0.0018540663 -0.023633093 0.0021834306
000010 c5 9d 04 3d 86 fe bf 3b 48 5a 2c 3d 42 25 97 ba
       0.032377023 0.005859199 0.042078286 -0.001153149
000020 7e e5 4e 3a 51 d3 93 3b b4 96 c0 3c aa 78 a9 3b
       0.00078924734 0.004511275 0.02350936 0.005171855
000030 0c 1b 00 3c fa f7 bd 3c 5d 17 7c 3d ff 24 75 bc
       0.0078189485 0.023189534 0.06154572 -0.014962434
000040 b4 82 db 3c 90 27 7c bc cd e2 7e 3c dd 3d f7 3c
       0.026795723 -0.015390292 0.015557003 0.030180866
000050 43 5d de 3c 90 5e d9 3c 66 46 81 bc c6 04 f5 3c
       0.02714408 0.026534349 -0.015780639 0.029909503
000060 00 d5 3c 3c bd 3b 98 bb 22 b9 12 bd 0a 01 81 bb
       0.0115253925 -0.0046457932 -0.035821088 -0.0039368914
000070 fc 2b ba b8 ae 9b 28 bb c9 e1 16 bc 6b f7 0b 3c
       -8.877364e-05 -0.0025727558 -0.009209105 0.008542876
000080 97 55 aa bb 97 fa 90 3c 31 2c 77 3c f6 5e b2 3b
       -0.0051981914 0.017697616 0.01508622 0.005443449
000090 92 ae ad 3c 52 cf 20 bb 7a de f9 3c 14 69 a5 bc
       0.021201406 -0.0024537635 0.030501593 -0.020191707
0000a0 fc d8 06 3b bb 16 0f bc 84 ac 85 3b af d8 2a 3c
       0.002057611 -0.008733447 0.0040794034 0.010427638
0000b0 1d 5d 1f 3c 64 7f 24 bd 7a fe 84 bc ea 31 61 bc
       0.00972679 -0.04016055 -0.016234625 -0.013744811
0000c0 e3 b7 2b 3c 99 fb 13 3b d1 06 0e bc c3 c0 3e 3b
       0.010480854 0.0022580384 -0.008668617 0.0029106594
0000d0 5d 01 4a bc 21 79 e9 bc 2c 81 6e 3c 48 4d 0f 3c
       -0.012329427 -0.028500142 0.014557164 0.008746453
0000e0 3f 05 3f 3b dc 82 fb 3b f3 0a a9 3c b8 e8 3c bc
       0.0029147414 0.0076755118 0.020635104 -0.011530094
0000f0 92 84 11 3d 05 ee 55 3c 42 a7 e7 bb a7 95 c2 3b
       0.03552682 0.013057237 -0.007069499 0.00593825
000100 fa 3d 14 bb 20 f2 00 bd 60 23 b3 bb 90 00 95 3c
       -0.0022619949 -0.03148091 -0.0054668635 0.018188745
000110 12 cf e9 3c 55 a5 7c 3b 5e 49 f6 3c 71 b6 43 3d
       0.028541122 0.0038550694 0.030064281 0.04778141
000120 34 76 6e 3c e1 37 95 3c 6d 96 36 3c bf bb 07 3c
       0.014554549 0.018215122 0.011144263 0.008284508
000130 95 27 95 3b be 3a 3f bc b8 81 8a 3c 08 42 af bc
       0.0045518377 -0.01167172 0.016907558 -0.02139379
000140 13 f2 ef ba 9e a6 df 3c f2 a5 5a 3c 85 88 a0 3c
       -0.0018306397 0.027301129 0.0133452285 0.019596348
000150 31 22 6a 3d 27 0a b5 ba 13 b1 93 bc e4 10 c4 3b
       0.057161514 -0.001381223 -0.018028772 0.005983459
000160 bc fe 8c ba 6a 46 cb 3b f0 d4 2f bd 52 10 08 ba
       -0.0010757069 0.0062034624 -0.042927682 -0.000519042
000170 fd c2 9e bc c6 e1 a0 bb e5 d2 e4 3c cb 0b c0 bc
       -0.019380087 -0.004909727 0.027932594 -0.023443123
000180 0d d6 6a 3b a1 bf 94 bc d4 5d b1 b9 7e 36 34 3d
       0.003583315 -0.018157782 -0.00033829978 0.04399728
000190 68 21 8e bc a1 1c 2f bc 59 7b aa ba c4 cc 34 bc
       -0.017349914 -0.010687978 -0.0013006731 -0.011035148
0001a0 79 a0 15 bd ba 2f c0 bb b2 d8 1b bd 74 9e e2 bb
       -0.03652999 -0.0058650644 -0.038048454 -0.0069158617
0001b0 a4 84 31 3c b6 c4 d6 bc d9 40 b9 bb 79 d2 d6 3a
       0.010834847 -0.026216846 -0.0056534824 0.001638963
0001c0 27 6d 50 3b 1f 6c 07 bc 89 86 3b bc af f9 bf bc
       0.003180334 -0.008265524 -0.01144565 -0.023434488
0001d0 ef e1 32 bc bc 88 c0 3c d1 6f 1a bc 58 71 e7 3c
       -0.010918125 0.0235027 -0.009426073 0.028252289
0001e0 f1 d3 5d bb 67 85 27 bd 22 99 ab 39 0d 95 02 bc
       -0.003384825 -0.040898707 0.00032729754 -0.007970107
0001f0 a9 d0 7f bc d3 69 ed 3a 83 c6 1f 3c e0 f8 29 bc
       -0.015613713 0.0018113203 0.009751919 -0.010374278
000200 26 25 02 3b dd 88 c4 3a 9b be 14 ba 2c 0c 98 bc
       0.0019858568 0.0014994402 -0.00056741544 -0.018560492
000210 24 41 ee bc 54 74 64 3c 43 0c eb 3c 62 fe 00 bc
       -0.029083796 0.01394375 0.02869237 -0.00787315
000220 2c 9e ce bb ab 8e 92 3c 91 9a 86 bb ed 97 e9 3c
       -0.0063054767 0.017890295 -0.004107781 0.028514827
000230 8e f6 b1 3c 48 c6 89 3c 1e f4 a9 bc 37 69 55 bc
       0.021724012 0.01681818 -0.020746287 -0.013025573
000240 20 1f b8 bc 50 f6 e1 3b 6d 3f db 3a 31 20 70 3c
       -0.022475779 0.006895818 0.0016727276 0.0146561125
000250 af 38 48 bc 3b b0 62 3a 60 3f 0f bd 59 2e 02 bd
       -0.012220546 0.0008647476 -0.03497255 -0.03178248
000260 11 91 52 bd 49 49 75 3c e2 d5 93 3c 3f 98 6b 3c
       -0.051407877 0.014971086 0.018046323 0.01437956
000270 ca 52 3e 3b 20 04 95 bc 5c 38 ad bb 2a 44 1a 3d
       0.0029041045 -0.018190444 -0.0052862596 0.037662663
000280 6a b2 bd bc 50 77 df 3c b1 6b 45 3c a7 fe d0 bc
       -0.023156364 0.027278572 0.012049601 -0.025512053
000290 c7 00 3c 3c a8 73 1d 3c 35 40 da 3c 29 5a 8f bc
       0.011474795 0.009610094 0.026641944 -0.017499046
0002a0 4e 15 58 bb 58 8c 72 bc 18 cc 13 3c 78 c4 78 bc
       -0.0032971683 -0.014803968 0.009020828 -0.015183561
0002b0 56 f9 03 bc 52 f5 de 3c e7 8a bc bc 6c 9a 9d 3a
       -0.008055052 0.027216587 -0.023015453 0.0012024171
0002c0 f5 ae 91 bc 3e bb 72 3c 33 a4 84 3a 9c 92 8c bb
       -0.017783621 0.01481515 0.0010119736 -0.004289938
0002d0 ff 9b 02 3c 96 7b de 3b 78 3f 85 3c 29 a0 ac bc
       0.007971763 0.006789635 0.016265616 -0.021072464
0002e0 ce c6 b2 ba 69 b1 3a 3c 8c e3 6f bc 9a 0d bc 3b
       -0.0013639571 0.011394837 -0.014641654 0.005738926
0002f0 00 99 c4 39 1e d2 ec bc be 34 81 3c 3e d9 04 bd
       0.00037498027 -0.028908785 0.01577222 -0.03243374
000300 b1 d5 d7 bc 0e b6 ff bb c0 12 ed 3c a3 6e f7 3c
       -0.026347013 -0.007803685 0.028939605 0.030204123
000310 65 48 de 3c c0 18 9e 3c f5 65 40 bc 99 fa 61 3b
       0.02713413 0.019298911 -0.011743058 0.0034481643
000320 3e c3 cd 3c af 7f 88 3c 38 bd 84 3c d4 d5 fc bc
       0.025117513 0.016662447 0.016203508 -0.03086368
000330 e5 9e 0f 3c 1b 70 26 3c 07 4c e0 bb ea 76 1e bb
       0.008765911 0.010158564 -0.0068450007 -0.0024179765
000340 4d e5 96 bb 43 3d 47 3b 9c 3a e6 3c 35 e2 c3 bb
       -0.0046049715 0.0030401505 0.028104119 -0.0059778937
000350 28 e7 fc 3c 6f 80 1a bc 93 e4 f8 3b a4 22 49 3c
       0.030871943 -0.009430035 0.0075956075 0.012276325
000360 d4 e0 de bb ad 86 4b bd 37 51 2b 3c db 9a 8f bc
       -0.006801704 -0.049688984 0.010456375 -0.017529896
000370 b2 16 6a 3c fa f0 9e bc 36 9d 0f 3b 22 95 b2 3b
       0.014287638 -0.019402016 0.0021913773 0.005449907
000380 d3 cb 59 3c e5 a5 c2 bc df 0b e8 bc d3 ce 8a 3c
       0.013293224 -0.023760745 -0.028325973 0.016944325
000390 7f 2f 7f bc dd 62 fc bb 3e 36 cd 3b 4c ec d4 ba
       -0.015575289 -0.007702215 0.0062625697 -0.0016244738
0003a0 bf be 35 3c 5a 49 d2 3c 6d 49 47 3b 49 35 92 bc
       0.011092841 0.025669742 0.0030408755 -0.017847674
0003b0 f2 75 2a 3c 14 74 b5 3c 22 a2 81 bb bf 4d bf bb
       0.010404097 0.022150077 -0.0039560953 -0.0058381255
0003c0 0e 5b 2c bc aa 7a 90 3a 2a 0f ab 3c d1 81 b0 bb
       -0.010519756 0.0011022885 0.020881254 -0.005386569
0003d0 96 4a 30 3b 8b a2 a1 bc 73 d2 e1 3a b6 ac 13 bd
       0.0026899925 -0.019730827 0.0017228856 -0.03605338
0003e0 69 6d a1 3c 4e 93 4f 3c 5a 87 2a bb b8 db 00 bc
       0.019705491 0.0126693975 -0.0026020617 -0.007864885
0003f0 2a f4 c2 3c 90 32 e0 3c 63 33 1c bb 84 0a 79 3c
       0.023798067 0.02736786 -0.002383434 0.015200261

action_model._discrete_distribution.branches.4.bias f4 [2]
000000 2d 3a 14 bd 2d 3a 14 3d
       -0.036188293 0.036188293

action_model._discrete_distribution.branches.4.weight f4 [2, 256]
000000 5e 61 3d 3d 2d 61 01 3c f8 b3 f5 bc 8f 9a e5 ba
       0.046235435 0.007896704 -0.029993042 -0.0017517376
000010 7f 72 48 bc f9 6a 31 bc 28 d7 21 bc f1 91 b6 bc
       -0.012234329 -0.010828727 -0.009877957 -0.022286387
000020 7a e8 9b bc df 71 53 bd 1d 34 48 3c 9e fa 05 3d
       -0.019031752 -0.051622268 0.012219456 0.03270971
000030 33 fc c9 3b 80 ac f1 bc ab 92 8d 3c 13 ec 7c bb
       0.0061640977 -0.0295012 0.01728185 -0.003859286
000040 cf 89 1c bd 41 3d fc 3b 8d 02 40 bc d8 90 4a bd
       -0.038217362 0.0076977317 -0.011719358 -0.04945454
000050 04 f5 9b 3c c1 12 9b bc 9e 31 9c bb f7 12 45 bd
       0.019037731 -0.018929841 -0.004766657 -0.04811379
000060 b0 3c d5 bc 23 22 0f bc 42 df 51 3d 3a 7c 96 bc
       -0.026029915 -0.008736166 0.051238306 -0.018369783
000070 9c 3f c7 3c 12 ca de 3c 0b 3f 9d bc 85 db 5e bb
       0.024322324 0.027195964 -0.0191951 -0.0034005356
000080 34 2c 90 bc 43 7a 1a bb 44 36 07 bd 30 6c bc 3b
       -0.017599203 -0.0023571409 -0.033010736 0.0057502016
000090 59 28 31 bc 6b d1 bf bc 61 39 05 bd aa d5 d4 bc
       -0.010812842 -0.023415288 -0.032525424 -0.02598079
0000a0 e2 75 57 bc 40 4e 04 bd 74 e6 02 bd d5 d2 c1 bb
       -0.013150664 -0.032301188 -0.03195806 -0.0059150257
0000b0 b9 b8 30 bd 31 97 8f bc a7 d0 b7 3c 24 15 9a bc
       -0.043144915 -0.017528148 0.02243836 -0.018808909
0000c0 b5 dc e0 bb c0 34 9d bc 4b 2d 2d 3c 13 a2 45 3c
       -0.006862248 -0.019190192 0.010569881 0.012062567
0000d0 6a 9d 1b bd b7 c4 9b bc 67 80 a6 3c c4 32 a6 3b
       -0.03799192 -0.0190147 0.020324899 0.0050719697
0000e0 e4 a4 b6 3c a0 46 80 ba 7f 80 ea bc bb a9 ed bc
       0.022295423 -0.0009786673 -0.028625725 -0.029011598
0000f0 10 23 3b bb 49 65 1a 3d 26 56 fd bc a5 17 27 3d
       -0.0028554834 0.03769425 -0.030924868 0.040794034
000100 c4 2b 05 3c 68 4c 99 bc 84 eb 4a 3d 89 26 6e 3c
       0.00812811 -0.018713191 0.04954101 0.014535555
000110 92 63 f1 bc ef d6 35 bd 29 56 14 bd b0 9a 40 3d
       -0.029466424 -0.04439443 -0.03621498 0.04702252
000120 7d c2 26 3b b8 cd aa 3c f8 63 b4 bb 50 ab 05 bd
       0.0025445514 0.020850047 -0.0055050813 -0.03263408
000130 09 9d a0 3c a4 b0 94 3d 13 af 28 bc ae ef 48 3c
       0.01960613 0.07260254 -0.010295647 0.012264175
000140 60 9a 13 bd 87 b4 91 bc 7d 3c 42 bd d2 f3 a0 3c
       -0.036035895 -0.017786277 -0.047420967 0.019647513
000150 02 66 36 bd 02 bd fb 3a e1 76 02 3d 44 1a 93 3c
       -0.044530876 0.0019206109 0.031851653 0.01795686
000160 26 db 2c bd fb 77 1f bc 52 b5 aa 39 62 7b 97 bc
       -0.042201184 -0.009733195 0.0003256002 -0.01849145
000170 7d 9e 58 3c 55 37 6b bc 55 fa fc bb 8d 16 c7 bc
       0.01322138 -0.014356454 -0.0077202716 -0.024302745
000180 cb 28 6e bd 10 85 c2 bc fd 21 cc 3c c4 0e 72 3b
       -0.058144372 -0.02374509 0.02491855 0.003693507
000190 95 98 90 3a 3e b7 7a bb 4d 3e 1e 3d 88 24 9e bc
       0.0011031801 -0.0038256194 0.038633633 -0.019304529
0001a0 e9 91 13 bc 07 e6 a8 ba d3 8d 97 bc cd f8 67 3c
       -0.009006956 -0.0012885936 -0.018500244 0.01415844
0001b0 1d 85 3d 3c 60 94 3e bd 83 f2 c0 bc df c3 80 bb
       0.011567381 -0.04652822 -0.023553139 -0.0039295997
0001c0 77 66 62 bd 2e b2 0d bd b2 49 01 bd 27 32 7d bc
       -0.0552735 -0.034593754 -0.031564422 -0.015453852
0001d0 76 9b 32 bb 12 16 68 bc 3e 61 9c 3c 5c 42 e1 3c
       -0.0027253306 -0.014165418 0.019089337 0.027497463
0001e0 18 7f b2 bb ca 1e 7d bc 18 88 68 bb 30 de 3d 3c
       -0.0054472797 -0.015449235 -0.0035481509 0.011588618
0001f0 10 37 39 3b e0 62 b9 bc b7 17 cb bb 78 2d e1 bc
       0.002826158 -0.022630155 -0.0061978954 -0.027487502
000200 09 5b 22 bd 28 ce 2f bc ae 67 3b bc e9 7b 75 3c
       -0.0396376 -0.010730304 -0.011438293 0.014983156
000210 44 91 35 bc d3 42 9d bc 3a 4c f3 3a cc 6e 1b 3d
       -0.011081997 -0.019196903 0.0018562146 0.03794746
000220 15 d3 7f bc 62 db 52 3c a6 52 57 bd d6 46 0c bd
       -0.015614291 0.012869688 -0.052569054 -0.034247242
000230 6a dc 88 bc 15 69 b7 3b 15 f5 cd 3c d8 38 b3 3c
       -0.016706664 0.0055972436 0.025141278 0.021877691
000240 0e b6 cb bc 73 10 cd bc e5 98 a2 3c 79 f5 21 3d
       -0.024867084 -0.025032258 0.019848296 0.03954074
000250 14 df 8e bc b2 83 01 3b 60 db b0 bb 1f d8 ab bb
       -0.017440356 0.0019762334 -0.0053972453 -0.0052442695
000260 17 50 9b bc 2c bd 2a 3d dc 1b 1f 3b 8e c9 92 3b
       -0.018959088 0.041684315 0.002427808 0.0044795936
000270 e0 64 e3 bc a9 95 1f 3d ad a5 1d 3d 22 94 68 3b
       -0.027758062 0.038961086 0.03848808 0.0035488685
000280 44 df 6f bc 3d cf e0 bc 76 5a 39 3a 2d b9 c3 bc
       -0.014640633 -0.027442569 0.00070706697 -0.02389201
000290 41 e3 f6 ba 17 43 e5 bb c6 fc f2 bc 60 3a a1 3b
       -0.0018836037 -0.006996523 -0.029661547 0.004920289
0002a0 c5 e2 0c bc 0f b8 f8 3c 14 93 01 ba 58 43 2e 3d
       -0.008598988 0.030361203 -0.0004942876 0.042544693
0002b0 0f 16 a0 3c 78 77 05 3d 0c 30 8f 3c 84 d4 b5 bc
       0.019541768 0.032584637 0.017478965 -0.022196062
0002c0 c6 c1 0b bb f6 af c2 bb bc 97 a5 bc 82 61 8c bb
       -0.0021325215 -0.0059413863 -0.020213954 -0.004284085
0002d0 db 9d 60 bc 74 50 2b bc d1 d5 c3 3c 91 46 b7 bc
       -0.013709511 -0.010456193 0.023905667 -0.022372516
0002e0 c1 e8 39 3c e2 c4 9b bc 3f 97 83 bc 33 80 0e 3d
       0.011346997 -0.01901478 -0.01606333 0.03479023
0002f0 e7 94 8a bd c8 cc 6a 38 d9 8d 63 3b f8 28 92 bb
       -0.06766682 5.5980665e-05 0.0034722 -0.0044604503
000300 a7 e2 f9 3c 13 f6 1e 3d e8 65 ff ba 9a 96 1c bd
       0.030503584 0.038808893 -0.0019485326 -0.038229562
000310 67 e5 be bc 47 97 c6 bc 98 32 64 bc 80 7b 56 3c
       -0.023302747 -0.024242057 -0.013928078 0.013090968
000320 d3 38 da bc 19 23 48 bc 74 33 80 3c 69 be c3 3c
       -0.026638424 -0.012215399 0.015649535 0.023894506
000330 9d df aa bc da 9a e6 bb f4 ee 2a bb 46 96 0c bd
       -0.02085858 -0.0070375027 -0.0026082369 -0.034323
000340 38 c6 07 3a eb 20 0c bd aa a0 97 bb f4 8a 3d 3d
       0.0005179378 -0.03421108 -0.004627307 0.046275094
000350 33 c5 e7 bc f7 be 69 bd 04 1c c3 bc 25 f7 dc 3b
       -0.028292274 -0.057066884 -0.02381707 0.006743329
000360 76 da 97 3c 0b 91 8e bc 0c 89 6e bd c1 1c 27 bb
       0.018536787 -0.017403146 -0.058236167 -0.0025499316
000370 48 b2 f3 39 e4 da da 3b 5f f8 ab bc dc a4 52 bc
       0.00046481402 0.006678926 -0.020992456 -0.012856688
000380 b1 20 f0 3b 8d 98 03 3c 00 d9 26 bc 2f b1 b7 bc
       0.007328116 0.008031976 -0.010183573 -0.022423355
000390 be 3e fc bc 93 19 f6 3c b5 b5 5a bd 92 53 6c bb
       -0.030791637 0.030041492 -0.053395946 -0.0036060554
0003a0 12 40 dd 3c a9 25 8f 3c 35 42 f2 bc 4f f9 b6 3c
       0.02700809 0.017474012 -0.029572586 0.022335676
0003b0 6a 46 a4 bb 2f 34 f7 bb 2b 27 90 3c 3e 6d cd ba
       -0.005013277 -0.0075440626 0.017596802 -0.0015672815
0003c0 6d d2 e3 bc 98 9a 30 bb af 8f f5 bc b7 65 cb 3c
       -0.0278103 -0.0026947614 -0.02997574 0.024828775
0003d0 08 fe e8 bc 72 c3 bf 3c 2b 2b c5 3b ef 31 79 3c
       -0.028441444 0.023408625 0.006017109 0.015209659
0003e0 56 6b 99 bc d0 b4 15 bc 11 0b e3 bc 20 d0 80 bb
       -0.01872794 -0.009137347 -0.027715238 -0.0039310604
0003f0 b3 51 a2 bc 26 04 11 bd b0 73 2c 3d 72 58 8c bc
       -0.019814348 -0.035404347 0.042102516 -0.017132018

network_body.linear_encoder.seq_layers.0.bias f4 [256]
000000 95 d7 22 bd 59 fc d2 bc b7 4b 38 bd 98 e2 9b bc
       -0.039756376 -0.025755094 -0.044994082 -0.019028947
000010 ee df 20 bd e6 ce 62 bc 9a b5 67 bc 3e 14 20 bb
       -0.039276056 -0.013843274 -0.014142418 -0.0024426128
000020 83 c6 c0 3c 4b fd 58 bd 2a 8b 36 bc fa 1e 8b 3b
       0.023532158 -0.052975934 -0.011141578 0.004245636
000030 53 b8 af 3c 7a b5 85 bc 3d dd 13 bd bb bb 85 3c
       0.021450197 -0.016321886 -0.03609966 0.016324868
000040 c1 21 2d bd cf 15 0f bd 8b b3 a5 3c b8 0a 57 bc
       -0.04226852 -0.034932908 0.020227214 -0.013125114
000050 dd 12 64 bc f0 56 76 3c 15 31 0c bd 6e 8e 2f bb
       -0.013920513 0.015035376 -0.034226496 -0.0026787776
000060 ee 77 66 3a 2c 62 0e bd cf 21 2d 3d f6 70 73 bb
       0.00087916746 -0.034761593 0.04226857 -0.0037146187
000070 d5 dc da bc 0d 04 c4 3c aa ce 3e 3d a9 8a 95 3c
       -0.026716629 0.023927713 0.04658381 0.018254595
000080 2a d5 8d 3c 2a 68 ea 39 43 46 8f bd f4 42 40 bd
       0.017313559 0.00044709566 -0.06995823 -0.04693885
000090 ee 34 6a bc 1a d7 bc 3c 26 4e bc 3c ef 20 ba ba
       -0.014294846 0.023051787 0.022986483 -0.0014200489
0000a0 68 61 a7 bc 11 b2 2c bd d2 93 e4 bc 19 97 69 bc
       -0.02043219 -0.042162005 -0.027902517 -0.014257216
0000b0 c0 de a5 3c b9 68 04 3c 09 59 46 bd bd 3f 19 3d
       0.020247817 0.008081608 -0.048424754 0.0374143
0000c0 e9 2b 27 3d 71 da e0 bb 35 35 4c 3c fc ff 2e 3c
       0.04081336 -0.0068619777 0.012463857 0.010681149
0000d0 f4 9a d4 bb 0a 1f 14 3d 02 cb 3d bd e3 cf 19 3d
       -0.0064881984 0.036162414 -0.04633618 0.03755177
0000e0 53 a9 c4 3b 08 0b 90 39 c1 64 13 bd f3 8a e0 3c
       0.0060016303 0.0002747404 -0.03598476 0.027410006
0000f0 50 00 86 3b 5b f3 26 3c a8 93 01 bc 19 08 cc bc
       0.0040893927 0.010189856 -0.007908739 -0.024906205
000100 b8 67 23 bd 55 b6 77 3c 88 ad 8d 3b 8f 02 62 bd
       -0.039893836 0.015119155 0.004323665 -0.05517822
000110 0b 2e 17 bd 77 7d 80 bb 44 22 af 3c 1c ff 98 3c
       -0.036909144 -0.0039212066 0.021378644 0.018676333
000120 66 b0 1d bd f1 35 3b 3d 56 5e f9 bc 3d 94 7e 3c
       -0.038498305 0.04570574 -0.03044049 0.015538272
000130 d3 bb 18 3d 96 13 c0 bc d3 f2 70 3c 91 66 4f bd
       0.037288498 -0.02344684 0.014706331 -0.050634924
000140 61 10 a9 3c 50 b7 9e bd 40 e1 68 3c 4f 18 f9 bc
       0.020637693 -0.07749808 0.01421386 -0.030407099
000150 87 60 62 3d 7c d5 4b bb 7c e1 45 3d ac 8f 96 bc
       0.055267837 -0.0031102588 0.04831074 -0.018379055
000160 f4 85 12 3d d1 97 e4 bb a8 ff 11 bc ae 6f 39 3d
       0.03577228 -0.0069761057 -0.008911051 0.04527252
000170 d2 cb 17 bd a2 2a 2d bc e7 5c e8 3c 29 39 70 3c
       -0.037059613 -0.0105692465 0.028364612 0.014662066
000180 b3 21 2d bc 23 0a b7 3c bf 87 56 bd 0f 23 09 bd
       -0.010567117 0.0223437 -0.05237555 -0.0334807
000190 11 0b 0c 3d 67 24 dd 3c ae b1 5f bc 78 fa 9b 3c
       0.03419024 0.026994897 -0.013653202 0.019040331
0001a0 02 43 6f bc 0e b9 9c bc f3 23 52 bd ca f8 61 bd
       -0.014603378 -0.01913121 -0.051303815 -0.055168904
0001b0 70 6f 3c 3c c9 50 b3 bc 7a d7 e3 bc 01 84 fa ba
       0.011501178 -0.021889107 -0.027812708 -0.0019112827
0001c0 38 80 7d bc 69 bc 26 3d 57 45 aa 3c cf ac bf bc
       -0.015472464 0.040707026 0.020785017 -0.023397831
0001d0 10 ce 23 bd 74 71 ad 3c 75 c1 44 bd 1e 87 45 ba
       -0.03999144 0.021172263 -0.048036058 -0.00075350876
0001e0 8e 14 e4 bc dc b8 61 3c f8 e0 69 bd 54 c0 f5 bc
       -0.027841832 0.013776984 -0.057099313 -0.029998936
0001f0 d4 73 8f 3c 50 0d 6a bb 30 f9 17 bd 33 9c 5e 3c
       0.017511286 -0.0035713501 -0.037102878 0.0135870455
000200 c4 44 0a 3d 46 e6 10 bc e8 dd ac 3b e5 d3 18 3c
       0.033756986 -0.008843964 0.0052754767 0.009327863
000210 8f 81 43 bb 3b 05 60 bc bc 41 c8 bb 4f e3 26 bc
       -0.0029831862 -0.013673122 -0.006111352 -0.0101860305
000220 59 e7 01 bc 55 8b d0 3c 27 1f 07 bd 84 1d 58 bc
       -0.007928693 0.025457064 -0.032988694 -0.013190631
000230 4f f1 25 bd f9 9f 32 3d bd 2f 14 3d 2c 3d 53 bd
       -0.040513333 0.043609593 0.03617834 -0.05157201
000240 ff b8 d0 3c 8b 05 54 bd 4e 72 3d bc 1b 7c b3 3c
       0.025478838 -0.0517631 -0.011562897 0.021909764
000250 72 86 f9 ba b8 c8 e2 ba 4b 8e a9 bc c4 aa a5 bc
       -0.001903726 -0.001730225 -0.020697733 -0.020223029
000260 f0 3c 2d bb 4e f3 b5 3c c5 62 66 bb 10 ba 54 3d
       -0.0026434027 0.022210743 -0.0035154086 0.051935256
000270 02 a3 b3 bc be 3b a1 bd 68 7b 77 3c c7 00 63 3c
       -0.021928314 -0.07872723 0.015105106 0.013855166
000280 74 c0 67 bd 0d 30 a5 3c fd 33 19 3d ef 71 2f 3d
       -0.056580022 0.020164514 0.037403096 0.042833265
000290 ba 9a e5 3c ef 8a ea 3c 9c fc c9 3c 5e d9 81 3c
       0.028027881 0.028630702 0.024656586 0.015850719
0002a0 80 8e 6f bd 9c e0 8c bc 6f 71 fd ba b2 62 a1 3c
       -0.058485508 -0.017196946 -0.0019336174 0.019700382
0002b0 b3 05 39 3b fa 32 9a bc 24 dd b5 3c 82 77 7d bc
       0.0028232157 -0.018823136 0.022200175 -0.015470387
0002c0 43 91 5f 3b a8 3e 0c bd 00 c2 20 3d aa df e2 3c
       0.0034113682 -0.03423944 0.039247513 0.027694542
0002d0 c4 6f d0 bc 41 8c 9c 3c fa 99 76 bc 1a 02 2b 3c
       -0.025443919 0.019109847 -0.015051359 0.010437513
0002e0 24 63 e6 ba 63 27 d9 3c 87 73 cb bc e8 0b 8d 3c
       -0.0017577154 0.026508039 -0.024835361 0.017217591
0002f0 4e ff c8 bc 0f 59 3b 3c f2 43 c5 bc a1 2b 9a bc
       -0.024535801 0.011434807 -0.02408025 -0.018819632
000300 dd 50 03 3d 70 c4 2e 3c e9 bc 01 bd 65 0b 2a bc
       0.03205954 0.010666952 -0.0316743 -0.010378693
000310 ed f9 1a 3c 95 23 6e bb 11 c8 30 bc ad 2f 36 3c
       0.009459001 -0.0036337127 -0.010789887 0.011119765
000320 d3 75 27 3c 9f 42 02 3d 48 ea 65 3c 23 77 19 3d
       0.010220963 0.031801816 0.014032908 0.037467133
000330 9f 78 e1 3c d8 c5 df 3c de 7c 5c bc 8d d4 01 3d
       0.027523337 0.027316019 -0.013457505 0.031696845
000340 03 2e 63 3c 00 a0 9f 3c 75 7c 47 3c e8 98 fd bc
       0.0138659505 0.019485474 0.012175669 -0.0309567
000350 88 05 2d bd 82 06 cb bc 2e 14 50 bd 9f 3f 33 bc
       -0.042241603 -0.024783377 -0.050800495 -0.010940461
000360 31 8d 9b 3b 48 38 23 bc 90 40 a6 bc e2 98 ee 3b
       0.004747056 -0.009962149 -0.020294458 0.0072814086
000370 e7 4a 8e bc bb 02 c9 bc 7e 4f 91 3c 46 a8 3d bd
       -0.0173697 -0.024537435 0.0177381 -0.046303056
000380 14 d6 fb bc 34 58 2b bd 2d a4 e6 3b 88 20 5e 3d
       -0.030741729 -0.041832164 0.0070386142 0.054230243
000390 24 47 2e 3d 25 3d 54 3d 6e 27 c9 3b d7 8c d7 bc
       0.042548314 0.051816124 0.0061387336 -0.026312275
0003a0 f2 65 97 3c 50 a0 04 bd ff 60 58 3c 09 5a 0a bd
       0.018481229 -0.03237945 0.013206719 -0.03377727
0003b0 cd a1 b3 bb 41 8e d3 3c 84 0a 12 bd 93 6f e6 bc
       -0.0054819346 0.025824668 -0.03565456 -0.028129375
0003c0 55 0c 5f bd f3 c9 9a 3c 2e 2b b3 3c 2e a6 b0 3b
       -0.05445512 0.018895125 0.021871176 0.005390904
0003d0 85 83 a3 3c 92 13 71 bd bb 4d 07 bd 67 27 53 bc
       0.019960174 -0.058856554 -0.033033114 -0.012887812
0003e0 29 8a 9c 3c 9d 92 37 bb 68 2d 76 3c ce b8 57 bc
       0.019108849 -0.0028010972 0.015025474 -0.013166619
0003f0 ab ad 67 3a 09 24 26 3c 93 ae b9 3c 25 0e 21 3d
       0.0008837829 0.010140427 0.022666251 0.03932013
