MLagents/results/hb_08/Mario/Mario-564208.onnx (onnx, 352528 bytes, 16 tensors)

122 f4 [69]
000000 6f 7f ae 3a 6f 7f ae 3a 6a c6 f6 3a 6a c6 f6 3a
       0.0013313125 0.0013313125 0.0018827443 0.0018827443
000010 03 c0 ae 3e b2 f2 28 3c 6f 7f ae 3a 6f 7f ae 3a
       0.34130868 0.010311769 0.0013313125 0.0013313125
000020 03 c0 ae 3e b2 f2 28 3c 6f 7f ae 3a 6f 7f ae 3a
       0.34130868 0.010311769 0.0013313125 0.0013313125
000030 75 18 b1 3e 29 a2 00 3d 6f 7f ae 3a 6f 7f ae 3a
       0.34588972 0.031404648 0.0013313125 0.0013313125
000040 49 26 b1 3e 29 a2 00 3d 6f 7f ae 3a 6f 7f ae 3a
       0.34599522 0.031404648 0.0013313125 0.0013313125
000050 63 fc b8 3e f2 93 41 3d 6f 7f ae 3a 6f 7f ae 3a
       0.36130056 0.047260232 0.0013313125 0.0013313125
000060 6e a2 b9 3e 5d 80 41 3d 6f 7f ae 3a 6f 7f ae 3a
       0.36256737 0.047241557 0.0013313125 0.0013313125
000070 cb da bf 3e 6d e8 69 3d 6f 7f ae 3a 6f 7f ae 3a
       0.37471613 0.057106424 0.0013313125 0.0013313125
000080 dd 7f c7 3e 17 e0 70 3d 6f 7f ae 3a 6f 7f ae 3a
       0.3896474 0.05880746 0.0013313125 0.0013313125
000090 75 28 cc 3e 62 12 73 3d 6f 7f ae 3a 6f 7f ae 3a
       0.39874616 0.059343703 0.0013313125 0.0013313125
0000a0 25 06 d5 3e 68 7a 83 3d 6f 7f ae 3a 6f 7f ae 3a
       0.4160625 0.064198315 0.0013313125 0.0013313125
0000b0 59 bc d8 3e d4 35 82 3d 6f 7f ae 3a 6f 7f ae 3a
       0.42331198 0.06357923 0.0013313125 0.0013313125
0000c0 9e b1 df 3e 84 28 8c 3d 6f 7f ae 3a 6f 7f ae 3a
       0.436902 0.06843665 0.0013313125 0.0013313125
0000d0 a7 a6 d7 3e cb c7 88 3d 6f 7f ae 3a 6f 7f ae 3a
       0.42119333 0.066787325 0.0013313125 0.0013313125
0000e0 d5 82 e1 3e d2 ec 95 3d 6f 7f ae 3a 6f 7f ae 3a
       0.4404513 0.073205605 0.0013313125 0.0013313125
0000f0 6a c6 f6 3a 6f 7f ae 3a 6f 7f ae 3a e1 af 30 3e
       0.0018827443 0.0013313125 0.0013313125 0.17254592
000100 16 70 14 3e 6f 7f ae 3a d4 4f f8 3a ea 4b 35 3c
       0.14495882 0.0013313125 0.0018944689 0.011065463
000110 6f 7f ae 3a
       0.0013313125

action_model._discrete_distribution.branches.0.bias f4 [3]
000000 3c 8b bf 3c 8b 21 50 bd ce 56 e3 3c
       0.023381822 -0.05081324 0.027751353

action_model._discrete_distribution.branches.0.weight f4 [3, 256]
000000 62 d1 16 3d e4 d1 4a 3d df 18 ba bc dc bc 23 3d
       0.036820777 0.049516574 -0.022716938 0.039975032
000010 2b 04 c5 bc 42 18 51 3d 79 d9 52 3c 2c 79 83 bc
       -0.024049839 0.051048525 0.012869232 -0.01604899
000020 66 f8 28 ba e2 40 89 3c 91 35 1f 3d 27 88 a8 3a
       -0.00064457057 0.016754571 0.038869444 0.0012857959
000030 1e 24 b9 bc b0 9f 65 3b 3b 61 02 bd 86 f6 12 bd
       -0.02260023 0.0035037808 -0.031831007 -0.035879634
000040 c0 90 98 bc 2d ff 01 bc da 5a 6b 3d 85 f7 22 bc
       -0.01862371 -0.007934374 0.05745969 -0.009946709
000050 8b c5 38 3d e9 94 57 3c a6 2c 09 bd bf df 30 3d
       0.045110267 0.013158062 -0.033489846 0.04318213
000060 3a 85 8b 3d 85 6a 45 3b 1b 29 b1 bc d8 0b 9a bb
       0.0681252 0.0030123305 -0.021626046 -0.004701119
000070 ba 28 fe bc c9 5d 2e bc 0f 26 c1 bc ec b2 3e 3c
       -0.03102528 -0.010642477 -0.023577718 0.011639338
000080 ff 33 91 b9 4f 5b 18 3d bf f8 23 bc 52 c8 65 bc
       -0.00027695295 0.037196454 -0.010008036 -0.014024811
000090 65 b7 64 3d 89 99 34 3d da a6 4f bd 3d 41 3a 3b
       0.05583896 0.044091735 -0.05069623 0.0028420233
0000a0 10 84 6a bb fb 17 e3 3c 56 52 b5 3d 1d 97 34 3d
       -0.0035784282 0.027721396 0.08853595 0.044089425
0000b0 ff 0a 5c 3d 25 9a ab 3b e0 c6 b4 3d c0 2c 47 bb
       0.053721424 0.0052368813 0.08826995 -0.0030391663
0000c0 65 64 77 3c 51 78 e0 3c dd 09 e8 3c 15 52 0d bd
       0.0150996195 0.027401121 0.028325016 -0.034502108
0000d0 12 83 2e 3c 81 03 d5 bb e1 87 4b bd 0d ca d2 3b
       0.010651367 -0.006500662 -0.04969013 0.0064327777
0000e0 58 4e 12 3c 43 19 bf 3c d1 e7 ad 3c 6c 08 12 bc
       0.008929811 0.023327475 0.021228703 -0.008913141
0000f0 b8 54 a7 bc 3e fe 4d b9 c0 17 88 3c 51 05 a5 bc
       -0.02042614 -0.00019645036 0.016612887 -0.020144137
000100 d0 0b 62 3c 2f 61 5c bc f1 85 dc bb ad e5 cc bc
       0.013796762 -0.013450905 -0.0067298342 -0.025011862
000110 b5 6d 63 3c 67 aa 37 3c 32 95 d9 3a 78 c7 05 3c
       0.013881137 0.011210061 0.001660025 0.008165233
000120 6c f1 1a 3c f0 ff 55 3c 7f ea c6 bc 12 aa b8 3b
       0.0094569735 0.013061509 -0.024281738 0.0056355083
000130 f4 08 04 bd 1e b0 91 bc 5f c4 88 bc 1c a0 81 3a
       -0.0322351 -0.017784175 -0.0166952 0.0009889635
000140 ec ab b1 bc b7 46 d6 3b c6 f1 ab 3c 3a 47 b6 3c
       -0.021688424 0.0065391916 0.02098931 0.02225076
000150 2a b9 ae 3c 3f 56 6c 3d ef c1 4d bc 40 e5 94 3c
       0.021328527 0.05769944 -0.012558444 0.018175721
000160 43 ca d7 3c 5c be 33 bc f1 cc e8 bc 96 6b 45 3c
       0.026341563 -0.010970678 -0.028418036 0.012049576
000170 54 47 a2 bc dc c7 f6 3c d5 9b 3e 3c 52 da 03 bd
       -0.019809403 0.030124597 0.011633833 -0.03219063
000180 cc 05 3d 3c ab e7 e3 3c cb 2f e9 3c f0 d3 85 3c
       0.011537027 0.027820429 0.028465172 0.016336411
000190 15 bb 15 3d 4c 82 33 bd 82 5b 82 3d 4a be 2b 3c
       0.03655537 -0.043825433 0.0636511 0.01048238
0001a0 ea 0a 21 bd 83 47 71 bc ac 85 1c 3d d9 f5 17 3d
       -0.03931705 -0.014726522 0.038213417 0.037099693
0001b0 80 c7 33 3d 4c fc e0 bc c1 b3 c7 3c 8f c2 94 3b
       0.04389143 -0.027464055 0.024377706 0.0045397948
0001c0 68 69 2a 3d 69 01 cd 3b 48 fd b3 3b 34 f9 28 3b
       0.04160443 0.0062562716 0.00549284 0.0025783302
0001d0 4a 1a 15 bc 9d a6 01 3c bc 04 00 bd 34 1e 9e 3c
       -0.009100506 0.007913259 -0.031254515 0.019301511
0001e0 d9 1b 26 3d 49 14 09 bc fd 77 a3 3c b0 fe c8 bb
       0.0405539 -0.008366653 0.019954676 -0.0061338767
0001f0 0e 11 dc 3c 61 10 60 3c b1 2d f1 3a 2d 43 12 bd
       0.026863601 0.01367578 0.0018400458 -0.035708595
000200 84 af 52 3c 1d 6f 05 3d 6e 13 76 3d da b0 1e 3d
       0.012859229 0.03257667 0.060077123 0.038742878
000210 49 be b8 3b d0 b8 2b bc 28 81 54 3c 16 35 54 3c
       0.005637918 -0.010481074 0.012970246 0.01295211
000220 cf d9 27 bc 08 84 03 3d ec 4d 1e 3b c5 a9 4d 3c
       -0.010244801 0.032108337 0.0024155332 0.012552683
000230 51 05 c6 3c fc a1 fd 3c f2 f6 8b 3c 2e 33 e2 3c
       0.024172457 0.03096103 0.017085526 0.027612295
000240 e2 83 11 3c 44 99 ae 3c 21 a9 af 3c b8 03 ee 3c
       0.008881541 0.021313317 0.021442952 0.029054508
000250 a1 e8 c6 3b 52 9f 5d bd 85 8f 53 bc 77 12 c1 3c
       0.006070212 -0.054107018 -0.012912636 0.023568375
000260 9f 9b a1 3c 13 43 8b bb 6e 77 f7 3b 4f a0 3a 3d
       0.019727526 -0.004249939 0.007552079 0.04556304
000270 7d 4e 4b bc f8 d1 d7 bc 07 b7 6c 3c b0 da 52 bd
       -0.01240885 -0.026345238 0.014447934 -0.051478088
000280 28 d4 2d 3d 2e d4 60 bc 5c 85 35 3a eb d9 e4 39
       0.042438656 -0.013722463 0.0006924474 0.0004364991
000290 2e 95 e0 3b c1 2b e5 3c 1c 8a 18 bb c4 fd de bc
       0.006853721 0.027974965 -0.002327568 -0.027220614
0002a0 1c a1 2d bd 8c 10 11 3d 80 3c dd b9 ee b3 1c ba
       -0.042389974 0.03541617 -0.0004219748 -0.00059777393
0002b0 2e 62 f0 bc fd 99 47 bd 87 be d1 3c 87 2a 51 3d
       -0.02934369 -0.04873084 0.025603546 0.051065948
0002c0 3d 58 3e bd cf c4 0a 3d 9c b1 24 3c 33 81 d6 3b
       -0.04647087 0.033879098 0.010052111 0.0065461635
0002d0 30 d2 d1 bc 50 5b 47 3d 47 4e be 3c 14 f3 a2 bc
       -0.02561292 0.048671067 0.023230685 -0.0198913
0002e0 d2 07 32 bd c1 39 e5 3c eb df 5d 3c 0b 6b f8 bc
       -0.04346449 0.02798164 0.013542156 -0.03032448
0002f0 05 01 d1 3c 0e 50 1e 3c 74 01 23 bd e3 d1 77 3b
       0.025513181 0.009662641 -0.039796308 0.0037814311
000300 04 b7 2b 3b b1 21 80 3c ed 12 fc 3c 93 61 9c 3d
       0.0026201615 0.015641065 0.030770743 0.07635798
000310 b5 73 4c 3d 47 4c fd 3c 8d 28 6f bc 8b d2 4d 3d
       0.049915034 0.030920161 -0.01459707 0.050249618
000320 ff 28 8a 3c 5d cf 03 3d 61 5a 55 bc f4 ed dc 3c
       0.016865252 0.03218018 -0.013022036 0.026968934
000330 93 8f 60 3d 8e 46 76 3c 43 82 a8 3c cb 68 de 3b
       0.054824423 0.01503147 0.020569926 0.0067873946
000340 50 b8 57 3c aa 8e f6 3c 50 c1 4e 3d 83 9c 7f bc
       0.013166502 0.030097324 0.050477326 -0.01560128
000350 17 78 47 3c 84 97 83 bb d9 75 3e 3d b8 a0 33 3c
       0.012174628 -0.004015865 0.046499107 0.010963611
000360 77 e8 be bc 97 70 89 bc eb f6 1b bd 18 52 80 3d
       -0.023304207 -0.01677732 -0.038077276 0.06265658
000370 90 82 01 3d 2e 3e 2c 3b 04 f2 da ba 65 ca 29 3b
       0.031618655 0.002628218 -0.0016704206 0.002590799
000380 c6 e3 c5 3b a2 90 9f bb 60 04 70 3c ed 61 a1 3c
       0.0060391156 -0.0048695365 0.014649481 0.019700015
000390 8e b5 39 3b 93 39 62 bc 84 f4 1a 3d a2 cd 24 3d
       0.0028336975 -0.013807672 0.037830845 0.04023517
0003a0 2f e9 37 3c 90 94 49 3d cc b7 56 3c 1a 0d 71 3d
       0.011225029 0.049213946 0.013105344 0.058850385
0003b0 ad 2e 80 3b fc cc 01 bc db a8 1c 3d 48 04 a1 3c
       0.003911814 -0.007922407 0.03824697 0.019655362
0003c0 d1 b9 c4 ba 21 b0 e4 3c cf a3 41 3d 8a 81 91 3c
       -0.0015008991 0.027916016 0.04727536 0.017761964
0003d0 1d 24 89 bc 33 22 a5 bb 26 2d a7 39 39 fe 0e 3c
       -0.016740853 -0.0050394773 0.0003188636 0.008727604
0003e0 3a bd 10 3d ac 30 65 3c a8 70 b7 bc db 3a 9d bb
       0.03533671 0.013988655 -0.022392586 -0.004798276
0003f0 ba 66 42 3d b4 70 1e bc 08 9a db 3c 2e 51 74 3d
       0.04746125 -0.009670425 0.026806846 0.05964773

action_model._discrete_distribution.branches.1.bias f4 [2]
000000 8b ab b0 3c 8d ab b0 bc
       0.021566173 -0.021566177

action_model._discrete_distribution.branches.1.weight f4 [2, 256]
000000 91 98 bb bc 9d 82 c4 bc 3a dd 0e bd 95 67 cb 3a
       -0.022899898 -0.023988063 -0.034878947 0.0015518541
000010 84 e2 60 3c 96 de 10 bc 36 12 cb bc d8 c0 ca 3c
       0.0137258805 -0.008842131 -0.024788957 0.024750158
000020 90 24 81 bc 89 66 f7 bc 42 9a 94 bb 63 8b ec 3c
       -0.015764505 -0.03020026 -0.0045349905 0.028875059
000030 dc e2 df bb 6d e8 0d bd 08 9e d4 bc c8 65 39 3d
       -0.0068324637 -0.034645487 -0.025954261 0.04526308
000040 92 3c f5 ba 16 cc 9f bc 7a a3 d5 3c bf 1b 62 3c
       -0.0018710068 -0.019506495 0.026078928 0.0138005605
000050 50 40 be 3c 32 7b 8c 3c 0c e6 c5 bb 9c 93 d8 bc
       0.023224026 0.017148588 -0.0060393866 -0.026437573
000060 c4 99 9b 3c ce b3 fc bc ea 1c 4f bc b8 c7 07 3d
       0.01899422 -0.030847456 -0.012641171 0.03314945
000070 32 e3 e2 3c e6 fa 87 bc 39 9c cc ba 93 c2 80 3c
       0.027696226 -0.01659913 -0.0015610523 0.01571778
000080 c0 b9 45 3c 0f ff 80 3c 4e 70 52 bb 9d dd 86 bc
       0.012068212 0.015746621 -0.0032110396 -0.016463095
000090 5f 8f 78 3b 01 be a1 3d 4f 2e 83 3c 7e 67 0d 3c
       0.0037927253 0.078975685 0.016013293 0.0086306315
0000a0 70 54 6d bc 12 31 0e bb 5f 3b 4b bb d2 a5 83 3d
       -0.0144854635 -0.0021696729 -0.003101073 0.06428112
0000b0 62 b7 ab 3d a1 9d 0c bb 2d e2 12 3d dd 52 3a 3c
       0.08384587 -0.002145626 0.03586023 0.011372295
0000c0 95 cf 84 bb 4c dc 5e 3d 64 04 86 bc 34 11 14 3c
       -0.004053066 0.05440931 -0.016359515 0.009037305
0000d0 3f bb c4 3c b4 8a 86 bb 5f 3e 75 bc 32 5f 47 bb
       0.024015067 -0.00410589 -0.014968484 -0.003042173
0000e0 b5 6c 0c bc 5d 86 1e 3a 0c 51 6b ba 9d 85 cd 3c
       -0.00857084 0.00060472434 -0.00089766155 0.025088126
0000f0 61 61 0c bd 08 64 99 bb 14 48 1a 3c 73 5d 74 bc
       -0.034272555 -0.004681114 0.009416599 -0.014914858
000100 63 aa 72 bc 06 2c 96 3c 01 98 6f bc ab c3 98 bc
       -0.014811131 0.018331539 -0.014623643 -0.01864799
000110 ff d9 5f bc 61 83 21 bc 83 4e 3c 3c a4 08 86 3c
       -0.013662814 -0.009857983 0.011493328 0.016361542
000120 3a 18 87 bc 5a d1 e1 bc 62 59 66 bc ca 88 f1 bc
       -0.016491044 -0.027565647 -0.014059396 -0.029484171
000130 6b f9 98 3b 9c ff 1f 3a 0b c1 82 bc 8a 41 d0 bc
       0.004668405 0.00061034574 -0.01596119 -0.025421876
000140 7c c9 0b 3c 82 aa eb bc 96 3c d2 3b 2f 79 06 3d
       0.008531924 -0.028767828 0.006415914 0.032830413
000150 6c 12 56 3c 8f 65 ca bc a7 b9 a0 bc c7 98 0a 3c
       0.013065916 -0.02470663 -0.019619776 0.0084592765
000160 49 d9 ce 3c aa 79 73 bc bc 2d fd bc 1e 4d b9 3c
       0.025250094 -0.01486055 -0.030905597 0.02261978
000170 2d 4b 1e bd b1 88 cf 3c de e6 b0 3b 5a 4f 73 3d
       -0.038645912 0.025333734 0.0053986153 0.059401847
000180 85 64 2a 3d d4 77 2c 3d 2b dc 0c 3d 90 ae 5f 3c
       0.04159977 0.042106465 0.034389656 0.013652459
000190 42 90 5d 3c a4 23 07 3d 7c cc 0c 3d e6 8b b0 bb
       0.013523163 0.032992974 0.0343747 -0.005387771
0001a0 b2 e4 40 3c a9 14 f5 bb ef d1 af 3c 53 2d 45 3b
       0.011773275 -0.0074792695 0.021462409 0.003008683
0001b0 25 74 c8 bb 91 e7 6e bd 67 e8 45 bb cb 32 9f bc
       -0.006117361 -0.058326308 -0.0030198337 -0.0194334
0001c0 1e 26 ca 3b 86 35 98 bc b7 22 30 3c 54 f5 a5 3c
       0.0061690947 -0.01858021 0.010750464 0.020258583
0001d0 21 ca ae bb 3e f0 bc bb f2 86 b4 bb 4c 8e a6 3c
       -0.0053341542 -0.005765944 -0.005509251 0.020331524
0001e0 c7 18 da 3c d0 b9 85 bb 31 89 53 3b ad b3 5d 3d
       0.026623143 -0.0040809885 0.0032277817 0.05412643
0001f0 2c a7 1e 3d 9e 86 da 3c 8f de e5 bb 3b db ab 3b
       0.038733646 0.026675519 -0.0070150564 0.00524464
000200 c8 04 ab 3c 57 d0 d9 bc 09 a1 41 bb d4 00 69 3c
       0.020876303 -0.026588602 -0.0029545447 0.014221389
000210 cf 88 22 bd b5 11 4f 3d e4 c0 02 bc cc d8 7d bb
       -0.039681252 0.050553996 -0.007980559 -0.0038733957
000220 3c 89 98 bc 84 f5 f5 3c 39 ed 77 3b e9 08 30 b9
       -0.018620126 0.030024298 0.0037830605 -0.00016787987
000230 7b 28 13 bc 7d 33 2e 3d 72 da da 3b 0d ef 6e bd
       -0.008981819 0.04252957 0.0066788727 -0.058333445
000240 b4 d4 1f 3c 69 b1 bf 3c 1c e9 df 3c 74 6e 3b b7
       0.009755302 0.023400025 0.027332835 -1.1171785e-05
000250 44 55 fe 3c 4e 6c e0 bc ee 1e b5 3c d5 e9 4e bc
       0.031046517 -0.027395394 0.022109475 -0.012628992
000260 d6 07 55 3d e8 d2 b6 bc 9f aa a4 bc 8b cd a1 bc
       0.052009426 -0.022317365 -0.02010089 -0.01975133
000270 25 cb 03 3d 41 50 8d bc 9b 0c 1e 3b 91 e8 5a 3c
       0.032176156 -0.017250182 0.00241164 0.013361112
000280 b7 09 95 3c d2 f5 9c bb 48 e3 a8 bc a7 1a b3 3c
       0.018193109 -0.0047900463 -0.020616189 0.021863295
000290 a9 b9 42 3c 40 72 9b 3d 2b c7 c7 bb ac 54 4f bd
       0.011885085 0.07590151 -0.0060967407 -0.05061786
0002a0 4d 97 0b bd d2 e9 b9 3b a8 df e9 bc db 60 48 3c
       -0.03407984 0.0056736255 -0.02854903 0.012230123
0002b0 43 1b ea 3c e1 34 50 3d e0 1e db bc e3 96 4d 3d
       0.028577453 0.05083168 -0.02674812 0.050192725
0002c0 ad 76 4d bc 12 ec 42 3d d2 e8 27 3d d5 b9 81 bc
       -0.012540502 0.047588415 0.04099352 -0.015835682
0002d0 cc 8e 8c bd 93 1e c7 3c e5 4e b5 3b 28 b7 ea 3b
       -0.06863174 0.024306571 0.0055330866 0.007162947
0002e0 e1 7a b5 bb 9b 43 fb bb cb e2 8a 3b a1 bb 9c 3b
       -0.00553833 -0.0076679713 0.0042384616 0.0047831093
0002f0 34 02 ed 3c b7 98 1c 3d 66 f8 46 3d 1d 0e 76 bc
       0.028931715 0.038231578 0.048576735 -0.015018013
000300 11 77 ff bc 4c ad 03 bd fa 47 c5 bc 23 2a 2f 3d
       -0.031184705 -0.03214769 -0.024082173 0.042764794
000310 5f 31 45 3b 1b 91 1c bc 2b 6c b3 3c 6c ca 3e bd
       0.0030089242 -0.00955608 0.021902164 -0.046579763
000320 1d 8a b6 bc 34 99 0a 3d 68 b2 19 3c 99 ae 14 bd
       -0.022282654 0.033837512 0.009380914 -0.03629932
000330 b4 26 35 bc f9 35 df 3c cc 41 5c 3c 89 d3 fc 3c
       -0.011056591 0.027247416 0.013443422 0.030862587
000340 13 06 03 3d 15 77 03 3d 48 ed b1 bb 0f d2 35 3c
       0.031988215 0.032095987 -0.0054298975 0.011097445
000350 c0 86 78 3b a6 da 09 3d f1 d7 e0 bb 19 f4 fd bb
       0.0037922114 0.033655785 -0.0068616797 -0.007750046
000360 36 94 32 bd 6e 61 1b bd 0e c2 ab 3b 75 ba b5 bb
       -0.043598376 -0.037934713 0.005241639 -0.005545909
000370 c4 f7 fe bc 6b ff 46 3d 4a b2 1e 3d 72 64 9d bc
       -0.031124003 0.04858343 0.03874425 -0.019212935
000380 f5 a2 16 3d 8b fd de 3c 39 d3 9d 3c 61 22 10 bd
       0.0367765 0.027220508 0.019265758 -0.035189036
000390 87 45 ff 3b 3b 55 85 3a 52 95 32 3c 56 95 1a 3d
       0.0077902707 0.0010172495 0.010899859 0.037740074
0003a0 ca 18 f6 3b f1 31 0d bd 42 03 2a 3c fd 45 1f bc
       0.0075102793 -0.034471456 0.010376753 -0.009721276
0003b0 30 c3 0b bd 8c b2 c1 bc 25 4e 11 3d d6 8f 76 3b
       -0.034121692 -0.023644708 0.035474915 0.0037622354
0003c0 20 96 44 35 21 e9 af bc 5a 95 7b ba b2 a1 2c bd
       7.323415e-07 -0.02147347 -0.0009597145 -0.042146392
0003d0 27 4a 45 bc 77 0f c8 3b 4a 42 42 3b 87 3d bb bc
       -0.012041605 0.006105359 0.0029641562 -0.022856487
0003e0 d5 22 df bc ec ab 87 3b cd 22 92 bb b2 eb d7 bc
       -0.027238289 0.0041403677 -0.004459715 -0.026357505
0003f0 87 c3 02 bd fb 7e a8 bc df 91 9c 3b 13 30 92 3c
       -0.03192475 -0.020568362 0.0047781314 0.01784519

action_model._discrete_distribution.branches.2.bias f4 [2]
000000 29 e1 99 bd 2d e1 99 3d
       -0.07513649 0.07513652

action_model._discrete_distribution.branches.2.weight f4 [2, 256]
000000 3e ac bc bc 9e 76 2d 3c 4e 09 a6 3c e9 eb 66 bc
       -0.02303135 0.010587363 0.020268109 -0.014094331
000010 1c 1b 38 bd 50 b7 2f bd 6d ad b2 3c 98 2e 10 3d
       -0.04494773 -0.04289943 0.021811211 0.035200685
000020 b5 b7 dd 3c 4e 74 89 bb 75 62 c3 3b cd 54 d7 3c
       0.027065137 -0.004194773 0.0059626647 0.026285553
000030 5b 27 b4 3c 57 7f 74 bc b5 60 a2 bc b1 61 d8 bb
       0.021991422 -0.014922938 -0.019821504 -0.0066034426
000040 79 0c 6f 3b 5f f5 6b bb 61 9f 0d bd ec 05 81 bc
       0.003647594 -0.0036004407 -0.034575824 -0.015749894
000050 bd 6b 56 3c 65 fd 87 bc 69 02 7b bb f1 49 16 bd
       0.01308721 -0.01660032 -0.0038300997 -0.03669161
000060 ba c7 c4 bc 5f 84 d1 bb c8 7a f5 3c 75 75 01 3d
       -0.024021018 -0.0063939537 0.029965773 0.031606156
000070 37 84 fb 3c 30 c1 1d 3d 24 f7 11 bc fe ff 83 3b
       0.030702693 0.038514316 -0.008909021 0.0040283194
000080 92 2a f9 3c f1 05 0b bc 73 80 a4 3b 40 48 e2 3b
       0.030415807 -0.008485303 0.005020195 0.0069055855
000090 3d 3b 46 bc 61 d7 63 bc 5d fc 6a bb e4 3d 52 3b
       -0.012099084 -0.013906331 -0.0035855987 0.0032080347
0000a0 8f 84 3e 3d 18 61 9e bc 2e c4 dc bc ab e1 2c 3c
       0.046513136 -0.019333407 -0.026949015 0.01055185
0000b0 b3 4d 0b bd 0b f5 fe bc e3 06 0d bd d9 9a 95 bc
       -0.034009647 -0.031122705 -0.034430396 -0.018262314
0000c0 24 ae a0 3b 1b b5 5b bc 4c d1 29 3c 0d 7a 03 bb
       0.0049035717 -0.013409878 0.010364842 -0.0020061762
0000d0 60 9e c4 bb 17 07 06 3d 8a 82 fa bb f5 84 5b bc
       -0.006000325 0.032721605 -0.007644956 -0.013398399
0000e0 86 2e 36 bc 60 66 e8 3c bb 32 38 3c ce d5 01 3d
       -0.0111194905 0.028369129 0.011242564 0.03169804
0000f0 e8 90 ac bc 98 6f 10 3d 1c 8f fb 39 18 9e 03 3d
       -0.02106519 0.035262674 0.00047981075 0.03213319
000100 9d 26 dd 3c a5 a5 1d 3d 17 5d eb 38 a7 cb 70 3d
       0.026995951 0.03848805 0.000112230126 0.058787968
000110 c5 c5 82 bc ca ed 19 3c f7 cc 9c 3c d1 6d 25 3b
       -0.015963444 0.009395072 0.019140704 0.0025242458
000120 b3 bf 74 3d 8d 23 1e bd d5 47 18 bc 2f de ee ba
       0.05975313 -0.038608123 -0.00929447 -0.0018224175
000130 1d 13 09 3d 31 a8 37 3d 0a 16 12 3c 48 b7 07 bc
       0.033465493 0.044838134 0.008916387 -0.008283444
000140 b2 f6 0d 3d 92 1c 21 bd ee bd 01 3c d6 96 a9 b9
       0.034659095 -0.039333887 0.007918818 -0.00032346573
000150 f7 00 44 bb f4 19 1c 3b 04 6f c4 bc 93 f5 a8 bc
       -0.0029907802 0.002381918 -0.023978718 -0.020624911
000160 1e 2d e6 bc c8 bd 8f bc 31 d8 da bb fb 3e 41 bd
       -0.028097685 -0.01754655 -0.006678604 -0.047179203
000170 31 0b 55 bc d8 92 7d bd d3 c9 0b bd e3 41 70 3d
       -0.0130031565 -0.06190762 -0.03412802 0.058656584
000180 d0 d2 a8 3c 63 df 10 bc 3b 26 6d 3c 94 c7 dc 3b
       0.020608336 -0.008842322 0.014474447 0.0067376588
000190 1f 3e 65 3b cc 7a f2 3c 97 1a 2c bd d9 09 62 bc
       0.0034979654 0.02959957 -0.042017546 -0.013796293
0001a0 e5 c1 8a bc 21 cd 01 3b c6 32 24 bc a1 cd b3 bc
       -0.01693816 0.0019806104 -0.010021871 -0.021948637
0001b0 38 a2 90 3b 81 6c 04 3d c3 18 84 3c 99 96 51 3c
       0.004413869 0.03233004 0.016125089 0.012792253
0001c0 e4 b7 cb bc 81 3d 82 3c 48 00 bf 3b fa 81 70 3d
       -0.02486796 0.015898468 0.005828891 0.058717705
0001d0 bf 47 3e 3c f3 fd 9a bc c0 f1 8c 3c 9c 03 4a 3c
       0.011613785 -0.01891992 0.01720512 0.012329962
0001e0 67 8a 33 bc cc b0 21 3c 36 08 ea bc a2 5a d0 b9
       -0.010958291 0.009868812 -0.028568368 -0.00039740378
0001f0 13 1f af 3c 99 ce 14 bd be fb a1 3c 4f 76 90 bb
       0.021377122 -0.03632984 0.01977336 -0.0044086347
000200 4f 96 11 bc 10 ea c1 3c 22 58 60 bd 4a 94 40 bb
       -0.008885934 0.02367118 -0.05477155 -0.0029385262
000210 cc 60 c7 3c 37 e9 e0 3c 19 31 7f bc 92 b4 3f 3d
       0.024338149 0.027454956 -0.015575671 0.046803065
000220 e7 8f 74 bc 3c 3a ce bb 3c d0 77 3d 2d f5 23 bc
       -0.014926887 -0.006293563 0.060501322 -0.010007185
000230 f4 28 42 3b e0 88 ea 3c 57 88 8b bc 2c 69 8a 3c
       0.002962646 0.02862972 -0.017032785 0.016895853
000240 a9 14 48 bc ba 07 e8 bc 73 69 a6 bc f3 00 01 bd
       -0.012211957 -0.028323997 -0.020313954 -0.031495046
000250 cb 48 66 3c 52 6a f2 bc 8a 33 ae bc 89 1d f5 bc
       0.014055441 -0.029591713 -0.02126481 -0.02992131
000260 1f 7f 20 bc 50 ca a1 3c aa 75 09 3c 32 b1 87 bc
       -0.009795933 0.01974979 0.00838987 -0.016563985
000270 df ae 46 3c f6 78 8b 3d a5 96 84 bd 85 83 15 bc
       0.012126653 0.06810181 -0.06474046 -0.009125595
000280 fa d6 aa bc 46 84 98 39 55 60 75 3c b2 be ca 3c
       -0.020854462 0.0002909025 0.014976581 0.024749134
000290 fa 51 e5 3c de b1 aa bb 4c 24 fb bc 19 41 84 bc
       0.027993191 -0.0052091917 -0.030656956 -0.016144322
0002a0 20 31 90 bc 56 c9 a2 bc df 51 77 3c d3 6f 4f 3c
       -0.01760155 -0.019871395 0.015095203 0.012660938
0002b0 28 58 c6 3c e3 7a af 3c 35 bf 3f bd 5d f5 70 3c
       0.024211958 0.021420902 -0.04681321 0.014706937
0002c0 89 e2 cd bc c2 88 8a bc 86 c6 11 bd 24 bf 09 bb
       -0.025132434 -0.016910914 -0.035589717 -0.002101847
0002d0 c0 7b 30 bc a9 12 58 3c b6 f2 4d 3d 0b 4c 2b bc
       -0.010771692 0.013188043 0.050280295 -0.010455142
0002e0 d2 05 d0 3a 1e 16 b0 3c 6d 54 21 bc 38 e3 90 bb
       0.0015870875 0.021494921 -0.009846789 -0.004421618
0002f0 ae ec 93 bb c1 98 32 3c b1 74 af 3c 7c 21 b6 3c
       -0.0045142984 0.010900677 0.021417947 0.022232763
000300 39 ad be bb b7 61 54 bd 11 5e fe 3c f1 18 8d 3c
       -0.0058189896 -0.051851 0.031050714 0.017223807
000310 9b c3 3a bc d1 81 1f bd ba 23 e0 bb 25 52 af bb
       -0.011399175 -0.038942162 -0.0068401964 -0.0053503686
000320 4d 0f 14 bc fa ba fa bc ac cd 13 bc 0e 3f b7 3c
       -0.009036851 -0.030606735 -0.009021204 0.022368934
000330 a5 9e 8a bd 06 1d 9f 3b 70 66 a4 3c e8 d2 c5 3c
       -0.0676854 0.004855755 0.020068377 0.02414842
000340 01 70 30 bd 0e b9 a4 3c f8 11 51 bd a5 49 3e 3c
       -0.043075565 0.020107772 -0.051042527 0.011614238
000350 dd 61 03 bb 6f f2 f0 bc da 51 d9 3b d8 fd 54 bd
       -0.0020047345 -0.029412476 0.006632072 -0.051999897
000360 e6 b2 cd 3c aa da 6f bd 8f b6 e8 3c 09 3d 00 bd
       0.02510972 -0.058558144 0.028407363 -0.031308208
000370 9f c5 a1 bc 8d 4a d4 bb 8a 20 8b 3c 27 f8 68 3c
       -0.019747553 -0.0064786137 0.01698329 0.01421932
000380 a9 a4 8c bb 6b 81 fd 3c c4 73 ed 3c bb 44 12 bd
       -0.00429209 0.0309455 0.028985865 -0.035710078
000390 18 2f 4c 3d fb 15 cb bb c6 0e 76 bc 54 a2 0f bd
       0.0498496 -0.0061976886 -0.015018171 -0.035066918
0003a0 54 94 15 3d a6 22 9f bc b9 66 ea 3c 82 02 12 bd
       0.03651841 -0.019425701 0.028613435 -0.035646923
0003b0 d9 99 c8 bc 15 94 3d bd d8 66 34 bc 0e ea 7e 3c
       -0.024487423 -0.0462838 -0.011010848 0.015558733
0003c0 41 d0 f2 bc 99 52 e5 3b ed bb ce ba 31 b8 30 3d
       -0.029640319 0.006998372 -0.0015772559 0.04314441
0003d0 94 d7 b0 3b cb 82 c6 bc 28 33 26 bd f1 30 9e 3c
       0.0053967927 -0.024232289 -0.04057613 0.019310446
0003e0 9b 0d 92 bc 56 19 16 bd de 3b 68 3d 5b d4 95 ba
       -0.017828753 -0.036645256 0.05669772 -0.0011431085
0003f0 12 6d e6 bc b9 d9 21 bd ac ac c3 bc 5e 7c c0 bc
       -0.02812818 -0.039514277 -0.023886047 -0.023496803

action_model._discrete_distribution.branches.3.bias f4 [2]
000000 33 d3 22 bd 30 d3 22 3d
       -0.039752197 0.039752185

action_model._discrete_distribution.branches.3.weight f4 [2, 256]
000000 00 f8 66 bc 41 e3 25 bc 22 63 7f bc 98 ff 13 bc
       -0.014097214 -0.010124982 -0.0155876 -0.009033106
000010 c6 3a b1 3c 50 8a 9e bb ec 95 2e 3d e4 60 08 3c
       0.02163447 -0.0048382655 0.042623445 0.008323882
000020 61 93 4e 3c 31 3f fa bb ea 78 1c 3d 82 80 da 3c
       0.01260838 -0.0076369275 0.03820125 0.026672605
000030 aa be fe 3c 9b 75 b4 3c f8 0a 84 3d 07 f8 e0 39
       0.031096775 0.022028735 0.064474046 0.00042909404
000040 1a f7 17 3d 3f d7 8b bc 4f 05 c8 3c 2b d6 1c 3d
       0.03710089 -0.01707041 0.024416594 0.038290184
000050 96 4d 14 3d 04 b1 f7 3c 0f bc 83 bc 29 e5 01 3d
       0.036206804 0.030235775 -0.016080884 0.031712685
000060 77 2e 28 3c 94 a4 c2 3b d8 2f b5 bc 48 f3 c5 3c
       0.010264984 0.0059400294 -0.02211754 0.024163857
000070 e3 22 de 3c 39 0a 6b 3c 4f 44 0a bc d6 fc cd 3c
       0.027116245 0.014345699 -0.008439138 0.025144976
000080 34 8c 60 3c 76 3b b8 3b 52 3c e1 3c 2c 7b 0c 3d
       0.013705302 0.0056223227 0.027494583 0.034297153
000090 9a d1 11 3d f1 64 a4 bb 3e e8 2f 3d 28 5f 15 bd
       0.035600282 -0.005016916 0.042946093 -0.0364677
0000a0 7c 84 1f 3a 69 06 69 bc d1 0b c3 bb 5d fc 78 3c
       0.00060851104 -0.01422272 -0.0059523364 0.015196887
0000b0 90 72 10 3b 48 5b 5a bd 74 f4 bd bc 3f 8c 17 bc
       0.002204094 -0.05330971 -0.023187853 -0.009249746
0000c0 9b 43 07 3d d7 83 9b 3b d6 bb 2a 3b be 03 d0 3c
       0.033023458 0.004745941 0.00260519 0.02539241
0000d0 4c 34 89 bc da 94 eb bc 50 d4 ca 3c bc ef 0d 3d
       -0.01674857 -0.028757501 0.024759442 0.034652457
0000e0 a9 63 30 3b 81 c3 09 3d c5 2c 18 3d 05 02 fa 3b
       0.002691487 0.033633713 0.03715207 0.0076296353
0000f0 93 87 72 3d 87 9e 24 3d 64 e4 e4 3b e3 99 e2 3c
       0.059211325 0.040190246 0.006985234 0.02766127
000100 4d 55 68 3c 07 cb fb bc cc f5 65 3c 2a 58 1e 3d
       0.014180494 -0.03073646 0.014035653 0.0386583
000110 d3 7d 47 3d 9b 20 a6 3b fe cb 2a 3d 22 4f 58 3d
       0.04870398 0.005069805 0.04169845 0.052809842
000120 ae 59 18 3d c6 fd aa 3c 07 69 2e 3d da 56 87 3c
       0.0371949 0.020872962 0.04258063 0.016520906
000130 0c a9 d5 3c c7 70 4d 3b 8c 2c 36 3d 53 dc ee bb
       0.026081584 0.0031347738 0.044476077 -0.0072894483
000140 e1 a2 a1 bc bf 58 04 3d a1 7b a5 3b 2b 69 84 3c
       -0.019730987 0.032311197 0.005050138 0.01616343
000150 cd 95 49 3d 6b ad db 3b 00 b5 bb 3b 92 09 94 3b
       0.049215127 0.0067040226 0.005728364 0.0045177424
000160 13 85 45 bb 27 5d ba 3c e0 37 27 bd 6c 13 02 bc
       -0.0030139133 0.022749497 -0.04082477 -0.007939201
000170 52 b9 71 3b 07 85 7d bc 07 e2 00 3d 2a 11 06 bd
       0.003688414 -0.015473611 0.031465556 -0.032731213
000180 85 c6 68 3c 64 29 26 bd 00 67 0d 3c 15 e0 79 3d
       0.014207487 -0.040566817 0.008630514 0.061004717
000190 3b bd c8 bb 49 86 76 3c 32 c3 ce bb 3e be 58 bc
       -0.0061260737 0.0150466645 -0.00630989 -0.013228951
0001a0 55 30 3a bd 12 88 61 3c 2d 6d c9 bc a6 ca 34 3b
       -0.04545625 0.013765352 -0.024588192 0.0027586608
0001b0 bc b5 53 3a 65 f6 e5 bc 77 c1 df bb 2a cc dc ba
       0.0008076092 -0.028071592 -0.0068284827 -0.0016845514
0001c0 18 9e cf bb 1d f3 18 bd e6 e3 0b bc 87 f7 bd bc
       -0.006335985 -0.037341226 -0.008538222 -0.02318932
0001d0 b3 2b 55 3c 45 80 0d 3d cb 57 9b 3c 4d d7 00 3d
       0.013010907 0.034546155 0.018962761 0.031455327
0001e0 99 1e dd 3b d7 4d aa bc 95 2f 34 3c 33 26 dd bb
       0.0067480323 -0.02078907 0.010997673 -0.0067489385
0001f0 ef e5 aa b9 85 83 ad 3b 43 15 3b 3c a1 36 3c bc
       -0.0003259624 0.0052952194 0.011418643 -0.011487634
000200 fb a1 37 3c 2c fa ee 3b 7b 28 94 bb e1 f0 18 bd
       0.011208053 0.0072930064 -0.004521427 -0.037339095
000210 c2 c7 01 bc 41 3b c0 3c 8e 96 79 3d 64 8d 81 3c
       -0.007921161 0.023465754 0.060934596 0.01581449
000220 9c d8 47 bc 8a fe bd 3c 1c 80 d6 3b eb fd 17 3d
       -0.01219764 0.023192663 0.0065460335 0.03710739
000230 83 ab b7 3c 5b 45 dc 3c 76 fb 08 bd 1a 62 3e bd
       0.02242065 0.02688854 -0.033442937 -0.046480276
000240 71 0e 20 bd 68 ce 9a 3b 64 1b 82 3c c5 3b c5 3b
       -0.039076272 0.0047243126 0.015882201 0.006019088
000250 fa 49 a5 ba e1 dc d0 3c df 2a 25 bd d6 8e 14 bd
       -0.0012610548 0.025495948 -0.04032409 -0.03626903
000260 29 dd 8a bd 1d 4d ea 3c 67 f2 c8 3c 23 2c 54 3c
       -0.06780464 0.028601224 0.024529649 0.012949976
000270 64 40 6e 3c 60 a6 fd 3a 8e e9 78 bc c3 8a 48 3d
       0.014541719 0.0019351952 -0.0151924025 0.04896046
000280 90 2e 44 bc cf e0 09 3d de 99 b9 3c 94 d7 20 bc
       -0.011973992 0.03366166 0.022656377 -0.009817023
000290 66 47 51 3c 46 aa 93 3b b4 2e ec 3c 24 9c 99 3a
       0.01277337 0.004506382 0.028830864 0.0011719507
0002a0 ea 57 5c 3b 4a 9d 12 bc 68 b7 2a 3c 80 38 24 3c
       0.0033621737 -0.008948633 0.010419704 0.010023236
0002b0 0b b2 52 3c 89 2d fe 3c 04 57 0a bd 84 df bf 3a
       0.012859832 0.031027572 -0.03377439 0.0014638756
0002c0 1a 2f db ba 29 2f 22 3c 9d 49 e6 bb 41 36 e3 bb
       -0.0016722411 0.009898939 -0.0070278184 -0.006933958
0002d0 dd 00 40 3c f6 4f ec 3b 24 2e d8 3b 6b 5e 92 bc
       0.011718956 0.0072116805 0.0065972973 -0.017867288
0002e0 0b f6 9d 3c 38 32 5f 3c 29 4a c4 bc f1 84 95 bb
       0.019282361 0.013622813 -0.023961144 -0.004562967
0002f0 66 06 2f bb 35 af f9 bc 72 5b 33 3d 8e 4c a2 bc
       -0.0026706695 -0.030479053 0.04378838 -0.019811895
000300 2c 48 03 bc c6 2e 1d bc b0 1f 3a 3d 53 c4 b5 3c
       -0.008012813 -0.009593671 0.045440376 0.022188341
000310 9e bf bf 3c 74 1b 4d 3c a8 a9 70 bc b3 c1 d9 3b
       0.0234068 0.012518752 -0.014688887 0.006645405
000320 7f 43 51 3c c6 b1 3c 3c 52 a5 19 3d 39 4b 40 bd
       0.01277244 0.011516994 0.037511177 -0.046946738
000330 91 3f 0a bb 6e bf 78 3c 65 dd c7 3b de a1 04 3c
       -0.0021095017 0.015182359 0.0060993903 0.008095233
000340 74 ee 6b bc 23 58 d5 3b 4b 9c 0d 3d db c7 37 b9
       -0.014400113 0.006510751 0.03457288 -0.00017526692
000350 9f 6c 1a 3d 38 b4 98 bc 07 9a b4 3c f1 dd 9c 3c
       0.037701245 -0.018640622 0.022046102 0.019148799
000360 96 a0 c1 ba f1 55 4c bd b3 15 24 3c 4e 99 26 bd
       -0.001477259 -0.049886648 0.010014939 -0.040673546
000370 e5 b2 14 3c e2 bc 2f bc 13 02 a4 3c 6f b4 96 3c
       0.009075855 -0.0107261855 0.02002052 0.018396584
000380 b4 35 18 3d 35 64 d5 bc bf 68 b3 bc ed 06 c1 3c
       0.03716059 -0.026048759 -0.021900533 0.023562873
000390 8f b4 15 3b 52 f2 dd bc ad dd 95 bb 8d a7 47 bc
       0.0022843217 -0.027093086 -0.004573545 -0.012185943
0003a0 f3 19 e8 3c 62 e9 c9 3c b1 51 c9 bb ae 11 74 bc
       0.028332686 0.024647418 -0.0061437716 -0.014896793
0003b0 4f a7 d2 3c 74 bd ad 3c d0 3d 04 bb 01 1e a9 3c
       0.025714545 0.021208502 -0.0020178445 0.02064419
0003c0 a5 cc 79 bc 86 88 0d 3b 32 90 08 3d 1f 55 02 3c
       -0.015246545 0.0021596267 0.03334064 0.007954865
0003d0 46 aa 9b 3b 89 eb 2e bc ff 91 e1 bb 5b d4 3c bc
       0.004750523 -0.010676273 -0.006883859 -0.011525239
0003e0 09 93 41 3c cf b6 68 3c 9f 9b 87 3c df ea c0 bc
       0.011814841 0.014203741 0.016553698 -0.023549495
0003f0 ed 59 0f 3c 6d f0 cd 3c d2 e0 00 3b 28 a5 75 3c
       0.008749467 0.025139058 0.0019665253 0.01499299

action_model._discrete_distribution.branches.4.bias f4 [2]
000000 9b 02 f9 bc 9a 02 f9 3c
       -0.03039675 0.030396748

action_model._discrete_distribution.branches.4.weight f4 [2, 256]
000000 6b 83 3d 3d d3 68 ad 3b 76 86 28 bd d8 20 b9 3b
       0.046267908 0.005292037 -0.041143857 0.0056496672
000010 c1 9f e7 bb d5 eb 0b bc c3 64 58 bc 02 00 05 bd
       -0.0070686047 -0.008540113 -0.013207617 -0.03247071
000020 15 07 ee bc 7f 06 31 bd 28 a3 ed 3b 05 d9 15 3d
       -0.029056111 -0.043219086 0.0072521158 0.03658392
000030 a6 45 83 3b 14 76 16 bd b1 10 91 3b f7 40 13 bc
       0.0040061055 -0.0367337 0.0044270386 -0.008987657
000040 c0 23 1d bd 86 a7 d6 3c ab 14 88 bc b7 46 54 bd
       -0.038364172 0.026202928 -0.016611418 -0.05182525
000050 11 be b9 3c b6 21 4c bc 35 9d c2 bb fd 4e 61 bd
       0.022673639 -0.012459209 -0.0059391507 -0.05500697
000060 e4 cc 8a bc aa 01 aa bc 4b ec 80 3d b2 63 18 bc
       -0.016943403 -0.020752747 0.06295069 -0.009301113
000070 66 71 fd 3c d3 70 33 3c e6 0e f1 bc ab 51 c4 bb
       0.030937862 0.010952192 -0.02942605 -0.005991181
000080 d5 80 b9 bc 5b 07 60 3c 17 de 28 bd 55 d1 85 3b
       -0.02264444 0.013673629 -0.041227426 0.004083792
000090 05 ff 8a bc e8 a0 3b bc b6 63 e8 bc ac 96 54 ba
       -0.016967306 -0.011451937 -0.028367858 -0.000810961
0000a0 fd b5 d9 bb 64 35 b3 bc b6 6c c6 bc ca a7 b5 bb
       -0.006644009 -0.021876045 -0.02422176 -0.0055436837
0000b0 bb 05 16 bd 66 fc e6 bc 49 52 c6 3c 71 d5 da bc
       -0.03662656 -0.028196525 0.024209158 -0.026713105
0000c0 dc 64 7d bc 8b a6 73 bc 63 6a 9b 3c 7d be 10 3b
       -0.015465941 -0.01487125 0.018971628 0.0022086196
0000d0 04 77 1d bd 2a 29 69 bb 9c 34 b6 3c 84 9e 49 3b
       -0.03844358 -0.0035577514 0.022241883 0.0030764649
0000e0 64 06 bb 3c f0 3a 6a bb b7 56 0f bd 11 23 2e bd
       0.022830196 -0.0035740696 -0.034994807 -0.04251391
0000f0 d9 af 98 bb 45 b4 44 3d 59 b6 d3 bc 7d fd 3f 3d
       -0.0046596345 0.04802348 -0.025843786 0.046872605
000100 d8 64 22 3c e8 f0 12 39 65 b8 35 3d 01 5c 0d 3c
       0.009911738 0.0001401339 0.044365305 0.0086278925
000110 e0 f1 96 bc 68 26 44 bd 82 7a f5 bc 76 cf 87 3d
       -0.018425882 -0.04788819 -0.029965643 0.06631367
000120 aa fe 8b ba 8b a4 7f 3c a2 46 6d bc 5d e5 4f bd
       -0.0010680754 0.015603195 -0.014482172 -0.050755847
000130 10 71 b1 3c 93 bd 86 3d bb 3f 59 bc dd 1c 5e 3b
       0.021660358 0.06579127 -0.013259823 0.0033891716
000140 3f 63 01 bd 0a f3 70 bc 20 6d 24 bd e0 75 00 3d
       -0.03158879 -0.0147063825 -0.040143132 0.031362414
000150 79 04 33 bd 8b 50 bb bb 93 2c 11 3d 93 5c dd 3c
       -0.043705437 -0.0057163886 0.0354429 0.027021682
000160 08 ac 2b bd 6e ef 72 3a 81 ec b6 bc 94 41 80 bc
       -0.04191211 0.0009267245 -0.02232957 -0.01565627
000170 a7 6a b6 3b 0c b7 28 bc 41 ef b1 bb 36 56 1b bc
       0.005566913 -0.010297548 -0.0054301326 -0.0094810035
000180 c9 91 2e bd 14 ab f0 38 6a 72 67 3c 2a c7 19 3c
       -0.0426195 0.000114759576 0.0141263995 0.009385863
000190 57 a3 1c 3a 27 c4 20 bb b1 da 21 3d db 5c 14 bd
       0.0005975267 -0.0024530978 0.0395152 -0.036221366
0001a0 2e 4c c3 bc 1e cf 51 bc f3 a1 94 bc ff fb 89 3c
       -0.023840036 -0.012805728 -0.01814363 0.016843794
0001b0 91 bd 1e 3d 30 ad 8e bd d3 b9 1f bd 4d bf cd 3a
       0.038755003 -0.06966627 -0.038995575 0.0015697271
0001c0 6e 96 46 bd 57 90 e8 bc d5 f0 14 bd 78 74 56 bc
       -0.048483305 -0.02838914 -0.036362488 -0.013089292
0001d0 0c 9d b5 bb 16 19 82 bc 3e 82 91 3c 00 9f 30 3d
       -0.005542403 -0.015881103 0.0177623 0.043120384
0001e0 2b 9f 9c 3b 90 0c cf bc a5 7c 2e bc fe bf bc 3c
       0.0047797165 -0.025274545 -0.010649835 0.023040768
0001f0 64 5a 90 3c 5d 6b 7b bc bb a1 68 3c 4c 01 57 bd
       0.017621227 -0.015345422 0.014198716 -0.05249147
000200 23 48 f1 bc 3f c7 77 bc 23 b6 5b bb 6e 27 17 3d
       -0.029453343 -0.015123188 -0.003352531 0.036902837
000210 af 33 bd bc d2 ce 97 bc da 01 6c b9 2e c4 32 3d
       -0.023095934 -0.018531237 -0.00022507404 0.043644123
000220 0a e7 d1 bc 5c 7b ef 3c c4 a1 76 bd b9 88 07 bd
       -0.025622863 0.029233627 -0.060212865 -0.033089373
000230 6b a6 0a bb 10 73 96 bb 61 09 54 3d dc 6c a8 3c
       -0.0021156322 -0.0045913532 0.051766757 0.02055972
000240 5c 83 b6 bc db 38 8b bc 56 8e d5 3c 8d 65 1e 3d
       -0.022279434 -0.016994884 0.026068848 0.038671065
000250 ce bc a9 bc 95 e8 0a bb c0 ad dc bc 63 2e 40 bc
       -0.020719912 -0.0021195759 -0.02693832 -0.011729809
000260 de c9 62 bc b7 49 24 3d 13 04 b3 3a 10 c0 5e 3c
       -0.013842074 0.040109362 0.001365783 0.013595596
000270 15 71 1c bd 98 61 d9 3c 58 69 2a 3d 9a 3f 2b 3c
       -0.03819378 0.026535794 0.04160437 0.0104521755
000280 48 86 89 bc 2e 6d b9 bc 24 8b 1f bc 62 e0 0e bd
       -0.016787663 -0.022635069 -0.009737764 -0.034881957
000290 51 0c 5c bb bb 79 45 b9 37 d0 d2 bc 56 f3 94 bb
       -0.0033576677 -0.00018832732 -0.02573405 -0.0045456095
0002a0 9b b7 5e bc a6 60 0f 3d e6 9f db 3b 40 ad 2a 3d
       -0.01359358 0.03500428 0.006702411 0.04166913
0002b0 ee 3c 66 3c 5b 30 47 3d 61 77 7f 3c 90 f3 51 bc
       0.014052613 0.0486301 0.015592427 -0.0128144175
0002c0 24 85 05 bc 90 84 8f bb d0 64 85 bc 14 d1 fd bb
       -0.008149419 -0.0043798164 -0.016283423 -0.0077458713
0002d0 51 e2 be bc fc 69 7f bc 53 d9 21 3d 47 ac af bc
       -0.023301275 -0.0155892335 0.039513897 -0.021444453
0002e0 0c 94 29 3c cb d5 93 bc 04 1a 87 bc 4f 8c 03 3d
       0.0103502385 -0.01804628 -0.016491897 0.03211623
0002f0 60 89 87 bd fd da 93 3c ef 9b 71 3c 63 87 6f bc
       -0.06617999 0.018048758 0.01474665 -0.014619681
000300 06 4e a8 3c f5 84 0f 3d a5 3c aa bc 85 ba cb bc
       0.020545017 0.035038907 -0.02078087 -0.024869213
000310 5c 61 60 bc bf 49 bb bc 2e 41 05 bc 68 09 04 3d
       -0.013695087 -0.022862313 -0.008133216 0.032235533
000320 b8 ae 04 bd 1c 33 7e bb c4 cc 97 3c 01 2a 2d 3d
       -0.032393187 -0.0038787788 0.018530257 0.042276386
000330 0c 65 75 bc c0 be e0 bb 3a 14 59 bc 44 c5 0e bd
       -0.014977705 -0.0068586767 -0.013249451 -0.034856096
000340 95 60 57 3a ad fe 64 bd 54 93 24 bc f6 d2 45 3d
       0.0008215991 -0.05590694 -0.010044891 0.04829689
000350 e9 c1 2a bd 3c d8 59 bd 33 e9 f6 bc b1 b7 36 3a
       -0.041688833 -0.053184733 -0.030140495 0.0006970121
000360 2c 6f f5 3b 8a 45 fd bc 22 d3 94 bd a3 95 cf 3b
       0.0074900594 -0.030916948 -0.07266833 0.0063349768
000370 2a 17 57 3b d4 51 5a 3c 5a e9 a5 bc b6 dd 00 bc
       0.0032820203 0.013325173 -0.020252872 -0.00786536
000380 cd 94 7d 3c 31 63 cc 3c b9 a5 13 3b 88 99 a2 bc
       0.015477371 0.024949642 0.0022529198 -0.0198486
000390 8b 22 19 bd ef 31 4d 3d d3 70 48 bd ca a2 f8 3b
       -0.03738646 0.05009645 -0.048935723 0.0075877653
0003a0 84 17 db 3c 6e 14 f8 3b 34 59 93 bc 76 f3 98 3c
       0.026744612 0.007570795 -0.017986871 0.018670779
0003b0 af 62 5b 3c 93 da 70 bc 90 8a 90 3c 84 56 ee ba
       0.013390227 -0.01470055 0.017644197 -0.0018183743
0003c0 8d c8 f7 bc f3 50 b3 3c 27 3d 2c bd f4 ef f0 3c
       -0.030246997 0.021889186 -0.042050507 0.029411294
0003d0 2c 74 23 bd a1 63 76 3c 7f 60 ff 3b a4 07 df 3a
       -0.039905712 0.015038402 0.0077934857 0.0017015827
0003e0 7e 8f 19 bc 5e 26 47 bc c2 b8 01 bd fb 57 a4 bc
       -0.00937259 -0.012155144 -0.03167034 -0.020061484
0003f0 b0 85 3b bc 58 17 14 bd b6 bb 3f 3d 65 33 35 bc
       -0.011445448 -0.036155075 0.046809874 -0.011059617

network_body.linear_encoder.seq_layers.0.bias f4 [256]
000000 80 c3 20 bd 6d 45 1d bd 1c 83 37 bd 82 6e 63 bb
       -0.039248943 -0.038396288 -0.04480277 -0.003470332
000010 fa 9d 20 bd fb c7 15 bc a4 09 af bc 80 d5 52 3c
       -0.03921316 -0.009141917 -0.021366902 0.012868285
000020 d6 a5 ba 3c 9d f2 4d bd 47 50 aa bc 69 22 8a 3c
       0.022784155 -0.050280202 -0.020790232 0.016862111
000030 da 37 3b 3c 20 09 ad bc 75 3a 32 bd 55 03 3a 3c
       0.01142689 -0.021122515 -0.04351278 0.0113533335
000040 66 92 09 bd 17 d9 f5 bc 97 cb bb 3c c5 90 43 bc
       -0.033586882 -0.030010743 0.022924228 -0.011936371
000050 34 5e 89 bb f4 8d 93 3b 53 80 18 bd 3d fa b5 ba
       -0.004192138 0.004503006 -0.037231755 -0.0013883781
000060 6c 85 b0 3b 03 a0 23 bd c7 a6 0f 3d 2f 64 bd bb
       0.005386999 -0.03994752 0.03507116 -0.005779765
000070 9d 20 1e bd 55 97 b9 3c 99 64 42 3d e2 14 87 3c
       -0.03860532 0.022655169 0.04745922 0.01648945
000080 38 3b 0d 3c 25 b3 9c 3b f4 25 8d bd 79 d6 d9 bc
       0.008620076 0.004782098 -0.068920046 -0.026591526
000090 b7 34 84 bb c5 7f 95 3c 36 f2 d4 3c b0 0a 09 3c
       -0.0040346044 0.018249402 0.025994401 0.0083643645
0000a0 02 b3 4a bb aa 26 71 bd dc 6d a3 bc af 5e 43 3b
       -0.003092945 -0.058874764 -0.019949846 0.0029811074
0000b0 1f f4 ac 3c 8b 02 05 3c 17 3e 68 bd bc d1 df 3c
       0.0211125 0.008118282 -0.05669984 0.027321689
0000c0 79 42 31 3d 31 a3 be bc 20 37 d3 3b 2f fc d6 3b
       0.043276284 -0.023271175 0.0064457804 0.0065608243
0000d0 cc 15 40 bc 6c d0 3b 3d 50 32 23 bd dc 71 dd 3c
       -0.011723947 0.045853063 -0.039842904 0.027031831
0000e0 5e 2c 7f 3c 81 1e 0b bc dc ea 4d bd 32 53 10 3d
       0.015574543 -0.008491159 -0.050272807 0.03523559
0000f0 bc 3a 9e ba 1d 32 82 bb 60 13 5d bc 17 b9 e0 bc
       -0.0012071948 -0.003973259 -0.013493389 -0.027432008
000100 1f 22 3a bd 49 fd 6b 3c c4 dd d5 3c 5f 07 33 bd
       -0.045442697 0.01440365 0.026106723 -0.0437082
000110 bb e9 f7 bc fb 10 5d 3c 27 3b 04 3d 4d ce 2b 3c
       -0.030262819 0.013492818 0.032282975 0.010486198
000120 2e bd 27 bd 19 32 6b 3d a7 a6 17 bd c3 34 04 3d
       -0.0409519 0.057420824 -0.037024166 0.03227688
000130 d9 be 10 3d 3e 48 b5 bb 33 98 ed 3c ef 89 57 bd
       0.035338257 -0.0055322936 0.029003238 -0.052621778
000140 03 c9 b2 3c d0 1f 97 bd df e0 06 3d e3 db 7b bc
       0.021824365 -0.07379115 0.032929298 -0.015372249
000150 b6 10 2f 3d d9 1c 8f 3c 2c b6 75 3d f9 01 31 bb
       0.042740546 0.01746981 0.059988186 -0.0027009232
000160 10 b9 16 3d 2c 27 1f 3c a7 ec 8d bb 4c f5 78 3d
       0.036797583 0.009713929 -0.0043311897 0.06078081
000170 35 2f c3 bc bf cb 77 bc a2 04 2b 3d f9 16 d3 ba
       -0.023826221 -0.01512426 0.041752465 -0.0016104869
000180 2b 74 a7 3b 4a da e9 3c bf 36 68 bd b6 65 4c bc
       0.005110284 0.028546471 -0.056692835 -0.012475422
000190 52 1d 0e 3d f5 51 d8 3c 29 15 a1 bc 64 bc 00 3d
       0.03469593 0.026406268 -0.01966341 0.031429663
0001a0 92 82 eb ba 45 2e 4a bc 11 46 3f bd de ae 2c bd
       -0.001796799 -0.012340133 -0.04669768 -0.042158954
0001b0 74 f9 04 3d db 38 3d 3b b7 4b 58 bc c4 60 90 3b
       0.03246446 0.0028873 -0.013201646 0.0044060666
0001c0 43 1e 00 bd 31 39 3b 3d fb d0 bb 3c 2c 7c 0b bd
       -0.03127886 0.04570884 0.022926798 -0.034053966
0001d0 f1 e0 2b bd b2 3b 74 3c 5d 7c 34 bd 02 61 59 bc
       -0.041962568 0.014906811 -0.044063915 -0.013267757
0001e0 60 f5 0a bd 03 2b 19 3b 42 d0 97 bd 26 98 19 bd
       -0.033925414 0.0023371584 -0.07412769 -0.037498616
0001f0 19 e2 13 3c 6c 6d f3 ba 2b 0c 17 bd 5d 01 76 3c
       0.009026074 -0.0018572039 -0.03687684 0.0150149735
000200 93 5a 0e 3d f9 b8 03 bc f7 b7 53 3c 23 db 57 3c
       0.034754347 -0.008039706 0.012922279 0.013174805
000210 3b d9 a4 ba 63 b0 0a bd 93 a1 5a bc 2e 24 39 3c
       -0.0012576947 -0.03385962 -0.013344186 0.01130013
000220 af a9 3d 3a 94 a5 ed 3c c2 21 04 bd 4e b5 e4 bb
       0.00072350627 0.029009618 -0.032258756 -0.006979621
000230 5f 29 23 bd 1d 32 0f 3d 56 90 c9 3c 9d 4e 97 bd
       -0.039834376 0.0349599 0.024604958 -0.07388041
000240 6a 20 cd 3c 5c 6b 4e bd 71 92 4c bc 61 02 fb 3c
       0.02503987 -0.050395355 -0.012486086 0.030640783
000250 55 e1 31 3c 6f f9 93 3b 25 43 bd 3a 8d f5 0f bd
       0.010856946 0.004515819 0.0014439566 -0.035146285
000260 f1 32 21 bb 99 95 a7 3c d7 55 1c 3c d0 00 3b 3d
       -0.0024597014 0.020457076 0.00954195 0.04565507
000270 4d 1b 13 bd ae ff 96 bd 21 a2 39 3c e2 d4 5e 3c
       -0.035914708 -0.07372986 0.011330158 0.01360056
000280 06 8d 5b bd 8a 1d ec 3c 16 16 1f 3d e3 60 41 3d
       -0.053601287 0.02882268 0.038839422 0.04721154
000290 9c 2d bc 3c 6d 1d 50 3c 0a 9f e2 3c bd 69 1f 3d
       0.022970967 0.012702328 0.027663726 0.0389192
0002a0 48 38 65 bd 30 72 63 bc 9d be 06 bc 2f 37 da 3c
       -0.055961877 -0.013882205 -0.008224157 0.026637642
0002b0 fe 28 53 b9 bf a3 cf bc 9d 53 ef 3c e6 fa af bc
       -0.00020137799 -0.025346635 0.029214675 -0.021481942
0002c0 31 41 34 3c 69 a8 e3 bc 94 4e e0 3c ea 4e 8a 3c
       0.011001871 -0.027790265 0.027381219 0.016883332
0002d0 27 34 ba bc bb 4c c4 3b 0f 79 b4 bc 68 80 0e bc
       -0.022729946 0.0059905923 -0.022030381 -0.008697607
0002e0 e7 c5 47 3c cd b4 99 3c 2a fd e4 b8 c1 55 16 3d
       0.01219318 0.01876297 -0.00010919043 0.036702875
0002f0 34 b3 77 bc d7 f5 81 3b ce 35 f2 bc 95 3e 03 bd
       -0.015118409 0.003966074 -0.029566672 -0.032042105
000300 bb 4e 0a 3d f7 77 5b 3c 71 d0 9e bc fa a4 20 3b
       0.03376649 0.013395301 -0.019386502 0.0024512396
000310 8d 4a 31 3c 39 0e 5b 3b ce f0 ac bc 99 79 a4 3c
       0.010820997 0.0033425225 -0.021110918 0.020077514
000320 c1 7e f6 3b 24 4e bf 3c 55 ad 9f 3c 16 27 44 3d
       0.0075224345 0.02335269 0.01949183 0.047888838
000330 2d d8 10 3d 69 2f 32 3c 60 3e 1b bc 2b a4 af 3c
       0.03536241 0.010875561 -0.009475321 0.021440586
000340 9f 44 06 3b 65 4f 01 3d 43 17 07 3d 61 39 1b bd
       0.0020487679 0.031569857 0.03298117 -0.037896518
000350 93 9c 49 bd ad 11 0a bd d8 bf 25 bd c1 67 cd bb
       -0.049221586 -0.033708263 -0.04046616 -0.006268472
000360 0f 6f 79 bb 48 4b 3d bc bb c3 7f bb 2d 2c e5 bb
       -0.003806058 -0.011553593 -0.0039026577 -0.0069937916
000370 e0 19 2b bc 6f 8c 16 bd 92 25 ec 3c 51 2e 79 bd
       -0.010443181 -0.03675502 0.028826509 -0.060835186
000380 48 0b bf bc 17 18 1e bd 51 56 60 3c 3b 9b 42 3d
       -0.023320809 -0.038597193 0.013692454 0.04751132
000390 e1 91 2c 3d b9 b1 51 3d 05 9b 45 3c e3 4e a4 bc
       0.04213131 0.05119488 0.012060885 -0.020057147
0003a0 1c 26 a6 3c dc 12 2f bd 40 31 04 3c 32 62 64 bd
       0.020281844 -0.042742595 0.008068383 -0.05575771
0003b0 75 ae 6b bb a4 6c 10 3d b6 9e 04 bd 64 41 ff bc
       -0.0035962139 0.035259858 -0.03237792 -0.03115911
0003c0 ed fc 42 bd 79 c4 c1 3c 73 81 6c 3c 8d aa 5c 3c
       -0.04760449 0.023653256 0.01443516 0.013468397
0003d0 2b 03 95 3c 51 66 89 bd bd e9 d8 bc 26 46 f0 3a
       0.018189987 -0.067089684 -0.026478643 0.0018331453
0003e0 d7 e4 3f 3c cd fd 2a ba 0a 68 96 3c cb a0 e0 bc
       0.0117122745 -0.00065228046 0.018360157 -0.027420422
0003f0 62 ec f7 ba 74 6e 8d ba a8 01 17 3d 78 19 2b 3d
       -0.0018915052 -0.0010790364 0.036866814 0.041772336
